results/4_like_3_without_pde/epoch900/model_weights.pth (torch, 749398 bytes, 128 tensors)

init_layer.0.weight f4 [64, 5]
-0.28038087 0.3220156 0.020260511 -0.17287739 0.17505506 -0.35945264 -0.29970923 -0.28139588
-0.22541109 -0.27016187 0.36820602 0.23392616 -0.00864589 0.08176142 -0.15168305 -0.23110053
0.36200333 0.19723399 -0.261662 0.23384464 -0.39869833 -0.25419408 -0.098538056 -0.102506444
0.027936146 0.5446212 -0.28656682 0.11321593 0.252064 -0.02399667 0.2642915 -0.32105792
0.02636618 -0.053449545 0.13689038 0.43678728 0.14567327 0.053007867 0.17241527 -0.13655187
-0.24375081 -0.43910205 0.008390794 -0.259416 0.18743277 0.09497329 0.054332204 -0.17439985
0.012966733 0.14190054 0.5419436 0.28726587 0.007260519 0.12767397 0.047439713 -0.19936748
0.044680968 0.08641693 0.06682254 0.05103045 -0.48274517 -0.2268081 -0.12770341 -0.11388867
-0.051157534 -0.024289178 -0.39945346 -0.19249268 0.07011868 -0.0907047 -0.45519924 -0.36899644
0.21758612 -0.26981395 -0.16623133 0.33231547 -0.28802362 0.12450668 0.28784856 0.038253553
0.042632557 -0.3202399 0.14711952 0.20866936 -0.12508006 -0.033812918 0.018055115 0.02368176
0.25734097 -0.22959818 -0.072210155 0.16518334 -0.031033011 -0.22948432 0.24799643 -0.16998097
-0.34982577 0.07251357 0.068611905 0.053292748 0.28453037 -0.15556361 -0.19610919 0.13395314
0.20770116 -0.13724594 0.01331934 0.0011337963 -0.011837311 0.009323256 -0.23815502 0.2518494
0.01761105 -0.17724298 0.0818193 -0.28503048 -0.31794918 0.07809716 -0.23180576 0.14308766
-0.28647098 0.42796144 -0.15761358 -0.09312661 -0.22525099 -0.46896827 -0.28721356 0.20321614
0.09437248 -0.20683065 -0.39283323 -0.109708525 -0.06513741 0.20907868 -0.08244154 0.06475787
0.54673487 -0.09236629 0.27867293 0.2106906 -0.3705312 0.17348053 0.055265322 -0.16450882
-0.06332901 -0.5711291 0.39701596 0.008865203 -0.25080037 0.018608313 -0.03989034 -0.3320317
0.09723983 -0.025750745 -0.19451095 0.51049656 0.13767232 0.16337997 0.08159215 0.16186503
-0.5521106 0.23164764 -0.14703698 -0.17095669 0.059803184 0.28219193 -0.3671997 -0.23297383
0.25107056 -0.117936715 0.07405641 0.26367694 0.20289429 0.23467553 -0.13441089 -0.3786623
-0.4218513 0.15961273 -0.25171918 -0.12531662 -0.24892706 -0.47175565 0.025123553 -0.0326756
-0.054420404 0.28849077 -0.20166418 -0.1432718 -0.15619265 -0.065335795 0.24077499 -0.3084899
0.0017015168 0.1814434 -0.19643961 0.39751583 -0.22968 0.090286046 -0.052517895 -0.08015719
-0.4328757 -0.09543432 -0.09573059 0.018041024 -0.021454364 -0.38345885 -0.48634544 -0.15460347
0.1850773 0.02182387 0.3339234 -0.26278955 -0.050129503 0.1274694 0.026287992 0.63969135
-0.116877794 -0.15666616 0.19675116 0.19827439 -0.619338 -0.27230087 -0.1201335 -0.12168582
0.07235956 -0.32755393 0.20049055 0.18895367 -0.16593854 0.020474086 -0.58567595 0.35610554
0.0998444 -0.09877102 -0.051433023 -0.15109459 0.11788353 0.18067612 0.0054970644 -0.19341996
0.55186516 0.1315935 -0.09219001 0.1557407 -0.055648513 0.16775434 -0.42406216 -0.022551807
-0.00028051183 -0.21890059 -0.579648 -0.2657022 0.018075472 -0.109532654 -0.14913306 0.22571316
00000000: 158e 8fbe 3bdf a43e 5ff9 a53c c506 31be
00000010: a241 333e 2d0a b8be 7d73 99be 1f13 90be
00000020: 2ad2 66be a852 8abe 8085 bc3e 578a 6f3e
00000030: 7ea7 0dbc 8872 a73d cd52 1bbe 9ea5 6cbe
00000040: 8058 b93e b5f7 493e 90f8 85be f874 6f3e
00000050: 3022 ccbe ba25 82be 52ce c9bd e6ee d1bd
00000060: 58da e43c 4c6c 0b3f e3b8 92be c1dd e73d
00000070: 880e 813e aa94 c4bc 3751 873e b461 a4be
00000080: e3fd d73c e9ed 5abd fe2c 0c3e 95a2 df3e
00000090: 602b 153e c71e 593d a18d 303e 41d4 0bbe
000000a0: d099 79be fcd1 e0be 8a79 093c 2dd2 84be
000000b0: 60ee 3f3e 5b81 c23d 728b 5e3d e095 32be
000000c0: 6c72 543c 604e 113e d1bc 0a3f 8314 933e
000000d0: a6e9 ed3b f7bc 023e 2550 423d fd26 4cbe
000000e0: 6403 373d 5cfb b03d 41da 883d 4e05 513d
000000f0: 602a f7be 6240 68be afc4 02be 773e e9bd
00000100: 908a 51bd 19fa c6bc 2a85 ccbe cd1c 45be
00000110: 629a 8f3d 63c3 b9bd e00f e9be 1aed bcbe
00000120: e5ce 5e3e 0e25 8abe 8c38 2abe 4125 aa3e
00000130: d577 93be 5cfd fe3d e360 933e c2af 1c3d
00000140: 7a9f 2e3d 7cf6 a3be 80a6 163e 6cad 553e
00000150: fd14 00be 6a7f 0abd 52e8 933c 4000 c23c
00000160: 32c2 833e c91b 6bbe ebe2 93bd d225 293e
00000170: f138 febc f0fd 6abe c7f2 7d3e 7e0f 2ebe
00000180: 5d1c b3be ff81 943d 6684 8c3d 7f49 5a3d
00000190: f7ad 913e 114c 1fbe d9d0 48be 032b 093e
000001a0: 9daf 543e 338a 0cbe 5c39 5a3c e49b 943a
000001b0: 48f1 41bc 92c0 183c e9de 73be 68f2 803e
000001c0: 0c45 903c 2f7f 35be e190 a73d 84ef 91be
000001d0: 3cca a2be 67f1 9f3d 7d5e 6dbe 9285 123e
000001e0: 53ac 92be c31d db3e 7465 21be 2ab9 bebd
000001f0: 32a8 66be 9c1c f0be a80d 93be e417 503e
00000200: 5c46 c13d 6acb 53be 7021 c9be ddae e0bd
00000210: c366 85bd b918 563e 1cd7 a8bd c69f 843d
00000220: d1f6 0b3f 8a2a bdbd 38ae 8e3e 47bf 573e
00000230: 44b6 bdbe e1a4 313e e45d 623d 0075 28be
00000240: a4b2 81bd 8435 12bf ad45 cb3e 5b3f 113c
00000250: e868 80be 7670 983c 0e64 23bd 0f00 aabe
00000260: ad25 c73d 3af3 d2bc e12d 47be e7af 023f
00000270: f9f9 0c3e 144d 273e c919 a73d f2bf 253e
00000280: 1f57 0dbf 0a35 6d3e dd90 16be 450f 2fbe
00000290: 2ff4 743d 767b 903e 9901 bcbe b190 6ebe
000002a0: 528c 803e ce88 f1bd e3aa 973d aa00 873e
000002b0: 85c3 4f3e c84e 703e 02a3 09be 06e0 c1be
000002c0: e5fc d7be 8571 233e 56e1 80be 0053 00be
000002d0: bce6 7ebe f589 f1be e9cf cd3c dad6 05bd
000002e0: eee7 5ebd 10b5 933e 0e81 4ebe d8b5 12be
000002f0: f7f0 1fbe c6ce 85bd b88d 763e 63f2 9dbe
00000300: 6e05 df3a 4ccc 393e 7727 49be 3287 cb3e
00000310: 3c31 6bbe e4e7 b83d 011d 57bd 7429 a4bd
00000320: e2a1 ddbe 1273 c3bd 660e c4bd c5ca 933c
00000330: 10c1 afbc b854 c4be 4502 f9be 5f50 1ebe
00000340: e784 3d3e f9c7 b23c 02f8 aa3e 5a8c 86be
00000350: 9854 4dbd 5787 023e ea59 d73c d0c2 233f
00000360: a05d efbd 186d 20be 2379 493e 7108 4b3e
00000370: ef8c 1ebf 056b 8bbe 8d08 f6bd 6a36 f9bd
00000380: 4031 943d 26b5 a7be 654d 4d3e 127d 413e
00000390: cbeb 29be 45b9 a73c dcee 15bf 7753 b63e
000003a0: 397b cc3d 7648 cabd 6fab 52bd 8ab8 1abe
000003b0: ec6c f13d 2903 393e b820 b43b e20f 46be
000003c0: 0947 0d3f 72c0 063e 1ece bcbd 7d7a 1f3e
000003d0: b2ef 63bd cbc7 2b3e ad1e d9be 91be b8bc
000003e0: a911 93b9 7a27 60be d063 14bf 1e0a 88be
000003f0: 0313 943c a852 e0bd 56b6 18be 5a21 673e

init_layer.0.bias f4 [64]
-0.020330524 0.015270869 0.1182381 -0.036380455 -0.042658314 0.016829291 0.034911092 0.0673786
-0.028505176 -0.08967697 0.022781936 -0.14375202 -0.019782022 -0.038596928 0.0139220655 0.011121659
0.011695941 0.017939212 -0.04102734 -0.041301556 -0.03264721 -0.03044649 -0.027721127 -0.011847439
-0.017657869 0.018531838 -0.07244975 -0.0067388937 0.01035026 -0.041220922 0.055120476 -0.015977444
-0.04849007 0.0037178774 -0.010402666 0.039133217 -0.036322318 0.06391394 0.052109774 0.059868578
-0.111850835 -0.083741695 -0.03254758 -0.025482269 -0.046665102 0.017330978 -0.019768607 0.016139576
0.023745557 0.0273273 0.0095373755 0.10206935 0.034465298 -0.020927446 -0.004226625 -0.03342684
-0.03787952 0.011112058 0.03171603 0.030552994 0.02043861 0.027057566 0.0056154863 -0.030287499
00000000: 338c a6bc ab32 7a3c d126 f23d ac03 15bd
00000010: 7cba 2ebd 95dd 893c effe 0e3d cbfd 893d
00000020: b083 e9bc 8fa8 b7bd 2fa1 ba3c bb33 13be
00000030: e80d a2bc d017 1ebd 6019 643c 9e37 363c
00000040: 55a0 3f3c 41f5 923c 490c 28bd d22b 29bd
00000050: 15b9 05bd eb6a f9bc 6b17 e3bc c31b 42bc
00000060: 3ca7 90bc 15d0 973c 8960 94bd f0d1 dcbb
00000070: 2394 293c 45d7 28bd 02c6 613d 21e3 82bc
00000080: 869d 46bd a2a7 733b f26f 2abc 274a 203d
00000090: b6c6 14bd 50e5 823d 0f71 553d c138 753d
000000a0: 0d12 e5bd c480 abbd 9c50 05bd 31c0 d0bc
000000b0: e823 3fbd b2f9 8d3c c6f1 a1bc 2537 843c
000000c0: 0b86 c23c 80dd df3c a742 1c3c bc09 d13d
000000d0: 7c2b 0d3d 0970 abbc 807f 8abb 95ea 08bd
000000e0: 8e27 1bbd 590f 363c abe8 013d 464a fa3c
000000f0: df6e a73c d4a7 dd3c 1d02 b83b 7d1d f8bc

hiden_layers.0.weight f4 [64, 64]
-0.23311976 -0.25848433 0.16777691 0.055741653 -0.23886116 0.16910836 0.22854146 0.12472903
-0.0043555093 -0.09301665 0.44427356 -0.19518337 -0.3107989 -0.04552575 -0.25697526 0.2773621
-0.18477005 -0.21205181 -0.20906393 -0.17325582 -0.13387299 -0.14117992 -0.04798956 -0.26348513
0.004540435 0.04286853 -0.22925763 0.18435511 -0.16743144 -0.377785 -0.16893469 0.07690894
-0.12689026 0.172523 -0.09371096 -0.055929054 -0.006042846 0.14185809 0.038899276 0.10826416
-0.047763415 0.07532154 0.29771256 0.13757002 -0.38295007 -0.061681025 -0.2515899 -0.06809548
0.15317583 0.10260875 -0.3414481 -0.021137381 -0.0076117753 0.077864416 0.08091971 -0.032313738
-0.06948507 -0.069363564 -0.055075288 0.004097145 0.0787727 0.2513592 0.09730739 -0.07370413
-0.16464487 0.25736257 -0.014427456 -0.2679607 -0.07245996 -0.0748559 0.2912521 0.014970605
0.29622093 -0.12767012 -0.25220987 0.15864494 0.03208931 0.078444354 0.037382733 -0.038478393
-0.07628137 -0.10029929 -0.078964405 0.019593768 -0.17268504 -0.008985869 0.08088911 0.28462425
-0.13246867 0.11747912 0.008931761 -0.14353637 0.08908349 0.013133417 0.13962416 0.00029315846
-0.26910898 -0.04193038 -0.1954926 0.1956573 0.3200878 0.18032105 0.101765335 -0.062453732
0.06019208 -0.09400789 0.113987915 0.07530681 0.04435665 -0.037031863 -0.2375431 -0.0525621
-0.05822874 0.2577683 0.19053096 0.12194606 -0.16440661 0.40324044 0.1414957 0.09466229
0.06530943 -0.30541095 0.15122272 -0.10119047 -0.20979229 -0.03640431 -0.037976906 0.13394961
0.01979813 -0.13982955 0.032199353 0.16092657 0.019881384 0.18602385 0.011454517 0.09183901
-0.06840848 0.1847503 0.5766517 0.035935793 -0.26987094 -0.20861009 -0.114002235 0.09387688
-0.0067702853 -0.2016305 -0.030963633 -0.11274037 0.17212717 -0.2819457 0.0821157 -0.05940885
-0.12734619 -0.28321138 0.056139115 0.02178121 -0.009451143 -0.17850319 0.049877297 0.22342153
-0.044757582 -0.057296325 0.18747073 -0.26966932 -0.18003444 -0.14632477 0.092689745 -0.10519058
-0.0057067694 0.04716932 0.24823381 -0.115139045 -0.2139881 -0.18316223 -0.298035 0.06767191
0.20146196 -0.14718981 -0.29715428 0.101838514 0.15399899 -0.07552616 0.01717606 -0.18956336
-0.03684214 0.059474256 -0.13852768 -0.17463735 0.113112375 0.32005417 0.3096884 0.15553616
-0.05220726 0.25634375 -0.23964494 -0.25702733 0.0601221 -0.0013268896 0.24137856 0.07022908
0.25969604 0.11790307 -0.617906 0.123794004 0.28187156 -0.11558195 0.31610483 -0.24561056
0.12688574 0.1348912 -0.073082745 0.041047964 -0.16722502 0.12721965 -0.12329349 0.28897363
-0.08962252 0.2399513 0.09979394 -0.28679812 0.08760101 -0.01668206 0.21621893 -0.055162236
0.21802142 0.12399004 -0.1935183 0.2526255 0.34211457 0.22889802 0.0986314 0.20442826
0.12586051 -0.08538433 -0.039111454 -0.21160802 0.23534481 0.110883266 0.13839346 -0.0115818605
-0.20176688 0.089204125 0.48935342 0.11649777 -0.22155498 0.36452216 0.18385707 -5.5349807e-05
0.10582286 -0.20713213 -0.020030338 0.10154833 0.13040979 -0.03772258 -0.45378262 -0.005869746
00000000: f2b6 6ebe 0f58 84be b6cd 2b3e 5c51 643d
00000010: 0598 74be be2a 2d3e c606 6a3e ef71 ff3d
00000020: a9b8 8ebb 837f bebd d377 e33e 26de 47be
00000030: 0921 9fbe 3579 3abd 4392 83be 6802 8e3e
00000040: 5c34 3dbe 1c24 59be db14 56be f969 31be
00000050: 0016 09be 7891 10be b390 44bd 86e7 86be
00000060: eec7 943b e996 2f3d 83c2 6abe 96c7 3c3e
00000070: 2673 2bbe 096d c1be 37fd 2cbe 6f82 9d3d
00000080: 85ef 01be dfa9 303e 88eb bfbd dd15 65bd
00000090: 1103 c6bb 3f43 113e d954 1f3d 9ab9 dd3d
000000a0: 92a3 43bd 2e42 9a3d c86d 983e 28df 0c3e
000000b0: 0812 c4be 3ea5 7cbd 64d0 80be a575 8bbd
000000c0: 20da 1c3e 8924 d23d 49d2 aebe 4d28 adbc
000000d0: 336c f9bb 6177 9f3d 3cb9 a53d 695b 04bd
000000e0: 304e 8ebd 7c0e 8ebd a096 61bd 5841 863b
000000f0: 9553 a13d 27b2 803e 1949 c73d 31f2 96bd
00000100: aa98 28be 07c5 833e 2361 6cbc 2532 89be
00000110: e365 94bd 0d4e 99bd ff1e 953e 4547 753c
00000120: 45aa 973e f5bb 02be a721 81be d273 223e
00000130: 1570 033d 6fa7 a03d a31e 193d 859b 1dbd
00000140: 6839 9cbd b769 cdbd 17b8 a1bd 1c83 a03c
00000150: 59d4 30be 7739 13bc 31a9 a53d 45ba 913e
00000160: dea5 07be e598 f03d 8556 123c 33fb 12be
00000170: 6871 b63d 8b2d 573c a3f9 0e3e 10b3 9939
00000180: a7c8 89be 31bf 2bbd 362f 48be 635a 483e
00000190: 8ce2 a33e 15a6 383e 586a d03d 7ccf 7fbd
000001a0: f88b 763d 3587 c0bd 7f72 e93d 753a 9a3d
000001b0: 52af 353d b9ae 17bd 803e 73be 5b4b 57bd
000001c0: 4281 6ebd 35fa 833e 8c1a 433e dbbe f93d
000001d0: 355a 28be 8875 ce3e 40e4 103e 4dde c13d
000001e0: f3c0 853d d35e 9cbe 21da 1a3e f33c cfbd
000001f0: cad3 56be b01c 15bd ac8d 1bbd 162a 093e
00000200: b02f a23c 7a2f 0fbe 78e3 033d efc9 243e
00000210: 49de a23c 097d 3e3e baab 3b3c 1716 bc3d
00000220: bf19 8cbd 2f2f 3d3e 729f 133f 6931 133d
00000230: 862c 8abe e29d 55be 017a e9bd 8642 c03d
00000240: 45d9 ddbb 3a78 4ebe 72a7 fdbc 6ce4 e6bd
00000250: 1b42 303e 305b 90be 472c a83d b256 73bd
00000260: 0a67 02be 1501 91be 21f2 653d 826e b23c
00000270: f8d8 1abc 8ac9 36be 234c 4c3d 9dc8 643e
00000280: ba53 37bd 8daf 6abd 54f8 3f3e 1912 8abe
00000290: f35a 38be 29d6 15be 1fd4 bd3d 296e d7bd
000002a0: daff babb 9e34 413d 0131 7e3e 05ce ebbd
000002b0: b21f 5bbe e18e 3bbe 0b98 98be 9297 8a3d
000002c0: 0b4c 4e3e edb8 16be 9b24 98be b690 d03d
000002d0: e9b1 1d3e 76ad 9abd cfb4 8c3c e61c 42be
000002e0: c9e7 16bd 479b 733d 33da 0dbe 22d4 32be
000002f0: 76a7 e73d 24de a33e 7a8f 9e3e df44 1f3e
00000300: 48d7 55bd 7d3f 833e 7c65 75be 1699 83be
00000310: 9742 763d 07eb adba f12b 773e 44d4 8f3d
00000320: e1f6 843e 2a77 f13d 162f 1ebf b687 fd3d
00000330: 7851 903e 3bb6 ecbd 7ed8 a13e 5681 7bbe
00000340: 56ee 013e eb20 0a3e 68ac 95bd e921 283d
00000350: 093d 2bbe de45 023e 4c81 fcbd 5af4 933e
00000360: 038c b7bd cbb5 753e c460 cc3d 34d7 92be
00000370: 2968 b33d d1a8 88bc 7f68 5d3e ccf1 61bd
00000380: 0241 5f3e 7dee fd3d a929 46be 2158 813e
00000390: a429 af3e 3e64 6a3e 42ff c93d a455 513e
000003a0: 94e1 003e fbdd aebd 5533 20bd c6af 58be
000003b0: 3bfe 703e c416 e33d 04b7 0d3e d8c1 3dbc
000003c0: fa9b 4ebe a7b0 b63d 888c fa3e 6296 ee3d
000003d0: 4fdf 62be a6a2 ba3e 0745 3c3e 6727 68b8
000003e0: a8b9 d83d 721a 54be aa16 a4bc 92f8 cf3d
000003f0: 258a 053e fe82 1abd 3256 e8be 0057 c0bb

hiden_layers.0.bias f4 [64]
0.020777846 -0.052251417 0.001611851 -0.040196307 0.028075678 -0.03364639 0.0118068345 0.023677327
-0.0021595303 -0.03797788 0.0820114 0.0011607495 -0.030469555 -0.02402602 0.010882578 -0.02577524
0.035354257 -0.04145991 0.011754208 0.023477606 0.02994252 0.039761096 -0.0014469466 -0.019564208
-0.0431625 0.031935472 -0.0066175973 -0.01758776 0.04692632 0.039381854 -0.012445814 0.048494264
0.019933997 0.020416195 0.046733133 -0.0022065914 -0.0048193354 0.029692879 0.019923769 -0.041062023
0.024011716 -0.07012431 -0.034540568 -0.02561239 0.02527737 -0.027849047 -0.034523223 0.026935974
-0.0237545 -0.01097761 0.032191318 -0.033612207 0.021300338 -0.0009814538 -0.03159505 -0.022579594
0.018661229 -0.020725595 0.043081097 0.0384509 0.042341664 0.0027998395 -0.002797481 -0.036691092
00000000: 4d36 aa3c 9505 56bd bf44 d33a e2a4 24bd
00000010: f7fe e53c ccd0 09bd 7471 413c f4f6 c13c
00000020: e886 0dbb b28e 1bbd 98f5 a73d 4a24 983a
00000030: 4a9b f9bc 37d2 c4bc d74c 323c 9926 d3bc
00000040: a0cf 103d ded1 29bd b994 403c 1c54 c03c
00000050: 044a f53c 88dc 223d 79a7 bdba 1e45 a0bc
00000060: 29cb 30bd c5ce 023d 6ed8 d8bb 3514 90bc
00000070: d035 403d de4e 213d 87e9 4bbc eca1 463d
00000080: 9f4c a33c dd3f a73c 3e6b 3f3d 769c 10bb
00000090: 84eb 9dbb 7b3e f33c 2c37 a33c a730 28bd
000000a0: 38b4 c43c 569d 8fbd 697a 0dbd 13d1 d1bc
000000b0: 7d12 cf3c af23 e4bc 3968 0dbd d5a8 dc3c
000000c0: cc98 c2bc 6fdb 33bc 0bdb 033d f4ac 09bd
000000d0: 0c7e ae3c 20a4 80ba d069 01bd d7f8 b8bc
000000e0: 6fdf 983c b9c8 a9bc ce75 303d b17e 1d3d
000000f0: 746e 2d3d 837d 373b f155 37bb 6649 16bd

hiden_layers.1.weight f4 [64, 64]
0.2858043 0.084329195 0.1191629 0.010833514 -0.04892653 0.02993807 0.21362303 -0.16977294
0.021348722 0.09272636 -0.009952292 -0.0009836685 -0.2775936 0.14555228 -0.09196681 0.10268891
0.17564054 -0.0860646 0.04780022 0.12498298 -0.19317247 -0.1337686 -0.08798458 -0.09748075
-0.09781695 -0.18216208 0.08103005 0.2013933 0.13697311 -0.09977221 0.2067077 -0.09833576
-0.12728974 -0.2579798 0.063350774 0.05422922 -0.17022792 0.10466629 0.1952951 0.12713839
0.2238836 -0.016097626 0.007899425 0.021955416 0.20623179 0.09837722 -0.06733262 0.019930148
0.026609946 0.064095855 -0.02334765 -0.13816188 -0.24322766 0.19967833 -0.121539 -0.052690312
0.1403512 -0.18723026 -0.017429465 0.0048120273 -0.082299784 0.08099157 0.089221396 -0.0660084
0.19827253 -0.08571667 0.26850706 -0.21704799 0.01248851 -0.15277688 0.18716708 0.043798793
0.111878276 0.0041101305 0.75989425 0.047776178 -0.13003907 0.13911094 -0.033791088 0.12891738
-0.13863727 0.16228904 -0.36415902 0.13588507 0.046822388 -0.004632136 -0.071706615 -0.3527702
-0.04496618 0.10703484 -0.19171438 -0.10175394 -0.14797357 -0.13510396 0.11449855 0.090350755
0.1873464 0.025245285 0.34586465 0.15073128 -0.15512145 0.89875287 0.12061776 0.06708427
0.16636421 0.13992798 -0.021936169 -0.14277023 0.10688062 0.22000816 0.031803794 -0.10227768
0.2299149 -0.10561374 -0.03645961 -0.038362004 0.1875722 0.18213888 -0.070802785 -0.2911268
-0.046204746 0.28812808 0.5543085 0.19734044 -0.16682494 0.16076916 0.1685984 -0.20265883
0.061816454 -0.10357986 -0.049742863 -0.122346625 0.11089164 -0.09389646 0.14877948 0.09148616
0.19041073 0.16026393 0.46028987 -0.031116199 -0.25513768 -0.14580227 -0.080291115 0.21804836
0.059858203 -0.08482038 0.19472866 -0.10325733 -0.1522235 0.15360354 0.09225947 0.0015385888
-0.031112684 -0.03859552 0.15179086 -0.07618598 -0.105344534 -0.20422219 0.08081964 0.18783483
0.26622674 0.04607037 0.07735567 -0.1993783 0.20314018 -0.15241937 -0.18449678 -0.24147223
0.23149653 0.14764003 0.027598387 0.11249003 0.03112208 0.284362 -0.029019123 0.18133458
0.0820805 0.19893505 0.04648315 -0.033309143 0.024459342 0.089780055 0.190792 -0.0877742
-0.14933679 0.03287257 0.17883268 -0.1461443 -0.11017644 -0.07486885 0.28406712 -0.27449995
-0.23701255 -0.021639192 -0.06698879 -0.23834772 0.0067604547 -0.09508579 -0.08013073 0.18100196
-0.08223442 0.0721254 -0.0019919458 -0.30892003 0.11661629 0.12667933 0.13579643 -0.06589502
0.2757778 0.007970253 0.097561605 -0.06620251 -0.08466082 -0.0009485717 -0.049535334 0.2704236
-0.10308008 -0.11648549 -0.11934091 -0.06693258 -0.080746725 0.12009182 -0.0888586 0.02983431
0.0363537 0.16173722 0.09118481 -0.012027133 -0.05463721 -0.2222333 -0.005237664 0.13055827
0.071179576 -0.11506585 0.05163678 0.090234555 -0.049263537 -0.0108506195 -0.03793966 0.27276295
0.19822213 -0.09173446 0.10418241 0.29131368 0.1517792 0.04272193 -0.009169016 0.1492295
0.07563898 0.19263297 0.15460046 0.054051787 0.118569374 0.015498273 0.10767319 -0.3905149
00000000: f154 923e c9b4 ac3d ae0b f43d 0d7f 313c
00000010: 2f67 48bd af40 f53c ffbf 5a3e f5d8 2dbe
00000020: 84e3 ae3c 51e7 bd3d f00e 23bc 70ee 80ba
00000030: c020 8ebe a80b 153e 1859 bcbd 904e d23d
00000040: 1ddb 333e a342 b0bd 2aca 433d 14f7 ff3d
00000050: 01cf 45be a3fa 08be 4231 b4bd fda3 c7bd
00000060: 4154 c8bd b288 3abe 15f3 a53d 0c3a 4e3e
00000070: ae42 0c3e 5f55 ccbd 2fab 533e 4264 c9bd
00000080: 3e58 02be ee15 84be 0dbe 813d 751f 5e3d
00000090: 3a50 2ebe 485b d63d 70fb 473e 9130 023e
000000a0: be41 653e 2bdf 83bc 976c 013c d8db b33c
000000b0: 6d2e 533e ff79 c93d afe5 89bd 8d44 a33c
000000c0: 1afd d93c b044 833d 9243 bfbc 4f7a 0dbe
000000d0: ac10 79be 7a78 4c3e 70e9 f8bd ccd1 57bd
000000e0: 3ab8 0f3e 4ab9 3fbe 3dc8 8ebc 36ae 9d3b
000000f0: ca8c a8bd e9de a53d b5b9 b63d 692f 87bd
00000100: f407 4b3e 398c afbd c279 893e d441 5ebe
00000110: 9c9c 4c3c 8b71 1cbe baa8 3f3e 5d66 333d
00000120: 7020 e53d 46ae 863b 6e88 423f f4b0 433d
00000130: f628 05be 1973 0e3e 8668 0abd eb02 043e
00000140: eef6 0dbe 192f 263e 0d73 babe 7525 0b3e
00000150: d5c8 3f3d 2cc9 97bb ebda 92bd 4c9e b4be
00000160: 752e 38bd 1535 db3d c650 44be 5f64 d0bd
00000170: 6286 17be b158 0abe 377e ea3d d109 b93d
00000180: bcd7 3f3e 33cf ce3c 2c15 b13e 4d59 1a3e
00000190: 28d8 1ebe ab14 663f 7206 f73d 7a63 893d
000001a0: 615b 2a3e 4849 0f3e 7bb3 b3bc 5c32 12be
000001b0: 3ae4 da3d d249 613e b244 023d f676 d1bd
000001c0: d06e 6b3e 044c d8bd ac56 15bd 7a21 1dbd
000001d0: ed12 403e 9d82 3a3e 0d01 91bd 920e 95be
000001e0: 3041 3dbd 8685 933e 29e7 0d3f 9d13 4a3e
000001f0: 28d4 2abe aca0 243e 0fa5 2c3e cc85 4fbe
00000200: 4033 7d3d ad21 d4bd 2cbf 4bbd de90 fabd
00000210: 281b e33d ca4c c0bd a659 183e 195d bb3d
00000220: 08fb 423e 3a1c 243e 1dab eb3e 66e7 febc
00000230: 68a1 82be 314d 15be ab6f a4bd 1248 5f3e
00000240: e02d 753d 4fb6 adbd f366 473e 9478 d3bd
00000250: 7ae0 1bbe 3f4a 1d3e 88f2 bc3d 79aa c93a
00000260: 07e0 febc 5616 1ebd 106f 1b3e 6507 9cbd
00000270: e0be d7bd 9f1f 51be c484 a53d c657 403e
00000280: df4e 883e 49b4 3c3d a66c 9e3d d329 4cbe
00000290: fb03 503e d313 1cbe b9ec 3cbe 7f44 77be
000002a0: 6d0d 6d3e f32e 173e 0316 e23c 2c61 e63d
000002b0: bbf3 fe3c e597 913e 83b9 edbc c6af 393e
000002c0: d219 a83d a1b5 4b3e 1e65 3e3d 2b6f 08bd
000002d0: f55e c83c 9bde b73d fa5e 433e f6c2 b3bd
000002e0: beeb 18be 63a5 063d ea1f 373e daa6 15be
000002f0: 2fa4 e1bd d754 99bd 3f71 913e 428b 8cbe
00000300: 6bb3 72be ad44 b1bc 6b31 89bd 6d11 74be
00000310: ce86 dd3b 57bc c2bd 951b a4bd 9458 393e
00000320: 856a a8bd 7bb6 933d 4e8b 02bb c42a 9ebe
00000330: 85d4 ee3d 3ab8 013e 380e 0b3e f8f3 86bd
00000340: bf32 8d3e aa95 023c 61ce c73d 2e95 87bd
00000350: a762 adbd 92a9 78ba 90e5 4abd f674 8a3e
00000360: a61b d3bd f28f eebd 0269 f4bd f313 89bd
00000370: 8a5e a5bd b3f2 f53d 7ffb b5bd 1567 f43c
00000380: 9ee7 143d 719e 253e 1abf ba3d 740d 45bc
00000390: 44cb 5fbd 2091 63be b6a0 abbb 11b1 053e
000003a0: 99c6 913d a5a7 ebbd 1781 533d e5cc b83d
000003b0: 90c8 49bd ccc6 31bc 9e66 1bbd 96a7 8b3e
000003c0: befa 4a3e 47df bbbd 965d d53d 1127 953e
000003d0: 026c 1b3e 31fd 2e3d a439 16bc 9ecf 183e
000003e0: 9ce8 9a3d 9441 453e 954f 1e3e 6865 5d3d
000003f0: 80d4 f23d 78ec 7d3c c383 dc3d 92f1 c7be

hiden_layers.1.bias f4 [64]
0.010071206 0.04469113 0.026131174 -0.048994005 0.10081985 0.026445115 -0.023625592 0.020260114
0.020653268 -0.022811783 0.021061288 0.06528154 0.0016244776 0.07957644 0.037066285 0.08739131
0.032285027 0.014514365 0.07470582 -0.019323785 -0.050022554 0.02744053 0.024548136 0.003307936
-0.018733706 -0.081245236 -0.021885695 0.011110676 0.052605346 -0.069416456 -0.03112831 -0.011060476
-0.042714674 -0.08056593 -0.018230243 -0.009396145 -0.0830369 0.067928456 -0.08580912 0.13137458
-0.018489836 -0.024598766 0.057441 0.073091246 0.034871425 -0.03443929 -0.018905686 0.025125645
0.12453836 0.059787642 0.006064855 -0.07066856 0.1843528 0.12305152 -0.072299704 -0.05497637
0.028157044 -0.041126806 -0.04543364 0.00045608814 0.016681029 -0.04561448 0.05995128 -0.016634174
00000000: b301 253c 0c0e 373d 0b11 d63c f0ad 48bd
00000010: a37a ce3d 6da3 d83c 758a c1bc 8af8 a53c
00000020: 0b31 a93c c7df babc b988 ac3c 54b2 853d
00000030: 6cec d43a f9f8 a23d d1d2 173d 37fa b23d
00000040: 4e3d 043d a9cd 6d3c 5dff 983d ea4c 9ebc
00000050: 73e4 4cbd f6ca e03c 2c19 c93c f5c9 583b
00000060: 6e77 99bc e763 a6bd a149 b3bc 8e09 363c
00000070: b478 573d 372a 8ebd cc00 ffbc 0037 35bc
00000080: 95f5 2ebd c0ff a4bd 9757 95bc 4af2 19bc
00000090: 400f aabd 131e 8b3d b1bc afbd 0f87 063e
000000a0: ff77 97bc 5a83 c9bc 4147 6b3d ddb0 953d
000000b0: 57d5 0e3d 3710 0dbd 19e0 9abc 4cd4 cd3c
000000c0: f80d ff3d e3e3 743d b1bb c63b aeba 90bd
000000d0: fbc6 3c3e 6f02 fc3d de11 94bd e72e 61bd
000000e0: 9aa9 e63c 9574 28bd a018 3abd 1d1f ef39
000000f0: a7a6 883c 40d6 3abd 798f 753d 6444 88bc

hiden_layers.2.weight f4 [64, 64]
-0.11575758 -0.29626298 -0.17505677 0.19904703 -0.16986036 -0.009322469 0.005221996 0.24285644
0.21685691 -0.000999424 0.003993147 -0.2575081 -0.059367463 -0.0062230113 0.164581 -0.1628161
0.19764817 0.23486847 0.0351212 -0.050619237 0.06824161 -0.1563523 -0.15672646 -0.199274
-0.011767959 0.11483551 -0.10155636 -0.0037573264 -0.07119867 0.13451007 -0.15179005 0.06308021
0.14533482 0.1584091 0.112588994 0.041006826 0.25577614 -0.25186825 -0.07283963 -0.13077988
-0.17888795 -0.14071351 0.043931294 0.096061885 -0.08764586 0.13325828 0.10471357 -0.17172681
0.0066212066 0.047120217 -0.011595134 0.13331985 -0.051162668 0.30098113 0.02680866 -0.082948275
0.20253356 -0.12271835 0.035654955 0.045773406 0.23767945 0.14948177 0.009223237 0.03838798
0.023071108 -0.052436247 0.22113715 -0.02288827 -0.083843574 0.034024823 0.028493466 0.1963638
0.13939476 0.19184466 -0.13784054 0.026377369 0.22198714 -0.038424782 -0.09710715 -0.05093718
-0.119515136 0.11672671 -0.076872975 0.16402131 -0.20008427 0.14388424 -0.2909314 0.3607671
0.12823254 -0.10616486 0.010332045 0.028838892 -0.09959636 0.04528758 0.047333382 -0.17156519
-0.07556015 -0.09835975 0.0097865155 -0.3726596 0.19627096 0.08011715 0.14356624 0.0716466
-0.06725178 -0.2459254 -0.07171211 0.19404909 0.31497508 0.13730536 0.07236366 -0.25526282
-0.19505048 0.011597703 -0.1755372 -0.1360413 -0.093579195 -0.14649905 0.24211742 -0.042810563
-0.30143604 0.13669111 0.007709584 -0.111030385 0.28493118 -0.11340728 -0.0644177 -0.06499718
-0.16684748 0.070610076 -0.033242077 0.0063770306 0.014597378 0.22761144 -0.013074936 0.13792437
0.13974021 0.00095162645 0.016068367 0.13948978 0.14834905 -0.032068193 -0.12098577 -0.049274907
-0.12823632 -0.25391033 -0.12198822 -0.009103098 -0.11314388 0.136865 -0.16816713 0.19785497
0.21669118 0.064039856 -0.083874665 0.31368667 0.09442767 -0.30570272 0.15125467 0.0880615
0.13401464 0.16421245 -0.075902075 -0.08182105 0.0839684 0.08207394 0.3145658 -0.017014273
-0.10581993 -0.07593826 0.03944846 0.28143743 0.012798834 0.17758648 -0.09667993 -0.19058062
-0.12581588 0.015326646 -0.3344811 -0.18532136 0.101046205 -0.008540691 -0.07532896 0.08934212
0.059182923 0.16862449 -0.07236217 0.04590351 0.12401202 -0.17188981 0.013100924 -0.13985991
-0.08022042 0.07477972 -0.2148249 -0.104372665 0.16272214 0.09231512 -0.04443463 0.011808965
0.20710793 0.0153368665 -0.24095514 0.053743318 -0.3257119 -0.12666619 -0.18791069 0.008876654
0.27276674 -0.024352983 -0.116485864 0.15642445 0.022357306 -0.065680705 0.0177929 -0.06930269
-0.19568351 -0.21134749 -0.22844523 0.14349289 -0.12452537 -0.12485462 -0.290035 -0.11086832
0.009421729 -0.043088667 -0.18320186 -0.045258213 0.1583302 0.21420646 0.009771276 -0.12536325
-0.08047492 0.22180967 0.10836534 0.12039364 -0.25594154 -0.22771163 -0.21193781 0.14729859
0.17537977 -0.27471018 0.053216156 -0.090787925 0.09819472 0.22534798 -0.23346421 -0.12898804
0.11028377 -0.1558028 -0.21654262 0.013739423 0.0065448573 0.09895946 -0.0006805284 -0.17370492
00000000: 4f12 edbd c8af 97be 1542 33be fcd2 4b3e
00000010: e0ef 2dbe 45bd 18bc 471d ab3b 5caf 783e
00000020: bd0f 5e3e 1bff 82ba f2d8 823b 1ad8 83be
00000030: 4c2b 73bd 67ea cbbb ec87 283e 44b9 26be
00000040: 4864 4a3e 5c81 703e 3fdb 0f3d 1e56 4fbd
00000050: 42c2 8b3d d11a 20be e77c 20be 7c0e 4cbe
00000060: 66ce 40bc e12e eb3d c8fc cfbd 7a3d 76bb
00000070: 9cd0 91bd 02bd 093e da6e 1bbe 3230 813d
00000080: a7d2 143e ff35 223e 0f95 e63d c6f6 273d
00000090: 17f5 823e e0f4 80be f22c 95bd 29eb 05be
000000a0: 672e 37be 3417 10be 4df1 333d 18bc c43d
000000b0: ac7f b3bd dc74 083e 1174 d63d 27d9 2fbe
000000c0: b5f6 d83b 2101 413d 84f9 3dbc 0085 083e
000000d0: f28f 51bd 331a 9a3e d69d db3c c9e0 a9bd
000000e0: f564 4f3e c253 fbbd ee0a 123d e57c 3b3d
000000f0: 3e62 733e c011 193e 0f1d 173c b73c 1d3d
00000100: 9fff bc3c 64c7 56bd c771 623e 2e80 bbbc
00000110: 2eb6 abbd 9d5d 0b3d 216b e93c 9813 493e
00000120: 80bd 0e3e ed72 443e 1226 0dbe 5a15 d83c
00000130: 9950 633e 4e63 1dbd 1de0 c6bd 81a3 50bd
00000140: 5ac4 f4bd 6a0e ef3d 946f 9dbd 34f5 273e
00000150: e4e2 4cbe 6456 133e f6f4 94be 77b6 b83e
00000160: 644f 033e f66c d9bd bd47 293c 8a3f ec3c
00000170: 2df9 cbbd 787f 393d a6e0 413d c9ae 2fbe
00000180: 48bf 9abd d670 c9bd 9f57 203c 3dcd bebe
00000190: 41fb 483e 7614 a43d 0703 133e 74bb 923d
000001a0: 4dbb 89bd ded3 7bbe ccdd 92bd ceb4 463e
000001b0: 6a44 a13e c799 0c3e 6633 943d cfb1 82be
000001c0: 50bb 47be 4b04 3e3c 06c0 33be 694e 0bbe
000001d0: 73a6 bfbd d903 16be a1ed 773e 215a 2fbd
000001e0: d355 9abe c1f8 0b3e aea0 fc3b e663 e3bd
000001f0: 80e2 913e 1342 e8bd 6ded 83bd 3e1d 85bd
00000200: 11da 2abe 049c 903d d828 08bd 69f6 d03b
00000210: d729 6f3c f912 693e 4238 56bc 0c3c 0d3e
00000220: 0f18 0f3e 9276 793a cfa1 833c 69d6 0e3e
00000230: d0e8 173e f059 03bd 63c7 f7bd 7cd4 49bd
00000240: 6250 03be 8900 82be f6d4 f9bd 2925 15bc
00000250: fbb7 e7bd 5726 0c3e 0134 2cbe 7e9a 4a3e
00000260: 4be4 5d3e 5427 833d 7bc6 abbd 8a9b a03e
00000270: 4b63 c13d 1185 9cbe 81e2 1a3e 9659 b43d
00000280: 223b 093e 4f27 283e 8c72 9bbd cb91 a7bd
00000290: a0f7 ab3d 6216 a83d c50e a13e 8461 8bbc
000002a0: 1fb8 d8bd 8585 9bbd b594 213d 9118 903e
000002b0: 33b2 513c 3bd9 353e 2100 c6bd 9127 43be
000002c0: e1d5 00be 9d1c 7b3c 1b41 abbe e2c4 3dbe
000002d0: 50f1 ce3d 41ee 0bbc 1246 9abd 00f9 b63d
000002e0: cb69 723d e6ab 2c3e 9e32 94bd 5205 3c3d
000002f0: 04fa fd3d e203 30be 42a5 563c 7037 0fbe
00000300: 9b4a a4bd 1c26 993d 0ffb 5bbe 56c1 d5bd
00000310: a2a0 263e b60f bd3d 1601 36bd 647a 413c
00000320: 1a14 543e 7b47 7b3c f2bc 76be f421 5c3d
00000330: b6c3 a6be c8b4 01be a96b 40be 636f 113c
00000340: 15a8 8b3e e87f c7bc 2490 eebd bb2d 203e
00000350: ab26 b73c 9b83 86bd 6ac2 913c 92ee 8dbd
00000360: 4261 48be 7a6b 58be 8ced 69be cdef 123e
00000370: 2807 ffbd c7b3 ffbd 787f 94be ee0e e3bd
00000380: 985d 1a3c be7d 30bd 4599 3bbe ad60 39bd
00000390: 5021 223e f058 5b3e b417 203c 395f 00be
000003a0: 09d0 a4bd 1322 633e a6ee dd3d f190 f63d
000003b0: c50a 83be 3d2d 69be 3a06 59be 71d5 163e
000003c0: c196 333e d0a6 8cbe 2ff9 593d 05ef b9bd
000003d0: 501a c93d 9fc1 663e 3e11 6fbe 7115 04be
000003e0: 75dc e13d c58a 1fbe 59bd 5dbe 511b 613c
000003f0: 3e76 d63b 42ab ca3d 7d65 32ba b4df 31be

hiden_layers.2.bias f4 [64]
-0.12552132 -0.065024704 -0.038438566 0.08263211 0.048585515 0.0341053 -0.012132286 0.0071261805
0.10749502 -0.03384073 -0.18896824 -0.03723093 0.0505864 -0.11515069 0.06484664 0.15954094
0.18624188 -0.0610836 0.06868988 -0.040302824 -0.077634946 -0.20581192 -0.043081608 0.05349545
-0.0940869 0.30905044 -0.057771195 -0.007039297 0.08104769 -0.10136494 -0.070106044 -0.19515046
-0.043499835 0.11204821 0.08210465 0.0691866 -0.15396455 0.05971255 0.13827385 -0.10119686
-0.009792891 0.014647928 0.021914674 0.02243021 0.031583488 -0.061589967 0.0044818544 0.099656425
-0.01600862 0.060338486 -0.1881611 0.024456177 -0.08285486 0.017056929 -0.07050369 0.06980764
0.020252349 0.0038414432 0.07635713 -0.024488863 -0.099951826 -0.18097804 0.1194255 -0.104855984
00000000: a988 00be ac2b 85bd c271 1dbd 063b a93d
00000010: 9b01 473d 00b2 0b3d 7fc6 46bc bc82 e93b
00000020: 5926 dc3d 949c 0abd e480 41be 767f 18bd
00000030: af33 4f3d 20d4 ebbd 51ce 843d b35e 233e
00000040: 31b6 3e3e cc32 7abd 48ad 8c3d 9314 25bd
00000050: 12ff 9ebd 5cc0 52be 5776 30bd 0c1e 5b3d
00000060: a2b0 c0bd dc3b 9e3e 7da1 6cbd e7a9 e6bb
00000070: 55fc a53d 6c98 cfbd c293 8fbd 86d5 47be
00000080: e22c 32bd 8879 e53d 7c26 a83d b4b1 8d3d
00000090: e2a8 1dbe 2695 743d a997 0d3e 4d40 cfbd
000000a0: 5d72 20bc ddfd 6f3c 6786 b33c 8fbf b73c
000000b0: b05d 013d c345 7cbd 85dc 923b ab18 cc3d
000000c0: 8224 83bc 7d25 773d 4ead 40be 5258 c83c
000000d0: cfaf a9bd f9ba 8b3c 3d64 90bd 4ff7 8e3d
000000e0: 41e8 a53c b9c0 7b3b 2161 9c3d de9c c8bc
000000f0: 8bb3 ccbd 4f52 39be 5b95 f43d bcbe d6bd

hiden_layers.3.weight f4 [64, 64]
-0.21719664 -0.16096511 -0.12097735 0.11054632 0.042593423 -0.13962606 -0.18495108 0.18588887
0.038255677 0.07712472 -0.039052375 0.062231362 -0.11593877 0.29366893 0.04573786 -0.03763394
-0.049271073 -0.03578808 0.008820118 -0.04544977 -0.26950133 -0.08967037 -0.16870143 0.005857257
-0.08372563 -0.175843 -0.14316222 -0.017976113 -0.018910035 0.0530652 0.12881833 0.0568679
-0.15980257 -0.026993502 0.015635138 0.05089883 0.3422796 0.3887604 0.08885861 -0.22486408
-0.06730417 -0.25575534 0.284061 0.2401976 0.07955457 0.16085052 0.24033415 -0.076467566
-0.0284485 -0.123127416 -0.18622859 0.04226828 0.09512865 -0.07487022 0.04809792 0.12630707
-0.065004185 -0.26390392 0.16754748 0.20345925 0.021356776 0.33923376 0.11098271 -0.24701926
-0.12976815 -0.06687827 0.19951461 -0.1651351 0.2274414 0.23648082 -0.12196217 0.17369466
0.1592737 0.24450989 -0.22140153 0.016661964 0.033848204 0.2412081 0.15017971 -0.10615111
-0.15227373 0.040983565 -0.122463465 -0.16563669 -0.121510014 0.041975398 0.1252929 0.16433315
0.16919632 0.07037687 -0.13174894 0.20997912 -0.18809807 0.1363909 -0.08343579 -0.12425218
-0.010946734 0.17889863 0.22520389 0.08120692 0.2382102 0.02268781 -0.11277573 -0.106445685
-0.2462076 -0.1677471 0.03299764 -0.18616286 0.07149615 0.0075160516 0.11715229 0.22967607
0.0861852 0.1860588 0.1612176 0.074568436 0.3728614 -0.10886257 0.043056738 -0.14172085
0.2562928 0.157101 -0.026924642 0.13063228 0.21314245 0.051395163 0.18225436 0.14675468
-0.008083162 -0.22996083 0.016628204 0.2760569 -0.020553604 -0.14223751 -0.068339415 -0.0376189
-0.13525847 -0.17818844 -0.029021714 -0.054195352 -0.012584043 0.22361721 -0.20542045 0.0012474791
-0.076984294 -0.0058844835 0.017135741 -0.13812304 -0.20422314 -0.108237274 -0.17402993 0.3148501
0.1265493 -0.17505848 0.20106058 0.06646049 0.05990935 -0.19057274 0.10359476 0.13014293
-0.04367114 0.1778131 -0.14914171 0.06524339 0.04950526 -0.20433912 0.11575386 0.15180682
-0.17953953 0.05025334 0.18624368 -0.017222818 0.088543475 0.11103703 0.18829943 -0.06279
-0.24523954 -0.18280815 0.2644448 0.09665406 0.09028487 -0.1399455 -0.041703295 0.008943629
0.036516957 0.17014392 -0.07657453 -0.06157056 0.1027114 0.089284696 -0.346747 -0.15903604
0.11202118 0.0045639747 -0.040526852 -0.24506766 -0.17183518 0.18717505 0.06389557 0.10608762
0.13005504 -0.09370873 0.016312271 0.08221154 0.059244502 0.04121324 -0.1490344 -0.018308485
-0.15194884 -0.20505346 0.07577614 -0.11086005 -0.07944606 0.2645234 0.052698143 0.035226468
0.13720126 -0.34348282 0.12176307 0.029482607 0.062490255 -0.041292038 0.10816846 0.07081683
0.08718747 -0.0029916316 -0.13643564 -0.017634768 0.4281273 0.33574155 0.34643584 -0.11288464
0.08576273 0.28310212 -0.07736157 0.0627961 0.047925748 0.20039229 0.007925904 -0.2956655
-0.1032198 -0.011429201 -0.17940827 0.19172679 -0.14872359 -0.15885842 0.15743294 0.26638675
-0.044083778 -0.20610876 -0.12601736 0.052069843 0.14330126 0.3582109 -0.29582384 0.10832695
00000000: cc68 5ebe 0ad4 24be f9c2 f7bd 1c66 e23d
00000010: 7176 2e3d 22fa 0ebe d163 3dbe a759 3e3e
00000020: fcb1 1c3d 91f3 9d3d 62f5 1fbd 50e6 7e3d
00000030: 4e71 edbd c65b 963e 9f57 3b3d 0c26 1abd
00000040: 77d0 49bd 8696 12bd 4282 103c 8a29 3abd
00000050: 14fc 89be 19a5 b7bd 11c0 2cbe 3cee bf3b
00000060: 5878 abbd 3010 34be 1e99 12be a442 93bc
00000070: 38e9 9abc e55a 593d f4e8 033e 51ee 683d
00000080: 49a3 23be 7a21 ddbc 4315 803c 4b7b 503d
00000090: 463f af3e 9a0b c73e 81fb b53d c542 66be
000000a0: c5d6 89bd 5df2 82be 7270 913e 5cf6 753e
000000b0: 82ed a23d 00b6 243e 281a 763e 079b 9cbd
000000c0: d40c e9bc 3a2a fcbd b5b2 3ebe 8121 2d3d
000000d0: cfd2 c23d 8f55 99bd 5302 453d a456 013e
000000e0: ea20 85bd 6a1e 87be 9191 2b3e 9f57 503e
000000f0: 68f4 ae3c 0cb0 ad3e e74a e33d 9ef2 7cbe
00000100: f1e1 04be 79f7 88bd 8f4d 4c3e 2d19 29be
00000110: 66e6 683e 0728 723e 4dc7 f9bd 03dd 313e
00000120: a518 233e cd60 7a3e 15b7 62be ac7e 883c
00000130: 6aa4 0a3d 42ff 763e b6c8 193e c165 d9bd
00000140: a5ed 1bbe 62de 273d 20ce fabd aa9c 29be
00000150: 3eda f8bd 65ee 2b3d c84c 003e f346 283e
00000160: cd41 2d3e c021 903d 32e9 06be c404 573e
00000170: c89c 40be 0eaa 0b3e 62e0 aabd ed77 febd
00000180: ee59 33bc 3431 373e d99b 663e d04f a63d
00000190: 60ed 733e c9db b93c f6f6 e6bd 3200 dabd
000001a0: d81d 7cbe e5c5 2bbe 8928 073d 7aa1 3ebe
000001b0: 936c 923d 3649 f63b 8aed ef3d 3430 6b3e
000001c0: de81 b03d 3386 3e3e 3a16 253e 56b7 983d
000001d0: b0e7 be3e 57f3 debd 435c 303d 451f 11be
000001e0: cf38 833e 16df 203e 1191 dcbc 78c4 053e
000001f0: 0442 5a3e bc83 523d e3a0 3a3e dc46 163e
00000200: 3d6f 04bc da7a 6bbe df37 883c 5457 8d3e
00000210: 0860 a8bc b6a6 11be 89f5 8bbd 4716 1abd
00000220: 3281 0abe 0877 36be f2be edbc f2fb 5dbd
00000230: 4d2d 4ebc e9fb 643e bd59 52be 7482 a33a
00000240: f1a9 9dbd a0d2 c0bb 4160 8c3c 2070 0dbe
00000250: df1f 51be 81ab ddbd e734 32be 0834 a13e
00000260: 2496 013e 8842 33be d3e2 4d3e 701c 883d
00000270: 8263 753d 8025 43be 7d29 d43d 3044 053e
00000280: 82e0 32bd a314 363e 9bb8 18be 549e 853d
00000290: 07c6 4a3d 463e 51be 5c10 ed3d 3f73 1b3e
000002a0: 36d9 37be 72d6 4d3d aab6 3e3e de16 8dbc
000002b0: 4856 b53d 6267 e33d 91d1 403e 0b98 80bd
000002c0: 1320 7bbe 0f32 3bbe 4f65 873e 90f2 c53d
000002d0: 46e7 b83d e04d 0fbe 13d1 2abd 4d88 123c
000002e0: ce92 153d 353a 2e3e 1bd3 9cbd 6931 7cbd
000002f0: 5b5a d23d e5da b63d d388 b1be 58da 22be
00000300: 5c6b e53d 658d 953b 7cff 25bd 04f3 7abe
00000310: 90f5 2fbe d1aa 3f3e aedb 823d 7744 d93d
00000320: 262d 053e 5dea bfbd 50a1 853c 865e a83d
00000330: 5daa 723d 37cf 283d 799c 18be adfb 95bc
00000340: 7a98 1bbe 89f9 51be 8530 9b3d 980a e3bd
00000350: 9eb4 a2bd 9c6f 873e 02da 573d a149 103d
00000360: 7d7e 0c3e fbdc afbe eb5e f93d 8285 f13c
00000370: c8f5 7f3d d721 29bd 6d87 dd3d 6a08 913d
00000380: 588f b23d 400f 44bb c9b5 0bbe ca76 90bc
00000390: 8033 db3e 51e6 ab3e 0a60 b13e 1030 e7bd
000003a0: 5fa4 af3d c3f2 903e be6f 9ebd 3e9b 803d
000003b0: ca4d 443d a333 4d3e a7db 013c 7861 97be
000003c0: e764 d3bd 8b41 3bbc cdb6 37be 0754 443e
000003d0: ff4a 18be c8ab 22be 1a36 213e d863 883e
000003e0: 3191 34bd 2d0e 53be b20a 01be 3047 553d
000003f0: 91bd 123e 6b67 b73e 3976 97be 85da dd3d

hiden_layers.3.bias f4 [64]
0.217574 0.059870455 -0.17157063 -0.19789942 0.046336357 0.11205518 -0.07012102 0.04187498
0.113337696 0.02861099 0.05749638 -0.051951192 -0.13087438 0.09800375 -0.040050928 -0.025098795
-0.053047985 -0.08920945 -0.041338477 0.06614384 -0.12262053 -0.09545387 0.25299436 -0.08731065
0.04172618 0.0053680367 -0.030276332 0.11043758 0.14813007 -0.052931074 -0.008778908 -0.2192854
0.071233876 0.22064826 -0.09304946 0.19628505 -0.06297541 0.12649024 0.15212487 -0.039912604
-0.003551178 -0.038594592 0.09129881 0.07140992 0.014033807 0.0315491 0.039766584 0.13016216
0.31181613 0.0071761846 0.0071567195 0.07896958 0.097513564 -0.12434321 -0.058799077 -0.12134328
0.15066023 -0.021684444 -0.07178469 0.08611233 -0.08755876 0.024448907 -0.17674032 0.014534577
00000000: b8cb 5e3e b93a 753d 36b0 2fbe 25a6 4abe
00000010: 31cb 3d3d 307d e53d 9c9b 8fbd 1985 2b3d
00000020: 981d e83d 9861 ea3c 5381 6b3d c6ca 54bd
00000030: ef03 06be 31b6 c83d 710c 24bd fd9b cdbc
00000040: d848 59bd 72b3 b6bd 8952 29bd 6c76 873d
00000050: 7920 fbbd 527d c3bd 7a88 813e edcf b2bd
00000060: 12e9 2a3d 5be6 af3b 1206 f8bc 192d e23d
00000070: 69af 173e 41ce 58bd 69d5 0fbc 5a8c 60be
00000080: 11e3 913d 9ef1 613e b790 bebd f3fe 483e
00000090: 40f9 80bd a886 013e 9fc6 1b3e 667b 23bd
000000a0: e1ba 68bb 5d15 1ebd dffa ba3d 5d3f 923d
000000b0: 0eee 653c a139 013d 49e2 223d 3b49 053e
000000c0: 5da6 9f3e 3326 eb3b ea82 ea3b ceba a13d
000000d0: 31b5 c73d a7a7 febd 4dd7 70bd d382 f8bd
000000e0: ad46 1a3e 93a3 b1bc da03 93bd a95b b03d
000000f0: 0252 b3bd 1349 c83c 6afb 34be 6f22 6e3c

hiden_layers.4.weight f4 [64, 64]
-0.20100595 -0.1775279 -0.0024294187 -0.17789751 -0.08621109 -0.24480224 -0.268479 -0.35644788
-0.25594535 -0.15376638 0.016430745 0.14037 0.019376287 0.11564989 0.34212458 0.17283952
-0.20689446 -0.28095287 0.09802453 0.42482564 -0.033793435 0.1263983 0.16166998 0.22770207
0.057774723 -0.00020529631 0.056845393 0.13646032 -0.17002136 0.12970014 -0.12502158 0.12283409
-0.2508131 0.05442562 -0.11604149 0.06019772 -0.19275706 0.13893771 -0.081809856 0.098433524
0.35449862 -0.29640692 0.2955859 -0.061568767 0.15672514 0.3100264 0.16452937 0.19045728
-0.08999573 -0.042650156 0.12481177 -0.2932305 0.19936226 -0.026094949 -0.2064904 -0.2589609
0.07963585 0.029309396 0.06442945 0.31537214 0.01919501 -0.16276816 -0.12829551 0.4876538
0.12412451 -0.13825338 0.36926496 0.20044303 -0.012935769 -0.28671083 -0.11602149 -0.08438307
0.2584781 0.18357877 0.06411625 -0.01970994 0.013017193 -0.14821935 0.12746072 -0.034264263
-0.019593261 -0.14016329 0.16629504 -0.0884078 -0.17805302 -0.17207024 0.41561678 -0.18962085
0.20911188 -0.16119963 -0.17631534 0.13646126 -0.0931812 0.15281755 0.080334924 -0.0721359
0.1648936 -0.32299456 -0.30210054 0.4028263 0.11516456 0.09625254 -0.0073998515 0.113340445
0.03859738 0.38236856 0.14004025 0.27543864 -0.09036671 0.10589598 -0.11110229 0.14631918
-0.14051433 -0.21721941 -0.024551436 -0.12697323 -0.3682955 -0.024406163 0.17055908 -0.08309081
-0.15290253 -0.23876673 0.08686013 -0.1240864 -0.14455497 0.018967435 -0.20229541 0.20340052
-0.28807485 -0.084093176 -0.11159917 -0.014513971 0.1760445 0.09079204 -0.26528367 -0.0025839277
0.15764181 0.11704861 0.15029404 -0.2788529 0.10716736 0.1401772 -0.18119898 0.12958904
-0.22084254 0.02906947 -0.32233977 -0.14287518 0.16777453 -0.256501 -0.20263463 0.1303575
-0.0016692987 0.10843491 -0.0844638 0.3190122 0.01104446 0.12256943 0.06544707 -0.042600315
-0.051421016 0.15097591 -0.005248812 0.18297179 0.22434686 -0.19721498 0.025793057 0.120858885
-0.050571438 0.01996516 -0.1899417 0.007344734 0.112446725 -0.10311428 -0.23943593 -0.2180145
0.16839471 0.24292508 -0.07614547 0.23854293 0.035661858 0.1199452 0.14233498 -0.12366617
0.31456974 0.062352084 0.24568993 -0.016839698 -0.06656509 -0.26291266 -0.23879467 -0.04024196
0.3005605 0.2598654 -0.14035845 0.079924285 0.13691983 -0.1590204 -0.1686718 -0.031852625
-0.027211696 -0.014902152 -0.2085048 -0.16258831 0.01439702 0.02313643 0.005631095 0.23906273
0.27607915 0.11477365 -0.08300779 -0.07903245 -0.16733827 -0.13552727 -0.03153077 0.08127198
0.044674948 -0.14603233 -0.22462489 -0.10027293 -0.03328597 -0.08463346 -0.20059362 -0.091181636
-0.09220109 -0.21777815 0.1143511 -0.23924224 -0.259229 0.26705018 -0.16090253 -0.27314863
0.1391351 0.047077116 0.27912477 0.2463144 -0.0002564805 0.31949994 -0.2810207 -0.074151315
-0.024816854 -0.121794015 -0.0005886847 -0.17678025 0.064937666 0.055295393 -0.27759334 0.16931699
-0.35950872 -0.24760985 -0.08249717 -0.28404853 -0.114200786 0.00044434643 -0.15173782 -0.021467276
00000000: 81d4 4dbe e0c9 35be e236 1fbb c42a 36be
00000010: 718f b0bd 70ad 7abe 1476 89be 5680 b6be
00000020: 450b 83be ef74 1dbe c599 863c 27bd 0f3e
00000030: 05bb 9e3c d9d9 ec3d f42a af3e d8fc 303e
00000040: 24dc 53be 0ed9 8fbe 16c1 c83d bf82 d93e
00000050: fc6a 0abd 8e6e 013e d18c 253e bb2a 693e
00000060: 30a5 6c3d cf44 57b9 b7d6 683d 41bc 0b3e
00000070: 141a 2ebe 1dd0 043e a805 00be 7090 fb3d
00000080: 936a 80be 66ed 5e3d 29a7 edbd e291 763d
00000090: 1b62 45be b045 0e3e ed8b a7bd 8497 c93d
000000a0: d880 b53e a6c2 97be 0957 973e 882f 7cbd
000000b0: 8e7c 203e c8bb 9e3e 637a 283e 3c07 433e
000000c0: ae4f b8bd eeb1 2ebd 509d ff3d 4f22 96be
000000d0: 9f25 4c3e 13c5 d5bc 3872 53be 8696 84be
000000e0: 1f18 a33d 421a f03c 96f3 833d 7578 a13e
000000f0: db3e 9d3c b2ac 26be e65f 03be c2ad f93e
00000100: fe34 fe3d 4b92 0dbe 4c10 bd3e f040 4d3e
00000110: 8cf0 53bc c3cb 92be ad9c edbd 08d1 acbd
00000120: 3e57 843e 13fc 3b3e 614f 833d bd76 a1bc
00000130: 1146 553c d0c6 17be 1085 023e af58 0cbd
00000140: 0c82 a0bc f786 0fbe 3f49 2a3e 260f b5bd
00000150: 8853 36be 2e33 30be b9cb d43e f82b 42be
00000160: 6d21 563e 8411 25be 028c 34be 80bc 0b3e
00000170: c9d5 bebd 347c 1c3e a386 a43d fdbb 93bd
00000180: ded9 283e 8b5f a5be ecac 9abe 403f ce3e
00000190: 66db eb3d 0d20 c53d 747a f2bb 091f e83d
000001a0: 4918 1e3d d0c5 c33e b666 0f3e 4b06 8d3e
000001b0: 2f12 b9bd fedf d83d 9989 e3bd b2d4 153e
000001c0: fde2 0fbe c46e 5ebe 1820 c9bc 4505 02be
000001d0: 3a91 bcbe 6fef c7bc 0aa7 2e3e 842b aabd
000001e0: 7b92 1cbe 447f 74be b9e3 b13d 0321 febd
000001f0: 3806 14be 9861 9b3c 8726 4fbe 3a48 503e
00000200: 8c7e 93be 0b39 acbd 1b8e e4bd 02cc 6dbc
00000210: 0245 343e 2df1 b93d 43d3 87be 1d57 29bb
00000220: db6c 213e 2eb7 ef3d aee6 193e cfc5 8ebe
00000230: 907a db3d 9d8a 0f3e 3a8c 39be fdb2 043e
00000240: 8c24 62be 1923 ee3c b809 a5be df4d 12be
00000250: 16cd 2b3e 1954 83be 747f 4fbe 707c 053e
00000260: 5fcc daba 1f13 de3d 5bfb acbd 9155 a33e
00000270: d3f3 343c ae05 fb3d 1d09 863d ab7d 2ebd
00000280: d89e 52bd 6e99 1a3e 3afe abbb f55c 3b3e
00000290: 2fbb 653e b9f2 49be f64b d33c dd84 f73d
000002a0: ff23 4fbd fa8d a33c 1480 42be 18ac f03b
000002b0: 784a e63d 942d d3bd b12e 75be 313f 5fbe
000002c0: aa6f 2c3e 5ac1 783e 28f2 9bbd 9944 743e
000002d0: 2b12 123d d4a5 f53d 43c0 113e b044 fdbd
000002e0: 490f a13e e664 7f3d 2496 7b3e 68f3 89bc
000002f0: 4753 88bd 7d9c 86be 9786 74be c1d4 24bd
00000300: 11e3 993e 140d 853e 20ba 0fbe 58af a33d
00000310: b634 0c3e 3ed6 22be 4db8 2cbe e677 02bd
00000320: 10eb debc 2828 74bc 4882 55be 8d7d 26be
00000330: 7be1 6b3c 9c88 bd3c 0c85 b83b dccc 743e
00000340: 3f5a 8d3e 730e eb3d fdff a9bd c4db a1bd
00000350: b95a 2bbe a9c7 0abe 6926 01bd ed71 a63d
00000360: 14fd 363d 8089 15be 1104 66be e55b cdbd
00000370: df56 08bd 4f54 adbd 6a68 4dbe 70bd babd
00000380: edd3 bcbd 3c01 5fbe e930 ea3d ebfb 74be
00000390: aab9 84be cdba 883e a2c3 24be 23da 8bbe
000003a0: 6f79 0e3e efd3 403d 71e9 8e3e d839 7c3e
000003b0: 3b78 86b9 7f95 a33e f2e1 8fbe a5dc 97bd
000003c0: b74c cbbc 246f f9bd f651 1aba e205 35be
000003d0: 0afe 843d 6c7d 623d b720 8ebe 6f61 2d3e
000003e0: 8711 b8be 708d 7dbe 47f4 a8bd cf6e 91be
000003f0: 1ae2 e9bd 2bf7 e839 2961 1bbe 24dc afbc

hiden_layers.4.bias f4 [64]
0.019760402 -0.040737953 0.13268326 -0.14845176 0.06758826 0.07258845 0.21283133 -0.20187241
-0.04988827 0.029290104 0.018998688 0.10481926 -0.033855688 0.032076105 0.04243413 0.07422374
0.043154955 0.026542267 0.0030433682 0.016652005 0.12554158 0.0018072538 0.096765555 0.14564417
-0.035063118 0.015100434 0.02328809 -0.063596144 0.10133376 0.15440859 -0.18029083 0.088303715
0.05162731 -0.014022543 0.15363629 -0.08736788 0.26781514 0.23100896 -0.05309919 -0.11899092
-0.13370025 -0.024874147 -0.18596002 0.20472537 -0.17102048 -0.07911901 -0.05101516 0.14203076
0.0936807 0.0598316 -0.018004453 -0.2168496 0.16136774 -0.007323138 0.100680545 0.022585768
-0.10757172 0.10500591 0.0060974825 -0.03596288 0.11264473 0.20392779 -0.011511982 0.09620315
00000000: 91e0 a13c d7dc 26bd 1fde 073e bd03 18be
00000010: b76b 8a3d 41a9 943d 75f0 593e a4b7 4ebe
00000020: a557 4cbd cdf1 ef3c 23a3 9b3c 7bab d63d
00000030: 43ac 0abd 3c62 033d 69cf 2d3d 9e02 983d
00000040: 40c3 303d 2b6f d93c 3f73 473b c969 883c
00000050: f98d 003e 60e1 ec3a 052d c63d bf23 153e
00000060: 589e 0fbd d067 773c aac6 be3c b23e 82bd
00000070: 1388 cf3d 491d 1e3e 299e 38be 94d8 b43d
00000080: 2977 533d cfbe 65bc d552 1d3e eeed b2bd
00000090: 111f 893e 9d8d 6c3e 897e 59bd 83b1 f3bd
000000a0: b8e8 08be dec4 cbbc 4e6c 3ebe 87a3 513e
000000b0: fe1f 2fbe 2609 a2bd 46f5 50bd 8370 113e
000000c0: abdb bf3d fb11 753d 137e 93bc d20d 5ebe
000000d0: 963d 253e eff6 efbb 9a31 ce3d ca05 b93c
000000e0: 904e dcbd 570d d73d 64cd c73b d04d 13bd
000000f0: 48b2 e63d 72d2 503e c19c 3cbc 2806 c53d
