results/7_without_border/epoch340/model_weights.pth (torch, 749334 bytes, 128 tensors)

init_layer.0.weight f4 [64, 5]
000000 8a 61 78 be 5a c1 1e 3f 87 73 cd ba fc f5 76 bd
       -0.24255958 0.6201378 -0.0015674689 -0.060293183
000010 44 c6 23 bd 54 15 a5 3e 1a 2b 0f bf b9 91 36 be
       -0.039984003 0.32242835 -0.5592514 -0.17829026
000020 4b 26 95 3d 35 21 6b be 7e c8 70 bf 10 b0 16 bd
       0.072826944 -0.22961886 -0.94055927 -0.036789
000030 0b 16 6b 3d 60 ec 54 3d 84 0a c3 bd a1 3d d3 3e
       0.05739407 0.051983237 -0.0952349 0.41257957
000040 f8 ad bd bd ff 0c 43 bd 0c c0 1c bd ac ce 99 be
       -0.092616975 -0.047619816 -0.038269088 -0.3004049
000050 5d 4e b7 3e 60 69 9a bc b0 11 1d be 9a e1 6c 3d
       0.35801974 -0.018849075 -0.15338778 0.057832338
000060 6f 89 2a 3e b5 97 0b 3d 65 50 b8 bd d9 fa 9a 3b
       0.1665399 0.034080226 -0.08999709 0.0047296104
000070 4e a4 58 bd f8 dd 20 3c 36 ef de bd 9d 6d 4f be
       -0.05289107 0.0098185465 -0.108854696 -0.20256658
000080 57 0d 32 3e f3 d4 f9 3d 97 fc fb bd 2e 8e a0 bc
       0.17387901 0.1219882 -0.12304037 -0.019599047
000090 98 dd 78 be 36 b7 28 3e 17 4a 1a be 40 0a 68 3e
       -0.24303281 0.1647614 -0.15067326 0.2266016
0000a0 ad f4 3c 3e 53 be 1a 3d 8c 7a 48 be 8c 4e e3 3d
       0.18452711 0.037779164 -0.19577998 0.11098966
0000b0 fc 23 0d 3e e1 ba 30 3e 3e bf 9d 3e b3 8e 81 bd
       0.13783258 0.17258789 0.3080997 -0.06326046
0000c0 c1 04 cc 3d 73 38 64 3c d4 88 1d 3e c8 33 1d 3d
       0.09961844 0.013929474 0.15384227 0.03837946
0000d0 65 d6 0a be 91 46 d5 bd e5 6f 67 bd fb e9 89 be
       -0.13558348 -0.1041385 -0.056503195 -0.26936325
0000e0 18 ae a0 bc 21 22 12 3e 36 b4 f6 bd 14 74 ef 3d
       -0.019614264 0.14270832 -0.12046091 0.11692062
0000f0 be 49 97 3a 44 08 89 3b d9 6c e6 3a e6 52 44 ba
       0.0011542363 0.0041818935 0.0017580047 -0.00074891595
000100 a7 39 a0 3b df fb 06 3e 8d 60 5e bd cc 74 5b 3c
       0.004889685 0.13182019 -0.054291297 0.013394546
000110 b5 c3 cb bd 92 59 40 3e 1d b2 d2 bd 28 d2 e7 be
       -0.099494375 0.18784168 -0.10287879 -0.45277524
000120 75 cc eb 3c 76 47 6c 3d 91 61 c7 bd 57 f3 c4 bd
       0.028784016 0.057685338 -0.09735406 -0.09616726
000130 7c b8 a3 be 17 89 66 3d b6 7f 26 bd 75 b8 3c bd
       -0.31976688 0.056283083 -0.04064914 -0.04607435
000140 e5 0e 2e be ac 07 0d be e6 77 9a be c7 1d 99 3c
       -0.1699787 -0.13772458 -0.301696 0.018690957
000150 14 fd 92 be d7 a8 3c 3f 56 7c 78 3e 05 bb 00 be
       -0.28708708 0.7369513 0.2426618 -0.12571342
000160 de 9c d3 3d dd 66 56 be 51 8e 19 3e 89 d3 8f 3c
       0.103326544 -0.20937677 0.14995696 0.017556923
000170 2f b8 58 bc ce 67 8c 3c b0 59 0c 3d 6b 6e 8d 3c
       -0.013227507 0.017139342 0.03426522 0.017264565
000180 d3 c8 4b 3d ff b9 a4 3d df 70 ab 3c e0 cf 6a 3d
       0.049752068 0.080432884 0.020927845 0.05732715
000190 63 c8 e2 3c 0a 65 4e 3e 5c c7 87 3e 54 2b 11 be
       0.027683442 0.20155731 0.26519287 -0.14176685
0001a0 3d 9b 99 be 56 ef 90 bd c1 65 4a 3b 2b 46 7f 3a
       -0.3000125 -0.070769 0.0030883404 0.0009737934
0001b0 f3 10 f5 bc 99 81 02 3d 3e 7a 88 be 7c e4 dd 3d
       -0.029915309 0.031861875 -0.26655763 0.108345956
0001c0 d4 0e 2b 3e cb 82 b2 bd 8d 3e 44 3e 63 22 eb 3e
       0.16704875 -0.08716353 0.19164486 0.45924672
0001d0 88 c2 28 be b6 d8 86 3e 5e b4 90 3d 62 22 94 be
       -0.16480458 0.26337212 0.07065652 -0.28932482
0001e0 b0 c7 12 be e8 84 fd bd f6 1e 3c 3e 9b 7b 13 3e
       -0.14333987 -0.123788655 0.18371186 0.1440262
0001f0 d5 09 28 be c3 35 64 be 11 ff a8 be e6 1c 4d 3e
       -0.1641 -0.22286133 -0.330071 0.20030555
000200 a2 cd 20 3d b5 47 5c be ad 99 64 3d f9 a9 dc 3d
       0.039258607 -0.21511729 0.05581062 0.10774607
000210 8b e5 7c bc 21 f4 5d 3d a9 1e e5 3d 4f 57 c7 3e
       -0.015435587 0.054187898 0.111874886 0.389338
000220 67 37 38 3e 63 c8 04 bc 1f db 68 3c 85 31 81 bc
       0.17989884 -0.008104417 0.014212399 -0.015770683
000230 f6 81 3d bf f7 b3 36 be d1 83 0d be 13 21 9b bc
       -0.7402643 -0.17842089 -0.13819815 -0.01893667
000240 04 22 0b be 27 fe 1c 3d 53 13 5a bd 40 85 af bd
       -0.13587195 0.038328316 -0.053241085 -0.08570337
000250 bd 2e b3 3d ed 55 cb bd 37 d2 2e bc 84 0c 15 3c
       0.08749149 -0.099284984 -0.010670236 0.009097222
000260 0f 62 47 3c d0 cb 41 3b 67 4a e3 3c f4 99 56 3e
       0.012169375 0.0029570945 0.027745439 0.20957166
000270 a1 b0 bf bb 01 cb b3 bd 39 9d a3 3d c4 5f 5a bd
       -0.005849913 -0.08778954 0.07988972 -0.053313985
000280 71 b8 76 3e 5c e0 cf 3e 26 00 4f be 29 f5 80 bd
       0.24093796 0.4060086 -0.202149 -0.062967606
000290 9c c4 8d be ea 94 93 bd 63 7a 4d 3e 11 44 d3 3c
       -0.27689064 -0.072061375 0.20066218 0.025789293
0002a0 ea 3d d8 3c d9 e2 54 bd 9c 8d af be 7e 0d 1b be
       0.02639671 -0.05197415 -0.34287727 -0.15141866
0002b0 18 99 49 bc cf 3e d7 bc 0f f1 06 3e 4f 7b 52 3e
       -0.012304567 -0.026275067 0.13177894 0.20554851
0002c0 13 d2 85 3d 28 d8 5e 3e 64 f0 04 3e ce 73 b6 3e
       0.06534209 0.21762145 0.12982327 0.35635227
0002d0 bf 96 fd bd 63 62 b9 3d 9c 78 27 be 25 83 77 be
       -0.12382268 0.09051969 -0.16354603 -0.24171121
0002e0 dc 36 9c 3c 62 18 9d 3e 3b 55 9f be b9 8f d8 3d
       0.019069128 0.30682665 -0.31119713 0.10574288
0002f0 2c 15 37 3e 7d 01 42 3e 5f a7 b6 3e 1f 70 d7 be
       0.1787917 0.1894588 0.3567457 -0.4207773
000300 71 34 2b 3d 3a d3 46 bd 26 93 ee 3d 76 09 2d be
       0.04179806 -0.048541285 0.1164916 -0.1689814
000310 df 6e cf be 71 c1 01 be cb 84 46 ba bc 08 45 3e
       -0.40514275 -0.12671448 -0.0007572888 0.19241613
000320 7f 75 31 be 1d a1 55 3d 40 c6 0a 3e c9 65 ca bc
       -0.17329977 0.052155603 0.13552189 -0.024706738
000330 b5 ca c9 3d dc 4c 85 bd 70 1d 05 bc f4 7d 2a be
       0.098531164 -0.065088004 -0.008124694 -0.1664961
000340 36 6f 90 3d 56 78 6f bd f1 72 8f 3e 01 b6 cf 3e
       0.07052462 -0.05846437 0.2801738 0.40568545
000350 5d 26 bf 3c f3 c5 1f 3e a7 9d 89 bd 8a c8 0e bf
       0.023333723 0.15602855 -0.06719523 -0.5577475
000360 0e 9b a9 be bf 33 2e bd d9 61 d8 3d 3c 24 df 3d
       -0.3312611 -0.042529818 0.10565538 0.10895583
000370 c3 03 21 bf f1 4b 97 3e ad 8d 0c bd e8 da 98 3d
       -0.62896365 0.29550126 -0.0343148 0.07463628
000380 4b 74 77 bd 33 c0 8e 3e de fd 8c 3e 9f ba a8 3d
       -0.06041364 0.2788101 0.27537435 0.0823872
000390 2c c5 4e be 8c d1 9a 3d 8e 81 ad bd 16 5d d9 bd
       -0.20192403 0.07559499 -0.08471976 -0.10613458
0003a0 94 94 9a 3d de 6a 97 3e a8 c7 bc bd 25 ca c4 be
       0.0754787 0.2957372 -0.09217769 -0.38435474
0003b0 e1 11 dd 3e 42 91 9a 3d c8 7d 37 3e b1 ca 12 bc
       0.43177703 0.07547237 0.17919075 -0.008959458
0003c0 3c d6 0d bf 3a a3 b0 bd 02 ac a3 3d be 64 81 bb
       -0.5540502 -0.08624883 0.07991792 -0.003948777
0003d0 2f 7d 07 3e 8c 4d 25 3e 59 42 ae be 53 04 e7 39
       0.13231348 0.16142863 -0.34034994 0.00044062975
0003e0 53 56 07 bd 65 56 11 3e 48 5e c8 3e 59 94 ab 3e
       -0.03304131 0.14193113 0.3913443 0.33511618
0003f0 b3 9d 0d be 87 9f 47 3d 46 f2 cb bd 3c b0 94 3d
       -0.13829689 0.04873612 -0.09958319 0.072601765

init_layer.0.bias f4 [64]
000000 9d db 96 bd 8d 52 d0 bd 2d 20 33 be aa 6c 68 3d
       -0.07366107 -0.10171995 -0.17492743 0.056744255
000010 48 cb 99 be 56 ac 0d 3d f4 a0 04 3e 2e e5 07 3d
       -0.30037904 0.03458818 0.12952024 0.033177547
000020 a7 73 0b be 41 ea f5 bd be 2c 8c bd 56 f2 2a 3e
       -0.13618337 -0.12007571 -0.068444714 0.16694006
000030 ba c6 29 3a 65 52 88 3d 3a db d6 3c 63 dc 96 bc
       0.0006476451 0.066563405 0.026227582 -0.018415635
000040 9f eb 86 be 69 37 97 3e 1e 74 d1 3c 99 7b 64 bd
       -0.2635164 0.29534462 0.025568064 -0.055781934
000050 99 51 87 bd e0 4e 5c ba 06 ba 5c 3e 62 c4 1b 3e
       -0.066073604 -0.0008404087 0.21555337 0.15211633
000060 e9 4b 7f bd f4 7f 8c bd cc 6b b6 bb f6 b2 13 3e
       -0.062328253 -0.068603426 -0.0055670496 0.14423737
000070 7d 99 a2 be 2f c2 0d be bc c2 43 bc 05 d0 0d be
       -0.31757727 -0.13843606 -0.011948284 -0.13848884
000080 7d a4 ef bd 60 c7 4b 3d b5 99 06 bc 93 78 08 bd
       -0.117012955 0.049750686 -0.008215358 -0.033318114
000090 2b 3a 95 be 3a 95 f2 3d e2 7d 65 3e 61 47 18 be
       -0.2914594 0.11844869 0.22411302 -0.14870979
0000a0 43 34 b9 3d a4 15 8e be 8c 3c 48 3c 8d 8b 93 be
       0.09043171 -0.27750885 0.012221467 -0.28817406
0000b0 5d 11 1d be b0 55 68 3e 09 91 d6 bd af cd a7 bd
       -0.15338655 0.22688937 -0.10476882 -0.08193528
0000c0 e2 f6 c1 bd 0f cb 6b bd 12 75 bc 3d de d4 c0 3e
       -0.09470917 -0.0575667 0.09202017 0.37662405
0000d0 13 2c 26 3e 4d 2c 20 bd 50 85 82 bc 75 d4 59 bd
       0.1622775 -0.03910475 -0.015932709 -0.05318113
0000e0 6e b5 9f bc ba 8a 0f be cc 53 7c 3e c8 c0 33 bd
       -0.019495692 -0.14017764 0.24641341 -0.043885022
0000f0 2f 64 12 3c 96 36 b9 3e 71 cb 59 be ef 42 1a bd
       0.008935018 0.36174458 -0.21269013 -0.03766149

hiden_layers.0.weight f4 [64, 64]
000000 9c b8 40 3d 84 0a 14 3d f3 e7 99 3e e5 99 45 be
       0.047051057 0.03614284 0.30059776 -0.19296987
000010 f5 cf 09 be f4 e6 63 be 03 d9 66 3d 3a 01 82 be
       -0.13458236 -0.2225607 0.056359302 -0.2539156
000020 00 0d 1c 3d f2 2d 13 3d e9 30 b7 3d 4e a1 23 be
       0.038098335 0.03593249 0.08944876 -0.15979502
000030 2b 82 6c be 73 b9 53 3e 15 08 0a 3e 7e f9 62 be
       -0.2309653 0.20676212 0.13479646 -0.22165486
000040 fd f6 2f be b7 63 65 be 47 23 35 3e bf 2c d5 bd
       -0.17184062 -0.2240132 0.17689238 -0.10408925
000050 55 0e 98 3e 19 87 a6 3d d2 d1 0b bd 01 73 93 3e
       0.29698434 0.081312366 -0.034135647 0.2879868
000060 77 11 93 bd 57 83 48 3d 7f ef 44 bd bf 3a e4 3c
       -0.071810655 0.04895338 -0.048079964 0.027860044
000070 12 00 61 bc 92 13 24 be 3b b2 52 be ae 5e 55 be
       -0.013732927 -0.1602309 -0.20575802 -0.20836899
000080 c3 a4 50 be d4 87 b8 3d 51 be 40 bd b0 51 8d 3d
       -0.20375352 0.09010282 -0.0470565 0.06900346
000090 0e 15 a0 3d d3 5a 8a bd 66 24 07 be 3e 2d 50 bd
       0.07816516 -0.067556046 -0.13197479 -0.050824396
0000a0 15 ee d3 3d f4 db 8e 3b ca 51 8e be f2 4a 0d 3e
       0.10348145 0.0043597165 -0.27796775 0.1379812
0000b0 64 d6 da 3d 20 ab d4 3d c7 22 64 be 36 1e 7a 3d
       0.10685423 0.10384202 -0.22278892 0.061063968
0000c0 ee 43 89 bd d2 1d 9a 3a fb 0b 39 3e 1d 2d 90 bc
       -0.0670241 0.0011758155 0.18070976 -0.017599637
0000d0 c7 76 3a be 7b 96 3a 3e f3 c1 0b be cb 71 86 bd
       -0.18209372 0.18221466 -0.13648205 -0.06564673
0000e0 be 5b 00 3e 8f 17 e3 3c 2f 0a 9a 3d 1b c7 e7 bd
       0.12534997 0.027721195 0.075214736 -0.11317273
0000f0 02 e6 fc 3d 3e d9 2f 3e cb c7 af bd 67 5c e4 bd
       0.12348558 0.17172715 -0.08583029 -0.11150437
000100 35 83 29 3e 80 a7 8f bc 21 a7 ae 3d 76 cb a7 bd
       0.16553958 -0.017535925 0.08527971 -0.08193104
000110 6e bd b2 bd ff 55 a6 bb a3 a9 a5 bb f7 40 5d be
       -0.08727537 -0.0050761695 -0.0050556227 -0.21606813
000120 66 15 68 3c 4b ce 6b 3e 64 cd f6 bd f0 eb 0a be
       0.014165258 0.23027913 -0.12050894 -0.13566566
000130 dd ed 11 3c 38 d0 bb 3d 9c 88 fa 3d 3e d9 30 be
       0.008906809 0.09170574 0.122330874 -0.17270371
000140 de c3 5c 3d 91 1a 08 3d 2f 81 ee bd 8f f3 4a be
       0.05389773 0.03322846 -0.116457336 -0.19819473
000150 ab 82 cf bd 02 cf c6 3d d1 66 d9 bd f4 27 08 be
       -0.10132345 0.09707452 -0.10615314 -0.13296491
000160 c6 c7 3a bd cc 3a f5 3c c4 c3 99 3e 7a 9b 36 bd
       -0.045600675 0.029935263 0.3003217 -0.044581868
000170 30 32 3b be 46 5b ff bd 3d 2b 0d 3e d0 2d 8f 3d
       -0.18280864 -0.12468581 0.13786025 0.0699116
000180 34 0b 3a bd 8e f4 0f 3e ef 01 4c 3e 77 76 00 3e
       -0.04542084 0.14058134 0.19922613 0.12545191
000190 50 9e eb bd 02 2e d8 3b a7 b1 92 bd 3b a2 1a be
       -0.11504805 0.0065972814 -0.07162791 -0.15100949
0001a0 4b 30 16 3d e1 03 e7 3d 63 88 cf 3d 4e 1e d2 bd
       0.03666715 0.11280037 0.101334356 -0.102596864
0001b0 af d2 e1 bd a3 93 81 3e 98 bc 66 bd 1b 3d e3 bc
       -0.11026513 0.2530795 -0.0563322 -0.027739098
0001c0 34 76 d7 bd 1b 30 bb bd ef 08 91 3d dd ef 21 bc
       -0.10520592 -0.09140035 0.07081782 -0.009883848
0001d0 64 b2 2f be 57 bd 3e be 91 07 70 3e ef 6e 55 bd
       -0.17157894 -0.18626915 0.23440386 -0.052107748
0001e0 09 b4 62 3e c8 2f 0b be a8 49 81 bd e6 19 15 bd
       0.2213899 -0.13592446 -0.06312877 -0.03640165
0001f0 6f 49 70 be 58 fd 49 3e 7b 1b 01 be 8f f7 8a 3d
       -0.23465513 0.19725549 -0.12608139 0.06785499
000200 99 c8 b7 3d ec d6 7e 3e ec 58 17 3d ce 7b db 3d
       0.08973808 0.24886674 0.036950037 0.10716973
000210 43 7a 6b 3e d4 b1 06 bd b2 f2 a1 bd 75 39 eb 3c
       0.22995858 -0.032884434 -0.079076186 0.028713921
000220 0c ff 74 3e fd c5 a1 3e ff 89 e1 bd c4 a4 6a be
       0.23925418 0.31596366 -0.11012649 -0.22914416
000230 33 4a 25 be e7 eb 3b be e7 63 0c bd a9 c9 0a 3e
       -0.16141586 -0.18351708 -0.03427496 0.1355349
000240 b3 38 b1 3d e6 46 35 bc 82 06 07 3e e2 71 74 3d
       0.08653393 -0.011064267 0.13186076 0.05967892
000250 f2 aa 21 3e 39 10 fc bd 16 7b 80 3d 94 88 ef 3d
       0.15787867 -0.12307782 0.06273477 0.11695972
000260 97 14 64 bd 49 49 13 be 33 cd cd 3d 58 f8 8a 3d
       -0.0556837 -0.14383425 0.10048904 0.06785649
000270 e7 7f a6 bd 6f dd 1a 3b 30 03 bc bd a5 7b d1 bc
       -0.08129864 0.002363052 -0.091802955 -0.025571654
000280 a6 38 27 be 2b 64 b3 3d 20 4b ef 3c 7e cc 6f 3e
       -0.16330203 0.0875934 0.029210627 0.23417851
000290 8a bc 5f be 5f c2 92 3e 34 11 41 3d 4e 27 8a b9
       -0.21849266 0.28663918 0.047135547 -0.00026350695
0002a0 c7 ae 0f bd 99 b6 1c 3e f2 48 59 3e 89 4e e0 3b
       -0.03507879 0.1530403 0.21219233 0.0068452996
0002b0 0d 56 98 bd d9 2a 3b 3e ee 41 40 be 09 82 4a bc
       -0.07438288 0.18278064 -0.1877515 -0.012360104
0002c0 97 ff 6e be 4c 0c f6 bc e3 3e 18 bd 6e ed 0a be
       -0.23339687 -0.03003516 -0.03716935 -0.13567135
0002d0 3e 7e 25 3d 0e de 0e 3e 6e 8b f8 bd 44 6e 34 be
       0.040403597 0.13951895 -0.12135969 -0.17620188
0002e0 3c 00 e3 3d 54 91 46 3e fa 84 b2 bd 7e ba 34 be
       0.11084029 0.19391376 -0.087167695 -0.17649266
0002f0 17 4a 1a be c8 9f e9 bd d4 91 24 3e 2f 6f eb 3d
       -0.15067326 -0.11407429 0.16071254 0.11495816
000300 8c 1b 85 3e b7 ac 63 bd a7 9b 54 3e 71 6e 2c be
       0.2599758 -0.055584636 0.20762502 -0.16839005
000310 4a a2 7e 3e 7e b8 14 3e b6 60 ba 3c d7 7a d3 3c
       0.24866596 0.14523503 0.022751193 0.02581541
000320 27 8f 25 3e 76 2a 8f 3e 0d d2 5b 3e a9 4b 88 be
       0.1616789 0.27962083 0.21466847 -0.26620224
000330 f1 aa fb bd 3a 47 3c 3e 05 10 ba bc c1 80 d2 bd
       -0.12288464 0.18386546 -0.022712717 -0.10278464
000340 67 5a 8d 3e 09 84 89 be 42 af 5a 3d 04 df 04 bd
       0.27608034 -0.26858547 0.053389795 -0.032439247
000350 44 6f ad bd ca 9d bd bb 65 56 ca be cd 7c 7d 3d
       -0.08468488 -0.005786632 -0.3951904 0.061886597
000360 29 bc 11 bd 29 93 62 3b 9e 23 f4 bd 04 f8 d1 bd
       -0.035579834 0.0034572578 -0.11920856 -0.10252383
000370 79 d8 6d 3e ef ad 9a 3e c3 bf 1a be df 13 7e 3d
       0.23227109 0.30210826 -0.15112214 0.06203067
000380 80 c8 d0 3e 7e 95 16 be 3f d3 ca 3c 45 6d b4 3d
       0.4077797 -0.14705464 0.024758933 0.08809904
000390 60 0b 8b 3e 4a 5b 98 3d 58 7f 0c be 22 47 33 be
       0.27157116 0.07439287 -0.13720453 -0.17507604
0003a0 e7 a9 4d be d0 81 f2 3e 5e 5f 55 3e 5a cd f5 3d
       -0.20084344 0.47364664 0.20837161 0.12002058
0003b0 59 9b 52 3d f8 6a 8a be ee 92 a0 bd 40 16 05 be
       0.051417682 -0.27034736 -0.078405246 -0.12996769
0003c0 ee 10 8a 3d 89 f0 bb 3e c2 de 81 be e1 6e e6 be
       0.0674151 0.3670695 -0.25365263 -0.4500647
0003d0 e7 e9 0f be b2 73 48 be 8a 9e 69 be f8 ca 33 3e
       -0.1405407 -0.19575384 -0.22814384 0.17557895
0003e0 eb 6e 9c 3d 12 18 05 3e 52 ab 0e 3e 9a 18 04 be
       0.076383434 0.12997463 0.13932541 -0.1290001
0003f0 3a d2 3b be ed 27 25 bf a3 25 90 3e 71 dc 10 3e
       -0.18341914 -0.64514047 0.28153715 0.14146592

hiden_layers.0.bias f4 [64]
000000 05 9b a3 3d cc 69 58 3d 54 91 e4 bd b4 86 ad be
       0.07988552 0.05283527 -0.11160532 -0.33891833
000010 d4 06 84 bd 89 ec ad ba 5b 1d c0 3d 9f 32 9c 3e
       -0.06446615 -0.0013269346 0.09380599 0.3050737
000020 fc a6 85 3d df 81 bc bd aa a4 8b 3e f5 45 1c 3e
       0.0652599 -0.092044584 0.27274066 0.15261061
000030 c6 23 8c 3d 11 ea 4d be 64 02 b3 3e e3 05 66 bb
       0.06842761 -0.2010882 0.3496276 -0.0035098724
000040 ef 3e 0a 3e d6 76 f5 3c 1a 15 b7 bd 58 2b f4 3c
       0.1350057 0.029963892 -0.08939572 0.029805824
000050 8e d4 0b be da 4c 26 3d e8 d2 c3 be 5a f6 a7 bd
       -0.13655302 0.040600635 -0.38246846 -0.08201285
000060 6e 0e 0f 3e 80 e7 dd 3b f0 67 af 3c da 9c ea 3d
       0.13970348 0.0067719817 0.021411866 0.11455698
000070 03 93 02 3e 78 24 28 3e c5 bd 42 bd 9c ca 45 3e
       0.12751393 0.16420162 -0.04754426 0.1931557
000080 83 29 b4 3e 19 36 1b 3e a0 c1 07 be e5 96 9e 3e
       0.3518792 0.15157355 -0.13257456 0.30974498
000090 8a 25 01 bd 3d c1 55 bd b7 32 2c be e9 23 3e be
       -0.03152994 -0.05218624 -0.16816221 -0.18568386
0000a0 fe 6d 73 bd ef 34 2a be 3c 2f be 3e 3a b5 4f be
       -0.05943107 -0.16621755 0.37145412 -0.20283976
0000b0 e5 1b 4d bd 1a f1 8b bb c4 95 04 be 2f 85 ec bd
       -0.05007543 -0.004270685 -0.12947756 -0.1154884
0000c0 49 68 31 3e 14 bd 12 be f8 4a 30 3e 84 c7 c9 3d
       0.17324938 -0.1432994 0.17216098 0.09852508
0000d0 f7 e0 1c be 6d b7 e5 3d e8 fc be 3d 33 74 30 bd
       -0.15320192 0.11216626 0.09325582 -0.043079566
0000e0 78 f5 56 3d 4b d3 c6 bd db 8f 3a 3d a2 16 58 be
       0.05248019 -0.0970827 0.045547348 -0.21102384
0000f0 aa 00 8e bc 76 a7 4b 3e e1 6a 12 3e d3 1c 46 be
       -0.017334301 0.198881 0.14298584 -0.19346933

hiden_layers.1.weight f4 [64, 64]
000000 91 e3 c6 bc 8e a5 8f bd d0 f1 a9 3c 9b 39 5b bd
       -0.024278434 -0.07013999 0.020745188 -0.053521734
000010 91 de 41 3d f3 9e fe 3d 42 a4 3d 3d e0 fa 05 bd
       0.047331396 0.12432661 0.046299227 -0.032709956
000020 06 62 a8 bd 3e 9a 60 be 7e d0 11 3e ab 42 00 be
       -0.082218215 -0.21933839 0.1423969 -0.12525432
000030 93 37 43 3e 52 2e 0c 3d 4b 78 ad 3d fb 54 3e 3e
       0.19064169 0.034223862 0.0847021 0.18587105
000040 c5 e8 01 bd 59 d4 6e 3c 39 6f 9c bd 96 4d 52 be
       -0.031716127 0.014576995 -0.076384015 -0.20537409
000050 61 b3 28 3e e7 ef fc be bd 56 26 3e 7f 78 7b 3e
       0.16474678 -0.4940178 0.16244026 0.24557684
000060 bd c0 6a 3b c5 10 bc 3d ab 36 e3 bc 07 58 a5 3d
       0.0035820447 0.09182886 -0.027736029 0.080734305
000070 28 4d 94 bb f3 aa 55 3e b5 02 1e 3e 53 ec 05 be
       -0.0045257993 0.20865993 0.1543072 -0.13078432
000080 18 54 e0 bc 15 6b 31 be db 8d 09 be 21 2e de bc
       -0.027383849 -0.17326005 -0.1343302 -0.027121605
000090 25 14 82 bd ee 62 f6 3c d9 0d 5f 3d a0 ae 87 bd
       -0.063514985 0.03007647 0.054456566 -0.06625104
0000a0 87 d4 c0 bc c4 e1 79 3c 9e 2f a7 3d 01 a3 fe bd
       -0.023538841 0.015251581 0.08163379 -0.12433434
0000b0 34 38 28 3d 18 9e 7f bd 1c 95 d2 3d a0 90 f0 bd
       0.041069224 -0.06240663 0.102823466 -0.11746335
0000c0 f3 c9 29 bb 92 6d 1e 3e 65 62 d5 3e ee 23 2f 3e
       -0.0025907725 0.15471485 0.41676632 0.1710355
0000d0 03 02 cb bd 47 c3 1f 3e 60 df c3 3d af 32 95 3c
       -0.09912493 0.15601836 0.0956409 0.018212644
0000e0 d4 1c 0e 3e 9e cd 75 3d 64 d5 19 bd d8 43 53 3d
       0.13878185 0.060010545 -0.03755702 0.051578373
0000f0 77 dc 82 be 58 9e 6c 3e 09 e5 e6 bd 6e 33 05 3c
       -0.25558826 0.23107278 -0.11274154 0.008129938
000100 44 43 8c 3e 53 07 09 bf 1a c5 3c bf 6f b2 cd be
       0.2739507 -0.535268 -0.73738253 -0.40175197
000110 a7 f5 41 3e 5a 8f 36 bd e4 92 43 3c e4 5e 42 3e
       0.18941365 -0.044570304 0.011936877 0.1898151
000120 40 6c 78 3f 84 be a8 3f ea bc 92 3e f1 97 e4 3e
       0.97040176 1.3183141 0.28659755 0.44647172
000130 8f cd d3 bd 12 e8 d1 3e c9 55 55 bf 87 15 90 be
       -0.103419416 0.40997368 -0.8333402 -0.28141424
000140 35 c5 14 bd 38 dc 1e be 98 a9 96 3d 1f 27 6c 3d
       -0.036320884 -0.15513694 0.07356566 0.057654496
000150 e4 00 bc bd e6 9b 70 be df ac b3 3e f8 40 24 bf
       -0.091798574 -0.2349697 0.35092828 -0.64161634
000160 cf 3e bb 3e 3a 7c 38 3e 7d e7 d9 bd dc e6 db bf
       0.36571357 0.18016139 -0.10639856 -1.7179828
000170 c5 ab 2b bf 5c 9e e8 bd b6 c2 aa bd 8d 6d 36 be
       -0.67058975 -0.1135833 -0.083379194 -0.17815228
000180 f7 af aa 3e 1b d9 22 3f 1b cb 4f be 7e 73 fa b8
       0.33337376 0.63612527 -0.20292322 -0.00011942441
000190 d0 fa 0c be bc 58 b2 bd 68 c0 b6 3d 29 45 d1 be
       -0.13767552 -0.08708331 0.08923417 -0.40873078
0001a0 e0 79 eb 3e e7 40 47 3f 66 d2 ef 3d 81 08 c7 bc
       0.4599142 0.7783341 0.11710052 -0.024296047
0001b0 c8 ab c2 bd b7 fd 13 3d b6 14 05 3f 58 3c 6c bf
       -0.09505421 0.036130633 0.5198473 -0.9227958
0001c0 1e 3d e2 3d c8 be d4 be 2a 63 42 3d bf 2f 9d 3e
       0.110468134 -0.41551805 0.04745785 0.3070049
0001d0 66 97 79 bc 03 a5 99 3e e4 e8 39 3f c7 37 c3 3e
       -0.01523385 0.30008706 0.7262099 0.38128492
0001e0 08 18 09 be 58 56 32 3e ee 0e d0 3e 3c f6 28 3e
       -0.13388073 0.1741575 0.4063639 0.16500181
0001f0 f8 1d 2a 3d 83 db 17 3c ca fb c5 3e f0 9e 8f 3d
       0.041532487 0.009268644 0.38668662 0.07012737
000200 64 13 ae bc a9 6d d0 3d 08 28 ac 3d b8 0d a7 3d
       -0.02124948 0.10177166 0.08406073 0.081569135
000210 20 06 05 be f9 c4 85 3d e2 72 c2 3d b2 04 c8 3d
       -0.12990618 0.0653171 0.094945684 0.097665206
000220 ef 13 21 be 50 6f 0e be 8f 9d 20 3e a7 79 3d be
       -0.1573026 -0.1390965 0.15685104 -0.18503438
000230 90 da 46 3e c3 5f b8 be 24 1c ed 3d 41 f0 d2 3d
       0.19419312 -0.3601056 0.11577633 0.10299731
000240 de c0 47 bd 3e cb 97 3d 5c 9c 03 3c dc 2a a8 bd
       -0.048767917 0.07411812 0.008032884 -0.082113
000250 59 ca 7b 3c 14 a4 97 bd c8 17 67 be 6b 88 87 3e
       0.015368068 -0.07404342 -0.22567666 0.26471266
000260 2f 09 9c 3c af 7c a2 3e 2b ef b7 3d 11 e9 2f bd
       0.019047348 0.3173575 0.089811645 -0.04294688
000270 c6 1a 30 3e 02 ab 5e 3e 66 02 3d 3e d6 f8 b1 bd
       0.17197713 0.21744922 0.18457946 -0.0869004
000280 e2 73 b8 3d e2 1a ae 3d 77 47 87 3c 89 2f a7 bb
       0.09006478 0.08501221 0.01651357 -0.005102102
000290 6c f4 1e 3e 57 2d 38 3e c5 fd 07 be fa d9 3b 3e
       0.15522927 0.17986046 -0.13280399 0.1834487
0002a0 7b b8 b3 bd 28 ee a8 bd 95 67 81 3d 42 66 ca bd
       -0.08775421 -0.0824855 0.06318585 -0.098827854
0002b0 f8 71 60 3e 14 63 8c 3c 6e ad 9b 3d b2 3a ed 3d
       0.21918476 0.017137088 0.076014385 0.11583461
0002c0 99 16 f9 bd 4a 34 fb bd f4 4e cd 3c ed cb 25 be
       -0.12162513 -0.12265833 0.025062062 -0.16191073
0002d0 71 23 a0 be 6c 34 0a bd b2 fb 21 be d5 d8 3e 3c
       -0.3127704 -0.0337414 -0.1581867 0.0116483765
0002e0 f6 46 ae bd 12 27 76 3e 78 95 21 3e 53 d7 b7 be
       -0.085096285 0.24038342 0.15779674 -0.35906467
0002f0 29 61 9e bd 82 e3 2a 3d 38 7f 6b 3e 5a f6 e0 3d
       -0.077333756 0.041720875 0.22997749 0.10984488
000300 17 e8 74 3e 90 f2 8c bd 73 23 2b be bb cb 8e be
       0.2391666 -0.068822026 -0.16712742 -0.2788981
000310 ce 31 bf bd fd aa 61 3d 6e 30 0b 3e 3d 53 c3 be
       -0.09335671 0.055094708 0.13592693 -0.38149443
000320 de a1 61 bd dc 43 22 be 7a b0 06 bf 72 02 e3 bd
       -0.05508601 -0.15846199 -0.5261303 -0.11084451
000330 6c 47 60 be 26 f9 8e 3d 49 f1 02 be 2c 84 fb 3d
       -0.21902245 0.06981115 -0.12787355 0.12281069
000340 5b 2f 0f 3d 48 b0 45 3d 6c 88 c2 3c 25 96 31 bd
       0.03495727 0.048263818 0.023746692 -0.04335608
000350 ff d1 c2 3c e4 75 1c be d1 96 6b bb 93 87 ba 3e
       0.023781775 -0.15279347 -0.0035948048 0.3643156
000360 fb e3 d9 bd 7f 0a 03 3e 6e 8a ba bd 4b f7 61 3d
       -0.10639187 0.12796973 -0.091084346 0.055167478
000370 0a 68 76 3e 6e 48 da 3a 30 41 1c 3d 96 38 9d 3d
       0.24063125 0.0016653666 0.038148105 0.076768085
000380 9b 10 44 be 8b 1f 5f 3e c7 28 c3 3c 75 2d 0d 3f
       -0.1914696 0.21789376 0.023823155 0.55147487
000390 4a 2d 6d bd 76 d4 e8 3a 2a 83 ba bd 95 c2 1f 3e
       -0.05790452 0.0017763514 -0.09107049 0.15601571
0003a0 e5 bf 55 3d 70 f7 92 3b e3 9d 05 3e 20 c7 39 bd
       0.052184958 0.0044850633 0.1304851 -0.045355916
0003b0 29 c1 77 3d af 88 6c bc 4f 78 ec 3b f0 d4 1d 3e
       0.060486946 -0.014436885 0.0072164903 0.1541326
0003c0 1b 16 2b 3e 7f 58 85 bd 9c bc e5 3c 0d 8a 51 be
       0.16707651 -0.0651102 0.028044038 -0.20462818
0003d0 d5 db 0c be 41 52 c4 bd 1b fb 15 3d 25 4c 0e bf
       -0.13755734 -0.09586001 0.036616426 -0.5558494
0003e0 08 b2 74 3d 09 e2 af bd f9 d4 17 3d 74 43 f6 be
       0.059740096 -0.08588035 0.03706834 -0.48098338
0003f0 59 88 6d be 97 f2 f2 3c 79 56 9f be 66 c8 53 bd
       -0.23196544 0.029656691 -0.3112066 -0.051704787

hiden_layers.1.bias f4 [64]
000000 ef c5 09 3d b4 eb 0c 3f 2f 41 57 bd 5d b6 32 3d
       0.03363603 0.55047154 -0.0525524 0.043630946
000010 01 2f fd 3c d0 a2 be 3e 6c 95 8c be 30 c9 e4 bd
       0.030906202 0.3723359 -0.2745775 -0.11171186
000020 c6 f6 79 bd 12 f8 13 3e 3d 9e 3c bb 3a de e5 bd
       -0.061026357 0.144501 -0.002878084 -0.11224027
000030 98 e8 d1 bd 6d 43 cc bd e9 cb 25 3c 62 9f 02 3f
       -0.10249442 -0.09973798 0.010119417 0.5102445
000040 4c bd 80 be 45 76 28 3e 50 3d 84 3d 43 59 ad 3d
       -0.25144422 0.16451366 0.06457007 0.08464291
000050 8f b7 55 be 09 0a 1c 3d c4 df 4e bc b3 18 3e 3c
       -0.20870803 0.038095508 -0.012626592 0.011602568
000060 4c 06 e7 bd 81 63 a6 3d 1e 76 7b bb f8 11 08 3d
       -0.11280498 0.081244476 -0.0038369964 0.03322026
000070 52 e4 9f bd 1a 04 04 be 74 b4 0c be 27 1a 2b 3d
       -0.078072205 -0.1289219 -0.13740712 0.041772988
000080 6e 5d 09 3e ce b3 b0 bc fb f9 d8 bd 84 9e e0 bd
       0.13414547 -0.021570113 -0.10594555 -0.109677345
000090 00 c2 b1 3d 20 5c 1b be c3 bc b2 3d 7f 89 cc bc
       0.08679581 -0.15171862 0.0872741 -0.024967907
0000a0 e5 2b dc bd 00 ec 19 bd a5 a0 5e 3c 31 be 17 3f
       -0.1075056 -0.037578583 0.013588105 0.59274584
0000b0 d6 70 2a b9 00 c9 ab 3d cf 14 c4 3a e4 e4 c1 3e
       -0.00016254498 0.08387947 0.0014959815 0.37869942
0000c0 4f 83 29 3e 3c e7 8e be 1f 47 93 3d 70 11 18 bd
       0.16553997 -0.27910793 0.071913 -0.037126005
0000d0 c9 59 0f 3d 84 fa 8c 3d fa 87 40 bd 20 6c 37 3d
       0.034997735 0.068837196 -0.047004677 0.04478085
0000e0 39 d7 6c 3d 9a 8a 0d 3e f3 7f e0 3d de da d4 bc
       0.05782244 0.13822404 0.109619044 -0.02598327
0000f0 0b ab 90 3d 9d 3b 4b 3c f1 32 ea bd 68 51 e7 bd
       0.07063874 0.01240435 -0.114354976 -0.11294824

hiden_layers.2.weight f4 [64, 64]
000000 17 07 4f 3e 23 91 ff 3c 11 59 c2 bd dc c4 24 3d
       0.20217548 0.031197136 -0.09489644 0.040226802
000010 a3 8d 49 3e 91 0f 00 3d ac 58 57 be 9a b8 17 be
       0.19682936 0.031264845 -0.2102992 -0.14816514
000020 39 b8 12 be 71 f0 cb 3e 8d a4 89 be 0a 99 e6 bd
       -0.14328088 0.3983188 -0.26883355 -0.11259659
000030 16 62 5f bc fc 56 6b be 74 04 08 3e 1b a7 f8 bc
       -0.013634225 -0.229824 0.13282949 -0.03035312
000040 7e fc 73 bd ab 3b 67 3e d9 d1 b6 3d a2 e7 fa bd
       -0.059566967 0.22581355 0.08926744 -0.12251212
000050 f4 75 0b bd cf 06 4b 3e 74 ea 17 3e 2c 91 84 be
       -0.034048036 0.19826816 0.1483553 -0.25892007
000060 b5 48 0c be eb 21 9e bd 71 db 5c bd 06 72 d8 3d
       -0.1369961 -0.07721313 -0.053920213 0.10568623
000070 34 af 3b be 1e 5d 92 be de 39 b4 bd 50 ce 27 3d
       -0.18328553 -0.28586668 -0.088001 0.04096824
000080 12 af 97 3e cd f3 40 bd 4b 22 52 be e2 30 93 3e
       0.29625756 -0.047107507 -0.20520894 0.28748232
000090 a7 da f1 bd a6 9f 01 be c7 4b 85 3c 77 4f 2d be
       -0.11809283 -0.12658557 0.016271485 -0.16924845
0000a0 05 34 63 3d 7f f1 a9 3c f7 42 5a be 2c b8 39 3d
       0.05546953 0.020745037 -0.21314608 0.045341656
0000b0 bc be fd bd a3 e6 59 3d 4c af c7 3b e6 e4 93 3d
       -0.12389895 0.053198468 0.006093895 0.07221393
0000c0 f5 7d 84 3d f3 6e b6 3d e6 bc 70 be 61 e6 07 3e
       0.06469337 0.08907881 -0.23509559 0.13271476
0000d0 1e 42 0f 3c 64 dd 03 bc 7f 91 f2 bd d9 07 3f 3e
       0.008743791 -0.008048389 -0.118441574 0.18655337
0000e0 fb e1 2b bd 9c 27 30 bd c5 03 b6 3d 90 02 8d be
       -0.04196356 -0.043006524 0.08887438 -0.27541018
0000f0 7d 9a c1 bc 46 09 ae 3c 2b b0 2c 3d f6 52 ca 3d
       -0.023633236 0.021244656 0.042160194 0.09879105
000100 c9 04 6d be b3 07 0a bc c2 5a 45 bd 4c 33 63 bf
       -0.23146357 -0.008424687 -0.048182257 -0.8875015
000110 33 03 17 be 2b a9 87 3e 41 37 72 3e 4d 58 da 3d
       -0.14747314 0.26496252 0.2365389 0.10661373
000120 e6 c5 f6 bc 30 c0 00 3d dc 2a ee be a6 33 1b bb
       -0.030123662 0.031433284 -0.46517074 -0.0023681908
000130 26 88 95 3d c0 76 25 bc e5 f0 10 bf bb 41 e1 be
       0.07301359 -0.010099113 -0.56617576 -0.4399546
000140 ea ac 90 3e ba 39 5d 3d 22 86 da 3d 3b bc 97 3d
       0.28256923 0.05401013 0.10670115 0.07408949
000150 3a 42 83 3c 6f 72 71 3e c3 13 37 3c c8 a2 7b 3d
       0.01602279 0.23578809 0.011174145 0.061434537
000160 e5 95 d6 bc aa 13 73 be 93 9e 36 3d 01 26 b8 3e
       -0.026194522 -0.2373797 0.044584822 0.35966495
000170 b8 cd bb 3e f9 48 5f 3c 36 c0 51 3e d3 87 9b 3e
       0.36680388 0.013628238 0.20483479 0.30377063
000180 7c 5d 4b 3d 55 85 eb bd 2d ee 41 3e 8a 5a d2 bd
       0.0496497 -0.115000404 0.18938513 -0.10271175
000190 91 b7 99 3d b7 78 af 3d fa 28 18 3d 7a 49 5c 3e
       0.07505716 0.085679464 0.037148453 0.21512404
0001a0 3e f1 f8 bd c1 22 91 bd 90 e1 95 3d e2 a4 39 3e
       -0.12155388 -0.07086707 0.07318413 0.18129304
0001b0 fa 0d 17 be dc e7 40 be 5d ce a2 3d c8 ca 47 3e
       -0.14751425 -0.18838447 0.07949517 0.19510949
0001c0 25 fe 4a 3e c1 63 ec 3c 02 51 09 be cd 77 06 3e
       0.19823511 0.02885616 -0.13409808 0.13131638
0001d0 f6 0f 78 bd ac 7f 59 3d 25 22 72 3d 8b 11 53 be
       -0.060562097 0.053100273 0.059114594 -0.20612161
0001e0 71 38 b5 bc 5b 4c a1 bc 4c 08 76 be c1 22 97 be
       -0.02212164 -0.01968973 -0.24026603 -0.29518703
0001f0 bd 79 d3 3d 14 1a 14 3e 6f 5f 0e 3f 5d bd 62 3e
       0.10325954 0.14463073 0.5561437 0.22142549
000200 e2 8b 46 be 3b b0 13 3f 24 50 11 bf 8c 6a 6e 3d
       -0.19389299 0.5769078 -0.5676291 0.05820708
000210 4a 40 14 bf d3 89 c2 bf 54 1b 15 3f d8 db 26 3e
       -0.579106 -1.5198311 0.58244824 0.16294801
000220 d6 0c e4 bd 1b a2 31 3d 64 43 e6 3e 93 1d a1 3d
       -0.11135261 0.043367486 0.4497329 0.07866969
000230 f8 36 34 3d 23 e3 68 bd 5c d2 24 bf 1a 8e 59 c0
       0.043997735 -0.05685724 -0.6438348 -3.3992982
000240 09 a5 4e be 92 f7 67 3d dc 85 6c 3e ee 35 16 3e
       -0.20180143 0.056632586 0.23097938 0.1466901
000250 a5 f3 92 3e 50 20 af bc 88 c9 ce 3e a0 b1 41 3d
       0.2870151 -0.021377712 0.4038813 0.047288537
000260 e0 7f 1b be ab a1 07 3d 8e ee 67 3e 1e a1 32 be
       -0.15185499 0.033113163 0.22649595 -0.17444274
000270 4b 1c 00 be a1 e5 4e 3b 03 75 a0 3f ea a4 4a bf
       -0.12510793 0.0031569975 1.2535709 -0.7915789
000280 24 44 b3 bc 55 f3 e5 3e 3e 5b 46 be 1e 48 34 3e
       -0.021883078 0.4491221 -0.19370744 0.17605636
000290 13 18 3f 3e 6e e9 a8 3e d5 6b 8a bf d1 52 86 bd
       0.18661527 0.32990593 -1.0814158 -0.06558765
0002a0 f3 b1 f1 3e 70 44 e1 3d fc 5b bb 3e 3b 87 22 c0
       0.47206077 0.109993815 0.36593616 -2.5395038
0002b0 e7 9c cc bc a5 94 a2 be 88 8f 4d bd ac 82 92 3f
       -0.02497716 -0.31754032 -0.05018571 1.1446128
0002c0 1a 03 7b 3f 22 22 be 3e d6 b1 3f 3d 1d a9 97 be
       0.9805161 0.37135416 0.046800457 -0.2962121
0002d0 de 06 45 3d d9 a4 67 bd 44 1b 4b bd ae 63 9f bc
       0.048102252 -0.056553695 -0.04958655 -0.01945671
0002e0 6d 49 35 bd 98 aa 04 bf 1d a8 0f bd fb 93 9e be
       -0.044259477 -0.51822805 -0.035072435 -0.30972275
0002f0 f5 b6 00 3f 76 5d d9 3e 8e 39 70 be d0 f8 1b 3d
       0.5027917 0.42454118 -0.23459455 0.038079083
000300 41 23 80 3e e3 95 df 3d 57 38 3f 3d 1b 58 ea bd
       0.25026897 0.109172605 0.04668459 -0.11442586
000310 13 dd 98 be bf d2 36 bd 8c 70 d4 3c 5a 3d 38 be
       -0.29856166 -0.044634577 0.025932573 -0.17992154
000320 8f 53 33 3e 1a db 84 3d b2 e6 6b 3d c2 9a 6f 3e
       0.17512344 0.06487103 0.057593055 0.23398879
000330 45 b0 92 3d b5 e4 39 bc ce 06 1c 3e 8d cf 90 3d
       0.07162527 -0.011346032 0.15236971 0.07070837
000340 12 d8 16 be eb 82 d5 bb 18 b9 d4 3d 0d 97 68 3d
       -0.14730862 -0.006515851 0.10386866 0.05678468
000350 2a de 48 3e 43 1a 9f 3c 27 29 9a bd 12 ce 42 3c
       0.19615999 0.019421702 -0.075273804 0.011889951
000360 d2 71 b4 3d c8 85 2f 3d e1 4e c6 bd d8 9f 03 bd
       0.08810772 0.042852193 -0.09683014 -0.03213486
000370 93 90 26 be f1 8a 34 bc b6 9a 9d 3e d4 38 c2 3e
       -0.16266088 -0.011019454 0.30782098 0.3793398
000380 f4 fa 4e 3d 91 71 8a 3d b6 6e 8d bd 56 5e 1e bd
       0.050532296 0.06759942 -0.06905882 -0.038664185
000390 f1 40 4a 3d fa c7 8a 3d 03 bd a9 bd 3e bf 33 3e
       0.04937834 0.06776424 -0.08288004 0.17553422
0003a0 6b 5b e3 be de 72 a1 3c 3d f7 8a 3d 5e 4b cc 3d
       -0.44405684 0.019708093 0.06785438 0.09975313
0003b0 d7 1c d6 bc 12 3a 05 bd 38 6d 7f 3e bc 6e a2 be
       -0.026136799 -0.032526083 0.24944007 -0.3172511
0003c0 5b 09 93 3d 75 49 ad be 94 50 8d 3e bd 15 54 bd
       0.07179519 -0.33845106 0.2760054 -0.051778544
0003d0 0d a8 68 be 52 e8 66 be 22 a2 92 be 36 83 f5 bd
       -0.22720356 -0.2254956 -0.28639323 -0.11987917
0003e0 e8 bd 24 3d ab 43 05 be 6c 33 3b bd c6 04 ba bd
       0.04022017 -0.13014095 -0.045703337 -0.09082942
0003f0 2c 50 84 bd 19 d5 74 3e cc f7 06 3e 18 33 8e be
       -0.06460604 0.23909415 0.13180465 -0.27773356

hiden_layers.2.bias f4 [64]
000000 b6 08 84 3d 2b c5 82 be ec 5c 38 bf 71 41 15 3e
       0.06446974 -0.25541052 -0.7201679 0.14575745
000010 52 82 db 3c 2b 11 18 3e ba f5 aa bb a9 73 91 bd
       0.02679554 0.14850299 -0.005217281 -0.071021385
000020 17 82 0f 3e eb 76 36 3d 1c 8a 90 3e 32 d8 1f 3d
       0.14014469 0.044547003 0.2823037 0.03902454
000030 07 20 95 3d cd 92 8d 3d 0e 7d 79 bd 69 0b 2d 3e
       0.07281499 0.06912766 -0.060910277 0.16898884
000040 a1 d9 25 bd 02 06 37 bd 47 91 92 3d 95 57 97 bd
       -0.04049075 -0.044683464 0.07156616 -0.07389752
000050 d8 48 b5 bd c4 96 ab 3e 1c 84 28 be 38 35 8d 3d
       -0.088517845 0.33513463 -0.16456646 0.06894916
000060 ab 8c 42 3e e1 ae 55 3d f6 10 39 3d a5 08 05 3e
       0.18998973 0.05216873 0.04518219 0.12991579
000070 51 f2 ce 3d d9 92 81 3d fd 6f 25 bd e4 21 5e 3e
       0.10104812 0.06326837 -0.040390003 0.21692616
000080 10 1b 85 3d 7c 80 1c 3e bf 3d 89 3d 95 c4 97 3d
       0.064993024 0.15283388 0.0670123 0.07410542
000090 bc d5 8a bd b7 1a 40 bd c0 46 0c 3e e6 3f 36 bd
       -0.06779048 -0.046900477 0.13698864 -0.044494532
0000a0 66 e6 05 bd 75 47 95 bd 02 71 94 ba f3 97 3b 3e
       -0.03269043 -0.0728902 -0.0011325183 0.18319683
0000b0 8b 9c 9d 3e 59 a5 3e bd 83 35 7d bc 3a 35 f9 3d
       0.30783495 -0.046544407 -0.015454653 0.12168355
0000c0 b7 25 03 bf 43 80 7b bd 7a 65 9c 3d c7 de 00 3e
       -0.51229423 -0.061401617 0.076365426 0.12584983
0000d0 04 29 a5 bd 4c 52 51 3c 89 55 61 ba dd 22 27 bd
       -0.08064464 0.012775969 -0.00085958146 -0.040804733
0000e0 64 46 a1 3e ec 38 2a be 21 91 99 bd 87 2a 9f bc
       0.31499016 -0.16623276 -0.07498384 -0.019429458
0000f0 31 42 fa bc 14 c9 dc bc 56 38 80 3d 56 8c b5 b9
       -0.03054914 -0.02695135 0.06260745 -0.0003462757

hiden_layers.3.weight f4 [64, 64]
000000 fb 58 8a 3e 93 5d 9f bd c0 b6 95 3d 8e dc 51 3e
       0.27021012 -0.0778152 0.073102474 0.20494291
000010 79 e3 de 3e 3b e0 57 be 44 e1 4a 3d 43 1c b5 bd
       0.43532923 -0.21081631 0.049531236 -0.08843281
000020 ea a1 c6 3e 21 2b 38 3e 3b b5 0f 3d 4f 35 9c 3c
       0.38795406 0.17985202 0.035084944 0.019068388
000030 35 52 8f bd 3d 2d f0 be cc 37 b6 be ae 6b 50 be
       -0.069981016 -0.46909514 -0.35589445 -0.20353577
000040 26 ce 2d be 97 e6 bb bd a4 06 c9 3e 24 21 8e be
       -0.1697317 -0.09174841 0.3926288 -0.2775966
000050 94 3d 2d be 23 df 7b be 84 0a 46 3e f9 f8 c3 3e
       -0.16918021 -0.24596839 0.19339949 0.3827589
000060 ad ea 8a bf cc a1 aa be 54 3f df 3e 45 c9 b4 be
       -1.0852867 -0.33326566 0.43603003 -0.35309806
000070 01 9c 28 3e cb 36 5b 3e 98 47 98 3d c1 5f 70 bd
       0.16465761 0.2140762 0.074355304 -0.058685068
000080 b2 a0 1a be b4 7b 0a bf 28 a0 55 bc 66 76 99 bc
       -0.15100363 -0.54095006 -0.0130386725 -0.018733215
000090 35 f0 40 3e 46 e6 1c be 45 c4 e1 bd 0a 9b 94 bc
       0.18841632 -0.15322217 -0.110237636 -0.018140335
0000a0 c3 e0 43 bd 9a 74 1e 3d f5 66 61 3d 05 7a b5 be
       -0.04782177 0.03868542 0.055029828 -0.35444656
0000b0 fa 5b 33 be 65 b8 8d 3e d2 42 cf bd e3 cb 75 3d
       -0.17515555 0.27679744 -0.10120167 0.060008895
0000c0 89 3a b2 3e 8a 23 44 be 1a ac 71 bd f3 4f 83 3e
       0.34810284 -0.19154182 -0.05900202 0.25646934
0000d0 1b a6 47 be 9a d0 57 be ca 44 17 be 4c d7 b1 3d
       -0.19496958 -0.21075669 -0.14772335 0.08683643
0000e0 40 9e b3 bd 61 a1 9b bd 48 d5 34 be b0 f0 c0 bd
       -0.08770418 -0.0759914 -0.17659485 -0.094209075
0000f0 f3 d9 55 3e cd be e2 bd 18 e4 13 3e 5a c4 59 bd
       0.20883922 -0.110715486 0.1444248 -0.05316577
000100 4b c0 bd be 6f 56 94 bd 21 57 00 b9 32 df 09 3e
       -0.3706077 -0.072430484 -0.0001223949 0.13464049
000110 f9 a2 20 be 3c 77 a1 bd d3 2a 0b be 94 c9 3b 3e
       -0.15687169 -0.0788407 -0.13590555 0.18338615
000120 2b 00 17 bd ec 68 2c 3e 65 b9 9d bc e1 2a 17 bc
       -0.036865395 0.168369 -0.019253442 -0.009226532
000130 bd a3 08 be 44 cb 30 3d 65 41 3c 3e a6 32 02 3e
       -0.13343711 0.0431626 0.18384321 0.12714633
000140 7e 67 18 be bf 40 0c 3e a1 39 72 bd 4b 8a 20 3d
       -0.14883229 0.13696574 -0.05913699 0.039194386
000150 a9 fe c7 bd 23 3d 99 3b c8 eb 0c 3e f8 7f e3 3c
       -0.097653694 0.0046764775 0.13761818 0.027770981
000160 30 e6 40 be 31 53 62 bd eb 76 f3 3d 76 6f 26 3e
       -0.1883781 -0.05525512 0.11887916 0.16253456
000170 02 2c a2 bd 62 97 80 3d 1d 66 c7 3c c8 09 47 3e
       -0.0791855 0.06278874 0.024340684 0.19437325
000180 29 27 e7 3d 11 62 cc bb a0 21 60 be 7e e6 55 3e
       0.11286766 -0.0062372764 -0.21887827 0.20888707
000190 96 e4 5e be b1 69 3b 3e d5 10 58 bd 79 12 65 bc
       -0.21766886 0.18302037 -0.052750427 -0.013981455
0001a0 b9 2f b0 bd ee b0 76 be a3 e9 6b be 1a 02 d1 ba
       -0.086028524 -0.24090931 -0.23038344 -0.0015946061
0001b0 aa c9 03 bb cc d8 9c 3d a5 83 b3 bc 7a 15 25 be
       -0.0020109215 0.07658538 -0.021913359 -0.16121474
0001c0 9c 48 81 bd 05 bc 72 3e 2f 2c 55 3e 0c e2 5a be
       -0.06312677 0.23704536 0.20817636 -0.21375293
0001d0 f9 b7 37 be a2 d3 17 3e 8f cd a8 be 2a ae 61 bb
       -0.17941274 0.14826825 -0.3296933 -0.0034436085
0001e0 a8 ca 80 bd e6 23 e4 bd 8a 30 a7 3a 05 5f 04 3d
       -0.062886536 -0.111396596 0.0012755555 0.03231718
0001f0 b0 79 0a 3c 8b 3a 86 bc e0 3a 4e be 21 c5 71 be
       0.008451864 -0.016385337 -0.20139647 -0.23610355
000200 e5 5f 4c 3e 54 8d f3 bd 24 a9 98 3d 37 02 e5 3d
       0.19958456 -0.118921906 0.07454136 0.11182063
000210 00 aa 09 bc d5 81 0c 3e a2 82 17 3e 2e 98 5d bd
       -0.008402348 0.13721402 0.14795926 -0.054100208
000220 19 cf 00 3c 20 a4 0d 3e db 47 fa 3d b2 64 81 be
       0.007861876 0.1383214 0.122207366 -0.25272137
000230 aa b5 37 3e 79 4e b4 bd a7 10 39 be 3c c1 5e be
       0.17940393 -0.0880403 -0.18072759 -0.217534
000240 56 1d ea bd 3f 96 7e 3b a3 fc 20 3e 12 fe d7 bd
       -0.11431377 0.0038846878 0.15721373 -0.10546507
000250 6e b6 f5 3d 5b 0c f4 3c eb f1 b0 bd a0 d5 29 3e
       0.11997686 0.029791048 -0.08639892 0.16585398
000260 92 cd 49 3c b0 a2 64 bb 29 aa 21 3e 03 48 82 be
       0.012317078 -0.0034887008 0.15787567 -0.25445566
000270 02 69 83 3d a0 77 b4 3e a4 54 35 bd 2c 6e e5 bd
       0.06416513 0.35247517 -0.044270173 -0.11202654
000280 49 ff af be 18 33 74 be d3 81 9f 3b 3a b9 36 bc
       -0.34374455 -0.23847616 0.004867771 -0.01115256
000290 ec 19 98 3c df 9b 80 3d 56 2e 30 3e df c0 3d be
       0.018567048 0.0627973 0.17205176 -0.18530606
0002a0 c8 57 33 be c9 7d 3f be 1c 22 16 be dd b2 c8 bd
       -0.17513955 -0.18700327 -0.14661449 -0.097997405
0002b0 04 9b 22 3e 00 3c 14 3e aa 5d e4 3c 78 2d d2 3d
       0.15879446 0.14476013 0.027876694 0.10262579
0002c0 46 64 96 bd 18 d8 b2 3e 4e 22 44 3e 32 31 fc 3e
       -0.073433444 0.3493049 0.19153711 0.49256283
0002d0 29 bd ea 3d 27 9d fd bd 03 a9 68 be 8a 7e 1e bd
       0.11461861 -0.1238349 -0.22720723 -0.038694896
0002e0 28 0f 0f be e2 85 46 3e 51 f6 47 3e 8e 86 00 3e
       -0.13970625 0.1938701 0.19527556 0.12551329
0002f0 39 83 8c bd 17 b8 6d be 07 51 77 3d 10 dc 83 3e
       -0.06860966 -0.23214756 0.060380008 0.25753832
000300 bf 50 0c be 2d 57 08 be 0c 4b f0 3d 68 14 26 be
       -0.13702677 -0.13314505 0.11733064 -0.16218722
000310 69 f6 86 be 35 5f 0b be c2 59 2e bd f6 60 f1 bc
       -0.2635987 -0.13610537 -0.04256607 -0.02946518
000320 13 ce 19 3e 0b eb 9e bc 48 d6 2c 3a 21 77 59 be
       0.15020017 -0.019399187 0.00065932097 -0.2123685
000330 d9 05 82 be 73 ad f6 bd da 10 a6 bb 83 c7 70 3e
       -0.25395086 -0.120448016 -0.005067927 0.23513608
000340 2a 20 e6 bc e7 55 6b 3d c6 2e 2e 3d e8 d8 62 3e
       -0.028091509 0.05745497 0.042525075 0.22153056
000350 b3 79 b4 3d f2 5a 8f 3e 78 ff 02 3e 50 c6 b9 3e
       0.08812275 0.27999073 0.12792766 0.36284113
000360 5c d6 1d 3e 8a f5 4c bd af ba f9 3d c0 37 df bc
       0.15413803 -0.05003885 0.1219381 -0.027248263
000370 b0 8b 02 3e 52 d5 53 bc d7 e3 9d be 00 be 79 3e
       0.12748599 -0.0129292775 -0.3083789 0.24388885
000380 8d bf 05 3e e8 01 15 3e 54 34 6b 3e 71 37 7d 3d
       0.13061352 0.14551508 0.2296918 0.06182045
000390 f4 1b 8d bd e1 54 9e bd d9 02 4e bd 59 7b c7 3e
       -0.06890097 -0.07731033 -0.050295684 0.38961294
0003a0 d0 e1 a9 3e 25 c2 83 3e 6d c5 2b be 1b 5f 13 bd
       0.33180094 0.25734058 -0.1677453 -0.03597937
0003b0 8b c5 7e 3e c1 17 88 3c 42 fa 98 bd 4a 08 3a be
       0.24880044 0.01661289 -0.07469608 -0.18167225
0003c0 25 c0 28 be 00 b5 98 be ea 2e 2e be cc e7 ac 3e
       -0.16479547 -0.29825592 -0.17010084 0.33770597
0003d0 78 e7 3c 3c 41 83 76 bd af c2 9e be 1d dd df 3d
       0.011529796 -0.060183767 -0.31007907 0.10930846
0003e0 4d 56 34 3d f1 9c 93 bd 79 64 2b be c1 e5 1f be
       0.044027615 -0.072076686 -0.16737546 -0.15614988
0003f0 6f 59 8d 3e 38 bf 96 3e be 7e b3 3d 8c a7 fe bd
       0.27607295 0.29442763 0.087644085 -0.12434301

hiden_layers.3.bias f4 [64]
000000 9c a6 41 be a0 89 ad 3d 22 57 32 3e 6a 5e 71 3b
       -0.18911213 0.084735155 0.17416051 0.0036829957
000010 46 67 be bb 08 a5 d1 3d 88 c7 55 3d 3f 92 31 3f
       -0.005810651 0.10236555 0.05219224 0.6936378
000020 38 08 28 bd b9 2c 1e bd d3 83 7b be a1 64 02 be
       -0.041023463 -0.03861687 -0.24562006 -0.127337
000030 e5 d1 6f be 76 78 c6 bd e4 2f c7 bd e1 46 99 bd
       -0.23419912 -0.09690945 -0.09725931 -0.07484222
000040 c2 9b 96 3e f3 52 1d be b8 8e 0a be 2e c4 96 3e
       0.2941571 -0.15363674 -0.13531005 0.29446548
000050 e8 7c 89 3e ae fa 80 3c 98 5e c5 bd 5a 9e 9f ba
       0.26853108 0.015744533 -0.09637183 -0.001217793
000060 6e 49 49 3f fc 98 34 bd 00 f0 96 bd 8e 80 bc 3e
       0.7862767 -0.04409121 -0.07369995 0.3681683
000070 d1 4a 06 3d af 0a b7 bd 2d df 02 3e ff e4 dd 3c
       0.032786194 -0.089375846 0.12780447 0.027086733
000080 f1 97 3d bd 7c 33 06 3d 0d c7 e2 bd ad 13 3b bd
       -0.04628748 0.032763943 -0.11073122 -0.04567306
000090 6b 2d ee 3d 9f 18 3b bd 4d b4 e7 bd 2c 9d 6e bd
       0.116297565 -0.045677777 -0.113136865 -0.05825536
0000a0 29 e5 44 bd db 28 04 3d a5 29 ad bd 2b 4a d4 3e
       -0.048070107 0.032265525 -0.08455209 0.41462836
0000b0 b5 bf 53 3e f5 f3 cd 3c e2 37 33 3e 94 9f 82 3d
       0.20678599 0.025140742 0.17501786 0.06378093
0000c0 f9 5f 56 3d 9c 2a ec 3c 7a b3 94 bd b5 18 92 3d
       0.05233762 0.028828911 -0.07260795 0.07133619
0000d0 ea 9d b8 3d ac 54 20 be c6 e6 7b 3d 6d ed e5 bd
       0.09014495 -0.156573 0.06149938 -0.11226926
0000e0 bc de 2d bc f8 ba 4f 3d d1 a7 3a bd a6 80 37 be
       -0.010612186 0.050715417 -0.0455702 -0.17920169
0000f0 97 d0 62 bc 6f 57 5f 3c 95 30 7f 3c 49 ed 01 3e
       -0.013843677 0.013631686 0.015575548 0.12688173
