results/4_like_3_without_pde/epoch880/model_weights.pth (torch, 749398 bytes, 128 tensors)

init_layer.0.weight f4 [64, 5]
00000000: 3c20 8fbe e93d a53e 636a a33c 120b 32be
00000010: 553d 323e cfcb b8be 1b8d 99be 2f74 90be
00000020: 86be 66be f048 8abe 8c9d ba3e c002 6e3e
00000030: a4a7 c7bb ed87 aa3d 03c8 19be 2ca3 6dbe
00000040: ba02 ba3e 902a 4a3e 860a 86be d250 6f3e
00000050: 1a21 cbbe 761b 82be 179e cebd cb25 d4bd
00000060: cafe db3c ff00 0b3f 0abd 93be 6d62 ea3d
00000070: 8266 813e 5715 bfbc 94e1 863e cff0 a4be
00000080: 36ee db3c 3fd2 57bd d4f3 0c3e 0d0b de3e
00000090: 9c8a 143e 1abe 603d 08f7 313e da6a 0abe
000000a0: 0c89 76be a6e1 e0be 5815 ef3b f24a 85be
000000b0: c2fc 3e3e 6c31 c63d 90e1 653d 7a4f 31be
000000c0: 4f61 6b3c 3abd 123e 24f0 093f ce9e 923e
000000d0: 8493 103c 2f08 043e 5a7d 473d 6a16 4abe
000000e0: 0266 453d 7d4b ac3d eb6a 853d 9426 4a3d
000000f0: a38f f5be fcca 67be c96c 04be 99d5 eabd
00000100: b5b8 54bd 5cae bdbc 00c6 ccbe 343d 46be
00000110: 7ac0 8e3d 4b9d babd 7d52 e7be 64e9 bcbe
00000120: 0c78 5e3e 5a0d 8bbe 4f09 2cbe b73c a93e
00000130: d1ee 94be 0b48 003e 9fdf 933e 14a6 203d
00000140: f348 313d 9de2 a4be d2d9 163e 3a58 553e
00000150: 2d6a 00be cd56 fdbc f7e3 cd3c 837f 8e3c
00000160: a6f3 833e bdb8 6abe ae5b 8fbd 8d38 2a3e
00000170: 54b6 01bd b6c2 6bbe 012e 7d3e e884 2bbe
00000180: 0c6b b3be 84a2 923d f644 8a3d 75ca 553d
00000190: 8fa9 903e e2a8 21be e865 47be f2e0 0a3e
000001a0: 8c65 563e 4a5a 0dbe 6eaf 883c cadf b0ba
000001b0: b845 19bc 206c 413c d158 73be 05e4 813e
000001c0: e5e6 8e3c 3f1b 36be bc58 a63d 18b9 8fbe
000001d0: 2485 a2be ebe1 9b3d 06fc 6ebe 0ae8 103e
000001e0: 50d9 92be d9ea db3e 26c3 21be a9e6 bebd
000001f0: 01bf 66be c394 edbe 9baa 92be 3ee9 4e3e
00000200: 7ab2 bd3d 5a95 55be 0e82 c7be 6965 e2bd
00000210: 6f74 88bd a9a1 543e 60c5 abbd 3df3 813d
00000220: b1a1 0b3f 4a18 bcbd f2fe 8e3e f060 583e
00000230: 603e bcbe b8b1 333e 9fbe 5e3d 830e 2abe
00000240: b5e5 84bd 7ed2 11bf 7f26 cc3e 7375 023c
00000250: 33dd 80be 0b2c 913c ce52 17bd f81a aabe
00000260: 253b c63d cf15 ddbc 2472 48be c4c7 013f
00000270: b82a 0d3e ed4c 293e 8aae aa3d 698a 273e
00000280: 6ebf 0cbf 62c5 6d3e c274 18be 0634 30be
00000290: 6361 703d f11e 903e ebd4 bcbe 9a7d 6dbe
000002a0: 3bf7 803e 35dd efbd 1ed3 953d 0366 873e
000002b0: e28e 513e 600d 703e 6ae4 09be a9f4 bfbe
000002c0: d2a3 d7be 53b5 223e 6aab 81be 11e7 01be
000002d0: e846 7bbe f73a f1be 565d c23c 152e 0abd
000002e0: 293f 63bd 13cd 933e 7197 4ebe 7905 12be
000002f0: 731d 1fbe db27 84bd 90f2 753e b8a2 9dbe
00000300: b980 ea3a 6769 3a3e 5c8a 48be a41d cb3e
00000310: 9ef0 69be 5b55 ba3d 0b5f 53bd 794a a2bd
00000320: 6161 dcbe cebd c5bd 82ea c7bd 8de1 893c
00000330: 49aa b9bc 58ac c2be 5f92 f7be 88f0 20be
00000340: 2096 3b3e b451 a33c 955f aa3e aa8d 87be
00000350: 6574 4abd ec98 033e 1be7 df3c fd16 233f
00000360: 9b05 f2bd 12ff 1ebe 96c4 4a3e e453 4c3e
00000370: 798a 1dbf 479d 8abe bee3 f9bd d201 fcbd
00000380: d865 913d 2690 a7be ee26 4f3e 7fb7 403e
00000390: 1c22 2bbe bd06 9e3c 6d78 15bf 65d2 b63e
000003a0: c6b7 ca3d 914a ccbd ccaf 56bd 83d9 1abe
000003b0: 3358 f13d ee37 373e 4d42 803b e9ae 47be
000003c0: af51 0c3f 4b8e 053e 538d b9bd c30f 213e
000003d0: 909a 5dbd ed5d 2d3e a5b0 d8be 8857 bfbc
000003e0: a1e4 1aba d378 60be ab83 13bf 12a5 87be
000003f0: 6b0d 853c 9e56 e3bd 7938 1abe 7a27 643e
-0.2795428 0.32273796 0.01994819 -0.17387035 0.17406209 -0.36092994 -0.29990467 -0.2821364
-0.22533616 -0.27008772 0.36448324 0.23243237 -0.0060929824 0.08326707 -0.15017705 -0.23206776
0.36330205 0.19742799 -0.26179904 0.23370674 -0.39673692 -0.25411576 -0.10088747 -0.10358771
0.026854891 0.54298395 -0.28855163 0.114445545 0.2527352 -0.023325605 0.26343977 -0.32214972
0.026846986 -0.05269074 0.13764888 0.43367806 0.14506 0.054868795 0.17379391 -0.13517323
-0.24075717 -0.43922156 0.0072962455 -0.2603374 0.18651107 0.09677395 0.056123316 -0.17315474
0.014366462 0.14329997 0.5388205 0.28636783 0.008824233 0.12893747 0.04870353 -0.19735113
0.048192985 0.08412836 0.065145336 0.049353197 -0.4796115 -0.22636026 -0.12932123 -0.11466522
-0.051933963 -0.02315443 -0.39994812 -0.19359285 0.06970306 -0.091120325 -0.4518012 -0.36896813
0.21725482 -0.27158624 -0.16800426 0.33054134 -0.29088452 0.12527482 0.28881547 0.039220884
0.04328246 -0.32204142 0.1473153 0.20834437 -0.12540503 -0.030925179 0.025133116 0.017394787
0.25771827 -0.22922035 -0.069999084 0.16623135 -0.031668022 -0.23023495 0.2472458 -0.16749918
-0.35042608 0.07159904 0.067514345 0.05219503 0.28254363 -0.1578708 -0.19472468 0.13562372
0.20937175 -0.13803974 0.016685214 -0.0013494429 -0.009355001 0.011805564 -0.2376435 0.25369278
0.017444083 -0.17783831 0.081223935 -0.28070903 -0.31742203 0.0761145 -0.23338327 0.14151016
-0.2868142 0.42952612 -0.157971 -0.09321339 -0.225338 -0.4640256 -0.28645787 0.20206162
0.09262557 -0.20857754 -0.3896641 -0.11054499 -0.06662833 0.20764793 -0.08387256 0.06345222
0.54543597 -0.0918432 0.27928883 0.21130729 -0.36766338 0.17548263 0.05438101 -0.16607098
-0.06489126 -0.5696181 0.3987312 0.007962572 -0.25168762 0.017721197 -0.036944203 -0.332237
0.0967925 -0.026987938 -0.19574791 0.50695443 0.13785827 0.16533251 0.08334072 0.16361393
-0.549796 0.23219827 -0.1488829 -0.17207345 0.058686625 0.28148606 -0.36881194 -0.23192444
0.25188622 -0.11712114 0.07315658 0.26445016 0.20464662 0.23442602 -0.1346604 -0.37491348
-0.42117172 0.15889482 -0.2532609 -0.12685801 -0.24538767 -0.471153 0.023726147 -0.033735353
-0.055480156 0.28867397 -0.20174958 -0.142599 -0.15538578 -0.06452914 0.24018312 -0.30788207
0.0017891146 0.1820427 -0.1958403 0.39671052 -0.22845694 0.090983115 -0.051604312 -0.07924361
-0.43043044 -0.09655343 -0.09761526 0.016831184 -0.022664206 -0.38022113 -0.4835386 -0.15716755
0.18318987 0.01993642 0.33276048 -0.2647527 -0.04942741 0.12851304 0.02733188 0.6370695
-0.118174754 -0.15526989 0.19801554 0.19953877 -0.6153942 -0.27073118 -0.122016415 -0.12305035
0.07099503 -0.32727164 0.20229694 0.18819998 -0.1671223 0.019290322 -0.5838688 0.35707393
0.09898333 -0.0997516 -0.052413747 -0.15122037 0.11784401 0.17892429 0.0039141537 -0.19500317
0.5481214 0.13042562 -0.090601586 0.15728669 -0.05410248 0.16930361 -0.4232227 -0.023357168
-0.0005908702 -0.21921091 -0.57622784 -0.26493126 0.01624175 -0.11100505 -0.15060605 0.22280684

init_layer.0.bias f4 [64]
00000000: a4ae aebc 656b 7b3c 393c f53d 6094 15bd
00000010: 4428 33bd ea5c 8f3c 9a1a 123d c7d0 8c3d
00000020: 9d10 f1bc b1ca b4bd aafb c43c 6feb 14be
00000030: 286a a8bc 91cb 1fbd 5f0d 473c a210 463c
00000040: 3b4d 3a3c 720d 963c 1b1f 2bbd dbaa 2dbd
00000050: 64c2 fdbc 3915 e5bc 0af8 e7bc 7ff4 5bbc
00000060: 6f5d 91bc 5a80 893c cc4e 97bd bea0 c8bb
00000070: 5cfb 0f3c 6979 2cbd a6b4 5c3d 4a20 69bc
00000080: 5430 4bbd 438e 943b 4387 2ebc 0ffa 193d
00000090: f11d 19bd 3d8c 843d 61e5 573d baf6 783d
000000a0: 448c e7bd 5d5e afbd 1a0a 01bd 1664 c6bc
000000b0: 9dba 44bd 2c47 843c 55fa a9bc 1e7f 6e3c
000000c0: 6430 cf3c 9052 dd3c 3822 043c 2800 d43d
000000d0: 1c8e 113d c85c aebc 012b 7bbb b1ca 0dbd
000000e0: 2b90 1dbd c34e 443c d3e7 fd3c e94d ef3c
000000f0: b0f9 9e3c ba66 ec3c 604d e03b 63a5 00bd
-0.02132351 0.015345429 0.11974377 -0.036518455 -0.043739572 0.01750036 0.0356699 0.068757586
-0.029426867 -0.08827723 0.024045784 -0.14542936 -0.020558432 -0.039012495 0.012149184 0.0120889265
0.011370952 0.018316958 -0.04177771 -0.04239927 -0.030976482 -0.027964221 -0.028316516 -0.013424992
-0.017744748 0.016784836 -0.07388076 -0.0061226776 0.008787956 -0.042107973 0.053883217 -0.01422889
-0.049606636 0.0045335605 -0.010652366 0.03759199 -0.03738207 0.06472061 0.052708987 0.06078217
-0.113060504 -0.0856292 -0.031503774 -0.024217647 -0.04802953 0.016147219 -0.02074925 0.014556674
0.02529163 0.027016908 0.008064799 0.10351592 0.035535917 -0.021284476 -0.0038325193 -0.03461713
-0.038467567 0.011981669 0.030994331 0.029211955 0.01940617 0.028857578 0.0068451613 -0.031407725

hiden_layers.0.weight f4 [64, 64]
00000000: 88c6 6cbe 5d46 85be b17c 273e e342 6b3d
00000010: 2af6 72be cb3c 2e3e cd89 6b3e bb56 f43d
00000020: 230f 063a 5d24 c3bd 06b7 dd3e 5b79 45be
00000030: 4fe8 9ebe d0a3 3fbd 3ecc 82be c922 8f3e
00000040: 0d44 3abe c520 53be 1bd4 59be 5732 2ebe
00000050: 337d 09be dc4c 0ebe 8166 46bd b4b0 84be
00000060: 8bb5 083b 5627 3d3d d4b8 67be 2746 3e3e
00000070: 5fd7 2abe 982a c1be 91ed 2cbe d9d3 9e3d
00000080: 1607 02be b100 2f3e 22e2 bcbd a5e5 5dbd
00000090: b385 a3ba 08ea 0e3e 1ab6 1a3d 510b d93d
000000a0: bc85 3cbd cecb 9f3d 5966 973e eb45 0a3e
000000b0: 91eb c1be 6206 74bd efd0 7ebe 3b66 89bd
000000c0: 33a1 183e 5b6f ce3d d787 a9be 0af8 c4bc
000000d0: 203a 2fbc 6147 9d3d e3b5 a23d 7931 fcbc
000000e0: f76b 89bd 7251 93bd 0c39 6dbd 9e12 5a3b
000000f0: 6a03 a23d aeba 7b3e 12d9 c03d cdfa 90bd
00000100: bbc5 2bbe 2bb9 833e 4a0a 37bc 0a26 8abe
00000110: 47ae 98bd 6e7c 99bd 9d62 953e b68c 9a3c
00000120: 23cb 953e e35d 01be 5e0b 7bbe 5a25 203e
00000130: 7ed2 fd3c ebcf a13d a528 0e3d a89f 1ebd
00000140: aee1 9dbd 6525 cfbd 9ba3 a2bd df39 953c
00000150: 272c 2fbe 818d 94bc d8dc a23d 0308 903e
00000160: ba20 07be e0a5 eb3d bd60 ec3b 91a2 11be
00000170: c877 b23d e2cf 4b3c 29f2 0c3e 92f6 4a3a
00000180: 20c3 89be 92b8 24bd 05a0 48be 17d4 443e
00000190: 4fc3 a13e 5b2c 3a3e 4766 d43d c71e 7bbd
000001a0: 0ee7 6f3d 4840 c2bd 9bb9 ee3d 43e9 9e3d
000001b0: 94bc 2e3d d007 21bd 3ff5 75be d193 5dbd
000001c0: 9a45 61bd 4662 843e 50ee 3b3e b006 023e
000001d0: 89e8 26be 1891 cd3e b811 133e a2db bb3d
000001e0: 6fc9 833d c73e 9bbe 4342 1b3e cf97 cfbd
000001f0: 933f 58be df15 00bd da22 f9bc 99e5 073e
00000200: 06bc a93c fa1e 10be 5802 f33c b71a 263e
00000210: 6932 ac3c 324d 3f3e 7f8d 483c 5e07 b53d
00000220: fdd8 86bd b020 3c3e 939c 113f f1bd 183d
00000230: a4e4 89be 966f 56be fa99 e7bd dce8 c23d
00000240: 5f9f a8bb 115d 4ebe 8fe0 03bd 2434 e3bd
00000250: 745f 2f3e 5caa 8fbe edf7 a73d 4bbc 6abd
00000260: 1007 04be a719 90be b2d9 6d3d b9e6 b73c
00000270: 5373 0fbc 818e 36be 79fa 4d3d c1d8 643e
00000280: c937 39bd 3955 70bd 21d0 403e 556a 89be
00000290: b183 35be 5924 17be a95b bd3d 3dc8 d9bd
000002a0: dc00 95bb 8d9a 463d 2ed6 7c3e bca7 f0bd
000002b0: 506d 58be 7dfa 39be 9d92 97be 3c4f 8c3d
000002c0: ecbf 4b3e 789d 17be 0424 94be fd9d cc3d
000002d0: 13d9 1b3e ab32 9bbd 9cc5 843c 3039 41be
000002e0: 0f92 11bd b24d 6e3d e680 0fbe bf5e 33be
000002f0: dbf1 e73d 1a09 a23e eeeb 9c3e f739 213e
00000300: f7fc 66bd 62e6 833e 5593 72be c1cc 84be
00000310: cf4f 733d 28cf c9ba 2c41 773e b8e2 983d
00000320: f42f 843e 4068 f43d 4de5 1bbf 528c f83d
00000330: 3935 903e 5603 e9bd 51fc a03e e39d 7cbe
00000340: 5ca2 003e 3967 073e 4ac2 95bd aef7 213d
00000350: 0414 2abe 3549 f33d 5ff1 fdbd 8fe7 923e
00000360: 67de b4bd d968 733e cd24 c73d b480 93be
00000370: 99d3 b03d b808 8dbc ab02 5d3e 19aa 62bd
00000380: 55fd 5e3e b10e 013e b7d3 47be 8c5f 803e
00000390: a84f ae3e 79d5 6c3e 0444 ce3d f9ef 543e
000003a0: 6634 ff3d 2a73 b0bd 28d0 15bd 7918 56be
000003b0: 52ec 6d3e b5e8 dd3d f5ad 093e 5ef0 55bc
000003c0: e9b5 4abe fef7 bc3d 12b6 f53e 8cdb f93d
000003d0: f03d 61be 33ed bb3e 101b 3f3e e5ef 72bb
000003e0: 4032 d43d 593f 53be 4fc0 9abc f19f d23d
000003f0: 10a5 043e 557c 06bd dfe3 e4be a333 f9bb
-0.23122609 -0.26030245 0.1635616 0.057436835 -0.23726717 0.17015378 0.23001786 0.11930605
0.000511395 -0.0952842 0.43303698 -0.19284575 -0.31036612 -0.046787083 -0.2554645 0.27956226
-0.18190022 -0.2061797 -0.21272318 -0.1701139 -0.13426666 -0.13896507 -0.0484376 -0.25916064
0.0020860161 0.04618009 -0.226291 0.18581448 -0.1668372 -0.3772781 -0.168875 0.077552505
-0.12698016 0.17090108 -0.09222819 -0.054174084 -0.0012475759 0.13956463 0.03777132 0.105978616
-0.046025977 0.078025445 0.29570273 0.13503234 -0.37875035 -0.0595764 -0.2488439 -0.06708952
0.14905243 0.10079833 -0.3311145 -0.024044055 -0.01069501 0.0767963 0.079448484 -0.03078531
-0.06710046 -0.07193269 -0.057915732 0.0033275257 0.079108074 0.24582931 0.09416403 -0.070790865
-0.16774647 0.2572721 -0.011171887 -0.26982147 -0.07455116 -0.07494436 0.29176798 0.018865924
0.29256544 -0.12633471 -0.24516055 0.15639248 0.03098416 0.07900985 0.03470673 -0.03872648
-0.077090606 -0.10114554 -0.079413615 0.018216072 -0.17106687 -0.01813388 0.07952279 0.28131112
-0.13196078 0.115062475 0.0072136805 -0.1422217 0.08714253 0.0124397 0.13764252 0.00077424303
-0.2690668 -0.040215082 -0.19592293 0.19221531 0.3159432 0.18180983 0.1037107 -0.06130865
0.05856996 -0.09484917 0.11656495 0.07759335 0.04266031 -0.03931409 -0.24019335 -0.054096047
-0.054998018 0.25856227 0.18352628 0.12697864 -0.16299643 0.4014976 0.14362228 0.09172751
0.06434905 -0.30321333 0.15161996 -0.10136377 -0.21118002 -0.031270858 -0.030412126 0.13271178
0.02071954 -0.14074317 0.029664204 0.16221128 0.021020131 0.18681791 0.012240767 0.08839296
-0.06584356 0.18371844 0.5687954 0.037290517 -0.2693225 -0.20941004 -0.113086656 0.09517071
-0.0051459516 -0.2015269 -0.032196578 -0.110939294 0.17126256 -0.2805966 0.08201585 -0.057308476
-0.12893319 -0.2814457 0.05806894 0.022448884 -0.008755523 -0.17827798 0.050287697 0.2234831
-0.045219216 -0.058675025 0.18829395 -0.26838937 -0.17726018 -0.1475996 0.092459984 -0.106338955
-0.0045472216 0.048487235 0.24691078 -0.11750743 -0.2113545 -0.1816196 -0.29604045 0.0685105
0.19897431 -0.14806163 -0.28933728 0.099910714 0.15219526 -0.075780235 0.016207509 -0.18869472
-0.035539683 0.058179565 -0.14014015 -0.17516612 0.11325427 0.3164757 0.3064875 0.15744768
-0.05639359 0.25761706 -0.23689015 -0.25937465 0.059402283 -0.001539682 0.24145955 0.07465118
0.25817835 0.119339466 -0.6089676 0.12136139 0.28165606 -0.113775894 0.31442502 -0.24669604
0.12561935 0.1322297 -0.07312448 0.039542846 -0.16609198 0.118791975 -0.123995535 0.2869229
-0.088314824 0.23770465 0.09723816 -0.2880913 0.08634109 -0.017216071 0.21583049 -0.055338
0.21776326 0.1260326 -0.19514357 0.25072896 0.34045148 0.23128308 0.10071567 0.20794667
0.12461166 -0.08615716 -0.036575466 -0.20907773 0.2323468 0.10835401 0.13445266 -0.013057796
-0.19795956 0.09226988 0.4799047 0.12200078 -0.21996284 0.36704406 0.18662667 -0.0037069258
0.10361147 -0.20629634 -0.018890528 0.10284413 0.12953591 -0.032833416 -0.44705102 -0.0076050325

hiden_layers.0.bias f4 [64]
00000000: 10a9 bc3c 1d66 55bd 5f2c 3d3b 5d45 29bd
00000010: 5f67 ed3c 70ba 12bd 67a2 543c 2b31 c93c
00000020: 944e bdba 6fb5 20bd e61f a83d 785a 243b
00000030: 4fcb f4bc fc20 c6bc 347f 473c b6fc dbbc
00000040: 22f8 0e3d 0983 30bd 2a4b 293c f2d9 cd3c
00000050: a344 f73c 1003 1d3d a648 ddba df7b a9bc
00000060: 17f0 2fbd 02fa 093d d72a fdbb abc1 92bc
00000070: 5fc1 3d3d 97a1 1e3d 2270 64bc 022b 413d
00000080: ed31 8f3c 75bc 9f3c edae 463d 72a0 22b9
00000090: eaaf 92bb 4b6a f73c 7c1a b23c 47e4 21bd
000000a0: dbc0 cb3c 992c 8ebd 9cc2 14bd d426 d5bc
000000b0: c727 de3c bffe e7bc e4ea 16bd d5aa dd3c
000000c0: f716 c2bc 40d2 21bc 91f5 063d df81 07bd
000000d0: f6a9 ad3c 7798 afba ba5a 08bd a6db bfbc
000000e0: c77b 9f3c 4992 adbc e9f8 353d 1f0e 213d
000000f0: 8954 383d d3cc 3d3b e16d 6abb ff5e 19bd
0.023029834 -0.052099336 0.0028865559 -0.041325916 0.028979955 -0.035822332 0.012978173 0.024559578
-0.0014442974 -0.03923553 0.08209209 0.0025078338 -0.029882101 -0.02418565 0.012176324 -0.0268539
0.034904607 -0.043093715 0.010332862 0.025128338 0.030184096 0.038333 -0.0016882613 -0.02068895
-0.042953577 0.03368569 -0.007726054 -0.017914614 0.04632699 0.038728323 -0.01394275 0.047160156
0.017479861 0.019499043 0.048506666 -0.00015509294 -0.004476537 0.030202052 0.021741144 -0.039524343
0.024872234 -0.069421 -0.036318406 -0.026019491 0.027118577 -0.028319715 -0.036845103 0.027058998
-0.023692591 -0.009876788 0.032949034 -0.03308284 0.021199208 -0.0013396878 -0.03328965 -0.023420166
0.019468201 -0.021187918 0.044426832 0.039320108 0.045002494 0.0028961196 -0.003577106 -0.03744411

hiden_layers.1.weight f4 [64, 64]
00000000: 9764 923e 580e ac3d 2619 fa3d 35ad 433c
00000010: c2a7 45bd a82a 083d 4eb0 553e 5691 30be
00000020: 8a18 c03c 39ee c43d 346a 22bc b0c0 38bb
00000030: b352 8fbe 63e8 153e 1dd6 b4bd 9baf cc3d
00000040: d8a3 363e 5db3 aebd 4fe8 423d 82e6 f83d
00000050: d3df 48be 85ec 07be 3bed b5bd 4367 c7bd
00000060: 3830 c8bd ff5a 39be ef08 a03d b7d7 503e
00000070: e5af 103e ce1a cdbd 9ef5 553e 4c07 c4bd
00000080: cf8b febd dd95 84be 9136 7b3d 0a26 5e3d
00000090: 0142 2ebe 91fb d23d 2f9f 493e 48ca 013e
000000a0: 59ee 673e e3f8 aabc f13c b13b 14c3 b53c
000000b0: 83de 513e e0f9 cf3d 0547 89bd 92b5 b53c
000000c0: 6192 f33c dc0d 843d 6664 babc 87f7 0cbe
000000d0: d513 7bbe 5875 463e 8ba6 f9bd 55ba 58bd
000000e0: e892 0c3e 02a8 3cbe 5b2c 9cbc 8519 f13b
000000f0: be93 aebd c312 ab3d fdb0 b73d 4713 8abd
00000100: 23ed 463e bf04 b0bd 2b42 883e a96f 5cbe
00000110: 255a 463c d031 1ebe e17a 3f3e aec2 2f3d
00000120: daa2 cf3d dd22 5c3b f20d 423f adc6 3f3d
00000130: 4cc1 04be d991 0e3e 1332 1bbd 6577 053e
00000140: 0db5 0dbe eb0c 273e ef2c b9be f491 0c3e
00000150: 7e5a 423d e6e5 90bb f541 91bd f73b b1be
00000160: 8255 33bd a368 d93d e414 43be 12b8 d2bd
00000170: f2fc 17be 3689 0abe 9505 ec3d 810f ba3d
00000180: 0cd3 3f3e b280 da3c 98f2 ad3e 226f 163e
00000190: b940 1ebe 37c7 633f c088 ee3d ef29 853d
000001a0: df90 2a3e ad58 0f3e 2020 a7bc bc4d 10be
000001b0: 9bc9 c83d 03b0 623e c44e 103d 4e04 cfbd
000001c0: 8afb 693e edef d7bd fc91 18bd 75ca 15bd
000001d0: 0239 423e c87e 3a3e 4917 8abd caed 92be
000001e0: 171a 3abd 720d 943e 5760 0d3f c0ed 493e
000001f0: 9e49 29be 8cdc 233e 4af7 2f3e 8ada 50be
00000200: 896c 823d 26f1 d4bd 2855 40bd 920f fdbd
00000210: 97c4 e13d 9b47 b8bd 28b4 173e 1daf be3d
00000220: 7f95 453e 113a 273e 24a0 ec3e 1ce6 fabc
00000230: fda6 84be 0ccc 16be 8578 9dbd 75cc 5c3e
00000240: e415 7e3d 60ff b6bd a366 453e 10ed dbbd
00000250: f544 1ebe 4dbe 1b3e 6b56 bc3d 3bfc a6b9
00000260: b65c 08bd 0a46 1bbd 9316 163e e9c9 92bd
00000270: 9d28 d3bd 7a63 51be 7af4 ac3d 35a2 413e
00000280: 1e48 883e 2c29 323d 69f9 a03d ff10 4abe
00000290: bbd8 4e3e c5ce 1bbe 2d5f 3abe c714 72be
000002a0: 3f8a 6d3e fd89 153e e84d d13c bc82 e33d
000002b0: 00ff 0b3d b49d 923e 60a4 ffbc 47de 353e
000002c0: 7c71 b13d da65 4a3e 1783 4f3d f007 0dbd
000002d0: 81c2 a23c cc66 b33d f531 413e e87f b8bd
000002e0: 6179 1bbe f7ec 1a3d 2c6d 383e d99b 14be
000002f0: d500 efbd 6bef 94bd 173f 903e 48da 8cbe
00000300: b2b9 71be 0254 a8bc 150a 89bd a04d 73be
00000310: 97e1 d23b ad18 c1bd 5309 a6bd 9469 393e
00000320: 179b afbd dc9c 973d fc4f 69bb b943 9abe
00000330: aaa7 f03d 9853 003e 6826 093e 4f17 90bd
00000340: 6d6a 8d3e 6ca0 a13a 6b78 c73d bd26 89bd
00000350: 7378 afbd 4118 1039 52b8 54bd b02c 8a3e
00000360: df47 dbbd d521 e7bd 519b 00be 77a1 86bd
00000370: 8187 9bbd d2cd fa3d ab0d babd 9ff7 ff3c
00000380: e26f 163d 9a23 253e 06f2 b93d 3153 2abc
00000390: 1959 5ebd d05d 64be c940 8cbb 6ce1 063e
000003a0: 351a 8f3d 4f98 eebd a8f7 463d f85f b03d
000003b0: f334 4abd 2317 7bbc 2d79 23bd 7f3b 8a3e
000003c0: ac6c 4b3e 25da b7bd 0371 d43d d266 943e
000003d0: c94a 1a3e 3b22 273d a2b6 38bc 7c15 163e
000003e0: 0e5e 9a3d 6951 433e 6d46 1d3e aa58 6b3d
000003f0: c13e f23d 0fe9 733c aed7 cd3d 62f9 c6be
0.2859237 0.08401173 0.12211828 0.011943151 -0.04825569 0.033243805 0.20868036 -0.17242941
0.023449201 0.0961575 -0.009913016 -0.0028191023 -0.27992782 0.1463943 -0.08829901 0.099944316
0.17835939 -0.085303046 0.047584828 0.12153341 -0.19616632 -0.13273819 -0.08883139 -0.097364925
-0.09774822 -0.18101119 0.07814204 0.20394789 0.14129598 -0.10014878 0.20894477 -0.09571704
-0.1242901 -0.25895587 0.061331335 0.054235496 -0.17017366 0.10301889 0.1968963 0.1267482
0.22649516 -0.020870632 0.005408876 0.022187747 0.20495038 0.10155082 -0.06702999 0.022181306
0.029732885 0.06447956 -0.022752952 -0.13766299 -0.24519284 0.193807 -0.12189969 -0.052912075
0.13727915 -0.18423465 -0.01906412 0.0073577785 -0.08524273 0.08353188 0.08969305 -0.06741958
0.19426398 -0.08594655 0.26612982 -0.2152697 0.012106453 -0.1544869 0.18699218 0.04291027
0.10138483 0.0033590116 0.7580253 0.04682033 -0.12964362 0.13922824 -0.03788955 0.13033827
-0.13838597 0.16313522 -0.36167094 0.13727552 0.04744958 -0.0044219373 -0.070926584 -0.34616062
-0.04378272 0.10615661 -0.19050938 -0.10289015 -0.14842585 -0.13528904 0.11524502 0.090849884
0.18732852 0.026672695 0.33974147 0.14690831 -0.15454377 0.8897585 0.11647177 0.06502139
0.16656826 0.13998671 -0.02040106 -0.14092153 0.09804078 0.22137456 0.035231367 -0.10108243
0.22849861 -0.10543809 -0.037248597 -0.03657003 0.18967059 0.18212426 -0.067427225 -0.28697044
-0.045435037 0.28916508 0.5522513 0.197196 -0.16531989 0.160021 0.17184177 -0.20395866
0.06368358 -0.10397558 -0.04695621 -0.123564854 0.11023825 -0.08998033 0.14814818 0.09310744
0.1929531 0.16330744 0.46215928 -0.030627303 -0.25908652 -0.14726275 -0.07689003 0.21562369
0.062032595 -0.08935428 0.19277434 -0.107385755 -0.15455993 0.15209313 0.091961704 -0.00031849914
-0.03329154 -0.03790859 0.14657049 -0.071674176 -0.10310481 -0.20448104 0.08445068 0.18909533
0.2661752 0.043496296 0.07860071 -0.19733046 0.20199864 -0.15215595 -0.18200369 -0.23640738
0.23197268 0.1460342 0.025549844 0.1110892 0.034178734 0.28635943 -0.03120631 0.17760573
0.086642236 0.19765416 0.050662126 -0.034431398 0.019868137 0.08759841 0.18866713 -0.09008771
-0.15183021 0.037823644 0.18010396 -0.14512576 -0.116700806 -0.07272228 0.28173134 -0.27510285
-0.23605993 -0.02054787 -0.06691376 -0.2376008 0.006435584 -0.09428535 -0.08107247 0.18106681
-0.08574503 0.074029654 -0.0035600653 -0.30129793 0.117507294 0.12531888 0.13393557 -0.07035696
0.2762026 0.0012331135 0.09739765 -0.06696842 -0.08567896 0.00013741945 -0.051933594 0.2698722
-0.10707068 -0.1128575 -0.12559249 -0.06573766 -0.07594205 0.12246288 -0.09084638 0.031246005
0.036727794 0.16126862 0.090793654 -0.010395811 -0.05428419 -0.22301412 -0.004280184 0.13171929
0.069874205 -0.11650144 0.048576027 0.086120546 -0.049366903 -0.01532534 -0.039910484 0.26998517
0.19865674 -0.08977155 0.10373118 0.28984696 0.15067591 0.04080413 -0.011274012 0.14656633
0.07537471 0.19074024 0.15358897 0.057457604 0.118283756 0.0148871085 0.10050903 -0.3886214

hiden_layers.1.bias f4 [64]
00000000: dca9 4b3c 5361 373d 4ea0 d93c ca5e 47bd
00000010: 3c9f d03d 9ec7 ea3c 1983 c8bc 968a 963c
00000020: 7306 953c 9f8d aabc c823 ca3c 663f 863d
00000030: f33b b43a 5891 a43d 1e4c 163d 53e3 b63d
00000040: 42ef 0b3d 3f53 5b3c 250d 933d 98a6 97bc
00000050: ed03 3ebd 092a e43c 1434 c23c c4ca 1a3b
00000060: dede 9ebc 1bd8 a4bd b100 adbc 3609 5d3c
00000070: 6bfc 5d3d 085c 8bbd c6f0 e5bc 3388 63bc
00000080: 7bd9 2fbd 7f78 acbd 87d2 a4bc 150f e9bb
00000090: 2c47 aabd f664 8c3d 873e b6bd 4484 053e
000000a0: 80a3 8dbc 122f c4bc 1289 763d 235b 933d
000000b0: 047f 113d 43f9 0fbd d73c b1bc e43c db3c
000000c0: 6fc8 fe3d 3177 7b3d afd7 c93b 20be 93bd
000000d0: 4ca8 3a3e a7e4 fa3d 857b 96bd 997f 65bd
000000e0: 5ed9 eb3c 7c0c 27bd ab4b 45bd 7b90 8bba
000000f0: 60bc a23c a7a0 27bd 8a1c 7f3d 9923 7dbc
0.012430634 0.04477055 0.026565697 -0.048674382 0.101866215 0.028659638 -0.024476575 0.01837663
0.018191552 -0.020819483 0.024675265 0.06555061 0.0013750776 0.080355346 0.036693685 0.089300774
0.03416372 0.013386547 0.071802415 -0.018512055 -0.046390463 0.027852075 0.023706473 0.0023619393
-0.01939338 -0.08049031 -0.021118494 0.013490966 0.054195803 -0.06804663 -0.028068911 -0.013887453
-0.042932015 -0.0842142 -0.020119919 -0.0071123936 -0.08314356 0.06855194 -0.08898645 0.13038737
-0.017289877 -0.023948226 0.060189314 0.07195117 0.035521522 -0.035149824 -0.021635456 0.026762433
0.124405734 0.061392967 0.0061597447 -0.07213998 0.18228263 0.12250643 -0.07347778 -0.05602989
0.028790172 -0.04078339 -0.048167866 -0.0010647917 0.019865215 -0.040924694 0.062283076 -0.015450382

hiden_layers.2.weight f4 [64, 64]
00000000: 5ac8 eabd 2093 99be 3888 33be 48f7 4a3e
00000010: 18c8 2abe 732e 20bc cd2f 2b3c f928 743e
00000020: 89ec 5c3e e9fb 1dbb 5196 043b 10a9 87be
00000030: f8d0 65bd 3fe3 14ba 3256 243e 8354 1fbe
00000040: 8ece 4a3e 27bd 713e 0e9d 243d b419 52bd
00000050: f337 843d abbf 24be 2fd4 1ebe 8d9d 49be
00000060: c959 05bc 31a8 f23d 8a56 dcbd f502 a4bb
00000070: a099 80bd 8d35 0c3e e38d 17be e679 7c3d
00000080: 62a6 0f3e d070 1c3e 1e35 e03d 9e01 173d
00000090: 7265 823e e876 7dbe 9dd9 a5bd 3685 07be
000000a0: ea25 2ebe f9c0 13be 9163 513d 0a09 bb3d
000000b0: d9ae aebd 9919 0a3e 374e ca3d 8f48 2abe
000000c0: f10a 0a3c e290 413d 76c7 12bc 86fc 083e
000000d0: f26e 61bd 5a35 983e 701c d23c 6bbb b5bd
000000e0: c94d 4c3e f465 fabd cbf5 e93c 94c3 3a3d
000000f0: 4e4f 793e eeea 143e 50a8 083c 9c44 243d
00000100: 6820 9c3c 8d9c 6abd 32d7 623e 4909 c0bc
00000110: 225a a6bd c1b4 1c3d 1b49 123d 6c2e 4b3e
00000120: 5d30 0e3e 965c 473e 5e6b 12be 473b d33c
00000130: 47d3 623e 6d88 1bbd 1aa1 ccbd 1f9d 4cbd
00000140: 56f9 f1bd c37e fa3d a879 94bd 5b8e 223e
00000150: 84bf 4dbe 5329 193e 821c 95be 1802 bc3e
00000160: 0413 0a3e 34a8 dfbd 7d7e 023c 141f 1c3d
00000170: 1054 c7bd 259d 2b3d ce14 303d 4056 2abe
00000180: a536 a2bd 1c43 c8bd 199a c13b 1814 c1be
00000190: 6221 4a3e 78ad a53d 4887 113e 0caf 883d
000001a0: c34d 85bd 1967 7fbe 49be 90bd a4e2 453e
000001b0: 5d81 a23e db60 0e3e 8dcd 923d 28c6 81be
000001c0: 7949 44be 53e8 f33b 12b1 39be 07fa 12be
000001d0: a375 babd 2936 1bbe 7b91 743e a241 23bd
000001e0: a2ae 9cbe 5bfb 0f3e ba70 b33b 4c0f e4bd
000001f0: 95d9 933e f69a f3bd 559c 89bd 08fc 9cbd
00000200: c908 2bbe 0813 883d 66e5 06bd f2ef f73b
00000210: a20f 7c3c 49ab 673e 6af1 5ebc 40d1 0c3e
00000220: 7409 0c3e 1b49 013a 56a4 513c 6518 0d3e
00000230: b09f 153e a0c3 03bd 9e68 f7bd 91ec 42bd
00000240: 5461 01be 566b 81be 3024 f8bd c6b9 0cbc
00000250: 9a45 e5bd 7b02 0d3e 0d59 2bbe 5265 4a3e
00000260: 6fa0 603e e35d 833d 4b0e b1bd 29de 9f3e
00000270: e254 c73d 74d1 9bbe ffa9 193e 5ce9 b13d
00000280: 7aea 053e f82e 283e 3f67 9dbd 96ea a6bd
00000290: 9b2f ad3d e043 a73d f1c5 9f3e e16b 88bc
000002a0: abd8 d8bd ac0c 9bbd 1f13 223d 5d82 8f3e
000002b0: 2e6f 443c 9d66 323e e732 d0bd b1b5 41be
000002c0: ddb7 fcbd cc90 5f3c c53f aabe 9b29 3dbe
000002d0: 3f41 ce3d 9b90 e6bb 8689 9ebd 3305 b73d
000002e0: 1a0d 6b3d 8063 2e3e 1d52 9fbd 52aa 3c3d
000002f0: 959b 023e dac1 31be 5ad9 3d3c feb3 10be
00000300: c0c8 a1bd 227c 9e3d d4ef 5abe eb1e d9bd
00000310: 83f5 263e 7c8f be3d 5896 37bd 4370 2a3c
00000320: c9c7 543e 0c23 773c bd0d 76be 72a2 5f3d
00000330: a5fd a7be c178 02be 5735 40be c7b8 163c
00000340: 6f4b 8a3e 688e cdbc f0b1 f1bd 27d8 1f3e
00000350: 73d5 b23c 1633 86bd b5d9 a23c 34cb 90bd
00000360: a88b 49be 57bc 5bbe bd8a 69be 0671 123e
00000370: 215f 02be e3a9 febd b114 95be fe64 dfbd
00000380: e340 2f3c d8fc 2fbd ebd1 3bbe b24f 34bd
00000390: 0e54 1f3e 36fa 5b3e a588 2f3c 2a4c f9bd
000003a0: 5dbe a4bd 3785 633e c851 db3d be7d f83d
000003b0: 5e36 82be f62e 67be a828 56be 23de 163e
000003c0: 2bca 333e 4d50 8bbe 6a89 563d 4413 bbbd
000003d0: 94f9 cc3d 7a8b 643e d608 70be 7bae 02be
000003e0: 1f34 e33d 0b27 1fbe 7bc8 58be 9d63 663c
000003f0: 1e2e d63b c752 cf3d eae1 273b f577 2ebe
-0.11463995 -0.2999506 -0.17532432 0.19820893 -0.16677892 -0.009776699 0.010448408 0.23843755
0.21574606 -0.002410645 0.0020231197 -0.26496172 -0.05610749 -0.0005679614 0.16048506 -0.15559582
0.19805357 0.23607312 0.04018884 -0.051294044 0.06455984 -0.1608874 -0.15510629 -0.19689007
-0.008139082 0.11848486 -0.107586935 -0.0050052353 -0.06279302 0.13692303 -0.14800219 0.06163969
0.14028314 0.1527741 0.10947631 0.036866777 0.25468022 -0.2475239 -0.08098147 -0.1323441
-0.1700665 -0.14429082 0.051120345 0.091325834 -0.08529443 0.13486327 0.098781995 -0.16629241
0.00842546 0.04725731 -0.008958688 0.1337758 -0.055037446 0.29728204 0.025648326 -0.08873638
0.19951548 -0.12226477 0.028559586 0.045596674 0.24346659 0.14542744 0.00834091 0.040104493
0.019058421 -0.057278205 0.22152403 -0.023441928 -0.0812266 0.038258318 0.03571425 0.19841927
0.13885637 0.19468912 -0.1429877 0.025785102 0.22150908 -0.037971903 -0.09991665 -0.04995453
-0.11815135 0.12231209 -0.072497666 0.15874617 -0.20092589 0.1495717 -0.29123312 0.36720347
0.13483816 -0.10920754 0.0079647275 0.038115576 -0.097328305 0.04189791 0.04298859 -0.16634464
-0.07920579 -0.09778425 0.0059082625 -0.37710643 0.19739297 0.08089727 0.14211762 0.066740125
-0.065089725 -0.24941672 -0.07067544 0.19324738 0.3173932 0.13904135 0.07168112 -0.25346494
-0.19168653 0.0074434667 -0.18133953 -0.1435319 -0.09104469 -0.15157379 0.23883621 -0.039857514
-0.30601984 0.14060728 0.0054760845 -0.1113573 0.2887694 -0.11894791 -0.06719271 -0.07665259
-0.1670257 0.06644255 -0.032933615 0.0075664455 0.0153845865 0.22623934 -0.013607362 0.13751698
0.13675481 0.0004931853 0.012795528 0.13778837 0.14611697 -0.032168984 -0.12080501 -0.04758889
-0.12634784 -0.25277203 -0.12116277 -0.008589214 -0.11194916 0.13770477 -0.16733189 0.19765213
0.219362 0.06414392 -0.08645304 0.31224182 0.09732987 -0.30433238 0.15006255 0.08687088
0.13077727 0.16424167 -0.07685708 -0.081502125 0.08456346 0.08167243 0.31205705 -0.016653003
-0.10588201 -0.07570776 0.039569017 0.28029147 0.011989398 0.17421956 -0.10165959 -0.18916966
-0.12339757 0.013645362 -0.33251777 -0.18472902 0.100710385 -0.0070362813 -0.07741074 0.089365385
0.05738554 0.17030144 -0.07779334 0.046060868 0.12754662 -0.17359105 0.011587465 -0.14131162
-0.07899618 0.0773852 -0.2138055 -0.106016 0.16304593 0.09304711 -0.044821113 0.010402742
0.20779337 0.015084039 -0.24028678 0.05459828 -0.32810703 -0.12741376 -0.18770348 0.009199328
0.27010676 -0.025092319 -0.11801517 0.156098 0.021830296 -0.065527126 0.019879201 -0.07070008
-0.19682181 -0.21458565 -0.2280683 0.14300928 -0.12731601 -0.12434747 -0.2911735 -0.109079346
0.010696623 -0.04296574 -0.18341796 -0.044021316 0.15559408 0.21482167 0.010713731 -0.1217273
-0.080441214 0.22218786 0.10708958 0.121333584 -0.25432104 -0.22576508 -0.20913947 0.14733176
0.1755759 -0.27209702 0.052377142 -0.09134534 0.10008541 0.22318831 -0.2344087 -0.12761872
0.11093926 -0.15542237 -0.21170227 0.014061836 0.0065362593 0.101232104 0.0025616833 -0.17037947

hiden_layers.2.bias f4 [64]
00000000: 5153 ffbd 2430 8cbd a5bb 1dbd 3a55 a63d
00000010: 1044 343d a7a2 063d 3069 44bc 7830 473a
00000020: 2469 df3d b9ce fcbc 9d34 3fbe d9bc 38bd
00000030: a24b 633d d2e2 eabd 2330 7b3d 7d24 233e
00000040: 1407 463e 00ca 81bd 9fab 8c3d 71d0 2fbd
00000050: 935a a1bd 7291 50be 0a7c 3ebd 6a7f 453d
00000060: 19ed cbbd c4b9 9d3e 4683 70bd 0547 b9bb
00000070: 0017 a13d b301 c9bd bd40 93bd a7ef 4abe
00000080: abfa 34bd 7e96 e43d 6506 a63d ce21 8c3d
00000090: b8cf 1dbe 857e 783d 8fd4 0a3e 15f8 d0bd
000000a0: 4020 38bc f615 433c 247f c33c 6418 c03c
000000b0: 2395 0c3d 4b46 6abd ad3c f83b 267d cf3d
000000c0: 6fb9 6bbc b634 5c3d 34ef 3ebe 4acf fa3c
000000d0: 3af5 a9bd 0107 9b3c 0af0 90bd 117f 9a3d
000000e0: f158 ab3c 02a4 b13b d511 963d b646 bfbc
000000f0: 1437 cdbd c146 37be 531a f23d 3272 d7bd
-0.12467063 -0.068451196 -0.03850903 0.081217244 0.044010222 0.03286996 -0.011987969 0.000759847
0.10908726 -0.030860292 -0.18672414 -0.045101974 0.05549205 -0.11469044 0.061325204 0.15931888
0.19338638 -0.063373566 0.068686716 -0.042923395 -0.07878604 -0.20367983 -0.04650501 0.048217215
-0.09957332 0.3080579 -0.058718942 -0.005654218 0.07865715 -0.09814777 -0.07190082 -0.19817983
-0.044184368 0.111615166 0.081066884 0.06842385 -0.1541127 0.060667533 0.13557647 -0.10203568
-0.011238158 0.011907091 0.023864336 0.02344913 0.034321915 -0.057195943 0.0075755925 0.10131292
-0.0143874725 0.053761207 -0.18645936 0.030616421 -0.082987264 0.018924238 -0.07077034 0.07543767
0.020916434 0.0054211626 0.0732762 -0.023349147 -0.10020271 -0.17898084 0.11821427 -0.10519828

hiden_layers.3.weight f4 [64, 64]
00000000: b791 5abe ecfd 24be 3e6e e9bd 98c0 e43d
00000010: e3cc 1a3d b79f 06be 8136 37be 11c9 383e
00000020: 127e 1f3d 4c23 993d 6a39 49bd 7eb7 8c3d
00000030: 7528 f9bd 4e90 983e 893f 5d3d bf96 1abd
00000040: 1a29 5ebd 0d95 2dbd 7074 b23b e251 4cbd
00000050: 361e 8dbe f7f9 b2bd f59a 2dbe 4181 2a3c
00000060: 5932 9cbd f1d0 36be 263d 0ebe 2596 aabc
00000070: c494 b0bc bf6c 553d 791b 043e 8f19 5e3d
00000080: d06e 25be df00 fdbc 7b5e 5f3c 3bc4 613d
00000090: 960d ac3e dd51 cb3e 5c78 bc3d b018 62be
000000a0: b7a7 80bd 35ad 81be 53ad 903e 48d2 7a3e
000000b0: 014c 993d 66a4 1e3e 9abe 703e 9bf4 9dbd
000000c0: 1df6 e4bc 79f2 fdbd 3070 3ebe 584e 403d
000000d0: 3904 e03d f88f 8fbd 4d11 613d d357 073e
000000e0: 0ef3 78bd d667 8bbe 1135 2b3e beff 4d3e
000000f0: 58d2 a83c 4284 ac3e 80be e63d dad9 7cbe
00000100: daeb 01be aca6 83bd 90bb 4a3e 8a90 28be
00000110: 2ac4 693e 31ee 6b3e f40a 03be c62f 363e
00000120: 587c 273e eefe 783e cd70 5fbe ae8e 933c
00000130: 7e24 253d fb1b 743e 59b8 143e 3966 d6bd
00000140: e934 1bbe bf50 2e3d a29c 01be d169 2bbe
00000150: 17dc edbd 9f42 183d 1fda 023e df9e 253e
00000160: 01e8 2f3e c1de 983d c0c5 04be c618 5a3e
00000170: 8e28 45be 2574 083e 980e a6bd 3e3e 02be
00000180: dbe3 5dbc 6201 3b3e 80ab 693e 0573 aa3d
00000190: 3be5 7a3e c562 a33c 2ce8 f2bd 1506 d7bd
000001a0: bd1e 78be d71f 26be 9884 033d 0884 41be
000001b0: e616 903d a915 3d3c 14dc 023e c84f 6d3e
000001c0: c99f ae3d 4ed6 3a3e 5f22 293e 42d4 953d
000001d0: 2041 bc3e 8bf6 debd 8fbc 0b3d e2db 15be
000001e0: 92f1 843e 0651 243e 979f 02bd 02fa 023e
000001f0: fcaf 583e 4aa4 443d bb35 373e bf7d 143e
00000200: c967 95bb 4370 66be 5dff aa3c eca7 8e3e
00000210: 717f a6bc 8937 12be eb67 81bd afcd 05bd
00000220: 1751 0cbe 902d 2fbe a918 cbbc df5e 5bbd
00000230: f578 e5bb 4ae6 6a3e b01b 4cbe 172a fe3a
00000240: c1a0 a5bd 1685 b5ba 276c 653c 7281 10be
00000250: 513b 59be 4bc7 debd d284 30be 61da a23e
00000260: 4bbd 033e b557 2cbe f0e3 453e cfd5 893d
00000270: 4b4d 6e3d 844f 40be 88dc d13d ddcc 023e
00000280: 1b06 3bbd a505 383e 5d5c 17be 3c35 7b3d
00000290: d73d 503d f28d 55be 84d1 fe3d b6b3 1e3e
000002a0: c106 37be c5fd 643d 6769 423e 6469 74bc
000002b0: e762 ae3d 8247 d33d 534d 3e3e 4a7e 69bd
000002c0: c9c4 7abe 96eb 3ebe 3c40 893e c871 b73d
000002d0: 4bbd c03d aa02 12be d24d 16bd 8f6e 7e3b
000002e0: 1a51 1b3d 8802 2c3e 20ba a2bd fe57 6abd
000002f0: bd48 e03d 8841 b13d 1e5a aebe 9593 1fbe
00000300: 4ba6 eb3d 16fb a63b 8cf0 1dbd 39e4 7dbe
00000310: fdff 34be f98b 403e a6f9 863d ee84 d33d
00000320: 66b4 073e f414 bdbd e47a bb3c c0c2 ae3d
00000330: 0c1f 6f3d 91be 233d 00ad 16be 765b 9cbc
00000340: 1a1e 1ebe 0c9e 51be 6f0d 973d 0731 e6bd
00000350: d6b4 97bd cbda 873e bec6 593d da3e 123d
00000360: 02df 0d3e 2807 aebe e947 fe3d e112 e33c
00000370: e785 7a3d 595a 1bbd f8b8 eb3d 1c36 953d
00000380: 81a3 b13d 4241 81bb 8548 0bbe 74d4 92bc
00000390: f742 de3e 7ea2 a83e 1874 af3e 8643 e4bd
000003a0: 6c58 b13d 853e 923e 89ca a2bd 8dcd 743d
000003b0: ef7e 3d3d 8661 4f3e c619 b73a 36c8 96be
000003c0: 4ee1 d1bd 1515 73bc 8b4a 37be 0977 403e
000003d0: 27a4 14be 0429 1dbe 9555 253e 8d51 853e
000003e0: 50e0 30bd 63d0 54be 4b9d 02be 706f 503d
000003f0: 4b57 0a3e b2dc b73e 5b29 9abe 28b6 e43d
-0.21344648 -0.16112489 -0.1139798 0.11169547 0.03779305 -0.13146864 -0.17891885 0.18045451
0.03893859 0.074774355 -0.04912702 0.06870936 -0.1216592 0.29797596 0.05401567 -0.03774142
-0.054238416 -0.042378474 0.0054460093 -0.049882777 -0.27562112 -0.08739083 -0.16953643 0.010406793
-0.076267906 -0.17853142 -0.13890514 -0.020823548 -0.021555312 0.05210566 0.12901105 0.054223593
-0.16155553 -0.030884204 0.013633366 0.05511878 0.33604115 0.39710894 0.09202644 -0.2207973
-0.06281989 -0.2532746 0.28257236 0.24494278 0.074852 0.154924 0.23510209 -0.077126704
-0.027949387 -0.123997636 -0.18597484 0.046949714 0.109383054 -0.07009882 0.05494814 0.13217096
-0.06077867 -0.27227658 0.16719462 0.20117089 0.020608112 0.33694655 0.11266804 -0.24692479
-0.12687626 -0.064282745 0.19798112 -0.16461387 0.22828737 0.23040082 -0.12797147 0.17791662
0.16356027 0.24315998 -0.21820374 0.01801237 0.040318005 0.23838799 0.14523448 -0.10468716
-0.15156902 0.042557474 -0.12657407 -0.16739585 -0.116142444 0.03717291 0.12778519 0.16173886
0.17178346 0.07464362 -0.1296606 0.21298513 -0.19253752 0.13325556 -0.08108252 -0.12719056
-0.0135430945 0.18262246 0.22819328 0.083227195 0.24501507 0.019944558 -0.118606895 -0.10499207
-0.24230476 -0.16223083 0.032108873 -0.18898022 0.070356175 0.011540809 0.12779266 0.23174965
0.0852657 0.18245813 0.16517018 0.073158756 0.36768436 -0.10886868 0.03411537 -0.1463466
0.25965554 0.16046533 -0.031890478 0.12790683 0.21160883 0.04800824 0.1789159 0.14501093
-0.0045594913 -0.22503762 0.02087372 0.2786249 -0.02032444 -0.14278997 -0.06318649 -0.03266686
-0.13702808 -0.17107224 -0.024792032 -0.053557273 -0.0070029446 0.22939411 -0.19932437 0.0019391206
-0.08087302 -0.0013848867 0.014002836 -0.1411188 -0.21214034 -0.10877856 -0.17238167 0.31807235
0.12865178 -0.16830333 0.19325233 0.06730234 0.05817918 -0.18780333 0.10247141 0.12773462
-0.04566012 0.17970903 -0.14781328 0.061330065 0.050840225 -0.20854929 0.12442306 0.15498242
-0.1787367 0.055906076 0.1898552 -0.014917705 0.08514958 0.103163734 0.18584184 -0.057005204
-0.2448913 -0.18644556 0.2680682 0.08957249 0.09411105 -0.14258829 -0.03669531 0.0038823222
0.03791914 0.1679784 -0.07945657 -0.057212822 0.10951374 0.08655077 -0.3405313 -0.15583642
0.11506327 0.0050958497 -0.03855948 -0.24794091 -0.17675777 0.18803395 0.065905854 0.10328089
0.1325241 -0.09232512 0.022885747 0.08533239 0.058379218 0.03997666 -0.14714432 -0.01908658
-0.1544117 -0.20470446 0.07375609 -0.1123982 -0.074075386 0.26534113 0.05316805 0.03570447
0.13854602 -0.33989835 0.124160595 0.027718963 0.061162855 -0.03792796 0.11509889 0.07285711
0.08673764 -0.003944547 -0.13601883 -0.017923571 0.43410465 0.32936472 0.3426826 -0.111456916
0.08659443 0.28563324 -0.07948787 0.05976634 0.04626363 0.20252046 0.0013969473 -0.29449624
-0.102480516 -0.014836569 -0.1789953 0.18795408 -0.14515744 -0.15347677 0.16145928 0.2603878
-0.04318267 -0.20782618 -0.12755315 0.050887525 0.13509862 0.35910565 -0.30109677 0.11167556

hiden_layers.3.bias f4 [64]
00000000: 889b 5f3e 56ee 663d 4507 31be a9e1 4bbe
00000010: 633d 483d d320 dc3d 663d 91bd f7c6 2e3d
00000020: 9592 e63d 0996 003d 9ea5 793d a014 65bd
00000030: c678 06be d301 ce3d b98f 1fbd 5c33 ccbc
00000040: 99d2 61bd 9ba6 b4bd d1d6 1abd 4ef0 8b3d
00000050: 10e4 fabd aa31 bebd 776f 7d3e 957c b4bd
00000060: 8e1e 3e3d 5818 933b 63cb 17bd bd64 e23d
00000070: d562 1a3e 0f10 64bd d3a5 c6bb 749a 60be
00000080: 98d2 923d d04e 623e c822 c3bd bdc5 493e
00000090: b9e4 77bd 1a59 023e b880 133e 59fb 35bd
000000a0: dbde 1e3b f818 1dbd 9c8f cf3d cfde 893d
000000b0: 4e38 8e3c b6f6 653c 4bf6 0c3d 9a6a 053e
000000c0: 7a62 9f3e 2f89 8f3b b333 b33b 82fa a43d
000000d0: 974a ca3d eb30 ffbd d2da 6cbd 5675 f6bd
000000e0: fb2f 193e 65d3 a3bc d308 8fbd af80 ba3d
000000f0: b66f b4bd c29b c63c bac3 3ebe e803 1f3c
0.21836674 0.05637964 -0.1728793 -0.19910301 0.048886668 0.10748448 -0.07091789 0.042670216
0.11258427 0.031393085 0.06094896 -0.055927873 -0.13132009 0.10058942 -0.038955424 -0.024926834
-0.055132482 -0.0882084 -0.03780252 0.06832944 -0.12250531 -0.092868164 0.24749552 -0.08812825
0.046415858 0.004488986 -0.0370592 0.110543706 0.15076764 -0.055679377 -0.0060622483 -0.21933919
0.07169074 0.22100377 -0.09528118 0.19704337 -0.06052086 0.12729302 0.14404571 -0.044429157
0.002424172 -0.03835389 0.10134813 0.067319505 0.017360833 0.014035871 0.03441457 0.13028947
0.3112982 0.004380367 0.0054688095 0.08055593 0.09877508 -0.12460502 -0.05782587 -0.12034099
0.1495971 -0.019998262 -0.06984105 0.09106576 -0.0881037 0.024244193 -0.18629351 0.009705521

hiden_layers.4.weight f4 [64, 64]
00000000: 36ac 4dbe 6506 39be 9191 883b 5408 36be
00000010: 9be6 adbd d36f 76be eb1d 8bbe 17ca b2be
00000020: cacd 83be d268 1bbe bf93 813c 91b7 0f3e
00000030: e4d7 803c 75f0 e03d 48b3 ad3e b85e 313e
00000040: 8ce3 55be cc17 91be 73a8 d93d 1b59 d93e
00000050: e73e 01bd 2e83 073e baa9 243e f7d2 663e
00000060: 1f66 793d d2ea f53a 6b0f 6f3d f1e7 0e3e
00000070: 5c6d 34be 5fb8 073e c087 fdbd 5554 013e
00000080: 8575 80be c581 543d 02b7 e9bd 82ef 533d
00000090: 1bb2 48be b17f 0e3e 29e1 9cbd b9f2 ce3d
000000a0: da42 b43e e83f 97be 31f5 973e 8a00 6dbd
000000b0: 6b6f 233e 2d10 9d3e e0a4 2d3e 09bb 453e
000000c0: 42ef c0bd 4e39 27bd c518 003e 6cf0 97be
000000d0: dedd 4b3e 4656 a4bc a058 53be a684 87be
000000e0: bd98 a83d 5b19 093d b8c6 7f3d e9bb a13e
000000f0: 6e2e 903c 3450 23be 3688 05be 65eb f93e
00000100: 2fbf 0d3e 7f4a 11be d0fb b73e 4a8c 5b3e
00000110: 46f3 41bc c589 96be 1b02 ffbd 1db8 a9bd
00000120: 64f0 823e ad53 403e 9abe 7e3d 52f7 cbbc
00000130: dc0f 8c3c c690 0bbe d6ff ff3d e5a9 abbc
00000140: 1593 e2bc 86df 10be c879 343e 19aa c5bd
00000150: 5cbf 2fbe db6b 24be a8c9 d63e 777d 3bbe
00000160: a385 4f3e ca44 2abe 48d8 34be ceb6 0b3e
00000170: 1572 c3bd c02a 253e 4754 b53d 7bdb 83bd
00000180: d00b 293e 0b0f a4be afd2 93be e91b d23e
00000190: 4871 d73d 92ab d33d e587 2bba b01e e93d
000001a0: be22 423d ed5b c63e ba49 1c3e f86e 8c3e
000001b0: 33b2 b6bd fb05 d03d 5ae7 debd 5114 143e
000001c0: 75b4 10be fa36 66be ef49 00bd fb66 05be
000001d0: d63a b9be 367f a7bc 187d 253e 898e a9bd
000001e0: 23ed 1bbe 49b3 73be 6e28 c03d 4c71 02be
000001f0: 07b8 21be cd48 fb3c 9243 4dbe f5ec 563e
00000200: c286 93be 3b64 a4bd ce62 debd 6db1 02bc
00000210: 9682 383e 2015 b63d 945d 88be 65a4 543b
00000220: 3bee 223e 0784 f43d 616b 153e 76dc 8cbe
00000230: 77b1 e13d 7c50 0b3e d516 3abe 8cb3 053e
00000240: e56b 5ebe 8b86 fc3c f453 a6be 9810 19be
00000250: d55b 293e 9867 80be cda7 53be a4f0 023e
00000260: d64c 17ba af20 dc3d 221d a1bd d55e a33e
00000270: 7e0f 0d3c a845 fc3d a2d5 853d 7bcb 24bd
00000280: 08d7 51bd 32c4 153e db46 c43a 3588 393e
00000290: a8ae 643e 4afc 4abe 6299 f63c d032 023e
000002a0: 5fe9 5bbd efe8 d93c a74b 42be 0423 5b3c
000002b0: aa10 e73d edfb d1bd 0857 78be 5d75 5ebe
000002c0: f03c 2e3e a222 783e 6b28 a0bd 812f 763e
000002d0: ef87 123d a39c 003e cc20 0a3e ef31 fabd
000002e0: 7eea a33e 2980 7c3d 3380 7a3e 2ae2 8abc
000002f0: 1fd1 84bd 3e9e 81be 491b 7abe 441f 2cbd
00000300: 1b96 963e 578a 893e 52c2 0ebe edd7 993d
00000310: cee3 133e dbfc 23be 15c1 31be 4921 16bd
00000320: 2942 ccbc 2727 bbba 684b 68be 52be 20be
00000330: 7786 a8ba 03be 5c3c d5bd 2b3c 2fd3 753e
00000340: 8eba 903e 6d80 e83d a5c5 b6bd ba83 91bd
00000350: b226 33be e240 11be a890 07bd 73fb 953d
00000360: 5de6 2f3d 770e 21be 43b7 5fbe c614 c0bd
00000370: 6c26 bcbc e905 acbd 0db3 5bbe 23aa cdbd
00000380: 791a cebd 76cd 5abe e5a2 d43d c070 7fbe
00000390: 3634 81be c2e5 863e 1563 29be 7263 88be
000003a0: 1878 073e 76fd 253d 7eb5 8c3e 6d55 763e
000003b0: 5dfb 6cbc 3547 a73e 547f 8cbe 7a3f 9ebd
000003c0: 3042 96bc f1c0 ebbd ceec 82bc 9a36 3ebe
000003d0: 565e 973d cb4e 4d3d 1e5a 8ebe 4168 293e
000003e0: 97f2 b2be 77fd 84be 8607 95bd 2952 90be
000003f0: 8e2f eebd 44f6 483c bab9 1ebe e7fe 67bc
-0.20085225 -0.18068846 0.0041677435 -0.17776614 -0.0849125 -0.24066095 -0.27171263 -0.34919807
-0.25742942 -0.15176705 0.015817521 0.14034869 0.015727945 0.109833635 0.33925843 0.17321289
-0.20887583 -0.28338468 0.10627832 0.42450795 -0.03155413 0.13233635 0.1608037 0.22541414
0.060888406 0.0018761999 0.058364313 0.13955666 -0.17619842 0.13253926 -0.12379408 0.12629826
-0.2508966 0.05188157 -0.11411859 0.051742084 -0.19599192 0.13915898 -0.076601334 0.101048894
0.35207254 -0.29540944 0.29679254 -0.057861842 0.15960471 0.30676404 0.16957426 0.1930963
-0.09420635 -0.040826134 0.12509449 -0.29675615 0.19908854 -0.02006067 -0.20639277 -0.2646839
0.082322575 0.033471446 0.062445372 0.31588677 0.017600264 -0.15948564 -0.13040242 0.48812404
0.13842462 -0.14188574 0.35934305 0.21440235 -0.011837786 -0.29401985 -0.124515735 -0.0828707
0.25574028 0.1878192 0.06219349 -0.024898205 0.017097406 -0.13629445 0.12499969 -0.020955035
-0.027658025 -0.14147767 0.17624581 -0.09651584 -0.17162842 -0.16056769 0.41950727 -0.1830958
0.20265822 -0.16627803 -0.1766063 0.13643953 -0.09543244 0.16129589 0.08853965 -0.06438347
0.16508412 -0.32042727 -0.28871676 0.4103692 0.105196536 0.10335459 -0.0006543382 0.11382806
0.047396414 0.3874201 0.152625 0.27428412 -0.089207076 0.10157391 -0.108839706 0.14460875
-0.14131339 -0.2248191 -0.03132051 -0.13027565 -0.361777 -0.020446401 0.16161 -0.082791395
-0.15227179 -0.2379886 0.09382711 -0.12738532 -0.15792857 0.030674363 -0.20045307 0.2098883
-0.2881375 -0.0802693 -0.10858689 -0.007976872 0.18018565 0.08890748 -0.26633894 0.003244662
0.1591119 0.11939245 0.14591743 -0.27511948 0.11020177 0.13604921 -0.18172772 0.13056773
-0.21720846 0.030825874 -0.32485926 -0.14947736 0.16538937 -0.25079036 -0.2066948 0.1278711
-0.00057716423 0.107484214 -0.07866885 0.3190829 0.008609651 0.123179734 0.06534888 -0.040233117
-0.05123046 0.14625624 0.001497473 0.18118365 0.22332251 -0.19822803 0.030102435 0.12714696
-0.053689357 0.02660033 -0.18974172 0.013375048 0.11282475 -0.10253129 -0.2425195 -0.21724458
0.17015433 0.24231961 -0.07820209 0.24041559 0.035774168 0.12559752 0.13489074 -0.12216555
0.3201484 0.06164566 0.24462967 -0.016953547 -0.06485199 -0.25316042 -0.24424471 -0.042022005
0.29411396 0.26863357 -0.13941315 0.07511888 0.1444237 -0.16014425 -0.17358811 -0.036652837
-0.024933891 -0.0014278636 -0.22685015 -0.15697601 -0.0012857456 0.013473037 0.010482271 0.24006341
0.2826733 0.1135262 -0.089244165 -0.07105203 -0.1749523 -0.14184907 -0.03309694 0.07323351
0.0429443 -0.15728174 -0.21847253 -0.09378962 -0.02296754 -0.08399565 -0.21455021 -0.10042217
-0.10063643 -0.2136744 0.10382632 -0.24945354 -0.25235146 0.26347166 -0.16541703 -0.2663837
0.13229406 0.040524922 0.27482218 0.24056025 -0.014464227 0.32671514 -0.27440894 -0.07726951
-0.018342108 -0.1151141 -0.015982058 -0.18575516 0.0739104 0.05012397 -0.2780313 0.16543676
-0.34950706 -0.25974628 -0.072768256 -0.28187683 -0.11630164 0.012265746 -0.15500537 -0.014159895

hiden_layers.4.bias f4 [64]
00000000: 6853 c03c 5eef 09bd 8ff7 073e ccdc 1ebe
00000010: b38b 8a3d 038c 8e3d 09e0 573e 9808 54be
00000020: 6575 47bd c01e 013d 4728 aa3c 65a8 de3d
00000030: dbcd e3bc 2e25 003d cd83 423d 8200 a13d
00000040: a159 443d a9b9 173d 19cf cf3b c1cf 6f3c
00000050: 932a ff3d 4d70 983b 1a2e c63d f7ff 163e
00000060: 6895 15bd 8932 793c 757c ba3c 6a7b 6fbd
00000070: bd4e da3d 98c2 253e f99e 34be 47fe b33d
00000080: b84b 3c3d ce8c b4bc 7b1c 1e3e afbf abbd
00000090: 2616 8a3e d367 653e 26d1 58bd 5a90 f0bd
000000a0: 89c8 08be 01d1 d2bc f946 41be 4614 523e
000000b0: 7e3e 2ebe bee3 a0bd c68a 4fbd 8f9a 0d3e
000000c0: 2cd8 c43d d5eb 803d d172 a2bc e7e9 5bbe
000000d0: 5587 1c3e bc4a c5bb c9c2 d33d 5517 b13c
000000e0: 1be1 e6bd 3bc2 c23d 9dc0 f63a 92b6 03bd
000000f0: 9632 ed3d b293 503e 5c26 56bc 0452 d03d
0.023477271 -0.033675544 0.1327803 -0.15513915 0.06764927 0.06960299 0.21081556 -0.20706403
-0.04869594 0.031523466 0.020771159 0.108719625 -0.02780812 0.031285457 0.047488976 0.07861425
0.04793704 0.037042294 0.0063418266 0.014636935 0.12459292 0.004652059 0.09676762 0.1474608
-0.036519438 0.015209802 0.022764424 -0.058467306 0.106595494 0.16187513 -0.17638768 0.08788734
0.04597065 -0.022039797 0.15440552 -0.0838617 0.26970023 0.22402887 -0.052933834 -0.11746283
-0.13357748 -0.025734426 -0.1887473 0.20515546 -0.17016026 -0.078559384 -0.050669454 0.1382849
0.09611544 0.062949814 -0.01983014 -0.21475945 0.15286 -0.006020872 0.10339887 0.02161757
-0.11273404 0.09509703 0.0018825714 -0.032156534 0.11581914 0.20368841 -0.013070669 0.10171893
