results/4_like_3_without_pde/epoch540/model_weights.pth (torch, 749398 bytes, 128 tensors)

init_layer.0.weight f4 [64, 5]
0	0xbe72e5f2	-0.2372053
1	0x3e9869b2	0.2976814
2	0x3d1d0bb3	0.038341235
3	0xbe43f354	-0.19135791
4	0x3e205510	0.15657449
5	0xbe9f8789	-0.31158093
6	0xbe907482	-0.28213888
7	0xbe8e7fde	-0.2783193
8	0xbe6ecb0b	-0.23319642
9	0xbe8e4ef8	-0.27794623
10	0x3ea3756d	0.31925526
11	0x3e7a5fd0	0.24450612
12	0xbc87b5ba	-0.016566146
13	0x3da68b36	0.08132021
14	0xbe1bc639	-0.15212335
15	0xbe6220a1	-0.2208276
16	0x3eafe8ab	0.343572
17	0x3e658c57	0.22416817
18	0xbe8d479f	-0.27593705
19	0x3e60d6a5	0.2195688
20	0xbeafc564	-0.34330285
21	0xbe8115ab	-0.25211844
22	0xbdce60c2	-0.10077049
23	0xbdd777e8	-0.10520917
24	0x3cceb6fb	0.025233736
25	0x3eedf5fb	0.4647673
26	0xbe8c49d7	-0.27400085
27	0x3dd3f6f5	0.10349838
28	0x3e87b27d	0.26503363
29	0xbc34b325	-0.0110290395
30	0x3e5b1811	0.213959
31	0xbe9c26bd	-0.30498305
32	0x3c2066b2	0.0097901095
33	0xbd22d476	-0.0397534
34	0x3e1a336e	0.15058681
35	0x3ebd78f6	0.37006348
36	0x3e10936f	0.14118741
37	0x3d4edfae	0.050506286
38	0x3e341f4a	0.17590061
39	0xbe084293	-0.13306646
40	0xbe6de6cd	-0.23232575
41	0xbedc44b5	-0.4302117
42	0x3c6628dc	0.014047828
43	0xbe8178f9	-0.25287607
44	0x3e46a003	0.19396977
45	0x3dba2952	0.090899125
46	0x3d82e271	0.063908465
47	0xbe43fa79	-0.19138516
48	0x3d0d2056	0.034454666
49	0x3e274f38	0.16338813
50	0x3eefb046	0.46814173
51	0x3e8b5353	0.2721201
52	0xbb72cb50	-0.0037047453
53	0x3e02e2dc	0.12781852
54	0x3d42e7e5	0.047584433
55	0xbe396d48	-0.18108094
56	0x3d928cb8	0.07155746
57	0x3e085d7d	0.13316913
58	0x3d90435e	0.07044099
59	0x3d5fd869	0.054649744
60	0xbece5502	-0.4029923
61	0xbe59a218	-0.2125324
62	0xbe09ea49	-0.13468279
63	0xbdea12dc	-0.114293784
64	0xbd53329e	-0.051561944
65	0xbd220b93	-0.03956182
66	0xbec6249d	-0.3869981
67	0xbe5256a2	-0.2054086
68	0x3da5e482	0.08100225
69	0xbda37947	-0.07982116
70	0xbecdacda	-0.40170938
71	0xbeb19ef0	-0.34691572
72	0x3e83370a	0.2562793
73	0xbe8f0004	-0.279297
74	0xbe33ed7a	-0.17571059
75	0x3e8c20b9	0.27368715
76	0xbe8e5dcb	-0.27805933
77	0x3dd9dd85	0.106379546
78	0x3e9c7af9	0.3056257
79	0x3d658199	0.056031797
80	0x3cdd1420	0.026987135
81	0xbea048a8	-0.31305432
82	0x3e0dc7b1	0.13845707
83	0x3e5efb5b	0.21775572
84	0xbded8e7d	-0.11599443
85	0xbcdcc97e	-0.026951548
86	0x3ce7b1af	0.028282968
87	0xbc04e889	-0.008112081
88	0x3e8ccbd3	0.27499256
89	0xbe590766	-0.21194229
90	0xbd677334	-0.05650635
91	0x3e3e798d	0.18601055
92	0xbc5ed635	-0.013600876
93	0xbe71167f	-0.23543738
94	0x3e77daed	0.24204607
95	0xbe1c6e3d	-0.15276428
96	0xbeb19897	-0.3468673
97	0x3da1412c	0.07873759
98	0x3d8a0973	0.067400835
99	0x3d55546a	0.052082457
100	0x3e7951eb	0.24347655
101	0xbe2e9a00	-0.17050934
102	0xbe6e7b1c	-0.2328915
103	0x3e2314e2	0.15925935
104	0x3e6e997b	0.23300736
105	0xbdb65132	-0.089022055
106	0xbce5fd5d	-0.028074915
107	0x3cdd0009	0.026977556
108	0xbbb9041b	-0.0056462414
109	0x3c7e3025	0.015514408
110	0xbe40e34b	-0.18836705
111	0x3e7acd6c	0.24492425
112	0x3d1e5d10	0.03866297
113	0xbe453c17	-0.19261204
114	0x3d88161f	0.06644844
115	0xbe83a597	-0.25712273
116	0xbe9bdd4c	-0.30442274
117	0x3dc1abb9	0.094565816
118	0xbe69fddd	-0.22850747
119	0x3e15e633	0.14638595
120	0xbe84f2fb	-0.2596663
121	0x3ed2645d	0.41092196
122	0xbe151169	-0.14557423
123	0xbdd52256	-0.1040694
124	0xbe71dcf5	-0.23619445
125	0xbecb5971	-0.39716676
126	0xbe900256	-0.28126782
127	0x3e7911de	0.24323222
128	0x3da5eb20	0.08101487
129	0xbe6178fa	-0.22018805
130	0xbeafbcaf	-0.34323642
131	0xbdf11162	-0.11770894
132	0xbd53fed4	-0.051756695
133	0x3e53bedd	0.20678277
134	0xbdad8ae1	-0.08473755
135	0x3d8c5a11	0.06853116
136	0x3f01ded5	0.5073064
137	0xbdc9c5fe	-0.09852217
138	0x3e8fb9c2	0.2807141
139	0x3e59d612	0.21273068
140	0xbe9525eb	-0.29130492
141	0x3e33190f	0.17490028
142	0x3db272ea	0.08713324
143	0xbe3de7cd	-0.18545456
144	0xbdac98b7	-0.084275655
145	0xbf01bfc7	-0.50683254
146	0x3ec229bf	0.37922475
147	0x3cf72c18	0.030172393
148	0xbe85cc12	-0.26132256
149	0x3c0473d9	0.008084261
150	0xbcf42081	-0.029800655
151	0xbea08f58	-0.31359363
152	0x3dd112a9	0.10208637
153	0xbd064901	-0.032784466
154	0xbe4e615f	-0.20154332
155	0x3edf2cbd	0.4358882
156	0x3dfdeedc	0.123990744
157	0x3e270b9c	0.16313022
158	0x3dbd7e39	0.09252591
159	0x3e30f228	0.17279875
160	0xbef21348	-0.47280335
161	0x3e5da325	0.21644266
162	0xbe13deb3	-0.14440422
163	0xbe3b1ab7	-0.1827191
164	0x3d44c728	0.048041493
165	0x3e800aa3	0.25008115
166	0xbeba16ed	-0.36345616
167	0xbe85101d	-0.25988856
168	0x3e8ad776	0.2711751
169	0xbdc85bbe	-0.097831234
170	0x3da2e1ac	0.079532
171	0x3e834d98	0.25645137
172	0x3e634e38	0.22197807
173	0x3e688fe5	0.22711141
174	0xbe1161e9	-0.14197506
175	0xbea638cd	-0.3246521
176	0xbecf31f2	-0.40467793
177	0x3e407fd7	0.18798767
178	0xbe86f6c8	-0.26360154
179	0xbe0c7d4e	-0.13719675
180	0xbe626c40	-0.22111607
181	0xbee7f2c4	-0.45302403
182	0x3d0ed551	0.034871403
183	0xbcdb5fbf	-0.026779054
184	0xbd46c09c	-0.04852353
185	0x3e86b64e	0.26310962
186	0xbe38c314	-0.18043166
187	0xbe2eaf36	-0.17059025
188	0xbe1db2ac	-0.15400189
189	0xbd81521d	-0.0631449
190	0x3e4503fe	0.19239804
191	0xbe9341d6	-0.28761166
192	0xbca351b0	-0.019936413
193	0x3e44fbc7	0.1923667
194	0xbe3df7fe	-0.18551633
195	0x3eb74455	0.3579432
196	0xbe4ca9f2	-0.19986704
197	0x3db58e35	0.088650145
198	0xbd3a9427	-0.045551445
199	0xbd95e4e4	-0.07319048
200	0xbeb50023	-0.35351667
201	0xbdc04b9a	-0.0938942
202	0xbdde05bf	-0.1084094
203	0x3ca2ecd7	0.019888325
204	0xbca09eb1	-0.01960692
205	0xbea3e3aa	-0.3200963
206	0xbef2c4e8	-0.47415853
207	0xbe10db77	-0.14146219
208	0x3e3ec8fa	0.18631354
209	0x3cbcec0d	0.023061777
210	0x3e859a00	0.26094055
211	0xbe890864	-0.26764214
212	0xbda417a1	-0.08012319
213	0x3e1e8c0f	0.15483116
214	0x3d5bbfa2	0.053649552
215	0x3f0a828e	0.5410546
216	0xbddbad2b	-0.107263885
217	0xbe4e51e0	-0.2014842
218	0x3e61f74f	0.22066997
219	0x3e6386a1	0.22219326
220	0xbf06ccf7	-0.526565
221	0xbe85c013	-0.26123103
222	0xbde08898	-0.10963553
223	0xbe00aabd	-0.12565131
224	0x3d8c120f	0.06839382
225	0xbe93e59d	-0.2888612
226	0x3e59caf6	0.2126883
227	0x3e619703	0.22030263
228	0xbe438c3e	-0.19096467
229	0xbb9528d2	-0.0045519853
230	0xbf02cfde	-0.5109843
231	0x3eadcd51	0.33945706
232	0x3e02897c	0.12747759
233	0xbde94dc5	-0.113917865
234	0xbd885bbb	-0.06658121
235	0xbe08f130	-0.13373256
236	0x3e01d8c5	0.12680347
237	0x3e4ff8d5	0.20309766
238	0xbc86360e	-0.016383197
239	0xbe5c779b	-0.21530001
240	0x3eede441	0.46463206
241	0x3df8388b	0.1212016
242	0xbe00a102	-0.1256142
243	0x3e26b371	0.16279389
244	0xbd470b89	-0.048594985
245	0x3e1d5b57	0.15366875
246	0xbec9c5d3	-0.3940874
247	0xbcfa74b4	-0.030573227
248	0xbba08866	-0.0048990725
249	0xbe64e26d	-0.22352
250	0xbeffd5f7	-0.4996793
251	0xbe8096c2	-0.2511502
252	0x3cf9ee56	0.030509155
253	0xbde17745	-0.11009077
254	0xbe19489e	-0.14969108
255	0x3e2fcf69	0.17168964

init_layer.0.bias f4 [64]
0	0xbd1ef89d	-0.038811315
1	0x3bf54f32	0.0074862475
2	0x3df13f82	0.11779691
3	0xbd4f7e88	-0.05065778
4	0xbd39cbfd	-0.045360554
5	0x3cf418ad	0.029796923
6	0x3d47186b	0.04860727
7	0x3d912155	0.07086436
8	0xbcb3f501	-0.021967413
9	0xbd8ba6d6	-0.06818931
10	0x3cbbd088	0.022926584
11	0xbe0f7f1e	-0.14013335
12	0xbca55e1d	-0.020186478
13	0xbce305fd	-0.027712816
14	0x3b918e01	0.004441977
15	0x3cecbeca	0.028899569
16	0x3caa3ea1	0.020781817
17	0x3d11ca2a	0.03559319
18	0xbd406df8	-0.046979874
19	0xbd2e20df	-0.042511817
20	0xbbf09277	-0.0073416787
21	0xbcc6b326	-0.024255347
22	0xbd308162	-0.04309214
23	0xbc0c0ec1	-0.0085484395
24	0xbcea4aa1	-0.028600039
25	0x3ba98b25	0.005174058
26	0xbd99144f	-0.07474577
27	0xbb99faf0	-0.0046991035
28	0xbc2d9d78	-0.0105966255
29	0xbd53f27e	-0.05174493
30	0x3d44f6ab	0.048086803
31	0xbba548e5	-0.00504409
32	0xbd76ca92	-0.06025178
33	0x3cc32a13	0.023823773
34	0xbc932b20	-0.0179649
35	0x3cdf401a	0.027252246
36	0xbcf93f39	-0.030425655
37	0x3d8761bc	0.06610438
38	0x3d81174c	0.06303272
39	0x3d88e0e4	0.066835195
40	0xbde14958	-0.11000317
41	0xbda8f7aa	-0.08250363
42	0xbba9ee63	-0.0051858886
43	0xbaccc2b1	-0.0015621987
44	0xbd4f6258	-0.050630897
45	0xbbfc275a	-0.0076951208
46	0xbd0f046c	-0.034916326
47	0xbbbc1ca5	-0.0057407194
48	0x3cfc4ebd	0.030799264
49	0x3cba074b	0.022708556
50	0x3c131e46	0.008979386
51	0x3dd4b074	0.10385218
52	0x3d0790b5	0.033096988
53	0xbc7a63a9	-0.01528255
54	0x3c8167c8	0.015796557
55	0xbd49b31f	-0.04924309
56	0xbd2afd40	-0.041745424
57	0x3c154398	0.009110354
58	0x3c6a490d	0.014299643
59	0x3d03b5b9	0.032155726
60	0xbb958740	-0.004563242
61	0x3d0b0dbb	0.03394864
62	0x3bf8439e	0.00757642
63	0xbce41083	-0.027839905

hiden_layers.0.weight f4 [64, 64]
0	0xbe3d0807	-0.18460093
1	0xbe7b1d00	-0.24522781
2	0x3db1ea5c	0.08687279
3	0x3d59486b	0.05304758
4	0xbe214de3	-0.15752368
5	0x3dd77835	0.105209745
6	0x3e4efc7c	0.20213503
7	0xbb9fd86b	-0.004878094
8	0x3d5ce146	0.053925775
9	0xbda03598	-0.07822722
10	0x3e936aec	0.28792512
11	0xbe31fcd3	-0.17381601
12	0xbe66d199	-0.22540893
13	0xbcb5ec8a	-0.022207517
14	0xbe854581	-0.2602959
15	0x3e8addb7	0.2712228
16	0xbe3ccf83	-0.18438534
17	0xbe0d8497	-0.1382011
18	0xbe48e11e	-0.19617125
19	0xbe10b5f4	-0.1413191
20	0xbdecb37d	-0.11557672
21	0xbdd822c6	-0.105535075
22	0xbd21f8ec	-0.03954403
23	0xbe6955c0	-0.22786617
24	0x3c3bb294	0.011456151
25	0x3d7cf58b	0.061757606
26	0xbe2dae4e	-0.16961023
27	0x3e4e225e	0.20130298
28	0xbe28c3d7	-0.16480957
29	0xbea6f5df	-0.3260946
30	0xbe425d49	-0.18980898
31	0x3c10b026	0.00883106
32	0xbd034a57	-0.032053318
33	0x3e3d9d1a	0.1851696
34	0xbdf5bcf3	-0.1199893
35	0xbd607a16	-0.05480393
36	0x3d1fe126	0.039033078
37	0x3df49635	0.11942712
38	0xba62da73	-0.0008653767
39	0x3d477d57	0.048703518
40	0x3d4f0367	0.050540354
41	0x3e0169b9	0.12637986
42	0x3e8fa828	0.2805798
43	0x3dfd11cc	0.1235691
44	0xbe8a7898	-0.2704513
45	0xbd88e5a2	-0.06684424
46	0xbe4f110d	-0.20221348
47	0xbdbef1f7	-0.09323495
48	0x3da852a0	0.082188845
49	0x3d9a9b2f	0.0754913
50	0xbe5364ff	-0.20643996
51	0xbd8b95eb	-0.06815704
52	0xbcae52e9	-0.021279769
53	0x3d90b9d7	0.07066696
54	0x3daf0a01	0.0854683
55	0xbcd4227d	-0.025895352
56	0xbd26a183	-0.040681373
57	0xbd8701c3	-0.06592133
58	0xbda29990	-0.07939446
59	0x3d24cbcc	0.04023342
60	0x3dda35d3	0.106547974
61	0x3e06330f	0.13105415
62	0x3bbcea20	0.0057652146
63	0xbd537015	-0.05162056
64	0xbe2552a5	-0.16144808
65	0x3e8108ae	0.25201935
66	0xbd0994ad	-0.033589054
67	0xbe902217	-0.28151008
68	0xbd5b27b5	-0.053504664
69	0xbda38648	-0.079845965
70	0x3e951a90	0.29121828
71	0xbc2cacd1	-0.0105392495
72	0x3e967dc5	0.2939283
73	0xbdee1540	-0.11625147
74	0xbe81c46d	-0.25345173
75	0x3e2360f2	0.1595495
76	0x3d517c46	0.051143907
77	0x3dbda279	0.09259505
78	0x3c641bdf	0.013922661
79	0xbd1107aa	-0.0354077
80	0xbda9cc36	-0.08290903
81	0xbe1fc30f	-0.15601753
82	0xbdcf2d1b	-0.10116025
83	0x3c9db150	0.019249588
84	0xbe250d35	-0.1611832
85	0xbc06ffe2	-0.008239718
86	0x3d975f3e	0.07391213
87	0x3e9198e0	0.28436947
88	0xbe091136	-0.13385472
89	0x3de68e9a	0.11257668
90	0x3d187e6d	0.037229944
91	0xbddbf0f0	-0.107393146
92	0x3dac191e	0.08403228
93	0x3c584044	0.013198916
94	0x3dd7e6d4	0.10542074
95	0xbc1d6128	-0.009605683
96	0xbe8138cd	-0.25238648
97	0xbd0a944c	-0.033832833
98	0xbe5915e2	-0.21199754
99	0x3e28d773	0.16488437
100	0x3e9dfa56	0.30855054
101	0x3e3218c6	0.17392263
102	0x3dcd727f	0.10031604
103	0xbdd7607a	-0.10516448
104	0x3dabcbc4	0.083884746
105	0xbd9bfcdc	-0.076165885
106	0x3df817a3	0.12113883
107	0x3daf6df5	0.085658945
108	0x3d931ee6	0.07183628
109	0xbd4a9970	-0.049462736
110	0xbe72273e	-0.23647782
111	0xbd82b304	-0.06381801
112	0xbd904cdb	-0.07045909
113	0x3e648af9	0.22318639
114	0x3e36630d	0.17811222
115	0x3d8d649b	0.069039546
116	0xbe21c1d7	-0.157966
117	0x3eb88919	0.36042097
118	0x3e23c696	0.15993723
119	0x3da88f5f	0.08230471
120	0x3daddfaf	0.0848993
121	0xbe94ae7f	-0.2903938
122	0x3e14a598	0.14516294
123	0xbdb528db	-0.08845683
124	0xbe5e811b	-0.21728937
125	0xbd8209b0	-0.06349504
126	0xbc3c2fcb	-0.011486004
127	0x3e07a610	0.13246942
128	0x3d2c2c9e	0.042034738
129	0xbe0f3f5a	-0.1398901
130	0xbcfe30a4	-0.031029053
131	0x3e26f6cf	0.16305088
132	0x3d98e3f7	0.07465356
133	0x3e2f87c0	0.17141628
134	0x3c2884ec	0.010285597
135	0x3aedf061	0.0018153304
136	0xbcde6a7f	-0.02715039
137	0x3e4f62b5	0.20252497
138	0x3ee2a055	0.4426295
139	0x3d6d2a9b	0.05790196
140	0xbe5a46ed	-0.21316119
141	0xbe4a7034	-0.19769365
142	0xbe022feb	-0.12713592
143	0x3dcf4f23	0.10122516
144	0x3bb4bba2	0.0055155316
145	0xbde95c69	-0.11394579
146	0xbc6e58de	-0.014547555
147	0xbda5c13e	-0.08093499
148	0x3e426850	0.18985105
149	0xbe6baabd	-0.2301435
150	0x3da26176	0.079287454
151	0xbd053c67	-0.032528307
152	0xbe0aa78d	-0.13540478
153	0xbe878e44	-0.26475728
154	0x3de0a083	0.10968115
155	0x3d099506	0.033589385
156	0xbc935a8b	-0.01798751
157	0xbe2b19a2	-0.16708997
158	0x3cf50de9	0.02991386
159	0x3e3a5323	0.18195777
160	0xbc8aeb92	-0.016958032
161	0xbd4dcec5	-0.05024602
162	0x3e33f865	0.17575224
163	0xbe8d3527	-0.27579615
164	0xbe12d74a	-0.14339939
165	0xbe32ac3d	-0.17448516
166	0x3da50383	0.080573104
167	0xbe16715a	-0.14691678
168	0x3d6d764c	0.057974145
169	0x3dab8d24	0.0837653
170	0x3e7b141b	0.24519388
171	0xbdf58b15	-0.119894184
172	0xbe0b9b8e	-0.13633558
173	0xbe3cd770	-0.18441558
174	0xbe8d99f8	-0.2765653
175	0x3d36cee2	0.044630893
176	0x3e15159e	0.14559028
177	0xbe2aaca1	-0.16667415
178	0xbe3e01c6	-0.18555364
179	0x3d7a4147	0.06109741
180	0x3e080911	0.13284709
181	0xbd986888	-0.07441813
182	0x3c6bfeba	0.014403993
183	0xbe3802db	-0.1796984
184	0xbbf2268c	-0.007389849
185	0x3d804ddd	0.06264851
186	0xbe27b4c8	-0.16377556
187	0xbe1df609	-0.15425886
188	0x3df3998a	0.118945196
189	0x3e656c5c	0.22404617
190	0x3e5cc32c	0.21558827
191	0x3e3c8a5f	0.1841216
192	0xbd7e74ca	-0.062123097
193	0x3e80703e	0.25085634
194	0xbe51bda2	-0.20482495
195	0xbe814cdd	-0.25253955
196	0x3cf48c28	0.029851988
197	0x3c17c88d	0.009264124
198	0x3e761175	0.24030097
199	0x3df06b7e	0.117392525
200	0x3e63ffc9	0.22265543
201	0x3dd9d252	0.106358185
202	0xbf030350	-0.5117693
203	0x3df6050a	0.1201268
204	0x3e84508e	0.25842708
205	0xbe05c7ce	-0.130645
206	0x3ea14060	0.31494427
207	0xbe7dc4eb	-0.2478215
208	0x3df492e2	0.11942078
209	0x3d3d9578	0.046285123
210	0xbdb157ad	-0.08659301
211	0x3caf582c	0.021404348
212	0xbe3b6176	-0.18298897
213	0x3d8b0df9	0.067897744
214	0xbdf66efc	-0.12032887
215	0x3e899105	0.26868454
216	0xbdb0817a	-0.08618446
217	0x3e6a000c	0.2285158
218	0x3d9151f4	0.070957094
219	0xbe8f45a6	-0.27982825
220	0x3dc115d2	0.0942799
221	0xbcad4558	-0.02115123
222	0x3e58838a	0.21143928
223	0xbd108aaa	-0.03528849
224	0x3e4e0eb3	0.20122795
225	0x3de31851	0.11088622
226	0xbe3f6316	-0.18690142
227	0x3e77253e	0.241353
228	0x3e9b33eb	0.30313048
229	0x3e73cd7c	0.23808855
230	0x3dd3a978	0.10335058
231	0x3e7186c8	0.23586571
232	0x3dc79d83	0.0974684
233	0xbde17cc8	-0.11010128
234	0xbd1fa6d4	-0.03897746
235	0xbe552c9f	-0.20817803
236	0x3e40f1a5	0.1884218
237	0x3deca09b	0.115540706
238	0x3e01e998	0.12686765
239	0x3c01c849	0.007921287
240	0xbe2f8321	-0.17139865
241	0x3daf1adc	0.08550045
242	0x3ecedefd	0.40404502
243	0x3dfd180f	0.123581044
244	0xbe55fb38	-0.20896614
245	0x3e98fa0f	0.2987828
246	0x3e3ca8e3	0.184238
247	0xbbed37cd	-0.007239318
248	0x3dc3aa27	0.09553938
249	0xbe490418	-0.19630468
250	0xbbeaba11	-0.007163294
251	0x3da5c14d	0.0809351
252	0x3e024e20	0.12725115
253	0x3c7fd1d1	0.015613989
254	0xbea1e088	-0.31616616
255	0xbca45442	-0.020059709

hiden_layers.0.bias f4 [64]
0	0x3d168fb0	0.036758125
1	0xbd09c8dd	-0.033638824
2	0x3cc41dc6	0.023939978
3	0xbd326a13	-0.04355819
4	0x3d02780a	0.03185276
5	0xbd0ff76c	-0.03514807
6	0x3ba2df2b	0.0049704514
7	0x3cafbff3	0.021453833
8	0xbd3e3250	-0.0464347
9	0xbd2ee3cf	-0.042697724
10	0x3d88d9b1	0.06682146
11	0x3c8aed2a	0.016958792
12	0xbca5390f	-0.02016881
13	0xbc899658	-0.016795322
14	0xbd02b7b7	-0.031913485
15	0xbd0ce1af	-0.034394916
16	0x3cf02520	0.029314578
17	0xbd891559	-0.06693525
18	0xba9e3a2f	-0.0012071783
19	0x3cd3c0ee	0.025848832
20	0x3ca9f1e4	0.020745225
21	0x3d20db45	0.03927161
22	0xbc68e7fc	-0.014215466
23	0xbcc9da77	-0.024640305
24	0xbd50e057	-0.050995197
25	0x3d129d67	0.03579464
26	0x3d3004dd	0.042973388
27	0xbcad699b	-0.02116852
28	0x3d497255	0.0491813
29	0x3d081b9c	0.033229455
30	0xbc979139	-0.018501865
31	0x3d2df772	0.04247231
32	0x3c8c7439	0.017145263
33	0x3cc56ad9	0.0240988
34	0x3d213741	0.039359335
35	0xbb0e7faf	-0.0021743586
36	0x3b538e12	0.0032280725
37	0x3d0c98e2	0.034325488
38	0x3d05e830	0.032692134
39	0xbd090be6	-0.033458613
40	0x3cb9b3ab	0.02266868
41	0xbd82a979	-0.063799806
42	0xbd44414c	-0.047913834
43	0xbd1ae5ed	-0.03781693
44	0x3c95c0b6	0.018280368
45	0xbce0eb56	-0.027455967
46	0xbd4b5a34	-0.04964657
47	0x3cc96572	0.024584506
48	0xbcb6e0fa	-0.022324074
49	0x3c090299	0.008362436
50	0x3c8e9929	0.017407017
51	0xbcc3924d	-0.023873473
52	0x3cf4789c	0.029842667
53	0xbb86e0c3	-0.004116149
54	0xbd2e34a1	-0.04253066
55	0xbd4f7013	-0.05064399
56	0x3c990a3b	0.018681636
57	0xbcce8769	-0.025211053
58	0x3d232bd2	0.039836712
59	0x3d5eb6d8	0.054373592
60	0x3d6327e5	0.05545797
61	0x3c8aeb46	0.01695789
62	0xbc8b5af7	-0.017011149
63	0xbcd97314	-0.026544131

hiden_layers.1.weight f4 [64, 64]
0	0x3e828e03	0.2549897
1	0x3dd77492	0.10520281
2	0x3defc57e	0.117075905
3	0x3d2af632	0.041738696
4	0xbd81168e	-0.0630313
5	0x3cd0be05	0.025481233
6	0x3e45d570	0.19319701
7	0xbe2dcba7	-0.16972218
8	0x3d04a3b6	0.03238269
9	0x3d7dd1d3	0.061967682
10	0xbd3ab5f2	-0.045583673
11	0x3bae44c6	0.005318257
12	0xbe87bcc0	-0.26511192
13	0x3e0623ab	0.13099544
14	0xbdab4137	-0.08362048
15	0x3dce4b75	0.10072986
16	0x3e1fdc4b	0.15611379
17	0xbdeb1d44	-0.11480191
18	0x3d69f2a4	0.057116166
19	0x3e054518	0.13014638
20	0xbe2ebc9f	-0.1706414
21	0xbe11dc01	-0.14244081
22	0xbdcb4391	-0.09924997
23	0xbd8f4c17	-0.06996935
24	0xbdcaa19b	-0.09894105
25	0xbe3b7ec5	-0.18310077
26	0x3da09b56	0.07842128
27	0x3e54b9eb	0.20774047
28	0x3df9e3be	0.122016415
29	0xbdf4740c	-0.11936197
30	0x3e48e720	0.19619417
31	0xbded3cbc	-0.1158385
32	0xbe035c09	-0.12828077
33	0xbe999ead	-0.30003873
34	0x3cf052ab	0.029336294
35	0x3d09caf9	0.033640835
36	0xbe35eff9	-0.17767324
37	0x3d6e2e53	0.058149647
38	0x3e31f89a	0.1737999
39	0x3dfd5d5e	0.12371324
40	0x3e4f5434	0.20246965
41	0xbcbebfaf	-0.023284761
42	0x3c855367	0.01627512
43	0x3c9d1789	0.019176261
44	0x3e41910e	0.1890299
45	0x3dfb0f74	0.12258807
46	0xbd414356	-0.047183357
47	0xbc382533	-0.011239338
48	0x3cc3bbf8	0.023893341
49	0x3d8a98f3	0.06767454
50	0xbd19a192	-0.0375076
51	0xbe21d0e4	-0.15802342
52	0xbe751379	-0.2393321
53	0x3e37a520	0.17934084
54	0xbde08fd8	-0.10964936
55	0xbd071f89	-0.03298906
56	0x3e1d09a1	0.15335704
57	0xbe4a967c	-0.19783968
58	0xbd598c40	-0.05311227
59	0x3b54d0d2	0.00324731
60	0xbda3eba6	-0.08003931
61	0x3dc64ab3	0.096822165
62	0x3dac10d4	0.08401647
63	0xbd3fdb18	-0.046839803
64	0x3e1f509c	0.15558094
65	0xbd8a3111	-0.0674764
66	0x3e7328c8	0.23746026
67	0xbe38a264	-0.18030697
68	0x3c563d63	0.013076159
69	0xbe21a3ef	-0.15785192
70	0x3e385bc9	0.18003763
71	0x3cec7533	0.028864479
72	0x3e2eacd0	0.1705811
73	0x3c0b5da2	0.0085062105
74	0x3f21c1c4	0.6318629
75	0x3c8699ef	0.016430823
76	0xbe054d70	-0.13017821
77	0x3e07a8ed	0.13248034
78	0xbd2bada9	-0.041913662
79	0x3e178fb2	0.14800909
80	0xbde72eb8	-0.11288208
81	0x3e28b07f	0.16473578
82	0xbe67f305	-0.22651298
83	0x3e06413d	0.13110824
84	0x3cddb686	0.027064573
85	0x3b2a3635	0.0025972251
86	0xbd9999be	-0.07500027
87	0xbe8174b6	-0.25284356
88	0xbc03afbd	-0.008037505
89	0x3dd9e712	0.10639776
90	0xbe017e6e	-0.12645885
91	0xbdcca785	-0.09992889
92	0xbe1b79bd	-0.15183158
93	0xbe0629c5	-0.13101871
94	0x3de827bb	0.11335703
95	0x3dd29e8c	0.10284147
96	0x3e492301	0.19642259
97	0x3cecf8ff	0.028927324
98	0x3e649532	0.22322538
99	0x3d8ccbe6	0.06874828
100	0xbe210b1a	-0.15726891
101	0x3f440384	0.76567864
102	0x3d63bbd4	0.05559905
103	0x3d6beadd	0.05759703
104	0x3e370ce2	0.17876008
105	0x3e094a82	0.13407329
106	0xbbeb0ab0	-0.007172905
107	0xbe053977	-0.13010202
108	0x3d1fa635	0.038976867
109	0x3e69fc7c	0.22850221
110	0x3d8582b2	0.06519069
111	0xbd42f53c	-0.047597155
112	0x3e6fc06b	0.23413245
113	0xbde79303	-0.11307337
114	0xbce4e512	-0.02794126
115	0x3ba99dcd	0.005176282
116	0x3e4c02e8	0.19922984
117	0x3e31f64f	0.17379116
118	0xbd0b9089	-0.034073386
119	0xbe844e1a	-0.25840837
120	0xbd8f273c	-0.06989905
121	0x3e938a85	0.2881662
122	0x3f06465c	0.5245111
123	0x3e4d8ffe	0.2007446
124	0xbe2e734c	-0.1703617
125	0x3e2bcefb	0.16778176
126	0x3e4aa6da	0.19790211
127	0xbe60df66	-0.2196022
128	0x3d7a4731	0.06110305
129	0xbde7d711	-0.113203175
130	0xbd4bef6a	-0.04978887
131	0xbddf987e	-0.109177575
132	0x3dcf36f3	0.101179026
133	0xbdd34b49	-0.10317094
134	0x3e3eb172	0.18622378
135	0x3e0d9996	0.1382812
136	0x3e4547ea	0.19265714
137	0x3e255cd1	0.16148688
138	0x3ee04ff5	0.43811002
139	0xbcffb88e	-0.031215932
140	0xbe8d8cbb	-0.2764643
141	0xbe2f07ac	-0.1709277
142	0xbd87dad9	-0.06633539
143	0x3e670d1e	0.22563598
144	0x3d12dc74	0.03585477
145	0xbdc77cd2	-0.097406045
146	0x3e3ffc6f	0.1874864
147	0xbddc9445	-0.10770468
148	0xbe1bceff	-0.15215681
149	0x3e107467	0.14106904
150	0x3dfa4396	0.12219922
151	0x3bafe766	0.005368161
152	0xbd282927	-0.04105487
153	0xbd58c952	-0.05292637
154	0x3db5b6c0	0.088727474
155	0xbd88807b	-0.06665131
156	0xbdf0c03e	-0.11755417
157	0xbe50f5dc	-0.20406288
158	0x3ded86d4	0.11597982
159	0x3e39ed1c	0.18156856
160	0x3e6a1be5	0.22862203
161	0xbb15b6d6	-0.0022844574
162	0x3d8d87c4	0.06910661
163	0xbe4728e7	-0.19449197
164	0x3e506dec	0.20354432
165	0xbe2d8a66	-0.16947326
166	0xbe3c5c01	-0.18394472
167	0xbe68d8de	-0.22738978
168	0x3e4338dd	0.1906466
169	0x3e408d31	0.1880386
170	0x3d104cb3	0.035229396
171	0x3dec6ea6	0.11544542
172	0x3d1ccee9	0.038283262
173	0x3e8ffc4e	0.2812218
174	0xbcf2ca98	-0.02963762
175	0x3e3bbafe	0.1833305
176	0x3dc92993	0.09822383
177	0x3e40764d	0.18795128
178	0x3db83db1	0.08996142
179	0xbd6da271	-0.058016244
180	0x3c97bc1a	0.018522311
181	0x3de902ae	0.11377464
182	0x3e453de6	0.19261894
183	0xbdb6584c	-0.0890356
184	0xbe076bf5	-0.13224776
185	0x3d85d565	0.065348424
186	0x3e2845f3	0.16432934
187	0xbe265a51	-0.1624539
188	0xbe1460fc	-0.14490122
189	0xbda774a9	-0.08176548
190	0x3e940065	0.2890655
191	0xbe887a0f	-0.26655623
192	0xbe702667	-0.2345215
193	0x3b94f9f1	0.004546397
194	0xbd8edde5	-0.06975917
195	0xbe66a597	-0.22524105
196	0xbb79b403	-0.003810168
197	0xbddeb4d8	-0.10874337
198	0xbdc74f26	-0.09731893
199	0x3e2fa177	0.17151438
200	0xbda59fc1	-0.08087111
201	0x3da3a76c	0.079909176
202	0xbd0c4aa1	-0.03425086
203	0xbe82e8a2	-0.2556811
204	0x3e13752e	0.14400169
205	0x3dd2862f	0.102795
206	0x3de636b0	0.112408996
207	0xbdbf395f	-0.093371145
208	0x3e8713f5	0.26382414
209	0xbbceb778	-0.0063084923
210	0x3dc49386	0.0959845
211	0xbd63a6e0	-0.055579066
212	0xbda9a14a	-0.082827166
213	0x3c37cff0	0.01121901
214	0xbd808b50	-0.06276572
215	0x3e87eaac	0.26546228
216	0xbdf4883d	-0.11940048
217	0xbdc61708	-0.096723616
218	0xbe1f991b	-0.15585749
219	0xbd8561d7	-0.06512802
220	0xbd85965a	-0.06522818
221	0x3e11fdd1	0.1425698
222	0xbde0f9ec	-0.10985169
223	0x3d1402e0	0.036135554
224	0x3d1fd3e0	0.03902042
225	0x3e26bd65	0.16283186
226	0x3db7d02f	0.08975255
227	0xbbdae5bb	-0.006680218
228	0xbd59a8b6	-0.05313941
229	0xbe63e35b	-0.22254698
230	0xb8376994	-4.3728927e-05
231	0x3e094289	0.13404287
232	0x3d4634f5	0.048390348
233	0xbde70292	-0.11279787
234	0x3d0d1eb1	0.034453098
235	0x3d8ca721	0.06867815
236	0xbd71e2ec	-0.0590543
237	0xbd5a7baf	-0.05334061
238	0xbd2da9bb	-0.042398196
239	0x3e5f160e	0.21785757
240	0x3e3fde2b	0.18737094
241	0xbd9438cf	-0.07237398
242	0x3da8c370	0.08240402
243	0x3e95d8ab	0.29266867
244	0x3e1daad8	0.15397203
245	0x3ce642d1	0.028108032
246	0xbc4eb1e5	-0.012615656
247	0x3e125f94	0.14294273
248	0x3db0c6d4	0.086316735
249	0x3e2ce2c8	0.16883385
250	0x3e0bac8d	0.13640042
251	0x3d86b5b1	0.06577624
252	0x3e0151cb	0.12628858
253	0xbb204bb6	-0.002445919
254	0x3d802e75	0.06258861
255	0xbeb2306d	-0.3480257

hiden_layers.1.bias f4 [64]
0	0x37b97d53	2.2112077e-05
1	0x3d3d5535	0.046223838
2	0x3c671a2c	0.014105361
3	0xbd3518f0	-0.044213235
4	0x3d934223	0.07190349
5	0x3bf7e27b	0.0075648404
6	0xbd75b2d1	-0.059984986
7	0xbaa16666	-0.0012313842
8	0xbc8d4f63	-0.017249769
9	0xbd21a3d5	-0.039462883
10	0x3b1bbf4d	0.0023765147
11	0x3d73c4e7	0.059513953
12	0x3cc0e996	0.023548882
13	0x3da0a554	0.07844034
14	0x3cab2252	0.020890389
15	0x3d9dbc0d	0.077018835
16	0x3cead014	0.028663673
17	0x3c6f2282	0.01459563
18	0x3d2cbc8c	0.042172
19	0xbc6836f7	-0.014173261
20	0xbd445a7c	-0.047937855
21	0x3c8213c6	0.01587857
22	0x3d2d5530	0.04231757
23	0x3cbabff8	0.022796616
24	0xbc86a9aa	-0.016438324
25	0xbd8ae96d	-0.06782804
26	0xbc77cfc0	-0.015125215
27	0x3b5ea8ad	0.003397505
28	0x3d7503fc	0.059818253
29	0xbd92d781	-0.0717001
30	0xbbfe2550	-0.007755913
31	0xbd2e1e27	-0.042509224
32	0xbd2852d7	-0.041094627
33	0xbd9d8eac	-0.07693228
34	0xbb06a897	-0.0020547265
35	0xbcffed78	-0.031241164
36	0xbd8893ab	-0.066687904
37	0x3d567ae8	0.052363306
38	0xbd95606b	-0.07293781
39	0x3df74236	0.120731756
40	0xbcc8bffd	-0.02450561
41	0xbd2d9874	-0.04238172
42	0x3d31122a	0.043230213
43	0x3d73cda2	0.05952228
44	0x3d3b1863	0.045677554
45	0xbc78787b	-0.0151654435
46	0xbd176d0e	-0.036969237
47	0x3ba15f42	0.0049246857
48	0x3dbd3df5	0.09240333
49	0x3d7090c9	0.058731828
50	0x3bfcca8e	0.007714576
51	0xbd845ef9	-0.06463427
52	0x3db8b765	0.09019355
53	0x3dacec14	0.08443466
54	0xbd78f424	-0.060779706
55	0xbd38ad34	-0.045087054
56	0xbbac1ca5	-0.005252438
57	0xbd7f6852	-0.062355347
58	0xbd715017	-0.05891427
59	0xbc10ca59	-0.008837306
60	0x3d083663	0.033254992
61	0xbcb0f43a	-0.021600831
62	0x3d85fdcb	0.06542548
63	0xbbafe937	-0.0053683775

hiden_layers.2.weight f4 [64, 64]
0	0xbdd6f56a	-0.10496028
1	0xbe9a43f3	-0.30129966
2	0xbe5803d1	-0.21095206
3	0x3e292f11	0.1652186
4	0xbe25ba7c	-0.1618442
5	0x3cbaabdf	0.022787033
6	0x3decbf52	0.11559929
7	0x3e607610	0.21920037
8	0x3e545b89	0.20738043
9	0xbd0cce24	-0.03437628
10	0xbb683728	-0.0035433266
11	0xbe830615	-0.25590578
12	0xbd65ee9e	-0.056135766
13	0x3d1f8e80	0.038954258
14	0x3e3b8ddd	0.18315835
15	0xbe23308c	-0.15936488
16	0x3e501fc3	0.20324616
17	0x3e782d2f	0.24235986
18	0x3d34a4ff	0.044102665
19	0xbd5d5766	-0.054038428
20	0x3d25fc2b	0.04052369
21	0xbe27b618	-0.16378057
22	0xbe20b311	-0.15693308
23	0xbe36afce	-0.17840502
24	0xbcb3e4af	-0.02195963
25	0x3ddd3028	0.10800201
26	0xbdc8dbb7	-0.09807532
27	0x3c897184	0.016777761
28	0xbdbaa724	-0.09113911
29	0x3e0e3884	0.13888747
30	0xbe30136c	-0.17194909
31	0x3d756296	0.059908472
32	0x3e27e3f7	0.16395555
33	0x3dec6c30	0.11544073
34	0x3e07e00a	0.13269058
35	0x3be5352a	0.006994863
36	0x3e917b2c	0.28414285
37	0xbe5d12b8	-0.21589172
38	0xbd88e41f	-0.06684136
39	0xbe2757f9	-0.16342153
40	0xbe088ebb	-0.13335697
41	0xbe1ac012	-0.15112332
42	0x3d8f1aa6	0.06987505
43	0x3db442c3	0.08801796
44	0xbdb89f59	-0.09014768
45	0x3d8f68f2	0.070024386
46	0x3e14aab6	0.14518246
47	0xbe260ffa	-0.16217032
48	0x3cb9a987	0.022663845
49	0x3d157f62	0.036498435
50	0xbcb652c1	-0.022256257
51	0x3de3787a	0.111069635
52	0xbd807364	-0.06272009
53	0x3e3cbb2e	0.18430778
54	0x3c381c76	0.011237254
55	0xbdb2c039	-0.0872807
56	0x3e50f769	0.2040688
57	0xbe19d3e3	-0.15022235
58	0x3de3ec30	0.111290336
59	0x3d45b560	0.048268676
60	0x3e52a578	0.20570934
61	0x3e1c358f	0.15254806
62	0xbd235b61	-0.039882068
63	0x3c41585d	0.011800853
64	0x3c8ec9cc	0.017430209
65	0xbcdbe6c9	-0.026843445
66	0x3e68cd6c	0.22734612
67	0x3bc44ed0	0.0059908405
68	0xbdc51d3a	-0.09624715
69	0x3c56aa60	0.013102144
70	0x3d84a56f	0.064768665
71	0x3e3dc1e2	0.18530992
72	0x3de60ff6	0.11233513
73	0x3e2dd71f	0.16976593
74	0xbe24062b	-0.16017978
75	0x3d82c9a0	0.06386113
76	0x3e897f3c	0.26854885
77	0xbd1eea67	-0.038797762
78	0xbdcdab8b	-0.10042485
79	0xbd63b11a	-0.05558882
80	0xbdfeae20	-0.124355555
81	0x3dba19b8	0.09086937
82	0xbd8bb629	-0.06821854
83	0x3e461c84	0.19346815
84	0xbe6ad449	-0.22932543
85	0x3ded1c3f	0.11577653
86	0xbe996aec	-0.29964387
87	0x3ed1f4cb	0.41007075
88	0x3e091e92	0.13390568
89	0xbd81b2ca	-0.063329294
90	0x3c829b88	0.015943304
91	0xba376946	-0.0006996583
92	0xbdb8f1c0	-0.09030485
93	0x3d936565	0.07197074
94	0x3dca0f0a	0.0986615
95	0xbe420921	-0.18948795
96	0xbd95773a	-0.07298131
97	0xbdd8cc6d	-0.10585866
98	0x3be820f0	0.0070840046
99	0xbecc4f5b	-0.39904293
100	0x3e439d22	0.1910291
101	0x3dc8f3b4	0.09812108
102	0x3e0d17a0	0.13778543
103	0x3dbdfec4	0.09277108
104	0xbd5061d4	-0.050874546
105	0xbe84f9a5	-0.25971714
106	0xbd760519	-0.060063455
107	0x3e2ff108	0.1718179
108	0x3ea8a0c6	0.3293516
109	0x3e0a6469	0.13514866
110	0x3d83ddf2	0.06438817
111	0xbe83df46	-0.25756282
112	0xbe4b0d7e	-0.19829366
113	0x3d0b6882	0.034035213
114	0xbe13084a	-0.14358631
115	0xbe016ba3	-0.12638716
116	0xbdf49920	-0.11943269
117	0xbe0e0168	-0.13867724
118	0x3e802677	0.25029346
119	0xbd6995ea	-0.057027735
120	0xbea17eaf	-0.31541964
121	0x3de194b8	0.11014694
122	0x3ab461eb	0.0013762092
123	0xbded80d9	-0.11596841
124	0x3e903387	0.28164312
125	0xbdfdfa89	-0.124013014
126	0xb9224d37	-0.00015478289
127	0xbdbe0921	-0.09279085
128	0xbe31d1d4	-0.173652
129	0x3dc3b5d6	0.09556167
130	0xbced5281	-0.028970005
131	0x3c426797	0.011865518
132	0x3b49e1e1	0.00308048
133	0x3e378766	0.17922744
134	0xbd1fb7cc	-0.03899364
135	0x3df7e3fa	0.1210403
136	0x3dfb2775	0.12263385
137	0xbcc49bf8	-0.024000153
138	0x3b2e7dc0	0.0026625246
139	0x3e3cd6b6	0.1844128
140	0x3e2a5144	0.16632563
141	0xbd1e38ce	-0.038628392
142	0xbd540939	-0.051766608
143	0xbd0b820f	-0.03405958
144	0xbe03c384	-0.12867552
145	0xbe9139bc	-0.2836436
146	0xbde33d05	-0.11095623
147	0x3d57f3a0	0.052722573
148	0xbe02acd3	-0.1276124
149	0x3df9ab07	0.12190824
150	0xbe09e3bc	-0.1346578
151	0x3e59afaf	0.21258424
152	0x3e4afa84	0.19822127
153	0x3de22fe3	0.1104429
154	0xbdc23092	-0.0948192
155	0x3e98c2e5	0.29836193
156	0x3de60c6d	0.11232839
157	0xbe9eda2c	-0.31025827
158	0x3e1c58f6	0.15268311
159	0x3c9ec8bd	0.019382829
160	0x3e01004c	0.1259777
161	0x3e19c58a	0.15016761
162	0xbda8144f	-0.082069986
163	0xbdbc98e8	-0.09208852
164	0x3daa8aa0	0.08327222
165	0x3da4596e	0.0802487
166	0x3e996874	0.29962504
167	0x3c27247b	0.010201569
168	0xbdb5a125	-0.088686265
169	0xbdad0b22	-0.08449389
170	0x3d619ba6	0.05508008
171	0x3e8a3909	0.2699664
172	0x3cdb274b	0.026752135
173	0x3db93b6d	0.09044538
174	0xbdfb86e8	-0.12281591
175	0xbe36bb4a	-0.17844883
176	0xbdd31ccf	-0.10308229
177	0x3d1949b4	0.037423804
178	0xbea1bf93	-0.31591472
179	0xbe168d95	-0.14702447
180	0x3da22de4	0.07918909
181	0x3cf9ccd2	0.030493174
182	0xbdb00a7b	-0.08595749
183	0x3d8b2413	0.0679399
184	0x3d649aa8	0.055811554
185	0x3e0a0101	0.13476945
186	0xbdb99da1	-0.090632685
187	0x3d274c1e	0.040844075
188	0x3e116480	0.14198494
189	0xbe39e954	-0.18155414
190	0x3c8ba425	0.017046044
191	0xbe470c2a	-0.19438234
192	0xbd9c550d	-0.0763341
193	0x3d9f6d3e	0.07784508
194	0xbe34a464	-0.17640835
195	0xbdc61b90	-0.09673226
196	0x3e2117f9	0.15731801
197	0x3dea7f79	0.11450095
198	0xbd1fcafc	-0.03901194
199	0x3d17830b	0.036990207
200	0x3e6dfdf6	0.2324141
201	0x3d499a89	0.04921964
202	0xbe54e261	-0.20789482
203	0x3cdc76ab	0.026912054
204	0xbeab02b9	-0.33400515
205	0xbe141aad	-0.14463301
206	0xbe4c7908	-0.19968045
207	0xbbd621f4	-0.0065348092
208	0x3e705132	0.23468474
209	0xbcbe4ff7	-0.02323149
210	0xbe1281ab	-0.14307277
211	0x3e12b149	0.14325441
212	0x3c76ebc3	0.015070858
213	0xbd871649	-0.065960474
214	0x3c04a04b	0.008094857
215	0xbdb3d4c1	-0.08780814
216	0xbe46afa9	-0.19402947
217	0xbe5d5caa	-0.2161738
218	0xbe59c6b5	-0.21267207
219	0x3e23d6b3	0.1599987
220	0xbe130f35	-0.1436127
221	0xbe04e41c	-0.12977642
222	0xbe95ed26	-0.29282492
223	0xbd9b4260	-0.075810194
224	0x3cafe94f	0.021473555
225	0xbd1956fb	-0.037436467
226	0xbe30ec1d	-0.1727757
227	0xbce079fb	-0.027401915
228	0x3dda6e71	0.10665596
229	0x3e4fa6da	0.20278493
230	0x3cd998b1	0.026562067
231	0xbe17cc99	-0.14824142
232	0xbddb7708	-0.10716063
233	0x3e7325bc	0.23744863
234	0x3db98320	0.09058213
235	0x3e07d182	0.13263515
236	0xbe87b903	-0.2650834
237	0xbe504db8	-0.20342147
238	0xbe45aa54	-0.19303256
239	0x3e0252d4	0.12726909
240	0x3e1ecaf0	0.15507102
241	0xbe7ceef6	-0.24700531
242	0x3d280fef	0.04103082
243	0xbdd191f5	-0.10232917
244	0x3dffa05a	0.124817565
245	0x3e4073be	0.18794152
246	0xbe66cecc	-0.22539824
247	0xbdf0f869	-0.117661305
248	0x3e050084	0.12988478
249	0xbe0c5ad4	-0.13706523
250	0xbe46bf23	-0.1940885
251	0xbc98bed3	-0.01864568
252	0xba18de54	-0.00058314693
253	0x3e00a917	0.12564503
254	0x3d0fc3e0	0.03509891
255	0xbe0f949a	-0.14021531

hiden_layers.2.bias f4 [64]
0	0xbd9f74ec	-0.07785973
1	0xbd16be03	-0.036802303
2	0xbc72282a	-0.014780084
3	0x3d2c4bd3	0.0420645
4	0x3d54fcc7	0.05199888
5	0x3d29afa2	0.041427262
6	0xbb674d17	-0.0035293752
7	0xbc004765	-0.007829522
8	0x3dac0404	0.083992034
9	0xbc21348e	-0.00983919
10	0xbdf8a200	-0.12140274
11	0xbd4c1480	-0.049824238
12	0x3d18f210	0.037340224
13	0xbdd80d4d	-0.10549412
14	0x3dae29b9	0.08504052
15	0x3e0bc886	0.13650712
16	0x3dd26679	0.10273451
17	0xbd06eefb	-0.032942753
18	0x3d891423	0.06693294
19	0xbd2d1ef8	-0.042265862
20	0xbd981f5b	-0.074278556
21	0xbe5005cb	-0.2031471
22	0xbd68cca4	-0.056835786
23	0x3cc4b4b5	0.02401195
24	0xbdad5b17	-0.0846464
25	0x3e9085a4	0.2822696
26	0xbcc886fb	-0.024478426
27	0xbc2912c4	-0.0103194155
28	0x3da6d440	0.08145952
29	0xbdac2662	-0.084057584
30	0xbd4f6903	-0.050637256
31	0xbe28f108	-0.16498196
32	0xbd068b2b	-0.032847565
33	0x3d98d64c	0.07462749
34	0x3da0b25a	0.07846518
35	0x3d39e081	0.04538012
36	0xbdf78c49	-0.12087304
37	0x3cd59f9e	0.026077088
38	0x3dfa93bb	0.122352086
39	0xbd9661ce	-0.073428735
40	0xbca8aaff	-0.02058935
41	0xbd2c0ded	-0.04200547
42	0x3cae3565	0.021265695
43	0x3c47efdd	0.012203184
44	0x3ce330d8	0.027733251
45	0xbced988b	-0.029003402
46	0xbafe5205	-0.0019403106
47	0x3da5ed72	0.0810193
48	0xbcfe61c0	-0.03105247
49	0x3d6e6ef5	0.058211286
50	0xbe4a15cd	-0.19734879
51	0x3d7ee69e	0.062231652
52	0xbd524dcf	-0.051343735
53	0x3d182811	0.037147585
54	0xbd08d1ea	-0.033403315
55	0x3d7946e3	0.06085862
56	0x3c3736cc	0.011182498
57	0xbbaa69ed	-0.0052006156
58	0x3db9e437	0.09076732
59	0xbbcdaadb	-0.006276471
60	0xbdb15444	-0.086586505
61	0xbe09158b	-0.13387124
62	0x3dccbbb5	0.0999674
63	0xbd9e993b	-0.0774407

hiden_layers.3.weight f4 [64, 64]
0	0xbe373ab1	-0.17893483
1	0xbe47728c	-0.1947729
2	0xbd9b04c9	-0.07569272
3	0x3de32203	0.110904716
4	0x3db87ac6	0.09007792
5	0xbe1ab280	-0.15107155
6	0xbe339cf2	-0.17540339
7	0x3e44aa70	0.19205642
8	0x3d980a49	0.07423837
9	0x3e18921e	0.1489949
10	0xbcf1e8af	-0.029529897
11	0x3c4db3ce	0.012555076
12	0xbd0bcc33	-0.034130286
13	0x3e9f094d	0.31061783
14	0x3d498dcd	0.049207497
15	0x3c53871e	0.012910632
16	0xbddbbb30	-0.107290626
17	0xbd515c10	-0.05111319
18	0x3cc0abca	0.023519415
19	0xbdef691f	-0.11689972
20	0xbe823f78	-0.25439048
21	0xbd8a9bfe	-0.067680344
22	0xbde63bb6	-0.11241858
23	0x3dacd6d4	0.08439413
24	0xbd9ebda5	-0.077510156
25	0xbe1acdb8	-0.15117538
26	0xbe14adea	-0.14519468
27	0xbc865a8c	-0.016400598
28	0xbd374aae	-0.044748954
29	0x3d828fc2	0.06375076
30	0x3e0fbc5d	0.14036699
31	0x3ca8db56	0.0206124
32	0xbe667dc3	-0.22508912
33	0x3d5c3edd	0.05377089
34	0x3ccfdfca	0.025375266
35	0x3dcf7c6f	0.10131156
36	0x3e3aad36	0.18230137
37	0x3eb2803e	0.34863466
38	0x3db5e882	0.08882238
39	0xbe3af3c1	-0.18257047
40	0xbd9da39a	-0.0769722
41	0xbe4c6e2c	-0.19963902
42	0x3e86fa80	0.2636299
43	0x3e878c88	0.26474404
44	0x3ce1db82	0.02757049
45	0x3e2ee17d	0.17078204
46	0x3e649697	0.2232307
47	0xbd20cd23	-0.039258134
48	0x39270ef7	0.00015931936
49	0xbe17518d	-0.14777203
50	0xbde06a0b	-0.10957726
51	0xbcdd2ad9	-0.02699797
52	0x3e136f19	0.14397849
53	0xbdc1cdd8	-0.0946309
54	0x3d8e8936	0.06959765
55	0x3d43dca9	0.04781786
56	0x3c491791	0.012273685
57	0xbe4b9664	-0.19881588
58	0x3e06005a	0.13086072
59	0x3e78287a	0.2423419
60	0x3dae2b99	0.08504409
61	0x3e942588	0.28934884
62	0x3d9d62e5	0.07684878
63	0xbe66290c	-0.22476596
64	0xbde12607	-0.10993581
65	0xbda090f5	-0.07840148
66	0x3e3d1768	0.1846596
67	0xbe09d620	-0.13460588
68	0x3e5babbf	0.21452235
69	0x3e286b31	0.1644714
70	0xbe02a5c2	-0.12758544
71	0x3e326bad	0.17423888
72	0x3e2ac1e5	0.16675527
73	0x3e57250b	0.21010225
74	0xbe3e2822	-0.18569997
75	0x3d4cf9aa	0.050042786
76	0x3d42eff5	0.047592122
77	0x3e674c0a	0.225876
78	0x3e1172d3	0.14203958
79	0xbdcc1bff	-0.09966277
80	0xbe2e5de0	-0.17027998
81	0x3ca21165	0.019783685
82	0xbe19d726	-0.15023479
83	0xbe474825	-0.19461115
84	0xbdbb7033	-0.0915226
85	0x3cd90d25	0.026495526
86	0x3e0c16a8	0.13680518
87	0x3e2c5638	0.16829765
88	0x3e42fc69	0.190416
89	0x3dac14c7	0.084024005
90	0xbddab25e	-0.10678552
91	0x3e62820d	0.22119923
92	0xbe5d2a78	-0.21598232
93	0x3df68cda	0.12038584
94	0xbd82d659	-0.0638854
95	0xbe1b6d45	-0.15178402
96	0xbc40ca6c	-0.011767011
97	0x3e3e438f	0.18580459
98	0x3e60e901	0.21963884
99	0x3dc6cb89	0.0970679
100	0x3e841357	0.25796005
101	0xbc803d8d	-0.01565435
102	0xbe323144	-0.17401606
103	0xbda50523	-0.080576204
104	0xbe5e52bd	-0.2171125
105	0xbe1821f5	-0.14856704
106	0xb9ac3f9e	-0.00032853795
107	0xbe3cc434	-0.1843422
108	0x3d3c357d	0.045949448
109	0x3d280e63	0.041029345
110	0x3ddfb25e	0.10922693
111	0x3e75138e	0.23933241
112	0x3db5c9c2	0.08876373
113	0x3e276b9a	0.1634964
114	0x3e2a1476	0.16609368
115	0x3e103226	0.1408163
116	0x3e8f51cd	0.27992097
117	0xbd948aae	-0.072530136
118	0xbd0e095b	-0.03467689
119	0xbe32b4c7	-0.17451774
120	0x3e8a532a	0.27016574
121	0x3e15a8e1	0.14615203
122	0xbd3b0a7f	-0.045664307
123	0x3ded95e7	0.11600857
124	0x3e4142cc	0.18873137
125	0x3d1ee862	0.038795836
126	0x3e2038d7	0.15646683
127	0x3e329d42	0.17442802
128	0x3b89196b	0.0041839383
129	0xbe5f188d	-0.21786709
130	0x3c44b9d5	0.012007196
131	0x3e8a4c76	0.2701146
132	0xbbf55e5f	-0.0074880566
133	0xbe242fc8	-0.16033852
134	0xbd8d9286	-0.06912713
135	0xbb222fe4	-0.0024747783
136	0xbe05955a	-0.13045254
137	0xbe15c17d	-0.14624591
138	0xbd49ce28	-0.04926887
139	0xbcd99f90	-0.026565343
140	0x39fb85d3	0.00047974157
141	0x3e2b00ff	0.16699599
142	0xbe511d33	-0.20421295
143	0x3d411acd	0.0471447
144	0xbd871f3a	-0.06597753
145	0x3c375abe	0.011191068
146	0x3d377f5e	0.0447992
147	0xbe17de2b	-0.14830844
148	0xbe79cf67	-0.24395524
149	0xbe2cc679	-0.16872586
150	0xbe05f609	-0.13082136
151	0x3e89b5a3	0.2689639
152	0x3dfc5897	0.12321585
153	0xbdfec8ed	-0.12440667
154	0x3e27681c	0.16348308
155	0x3da1a341	0.07892466
156	0x3da82fde	0.08212255
157	0xbe306d52	-0.17229202
158	0x3d859b0d	0.06523714
159	0x3e350ca9	0.1768061
160	0xbde435b9	-0.11143059
161	0x3e3d84d2	0.18507698
162	0xbe0c2728	-0.13686812
163	0x3d999ccd	0.075006105
164	0x3dcb6f0c	0.0993329
165	0xbe3ca5c5	-0.18422611
166	0x3dc0a6be	0.094068035
167	0x3e158a4a	0.14603534
168	0xbe48fde2	-0.19628099
169	0x3d99e565	0.07514457
170	0x3e6a1645	0.22860058
171	0xbcf33749	-0.029689448
172	0x3e0370e7	0.12836038
173	0x3dacac80	0.08431339
174	0x3e45860c	0.19289416
175	0xbda86055	-0.08221499
176	0xbe55a84d	-0.20864983
177	0xbe33712f	-0.17523645
178	0x3e74d158	0.23907983
179	0x3dba2818	0.090896785
180	0x3dcd1530	0.10013807
181	0xbe1b2369	-0.15150227
182	0xbb07613d	-0.0020657324
183	0xbb2bc7a4	-0.0026211524
184	0x3d29b601	0.041433338
185	0x3e3ed8cf	0.18637393
186	0xbd559e8e	-0.052153163
187	0xbd492397	-0.049106207
188	0x3dbdb246	0.092625186
189	0x3dbc4ba8	0.09194118
190	0xbe78a18c	-0.24280375
191	0xbe30b3e5	-0.17256124
192	0x3dec8c23	0.115501665
193	0x3c676819	0.01412394
194	0xbd1dfac4	-0.038569227
195	0xbe6fcf8a	-0.23419014
196	0xbe442145	-0.19153316
197	0x3e4954de	0.1966128
198	0x3d7aef52	0.06126339
199	0x3de2b48e	0.11069594
200	0x3dded5db	0.108806334
201	0xbdc9141f	-0.09818291
202	0x3c7cc1bb	0.015427048
203	0x3d94a420	0.07257867
204	0x3d79f0f5	0.06102081
205	0x3d5d4d8c	0.054029033
206	0xbe1cb41b	-0.1530308
207	0xbc8d0f0f	-0.017219095
208	0xbe1cdac3	-0.15317826
209	0xbe47d9fa	-0.19516745
210	0x3da11326	0.078649804
211	0xbdd8a41d	-0.10578177
212	0xbdd1ec8e	-0.10250197
213	0x3e79cea3	0.24395232
214	0x3d9bd5bd	0.07609127
215	0x3cf0e7a3	0.029407328
216	0x3e0d7b59	0.13816585
217	0xbeae87da	-0.34088022
218	0x3ddf2562	0.10895802
219	0x3d065e86	0.03280499
220	0x3d85d075	0.06533901
221	0xbd67c551	-0.05658466
222	0x3def0b3a	0.11672063
223	0x3d906397	0.07050245
224	0x3da082a8	0.07837421
225	0xbc1622a2	-0.009163531
226	0xbdfc7f9a	-0.123290256
227	0xbcf7b269	-0.03023644
228	0x3ed830c0	0.42224693
229	0x3eb002d7	0.34377167
230	0x3ea5d534	0.32389224
231	0xbdf51798	-0.11967391
232	0x3d9e1802	0.07719423
233	0x3e90e8de	0.28302664
234	0xbd7c0266	-0.061525725
235	0x3d5ab070	0.05339092
236	0x3d45e4f8	0.048314065
237	0x3e649b70	0.2232492
238	0x3b2e6221	0.0026608782
239	0xbe984ad8	-0.297446
240	0xbda9a30e	-0.08283053
241	0xbc071926	-0.008245742
242	0xbe445d2f	-0.19176172
243	0x3e71b450	0.2360394
244	0xbe1ce03b	-0.15319912
245	0xbe2eabc1	-0.17057706
246	0x3e21bb83	0.15794186
247	0x3e8688df	0.262763
248	0xbd594900	-0.053048134
249	0xbe4ea792	-0.2018111
250	0xbdf493f8	-0.11942285
251	0x3d7ccf1b	0.06172095
252	0x3e170092	0.14746311
253	0x3ebbad37	0.3665559
254	0xbe91938a	-0.28432876
255	0x3dcb458e	0.09925376

hiden_layers.3.bias f4 [64]
0	0x3e07ac9f	0.13249443
1	0x3d586553	0.052831005
2	0xbe0a2ca5	-0.13493593
3	0xbe34ca67	-0.17655335
4	0xbcdfc2cf	-0.027314572
5	0x3dbbb1e0	0.09164786
6	0xbd818f74	-0.0632619
7	0x3c7d2204	0.0154500045
8	0x3d925271	0.07144631
9	0x3c8d968c	0.0172837
10	0x3cff391a	0.031155158
11	0xbd5aeaca	-0.05344657
12	0xbdfcd1d9	-0.12344713
13	0x3d7d167c	0.06178902
14	0xbccee6d3	-0.02525655
15	0x3c28bbaa	0.010298649
16	0xbd7fa763	-0.06241549
17	0xbdbec5cb	-0.0931507
18	0xbc34194d	-0.01099236
19	0x3da06f6d	0.07833753
20	0xbdcd8d0b	-0.100366674
21	0xbd887f8d	-0.066649534
22	0x3e5c5b73	0.2151926
23	0xbd769a7a	-0.060205914
24	0x3d5370b4	0.051621154
25	0x3cae5846	0.021282326
26	0xbd00bbaa	-0.03142897
27	0x3dbd9327	0.09256583
28	0x3e0f3fdb	0.13989203
29	0xbd7694a5	-0.060200352
30	0xbcdbebcc	-0.026845835
31	0xbe46e23f	-0.19422244
32	0x3d6e8993	0.05823667
33	0x3e3deea2	0.18548062
34	0xbd4cac97	-0.049969282
35	0x3e38811a	0.18017998
36	0xbd52b0a9	-0.051438008
37	0x3dff4a0c	0.12465295
38	0x3ddb99b2	0.107226744
39	0xbd8f7b04	-0.07005885
40	0xbbd68451	-0.006546535
41	0xbcf3b098	-0.029747292
42	0x3d815983	0.06315901
43	0x3d99c9bf	0.07509183
44	0x3a2f6a3c	0.00066915504
45	0xbd642f2e	-0.055709057
46	0x3c2504f8	0.010071985
47	0x3dd8530b	0.10562714
48	0x3e8d29c2	0.2757092
49	0x3d175af2	0.036951967
50	0xbd22d096	-0.039749704
51	0x3d84e765	0.064894475
52	0x3da0fe30	0.078609824
53	0xbdddbff1	-0.108276255
54	0xbd32d805	-0.043663044
55	0xbdcb1b1b	-0.09917279
56	0x3e0207bb	0.12698261
57	0xbd0271dd	-0.03184687
58	0xbd80c669	-0.06287844
59	0x3db39fe1	0.08770729
60	0xbdcfdb87	-0.101492934
61	0x3be6850c	0.0070349034
62	0xbe37823c	-0.17920774
63	0x3c248df7	0.010043613

hiden_layers.4.weight f4 [64, 64]
0	0xbe53219f	-0.20618294
1	0xbe45aa15	-0.19303162
2	0x3baeb911	0.00533212
3	0xbe59bc25	-0.21263178
4	0xbda8ad95	-0.08236233
5	0xbe644031	-0.22290112
6	0xbe88307e	-0.26599497
7	0xbeb23d38	-0.3481233
8	0xbe6661c6	-0.22498235
9	0xbe0845c2	-0.1330786
10	0x3c02ef8f	0.0079916855
11	0x3e1cc241	0.15308477
12	0xba870524	-0.0010301215
13	0x3e0cf047	0.13763534
14	0x3eb042d0	0.34425974
15	0x3e02dad5	0.1277879
16	0xbe13bc35	-0.14427264
17	0xbe90f2ca	-0.28310233
18	0x3da5c87d	0.08094881
19	0x3ec88c4f	0.39169547
20	0xbcd03aba	-0.025418628
21	0x3e0b8152	0.1362355
22	0x3e355485	0.17708023
23	0x3e3ba28f	0.1832373
24	0x3d53c970	0.051705778
25	0xbb93d095	-0.004510949
26	0x3d8f7c46	0.07006125
27	0x3d4eb654	0.05046685
28	0xbe231c15	-0.15928681
29	0x3dfeeb68	0.12447244
30	0xbdf26767	-0.11836129
31	0x3ddd3b92	0.10802378
32	0xbe84b15c	-0.25916564
33	0xbbb62719	-0.00555886
34	0xbdc82bf5	-0.09774009
35	0x3d299981	0.04140616
36	0xbe64c83d	-0.2234201
37	0x3e243f4c	0.16039771
38	0xbd8afb58	-0.06786221
39	0x3df1357e	0.11777781
40	0x3ea48ae0	0.32137203
41	0xbe7082e8	-0.23487437
42	0x3e94cf8f	0.29064605
43	0xbd51672a	-0.051123776
44	0x3e389e38	0.18029106
45	0x3e97b8e5	0.2963325
46	0x3e292aa7	0.16520177
47	0x3e504674	0.20339376
48	0xbdc11001	-0.09426881
49	0xbd0e6e9c	-0.034773454
50	0x3e311cd5	0.17296155
51	0xbe91a2cb	-0.28444514
52	0x3e34b41d	0.17646833
53	0xbda4054b	-0.08008822
54	0xbe28d4dc	-0.1648745
55	0xbe8c2385	-0.2737085
56	0x3d9f9391	0.07791818
57	0x3d482a70	0.048868597
58	0x3d274216	0.04083451
59	0x3e9551ab	0.2916387
60	0x3c26d874	0.010183442
61	0xbe1bf077	-0.15228449
62	0xbe0ac567	-0.13551866
63	0x3ef47118	0.47742534
64	0x3e2457db	0.16049139
65	0xbdf6ccac	-0.12050757
66	0x3e8ebe72	0.27879673
67	0x3e290b4a	0.16508213
68	0x3c649d33	0.013953495
69	0xbe8a1ad6	-0.269736
70	0xbe1f6ff7	-0.15570055
71	0xbd4270e5	-0.047470946
72	0x3e66ebcc	0.22550887
73	0x3e440490	0.19142365
74	0x3d990a62	0.074726835
75	0xbb7aafd2	-0.003825177
76	0x3d4159c9	0.047204766
77	0xbdbe3c90	-0.09288895
78	0x3de78b93	0.113059185
79	0x3c0387d0	0.008027986
80	0xbd31b042	-0.043380983
81	0xbe079d13	-0.13243513
82	0x3e194c85	0.14970596
83	0xbd851541	-0.064981945
84	0xbe34d08d	-0.17657681
85	0xbe2dbe4d	-0.16967125
86	0x3ec14bbf	0.37753102
87	0xbe2c5062	-0.16827539
88	0x3e1c3324	0.15253884
89	0xbe3b4b7c	-0.18290514
90	0xbe2258a4	-0.15854126
91	0x3e589fe7	0.21154748
92	0xbe0e4a08	-0.13895428
93	0x3e2430c9	0.16034235
94	0x3db65460	0.08902812
95	0xbdf4438c	-0.11926946
96	0x3e191aa2	0.14951566
97	0xbe756d78	-0.2396754
98	0xbe619f9d	-0.22033544
99	0x3ede31e8	0.4339745
100	0x3e2e5395	0.17024072
101	0x3dd13fab	0.10217222
102	0x3c91aa8e	0.017781522
103	0x3df2f099	0.118622966
104	0x3cc3363d	0.023829574
105	0x3e95407f	0.2915077
106	0x3dd58a0a	0.104267195
107	0x3e9353a9	0.28774765
108	0xbdd124c3	-0.1021209
109	0x3da9d264	0.08292082
110	0xbe0cda49	-0.13755144
111	0x3e1818bd	0.14853187
112	0xbdef113f	-0.11673211
113	0xbe369f01	-0.17834093
114	0xbcc190d7	-0.023628635
115	0xbe14c025	-0.14526422
116	0xbe9b20df	-0.30298516
117	0xbc2e1c3f	-0.010626852
118	0x3d9e90b9	0.077424474
119	0xbe295ff5	-0.16540511
120	0xbe03df82	-0.1287823
121	0xbe812fac	-0.25231683
122	0x3df3b54d	0.11899815
123	0xbdcfe37a	-0.101508096
124	0xbe2d0d78	-0.16899669
125	0x3d467f58	0.04846129
126	0xbe3f2700	-0.18667221
127	0x3e607eae	0.21923324
128	0xbe928ba4	-0.28622162
129	0xbdc10774	-0.0942525
130	0xbdf4c676	-0.11951916
131	0x3cc453cd	0.02396574
132	0x3e364e26	0.17803249
133	0x3dcf1052	0.10110535
134	0xbe82e569	-0.2556565
135	0xbd269e42	-0.04067827
136	0x3e1474e2	0.14497712
137	0x3df8d6b5	0.12150327
138	0x3e48e2b1	0.19617726
139	0xbe84aacb	-0.25911555
140	0x3e03c482	0.1286793
141	0x3e26d794	0.16293174
142	0xbe5ff5c0	-0.2187109
143	0x3e040232	0.12891462
144	0xbe87527b	-0.26430115
145	0x3cf0359d	0.02932244
146	0xbe87c862	-0.26520067
147	0xbdae7853	-0.08519044
148	0x3e347653	0.17623262
149	0xbe028156	-0.1274465
150	0xbe548310	-0.20753121
151	0x3d0bad68	0.03410092
152	0x3c1195b1	0.008885787
153	0x3dcd0d6a	0.10012324
154	0xbda17836	-0.078842565
155	0x3e86d1e9	0.26332024
156	0x3d00b84d	0.031425763
157	0x3df233d5	0.118262924
158	0x3dc13509	0.09433944
159	0xbc85d5ad	-0.01633724
160	0xbd3661ed	-0.044526983
161	0x3e34b013	0.17645292
162	0xba92d40f	-0.0011202114
163	0x3e0e6516	0.13905749
164	0x3e627707	0.22115718
165	0xbe4e0c32	-0.2012184
166	0x3d25d0a6	0.040482186
167	0x3df9cf89	0.12197787
168	0xbdac4a2c	-0.08412585
169	0x3dae67ff	0.085159294
170	0xbe24bfba	-0.16088763
171	0x3c2ff4ba	0.0107395
172	0x3def683c	0.11689803
173	0xbddcabe0	-0.1077497
174	0xbe67387c	-0.22580141
175	0xbe77ca9d	-0.24198385
176	0x3e1a4ea4	0.15069062
177	0x3e889206	0.26673907
178	0xbd8ebd7b	-0.06969734
179	0x3e561c34	0.20909196
180	0x3c9cfd15	0.019163648
181	0x3e2ff946	0.17184934
182	0x3e66a25c	0.22522873
183	0xbdc2ef7a	-0.09518333
184	0x3eab6dce	0.33482212
185	0x3d2c8c20	0.04212582
186	0x3e8c8999	0.2744873
187	0xbd4ffd8b	-0.050778907
188	0xbd8179e3	-0.06322076
189	0xbe6860b2	-0.22693136
190	0xbe6785d6	-0.22609648
191	0xbd931b02	-0.07182886
192	0x3e97811f	0.295907
193	0x3e7b220f	0.24524711
194	0xbdc025e5	-0.09382228
195	0x3e027624	0.1274038
196	0x3e021e23	0.12706809
197	0xbe2998db	-0.16562216
198	0xbe20f92f	-0.15720056
199	0xbcbbd39a	-0.022928048
200	0xbd3572d3	-0.044298958
201	0xbd4f5604	-0.05061914
202	0xbe4cdc6e	-0.20005962
203	0xbe2aa080	-0.16662788
204	0x3d14146a	0.03615228
205	0xbd254621	-0.040350083
206	0xbcde5ec4	-0.027144797
207	0x3e802682	0.2502938
208	0x3e89c0bb	0.26904854
209	0x3d58f716	0.052970015
210	0xbd901a6d	-0.0703629
211	0xbde71bbd	-0.112845875
212	0xbe329a99	-0.17441787
213	0xbdee8b14	-0.11647621
214	0xbd750141	-0.05981565
215	0x3d44b857	0.048027363
216	0x3d434169	0.0476698
217	0xbdf0aa67	-0.11751252
218	0xbe60e6a3	-0.21962981
219	0xbdb620fd	-0.08893011
220	0xbcd6e4e7	-0.026232196
221	0xbdab0d8e	-0.08352195
222	0xbe558ee9	-0.20855297
223	0xbdb5fc79	-0.08886046
224	0xbd84cfd9	-0.06484956
225	0xbe68c600	-0.22731781
226	0x3da79f4d	0.08184681
227	0xbe631025	-0.22174127
228	0xbe812e9f	-0.25230882
229	0x3e8c92c0	0.2745571
230	0xbe36a8b4	-0.17837793
231	0xbe96dfba	-0.29467565
232	0x3e31edaf	0.17375825
233	0x3dbb46c2	0.09144355
234	0x3e70e722	0.2352567
235	0x3e66223e	0.22474
236	0x3d26314c	0.040574357
237	0x3e9eab36	0.3099
238	0xbe80fe0e	-0.25193828
239	0xbd9c8415	-0.0764238
240	0xbd78d9e3	-0.060754668
241	0xbe18328d	-0.14863034
242	0xbc45df16	-0.012077114
243	0xbe2ffc8c	-0.17186183
244	0x3d1f2a63	0.038858783
245	0x3d84b84a	0.06480463
246	0xbe9d1bce	-0.30685276
247	0x3e2ae49a	0.16688767
248	0xbe9d4dd8	-0.30723453
249	0xbe638b94	-0.22221214
250	0xbdb87a3f	-0.090076916
251	0xbe801f22	-0.25023752
252	0xbdd3c957	-0.10341137
253	0xbd254d60	-0.040356994
254	0xbdf244b3	-0.118295096
255	0xbb965723	-0.004588024
