results/5_huge/epoch140/model_weights.pth (torch, 749398 bytes, 128 tensors)

init_layer.0.weight f4 [64, 5]
000000 61 4a 21 3f a7 9f 5a bd b3 83 a1 3d 36 8e 12 bd
       0.6300412 -0.053374913 0.07886448 -0.035780154
000010 ef 0a c4 3d 41 52 f1 3d 20 08 ca be 12 6a 0e 3d
       0.09572398 0.11783267 -0.39459324 0.034769125
000020 85 a5 7e 3d 94 3e c7 3c de e2 2c bf 8c 69 07 bf
       0.06216957 0.024321832 -0.6753367 -0.52895427
000030 84 29 3f be 35 be b0 3d e8 0c 35 3e e1 40 ef 3d
       -0.1866818 0.08630029 0.17680705 0.116822965
000040 5f ad ef 3e 71 6f a4 3d 50 4a d6 3d f3 a5 31 be
       0.4681196 0.08029068 0.10463393 -0.17348461
000050 7c b9 5c be f8 b2 ef be 6d 38 ef 3d c4 b4 5f 3d
       -0.21555132 -0.4681623 0.11680684 0.05461575
000060 74 d3 91 bd 6d 9b 0b 3e e6 58 8d 3e 67 94 22 33
       -0.071204096 0.13633509 0.27606887 3.7853535e-08
000070 20 41 d4 3c 38 7c 1d be bf 85 e1 3d 74 45 a8 bd
       0.02590996 -0.15379417 0.11011838 -0.08216372
000080 f0 37 82 3d 13 fe 2b 3d cf 7a 7a be e3 01 76 3e
       0.063583255 0.04199035 -0.2446091 0.24024157
000090 73 3a 84 be 1b 4d da bc 4d f6 af bc fa 5a e7 3d
       -0.25825843 -0.026648095 -0.02147975 0.11296649
0000a0 1a 8d 3e bf e1 74 98 be ac ad b0 3d 60 98 92 bd
       -0.74434054 -0.29776672 0.08626875 -0.071579695
0000b0 b3 87 d5 3c 2f 7a 61 3e 70 81 0c bc 6d 94 e9 ba
       0.026065683 0.22019266 -0.008575782 -0.0017820724
0000c0 d7 8b 96 bc 66 94 32 be fc d8 30 3f 0e c6 f8 3e
       -0.018377228 -0.17439422 0.6908109 0.48588604
0000d0 95 75 f3 3b 08 b6 1f 3c 4c e4 3f be 19 48 38 3d
       0.0074297884 0.0097479895 -0.18739432 0.044990633
0000e0 65 70 26 3f 97 58 f8 3d 72 58 c9 3d f5 19 9a 3d
       0.6501525 0.12126272 0.09831323 0.07524482
0000f0 bd 04 83 be f3 5d 9f bd a1 b4 39 3c 6a 0e e3 3c
       -0.25589553 -0.07781591 0.011334569 0.027716834
000100 66 4d 28 be 55 01 0a bf 60 0a cf 3e a5 19 f0 3c
       -0.16435775 -0.5390828 0.40437603 0.029309103
000110 a1 7e 9d 3d 90 9a 3d 3d 69 b5 3d bd c5 f5 f1 3c
       0.07690168 0.04628998 -0.046315584 0.029536137
000120 03 a0 8f be 90 19 6b 3e aa b6 92 be 72 27 24 bf
       -0.28051767 0.2295897 -0.28654987 -0.6412269
000130 96 bc 29 be 7d 64 a8 3d 33 2c 7c bc 63 b0 15 3e
       -0.16575846 0.082222916 -0.015391397 0.14618067
000140 8d 72 97 3d 93 b9 e8 3e b4 b8 f5 3b 9e 4b 3b 3b
       0.07394896 0.45454082 0.007498825 0.0028579007
000150 39 85 c9 bc b0 09 ff be ef 1f ab be a9 86 6b 3d
       -0.024599658 -0.49812078 -0.334228 0.05750147
000160 30 b9 9d 3d 08 e7 82 3e d3 7e 13 bf a7 56 a8 3e
       0.07701337 0.25566888 -0.57615393 0.3287861
000170 45 47 20 3d 7c 64 5a bb 8c cc 75 bd 51 96 fa 3d
       0.039130468 -0.0033324054 -0.060009524 0.12235702
000180 0f 5d e7 3d 56 77 8e be 06 fb f8 bd ce 5c 8e be
       0.112970464 -0.2782542 -0.12157254 -0.2780518
000190 bd 5f 04 3e a5 cb c7 be 76 5d cd 3b a0 4b ca 3c
       0.12927146 -0.39022556 0.006267245 0.024694264
0001a0 a7 7a 6e be e5 8c d1 3e c9 34 f9 3d 48 a3 1c 3b
       -0.23288976 0.40927806 0.12168271 0.0023901034
0001b0 83 6a d4 3b 2b d0 1e be f8 d2 21 be 0a 0d 33 bd
       0.0064824237 -0.15509097 -0.15803134 -0.043713607
0001c0 94 cc 74 bc 4c 0a 97 3c b4 ef 2e 3e f6 7d 0c bd
       -0.014941353 0.018437527 0.17083627 -0.034299813
0001d0 fe a3 b0 be 00 1b 24 be 42 b1 b8 3d 48 f0 0c be
       -0.34500116 -0.16025925 0.09018184 -0.13763535
0001e0 60 13 5b be 33 9b 20 3f 80 52 8e bd 73 e4 cb bc
       -0.2139411 0.62736815 -0.069493294 -0.024889207
0001f0 41 59 7c bd 29 51 bf 3e e2 5f fb be 3c 14 bf bd
       -0.061608557 0.37366608 -0.4909659 -0.09330031
000200 69 e4 03 3d 61 9d 85 bc 4b 73 2c 3e 1b 0e d0 3e
       0.03220025 -0.016310396 0.16840856 0.40635762
000210 ba c1 5d bd 9a 73 29 3d 1f 43 39 3e a5 12 2a 3e
       -0.05413983 0.041370012 0.18092011 0.16608675
000220 b3 2c a8 3d 64 c5 49 bd d9 a9 33 3c f4 cf 73 be
       0.08211651 -0.049260512 0.010965788 -0.23809797
000230 df 81 c3 be 42 06 8d bd 6a a2 b7 3c 8c ca 55 3d
       -0.3818502 -0.06885959 0.022416312 0.052195117
000240 89 e6 cc bd c7 ca 76 3e ec f7 11 3f f6 b5 5e bb
       -0.100049086 0.24100791 0.57018924 -0.003398297
000250 31 b4 3d bc 1e a7 f1 bd 04 5c 2b 3f c2 9a a9 3e
       -0.0115786055 -0.11799453 0.6693728 0.33125883
000260 51 11 61 ba 04 4d b4 bc d5 77 f8 3d fa 1b ef 3e
       -0.0008585649 -0.02200938 0.12132231 0.46701032
000270 6a c0 36 3e 08 1f 57 3e 4a db 49 3d 9f 9d 82 be
       0.17846838 0.21007931 0.049281396 -0.2551088
000280 81 ec dc 3e 87 d7 b3 be 63 d6 13 3e a3 39 fe 3d
       0.43149188 -0.35125372 0.14437251 0.12413337
000290 cc 4d 36 3e 98 cd 5b 3e 9a 89 1a bf 99 e4 86 bd
       0.17803115 0.21465147 -0.60366213 -0.0658657
0002a0 ce 0d 1f 3d 4e 64 9c bd f0 6f c9 3d 41 87 18 be
       0.038831525 -0.07636319 0.098358035 -0.14895345
0002b0 67 31 d6 bc bb 0a 06 3d ca ba 36 3e 15 9f 53 3e
       -0.026146604 0.032725077 0.17844692 0.20666154
0002c0 d4 50 a7 be 75 78 d2 bd 92 59 fe bd 5a 46 45 be
       -0.32678854 -0.102768816 -0.12419428 -0.19265118
0002d0 fe a0 9e 3d dd 31 c1 be 0d 29 43 bc a4 68 a7 3d
       0.077455506 -0.37733355 -0.011911643 0.081742555
0002e0 f7 89 36 be 2e 55 f2 3e a7 6b f7 be 9e 2b 2d 3e
       -0.17826067 0.47330612 -0.4832432 0.1691117
0002f0 40 d3 a4 bd d2 1e 49 be 5e 35 ac 3e 63 c7 bd 3b
       -0.08048105 -0.19640663 0.33634466 0.005791591
000300 96 24 71 3d e9 00 af 3d f6 82 92 3d b0 59 12 3c
       0.05887278 0.085450955 0.07153885 0.008932516
000310 04 e9 11 3f 0f 99 94 bc c4 a7 0e 3d f7 b6 27 3e
       0.5699618 -0.01813939 0.034827963 0.1637839
000320 ce b1 4b be f3 94 92 bd ae 9f 2b 3d 31 a2 fc bd
       -0.19892046 -0.07157316 0.04190033 -0.12335623
000330 23 eb 32 3e 0a a0 0f 3e 63 92 60 bd be d1 13 3c
       0.1747251 0.14025894 -0.054827105 0.009022174
000340 b0 7a a8 bc 5a 18 16 be 1d 9c 42 be 0b 84 41 3e
       -0.020566314 -0.14657727 -0.19004865 0.18898027
000350 7f 1d 4c 3c 31 8c 9f bc aa be 18 be dc 5a 54 be
       0.012458204 -0.019476028 -0.14916483 -0.20737785
000360 53 50 91 be 5d be be bc ff 1f 53 bd 90 6f f2 bc
       -0.28381595 -0.023284132 -0.051544186 -0.029594213
000370 6d 5c 1e 3e d4 8b 88 3d e6 b2 91 bc 60 ca b6 bb
       0.15464945 0.06667295 -0.0177855 -0.005578324
000380 07 dd f1 bd 94 97 ba be 34 fa 55 bd f8 85 1c 3e
       -0.11809736 -0.3644377 -0.052240565 0.1528548
000390 fe 80 f7 bd 3d 30 98 3d fa a4 3c 3e dc 51 9c 3d
       -0.1208515 0.07431076 0.18422309 0.07632801
0003a0 8a e8 e0 bc e1 aa 3c bd 4f 46 1c be ac 06 d7 3e
       -0.027454633 -0.0460614 -0.15261196 0.41997278
0003b0 e7 1c e1 3e 45 56 53 3d 33 72 01 3d 81 60 df 3d
       0.43967363 0.051595945 0.03160305 0.109070785
0003c0 0d a9 a5 3e 37 77 0d be d5 2b 07 bd a2 94 23 bd
       0.32355538 -0.13815008 -0.033000786 -0.03993667
0003d0 2f a6 6d be 25 be 39 bf 62 f2 b9 be 8f 30 2c 3d
       -0.23207925 -0.7255576 -0.36317736 0.042038497
0003e0 75 9e 1d bd d7 ac 3d 3e 5a 88 1a 3f e4 76 aa be
       -0.038481195 0.18522964 0.60364306 -0.3329383
0003f0 3e 7e 90 3c 2e c9 40 3d 7f 04 df 3d 80 c8 0f 3f
       0.017638322 0.04706686 0.108895294 0.56165314

init_layer.0.bias f4 [64]
000000 0f 47 8a 3e bb bc fd 3d bc fb a9 3d 2c 63 1d be
       0.27007338 0.12389513 0.08299968 -0.15369862
000010 39 e7 70 bd 54 c6 3d be aa 13 34 be 0e 1d 7b 3e
       -0.05881426 -0.18532687 -0.17585626 0.24522802
000020 ad 11 72 be 68 41 f9 bd 59 1a 29 3d 35 80 0a 3d
       -0.23639555 -0.121706784 0.041284893 0.033813674
000030 43 88 68 be b7 d4 e7 bd 3b 77 7a 3e d5 5d df bd
       -0.2270823 -0.11319869 0.24459545 -0.10906569
000040 7e 65 de 3d 75 f1 2e be b1 90 52 be fa 98 8c 3e
       0.10859202 -0.17084296 -0.20563008 0.27460462
000050 f7 1d 36 be 0f 06 d2 bd b4 fe c7 3d cc c1 33 be
       -0.17784868 -0.10255062 0.09765378 -0.17554396
000060 ff 62 eb bb 5f 0d f1 bd dc 17 76 3e 9f d6 29 be
       -0.007183432 -0.117701285 0.24032539 -0.16585778
000070 f9 40 3c be a1 f7 de 3d 2b bf 80 3e 63 d3 c2 3d
       -0.1838416 0.10887075 0.2514585 0.09512975
000080 66 a8 2f 3e fa b6 ff 3d bc dd 29 3e 6d 58 c3 bd
       0.17154083 0.12486072 0.16588491 -0.0953835
000090 b4 8d c6 bd 36 8b 68 3e 4a 05 51 3e 23 f5 ce bd
       -0.096949965 0.22709355 0.20412174 -0.1010535
0000a0 b0 c4 0a be a4 81 a2 bd 43 9e 40 be 3c a2 80 bd
       -0.13551593 -0.07934883 -0.18810372 -0.06280944
0000b0 99 ca ad bd 8b 68 4b be bd 2f ea bd 9e f1 9c 3c
       -0.08485908 -0.19864099 -0.114348866 0.01915818
0000c0 6e 00 2b be e7 0e 09 be b0 f3 8b 3e 80 eb a5 3d
       -0.16699383 -0.13384591 0.27334356 0.08101559
0000d0 01 aa 17 be 64 a7 39 be cd 7c 10 3d b6 a6 32 3e
       -0.14810945 -0.1813026 0.03527527 0.17446408
0000e0 ca 0e dc bc ed 7b 86 3d 51 cf 2e be a6 25 43 3e
       -0.02686252 0.06566606 -0.17071272 0.1905733
0000f0 3e 94 54 be f2 72 66 be 4a 07 ab 3c 2a df 19 be
       -0.20759675 -0.22504786 0.0208775 -0.15026537

hiden_layers.0.weight f4 [64, 64]
000000 e4 0a bb 3e 28 55 a6 3d a8 96 76 3b af 64 0e 3e
       0.36531746 0.08121711 0.003762642 0.13905595
000010 9e 8a 1d 3e 9f 1f 11 be df 50 94 3c 93 be 31 3e
       0.1538491 -0.14172219 0.018104969 0.17357855
000020 39 21 ed 3d cf e1 48 3e 12 70 84 bc 27 51 40 3e
       0.11578602 0.19617389 -0.01616672 0.18780957
000030 63 79 df bd 32 73 7d bd 36 af aa 3e 95 56 93 3c
       -0.109118246 -0.061877437 0.333368 0.017985621
000040 f9 23 50 3e 99 ed fc 3d a1 41 90 be 97 7f 44 be
       0.20326222 0.12350006 -0.2817507 -0.19189297
000050 61 4f 4d bd 30 06 ac 3d 85 e9 3d 3e 30 e9 74 3e
       -0.05012453 0.08399618 0.18546112 0.23917079
000060 ec 64 87 3e 6a 10 6d 3e 68 a7 8e be 20 5f 16 be
       0.26444185 0.23150793 -0.27862096 -0.14684725
000070 32 a5 a1 be 39 c5 1d 3e b1 f3 78 3e 59 84 2e be
       -0.31571347 0.15407266 0.24311711 -0.17042674
000080 bb f6 cc 3d 2e 38 f3 3d 68 ee 85 3c 80 69 8a 3e
       0.100079976 0.1187595 0.016349033 0.27033615
000090 bf 00 d8 bd ad d2 6b 3e 87 16 8c be 1c 22 c8 3d
       -0.10547017 0.23029585 -0.27360937 0.09772131
0000a0 78 02 b3 bd 36 4f 23 3d 4a 9b c7 bd bb c1 87 3d
       -0.08740705 0.039870463 -0.09746416 0.06628748
0000b0 69 59 28 be bd 85 ed bd 27 cc 0a 3e 98 54 54 be
       -0.16440357 -0.11597774 0.1355444 -0.20735395
0000c0 81 e0 e8 3c 72 9e 19 bd 48 e5 56 bd fa c6 60 be
       0.028427364 -0.03750462 -0.052464753 -0.21950904
0000d0 6b 2f 1f bb 99 fa 2e be 22 52 53 bd 8d 9a 2c 3e
       -0.0024289738 -0.17087783 -0.051592 0.16855831
0000e0 99 34 23 be f3 81 4a be 77 eb b1 bb 5b 38 f9 3d
       -0.15938033 -0.19776134 -0.005429681 0.12168952
0000f0 16 48 15 bd 8d 14 de bc 93 3c 86 bd de 35 c3 be
       -0.0364457 -0.027109409 -0.06554522 -0.38127035
000100 cd b6 47 3c 93 90 72 3c 11 e8 e9 bd 92 e6 65 3e
       0.012189579 0.014804977 -0.11421216 0.22451237
000110 88 82 00 bd 6e 02 37 3e 8e 28 10 be 16 72 0b be
       -0.031374484 0.1787202 -0.1407797 -0.13617739
000120 24 8f b9 bd cb 96 79 3d b9 a7 96 3e 82 07 5f 3e
       -0.09060505 0.060934823 0.29424837 0.21780208
000130 5f 57 b1 bb f0 31 9f bd f0 ba e2 bd f4 ef e6 3d
       -0.005412027 -0.07773197 -0.11070812 0.11276236
000140 d7 03 84 3e cd e9 2b be 66 70 0c 3d db fd 1f 3e
       0.2578418 -0.16788407 0.03428688 0.15624182
000150 7a ba 0b be 40 b1 f5 3d 2e 48 ab 3d 3e 4a 5e be
       -0.13645354 0.119966984 0.083633766 -0.21708009
000160 4d d8 40 3e d7 d1 58 3e 9e 36 8e 3e be ba 0a 3e
       0.18832512 0.21173798 0.27776045 0.13547799
000170 8d 53 8f 3c c6 0d aa 3d 26 78 1a 3e a0 61 57 3d
       0.017495895 0.08303408 0.15084895 0.052583337
000180 bb 85 90 bd e8 76 63 be 30 8d 61 3e 32 48 d3 bc
       -0.07056757 -0.22213328 0.22026515 -0.025791261
000190 dd 2d dd bc fa f6 91 be 43 14 16 be 74 98 a7 3e
       -0.026999408 -0.2850874 -0.14656167 0.327335
0001a0 77 91 33 3e 68 ab 3f be 05 0c 42 be 71 94 42 be
       0.17535959 -0.1871773 -0.18949898 -0.19001938
0001b0 4e 37 7e be f1 be 08 bc d4 be d7 3d 3c a6 42 3e
       -0.24825785 -0.008346305 0.105344445 0.19008726
0001c0 8a e5 89 bd d4 b0 26 be 9e 5a 36 be 4e 9b 6b bc
       -0.06733234 -0.16278392 -0.17808005 -0.014380289
0001d0 da e5 04 be 3f 6f fb 3c f4 9b 01 3e 76 b7 70 3d
       -0.12978306 0.030692695 0.12657148 0.058768712
0001e0 3d d6 88 be cc fe 0c be ac d2 96 3c 42 13 6b 3e
       -0.2672595 -0.13769072 0.018411003 0.22956565
0001f0 77 12 e7 3c 31 dc a1 bd 08 a9 04 be c5 eb 0d be
       0.028207047 -0.07903326 -0.12955105 -0.1385947
000200 53 29 f0 bb 5b cd 25 3d 9d e5 87 3e eb 46 ed bd
       -0.007329145 0.040479045 0.2654237 -0.11585792
000210 7b 45 8c be c5 c7 05 3e 6b 8b 96 bd 52 52 39 be
       -0.2739676 0.13064487 -0.073508106 -0.18097809
000220 f8 b3 87 3d b0 6b 64 bd 22 86 d2 be 34 fd 7c be
       0.06626123 -0.05576676 -0.4111796 -0.24705964
000230 37 0c fe 3d de 6a d4 3b 3b 4d 56 3e 32 8a 62 bc
       0.124046735 0.006482466 0.20927899 -0.013826894
000240 07 b2 69 bd 63 7f d7 3d 2e 17 92 3e 0e fa 33 be
       -0.057054546 0.10522344 0.2853331 -0.17575857
000250 c6 68 80 3c 86 e5 e2 3d 06 b3 6f 3d 51 58 05 be
       0.01567496 0.11078934 0.05852034 -0.13021971
000260 32 bf da 3d 93 58 63 be 94 ba 2f be a6 88 64 3d
       0.10680999 -0.22201757 -0.17161018 0.05579438
000270 2d de 03 3e b4 49 39 be 32 cd fa bd bb 34 25 3d
       0.12877722 -0.18094522 -0.12246169 0.04033349
000280 56 2f ce bb 09 df 3a be 49 0c 0d 3d 0c 55 8a bc
       -0.006292264 -0.18249144 0.034435544 -0.016886257
000290 bc 52 10 be 51 32 20 be 43 16 47 be a8 73 4b be
       -0.1409406 -0.15644194 -0.19442086 -0.19868338
0002a0 27 ed af bd d2 af 5e be 9a 36 90 bd d8 f1 42 3e
       -0.08590155 -0.21746758 -0.070416644 0.19037569
0002b0 97 21 3c 3e a5 23 f2 3b 83 cb 6f 3e 15 de ef bd
       0.18372189 0.007389503 0.23417477 -0.11712281
0002c0 f3 47 82 3c 1d 6d 9d 3e da e9 93 be bb 7a 6d bd
       0.015903449 0.3074731 -0.28889352 -0.057978373
0002d0 8b bf 17 3e 81 91 a7 3d 74 57 ca 3d 86 d5 a9 3c
       0.14819162 0.081820495 0.098799616 0.020731699
0002e0 15 8e 4b 3e e4 3e a1 be f8 1d 23 be 11 27 3d be
       0.19878419 -0.31493294 -0.15929401 -0.18471934
0002f0 6e 36 ae 3e 13 e9 ef 3c 53 61 d5 3d 7c ad 58 bd
       0.34025902 0.029285943 0.10418954 -0.052899823
000300 08 3a 3d 3e c6 7d d3 3d a0 fb 0c 3e 1c 19 c4 be
       0.18479168 0.10326724 0.13767862 -0.38300407
000310 cb e1 93 bd 98 19 54 be 50 0d 10 be 6a 78 b0 3d
       -0.07220801 -0.20712888 -0.14067578 0.08616717
000320 6c 53 4b 3a 3b 03 46 3c 7e e1 f0 3d 31 e9 11 3e
       0.0007756266 0.012085731 0.11761759 0.14249112
000330 86 87 2d 3e cf f3 10 3e 53 92 bc be dd 8c 45 bd
       0.1694623 0.14155506 -0.36830387 -0.04823004
000340 eb c3 a1 3d 94 d0 69 3e 61 bd 4f 3d 78 9b eb 3c
       0.078986965 0.22833472 0.050717715 0.028760657
000350 f9 cb 92 be ad 3f b8 bd ab c9 23 3e 7c f0 15 3d
       -0.28671244 -0.0899652 0.15994899 0.036606297
000360 3f 7e 97 bc ed 72 fb 3c 42 6d ac 3d 3f 3e 8d be
       -0.018492816 0.03069445 0.08419277 -0.27586553
000370 7a b8 8a 3d 3d a0 c3 bd 00 72 a6 3d d5 62 01 be
       0.06773467 -0.095520474 0.081272125 -0.12635358
000380 fb d3 7e bd 03 29 0b 3e af fa 95 bd 91 5d db bd
       -0.06221388 0.13589863 -0.07323205 -0.10711206
000390 c0 2b ee 3d 55 c3 25 bd b7 a6 c7 3d da a6 fb bd
       0.116294384 -0.040469486 0.09748595 -0.12287684
0003a0 90 50 a2 3c 50 57 62 be f7 0f 2f 3e cc d5 77 3d
       0.019813806 -0.2210362 0.17095934 0.060506627
0003b0 b1 7a 00 be 0a 2b 96 3e b0 52 dd bd f6 72 8d bd
       -0.12546803 0.2932971 -0.10806787 -0.06906693
0003c0 12 36 c0 bd 38 ae 76 3e 3f 0d ee 3d 3d a4 94 bd
       -0.09385313 0.24089897 0.1162362 -0.072578885
0003d0 c1 ee 04 be 03 b0 17 be 7b 2b eb 3d 09 60 32 3e
       -0.12981702 -0.14813237 0.114829026 0.17419447
0003e0 e4 ae f3 bc d4 6d 53 3d 3a d5 89 3d b3 fb 5b 3e
       -0.02974648 0.051618412 0.06730123 0.21482734
0003f0 31 a6 83 3b 00 e4 66 bd 65 4a 6d 3c 12 ae 03 3e
       0.0040176143 -0.05636978 0.014483069 0.12859371

hiden_layers.0.bias f4 [64]
000000 5c 10 ff 3c 6f ac 1a 3c 66 83 19 bb 87 11 cc 3d
       0.03113573 0.009440525 -0.0023424267 0.099642806
000010 fa da 0e bb 68 5e 7c 3b 07 5a fd 3d 37 76 c3 bd
       -0.0021798 0.003850842 0.12370687 -0.09544032
000020 a3 49 1c bc fc 71 99 3d 5f 02 be bc 7a 82 55 bd
       -0.009539041 0.07492444 -0.02319449 -0.052126385
000030 56 02 57 3e b0 82 26 be 4f b5 4f bc 63 50 f7 bd
       0.20996985 -0.16260791 -0.012677505 -0.120758794
000040 b3 2f 91 3d dd 8c 60 3e 31 09 54 be 25 6f bb 3d
       0.07089176 0.21928735 -0.20706631 0.091520585
000050 91 c2 16 3e 49 32 20 be c2 d3 c1 3d 45 8b d2 bd
       0.14722659 -0.15644182 0.09464218 -0.1028047
000060 f9 ac 29 3e 14 2a 1e bc 49 57 fa bd 6b 95 24 3e
       0.1656989 -0.009653587 -0.122236796 0.16072623
000070 6b 6c ec bd 2e cd a5 3d 28 7e 32 3e 79 a5 43 be
       -0.115441166 0.080957755 0.17430937 -0.19106092
000080 ff e3 9b bd b8 0e df bd db ab 92 be 37 f3 13 3e
       -0.07611846 -0.10891479 -0.2864674 0.14448248
000090 ff f2 0a 3e 6c 2a 8d be 74 42 9c bd 1f b9 be bd
       0.13569258 -0.27571428 -0.076298624 -0.09312653
0000a0 f8 f8 bf 3c 25 5e 88 3e 70 79 9a bc 38 1e 17 3e
       0.023434147 0.26634327 -0.018856734 0.14757621
0000b0 76 83 7d be d6 88 2b bd f7 8e 1e be bd cf 31 be
       -0.2475718 -0.041878544 -0.15484224 -0.17364402
0000c0 81 2b 7f be 3e b3 12 be ec bc 98 bc 70 9e ad bd
       -0.24918939 -0.14326188 -0.018644772 -0.08477485
0000d0 85 9e fc bd 29 38 82 bc ae a5 6a be 48 c3 72 3c
       -0.12334923 -0.01589592 -0.22914764 0.0148170665
0000e0 12 84 f2 bd ab 3f 1d be 6f 9e aa 3d 8e 0c 1b 3e
       -0.11841597 -0.15356319 0.08331 0.15141508
0000f0 f0 11 d3 3c 92 2e 91 bd 46 ae 19 3e fe 65 29 bd
       0.02576539 -0.07088961 0.15007886 -0.041357033

hiden_layers.1.weight f4 [64, 64]
000000 3b 56 a5 bd 97 3e 9e bd 14 67 38 3e de 24 1c 3e
       -0.08073088 -0.07726782 0.18008071 0.15248439
000010 85 97 18 3e 8c 90 96 3e 70 e7 11 3d 3e 08 d9 bd
       0.1490155 0.29407156 0.035621107 -0.10597275
000020 7c 8b 0c be 4e 88 97 3d 90 88 1d 3d 0a 7b b9 be
       -0.13725084 0.07399045 0.038460314 -0.36226684
000030 b6 dd 5c bd 1a 89 4d 3d 74 5e da 3d 4a 7f 02 3d
       -0.053922378 0.05017958 0.10662547 0.031859674
000040 59 ee 4a bd 5e 93 1b 3c 99 d7 91 bd 4b d6 85 bc
       -0.049543712 0.009495584 -0.071212 -0.016337534
000050 fd be 5d 3e d7 a3 31 3d f4 3a 8c 3e d0 b0 52 3c
       0.21654887 0.04336914 0.27388728 0.012859538
000060 42 e7 4a bd 4b 98 20 be 0f 7c 01 bd 87 c5 9c 3d
       -0.04953695 -0.15683095 -0.031612452 0.07654863
000070 ef d4 0c 3e 61 82 5b 3e f9 76 fd 3d 12 55 a1 3d
       0.13753103 0.21436454 0.12376208 0.07877554
000080 77 5e c9 bd 50 53 15 bf 58 cb 8e bd ae 2d 8a 3d
       -0.09832471 -0.5833025 -0.069723785 0.06746994
000090 de d4 81 be 66 f1 e0 3d b8 c9 72 3d d5 9d 3a 3e
       -0.25357717 0.10983543 0.059274405 0.1822427
0000a0 82 c8 0f bc a9 8c 06 3e b2 98 64 3e d9 5d bc 3d
       -0.008775832 0.13139595 0.22323874 0.091975875
0000b0 69 d2 4d bd 4a dd 7f 3b c7 1c ad 3d ff 38 5e 3e
       -0.05024949 0.003904181 0.084527545 0.2170143
0000c0 1a 62 90 bd e1 01 87 3d fb 28 7d 3e c3 3c c5 bd
       -0.070499614 0.06592155 0.24722664 -0.0963073
0000d0 bc 53 1b 3e ea 94 33 be 43 ab cd bd 72 7a f0 3d
       0.15168661 -0.17537275 -0.10042431 0.117421046
0000e0 27 e0 a8 bd e1 73 83 be c4 81 c0 3d 76 f4 31 be
       -0.08245879 -0.25674346 0.09399751 -0.1737841
0000f0 c3 12 f1 bd ec db 8b 3e e2 91 9d 3e b4 fa 55 be
       -0.11771157 0.27316225 0.30775362 -0.20896417
000100 68 a0 8c 3e a3 15 20 3e 3b 4d 42 3e ab 6e 49 3e
       0.2746613 0.15633254 0.18974774 0.19671123
000110 33 a6 42 be ba e2 a2 be 92 a8 82 bd 88 2a 00 bd
       -0.19008712 -0.31813604 -0.063798085 -0.03129056
000120 72 08 cd be d8 4c 97 bb 69 9f 93 3d 88 6f 20 be
       -0.40045506 -0.004617315 0.072081394 -0.15667546
000130 b9 96 48 3d 90 e9 c5 3d ae 3e 4e 3d c4 44 8a 3e
       0.048971865 0.09663689 0.050352745 0.2700559
000140 f8 c1 41 3d 77 f5 e4 3c 00 13 dd bc 21 48 a3 3d
       0.047304124 0.027949078 -0.026986599 0.07972742
000150 db 1c 9b bd 84 6b 1d be 25 cb a4 bd 7d 46 63 3d
       -0.07573863 -0.15373045 -0.08046559 0.055487145
000160 95 d3 9c 3d b7 95 69 3d 39 04 6b be bc dd 44 be
       0.076575436 0.057027545 -0.2295083 -0.1922521
000170 d1 b8 64 bc 0d 90 32 3c 0e 0b e9 3d 71 9a 05 3e
       -0.013960079 0.010898602 0.11379062 0.13047196
000180 1b 9b 54 3d 01 b6 1e 3e 25 f9 86 bd 47 ad 53 be
       0.051905733 0.15499116 -0.06590489 -0.20671569
000190 5e 6a 0e 3d 8c d0 cf bd 13 e0 52 3e 75 e3 71 3e
       0.03476941 -0.10147199 0.2059329 0.23621924
0001a0 22 66 d3 3e b1 8e d6 be 01 e3 05 3f 61 33 5c be
       0.4128886 -0.4190574 0.52299505 -0.21503974
0001b0 5d 5b 88 3d 48 52 10 3e 31 10 5a 3e 5c 0f 2f 3e
       0.06658051 0.14093888 0.21295239 0.17095703
0001c0 75 8f d5 3e 59 3c aa 3d 09 76 0b 3e 19 50 67 bd
       0.41711012 0.08312292 0.13619246 -0.05647287
0001d0 b8 06 c2 3d a8 4a aa bd 24 be 52 bd 7a 21 48 3d
       0.09473938 -0.08315021 -0.051450863 0.04886005
0001e0 ee 61 96 bd 3c f3 05 bd 0a f3 3c bd 3e 3b cf bd
       -0.07342897 -0.03270267 -0.046130218 -0.101187214
0001f0 6e 66 6e 3d 9a eb db 3b 5a 37 e8 be 07 05 a3 3e
       0.058203153 0.0067114355 -0.4535473 0.31839773
000200 26 dc f8 3d 5a cf a0 bc 9f da 1a be ad 76 c4 3d
       0.12151365 -0.019630123 -0.1512246 0.09592948
000210 1f 8e 5b be 91 7c 26 be b0 9e 4e be 42 e9 bb 3d
       -0.21440934 -0.16258456 -0.20177722 0.0917535
000220 87 51 29 3e 34 e6 3c be ee a5 e2 bd c6 63 b7 3d
       0.16535006 -0.1844719 -0.11066805 0.08954577
000230 08 ca 70 3e 08 07 dc 3c e8 92 ac bc 65 79 0e bc
       0.23514569 0.026858822 -0.021066144 -0.008695935
000240 7b 1e 5c 3d e7 c4 a0 3e ff e8 cd bd 47 10 5b 3d
       0.053740006 0.31400225 -0.10054206 0.05348232
000250 b1 16 6a be 43 79 60 3e 7e bd e3 3c c7 a3 e7 bd
       -0.22860219 0.21921258 0.027800318 -0.11310535
000260 e4 9c 26 be ef cf 33 3e 65 e9 8c bc 8c a1 d1 bd
       -0.16270787 0.17559789 -0.017201135 -0.10235891
000270 ce 1a 4e 3d 8b 8c 03 be 85 03 2b be 79 18 3a 3e
       0.05031853 -0.12846582 -0.16700561 0.18173398
000280 66 fc ed 3d 6e 47 84 be d4 46 b0 be 35 c3 81 be
       0.11620407 -0.25835747 -0.34429038 -0.25344244
000290 94 58 78 3d e1 58 42 3d 39 1e ac 3e 82 39 44 3d
       0.06063135 0.047448043 0.33616808 0.047906406
0002a0 ed f7 49 bd 5d 40 9f be 68 12 35 3d ce ac ab 3d
       -0.049308706 -0.31103793 0.044207007 0.08382569
0002b0 63 49 87 be c5 97 63 be c4 e3 0e 3d 8d 27 1c be
       -0.26423177 -0.22225864 0.034885183 -0.15249462
0002c0 a5 f9 c5 bd 92 09 4b 3d b0 53 49 be c0 99 6c 3e
       -0.096667565 0.049569674 -0.1966083 0.23105526
0002d0 c7 a2 17 3e e1 e5 01 3e 33 d1 35 3e b7 35 31 3d
       0.14808188 0.12685348 0.17755584 0.043264117
0002e0 f9 a8 9d 3d 30 17 92 3e a0 02 be 3c 51 73 db bd
       0.076982446 0.28533316 0.023194611 -0.10715354
0002f0 f2 21 ef bd 6a 9f 6d be fc 81 2a be cc 98 04 3c
       -0.116763964 -0.23205343 -0.16651148 0.00809307
000300 d1 9b 89 3e 48 55 af 3c 63 8b 62 be 04 8d 83 be
       0.2687669 0.02140297 -0.22123484 -0.25693524
000310 47 2a 72 be c5 53 4f 3e 7c 4b 6b be 6a a8 3d 3b
       -0.2364894 0.202468 -0.22978014 0.0028939494
000320 5b d2 1c 3e f1 9a 6d 3c be 07 2d be 6c 28 01 be
       0.15314619 0.014502273 -0.16897485 -0.12613076
000330 20 ea 6d be 88 93 33 3e ec 84 21 3d 8f 61 7a 3e
       -0.23233843 0.17536747 0.039433405 0.24451278
000340 48 55 43 3d ca 68 71 3e 25 31 ca 3d 1b de 45 3d
       0.047688752 0.2357513 0.09872655 0.04830752
000350 cf f1 9d bd 01 a9 1d 3e c5 6b 98 3d 87 bf d4 bd
       -0.07712137 0.15396501 0.074424304 -0.103880934
000360 df e6 76 be de 88 8a bd 95 32 3a be 3e 3e a0 bd
       -0.24111508 -0.067643866 -0.18183358 -0.07824372
000370 52 b6 08 3e 04 e7 d4 bd 7f 22 07 3d e2 44 b7 3d
       0.133508 -0.10395625 0.032991882 0.08948685
000380 eb e7 2c 3e b3 c7 1b be 75 53 6f 3b fb 30 1d bd
       0.16885345 -0.15212898 0.003651825 -0.03837679
000390 61 06 98 3d bc db b5 3d 93 59 01 39 2c 32 af bd
       0.07423092 0.08879802 0.00012335768 -0.085544914
0003a0 a9 51 36 be 15 45 e3 3d 00 4f 37 be 6a 28 51 be
       -0.17804588 0.11097161 -0.1790123 -0.20425573
0003b0 42 02 e1 3e db 86 94 be b2 16 d0 bb bb f9 ce 3e
       0.43947035 -0.29009137 -0.0063503617 0.40424904
0003c0 ee 98 94 bd f4 53 95 3d 24 30 e0 bc 28 06 2a be
       -0.072557315 0.072914034 -0.027366705 -0.16603911
0003d0 9e 07 28 3e ee 9e ec bd 21 73 e8 3e d5 73 b4 3d
       0.16409156 -0.11553751 0.45400336 0.08811156
0003e0 78 41 2a 3e 5c 0a 00 3e e0 14 c5 3d 63 14 d3 3e
       0.16626537 0.12503952 0.09623122 0.4122649
0003f0 e9 05 03 be f0 f3 ad bd 3a de 34 be ef f1 1e be
       -0.12795223 -0.08493793 -0.17662898 -0.15521978

hiden_layers.1.bias f4 [64]
000000 de 4c f5 3c 66 0a ce bd 0b ee 63 be 33 37 08 bd
       0.02994388 -0.10060577 -0.22258775 -0.033255767
000010 71 49 a9 bc bd b9 47 3d d3 64 70 3e f6 06 ba 3d
       -0.020664902 0.04876112 0.23475961 0.09083359
000020 b8 f7 b7 3e 4b 1f c0 bd 2e b8 8b 3d c9 23 5d 3e
       0.35931182 -0.09380969 0.06822239 0.21595682
000030 16 ca 9c 3d e1 74 bd bc c7 26 ab bc 36 0b bb 3c
       0.07655732 -0.023127021 -0.020892514 0.022832494
000040 f6 08 1d bd 54 27 24 3d 2d a6 22 be 35 36 53 3d
       -0.038338624 0.04007657 -0.15883704 0.051565368
000050 a3 90 c4 bd 72 55 e5 3d 5b 5b 15 be 04 e2 02 3e
       -0.095979 0.11197938 -0.1458563 0.1278153
000060 34 af 63 be 4e 79 d8 3d 33 58 c7 3d e0 9d 67 3d
       -0.22234803 0.10570012 0.097336195 0.056547046
000070 27 3c 86 bd 76 c8 20 3e bb a7 ca 3d d5 70 95 3d
       -0.06554442 0.1570147 0.09895273 0.072969116
000080 02 e3 2a be 1b bc 9e 3d a7 c7 a8 bd bc f4 9c 3d
       -0.16688159 0.07750722 -0.08241206 0.07663867
000090 7c 0d a9 3d 12 c8 76 be bd fb 9f 3d 45 6c 0e be
       0.08254525 -0.24099758 0.07811687 -0.13908489
0000a0 e6 93 c0 bd e7 56 c3 3c 9d 54 f3 3d a7 24 f7 bd
       -0.094032094 0.02384515 0.11881373 -0.12067538
0000b0 10 f4 e7 3e e7 3f 6c 3e 64 61 bf 3d eb 60 2c be
       0.45303392 0.23071252 0.09344748 -0.16833846
0000c0 75 7b 6d 3d 56 6d 08 3d 21 a9 e2 3d e5 c4 61 be
       0.057979066 0.033307396 0.11067415 -0.22047766
0000d0 e6 cb 6a 3d 10 bb dc 3d 1b 0d 06 3d 23 ff 8a b6
       0.05732336 0.10777867 0.032727342 -4.1424223e-06
0000e0 78 e0 87 bd 96 cc 56 be 5c 25 83 bd 94 ef d0 3d
       -0.06634611 -0.20976481 -0.0640361 0.10201946
0000f0 2b fe 80 3d dd 1e 07 3d 58 8b 42 bd c9 58 aa bd
       0.06298479 0.032988418 -0.04749617 -0.08317716

hiden_layers.2.weight f4 [64, 64]
000000 e3 11 be bc 72 8a a1 3d 17 38 33 be 76 15 62 3d
       -0.023201888 0.078877345 -0.17501865 0.055196248
000010 5a 9f d2 bd 25 b2 56 be 80 9d b7 bd d4 9e cf bd
       -0.102843 -0.20966394 -0.089655876 -0.10137716
000020 8a 21 e5 bd b3 50 7f 3e 9b 40 e1 bd 7e 33 00 3e
       -0.11188038 0.24933128 -0.10998651 0.12519643
000030 7e 25 20 3e ab f4 c7 3c f3 9c 9c 3c 1e b9 75 3d
       0.15639302 0.024408659 0.019117808 0.059990995
000040 41 22 79 3e d6 3f 12 3d 29 8b 0e bd fa 0b 00 3e
       0.24329473 0.03570541 -0.034800682 0.12504569
000050 56 ab e6 3c 1e a3 c8 bd 5b 45 80 3d 20 6e 90 3c
       0.028157871 -0.09796737 0.062632285 0.017630637
000060 c4 30 72 be e8 5e 09 be f0 ec 31 3e a1 4e 1d be
       -0.23651415 -0.1341511 0.1737554 -0.15362026
000070 32 9f 06 3d a9 36 d6 bd 5b bd 72 be 08 22 fc bd
       0.032866664 -0.10459644 -0.23705046 -0.123111784
000080 c6 4a a2 bb 55 62 bc 3c da e3 0a 3e 5a eb 9b bd
       -0.0049527613 0.022996107 0.13563481 -0.07613249
000090 cd fc 19 be 90 27 df bc 96 0c 52 be 12 5f f2 3d
       -0.15037842 -0.027240545 -0.20512614 0.118345395
0000a0 4e 30 0b be 09 eb 2d 3b 8b aa b5 3d cd 35 2d be
       -0.13592646 0.0026537797 0.08870419 -0.16915055
0000b0 70 3a 51 3d 03 ff 91 3e cc 3a 9d bd 9b 1b 9a 3d
       0.05108112 0.2851487 -0.0767723 0.075247966
0000c0 3e b4 fb bd 54 3f c9 bd 27 07 fc bd e1 4d 7f 3c
       -0.12290238 -0.09826532 -0.12306052 0.015582533
0000d0 d2 84 0b 3e 44 3b c1 3c 0d 7d 22 be 94 be 84 be
       0.13624886 0.02358783 -0.15868016 -0.2592665
0000e0 55 3e 57 3e b0 23 e9 bd 53 bc 10 bd 9d db 93 be
       0.21019872 -0.1138376 -0.03533585 -0.2887849
0000f0 a0 96 94 bd 95 4c 4a 3e a2 65 52 be ae ae 18 3e
       -0.07255292 0.19755776 -0.20546582 0.14910385
000100 dc 7d 49 bd 73 5f 6c be 27 ad c5 bb ab 32 76 bd
       -0.049192294 -0.23083286 -0.0060326043 -0.060106914
000110 ee 7b e6 bd 6b 3c 54 be e1 aa 29 bd 7d d7 ee bd
       -0.112541065 -0.20726173 -0.04142273 -0.11662195
000120 e0 47 f5 bd 38 c5 09 3e de 6f ae bb a0 63 03 be
       -0.119766 0.13454139 -0.005323394 -0.12830973
000130 77 46 cc bd 3c fe 85 3e ea 47 7e 3e da 01 40 be
       -0.099743776 0.26170528 0.2483212 -0.18750706
000140 8b 57 d8 be c8 c5 99 3d a0 6e 5d 3c 6d f4 f1 bd
       -0.4225429 0.07508427 0.013515145 -0.11814199
000150 6e ea 1c 3e 1d 63 80 3c 7e cf 66 bd 04 f7 50 bc
       0.15323803 0.01567226 -0.056350224 -0.012754206
000160 07 ee fe 3d 96 1d 83 be a2 d5 0d be 1e e7 95 3d
       0.12447744 -0.2560851 -0.13851026 0.07319473
000170 51 aa 06 3f af b5 2e bd 95 80 b4 3d 98 4d 66 be
       0.5260363 -0.042653736 0.088135876 -0.22490537
000180 5e 59 e4 3d 54 6e 42 bd ef d6 91 3e fc e0 c4 3d
       0.11149858 -0.0474685 0.28484294 0.09613225
000190 56 fa d1 3d 56 86 ff bc c0 65 98 3e 38 8a af be
       0.10252826 -0.031191986 0.2976513 -0.3428514
0001a0 7b 89 60 bd 2f 23 36 bd de c3 a6 bc 56 0c 5f bc
       -0.05481861 -0.044467147 -0.020357069 -0.013613781
0001b0 96 fc 55 3d 70 20 1a bd a8 71 9c bd 75 6d ab be
       0.052242838 -0.03762859 -0.07638866 -0.33481947
0001c0 71 9e 74 bb dd 6c 1b bc 73 7b 1b be 34 7e 93 bc
       -0.0037325884 -0.009486404 -0.15183811 -0.018004514
0001d0 22 50 99 3d d3 7c 48 bd 8d 70 93 3e 7f 6e 3a 3e
       0.07485987 -0.048947167 0.28796807 0.18206213
0001e0 6b f5 1c 3e 16 82 75 3e 80 28 17 3e 95 e3 85 3e
       0.15327995 0.23975405 0.14761543 0.26150194
0001f0 d5 13 86 bc ed 20 34 3d 82 5e b9 3d 33 52 50 3d
       -0.016366879 0.043976713 0.09051229 0.05085964
000200 c8 7b b0 be 1b 31 9a be d3 0a 05 3e 5f 75 51 3e
       -0.34469438 -0.3011559 0.1299241 0.2045493
000210 5b 02 b4 3e b3 0e 82 3e 85 e9 27 3d af ea e5 bc
       0.35158047 0.2540184 0.040994186 -0.028066007
000220 fe dc b1 3e d4 16 43 3d 34 c2 89 3d be fa 99 be
       0.34738916 0.047629192 0.067264944 -0.30074114
000230 bc 5c 27 3d 0e 09 5b bd 06 d4 a2 be 73 a3 c1 bd
       0.040859923 -0.053475432 -0.31802386 -0.094550036
000240 27 f1 d8 be f1 45 12 bd 93 5d 1a be 44 bc 60 3e
       -0.42371485 -0.035711233 -0.15074758 0.21946818
000250 8d 32 d1 3d 4d 44 99 bc d1 92 d1 bd ec 3b d4 bd
       0.1021472 -0.018709326 -0.10233081 -0.10362992
000260 4d 6e 66 3e c3 2d 83 bd 95 2b f5 3d d2 55 63 3e
       0.22503014 -0.06405213 0.11971203 0.22200707
000270 f9 ad c1 bd 43 e6 07 3e 2f a0 e9 3e 91 41 f4 3c
       -0.09457011 0.13271432 0.45630023 0.02981642
000280 4f 10 80 bd 19 41 22 bd 53 4c 0d be 21 66 50 3e
       -0.062531106 -0.039612863 -0.13798647 0.20351459
000290 c0 c2 27 be 5c dd da be b2 53 4e 3f 34 13 70 bd
       -0.16382885 -0.4274701 0.8059646 -0.058612064
0002a0 1d 46 f0 bc ad 1b ad be ff 63 24 bd 58 47 7f 3e
       -0.029330308 -0.33810177 -0.040134426 0.24929559
0002b0 1e 57 af bd 3c 4b 17 bd 62 25 84 bd df 4f 6c 3d
       -0.08561538 -0.036936983 -0.06452443 0.05769336
0002c0 0b 83 8f bd 7d da ab bd a3 a7 23 3d fe 0b fd bd
       -0.07007416 -0.08391283 0.039954793 -0.12355803
0002d0 29 c7 2c be de 7a 12 3e 5b bf d6 3d d7 e2 92 be
       -0.16872849 0.14304683 0.10485717 -0.2868869
0002e0 84 24 96 be 91 23 88 3d 1b 9a f4 3d 9d a4 13 bd
       -0.29324734 0.06647409 0.11943456 -0.03604566
0002f0 ed 24 b1 bd d9 74 c3 bd 00 53 cc bd ea ca 57 be
       -0.08649621 -0.09543771 -0.099767685 -0.210735
000300 12 5d 18 be bc 53 53 3e 0a 24 b0 3d c9 89 0b 3e
       -0.14879254 0.20637411 0.08600624 0.1362678
000310 8c 9f a1 3d 6f 0b e7 3e 51 6b 9d be fc 11 4b 3e
       0.07891759 0.4512591 -0.30745938 0.19831079
000320 d0 f5 6e bd 13 90 87 be 8d ad 2f 3e 21 e7 91 bd
       -0.058339894 -0.26477107 0.17156048 -0.071241625
000330 26 0a 55 3e 07 ba 6d 3c b7 7d 09 bf db ef 35 3d
       0.20804653 0.014509684 -0.5370745 0.044418197
000340 f5 26 cc bd f9 c7 01 3e 23 f3 6a bd d8 5d c2 3d
       -0.09968368 0.1267394 -0.05736078 0.094905555
000350 5f a4 28 3c c1 ce bd 3c 05 0a 62 3c 1c ac f2 3d
       0.010293095 0.023169877 0.013796334 0.118492335
000360 cc 33 4c 3e 40 2e e1 bd f2 30 87 3d 2f 78 16 3e
       0.19941634 -0.109951496 0.066011325 0.14694284
000370 23 3b b0 be 12 4e a2 3d 2b d2 3d 3d 62 76 a3 3d
       -0.34420118 0.07925047 0.04634301 0.07981564
000380 fe b8 70 bb 91 ba 29 3d b4 8f 28 be a5 af 48 3d
       -0.0036731358 0.04143769 -0.16461068 0.048995633
000390 eb 23 9b 3d 92 5b 76 3a 75 bf 1a be 80 79 0d 3e
       0.0757521 0.00093978003 -0.15112098 0.1381588
0003a0 13 45 8c bd dc e7 62 be 91 90 36 be 3c fd 69 3d
       -0.06849112 -0.2215876 -0.17828585 0.05712627
0003b0 e3 c8 63 3e 00 58 ff bd 65 47 a8 3e 95 b6 d0 3c
       0.22244601 -0.124679565 0.3286697 0.025477687
0003c0 d3 81 a2 3c 4f 6e cf 3d 2f ec de 3c 8e f2 3f bd
       0.019837296 0.101284616 0.02721223 -0.046862178
0003d0 31 74 a3 bc d9 9c 66 be 54 38 6c 3e 3b c6 9d be
       -0.019952865 -0.2252077 0.23068362 -0.308153
0003e0 61 66 71 be e2 6b 98 3e b9 04 27 be 8a fe 35 3d
       -0.2357421 0.29769808 -0.16310395 0.0444322
0003f0 9d 10 80 3d a8 bf 9b 3d 43 2d 1d 3d 39 a4 aa bd
       0.06253169 0.07604915 0.038373243 -0.08332104

hiden_layers.2.bias f4 [64]
000000 1f c1 ce 3d b2 8f b1 bc 2c cf 7d 3d 06 15 47 bd
       0.10095429 -0.021674965 0.061965153 -0.048604034
000010 8f b5 10 3f a0 9b 5e 3e bb 79 f1 bd 67 f4 93 bd
       0.56527036 0.21739054 -0.11790796 -0.072243504
000020 05 32 2e 3e 02 30 54 3e 80 27 1a bd 30 5a 7a 3e
       0.17011268 0.20721439 -0.037635326 0.24448466
000030 e5 36 10 be 4f 48 94 3d 48 be 15 be 68 e6 58 be
       -0.1408344 0.07240354 -0.14623368 -0.21181643
000040 ed 60 43 3c 8a 00 88 bd 08 7b bb 3d 34 0f 09 3c
       0.011924964 -0.06640728 0.09154326 0.008365441
000050 55 af cc 3c e7 4e 97 bd aa fc 62 bd c6 a5 7c 3c
       0.024985949 -0.07388096 -0.05541674 0.015420383
000060 02 4b 38 3d f4 b3 e8 3d 47 9c 4d bd 31 fd e9 bd
       0.044993408 0.11362448 -0.050197866 -0.114252456
000070 a3 cf f1 be 0e d6 1a 3d 19 4a 95 bc 5e 08 82 3d
       -0.47228727 0.037801795 -0.01822381 0.06349252
000080 cd 39 f2 3c 95 e2 c7 3c c8 0e e8 3d 93 36 b7 3d
       0.029568577 0.024400035 0.11330944 0.08945956
000090 ce 54 01 3e 58 a7 82 bd 82 3d ae bd 2f 56 5e 3e
       0.12630007 -0.063795745 -0.085078254 0.21712564
0000a0 ba 9d 0d be 44 48 6e bd 5b 06 10 3a e6 14 ec bc
       -0.13829699 -0.058174387 0.0005494111 -0.028818559
0000b0 1c af 65 bd 53 51 fe 3d 47 bf 39 3d f2 c4 0c 3d
       -0.0560752 0.12417855 0.045348432 0.03436751
0000c0 fa c9 70 3e ea 77 c1 bc bb 73 29 3e 58 2c cc 3d
       0.23514548 -0.02361675 0.16548054 0.099693954
0000d0 11 78 88 3d b6 39 83 be dc 90 07 be b5 46 f0 bc
       0.06663526 -0.25629967 -0.13238853 -0.02933059
0000e0 7f b8 5c bd fa c0 9e ba af 2c 0b 3e 27 2d 8f be
       -0.053886887 -0.0012111955 0.13591264 -0.27964136
0000f0 e1 99 73 bd 5e 6e a2 bd 80 5c 8a bd f8 b9 32 3c
       -0.059472922 -0.07931207 -0.06755924 0.010908596

hiden_layers.3.weight f4 [64, 64]
000000 38 0e a0 3d 38 19 aa be ec 92 9c 3c 45 3a 81 bc
       0.07815212 -0.33222365 0.019113027 -0.015774855
000010 76 73 e2 bd 38 c5 5a 3d 77 36 21 be 1b 29 2e 3e
       -0.11057179 0.05341074 -0.15743433 0.17007868
000020 f0 48 11 3d 30 1c 1a be b9 ed 95 bd 31 b3 45 3e
       0.03546995 -0.15049815 -0.073207326 0.19306637
000030 aa 73 b1 3e 23 32 21 3d 82 d3 f8 be 91 e3 49 3e
       0.34658557 0.039354455 -0.48598868 0.19715716
000040 ca d9 21 3e da 5c 76 bd 24 3d da 3d 40 e0 91 be
       0.15805736 -0.060147144 0.10656193 -0.28491402
000050 b1 e8 0d 3d ef 71 91 3d 13 38 d3 3d 26 1a a0 3e
       0.03464574 0.07101809 0.1031343 0.3126995
000060 b6 de 0b 3e f8 63 0e be 21 92 72 be 5e 5d 30 be
       0.13659176 -0.13905323 -0.23688556 -0.17223117
000070 a1 bd 10 3e 4e 52 f0 3d 6f dd 1d 3e 09 e3 2a 3d
       0.14134838 0.117344484 0.15416501 0.041720424
000080 1c 3a 15 be 3e 10 4c 3e 3e 0f 53 3e 98 ca 47 3e
       -0.14572948 0.19928071 0.20611283 0.19510877
000090 0b 85 1f 3e 17 65 13 bd 46 05 c8 3e 05 cd 2a bd
       0.15578096 -0.03598508 0.39066523 -0.041699428
0000a0 f9 fa 48 3e 31 f3 be bd 0a e5 ae 3e 57 32 55 3d
       0.19626988 -0.09323729 0.34159118 0.05204996
0000b0 f8 3c 51 be fa ee 87 bc 14 94 61 3e 26 f6 2e bd
       -0.20433414 -0.016593445 0.22029144 -0.042715214
0000c0 3c b4 2c 3b 84 72 ff bc aa ee 73 be 78 79 14 be
       0.0026352545 -0.031182535 -0.23821512 -0.14499462
0000d0 4e 60 f5 3d 43 68 52 3e 32 1a 93 be 37 08 12 3d
       0.11981259 0.20547585 -0.28730923 0.035652366
0000e0 3d 42 59 be c7 1b 1e 3d aa 6f 97 bd a2 1c 27 3e
       -0.21216674 0.03860071 -0.07394345 0.16319516
0000f0 96 ba d2 3e 30 c8 39 3d 7c 43 9a be eb 8c 1b 3c
       0.4115798 0.04535693 -0.30129611 0.009494047
000100 d6 f8 90 3d 0b 20 ab bd ea 87 33 be 07 a8 a8 bd
       0.07078712 -0.08355721 -0.17532316 -0.08235174
000110 1f eb 03 be e7 f7 13 3d 63 1b 49 bd 8f 6a 7e be
       -0.1288266 0.03612509 -0.049098384 -0.24845336
000120 98 73 14 3d 27 99 c2 3d 91 70 b8 3d b5 b6 01 3e
       0.03624305 0.09501868 0.09005845 0.12667353
000130 58 90 f3 bd 75 9a dd bd 0d ca 6c bd 34 38 27 be
       -0.11892766 -0.10820476 -0.05780988 -0.16330034
000140 bd 5a 14 be cb 73 00 be 47 0f f8 bd a4 f8 d1 bc
       -0.14487739 -0.12544172 -0.12112289 -0.025631256
000150 c6 ae 12 3d 04 0a e7 3d 7f 9e 1d be f9 03 93 3d
       0.03581121 0.11281207 -0.15392493 0.07178492
000160 0a 10 1b be cf 34 f1 3d cb e0 94 bd f1 8c 88 bd
       -0.15142837 0.117776506 -0.07269438 -0.066675074
000170 09 40 5a bd fa 56 31 bd cc de 07 3e f4 5a d7 bd
       -0.053283725 -0.043295838 0.13268584 -0.10515395
000180 44 92 fd 3c 25 a9 54 bc 17 3e 19 3e 59 46 19 bd
       0.030953534 -0.01297978 0.14965092 -0.037420604
000190 55 19 32 3e f1 fe 20 be 97 a1 0c 3e 53 50 74 3e
       0.17392476 -0.15722252 0.13733517 0.23858766
0001a0 fd 53 a9 3d d9 61 c9 bc 9f cb e2 bc b6 8b 36 3d
       0.082679726 -0.02458279 -0.027684985 0.044566832
0001b0 f1 83 8a be da ff 60 3e 4e e7 3f be 74 9d b6 bd
       -0.27053788 0.219726 -0.1874058 -0.089167506
0001c0 9d 57 10 3e ab 10 dc bd 30 7f 66 3e c0 7a 8c 3e
       0.14095922 -0.10745367 0.22509456 0.274374
0001d0 b9 6e 85 3e 9d 0a a0 3e bc b4 da bd 8c d2 85 bd
       0.26061037 0.31258097 -0.106790036 -0.06534299
0001e0 f8 63 13 ba 11 04 9a bd 59 fa 2e 3e 3e f5 38 3e
       -0.00056225015 -0.07520307 0.17087688 0.18062302
0001f0 03 e6 91 be 8b 8f 15 3e c6 f8 24 3b fa 60 af bd
       -0.28495798 0.14605539 0.0025172695 -0.08563419
000200 44 e9 27 3d 28 46 19 be 02 fd 61 3e 2b 01 19 3e
       0.040993944 -0.14968169 0.22069171 0.14941852
000210 27 6e ad 3d c6 bb 03 3e 24 6d 45 3d 01 97 04 be
       0.084682755 0.12864599 0.048199788 -0.12948228
000220 c8 8d a6 be af aa 31 bd 73 f6 9d 3d c8 ee 91 3e
       -0.32530046 -0.043375667 0.07713022 0.28502488
000230 62 64 87 be 7e 9d bb 3d 86 57 6b 3e 44 cc 9c 3e
       -0.26443774 0.091608986 0.22982606 0.30624592
000240 74 30 52 be a6 0f ce 3d a9 84 81 3d aa 28 a3 bd
       -0.20526296 0.100615785 0.06324131 -0.079667404
000250 9f 66 74 bd 91 42 3e 3d 72 a6 9f 3e bd 2c 98 be
       -0.05966818 0.0464502 0.31181675 -0.29721633
000260 82 cd 75 be 23 c1 91 bd 2a 6e cf 3c 38 b1 c9 3e
       -0.24004176 -0.07116916 0.025321085 0.3939302
000270 f5 f7 ad bd 5a f6 16 3c 7a ce 95 3d 4f f1 a5 bb
       -0.0849456 0.009214008 0.07314773 -0.0050641666
000280 f3 bf 6d be a2 dd aa bd 30 55 21 be 23 28 e6 bd
       -0.23217754 -0.08343054 -0.15755153 -0.11238124
000290 0c d7 c7 bd 11 2b 14 3d f9 78 bd bd 1e ba 17 be
       -0.09757814 0.036173884 -0.09251589 -0.14817092
0002a0 9e 96 39 3e 2d df b8 3c f6 65 21 bb bf 93 9f bd
       0.18123862 0.022567356 -0.0024627424 -0.07791852
0002b0 5a 77 bf 3d 8e d2 e6 3b f5 1d 8d be 5d 77 7e 3e
       0.093489364 0.007044143 -0.27561918 0.24850221
0002c0 8e e7 21 bd f3 9d 89 bd 50 cd 14 3e b0 00 41 bd
       -0.03952747 -0.067195795 0.14531446 -0.047119796
0002d0 c2 9c 94 bd 09 f9 93 bd ce 7d 53 bc fc e0 ae 3e
       -0.07256462 -0.07225234 -0.012908412 0.34156024
0002e0 ea 8a 15 be e2 6c 2d bd bc a4 b9 bb fb 5d a5 bd
       -0.14603773 -0.042340167 -0.00566539 -0.08074566
0002f0 ef 51 b7 bd 15 12 59 be 28 7b eb 3d 39 11 0b bd
       -0.089511745 -0.21198304 0.114980996 -0.03395197
000300 8f ca 0e 3e 07 fb 3e bb 3a a9 32 3e bf 0b 48 be
       0.13944457 -0.0029141323 0.17447367 -0.19535731
000310 c3 1a 43 3e 1e 1f 89 bd fd ff 42 bd aa 55 55 be
       0.19053178 -0.06695388 -0.04760741 -0.2083346
000320 c0 d3 68 3d 7d 7c b3 3b 6a 0c 1f be be 3f 5a 3d
       0.056842566 0.0054774866 -0.1553208 0.053283446
000330 3b 66 91 3e b3 0a 80 3e 6d e4 8d 3e e2 5b 23 3c
       0.28398308 0.25008163 0.27713338 0.009970637
000340 af 13 08 be dd 41 7b 3e 56 4e ec bc 9d c4 e0 3d
       -0.13288759 0.24536844 -0.028845947 0.10975001
000350 fe e0 c9 bd 98 15 1e bd c7 b2 cf be 11 3f b3 3e
       -0.09857367 -0.038594812 -0.40566084 0.35009053
000360 24 fb 5c be fc 19 93 3e 25 d2 15 3e 25 67 dd 3d
       -0.21580178 0.28730762 0.14630945 0.10810689
000370 6a 7e 86 be 06 10 f5 3d 0b 97 e5 bc 02 09 9e 3e
       -0.2626832 0.11965947 -0.028026124 0.30866247
000380 f8 3b de bd 91 cf 2c 3d 8d ee 70 3e 77 c6 b5 be
       -0.10851282 0.04219014 0.235285 -0.3550298
000390 04 ea af 3e 8a 69 d4 3c 20 69 d3 be 37 0e 0d 3d
       0.34358227 0.025929231 -0.41291142 0.034437384
0003a0 ec 2d 00 be df ed 14 3e 52 8a ab 3c 24 7b db bd
       -0.12517518 0.14543866 0.02093998 -0.107168466
0003b0 75 7a 11 3e 9a 8c 58 3e ea 8b 6a be 76 e4 b2 3c
       0.1420687 0.21147385 -0.22904935 0.021837454
0003c0 9e 36 a7 bb 2d 59 9e 3e ee 45 9f 3d 49 a9 72 3e
       -0.0051029464 0.3092741 0.0777701 0.2369739
0003d0 d0 dc 9f bc 5e 52 a9 3d af 3a 4c bd 28 ff 37 be
       -0.019514471 0.082676634 -0.049860653 -0.17968428
0003e0 a8 79 84 3d 42 1a 11 3e a0 bb 19 3e ef fc ba bd
       0.064685166 0.14170173 0.1501298 -0.091302745
0003f0 68 6d 69 be f4 48 25 bc e2 8c 83 bd 5b c7 8b 3d
       -0.22795641 -0.010088194 -0.06423356 0.068251334

hiden_layers.3.bias f4 [64]
000000 ba 2a fe 3d d5 14 1b 3d fb 54 e9 bd 31 b5 dc 3d
       0.12410493 0.037861664 -0.11393162 0.10776747
000010 c4 c2 f0 bd 66 40 c1 3e ea 5f a3 be 4a 9d de bd
       -0.117558986 0.37744445 -0.31909114 -0.10869844
000020 b1 8a e6 3d a9 ff 99 3e 8c 99 49 3d f7 3f 7f 3d
       0.11256922 0.30077866 0.0492187 0.06231686
000030 4c fd 51 3d c1 a4 02 3c 42 17 52 3d 3c 59 cf 3d
       0.051266953 0.007973851 0.05129171 0.10124442
000040 df f9 d7 bd 48 6a 62 bc a9 d5 04 3e 0f 6c 86 bd
       -0.10545706 -0.013819285 0.1297213 -0.06563579
000050 9b 7d 26 3e 8c df 8b bd 50 fa e6 3d c2 8e 53 be
       0.16258852 -0.068297476 0.11278212 -0.20659927
000060 b9 ea 9f 3d 19 ab ea bd 5a 1c c4 3d 31 a3 25 bd
       0.07808442 -0.114584155 0.0957572 -0.040438835
000070 46 57 26 3d 80 26 68 3e d8 40 d2 bc d9 b5 8a bd
       0.040610574 0.22670937 -0.025665686 -0.06772966
000080 21 77 0c 3e 17 b2 ac 3d 13 15 69 bd c6 b3 a9 3d
       0.13717319 0.084324054 -0.056904864 0.08286242
000090 0f 6c 86 3e 5a 88 be bb 71 f4 25 be bf a6 86 bd
       0.26254317 -0.005814594 -0.16206528 -0.06574773
0000a0 c0 6d 92 3b f5 bb df 3c fd 30 1f be 3b 25 7e 3e
       0.0044686496 0.027311305 -0.15546031 0.2481889
0000b0 aa c5 5c bd a6 07 d8 bc 7d e3 05 bd 50 de 72 be
       -0.053899445 -0.026370835 -0.032687653 -0.23717618
0000c0 0d 89 e3 3d 31 fb 2b 3e 29 45 70 3e 00 bd 34 be
       0.11110125 0.1679504 0.23463883 -0.17650223
0000d0 10 29 80 3e cb f8 96 3d 1e 60 02 bd 4e 00 44 3b
       0.25031328 0.07371672 -0.031829946 0.0029907408
0000e0 86 3c 7d be 95 0e 7b bd 4e 78 9d 3c 08 fd 9c 3c
       -0.24730119 -0.061293203 0.019222405 0.019163623
0000f0 da eb 90 3e b4 d2 0e 3e 97 60 e9 3c 3c 50 a1 3d
       0.2830494 0.13947564 0.02848844 0.078766316
