results/13_less_points_around/epoch295/model_weights.pth (torch, 486655 bytes, 88 tensors)

init_layer.0.weight f4 [64, 5]
000000 75 28 24 be e3 86 33 3e d2 8f af 3e f2 db 82 be
       -0.16031058 0.17531924 0.34289414 -0.2555843
000010 8d 1d 4d be 19 df a8 3e 9f 53 87 3e bf d6 9f 3e
       -0.20030804 0.3298271 0.26430985 0.31218526
000020 35 02 89 bd d7 fd 71 be aa c3 8d be 87 08 80 3d
       -0.06689874 -0.23631988 -0.27688342 0.062516265
000030 cd 51 98 be 2b e2 8e be ad 8f 34 be 06 24 01 be
       -0.2974991 -0.27906927 -0.17632933 -0.12611398
000040 16 ce 31 be 60 1f 42 3e 78 62 96 3e 02 77 d2 bd
       -0.17363772 0.18957281 0.29372 -0.10276605
000050 5d fb b8 be 72 4e 00 be bd f9 a7 bc da ec 21 3e
       -0.36129275 -0.12529925 -0.020504827 0.15813008
000060 24 3b 5c 3e ba d5 4b 3e de 6d 26 3e 18 89 a8 3e
       0.21506935 0.19905749 0.16252849 0.32917094
000070 ae 7a 37 3e 59 41 59 be b1 dc dd 3e 11 96 82 be
       0.17917892 -0.21216334 0.43332437 -0.25505117
000080 f1 e5 6d bd f8 08 07 be 0d cd 8f be 12 8f 11 be
       -0.058080617 -0.13187015 -0.2808613 -0.14214733
000090 4c 96 2f 3e c5 c6 05 3e c4 ce 23 be 91 83 82 3e
       0.17147177 0.13064106 -0.15996844 0.25491002
0000a0 5d bc 1a be 3f bd fb bd 5b d7 4d 3e 25 c8 5d 3e
       -0.15110917 -0.12291955 0.20101683 0.2165838
0000b0 64 f9 fb bd 91 6c 34 be 34 dd 4b be e0 50 02 be
       -0.12303427 -0.1761954 -0.19908601 -0.12726164
0000c0 bf e7 f2 3c 19 01 86 be bf 46 36 bd 01 d9 2e 3d
       0.02965152 -0.26172712 -0.044501062 0.04268742
0000d0 ef 3d 02 3e 81 8c 6b 3c 92 4d 8e 3d 10 f0 12 be
       0.12718938 0.01437676 0.06948389 -0.14349389
0000e0 3a a1 30 be e3 c3 5c 3e 76 76 9d 3c a9 50 0e bd
       -0.17249003 0.215591 0.019221526 -0.034744892
0000f0 da 74 5a be 2f dd 93 be 63 6f 2b 3d f4 5b c2 3d
       -0.21333638 -0.28879687 0.041854274 0.09490195
000100 f5 ef 81 3e ca b2 03 be c1 ec 26 be 2b fd 5c 3b
       0.25378385 -0.12861171 -0.16301252 0.0033720236
000110 20 9b 61 3d 4b 96 64 3e 85 eb c9 3d 58 a7 1d be
       0.05507958 0.22322957 0.09859375 -0.15395868
000120 54 f8 03 be 2c 6a 99 bc 96 b7 8f be 0f 50 72 bd
       -0.12887698 -0.018727385 -0.28069752 -0.05915838
000130 35 69 1a 3e 31 c3 8d 3e d7 5e ef 3d a3 0b 60 be
       0.15079196 0.27687982 0.11688011 -0.21879439
000140 b1 db 56 be 6a 7a 20 3d 31 3c 54 bd 6b d5 16 3c
       -0.20982243 0.039179243 -0.051815215 0.009206156
000150 6e 8a 99 3d ea 14 63 3e 0e 44 21 3e dd 2c cc bd
       0.074971065 0.22175947 0.15748617 -0.099694945
000160 32 88 2a 3e 3a cf 1f be 23 67 e2 3c 1f da 6c bc
       0.16653517 -0.15606394 0.02763707 -0.014456301
000170 cc 84 79 be 6f 9b 65 3e 17 70 1a 3e d1 ad 2e 3e
       -0.24367064 0.22422574 0.15081821 0.17058493
000180 14 7b 0f be ac c8 97 3d eb ad 55 3e 06 1a 9f 3d
       -0.14011794 0.07411322 0.20867126 0.077686355
000190 9a 73 fe bd 01 25 97 be 0e 0a c7 3c c5 fc be 3d
       -0.12424393 -0.2952042 0.024296787 0.09325556
0001a0 bc 0c 4f be f2 91 eb bd 56 74 8a 3e 1b 13 ae 3d
       -0.20219702 -0.11502446 0.27041882 0.08499738
0001b0 9d 9e ec bd 12 de 6a be df 84 7f 3c 3b fd 63 3e
       -0.115536906 -0.22936276 0.015595644 0.22264569
0001c0 c8 a6 85 3c f9 37 8a be a7 c5 0a 3e da 7b 0b be
       0.016314879 -0.2699583 0.13551961 -0.13621464
0001d0 6d f5 01 3e d8 1a 07 3e c0 1b d4 3d 8e 27 76 be
       0.12691279 0.13193834 0.103568554 -0.24038526
0001e0 22 71 0d 3e 18 cd 9b bd b7 bd 98 3d 46 17 f1 3d
       0.13812688 -0.07607478 0.0745806 0.11772017
0001f0 a6 d1 46 3e f6 15 80 3e f3 58 4d 3e a0 8d 82 3d
       0.19415912 0.25016755 0.20053463 0.06374669
000200 7c 8a 52 3e b2 d3 99 3d 6d e8 f4 bd 2c 89 8b 3e
       0.2056064 0.07511081 -0.11958394 0.2725309
000210 c3 38 19 bd 5c 3d a0 bc ea 3d f7 3c 3b 82 3e 3e
       -0.037407648 -0.019560508 0.03018089 0.18604366
000220 3e 7f 16 3e 14 aa 5e be 79 36 f6 3d b2 b7 1e 3d
       0.14696977 -0.21744567 0.120221086 0.038749404
000230 e9 f2 05 be 60 5c 37 3e b5 cd 84 be 48 33 92 3d
       -0.13080944 0.17906332 -0.25938192 0.07138687
000240 3c 35 35 3e 05 ff e0 3c 5a a1 59 be ab f6 45 bb
       0.17696089 0.027465353 -0.21252957 -0.003020684
000250 fb e9 33 bd 21 01 9b 3d 4c 9c 81 be d3 a8 fb bd
       -0.043924313 0.07568575 -0.25314558 -0.1228806
000260 8d 71 74 3d 07 56 0c 3e 62 96 82 be 37 82 6d be
       0.059678603 0.13704692 -0.25505358 -0.23194204
000270 5b 39 97 3e db b9 fe 3d 06 ba 6d be bc 37 03 bd
       0.29535946 0.12437793 -0.23215494 -0.032035574
000280 9b 20 b1 3e 95 4e 3f bd 86 86 94 3e be 07 d6 3d
       0.34595188 -0.0467058 0.29008883 0.104506955
000290 09 a7 7c 3b ae 10 3a bc ba b7 86 be 61 bb f4 bd
       0.003855171 -0.011356516 -0.26312047 -0.11949802
0002a0 1f a8 2d 3d 13 4f 9f bc 6c dc df 3d 43 31 3a be
       0.04239666 -0.019446885 0.10930714 -0.18182854
0002b0 1b a0 76 bd ee 6c 39 3d 11 f3 c9 bd 35 c4 44 3e
       -0.060211282 0.0452699 -0.09860814 0.19215472
0002c0 2c ab aa 3d c0 e7 cb 3d fa ec 8d be 81 6a ed 3d
       0.0833343 0.09956312 -0.2771986 0.1159258
0002d0 57 40 61 be 71 b2 67 3d ca fa be 3d 16 f2 5d 3e
       -0.219972 0.05656666 0.09325178 0.2167438
0002e0 bf ca 78 3e c7 d2 05 be 40 67 26 be f3 9e d5 bd
       0.24296091 -0.13068686 -0.16250324 -0.10430708
0002f0 8c 82 37 be 1e 5b 4b be 2e ea 60 be 02 72 c8 bd
       -0.17920893 -0.19858977 -0.21964332 -0.0978737
000300 1c fc 1b be 7e f5 f2 bc 8f f9 7c 3d 2d 83 4d be
       -0.15232891 -0.029658075 0.061761435 -0.20069571
000310 03 c3 89 3e 6d 55 b2 3c 48 f4 1e be 22 45 b4 3d
       0.26906595 0.02176925 -0.15522873 0.088022485
000320 45 53 b5 bc 76 86 0e be 36 a6 80 3e 7a 00 42 3e
       -0.022134433 -0.1391848 0.2512681 0.18945494
000330 e9 86 62 3d 86 96 35 3e 03 5c c6 3d d2 9a 1b be
       0.05530444 0.17733201 0.096855186 -0.15195778
000340 55 35 9c 3d 42 a4 1d 3e 3c 19 5e 3e 6f 07 0c bc
       0.0762736 0.1539469 0.21689314 -0.008546694
000350 b6 b4 1d be b3 e3 73 3e 57 d3 87 be 7d 96 f6 bd
       -0.15400967 0.23817329 -0.26528427 -0.12040422
000360 d5 d8 a2 3d db ae 44 3e 77 7a 66 3e 29 06 16 3e
       0.07951514 0.19207327 0.22507654 0.14650787
000370 77 42 ab bb 9d 2f d8 bb 98 72 6c be 0f 3b d5 3c
       -0.005226429 -0.006597473 -0.23090589 0.026029138
000380 cb ac 31 be 47 15 73 3e 4a fd 45 be 59 29 88 3e
       -0.17351072 0.23738585 -0.19334903 0.26594046
000390 57 8b 86 be 06 58 61 be 84 0a a3 3e b2 e8 a0 be
       -0.26278183 -0.22006235 0.3184396 -0.31427532
0003a0 e1 b4 63 be 4d dc 3e 3e 39 1d f5 3d 0c b7 7d be
       -0.22236969 0.18638726 0.119684644 -0.24776858
0003b0 1f 3b 3b bd f0 2e e1 3c 52 42 cf 3d e3 1c 80 3e
       -0.04571068 0.027488202 0.101200715 0.2502204
0003c0 3d cb 1d 3e 71 f3 89 3d e4 74 2d be 1f ad 2f 3e
       0.1540956 0.06735886 -0.16939121 0.17155884
0003d0 35 45 92 be 8d 36 0e 3e 14 18 ad 3c 3f a0 92 be
       -0.28568426 0.13887997 0.021129645 -0.28637883
0003e0 f7 fd 8e be 56 64 48 3e 30 45 12 be 86 94 b0 3e
       -0.27928135 0.19569525 -0.14284205 0.34488314
0003f0 e3 49 17 be 35 48 7b 3e 95 dc b0 bd 60 50 d3 be
       -0.1477428 0.24539264 -0.08635823 -0.4127226

init_layer.0.bias f4 [64]
000000 3b 7c 90 3c 2e c9 ce 3d 46 f3 c7 bd a3 43 b6 bd
       0.017637363 0.10096966 -0.097631976 -0.088996194
000010 b3 6d bb bd 4f 3a cf b9 7e 47 41 3b 54 0b ce 3d
       -0.09151783 -0.0003952556 0.0029492076 0.100607544
000020 b9 3f b2 bd 55 8a a8 bd dd 12 8c 3d 81 0f 5d 3e
       -0.087035604 -0.0822951 0.068395354 0.21587946
000030 e7 f4 c2 3d ea c5 a2 bd 06 2a 6f 3c 4c 5a ca bd
       0.09519368 -0.07947905 0.0145974215 -0.09880504
000040 fd 08 c8 bd 56 d8 72 3c 2a 8e 13 be 8f 83 bb 3d
       -0.097673394 0.014822086 -0.144097 0.09155952
000050 1b 10 f5 bb 83 ba 90 bd e9 e7 f0 3d 0b aa 2c 3d
       -0.0074787266 -0.07066824 0.11762983 0.042154353
000060 76 62 40 3d 39 c4 8a 3d 29 5b 2e 3e 98 2d 17 3e
       0.0469689 0.06775708 0.17026962 0.14763486
000070 26 dd 05 bd 83 41 de 3d 5f fe c6 3c 7f 6a 2a bc
       -0.032681607 0.10852339 0.024291215 -0.010401367
000080 d4 db 2c 3e 0f 93 04 be 70 ef 23 be df 67 26 bd
       0.16880733 -0.12946723 -0.16009307 -0.040626403
000090 7a 9c 25 bd e7 62 00 3c 17 a4 0c 3e 89 09 00 3e
       -0.04043243 0.00783608 0.1373447 0.12503637
0000a0 c7 a1 1a be 91 7c 4e 3d 28 52 0f 3e b9 85 dc bd
       -0.15100776 0.050411765 0.13996184 -0.10767693
0000b0 ad 62 39 3d 76 68 a9 3d 3e ff 8c 3a d1 07 26 3e
       0.04526012 0.082718775 0.001075722 0.16213919
0000c0 85 c7 af 3d 43 c2 16 3e 00 c7 ee bd a4 c3 1b 3e
       0.08582977 0.14722542 -0.1165905 0.1521135
0000d0 87 db ff 3d e6 92 1d 3e ba 8d 9c 3d 8a 04 26 bc
       0.124930434 0.15388069 0.0764422 -0.010132918
0000e0 d7 4b ab bd 18 ae 46 3d 06 b8 86 bd 74 71 ad bd
       -0.08364075 0.048505872 -0.065780684 -0.08468905
0000f0 ce 50 de 3c 28 ed 8a bd 01 e2 ff bd d0 ed 5c bc
       0.02713814 -0.06783515 -0.12494279 -0.013484433

hiden_layers.0.weight f4 [64, 64]
000000 02 1b ef 3d d6 a8 f8 3d 25 a2 4a 3e b3 fc df 3d
       0.11675073 0.12141578 0.19788416 0.109368704
000010 31 a8 2a be 6c 90 6b bd f8 e1 57 be f5 a8 04 3d
       -0.16665722 -0.05751078 -0.21082294 0.032387692
000020 ee 9f d2 3d d4 58 14 3e 47 7d bd 3c 08 16 10 bd
       0.102844104 0.1448701 0.023131026 -0.03517726
000030 c5 47 d3 bd b0 51 11 3e ab 9c 22 be 33 23 7f bc
       -0.10316423 0.14191318 -0.15880077 -0.015572357
000040 87 d6 b2 3d bd 9b 47 be d1 ca f4 bd cb 88 ca 3d
       0.08732324 -0.19493003 -0.11952747 0.098893724
000050 03 d0 46 3e 72 e2 03 be 81 75 59 3e 12 59 19 be
       0.19415288 -0.12879351 0.2123623 -0.14975384
000060 4f ab e4 bd f6 e5 88 bd e4 20 31 bc 74 60 5e be
       -0.11165487 -0.066844866 -0.010811064 -0.21716481
000070 86 e1 47 3e d0 e8 26 be 32 50 31 be fc 82 d9 bc
       0.19519624 -0.16299748 -0.17315748 -0.026551716
000080 7e 71 44 be bc 58 f1 bc 6a 65 78 3d 74 76 8a 3d
       -0.19183919 -0.029461257 0.06064359 0.067608744
000090 a3 51 0c be 9f 24 50 3e b9 71 08 3e ce 05 44 3d
       -0.13703017 0.2032647 0.13324632 0.0478571
0000a0 95 6a af 3d c0 37 4f be 5f 90 15 3d f2 43 07 bd
       0.08565251 -0.2023611 0.036514636 -0.033023782
0000b0 13 64 9e 3d 6a 6b 3b be 3e 44 f5 bd e3 fc 26 3c
       0.077339314 -0.18302694 -0.11975907 0.010192129
0000c0 9c 41 0d 3e 53 e2 0b 3e 70 c8 00 be a0 18 be 3d
       0.13794559 0.13660555 -0.12576461 0.092820406
0000d0 4c a4 f2 3d 55 ac a4 3d d3 2c 62 be ec 85 0e be
       0.118477434 0.08040682 -0.22087412 -0.13918275
0000e0 e4 2c 31 bd 36 cd 99 bd 29 85 36 be 27 3c d1 bb
       -0.0432557 -0.07509844 -0.17824234 -0.0063853445
0000f0 4a ea 53 be 95 85 28 bd 99 b9 a7 3d 4a 79 2a 3e
       -0.20694843 -0.04114302 0.08189697 0.1664783
000100 58 1e 9b bd 23 ad 56 be 6f 73 bd bd 67 15 c9 3d
       -0.07574147 -0.20964484 -0.09250533 0.09818535
000110 17 a8 a8 3d 41 cb 33 be 3c 8b 19 be d8 97 5d bd
       0.082351856 -0.17558004 -0.1499452 -0.054099888
000120 48 1a e7 bd 99 96 5c bd c1 93 7b 3d 4e a9 23 be
       -0.112843096 -0.05385456 0.061420206 -0.15982553
000130 47 b1 14 be 77 b3 a4 bd 6a 82 7c 3c ba 7e 11 be
       -0.14520751 -0.08042043 0.0154119525 -0.14208499
000140 f3 b1 1d 3e fd 7d 90 3d 8d 5e f8 3d 05 ff cc bd
       0.15399913 0.0705528 0.12127409 -0.100095786
000150 c5 43 9f 3d d8 29 1f bd 0e bd 2f be 02 5b 73 be
       0.07776598 -0.038858265 -0.17161962 -0.23765185
000160 49 2d 94 3d e4 41 3a be 34 fb 45 be 6c 53 c5 bd
       0.072352 -0.18189198 -0.19334108 -0.09635052
000170 b9 e8 37 be 2e 34 09 3e 50 70 a5 3d 4c c4 1c 3e
       -0.1795987 0.13398811 0.080780625 0.15309256
000180 ab d4 48 3e 77 e3 b6 3d d6 c8 4b 3e 4e 52 4a be
       0.19612376 0.08930104 0.19900832 -0.19757959
000190 8f 30 e5 3d 03 98 8b 3e ad f4 0d 3e c2 c3 62 be
       0.111909024 0.27264413 0.13862868 -0.22144988
0001a0 ac 33 27 be 5e 57 82 be be 31 e0 bb 9b a8 32 3d
       -0.16328305 -0.2545728 -0.006841867 0.043617826
0001b0 d6 e9 f3 bd ee b8 5e 3c 94 f6 6b be e2 36 86 3d
       -0.11909835 0.013593895 -0.23043281 0.06553437
0001c0 c6 03 01 3c be f5 31 be e1 bb cd 3d f7 2d 2e be
       0.007874435 -0.173789 0.10045601 -0.17009722
0001d0 38 eb 76 bd 67 30 26 be 88 17 bd bd 75 a7 82 bc
       -0.060282916 -0.16229402 -0.09233004 -0.01594899
0001e0 02 80 fe 3d 1c 2b a7 bd b5 05 93 3e a4 cc 7c 3d
       0.12426759 -0.08162519 0.28715292 0.061718598
0001f0 32 1c 9f bd 25 19 2f be b4 8f 58 3e ab cc 43 be
       -0.0776905 -0.17099436 0.21148568 -0.19121043
000200 46 75 da 3c 9b a3 2d bd 4a ca 27 be 57 e4 31 be
       0.026667248 -0.042392354 -0.16385761 -0.17372261
000210 fc d2 db 3d 07 5f b6 3d 2f 64 11 be 6e 8e 3b be
       0.107336015 0.08904844 -0.14198373 -0.18316051
000220 1d a5 18 3e 4d ec 16 3e b2 ac cf bd 3c 7e f7 3d
       0.14906736 0.14738579 -0.10140361 0.12084624
000230 43 9c 1a bd 9c 8b b5 3d 46 be c6 3d 88 e8 90 3d
       -0.03774668 0.08864519 0.097042605 0.07075602
000240 0f 9f 03 bd 92 ef 26 3e 72 0f 00 bd 7f 56 02 3d
       -0.032134112 0.16302326 -0.03126473 0.03182077
000250 ea 72 b1 3d d7 b7 3b be 64 4f 84 bd cc a9 e1 bd
       0.08664496 -0.18331848 -0.06460455 -0.11018714
000260 77 17 ed 3d 39 b7 68 3d 9a 79 00 3e ad 71 9b 3d
       0.11576741 0.05681536 0.12546387 0.07590041
000270 ed 17 0d 3c 66 2d 26 3e 98 46 19 be 20 c2 3b be
       0.008611661 0.16228256 -0.14968336 -0.18335772
000280 2f b6 1f 3e 31 61 dd 3c 47 79 f6 3c 2c 54 18 3d
       0.15596841 0.027023884 0.030087126 0.037189648
000290 8a a2 65 be 24 0c 8f 3d ac 17 5b bd ee b3 16 3e
       -0.22425285 0.069847375 -0.053489372 0.14717075
0002a0 7d 97 ff bd 52 ee 12 3e 3e 38 62 3d 6f de d9 3d
       -0.12480066 0.14348724 0.055229418 0.10638129
0002b0 27 79 1d 3e 4c 6e c2 bd b8 ed 69 bd 4a cc 7c 3d
       0.15378247 -0.09493694 -0.057111472 0.061718263
0002c0 c9 d4 45 3e 3a 72 a3 3d 43 b8 12 3e d5 a7 4b be
       0.19319452 0.07980771 0.14328103 -0.19888242
0002d0 1e 91 d7 bd e0 a9 29 3e e8 93 90 3c 9b 0b 14 be
       -0.10525726 0.16568708 0.017648652 -0.14457552
0002e0 3d 4d de 3b 42 c7 8c 3d 13 df c7 bd 44 f3 df bc
       0.00678411 0.06873943 -0.09759345 -0.027337678
0002f0 31 79 02 3e 50 99 7c 3d 2f 67 2c 3d 42 67 71 be
       0.12741543 0.061669648 0.04209059 -0.23574546
000300 e8 77 62 be 49 f7 c9 3d e1 35 ba 3d 1f de 3b be
       -0.22116053 0.09861619 0.09092308 -0.18346451
000310 41 14 57 be 34 77 12 be 17 69 53 3e c4 6b 26 3e
       -0.2100382 -0.14303285 0.20645557 0.16252047
000320 9d 07 61 be c3 3c 3c 3d 91 57 2a 3e 87 ba f8 3c
       -0.2197556 0.045956384 0.16634966 0.03036238
000330 86 97 2f 3e 70 63 3b be dd f9 18 3e d1 06 10 be
       0.17147645 -0.18299651 0.14939065 -0.140651
000340 de a0 2f bd 0f c0 e6 3d 24 b8 d5 3d 80 93 2b 3e
       -0.042878024 0.11267101 0.10435513 0.16755486
000350 34 01 b0 bd 18 47 9e bc 34 96 ba 3d fa d5 65 be
       -0.085939795 -0.01932101 0.0911068 -0.22444907
000360 9f 8b 6b 3d d1 5c 80 bd df 1b 12 3e 4f 69 b0 3d
       0.0575062 -0.06267703 0.14268444 0.08613836
000370 7b fc 73 3d 3c ee 42 3d 59 a1 3d 3d 2b 65 b4 3d
       0.059566956 0.04759048 0.04629645 0.08808359
000380 8f 14 65 3c 49 e9 4c 3c 3f d8 0d 3e bf 7e 30 bc
       0.013981952 0.012506791 0.13852023 -0.010772406
000390 72 88 e4 bb 55 57 bf 3d 05 bf 74 3e 73 c2 e8 3d
       -0.0069742734 0.09342829 0.23900993 0.11365213
0003a0 82 b8 2d be 51 ec 23 bc ae b9 8f 3d fd 27 13 be
       -0.16964915 -0.010005073 0.070178375 -0.14370723
0003b0 23 d1 94 3e 9b b1 2c 3e f6 6e 17 3e fc 5a 6b bb
       0.2906581 0.16864626 0.14788422 -0.0035912385
0003c0 d0 2d 94 bd 68 0c 92 bd d6 b0 61 be 4a 65 1e 3e
       -0.072353005 -0.071312726 -0.22040114 0.15468326
0003d0 34 d4 85 3d c5 f2 e9 bc b0 d3 86 3d 3e ed bf 3d
       0.06534615 -0.028558144 0.06583345 0.09371422
0003e0 44 d7 8b 3d 81 2d 8d bd 85 81 76 3e e4 b7 19 3e
       0.06828168 -0.06893445 0.24072845 0.15011555
0003f0 57 df 07 be 5e 9d b7 bd 39 18 20 3e cc 73 f6 bd
       -0.13268791 -0.08965562 0.1563424 -0.12033805

hiden_layers.0.bias f4 [64]
000000 0b 68 45 bd a0 b9 77 bd b9 91 8a 3c f6 4e 9a 3d
       -0.048194926 -0.06047976 0.01691519 0.07534592
000010 62 b0 a0 3d d5 63 8c 3c 65 87 cf 3d 33 a5 b1 3d
       0.07846142 0.017137447 0.10133246 0.086740874
000020 98 35 26 3d 0f d1 c1 bb 28 38 dd bd fd 67 17 bd
       0.040578455 -0.0059148143 -0.108017266 -0.036964405
000030 38 99 d3 bd 99 7d f7 3c 71 12 23 bd b0 55 bb 3d
       -0.103319585 0.030211257 -0.03981251 0.09147203
000040 c9 e4 35 3c 27 b1 ff 3c b2 e0 08 bc 77 1c 91 3d
       0.01110191 0.031212403 -0.008354353 0.07085507
000050 b2 de 99 bd 9a f8 df 3b 64 ad 0f be 2d 0e e5 3d
       -0.07513179 0.0068350555 -0.14030987 0.111843444
000060 89 b1 f5 3c 06 2c 08 3e 91 dc b7 bd 8c db 83 bd
       0.029991882 0.13298044 -0.089776166 -0.064383596
000070 63 e5 34 bd b2 d4 9a 3c fa b7 b0 bd 63 46 37 bd
       -0.044164073 0.01890025 -0.08628841 -0.04474486
000080 25 48 2c be 43 3b a3 bc 70 4b fe 3d 2f d8 93 bd
       -0.16824396 -0.01992572 0.12416732 -0.07218968
000090 c9 4d 1c 3d af 3b 1c 3d 68 91 f8 bc ee 2d 4a bd
       0.03816012 0.038142856 -0.030342773 -0.04936021
0000a0 fb 1e 8c 3d 83 4b c0 3d 65 c3 a7 bd 5c e8 8f 3d
       0.068418466 0.09389403 -0.081915654 0.07026741
0000b0 57 6e 44 bd 6a ea d7 bd 32 c3 4c 3c 74 cd d7 b9
       -0.04795679 -0.10542758 0.01249771 -0.0004116107
0000c0 c0 f6 e8 bc dc f5 23 bd fc 95 b5 bd 24 63 05 3d
       -0.028437972 -0.04002939 -0.08866498 0.03256525
0000d0 71 29 c8 3c 33 7f 97 bb 07 bd 0b be f1 17 17 bd
       0.024433823 -0.0046233176 -0.13646327 -0.036888067
0000e0 95 91 9f 3d 35 df c5 3d 90 26 89 bd 99 0c b2 bd
       0.077914394 0.09661714 -0.06696808 -0.08693809
0000f0 31 f0 6c bd cc 1c 38 bd 65 6e 1f 3d 0e 33 ef bd
       -0.057846252 -0.044949338 0.03892364 -0.1167966

hiden_layers.1.weight f4 [64, 64]
000000 8f 5e f2 bd 06 59 db bc 86 f7 e8 bd 96 27 a6 3c
       -0.11834442 -0.026775848 -0.11375336 0.020282548
000010 46 bf 24 3e c1 da 2a be d8 88 b6 be 8f 8b 3a 3c
       0.1608859 -0.1668501 -0.35651278 0.011385812
000020 bd 58 18 be 11 10 32 be df e5 ef 3d 75 3e 27 3d
       -0.14877601 -0.17388941 0.11713766 0.040831048
000030 b8 d8 cc bd ef 45 45 3d 97 a1 f6 bd 1e c3 82 be
       -0.10002273 0.048162397 -0.120425396 -0.25539488
000040 8f 2f a4 3e e4 ee cf 3d f7 7d 34 be 91 92 26 bd
       0.32067534 0.10152987 -0.17626177 -0.04066712
000050 66 0e da 3d 91 5d 1c 3e b3 f1 e7 bd 33 4c 12 be
       0.106472775 0.15270068 -0.11325397 -0.1428688
000060 69 6d 86 be eb ef 08 3e e3 e3 82 bc 76 d3 4e 3e
       -0.26255348 0.13372771 -0.015977805 0.20197853
000070 29 cf 38 be a8 de f0 3d 90 d5 1d 3e e3 88 d7 3d
       -0.18047775 0.11761218 0.15413499 0.10524156
000080 9a 1c a1 bd 78 99 86 3e bf f0 b9 3d be 1c a9 3d
       -0.078667834 0.26288962 0.09079122 0.08257435
000090 8b e8 df bd ad cc fd 3d 14 da a0 be e8 b3 14 3e
       -0.10933026 0.123925544 -0.3141638 0.14521754
0000a0 14 23 6c 3e 4e 38 32 3e 6a 87 02 3e 11 53 37 be
       0.23060256 0.17404291 0.12746969 -0.17902781
0000b0 f5 a7 8d 3e 89 df 22 3e 80 3a 30 3e 99 3e 66 3e
       0.27667204 0.15905584 0.17209816 0.22484817
0000c0 72 24 66 3e 2e 40 82 be 73 de 86 be b2 9c 3e be
       0.2247484 -0.2543959 -0.2634159 -0.18614462
0000d0 49 54 51 3e a4 d9 68 3e 1b 6b 3c 3e bd 0b 1c be
       0.20442308 0.22739273 0.18400232 -0.15238853
0000e0 83 cc 1f 3e 82 2b c6 bd 69 ad 89 be d3 f9 fb 3b
       0.15605359 -0.09676267 -0.26890114 0.0076896935
0000f0 b2 60 09 3d 4d 0b 59 3e 7e 3f 79 bc 28 78 3e 3e
       0.03353948 0.21195717 -0.015212892 0.18600523
000100 27 42 94 3d e1 b6 98 3d 05 bc 23 3e c1 39 3c 3e
       0.0723918 0.074567564 0.15989693 0.18381406
000110 7a ca de bd d9 9c 40 3e ba b1 7c be 0f 48 0d be
       -0.10878463 0.18809833 -0.24677172 -0.1379702
000120 25 42 16 be 27 0d 1d 3e 02 e2 e8 3b da 33 f4 3d
       -0.1467367 0.15337048 0.0071070204 0.119239524
000130 01 dc e5 3d 8e b3 6d be 25 e6 90 3d 90 30 89 3d
       0.11223603 -0.23213026 0.070751466 0.06698716
000140 9f dc 56 be c2 f6 7c bd eb 72 c5 3d 34 3d 06 be
       -0.20982598 -0.061758764 0.096410595 -0.13109285
000150 10 1b 13 3e d6 93 53 3e 53 21 3e be bb 4e 54 be
       0.14365792 0.20661864 -0.185674 -0.20733158
000160 9e 9d 40 3e 38 07 fc bd 39 1b cc 3d f1 3a ed 3d
       0.18810126 -0.12306064 0.0996613 0.11583508
000170 75 68 8e 3b f7 50 42 be 24 74 55 3e 99 19 66 3e
       0.0043459483 -0.18976198 0.20845085 0.22470702
000180 11 51 58 3d 1a cc 1e be 17 7a e9 bd f1 a8 59 3e
       0.052811686 -0.15507546 -0.1140024 0.21255852
000190 c9 b0 7a 3d 54 ff 5f 3e c8 14 39 be 4e 96 2a 3d
       0.06120375 0.21874744 -0.18074334 0.041647248
0001a0 c8 9b ba 3d cd a6 63 3d 00 f5 79 bd cd 64 1e be
       0.09111744 0.055578995 -0.061024666 -0.1546814
0001b0 c3 de 05 3e 71 f2 b1 3c 20 a1 46 3d c3 21 cc 3d
       0.13073258 0.02172205 0.048493505 0.09967377
0001c0 d1 c0 85 3c 9e a6 ba 3d 90 e3 b4 3d 50 d5 45 3d
       0.016327294 0.09113811 0.088324666 0.048299134
0001d0 36 47 75 3e 2a ec 30 3d df 66 2d 3c 9e 36 30 3e
       0.23952946 0.043193974 0.010583608 0.17208335
0001e0 07 19 09 be 54 8d 18 be 12 1a 20 be ff 41 05 3e
       -0.13388453 -0.14897662 -0.15634945 0.13013457
0001f0 a2 32 17 be 36 9e 11 bd 90 08 e6 bd b8 d5 41 be
       -0.14765409 -0.035551272 -0.11232102 -0.18929183
000200 d4 c3 27 be 0c fe 4d bd 19 2e d1 3d 2a 2c c6 bd
       -0.16383296 -0.050291106 0.102138706 -0.096763924
000210 04 da bb bd 12 4c f3 bd 98 01 78 be bd 42 59 be
       -0.091724426 -0.11879744 -0.24219358 -0.21216865
000220 cc 34 73 be d5 bc 55 bc b6 7b 09 3e 3f 3a cc 3d
       -0.23750609 -0.013045509 0.13426098 0.09972047
000230 6f 53 a8 3d 0c d8 08 3e f1 16 84 bd ff db 66 be
       0.08219039 0.13363665 -0.06449688 -0.2254486
000240 df 10 00 be 34 3d 08 3e 4d 12 67 bd 4e a7 9c bd
       -0.12506436 0.13304597 -0.056413937 -0.07649098
000250 fc 96 09 bd 2f 33 1e 3d 2d b3 d6 bd 8a 3e 09 be
       -0.033591256 0.03862303 -0.10483394 -0.13402763
000260 87 f9 3d 3e e2 fb 2f be d7 28 71 be f5 6e 17 be
       0.18552218 -0.1718593 -0.23550735 -0.1478842
000270 f2 3c 35 be cd b6 da bd 4c f2 a1 3d fe 13 f2 bd
       -0.1769903 -0.10679398 0.079075426 -0.118202195
000280 4a a2 19 3d e7 93 80 3e 14 fa 12 3e 66 0b bf 3d
       0.037508287 0.2511284 0.1435321 0.09328346
000290 a3 ff 35 bd b5 54 c1 3c 44 72 71 be e7 c0 95 bd
       -0.044433247 0.023599962 -0.23578745 -0.07312184
0002a0 07 84 27 be 6b ae 3f be 7e 85 6d 3e 11 a5 94 39
       -0.16358958 -0.18718879 0.23195454 0.00028351744
0002b0 73 b5 ee bd 67 84 d4 bd 27 40 65 3e 81 c6 e6 3d
       -0.116557024 -0.10376816 0.22387753 0.1126833
0002c0 bd f1 ce 3c a1 5e 4e 3e 27 d0 76 3c a7 3b 3e 3e
       0.025261754 0.20153286 0.015064276 0.18577443
0002d0 c7 c3 07 be ae 84 84 3d 73 f7 a1 bd 01 39 e3 3d
       -0.13258277 0.06470619 -0.07908525 0.11094857
0002e0 15 e3 da 3d 40 4b 95 3d d2 e8 b8 3c c8 19 a4 3c
       0.10687844 0.072897434 0.022571955 0.020031825
0002f0 30 78 e3 bd 00 6b 02 3e 65 97 18 be 20 86 23 3e
       -0.11106908 0.1273613 -0.14901502 0.15969133
000300 61 fe 5e 3e d0 d0 38 3e 75 0b a9 bd b3 42 0b be
       0.21776725 0.18048406 -0.082541384 -0.13599662
000310 69 d5 01 be 23 d2 91 3d ae ae 8b 3e ce e1 30 be
       -0.12679066 0.071201585 0.27281708 -0.17273638
000320 0c 95 49 3e 63 83 4f 3e a5 c8 a2 3d 5b 93 62 3c
       0.19685763 0.20264964 0.07948426 0.013829078
000330 6a d0 59 3e 5e 64 02 3e 2a e1 b5 3d ab e3 ed 3a
       0.2127091 0.127336 0.08880837 0.0018149515
000340 ea d9 f8 bd 7c 8a af bd a1 54 5e 3e 9a c4 a6 3d
       -0.12150939 -0.08571336 0.21711971 0.081429675
000350 90 93 16 be b5 d3 3e 3e 94 7e 82 bd 64 28 90 bd
       -0.14704728 0.18635447 -0.06371799 -0.07038954
000360 7d 59 3e bc 86 13 b0 bd c3 04 f3 3c ee 71 b8 3d
       -0.011618015 -0.08597474 0.029665357 0.09006105
000370 c9 bc 2d 3e 0d 45 19 3e 1f 59 ec 3d 66 42 35 3e
       0.16966547 0.14967747 0.11540436 0.1770111
000380 4a 03 b6 3d e2 de 8c 3d f0 0f 53 be 0c bc 7b 3e
       0.08887346 0.06878449 -0.20611548 0.24583453
000390 c8 48 fc bd b1 97 08 be b8 66 6f bd d2 2b ba bc
       -0.123185694 -0.13339116 -0.05844757 -0.022725973
0003a0 9e d8 d5 3d 9d 99 6d be 60 a8 83 3c 22 9d 86 be
       0.10441707 -0.2320313 0.016071498 -0.26291758
0003b0 75 87 18 be 1f 6a d1 bd 2e ec 88 3c b1 94 2f be
       -0.14895423 -0.10225319 0.016714182 -0.17146565
0003c0 69 22 ed bd 53 97 30 3d 47 fb e6 3c 7b e2 34 3e
       -0.11578829 0.043113064 0.02819599 0.1766452
0003d0 a8 d0 7c 3d ac a8 4e be 37 a1 c9 bd c7 24 dc 3d
       0.061722428 -0.2018153 -0.098452024 0.10749202
0003e0 d2 ca 5d be a4 d6 28 be 21 92 13 3e 15 1a 60 3e
       -0.21659401 -0.16488129 0.14411213 0.2188495
0003f0 ec d3 24 be d0 e1 e8 bd 9e fc 4e 3e 29 64 df 3d
       -0.16096467 -0.11371195 0.20213553 0.10907776

hiden_layers.1.bias f4 [64]
000000 3c 36 e7 bc 68 eb 0b bd c8 6e 9f 3d 3b 90 3e bd
       -0.028224103 -0.034160048 0.07784802 -0.046524268
000010 00 2d a7 bd dc f2 a6 bd 10 bb ac bd 66 1f a0 bd
       -0.0816288 -0.081517905 -0.08434117 -0.07818489
000020 f7 ea 80 3d 46 15 71 bc 9b f4 5c 3d 51 00 77 bd
       0.06294816 -0.014714545 0.05394421 -0.060303036
000030 12 0f 3e 3d 2e db 11 3d f5 23 c6 3b bd f5 98 bd
       0.04640109 0.035609417 0.006046767 -0.07468746
000040 db b5 59 3c e3 48 21 3e 98 a0 18 bd 87 8b ab bc
       0.013287987 0.1575046 -0.03726253 -0.020940555
000050 0f 99 ca bd f3 20 a4 bc e0 35 24 3c 94 03 0a bb
       -0.09892475 -0.020035243 0.01002261 -0.0021059262
000060 11 5f 8f bd b7 37 67 bd e9 24 c6 bb 25 bd c5 3b
       -0.07000554 -0.05644962 -0.0060468805 0.0060345107
000070 dc f9 1a bd 37 95 51 3c e8 cf 6a 3d 6d 1d 83 bc
       -0.03783594 0.012791923 0.05732718 -0.016005242
000080 ff 6e 30 3c 8a 0f b3 3c ec e3 23 3d a7 eb a1 bb
       0.010768651 0.021857996 0.040012285 -0.004941422
000090 4b 21 1c 3c 6a de d0 bb ae 96 79 bb 6a 71 12 bb
       0.009529422 -0.00637417 -0.0038084197 -0.0022345432
0000a0 fb d6 cf 3c b8 d4 94 3d b3 16 20 bd 33 95 e5 3c
       0.025371065 0.072671354 -0.039084148 0.028025245
0000b0 f9 9d 9b 3c 76 a8 5c bc 18 a0 91 bc 8d 71 65 bd
       0.018996226 -0.013467899 -0.017776534 -0.056016494
0000c0 a6 68 87 3d aa 02 09 bd 71 8d b7 3d 4a 70 59 bd
       0.06611757 -0.033449806 0.08962525 -0.053085603
0000d0 19 be 2f bd 9d 4c 72 3c 10 7f 84 3d 83 34 cc bc
       -0.0429059 0.014788774 0.06469548 -0.024927383
0000e0 b8 77 97 3c c7 7d 10 bd eb 46 04 3d 4f 90 74 3d
       0.018489704 -0.0352762 0.032294195 0.059707936
0000f0 9d 30 f4 3c 3a 76 0e bd 8d 45 c6 3c c3 c1 58 3c
       0.029808337 -0.03478072 0.024203086 0.01322979

hiden_layers.2.weight f4 [64, 64]
000000 9b b3 f2 bd 6e 47 4a be 04 74 00 be 96 31 60 be
       -0.11850663 -0.19753811 -0.12544256 -0.21893916
000010 cf 83 04 be 8e d6 e4 3c 13 06 a6 bd 88 df e0 bd
       -0.12940906 0.027934339 -0.08106627 -0.10980135
000020 4b fc 40 3e 28 40 83 3d 9f 32 26 bc 91 a9 1d be
       0.18846242 0.06408721 -0.010143905 -0.15396716
000030 ce 6e a0 3d e9 22 4b be 40 79 f1 3d 13 aa 1d 3e
       0.07833634 -0.19837536 0.11790705 0.1539691
000040 95 1a 83 be ec cb 5e be c1 3a b9 3d 6a bb eb bd
       -0.25606218 -0.21757478 0.090444095 -0.11510356
000050 2f 84 6e 3d ff a3 6a be 84 96 d7 bd 32 77 4d 3e
       0.05823153 -0.22914122 -0.105267555 0.20065
000060 95 99 f4 bd 22 31 8e 3d ba 77 dd 3d 0f 07 ca 3b
       -0.11943356 0.06942965 0.10813852 0.006165392
000070 54 a2 db bd f9 b3 2d bd cd fc 4f 3e c9 29 0c be
       -0.10724321 -0.042407963 0.2031128 -0.13687815
000080 6c 75 c8 bd 64 05 6f 3b d0 9f 69 be ae b8 cf 3d
       -0.097880214 0.003647172 -0.2281487 0.10142647
000090 4a 89 a4 3d 78 8f 08 be c3 3d 1f be e1 45 44 3e
       0.08033998 -0.13335979 -0.15550904 0.19167282
0000a0 75 18 0b be f1 ce ce 3d 19 00 4c be 67 34 56 be
       -0.13583548 0.10098065 -0.19921912 -0.20918427
0000b0 57 f3 b4 bd 1a 83 f2 bd ef 8b c0 bd 97 d3 92 bd
       -0.08835476 -0.11841412 -0.0940169 -0.07169264
0000c0 8f 3f 24 3d c3 b8 49 3e ab b7 a8 bb 27 aa 2a be
       0.040099677 0.19699387 -0.005148848 -0.1666647
0000d0 71 23 29 3e 15 42 a4 3d 2b 4c 6f bc f8 e7 7c 3e
       0.16517426 0.08020417 -0.014605562 0.24697864
0000e0 e4 13 0d be ad 7f 54 be f3 c4 72 bd 40 42 73 3e
       -0.13777119 -0.2075183 -0.059269857 0.23755741
0000f0 75 f1 8c bc 1d c5 9b 3d cc 36 75 be 37 ea bf 3d
       -0.01720498 0.07605956 -0.23946685 0.09370845
000100 c8 d7 d6 3d b7 a4 d7 bb 10 97 84 3d 08 64 e3 bd
       0.10490376 -0.006580915 0.064741254 -0.11103064
000110 b7 ca ae 3c af ef 49 bb 7a 4f 12 3e 45 67 9f bd
       0.021336896 -0.0030813029 0.1428813 -0.07783369
000120 f1 30 03 3e ce cb a9 3d 67 44 e1 bd 31 3c ed bd
       0.12811638 0.08290826 -0.10999375 -0.11583746
000130 27 d8 2b bd ac 2c 49 3e 8e 29 05 bd b3 16 cb bd
       -0.041954186 0.19645947 -0.032510333 -0.09916439
000140 c6 d5 ce 3d 46 5f ec 3c 0c ab fc bd b9 18 e2 bc
       0.10099368 0.028854024 -0.12337312 -0.02759968
000150 5c ae e0 3d 9d 4a 37 be cb ad ac 3d 53 8d 58 3d
       0.109707564 -0.17899556 0.08431586 0.052869152
000160 96 7a 64 bc 40 2b c2 3d 10 96 05 be e6 fc 35 be
       -0.013945242 0.094809055 -0.13045526 -0.17772254
000170 30 68 b6 3d 07 b7 72 3d 7e 8a c2 3c 42 c9 8b 3b
       0.08906591 0.05925658 0.023747679 0.004265935
000180 b4 c1 06 be f6 8a 1a 3d 4f e4 af 3d 2a 0f 30 3e
       -0.1315983 0.03773018 0.08588468 0.17193285
000190 54 7e ee bd 74 9e c2 bc 3f a7 66 3e f4 11 ca 3d
       -0.11645189 -0.023757197 0.22524737 0.098667055
0001a0 9b f7 91 3d bc 00 a9 bd 3f 60 fd bd 83 45 43 be
       0.07127305 -0.08252093 -0.12371873 -0.19069485
0001b0 f4 75 14 3d b0 a0 27 be ae 2e 8e 3d ad 66 e5 3d
       0.0362453 -0.16369891 0.06942497 0.112012245
0001c0 03 00 84 be c7 62 d6 bd 9a b5 8c bc 47 f3 52 3e
       -0.2578126 -0.10468059 -0.017176438 0.20600615
0001d0 a1 a4 16 be 7a 22 ae 3d 0b 13 49 bd 1e 22 0d be
       -0.14711238 0.0850267 -0.049090426 -0.13782546
0001e0 7d c5 c2 bd ce f6 16 3d 56 76 16 3d 5a cd d2 3d
       -0.09510324 0.036856465 0.036733948 0.10293074
0001f0 e5 47 29 be c1 32 09 be dd f6 3c 3e 48 05 27 3e
       -0.16531332 -0.13398267 0.18453546 0.16310608
000200 90 b1 65 be 09 3a 93 bc 67 35 b0 3d b4 2e 40 3e
       -0.22431016 -0.01797201 0.08603936 0.18767816
000210 7f 96 0f 3e 86 2e dc 3d ee b2 0f be 1e e0 5e 3d
       0.14022253 0.10751061 -0.140331 0.054412954
000220 a0 48 0b bb 36 8f a4 bd 35 19 04 3c f6 9b bd bd
       -0.0021253005 -0.08035128 0.00806265 -0.09258263
000230 74 31 92 3d ea eb 85 be fb cb 6e 3e 2d 37 79 bd
       0.07138339 -0.2615655 0.2332 -0.060843635
000240 fa 45 30 3e 2f 33 23 3e 96 34 67 be 77 f5 a7 bd
       0.17214194 0.15937494 -0.22578654 -0.082011156
000250 f7 d4 75 bd df 66 91 bd a6 41 22 3e 66 5f 21 bd
       -0.060017552 -0.07099699 0.15845355 -0.03939762
000260 a3 13 35 be 8c b4 78 3d f4 cc 3b be 6e 46 fc 3c
       -0.17683272 0.060719058 -0.18339902 0.030795302
000270 5c 7a 0c be 92 4e 21 3e d1 a1 f2 bd aa e6 82 be
       -0.13718551 0.15752628 -0.1184727 -0.25566608
000280 7d d9 1a 3d 99 21 63 3e 41 db e4 bd 26 ca f1 3d
       0.03780507 0.22180785 -0.11174632 0.11806135
000290 41 76 44 3c ee df 6b bd e1 b3 6b 3d ad 85 37 3e
       0.011991085 -0.057586603 0.057544593 0.17922087
0002a0 8b 27 71 3e 8e bf 9b 3d 32 51 08 be 52 30 35 3e
       0.2355024 0.076048955 -0.13312224 0.17694214
0002b0 c6 22 01 3e 22 11 73 bd 9d a2 04 3c 16 10 a6 3b
       0.12610921 -0.05934251 0.008095411 0.0050678356
0002c0 f1 93 60 3e 1f fd 81 be 29 d6 2a 3e bf 2e 77 3c
       0.21931435 -0.2538843 0.16683258 0.015086829
0002d0 c9 2a 64 be be 73 02 be bf c1 1d 3d 55 0a d0 bd
       -0.22281946 -0.12739465 0.03851485 -0.10158221
0002e0 64 f4 86 3e 62 52 c6 3d b2 e8 7f 3e 34 4c 47 3e
       0.2635833 0.09683682 0.2499111 0.19462663
0002f0 07 0a 7a 3d 35 86 8b be 4c 72 8f bc f2 33 31 3d
       0.06104472 -0.2725083 -0.017510556 0.04326243
000300 c7 aa 55 3e 26 a2 84 3e 5d f7 a2 3d 88 ac 0b be
       0.20865928 0.2590496 0.07957337 -0.13640034
000310 e1 ed d7 3c 62 9e 4e be 1f df 38 3d ee d6 68 bd
       0.026358547 -0.20177606 0.04513466 -0.056845598
000320 65 7d eb 3c d9 99 df bd ca 77 48 be ed 3e 24 3e
       0.028746316 -0.10918016 -0.19576946 0.1603963
000330 36 c9 52 3e 11 d3 87 bd 28 fe dc bd a7 67 b2 bd
       0.20584568 -0.066320546 -0.10790664 -0.08711176
000340 b1 6e 77 3e dd 1f 90 3e 6b d6 a8 3d 12 21 1e bc
       0.24163319 0.2814931 0.08244022 -0.009651439
000350 07 32 af bd 71 1d 1d be 40 ad f8 3d 17 ad f6 3d
       -0.08554464 -0.15343262 0.1214242 0.12044733
000360 da 2b da bd 7b fe 11 be 00 0b 56 be 4a 9c e3 bd
       -0.10652895 -0.14257233 -0.20902634 -0.11113794
000370 df de cf bd a4 de 9c 3e 1d 0f d6 3c 62 d5 86 bd
       -0.10149931 0.3063861 0.026130253 -0.06583668
000380 a5 25 5f 3d 7f 19 b8 3d a3 d4 54 be 8f 5b be bd
       0.05447926 0.08989238 -0.2078424 -0.09294807
000390 d1 94 0e 3e f6 10 05 be 61 28 51 be 14 b7 05 3e
       0.13923956 -0.12994751 -0.2042556 0.1305812
0003a0 e5 e9 a2 bd 65 14 bc bd 24 28 4e 3e df d0 72 3d
       -0.07954768 -0.091835774 0.201325 0.059281226
0003b0 b1 c4 5f 3e 4f 5b 94 3d 70 5c 4f be d0 39 13 be
       0.21852376 0.07243978 -0.20250106 -0.14377522
0003c0 71 c4 c1 3d 83 3b 4a be d7 1c 0b 3e fe 62 4a 3c
       0.09461296 -0.19749264 0.1358522 0.012352703
0003d0 c8 31 11 3e 65 ab 4d 3e 6c 0f c7 3d 54 50 35 be
       0.14179146 0.20084913 0.09719738 -0.17706424
0003e0 96 a7 46 3c a9 60 17 be 3c 92 4b be c5 dc 9c 3e
       0.012124917 -0.14782967 -0.19880003 0.30637184
0003f0 06 94 f6 bd 10 26 16 bc 4a c5 36 be ef 66 07 bd
       -0.12039952 -0.009164348 -0.17848697 -0.03305715

hiden_layers.2.bias f4 [64]
000000 09 1b 08 3d bc a4 98 bc 1c 98 a1 3c 89 03 bb 3d
       0.033228908 -0.018633239 0.019725852 0.09131534
000010 fa 3d e5 3b 3d 20 a6 3d 2d 06 6b 3d 03 67 c2 bd
       0.0069959136 0.08111618 0.057378937 -0.09492304
000020 01 b4 98 bd de 4f 9c 3c 11 28 f7 3c 33 06 17 3d
       -0.07456208 0.019081052 0.030170472 0.036871146
000030 8f 65 a6 3d 51 e5 8c 3c f4 f9 80 bc 92 f9 92 bd
       0.081248395 0.01719919 -0.015744187 -0.07176508
000040 72 5f 83 bc 51 e8 18 3d 3a 0f 0e bd d3 7d c1 3c
       -0.016036723 0.03733093 -0.03468249 0.023619568
000050 94 02 93 bd 0f 8b 1c bd 6e 0b df 3d fb 1a 1b bd
       -0.07178226 -0.038218554 0.10890852 -0.037867527
000060 71 0d fd bc 8f f7 31 39 9a 5d 11 3b 84 0a 31 3d
       -0.030890198 0.00016972258 0.0022181035 0.04322292
000070 57 d6 23 bd 7a 25 9f bd 0e 80 f2 bc d2 4f c0 bc
       -0.039999332 -0.0777082 -0.029602077 -0.023475561
000080 f9 0b 7f 3c 16 c0 80 3d 9a 0e a4 3c 52 e0 d2 bd
       0.015566819 0.062866375 0.020026494 -0.10296692
000090 ae 58 17 bc 09 3f 12 3d 62 72 57 3d ee 3b df 3b
       -0.0092374515 0.035704646 0.05259932 0.006812564
0000a0 49 cf 33 3d 8b be 17 3d 8f cc b1 bc ac e4 6d 3d
       0.043898854 0.03704695 -0.021703986 0.058079407
0000b0 53 a7 ae 3c 9e e7 6b bd d0 7a 6d ba 56 0d 64 bd
       0.02132002 -0.057593934 -0.0009059133 -0.05567678
0000c0 e1 29 c7 3c af fc 26 bd 8c e6 ab 3c f7 65 bb bb
       0.024311962 -0.04076832 0.020983957 -0.0057189423
0000d0 a0 8c 5b bd a0 3d 2a bd 32 89 67 bd 04 67 c5 bb
       -0.053600907 -0.041562676 -0.056527324 -0.0060242433
0000e0 d8 f4 9a 3d e7 b8 f6 3b 29 74 5d 3c df d2 81 ba
       0.075662315 0.0075293663 0.013516464 -0.0009904763
0000f0 b0 87 9b bc 1e 61 aa bc 29 f3 cb bd f4 32 6e 3c
       -0.0189856 -0.020798262 -0.099584885 0.014538515

hiden_layers.3.weight f4 [64, 64]
000000 93 9d 0b bd af fc 81 3e 1e 57 43 bd 75 e5 68 bd
       -0.03408582 0.25388095 -0.047690503 -0.056859452
000010 06 36 88 3e 17 6e 23 be 9f a5 63 be 40 4a 82 3d
       0.26603717 -0.15959965 -0.22231148 0.06361818
000020 10 68 42 3e 45 b2 7a 3d 98 35 13 3e 8b 22 1a be
       0.18985009 0.061205167 0.14375913 -0.1505224
000030 97 10 d2 bd 69 58 60 3e 29 4b 83 3d 6e f4 19 3d
       -0.102570705 0.21908726 0.0641082 0.037586622
000040 bb bf 94 3d bc 46 e7 bc 80 e2 f7 bc ec 6e 89 be
       0.07263132 -0.028231971 -0.03025937 -0.2684244
000050 91 cb 32 3e 23 4e 4c be 12 82 ce bb f5 42 0c 3e
       0.17460467 -0.19951682 -0.0063021267 0.13697417
000060 1a 64 e7 bc 31 7e 59 be fd e2 c2 bc d0 dd 85 be
       -0.028245974 -0.21239544 -0.023789877 -0.26145792
000070 3f ae 39 ba b9 f2 a3 bc ad fd 0c be 92 84 99 bd
       -0.00070831546 -0.0200132 -0.13768645 -0.07495989
000080 b2 56 6f 3c 1f ad 47 bd 9a 9e 24 3e 12 7a 3a 3e
       0.014608072 -0.048749086 0.16076127 0.18210629
000090 13 5d 8e 3d 21 d6 51 be 12 26 b5 3d 93 c5 1c be
       0.06951346 -0.2049184 0.08845152 -0.15309744
0000a0 3b 17 05 be e9 f7 21 be 8e bb c1 bd 96 21 d5 bd
       -0.12997143 -0.15817226 -0.09459601 -0.10406797
0000b0 ca 44 1b 3e 6e ac 5c be ba 21 86 3e 1d 60 86 3d
       0.1516296 -0.21550152 0.26197606 0.06561301
0000c0 51 70 0e 3e 4f fe 6d 3e cd 3f cc bc a6 ce ef bd
       0.13910033 0.23241542 -0.024932766 -0.11709337
0000d0 dc 06 45 3e 43 cc 8e 3d b6 43 16 3e e2 de d6 bc
       0.19240898 0.069725536 0.14674267 -0.026229326
0000e0 06 bb d4 bd 50 50 d0 3d 65 2d d8 bd c9 b0 17 be
       -0.103872344 0.101715684 -0.10555533 -0.14813532
0000f0 59 84 2e 3e df 47 64 3e ee d9 3d 3e 99 a3 c2 bd
       0.17042674 0.22293042 0.18540165 -0.0950386
000100 8e b4 bf 3d f3 4f d3 bd a0 75 67 be 78 ad 01 3e
       0.0936061 -0.103179835 -0.22603464 0.1266383
000110 fa 10 24 3e 5d d0 5e 3d cb 1d d1 bd 2c 24 1d 3e
       0.16022101 0.05439793 -0.10210761 0.1534583
000120 5e d8 94 3e e7 80 b3 bd 3b a3 32 3e fa 46 5e bd
       0.29071325 -0.087648205 0.1744508 -0.054266907
000130 6c 56 c4 3d 01 dc 08 be fc ad 5e 3e 8b 9f 41 3e
       0.09586796 -0.13365175 0.21746057 0.18908517
000140 d5 aa ab bc 70 6d 0e be ff 9d b1 3d 54 ef 88 3d
       -0.020955482 -0.13908935 0.086727135 0.06686273
000150 47 36 7f bd 2d 74 18 3e 23 a9 bc bd f1 4b d6 3d
       -0.062307622 0.14888068 -0.09211948 0.104637034
000160 b8 4b 8e 3c 3b 5a 60 ba 46 5b 56 be 58 0a 96 be
       0.01737009 -0.0008558367 -0.20933256 -0.29304767
000170 20 d4 97 bd f5 04 63 be d0 20 36 be 57 7b db bd
       -0.074135065 -0.2216986 -0.17785954 -0.107168846
000180 2a bc d1 3d 8c 81 04 be 69 cf cc 3d e4 2a 10 3e
       0.102409676 -0.12940043 0.10000498 0.14078861
000190 10 0c 6d 3e 2a 48 ee bd 6d 92 d7 bd 95 34 31 3e
       0.23149133 -0.11634858 -0.105259754 0.17305215
0001a0 5b 30 4f be 65 23 4e be 6c 99 2d 3e 89 bc 52 bd
       -0.2023329 -0.2013069 0.16953057 -0.051449332
0001b0 8b 9d 76 3d 26 9f 83 be 52 fa 81 3d 9a db 08 be
       0.06020884 -0.25707358 0.06346573 -0.13365021
0001c0 3f 70 8e 3c 10 3d ff ba d4 90 27 3d 07 57 99 bd
       0.017387507 -0.0019473154 0.040909603 -0.07487302
0001d0 17 c8 28 be 82 ca bf bd 91 cb e7 bd 29 0f 48 3d
       -0.16482578 -0.09364797 -0.11318124 0.048842583
0001e0 e6 c5 8e 3d 96 c2 16 3e dd 1b b8 3c f4 24 df bc
       0.0697134 0.14722666 0.022474224 -0.0272393
0001f0 bf 96 4a 3e eb 9e 23 3e f9 42 ff bd 0c de dc 3d
       0.19784068 0.15978591 -0.12463946 0.107845396
000200 30 1f 43 be d9 f3 ac 3d 75 a6 31 3e 6f 44 31 be
       -0.19054866 0.08444948 0.17348655 -0.17311262
000210 6b 30 81 3e 8a 13 53 bd 70 4e d2 3d a7 61 86 3d
       0.25232252 -0.051532306 0.10268867 0.065615945
000220 8b 02 1c 3e 89 52 0c 3e 08 ea 28 be c9 05 83 3d
       0.15235345 0.1370336 -0.16495526 0.06397588
000230 8f 18 26 bc a5 4b 43 3e a9 23 83 3d 79 43 27 bd
       -0.010137691 0.19071825 0.06403286 -0.04083583
000240 f4 01 34 3d 2d cd 9f be ef 1e 4a be 9e b2 5c be
       0.043947175 -0.31211224 -0.19738363 -0.21552512
000250 58 a1 51 be f1 1f 9f 3c 87 c0 ff bd 47 3f 05 3e
       -0.20471704 0.01942441 -0.124878936 0.1301242
000260 25 66 76 be 97 de de 3d b5 f0 08 3e 41 4d fa 3c
       -0.24062403 0.108822994 0.13373072 0.030554416
000270 2c 8a 4b be c6 fe 07 3c 7c c3 1a 3e 05 11 15 3d
       -0.19876927 0.008300489 0.15113634 0.036393184
000280 7b 9a b8 be a3 cb 0b be ef e5 30 3e d1 73 15 bd
       -0.3605536 -0.136519 0.17275213 -0.036487404
000290 f5 33 c9 3d 29 5d 44 be 9f 4e 31 3e f0 d6 da 3d
       0.09824363 -0.19176163 0.17315148 0.10685527
0002a0 0e 38 14 be 00 b5 05 bc 53 56 d3 bd 7f f5 4d 3e
       -0.14474508 -0.00816083 -0.103191994 0.2011318
0002b0 40 f0 a2 3e 15 7d 5d be e5 25 f8 bd d7 7a e3 3d
       0.3182392 -0.21629746 -0.12116603 0.11107414
0002c0 89 4a 80 3d c2 ab fa 3d 0c bf 35 be 53 ce 16 3e
       0.062642165 0.122397915 -0.1774866 0.14727144
0002d0 a4 58 c5 3d 03 5d fd bd a2 7e 1b 3e 94 d2 54 bd
       0.096360475 -0.12371256 0.15185025 -0.051958635
0002e0 77 dd 77 3e c3 ab 9b bc b5 eb b7 bd 87 cc 4a be
       0.24205576 -0.0190028 -0.089805044 -0.19804583
0002f0 40 ab 3b be 94 41 31 bd 37 23 ee bc 5a 23 6b bc
       -0.18327045 -0.04327543 -0.029069526 -0.01435169
000300 e5 83 12 be b6 97 4e bc ac c0 d1 3c 85 68 fc 3d
       -0.14308126 -0.012609413 0.025604568 0.12324623
000310 43 a7 5c be e5 80 78 bd a6 da de bd 1c f3 a9 bb
       -0.2154818 -0.0606698 -0.10881548 -0.0051864516
000320 d4 60 1a 3e ad bb 7c bc c9 3d a3 bd ad c5 aa bd
       0.15076 -0.015425605 -0.07970769 -0.08338485
000330 a4 e7 18 3d bf f4 d3 bd d3 7e 92 bd 09 ce be 3d
       0.037330285 -0.10349416 -0.07153096 0.09316642
000340 82 db 19 3d c0 78 d8 3b ca 46 97 bd b7 72 c4 bd
       0.037562855 0.0066061914 -0.07386549 -0.095921926
000350 6a a0 3f be fe f5 62 3e 6b 63 ed 3d f7 8b f0 bd
       -0.18713537 0.22164151 0.11591228 -0.11745446
000360 6d d7 12 bd 29 e6 05 be a9 47 53 bd 0d 50 1c be
       -0.035849977 -0.1307608 -0.051582012 -0.15264912
000370 8c fa 5a 3e 03 47 5c 3e 3e 8b 13 3e e3 5c b8 3c
       0.21384639 0.21511464 0.14408585 0.02250523
000380 bd 2d 01 be 1d 07 98 3d 75 9e 91 bd b3 9c 4c 3c
       -0.12615104 0.07423232 -0.071103014 0.012488532
000390 be 8a 29 3d fc 44 4e be d0 25 08 be 98 bc c1 3d
       0.04139208 -0.20143503 -0.13295674 0.094597995
0003a0 46 13 05 3d 0d 90 52 be 1f 55 1b be 9f cd 01 be
       0.032489084 -0.20562764 -0.1516919 -0.12676094
0003b0 b6 e0 56 3e 17 84 d9 3d 0c 35 4f 3e c3 68 fd 3d
       0.20984158 0.10620897 0.2023508 0.12373497
0003c0 9d 17 48 3e c8 70 fe 3d 33 8e 6b 3e 84 60 4d be
       0.19540258 0.12423855 0.23003463 -0.20056349
0003d0 55 75 82 bd 8f b7 7d 3c e6 09 73 3e 02 44 29 3e
       -0.063700356 0.015485658 0.23734245 0.16529849
0003e0 80 10 98 3d 8b 54 15 be f4 69 b0 3c 69 a0 0f 3e
       0.07425022 -0.14583032 0.021534897 0.14026035
0003f0 b8 aa 0e 3d 0d 84 0c be 9f 0b b2 bd c7 ef 1c 3d
       0.03483078 -0.13722248 -0.08693623 0.038314607

hiden_layers.3.bias f4 [64]
000000 3a 10 7d bd 8c 77 25 bd 7b cf be bc a1 71 36 bd
       -0.061783053 -0.040397212 -0.023292294 -0.04454196
000010 7f 81 83 bd db 67 aa 3d fe 73 f0 bc b0 0a 23 bb
       -0.06421184 0.0832059 -0.029352184 -0.0024878196
000020 7f 5e 8b bd a1 b6 14 be 04 b3 c9 3d 36 3e 2b bd
       -0.06805133 -0.14522792 0.09848598 -0.041807376
000030 f2 28 62 bd 9e 99 79 3c 04 b3 14 3d e1 a1 38 bd
       -0.05521483 0.015234379 0.036303535 -0.045076255
000040 87 19 34 3c c1 51 f4 3c 4f 1d 67 3d 9b cc fe 3c
       0.010992414 0.02982414 0.056424435 0.031103423
000050 2c 01 7e bd ad 89 8a bd 1a da b0 3c 46 e2 2a bd
       -0.062012836 -0.06764541 0.021588374 -0.041719697
000060 0c d2 07 3d a7 9c 04 3d d7 b0 4a 3c 92 73 c3 bc
       0.0331593 0.032375958 0.0123712635 -0.02385882
000070 12 88 a4 bd c0 e3 45 bb 01 2b cc 3d 90 40 fb bc
       -0.08033766 -0.0030195564 0.0996914 -0.030670434
000080 73 c7 ac 3d fa 44 5f bd 16 e1 62 3d 12 a6 ff bc
       0.084364794 -0.05450914 0.05539044 -0.031207118
000090 82 72 17 3d c5 55 a9 3c 5c 54 12 3d 95 98 61 3d
       0.036974438 0.02067078 0.035724983 0.055077154
0000a0 80 20 3a bd 45 90 a1 bd 7d fd d2 3d eb d2 5f 3b
       -0.04544115 -0.07888845 0.10302255 0.0034152817
0000b0 e6 85 1e bd 36 7f 12 3d c4 0f d4 3c 81 08 f0 3d
       -0.038701914 0.03576585 0.025886424 0.11720372
0000c0 2b 6d bf 3b 50 26 61 bd f4 4f 66 3d ee 6e bd 3d
       0.0058418713 -0.05496818 0.056228593 0.09249674
0000d0 e8 82 1c bc 9a 4b 72 bd bf 60 d0 3c cc bd 2c bc
       -0.009552695 -0.05915413 0.025436757 -0.010543298
0000e0 03 af 8a 3d b5 fb be 3d 08 b5 ed 3c 29 22 42 bc
       0.06771662 0.09325353 0.029016986 -0.011848965
0000f0 26 ba f0 3c ae d6 06 be 9b 4a b0 bc 22 f8 e8 bc
       0.029385637 -0.13167831 -0.02151995 -0.028438631
