results/16_like_15_with2/epoch40/model_weights.pth (torch, 486655 bytes, 88 tensors)

init_layer.0.weight f4 [64, 5]
00000000: f77b d0bd c21e 88be d6a5 85be 54a9 823e
00000010: e624 4dbd 00c2 3cbe 44e4 58be a359 e8bd
00000020: 3f2f c9bd f721 853e b01b 3a3e cfae 3bbd
00000030: 7485 5dbe f8f4 633d c02e 81bd 7642 f33d
00000040: e509 32be 8887 933d 9a93 0b3e 6d32 bebd
00000050: 4977 9e3e 941d 613e 066f abbe 61f7 8f3e
00000060: 8aab c03d 2335 a33e 668e 103e a242 7d3e
00000070: 4c86 edbd 032f 38be 1bbe 06be 0ef2 37be
00000080: 4728 673d f91d 213d 6ae7 42be 34e6 91bc
00000090: 9bc0 943e 2588 d4bc 0c55 85be a374 fdbd
000000a0: 7f2c 6fbe 6cf0 6f3e 5be1 77be 4102 8a3e
000000b0: 3387 11be f599 92be b2e6 a23e d20d 3bbe
000000c0: cc0d 95be af07 3cbb 16a0 553e f823 5a3d
000000d0: 1e5d 7b3d 9515 623e 60fa 95be 03c1 e0bd
000000e0: 064a 4abe 3050 d9bd d3ca 36bd ea1c 8abe
000000f0: e7ff b0bd 0e75 0c3e f44a 76be c712 8dbe
00000100: 4519 67be 113e 71bb 9d6e 90be ee4b e0bc
00000110: 9891 d9bd edf9 8abc c1f8 973d 95d9 b5bd
00000120: 4b21 a5be 31ee 8bbd 21c1 02be aa6e bc3c
00000130: 203b 163e 4e91 d33c 3bd0 d03d ce0e 8f3e
00000140: 7a89 313e 081b 8a3e 0e63 fbbd 7da6 b7bc
00000150: 82c3 713e 298f 62bd 4ffc ec3b 7aba a63e
00000160: 82a2 21bb 31d8 adbd 31c3 52be af8b 92bc
00000170: 037f d03d 4f4c 893e cbd2 a1bd e255 4e3e
00000180: 9fcc cfbd 582d 04be 1439 3abd 9091 6abe
00000190: 7ce1 7cbd 9b65 e83d 9b68 a13e 9632 3fbe
000001a0: e6aa 043e 0d03 193d fe0f 013e a021 5b3e
000001b0: 293e 843e 382c ed3d f394 3a3d ef0e 84be
000001c0: 7de7 1d3e b2cc 923b 3440 49be b2ee 6cbe
000001d0: 35a2 723e 9ef2 cebd 0187 7fbe 8ec6 0d3e
000001e0: f8b1 23be a559 8f3d 7c4a 863e 9129 cabd
000001f0: ac71 313d 8581 63bd 535e b23e 4287 2abe
00000200: ebe8 6fbe a5d2 b63d 36a6 35be fd78 ae3d
00000210: 3b4d 093e 0c39 913d eada 5abe 6cb3 873e
00000220: 758f 8e3d fb84 813e 4f8b 163e 18d4 2dbe
00000230: 5c51 893d e195 bfbd 3767 ac3c eb91 80bb
00000240: 89ce 8a3e 8ffb d0bd da9b fcbd 7b45 7ebd
00000250: 8ff3 b73c cc4f 773e 7947 2abe 1883 d23c
00000260: 5b10 083e 73a5 283e 2855 8a3e 06a9 5bbe
00000270: 0fe1 30be dcd8 033c 60c8 15be 7626 84be
00000280: cf0e 85be 2b58 ad3e a2f9 e53c 1334 953e
00000290: 3d30 0f3e 23e3 3cbd cc01 e33c 9b44 283e
000002a0: fd93 533e e510 5fbe ed5d 88be 90ce 823e
000002b0: 7bb4 043e e3bc 413d baa7 943e 1cf2 9cbd
000002c0: 80db 1b3e df28 0a3e 7638 f3bc c6d2 5bbe
000002d0: 3a7e 53be e5ea 63be dc93 a93d 14d1 9e3d
000002e0: b299 e0bd 8172 02be 231a d23d d7cd 433e
000002f0: 28be 5ebe 28a2 953e eb0e 863e 4b37 3fbe
00000300: df45 003e 3591 41be 4918 1f3e 2487 0c3e
00000310: 4a7b 5a3d bd79 2b3e 7f98 773d 7eaf 833d
00000320: 9511 0a3e 30ae 5c3e 2062 44be 2582 c53c
00000330: 015e 843e 18e3 b2bd cbcf 963e 6989 2dbe
00000340: c7e3 ef3d afd6 88be 9c27 923e 9264 133d
00000350: 35f2 8cbe b7d7 71be 14bb 38be 1b8b 583e
00000360: 53bc 703e dd02 90be b2e5 85be 2314 7dbe
00000370: 4135 0bbe ae67 babc 8e94 45be 0a01 77be
00000380: 72a9 82bd 20c8 2fbe 4892 61bd c7c2 3e3e
00000390: f126 71be 0f9f 39be 878e 56bc 7eb1 813e
000003a0: 2c89 223e 8a3e 913e 7192 67bd 1b61 cebd
000003b0: f336 443e a156 9f3c 8d3d a73d db0c d5bd
000003c0: 5e1f 8e3e 050f b83b c2be 9c3d 390e 6c3d
000003d0: 600b 303e 66b0 da3d b1ac 7c3e 8dab 16bc
000003e0: 47e9 c63d 0072 3f3d eebc e93d 4dad 433e
000003f0: 6926 043e 9816 37be 01c3 21be 8271 49be
-0.101798944 -0.26585966 -0.26103085 0.25519812 -0.050084017 -0.1843338 -0.21180826 -0.11345222
-0.098234646 0.26002476 0.18174624 -0.045821007 -0.2163294 0.055653542 -0.06307745 0.11877911
-0.17386587 0.07203585 0.13630524 -0.09286962 0.30950382 0.2198394 -0.33483142 0.28118423
0.094077185 0.31876478 0.1411682 0.2473245 -0.11597881 -0.17986684 -0.13158457 -0.1796343
0.056434896 0.039335225 -0.1903359 -0.017809965 0.29053196 -0.025943825 -0.26041448 -0.12375762
-0.23356818 0.23431557 -0.2420706 0.26954845 -0.1421173 -0.28633085 0.31816632 -0.18266991
-0.2911209 -0.0028691103 0.20861849 0.05325696 0.0613681 0.22078545 -0.29292583 -0.10974314
-0.197548 -0.10610998 -0.044627022 -0.26975185 -0.086425595 0.13716528 -0.2405203 -0.27553388
-0.22568233 -0.0036810676 -0.2820939 -0.027379956 -0.10623473 -0.016964877 0.07420493 -0.08879391
-0.32251963 -0.06832541 -0.12768985 0.023001987 0.14670992 0.025826123 0.10195967 0.27940983
0.173376 0.26973748 -0.122747526 -0.022418255 0.23609737 -0.05531231 0.007232226 0.32564145
-0.0024663513 -0.08488501 -0.20582272 -0.017888872 0.101804756 0.2681603 -0.07901534 0.20149949
-0.1014645 -0.12907922 -0.04546459 -0.2290709 -0.061738476 0.11347505 0.3152512 -0.18671641
0.12955818 0.037356425 0.12603757 0.21399546 0.25828674 0.115807 0.045552205 -0.25792643
0.15420337 0.004479968 -0.19653398 -0.2313793 0.2369469 -0.10104869 -0.24953844 0.13845274
-0.15985858 0.0699952 0.26228702 -0.098712094 0.043321297 -0.05554344 0.3483759 -0.1665316
-0.23428695 0.08926896 -0.17739186 0.085191704 0.13408367 0.07090959 -0.21372572 0.26504076
0.06960956 0.2529677 0.1470158 -0.16975439 0.06704971 -0.09354759 0.02104531 -0.003923645
0.271107 -0.10204231 -0.12334414 -0.06207798 0.022455005 0.24151534 -0.16628827 0.025697276
0.13287489 0.16469364 0.27018094 -0.21451196 -0.17273353 0.008047309 -0.14627218 -0.25810593
-0.2598786 0.3385633 0.028073136 0.29141292 0.13983245 -0.046115052 0.027710818 0.16432421
0.20661922 -0.21783789 -0.2663416 0.2554822 0.12959473 0.047299277 0.29034215 -0.07663366
0.15220451 0.13492154 -0.029690009 -0.21467122 -0.2065362 -0.22257574 0.08280155 0.07754722
-0.10966815 -0.12738992 0.102588914 0.1912149 -0.21752226 0.29225278 0.26183257 -0.18673436
0.12526654 -0.18903048 0.15536608 0.13723427 0.053340234 0.16745658 0.060448166 0.06429957
0.1348327 0.21550822 -0.19178057 0.02410991 0.2585297 -0.08734721 0.29455408 -0.16946949
0.11713367 -0.2672629 0.28545845 0.035984583 -0.2752854 -0.23617445 -0.18040115 0.21146815
0.2350934 -0.28127185 -0.26151806 -0.24714713 -0.13594534 -0.022754516 -0.1929495 -0.2412149
-0.063799754 -0.17166185 -0.055071145 0.18628989 -0.23550011 -0.18127082 -0.013095505 0.25330728
0.1587264 0.28368026 -0.05653614 -0.10077115 0.19161586 0.019450488 0.08166037 -0.104028426
0.27758306 0.005617025 0.07653572 0.05763075 0.17191839 0.106781766 0.24675252 -0.009196174
0.09712463 0.04673958 0.114129886 0.19109078 0.12905277 -0.17879713 -0.15797044 -0.19672206

init_layer.0.bias f4 [64]
00000000: 343b 5ebc ee63 d13d 8a96 edbc 6361 e1bd
00000010: 8f36 b03d 0cf8 eebc a343 94bc 0788 78bb
00000020: 6c6f 83bd 5974 a5bd 0bd1 4a3c 6ea1 3cbd
00000030: 3f56 b6bd c49d 29bd cb8e a6bd c5da d13d
00000040: 7d53 c9bd e470 a6bd e582 adbd 01aa b2bc
00000050: bc8c 52bd 1c0d 9bbd 9ecd 3cbc 985a 06be
00000060: 9754 983d 38d5 9b3d ff9b 99bd f380 323d
00000070: 128c c73d 0201 cbbd a252 f93d 2548 1e3b
00000080: fa6a 8ebd d92c 153e 2c2d 34bd b887 0cbc
00000090: 9e5c 843d 1e63 06bd 6ddd 2dbd f340 963d
000000a0: c4c6 ebbd 38a9 5abd 38af 053d 5f12 5f3d
000000b0: aa28 44bd b7eb 1b3e da37 683d 9352 d9bd
000000c0: 3428 1a3d 559c a73d 2a84 e4bd 6c24 673d
000000d0: b5c7 b83d 3e77 a53d 4452 973d d8df 03be
000000e0: df29 de3d c1dd 06be 51c5 0bbe ce3f ebbd
000000f0: b868 633d f6af 123d 0783 a8bd 5a2d 9c3c
-0.01356392 0.10224138 -0.029002447 -0.11004903 0.08604156 -0.029171012 -0.018098658 -0.0037922875
-0.064177364 -0.08078832 0.012378941 -0.04605239 -0.08903169 -0.041410223 -0.08132704 0.10246805
-0.09830377 -0.08127001 -0.08472232 -0.02180958 -0.051403746 -0.0757086 -0.011523632 -0.13120496
0.07438009 0.076090276 -0.07500457 0.043580007 0.09743513 -0.099123016 0.12173964 0.0024151888
-0.06953998 0.1456789 -0.04398839 -0.00857728 0.06462978 -0.03280937 -0.042447496 0.07336607
-0.11512521 -0.053384036 0.032637805 0.05446088 -0.047890343 0.15226637 0.05669389 -0.10611453
0.037635997 0.08184115 -0.11158021 0.05643122 0.09022466 0.08079384 0.07388738 -0.12878358
0.1084783 -0.1317053 -0.13649489 -0.11486779 0.05551979 0.03581234 -0.082281165 0.019064594

hiden_layers.0.weight f4 [64, 64]
00000000: d196 45bd 1dde 2f3d 10e8 91bd 2378 3abd
00000010: c972 4b3e 75ce 453d 6f6f b5bd a66a 52be
00000020: 3f7d 0f3e a9b7 da3b aeba 113e 2d9d 94bc
00000030: 7236 8c3c ced0 123d 77c2 ebbd 4710 423e
00000040: ed69 213d 5250 c43d 068c f03b 19f8 2abe
00000050: 79d7 24be 0d70 68be 56cb 4bbe 73ed 43bd
00000060: c2d1 a43d 48e2 453b 2a40 8e3d 0bcb 0f3e
00000070: 6a1e 0dbe 3fe8 873d 19ef b2bb b441 803d
00000080: 46fd a8bd ca4d 5abe 64f6 5abd f6a0 48be
00000090: a45b b93d 2512 debd ace0 0abe aac5 073c
000000a0: 4794 2ebe 5171 d13d 94c3 8b3d bcd2 cb3d
000000b0: c19c 29be 31de babd 8a9e df3b b63d 453e
000000c0: e289 143c e7c4 25be 0a72 95bc e3d0 45be
000000d0: d93c bbbc e9a2 223a bdd5 7b3e 6f95 0c3e
000000e0: 3910 f13d a980 43bc da62 38be 04a0 12be
000000f0: 0e8d e5bc 0d9c 1a3e a02d c4bd 7285 503e
00000100: a72c 66be 923f c8bd 8c5b d5bc 96ae c33b
00000110: eb5b 173c 2d2e 12be 6043 d3bc 682c ebbd
00000120: 0f25 3d3e ce7e 4a3e 5bfc b23d d42b 17bb
00000130: 0a52 b73d 994a 403d bd8d 72bd e2fb 023e
00000140: 9870 ecbd 0523 833c 62bc 4abe 3bdc 913d
00000150: 5551 4a3d 1c6c 05be 6aa1 bfbd bb8d 9b3d
00000160: e021 07be 2163 cfbd 820d 1ebe 7088 29be
00000170: 99c0 5d3d a721 04bd 9f37 92bd 835c 2fbe
00000180: 1be5 143e 30b9 d83d 3379 6c3e 2df4 febd
00000190: e4d5 cdbd 716c abbd e893 0ebd 3d49 38be
000001a0: e85e 073e 842f 273e 8863 6fbe 600f dcbd
000001b0: 20e7 25be 2669 fbbd 5559 663e 342f c6bd
000001c0: 8db5 3b3d dd16 c2bd 0a32 40bc 7034 393e
000001d0: 1748 263e 0722 68be 4eaf 133e acb7 6b3e
000001e0: d72f 0abd 3a66 0e3e 5ca5 c3bc efac a3bc
000001f0: ae29 903d 54f5 493e 9c3d 3d3d 1491 1ebe
00000200: c25d 20be de55 7ebe f751 f8bd 23e0 543e
00000210: 2a50 593e c9c5 1d3e 1ad2 31be b07f 533e
00000220: 11a9 bebd 4835 81bc 254b 2b3e 5129 35bd
00000230: 7139 a9bd 9575 a33d f581 613c 7d25 90bd
00000240: b8ef 0fbd 1bb1 fe3c 0f5b e9bd f84d 763c
00000250: 2e11 283e 5aaa 4f3e 33c7 21be 11c5 5c3e
00000260: 67f6 31be 5370 f5bd b80f 14be 72e7 3cbe
00000270: 01b2 13be d07e e23d 462a 11bd 4885 15bd
00000280: 1c53 3e3e 3956 09be b687 a2bd 3f49 863c
00000290: 6bc5 0c3e 8400 81bc aba6 9dbd e3ae 18bd
000002a0: 6d58 38bd b335 603e 2d5a 9abd fc80 ca3d
000002b0: 50e5 bd3d 8d68 c0bd a91b 3dbc f8de 733c
000002c0: 0bc7 8e3c 6e06 2b3e 4cc5 523e 74ce 0bbd
000002d0: b969 96bd 5cb4 173e a0b1 2abd 92ec dfbd
000002e0: fce2 88bc 5f60 4e3e 50c5 4a3c 35da 90bd
000002f0: 615e 143e 13aa bdbc 96ba 4b3e af22 05be
00000300: 672b ecbc a43f 64bd 371f bfbd e40a 22be
00000310: ef07 073e e723 90bd c801 993d 6e2c 303e
00000320: 4517 9dbd d45c 1e3e c755 533d 42ae 84bd
00000330: 04f4 e03c 5128 863d 2949 293c 046d 943d
00000340: b84c 503e 3fce 28be 07ba 0f3d 04d4 323e
00000350: a9f3 35be 71a7 abbc 3685 e13d b344 f3bd
00000360: ba18 d4bd c312 35be 18e8 c63d 6d39 0d3d
00000370: 254b 073d 5b28 243e 5bd3 0b3e 1560 51bd
00000380: dff1 313e 5ecb 093d 2d0f dfbc 4beb 05be
00000390: 8c8b 28bd b418 3fbd 6bef cc3d a24b 463e
000003a0: dd07 343e ae19 11bd 6d1e 003e 9285 eb3d
000003b0: 2a0a 36be 1668 a3bb 1caa 403d 17b5 233e
000003c0: 0a9f e03d 6f6c 493e 304d 083e 733e a23c
000003d0: 7e64 1e3d ea30 22bd 8dd7 cb3d c37f 01bd
000003e0: 55be 923d 1f9a 32be 7b0c d63d 4b29 bb3d
000003f0: aaaa ce3d 4c0a 573e 24de 4c3e 952c 8abb
-0.048239533 0.042936433 -0.071243405 -0.045524728 0.19868006 0.048292596 -0.08859145 -0.20548496
0.14012621 0.006674726 0.14231369 -0.018141354 0.017115805 0.035843663 -0.115117006 0.18951522
0.03940766 0.095856324 0.007340911 -0.16696204 -0.16097821 -0.22698994 -0.19901785 -0.04783387
0.08047821 0.0030194689 0.06945832 0.14042298 -0.13781133 0.06636094 -0.0054606316 0.06262532
-0.08251433 -0.21318737 -0.053457633 -0.19592652 0.09050682 -0.108433045 -0.13562268 0.008286873
-0.17048751 0.102266915 0.06824413 0.09952304 -0.16563703 -0.09124411 0.0068243193 0.19261822
0.009066077 -0.16188394 -0.018242855 -0.19317965 -0.022856163 0.0006204085 0.24593253 0.1372888
0.11770672 -0.01193253 -0.18006459 -0.14318854 -0.028021362 0.15098591 -0.09579015 0.20363405
-0.22477971 -0.0977775 -0.02604463 0.00597174 0.009238224 -0.14275427 -0.025788963 -0.11483079
0.18471168 0.19774935 0.08739539 -0.0023066895 0.089511946 0.046946142 -0.059217203 0.12791398
-0.11544913 0.01600791 -0.19798425 0.07122084 0.04939397 -0.13029522 -0.09356959 0.07595392
-0.13196516 -0.10126329 -0.1543484 -0.16555953 0.054138754 -0.032258656 -0.07139515 -0.17125134
0.14540522 0.10582197 0.23093109 -0.124489166 -0.10050562 -0.08370293 -0.034809023 -0.17996688
0.13219798 0.1632672 -0.23377812 -0.1074512 -0.16201448 -0.12275915 0.22495015 -0.09676972
0.045827437 -0.09477017 -0.01173068 0.1808641 0.16238438 -0.2266923 0.14422342 0.23019284
-0.03373703 0.13906184 -0.02388256 -0.019979922 0.070392 0.19722492 0.046201333 -0.1548503
-0.15660766 -0.24837443 -0.121250086 0.20788626 0.21221986 0.1540748 -0.17365304 0.20654178
-0.093095906 -0.015772477 0.16727884 -0.044228856 -0.08262909 0.07981411 0.013763894 -0.070384
-0.035140723 0.03109031 -0.11394321 0.015033238 0.16412804 0.20279828 -0.15798645 0.2155955
-0.17379151 -0.11984315 -0.14459121 -0.18447664 -0.14423372 0.11059344 -0.035440706 -0.03650406
0.18586391 -0.13411798 -0.07936041 0.016392348 0.13747184 -0.015747316 -0.07697805 -0.03727616
-0.045006204 0.21895485 -0.07536731 0.09887883 0.092722535 -0.093949415 -0.011542239 0.014884703
0.017428895 0.16701671 0.20583075 -0.034132436 -0.07344384 0.14814895 -0.041673303 -0.10933794
-0.016709797 0.2015395 0.0123761445 -0.0707287 0.14489128 -0.023152387 0.19895396 -0.13001512
-0.02882929 -0.055724755 -0.09332126 -0.15824467 0.1318662 -0.07038098 0.07471043 0.17204449
-0.07670454 0.15465099 0.051595476 -0.064785495 0.027460106 0.065506585 0.010332384 0.072473556
0.20341766 -0.16484927 0.03508952 0.1746369 -0.1776873 -0.020953866 0.11011736 -0.11878338
-0.10356279 -0.17682938 0.09712237 0.034478594 0.033030648 0.1603102 0.13654844 -0.05111702
0.17377423 0.03364121 -0.027228916 -0.13078038 -0.041148707 -0.046654418 0.10006603 0.19364789
0.17581125 -0.03542488 0.12511607 0.11500086 -0.17777315 -0.0049867732 0.04703723 0.15987049
0.10967834 0.1967027 0.13310695 0.019805169 0.038670056 -0.03959743 0.099532224 -0.031615984
0.07165209 -0.17441605 0.10451599 0.091387354 0.10091145 0.21000022 0.20006615 -0.0042167404

hiden_layers.0.bias f4 [64]
00000000: 7acb ee3c 3327 41bd 71ba 06bd 22c7 1c3c
00000010: c7e8 bcbd aecf d436 c645 8d3d 5b78 c7bd
00000020: 7791 76bd 16d8 963d 42c3 97bd 7714 d83c
00000030: 84fc 6d3d 3fa0 833d 8180 0fbd e9dc 9ebd
00000040: 2791 2d3d ffe8 9a3d 5f92 c33d a091 893b
00000050: ae6d a7bc 33d7 18bd 1742 aabb 7610 c9bc
00000060: d25d c23d a1b1 28bd 6b31 fbbc 7dd4 e3bb
00000070: 0e19 343d 098f e43c f52b a23d dfeb ee3c
00000080: 96f5 83bc 4caf 8dbd 3d1c bdbd a60a 14bc
00000090: 1e8e 32bd f023 983d 8663 d13d 95a2 86bd
000000a0: 4ad2 6b3d 999b dabd 2639 26bd cbd3 31bd
000000b0: d334 98bd 7b05 e8bd 7aa5 09be 5f10 fbbc
000000c0: 2154 303d 1465 98bd c1bf 14bc 68de 423d
000000d0: aa3a 093d b60a c1bb 076c 463d 1b79 bd36
000000e0: 3cfe 053d 0e4a 783d 542f fabc 0fe9 eabd
000000f0: 8930 81bd 79a7 de3b 0dba e23c cf5e 223d
0.02914976 -0.047156524 -0.032892648 0.009568961 -0.09224086 6.3422694e-06 0.06898074 -0.09739753
-0.06019732 0.07365434 -0.07410289 0.026376946 0.058102146 0.06427049 -0.03503466 -0.07756979
0.042374756 0.07563972 0.095494024 0.004198268 -0.020438042 -0.037314605 -0.005195867 -0.024543982
0.09490551 -0.041185025 -0.030663213 -0.006952821 0.043969207 0.027900236 0.079185404 0.029165206
-0.016108315 -0.06918201 -0.09233902 -0.009035742 -0.043592565 0.074287295 0.10224061 -0.06573979
0.057573594 -0.10674209 -0.040581845 -0.043414872 -0.074319504 -0.1132917 -0.1344203 -0.030647455
0.04304898 -0.07441154 -0.009078921 0.047575384 0.033503212 -0.0058911694 0.048442867 5.6467375e-06
0.03271316 0.0606175 -0.030540146 -0.11470234 -0.063080855 0.0067948666 0.027676607 0.039641198

hiden_layers.1.weight f4 [64, 64]
00000000: 6614 86be a033 24be 3773 d7bd c54a ad3d
00000010: e723 f93d d67c 343e 221e 2dbe 81fd 2e3e
00000020: e6f5 c53d ed88 d93a 0dc1 64bd ed77 d63d
00000030: b418 22be d29f f73d 45c9 abbc ff81 fabd
00000040: adf9 d33d 85cf 4a3e 3f6a f43d 8a29 6d3d
00000050: e4d7 0f3d 10e0 42be 9bc8 86be 7797 efbd
00000060: 04b8 1e3e cb7c e9bd 4d67 b3bd db52 3abe
00000070: 689f 333e 17ee 533e 3ff8 24be 7825 293e
00000080: 905d d63d 8c45 333e d3e1 d4bd bfa3 093e
00000090: d732 51bc bc89 183d 37f0 813d 9bc8 8b3c
000000a0: 5e48 333e e9be ec3d aac2 013d 8f68 3b3e
000000b0: 0a2b 173d d312 f5bd 122c fb3d aa62 e5bd
000000c0: d6df 1ebd fa40 e0bd 3246 5dbe 5d2c 11be
000000d0: 1b41 39bd 4adc a1bc 4197 4f3d 5641 cf3d
000000e0: bda2 22be 281b 41be 9d4c 31bd 243c 5fbe
000000f0: ab31 473e 30d8 0cbe d856 6b3d 1841 533e
00000100: 0c34 69bd 38ec 01bc a32b 4c3c 0899 d6bd
00000110: c333 4b3e 570f c83d 4672 d03d 8ede 4ebe
00000120: f0b9 99bd c98c 81bd fe5b efbd 0bd3 6cbd
00000130: ee12 cd3c 5c68 a83d a25e 38be 2f39 553d
00000140: b50a 3a3d de67 49be 8a3b 493e bdee 023e
00000150: 84ce 24be af2e b13d 62c5 ea3c 812e 143e
00000160: 8648 0f3d 7aaf b93c a870 30be 812d 403d
00000170: 392f 3ebe 6c9b edbd dd31 2abd 4140 023d
00000180: 2fcf e33d 11aa 393d fe3d 64bd 2a8b 26bd
00000190: 37cd 403d 9797 20be a653 83bc 0dfb bbbd
000001a0: fbe0 373e e511 443e 9539 b03d bc4c 593e
000001b0: 2092 0c3e 680e 8e3e 8a26 e03b 708e d63d
000001c0: 2cdc 5abe a0b2 a0bd c199 8d3d 6fe2 483d
000001d0: cb9c f73d bf3f 37be cfce 37be f50e ad3d
000001e0: 9402 413e 29d5 2d3d f671 313c ad03 323d
000001f0: 3626 b3bb a2cd 6b3e 055e 443b 4911 f8bd
00000200: aa2a a73d 1f64 303e e0f5 36be 8b27 6bbe
00000210: 8662 aa3d 1b0f f9bd e86c 2cbe 1bb3 9e3e
00000220: 9203 dbbc 84e7 10be 54df 593d dc07 8bbe
00000230: d365 6cbe 9f2e 923c 3854 73be f1f0 7e3e
00000240: ad7d 2f3e 7963 68be 3009 51be b981 743d
00000250: fec7 043d c6d9 d13d 9557 bbbd 23fc ce3d
00000260: bbdc 53be 2df1 453e e980 363e 796e fb3d
00000270: 0022 a93d b5ba 05be 3a0b 6bbe c040 303d
00000280: b8bd 1c3d 7c75 7abd 49f5 393e 2ae4 ce3d
00000290: ae94 533e f175 de3d 2f60 47be 67ae 83bd
000002a0: 685a 1e3d 74bc ae3e ebc6 203e cb0f 803d
000002b0: 2b21 633e eb29 d93d 82be 1b3e 429d bcbc
000002c0: 75e8 74bd a1b8 99bd 0700 dfbd f775 03be
000002d0: bda2 08be 0e34 7b3e 4e76 a5bc 1c81 b23d
000002e0: 76a4 5bbc 8a06 2bbe ecda 473e 85f9 473e
000002f0: d9e0 1dbe 5f62 123e 8a21 db3c 3257 a9bd
00000300: 6ed0 35be f44b 48be b9ba fe3d f1f9 19be
00000310: d85b 6dbe c67c 24be f2d2 bcbd c5d3 22be
00000320: cb49 803e 0703 12bd 30cb 66be 3f2b 4ebe
00000330: 9f56 a93d b012 9a3d 1775 0a3d 32e0 793e
00000340: 4146 263e ff4c ea3c e19c 5c3e 93a8 cfbd
00000350: 7145 bdbc 1fe9 83bb c3c2 19be 8879 113e
00000360: 3e75 f73d 724a 38be adf1 fe3d f3d8 21be
00000370: 17d1 98bb 0e50 313e 639f 43be dc40 133e
00000380: 722a de3c e4b1 7bbe b13f 0ebe 0808 d13d
00000390: edb6 423e 2365 333e dd40 b63d c2ef 433e
000003a0: 32ec 103e c211 a3bc 2243 783d 1bd4 a0bd
000003b0: c224 193c 2fb7 3cbe ae35 23bd f4f0 36be
000003c0: aa89 09be 99a5 07bb 7fb7 9c3d 4e37 9c3d
000003d0: 5499 4fbe 7419 32be 1dfa 393c 5422 373e
000003e0: 590d 553e 6f09 3ebd acf7 34bd f946 d2bd
000003f0: a809 76be 092d 1cbe 1c6b a6bd 01f6 62be
-0.26187438 -0.16035318 -0.10520022 0.08461527 0.12165051 0.17625746 -0.16906026 0.17088892
0.09666042 0.0016596593 -0.05584817 0.10472093 -0.15829736 0.1209103 -0.020969996 -0.12231826
0.10350356 0.19805725 0.11934327 0.057900943 0.035118 -0.19030786 -0.26324925 -0.116988115
0.15499884 -0.114007555 -0.087599374 -0.1819567 0.17541277 0.20696293 -0.16110323 0.165182
0.104670644 0.17506999 -0.10394635 0.1344137 -0.012768469 0.03724073 0.063446455 0.01706343
0.17508075 0.11559851 0.031679787 0.18301605 0.03690628 -0.11966481 0.12264265 -0.11200459
-0.038787685 -0.10949893 -0.21608809 -0.1417708 -0.045228105 -0.019758362 0.050681356 0.10119884
-0.15882392 -0.18858016 -0.043285955 -0.21800286 0.1945254 -0.13754344 0.057455868 0.206303
-0.0569344 -0.007929854 0.012461576 -0.10478407 0.19843964 0.09768551 0.10178046 -0.20202085
-0.07506168 -0.06325681 -0.11687468 -0.057818454 0.02503344 0.0822303 -0.1800485 0.052056488
0.045420367 -0.19668528 0.19651619 0.12786384 -0.16094404 0.08651482 0.028658573 0.14470865
0.034981273 0.022666682 -0.17230475 0.046918396 -0.18572702 -0.1160191 -0.04155146 0.03179956
0.111235015 0.045328204 -0.055723183 -0.04066006 0.047070708 -0.15682827 -0.016031098 -0.091787435
0.17956917 0.19147451 0.08604733 0.21220678 0.13727617 0.27745366 0.0068405317 0.104763865
-0.21373051 -0.0784657 0.06914092 0.04904407 0.12090453 -0.17895411 -0.17949985 0.084501185
0.1884864 0.042439613 0.010830393 0.043460537 -0.0054672016 0.23027661 0.0029963267 -0.12112672
0.081624344 0.17225693 -0.17867231 -0.22964303 0.08319573 -0.12161084 -0.1683842 0.30996022
-0.0267351 -0.14150816 0.053191498 -0.27154434 -0.23085718 0.017844496 -0.23762596 0.248966
0.17137785 -0.22694196 -0.20413661 0.059694026 0.03241729 0.10246615 -0.09147564 0.10106685
-0.2068967 0.19330283 0.17822613 0.1227693 0.08258438 -0.13059504 -0.22953501 0.0430305
0.038266867 -0.061147198 0.18159975 0.101021126 0.20662186 0.10862339 -0.19470285 -0.06429749
0.038660437 0.34128153 0.15700881 0.06253012 0.22180621 0.10603698 0.15209392 -0.023024205
-0.059792 -0.07505918 -0.10888677 -0.12837969 -0.1334333 0.24531576 -0.020198014 0.08716032
-0.01340591 -0.16701713 0.19517106 0.19528778 -0.15417804 0.14295338 0.026749391 -0.08268584
-0.17755291 -0.19560224 0.12437958 -0.15036751 -0.23179567 -0.16063222 -0.09219922 -0.15901096
0.250563 -0.03564742 -0.22538447 -0.20133685 0.08268475 0.075230956 0.03380307 0.2440193
0.16237737 0.028601168 0.2154422 -0.10139575 -0.023104401 -0.004025593 -0.15015702 0.14206517
0.12082909 -0.17997149 0.1244844 -0.15805416 -0.0046635973 0.17315695 -0.1910377 0.1438021
0.027119849 -0.24579579 -0.13891484 0.1020661 0.19015093 0.1751905 0.088990904 0.19134429
0.14152601 -0.019905929 0.060610898 -0.07852956 0.009347143 -0.18429254 -0.039846115 -0.17865354
-0.13431421 -0.002069807 0.076521866 0.07627736 -0.20273334 -0.17392522 0.011351136 0.17884189
0.20805873 -0.046395715 -0.04418151 -0.10267443 -0.24027121 -0.15251555 -0.08125898 -0.22164156

hiden_layers.1.bias f4 [64]
00000000: 65d6 15bd 5f41 74bd 7b87 dbbd ef2e c43c
00000010: 2a15 72bc 6160 6ebb 7b40 a23d 67b0 f3bc
00000020: f832 0bba 4839 c4bc 21df 3ebd 62b2 90bd
00000030: 34e7 aabd 64e4 383c 0269 19bd 4c94 753d
00000040: 681c 893c 83fb 94bb 115e f53c 9097 38bd
00000050: 569d 263d 8ac7 afbc e68b 06bd f931 acbb
00000060: 6b66 59bc e384 513b be28 14bd fd97 a03c
00000070: 185d c2bc e51c 95bd f11a 413c ffbf 60bd
00000080: c346 83bd 6d65 143d 4e32 7abd 445a 7b3d
00000090: c51d 4d3d a512 3d3b dd06 74bd 6253 87bc
000000a0: 4e1d b43c ca06 5fbb 4af1 60bd c435 903c
000000b0: 231d 92bd e82d 0cbd 7fb4 973c 4183 e03c
000000c0: 4e97 1c3d cddd ce3c 70f2 843b 62b4 1ebd
000000d0: 68be 4b3d 2573 933c a04e e43c 44c0 c5bc
000000e0: ae53 843c 227f 993d ecee bcbc 3d72 a23d
000000f0: 5407 c13c 6dbf 313c 0221 22bd 0e5c 4dbd
-0.036581416 -0.059632655 -0.107192 0.023948161 -0.014775554 -0.0036373364 0.07922455 -0.029747201
-0.0005310024 -0.023953095 -0.04659951 -0.07065274 -0.0834488 0.011284921 -0.03745366 0.05995588
0.016737178 -0.004546584 0.02995208 -0.045066416 0.04067739 -0.021457452 -0.03284826 -0.0052549806
-0.013269047 0.0031970076 -0.036171667 0.019603724 -0.023726031 -0.07280902 0.0117862085 -0.0548706
-0.06409981 0.03622954 -0.06108313 0.06136538 0.05007722 0.0028850224 -0.059576858 -0.016519252
0.02198663 -0.0034031146 -0.05491761 0.017603762 -0.07134464 -0.034223467 0.018518684 0.027406337
0.038230233 0.025252247 0.004057221 -0.038746245 0.049742132 0.017999241 0.027869523 -0.024139531
0.016153183 0.07494952 -0.023063146 0.079319455 0.023563065 0.010848862 -0.03958226 -0.05013662

hiden_layers.2.weight f4 [64, 64]
00000000: d61d 0dbe 7903 9d3d 1c80 ed3d 648b edbd
00000010: 20bd 01be 4d5b ed3a a8cc 81bc ba5e 723e
00000020: df7e 203e 3f07 823e 9ac4 2a3e 98e6 ddbc
00000030: e64e 223e b788 71be 0242 2e3e a468 d0bd
00000040: f47f 2a3e 50fe 5e3e 8125 e0bd 25fb 13be
00000050: 95a7 62be 2cdd 783e 9001 4abd 2350 3e3e
00000060: cad4 f13d 8514 fabd 6c13 a4bd 0467 193e
00000070: b945 93bc b300 f5bd ca6a 873d 52d3 593e
00000080: 48fe 303e 35cc 073e 0f8d 503d b44e 37bb
00000090: 2475 463e 642f d53b ca1f d7bd 3863 243e
000000a0: 3b3f b9bd a053 9d3d e3a5 e83d b098 0d3e
000000b0: 6793 203e 01d5 723e 62fc d0bd 51f7 32be
000000c0: 6b58 53be 9af5 febd 7066 ffbd f9cb 6e3e
000000d0: 7075 21bd 5b77 453e bad7 7fbe 8e88 21be
000000e0: 9ea0 3abe bc36 a03c 77f5 2a3e 2d06 f9bd
000000f0: 63a8 85bc 7d32 53be a9c9 173e 68b5 abbb
00000100: e53a 5f3e 777d 4abd 5436 533e 4c17 47be
00000110: e2cd 003e aee9 513e 25a2 08be 29b0 61be
00000120: f27e ca3c a15b 2c3d 157a 253e 9af0 41bd
00000130: 1713 bd3c 73be 6e3e 9142 a53d 1b80 593e
00000140: e2ed 8a3d 8eaf 9e3d ca75 ae3c 2837 363e
00000150: f42b f9bd 6a0f 623d 8c1f ccbc 7ef5 e83c
00000160: 0e78 343e 20c9 b83c 6cc7 723e cf8d 5fbd
00000170: b2fe 543d fac6 48be 6b5f 1fbe 57d3 f33d
00000180: e5ab 373e 45e9 403e b567 283e 5e1f e93c
00000190: e55f 163e 11d4 133c 62de 523e a355 3a3d
000001a0: 78bf 42be 4380 53be 5b30 e7bd 4560 25be
000001b0: 41c9 38bd 4034 20bd 0a7d c5bd 4496 513e
000001c0: 4008 8ebd 1914 eabd 0eee babd 30a6 53bc
000001d0: 4b76 4dbd 0ad2 dfbd e841 11bd 0424 80bd
000001e0: 7065 61be ab06 a6bd 98c3 aabd 6e39 04be
000001f0: 8e9d ecb9 5dc3 913b 89fc 333e 3015 793d
00000200: 424b 35be 0ab1 543e a5a4 563e a47e 95bc
00000210: 5c49 f93b 75c7 00be b3b4 733c 1638 4ebe
00000220: b537 43bd 6eb2 983d 4701 13be 90ad cd3d
00000230: 7c62 debd 37cb 653e 5547 633d 5559 1fbc
00000240: ca12 a53d 817b 073e f794 aabd afde cc3d
00000250: 8a2c d6bc 6f00 d03d 1013 10be 7e91 02bd
00000260: 1663 b3bc 9728 40bc cbde f1bd b646 683e
00000270: d685 41bb 6aa2 9d3d 22ac bdbc 641c ddbd
00000280: 2494 a73d 7943 74be fe65 a33d b41d f3bd
00000290: 8754 3c3e fe4c 9fbd 0ec0 fa3d c535 bebd
000002a0: 973f 31bd cc86 4b3e 12b4 52be 6f51 2c3e
000002b0: 6047 f4bb 1e04 61be c3a0 48bc 45cc 953b
000002c0: bf35 da3d 44d2 36be c97c ed3d 99de 263e
000002d0: 39bf 0a3e e2eb 2bbe 7614 19be 2766 04be
000002e0: ba85 4fbd b3bc 0fbe 8f3d f33d 6806 ca3d
000002f0: ba0b 263d 88bd 96bd 1f96 bebd 02b2 5b3e
00000300: 8c91 abbd af66 643e 6b18 7a3e 93f2 84be
00000310: d08c 4a3d 9257 de3d 14f5 76bd ed98 71bd
00000320: 9c07 c9bd 1bdb 553d d294 e53c 757a 113e
00000330: 0214 493e 5e5f 82bd e9bf 2c3e cbe0 54be
00000340: a0d1 1c3d 8cfd 40bc 5f10 8cbe d88c e43d
00000350: 6b00 11be 73bc ea3d d38c abbc 4b1a 77be
00000360: ad3f 83bd fccc 0f3e 2a78 673e b033 89bc
00000370: 2ff8 7abc dffe fe3d 980e 17be 2a1f 883d
00000380: db03 85bd 3867 dcbc 5292 8b3e 95ad 89bd
00000390: deb3 8fbd 46b1 cd3d 214a 4f3e a83e 6bbe
000003a0: 2e4c e9bd c692 1a3e 7647 22bd 2d36 e1bd
000003b0: 7d5d 063e fc37 d6bd 9392 16be b7e5 343d
000003c0: 8d26 233c 6273 bcbc bf0f acbd 1b12 0abd
000003d0: eba5 63bd d0b8 903d 7586 ce3d 1b6c d83d
000003e0: 0957 553c de5e aabb 339a 753e 079f 36be
000003f0: d972 393e 882d ff3d 72d9 fe3d bc99 273e
-0.13780913 0.07666678 0.115967005 -0.11598852 -0.12669802 0.0018108875 -0.015844658 0.23668948
0.15673397 0.25396153 0.1667656 -0.027087495 0.1585041 -0.23587309 0.17017367 -0.101762086
0.16650373 0.217767 -0.10944653 -0.14451273 -0.2213424 0.2430312 -0.049317896 0.18585257
0.118081644 -0.12210945 -0.08011517 0.14980704 -0.017977582 -0.11963024 0.06612165 0.21272019
0.172845 0.13261493 0.050915774 -0.0027970495 0.19380623 0.0065058935 -0.1050411 0.16053474
-0.090452634 0.07681966 0.113597654 0.13827777 0.1568123 0.23714067 -0.10204388 -0.17477156
-0.20639198 -0.124491885 -0.1247071 0.23319997 -0.039418638 0.19283812 -0.24984637 -0.15774748
-0.18225333 0.01955735 0.166952 -0.12159381 -0.016315645 -0.20624729 0.14823021 -0.005240131
0.2179981 -0.04943606 0.20626193 -0.19442481 0.12578538 0.20499298 -0.13343103 -0.22039856
0.024718735 0.04207957 0.16159852 -0.047348596 0.023080392 0.23314838 0.08069337 0.21240275
0.06783654 0.07748328 0.0212964 0.17794478 -0.121665865 0.05519048 -0.024917386 0.028437372
0.17623922 0.022556841 0.23708886 -0.0545786 0.05200071 -0.19607154 -0.15563743 0.11905544
0.17936666 0.18838985 0.16445811 0.02845734 0.14685018 0.009022729 0.20592645 0.045491826
-0.19018352 -0.20654397 -0.1128852 -0.16150005 -0.045113806 -0.03911233 -0.0964299 0.20467478
-0.06935167 -0.114296146 -0.091274366 -0.01291804 -0.05016164 -0.10928734 -0.035463244 -0.062568694
-0.22011352 -0.081067406 -0.08338088 -0.12912533 -0.00045130815 0.004448338 0.17576803 0.06081122
-0.1770449 0.2077066 0.20961244 -0.018248864 0.007607622 -0.12576087 0.014874625 -0.20138583
-0.04766055 0.07455908 -0.14355956 0.1004287 -0.10858628 0.22440802 0.05548795 -0.009725888
0.08060224 0.13230707 -0.08329194 0.10003411 -0.026144285 0.10156333 -0.14069772 -0.031877033
-0.021897834 -0.011728427 -0.118100725 0.22683224 -0.0029529235 0.07696994 -0.023153368 -0.10796431
0.081825525 -0.23853864 0.07978438 -0.118709 0.1839162 -0.07778357 0.12243663 -0.092875995
-0.043273535 0.1987564 -0.20576504 0.1682794 -0.0074547976 -0.21974227 -0.01224536 0.00457147
0.106547825 -0.17853647 0.115960665 0.16295852 0.13549508 -0.16789201 -0.14949211 -0.12929593
-0.05066464 -0.14036827 0.11876976 0.09864503 0.040538527 -0.07360369 -0.09305977 0.21454623
-0.0837737 0.22304796 0.24423377 -0.2596632 0.049450696 0.108565465 -0.06029232 -0.058983732
-0.098159045 0.05221091 0.028025065 0.1420687 0.19636539 -0.06365846 0.16870083 -0.20788877
0.03828585 -0.0117792 -0.2735624 0.11159676 -0.14160316 0.11461725 -0.020941174 -0.24131124
-0.064086296 0.14043039 0.22604433 -0.01674828 -0.015317961 0.124509566 -0.14751661 0.06646569
-0.06494876 -0.026904687 0.2726007 -0.06722561 -0.07016729 0.10043578 0.20243122 -0.2297312
-0.11391483 0.15095052 -0.03961893 -0.10996661 0.131216 -0.10459897 -0.14704351 0.044164386
0.009957922 -0.023004238 -0.08401441 -0.033708673 -0.055578154 0.070665 0.100842394 0.105674945
0.013021239 -0.0051992973 0.23984604 -0.17834102 0.18110217 0.12459856 0.12443818 0.16367239

hiden_layers.2.bias f4 [64]
00000000: 8f57 9abc ae03 43bd b5fb 0cbd fa59 c4bd
00000010: c086 833d af43 4f3d 2b79 153d b57f 183c
00000020: 1b65 58bd cb23 40bd 4eeb 9c3c 273a fb3b
00000030: 12dc ff3b e8cd 393c 948f b2bc c139 1cbd
00000040: 0d0b 9fbd ef3a 1b3d e72f 283c e1ff 013d
00000050: 1def 88bd 2ed8 6d3d bc77 ed3b 3608 113d
00000060: d6f0 bb3c 76f0 ee3c 350a 953c 7b5c 3dbd
00000070: 2b12 f03c 1dc9 98bb 87d4 87bb 9e09 c23c
00000080: 6f7a 0d3d 8557 a0bd 504d 6fbd f9b8 6a3d
00000090: 9443 ae3a a2a8 5b3c bc6f 78bb 9668 04bd
000000a0: 2453 7bbc 4a0e b0bb ad0f 9bbb 5036 b3bc
000000b0: 6d42 2d3d 3c90 943d 35e5 12bb 6e19 373d
000000c0: 6b36 ee3c a888 a1bd 444f 3fbb 99d1 4f3d
000000d0: 4da2 87bb 93d7 c13c f88f aa3d b97d babc
000000e0: 4c0a 49bd fae3 833c 4ad2 39bb 5bd4 38bc
000000f0: a5c7 c1bc cae3 533d 5b89 29bc 4cbd e83c
-0.01884058 -0.04761093 -0.034419734 -0.09587474 0.06422186 0.050601657 0.036492508 0.0093077915
-0.052830797 -0.046909135 0.01915517 0.0076668444 0.007808217 0.011340596 -0.021796979 -0.038141016
-0.0776578 0.037898 0.010265327 0.031738166 -0.06686232 0.058067493 0.0072469395 0.03540822
0.022941988 0.029167395 0.018193344 -0.046230774 0.029305538 -0.0046626464 -0.0041452083 0.023686226
0.03454059 -0.07829193 -0.05842334 0.05730531 0.0013295286 0.013406904 -0.0037908396 -0.032326303
-0.0153396465 -0.005372797 -0.0047320933 -0.021876484 0.042299677 0.07254073 -0.002241445 0.044701986
0.029078683 -0.07887393 -0.0029191533 0.050736997 -0.004139221 0.023662364 0.08328241 -0.022765027
-0.049082085 0.016099919 -0.0028354102 -0.011281098 -0.023654768 0.05173091 -0.0103476895 0.028410576

hiden_layers.3.weight f4 [64, 64]
00000000: 223b 99bd e425 0cbe 6f31 42bd 5c01 67bd
00000010: dfe2 0bbe 1ee0 62bb c8ad 273d 84e2 4dbd
00000020: 0b75 c0bd a62d 3fbe 217e a4bd ed1b f53d
00000030: be5d efbd 8eed 7a3b a7b5 1e3d e552 2f3e
00000040: 2492 a1bd bb74 273e 82ef 0a3e b892 963d
00000050: f2ac 5bbd 76ef bc3c 9a7b 1e3c 3893 e8ba
00000060: b4ec ad3b 8af9 8cbd 0a79 fd3b 025c 413e
00000070: 5da7 453e 48b1 9abc 531a 2ebe 7393 ff3c
00000080: 055d 593c 4157 963d ba73 643d ff5a e83d
00000090: ece9 4dbe b02e 54be 7515 c7bd fdcb f4bd
000000a0: 4a5c 81bb 0d62 53be f540 2d3e 3e5e c83d
000000b0: fcf9 993b 49af b4bd 6a4a 143e 21df 5b3e
000000c0: d16f 043e d97b debd 1ae2 593e 9e04 7abd
000000d0: 1ad3 23be c1f1 b6bd 3109 2a3e 2076 5fbe
000000e0: 48f6 0ebe c660 23bd 094d 32be 78c4 823c
000000f0: 5639 a4ba fed7 4cbd b050 4abe 3fe6 7cbe
00000100: 3fe2 77be 5fdb 4d3e 5f85 acba c97d eb3d
00000110: 1210 88be f3b3 dfbd 0e52 44bb 2ce7 123d
00000120: 6eb6 4bbe 44bf 58be f126 7dbd 6d4e 0d3d
00000130: c885 4dbe 57b4 aabc 78d8 60be 5272 a3bd
00000140: 3df8 313e e430 ffbd 2d00 9ebd b09a 623e
00000150: 5f1c 74be ccda 573c 7e9c 18be a528 443d
00000160: 1839 f1bd d02e e03d 755a f33d b2fd 58be
00000170: d901 563e 1493 b5bb 1ba9 b9bd fc00 363e
00000180: 9bd1 33be 8628 2d3d a85b fa3c b683 29be
00000190: f5c0 dd3d 6c1a 873d 79e6 fdbd d8de e2bd
000001a0: a813 38be bd67 f23d 33cc 7fbd 0fa1 33be
000001b0: 06a8 4c3b 893a 0f3e cb61 39be b543 083e
000001c0: de7c 2d3d 80d1 4f3e 7539 683d 7796 253e
000001d0: fef3 053e e076 f43d c577 75bd f981 933d
000001e0: d32a f4bc dbca e1bd 2dbd adbd 393c 27bd
000001f0: 8d26 1d3d 3eb4 d0bd a761 d43d b02c c1bd
00000200: 5215 0bbe cea0 f83d b811 5637 e4bd be3d
00000210: 76a6 77be 10aa a7bd 2499 bcbd c3d8 67bb
00000220: 6f8c 9e3e 873d 82bd e44e aebc 342b 163e
00000230: 49f6 82bd 5577 3cbe 9865 19be 91ee 003e
00000240: fbbe b4bd e0ba 20be 08d0 97be 4f10 68bd
00000250: 348e 413d 1466 ad3d 7995 3abd da49 6bbe
00000260: 0794 033e 4c7e cb3c 6737 8dbe 0a9a db3d
00000270: ed85 413e e132 bd3d 34c4 60be 818e 473e
00000280: f864 94bd bc59 2c3e 5100 823e fcd2 343e
00000290: 0964 0e3e 5b83 91bd e0c3 403e b1ae 593e
000002a0: 3f93 533e e2bc 48bc 4d9b 21bd 972d 7dbe
000002b0: 3087 f7bd f094 a6bd 9b06 1bbe 5e6e 66be
000002c0: f0d5 28bb d01a 1b3e bcb9 fdbd 872c 71be
000002d0: d4e0 073e 4dc5 8abe 1106 29be c3e9 30be
000002e0: 65d8 a43d 6a38 62be 440b c73d b8c6 bdbd
000002f0: 450f 88bd 2008 b73d 34fa 84bd 7985 143c
00000300: b9a0 2bbe d349 2cbe d79b 27be a129 593d
00000310: 90a0 ebbd 691b 05be 1e79 703e 1482 013d
00000320: 62c4 0b3d 27e4 503d f931 1e3e 9bb4 fabd
00000330: 728d d33d c4ce 44be 1790 34be 2f8b e4bd
00000340: 2ca6 813b 8d8e 083e 7b5e 63be 6466 1ebd
00000350: 9b06 bf3d 2f4d 6dbe 259a 8fbb 0d4c 553e
00000360: 404e 543e f7d5 8bbd 7eef 3f3e 10aa 903d
00000370: 0eae 763d 93b0 7bbe c8af 1bbc 00dc 4b3e
00000380: 90c2 203e 2fa2 03be 6205 65be 5468 e3bd
00000390: ecae ae3d c2d3 903e 1278 34be 0779 7f3e
000003a0: 464e cdbd ed57 11be 7c8e 6d3e b0ba f2bd
000003b0: ae1c f8bd c537 2d3e 570b 173d 7ecb 8ebd
000003c0: 040a 85be 58ed e4bc a91b 703e b33f 52be
000003d0: 85a1 9cbc d98f 84bd 52c7 a13d e881 07be
000003e0: 60d3 1a3e 94f5 28be 9d9a 3cbe b7e1 043e
000003f0: cd45 4cbe e62e 35be 7253 09be ee4c 23be
-0.07481982 -0.13686329 -0.047410425 -0.05639778 -0.13660763 -0.0034618448 0.040937215 -0.05026485
-0.09397324 -0.18669757 -0.0803187 0.11968217 -0.11687802 0.0038288566 0.038747456 0.17121466
-0.07889202 0.16353123 0.13567927 0.07352203 -0.05363173 0.023063403 0.009673024 -0.001774407
0.005307758 -0.06883533 0.0077353762 0.18882754 0.19302125 -0.018883362 -0.1700223 0.031198239
0.0132668065 0.07340861 0.055774428 0.11345481 -0.20108765 -0.20720935 -0.097208895 -0.1195297
-0.0039477693 -0.20642872 0.1691931 0.097836 0.00469899 -0.088224955 0.14481512 0.21471836
0.1293328 -0.10863466 0.21277657 -0.06103956 -0.15998498 -0.0893283 0.16605069 -0.21822405
-0.13961136 -0.039887212 -0.17412199 0.015962824 -0.0012529294 -0.050010674 -0.19757342 -0.24697207
-0.242074 0.20103215 -0.0013162306 0.11498601 -0.2657476 -0.109229945 -0.0029956135 0.035864994
-0.1989381 -0.21166712 -0.061804716 0.03449862 -0.20070565 -0.020837946 -0.21957576 -0.07980789
0.17379852 -0.12460497 -0.07714877 0.22129321 -0.23838948 0.013174724 -0.14903447 0.047890324
-0.11778468 0.10946429 0.11882488 -0.21190527 0.20899142 -0.0055412147 -0.090654574 0.17773813
-0.17560427 0.042274974 0.030561283 -0.1655415 0.10827819 0.065968364 -0.12397475 -0.1107766
-0.17976248 0.11836193 -0.0624506 -0.17541908 0.003122808 0.13987173 -0.18103711 0.13307078
0.04235541 0.20294762 0.05669542 0.16170679 0.13081357 0.11936736 -0.059928674 0.07202525
-0.029805576 -0.1102502 -0.08483348 -0.040828917 0.038366843 -0.101906285 0.10370188 -0.094323516
-0.13582352 0.12140046 1.2759519e-05 0.093135625 -0.24184594 -0.08186734 -0.09208897 -0.0035377003
0.30966517 -0.06359392 -0.021277852 0.14664918 -0.063946314 -0.18404897 -0.14980161 0.12591006
-0.08825489 -0.15696287 -0.29650903 -0.056656178 0.047254756 0.084667355 -0.045552704 -0.22977391
0.12849437 0.024840496 -0.2758133 0.1072274 0.18898745 0.0923822 -0.21949846 0.19487955
-0.07245821 0.16831106 0.25390866 0.17658609 0.13905348 -0.07105132 0.1882472 0.21258046
0.20661639 -0.012252064 -0.039454747 -0.24724422 -0.12086332 -0.08133876 -0.15139239 -0.22503039
-0.0025762282 0.15146947 -0.12388942 -0.23552142 0.13269359 -0.27103654 -0.1650622 -0.17276673
0.080490865 -0.22091833 0.097189456 -0.09266418 -0.066435374 0.089370966 -0.06493035 0.0090650255
-0.1676053 -0.16825037 -0.16368042 0.053018216 -0.11505234 -0.12998737 0.23483703 0.031618193
0.034122832 0.050998833 0.1544875 -0.12241479 0.10329713 -0.192195 -0.17633091 -0.1115936
0.003956577 0.13335629 -0.2220401 -0.038671866 0.09327432 -0.23173974 -0.004382389 0.20829792
0.20732975 -0.0682792 0.18743703 0.07063687 0.060224585 -0.24579076 -0.009502359 0.19908142
0.1569922 -0.12854837 -0.22365335 -0.111038834 0.085294574 0.28286558 -0.17623928 0.24948512
-0.10024695 -0.14193697 0.23198885 -0.11852014 -0.12114845 0.16915806 0.03687605 -0.06972407
-0.25984204 -0.027945206 0.23448052 -0.20532112 -0.019119987 -0.06472749 0.078993455 -0.13233149
0.15119696 -0.1649993 -0.18418355 0.12976728 -0.19948502 -0.17693672 -0.13410738 -0.15947315

hiden_layers.3.bias f4 [64]
00000000: 82b2 19b9 8d36 11bb 637e 01bd 9aaa 68bc
00000010: f23c 4ebd 1480 b83c 8ca1 433d 87f6 8c3b
00000020: 7534 293c fac8 383c a5c5 1dbd b6c3 163b
00000030: 9982 89bd ac91 f9bb b324 29bd 1548 05bd
00000040: 52d3 083d 7b8b 26bd e167 923d c328 69bd
00000050: 2e32 c5bc d620 7ebc 4533 883c fc04 bf3b
00000060: 88c9 c7bd 09ee fc3b fae5 eabc 2a8f 88bd
00000070: ed36 bfbb f19e 953c 768e a93c f26e 173d
00000080: 58b3 eebc aafd 8cbc 4c9e 28bc 45ad aebb
00000090: 1b7b 0d3d febc da3d d552 27bc 7bf9 cb3c
000000a0: e6a4 593b 4cc3 f0bc fb5e 6a3c 4f4d 653b
000000b0: 5720 0b3d c449 bf3c f7e0 a2bd 8965 a6bb
000000c0: 688a 80bb d0f5 50bc a5f2 053d 7ecb 4ebc
000000d0: 6f27 23bc 4e7f a43b dddc 14bd e42e 9d3c
000000e0: ad25 53bc a403 56bd 30c3 5bbd 0781 1bbd
000000f0: 92e7 48bd 18b2 f0bc ca56 503d 14d2 bebb
-0.00014657716 -0.002215776 -0.031614672 -0.014200831 -0.05035109 0.02252201 0.047761485 0.0043018493
0.010327448 0.011278385 -0.038518567 0.0023004836 -0.06714363 -0.0076162424 -0.041294765 -0.032539446
0.033404656 -0.040660363 0.071487196 -0.05692364 -0.02407178 -0.015510758 0.01662601 0.0058294516
-0.09755236 0.0077188057 -0.028674114 -0.066679314 -0.005835405 0.018264266 0.020697813 0.03697104
-0.029138252 -0.0172108 -0.010291647 -0.005330714 0.03454123 0.10680579 -0.01021262 0.024899235
0.003320986 -0.02939 0.014304872 0.0034988706 0.03396639 0.023350604 -0.07953065 -0.005078022
-0.0039227493 -0.012753919 0.032702107 -0.0126217585 -0.009958132 0.0050200587 -0.036343444 0.019187398
-0.012887401 -0.052249566 -0.053652942 -0.037964847 -0.049048968 -0.029381797 0.05086402 -0.005823383

hiden_layers.4.weight f4 [64, 64]
00000000: c8c2 2cbe ce22 393e 8dfc e23b 2013 adbd
00000010: be78 493d ce3e e7bd 1777 d2bc 3d99 f1bd
00000020: 230b 2dbe fef8 263b 5087 2e3e 3c9d d83d
00000030: 991f 05bd 4543 583d a4bc 213e 1917 523b
00000040: 707c df3c dcc3 153e 7f5b 40be d472 33be
00000050: 9df3 c23d 7d17 77bc 1215 30be 0ec6 a73c
00000060: e3b4 efbd e83e 463d d6bb e3bd a48f a53c
00000070: 287b 853c d7b5 da3d 6196 5ebe 354e 27be
00000080: 1035 0cbe 37de 1ebe 6f6c 02bd 736e fe3d
00000090: 2ca2 873d bd1c d93c 6009 8e3d 323f 3abe
000000a0: 4264 31be cb13 563d 4816 8b3d f1cd 22be
000000b0: 2d82 9039 1767 e0bd 154b 763c edf9 b9bc
000000c0: 5694 36be ddfb 043e dd2b f6bd 2599 c5bd
000000d0: bbdd 36be 7095 613e cbe1 14be 0075 b33b
000000e0: 579c 013d 6591 0e3e e4ef a73d 71b8 5b3e
000000f0: 8436 46bd 53b7 393e 2662 06bc fce3 1bbe
00000100: 963f d1bc 2672 18be afa4 953c 3293 313a
00000110: d1cf bb3d cb98 29be 0a50 0d3e ce97 393e
00000120: b2b7 6abd 67ff d43d a061 113e dd87 2c3e
00000130: bc61 47be 12f1 eabd 5e80 19be 3455 edbd
00000140: be6f 33be 2811 4abe 601f 853d 96b6 1f3d
00000150: 0908 cb3d 3a47 c93d 83cd ef3c 613a 95bd
00000160: 07b4 0a3e 4448 6a3e 0b1e d1bc fee5 383e
00000170: 9982 27bd d86d 353e c23a 81be 010b 693d
00000180: 9856 3d3e 2bf0 56be 41ff 523e b3e0 c63c
00000190: d480 1a3e aa75 04be cddb 4a3e 5668 433e
000001a0: 4e3a 48bd c385 b33d 2ec3 123e 150b 153e
000001b0: a53d 0e3b c83c 68bc 81a1 313e 20af cdbd
000001c0: 1aa3 7ebe 095f 813d d381 353d 326a 91bc
000001d0: 783b 023e 33e5 95be bb45 02be ed47 073e
000001e0: e365 413e 987e 543e 937a c83d 9deb 6abd
000001f0: 6d96 1fbc 8663 22be 2a9c 443e 5799 b1bd
00000200: 4f8f 57bc a1c9 353e 8fb8 33be 5fe7 613e
00000210: 0895 903d e560 68be 61ad c3bd d97a 3c3e
00000220: 95ec 0abe 7187 0b3c d988 c63d 1039 9b3d
00000230: cb2b 77bc 1da0 8f3d e47d a2bd 45c5 203e
00000240: 51b3 af3d d266 463e 3fa2 a63d 2eb8 1c3e
00000250: dd0c a73c aafa 023e 3af2 233e 0e14 d8bd
00000260: bada 923d b150 c0bd 6a6c 373e 5602 b13d
00000270: 03d4 783d 82fb 37be f71d 763e 2f6d 38be
00000280: 2d64 e2bc 0f58 353e cd05 85be a22b 30bd
00000290: 8e0d 9bbd 8eaa 0c3e 6523 053d b272 823d
000002a0: 4f83 2fbe b42b 0e3d 7df8 5f3e 4eeb d9bc
000002b0: 4bb1 61bd 8aa2 80be 70b4 d53d dfa5 523e
000002c0: daa4 473d 7300 ec3d 1ff7 f23d ffcd 94bc
000002d0: 25ec d33d c050 14be 2e46 8cbd 05c9 cfbd
000002e0: 6010 443e f380 13bd 0069 c7bb 3184 103e
000002f0: 8a93 113e bc28 913d 7a7e 023e b983 2ebe
00000300: fff3 17be c4c2 153e ea65 5b3e 8b90 1c3e
00000310: 00e3 083c 14b8 2d3d f174 17bd 08d8 0f3e
00000320: eb47 35bc 361f fd3d 8db3 57be c639 a93d
00000330: c9be a3bd 458d e33d b7c3 cf3d 3120 933d
00000340: b3f2 be3d 2465 36bd a4dc f7bd 39e9 23be
00000350: f3a9 7bbe c76e 923d 71ba 0a3e 7478 46be
00000360: 9c6d f7bd 9aad 1b3e 59be 32be 8e86 633e
00000370: 3a98 59be 6c03 69be a834 053e 1286 2cbe
00000380: a59d 67bc 14a7 143d 58a7 3f3d 4d48 3a3e
00000390: 6c39 213d fdd6 913d b483 5fbd 0532 3fbe
000003a0: 2f90 463e 0d4a 0dbe f893 bf3c 0c50 41be
000003b0: 5048 93bd 6614 0bbe 9546 5f3e 13e2 a8bc
000003c0: 76ca cf3d 3fb6 23be b27d 37be ac3b 7b3e
000003d0: 0be9 1f3e 9036 d83c 8d50 173e 3139 a5bd
000003e0: 8e70 64be ca12 383c 5a49 5ebe 87a2 7f3d
000003f0: d8ef 043e 2b89 f83d 88d6 acbd e44c 1bbe
-0.16871178 0.18079683 0.006927079 -0.084509134 0.049187414 -0.11291276 -0.025691552 -0.11796806
-0.1689878 0.0025478 0.17043805 0.10576865 -0.032500837 0.05279853 0.15794617 0.0032057224
0.027281016 0.14625496 -0.18784903 -0.17524272 0.09519122 -0.015081284 -0.17195538 0.020480182
-0.11704423 0.048399836 -0.11119811 0.020210095 0.016294077 0.106792144 -0.21737053 -0.16338427
-0.13692117 -0.15514456 -0.03184169 0.1242341 0.06622729 0.026502961 0.06935382 -0.1818817
-0.17323402 0.05226497 0.06791359 -0.15898873 0.0002756281 -0.10957163 0.015032549 -0.022702182
-0.17830023 0.12986703 -0.12020085 -0.096483506 -0.17858021 0.22029662 -0.14539258 0.005476594
0.031643238 0.13922651 0.082000524 0.21457078 -0.048391834 0.18136339 -0.008202111 -0.15223688
-0.025543015 -0.14887294 0.018267004 0.0006773948 0.09170497 -0.16562192 0.13800064 0.18124315
-0.05730409 0.10400277 0.14197397 0.16848703 -0.19470876 -0.11471762 -0.14990374 -0.11588517
-0.17523095 -0.19733107 0.06500125 0.038992487 0.09913642 0.098280385 0.0292728 -0.072865255
0.13545237 0.2287913 -0.02552702 0.18056485 -0.040896032 0.17717683 -0.2524014 0.05689526
0.18490064 -0.20990054 0.20605184 0.024277067 0.15088207 -0.1293551 0.1981041 0.1908277
-0.04888373 0.087657474 0.14332268 0.14555009 0.0021704223 -0.014174648 0.17346765 -0.10043168
-0.24866906 0.06316955 0.044313263 -0.017750833 0.12717998 -0.29276428 -0.12721913 0.13211031
0.18886523 0.20751417 0.09789004 -0.057353605 -0.009740454 -0.15858278 0.19200197 -0.086718254
-0.013156726 0.17752697 -0.17550872 0.22060917 0.070596755 -0.22693212 -0.09554554 0.18406238
-0.13566811 0.0085161785 0.0969407 0.07579243 -0.015086125 0.07012961 -0.07934168 0.15700252
0.08579124 0.1937516 0.08136415 0.15304634 0.020391876 0.12790933 0.16010371 -0.105507
0.07170625 -0.09390391 0.1791245 0.08643024 0.060749065 -0.17967036 0.24034868 -0.180104
-0.027635658 0.17709373 -0.25980988 -0.04301036 -0.07570945 0.13736936 0.032504458 0.06369533
-0.17139934 0.034709647 0.21872135 -0.02660146 -0.05510072 -0.25124007 0.10434806 0.20571087
0.0487412 0.11523523 0.11863541 -0.018164633 0.10347775 -0.14483929 -0.06849323 -0.10145763
0.19146872 -0.036011647 -0.006085515 0.14112927 0.14216438 0.070878476 0.1274356 -0.17042436
-0.14839171 0.14625078 0.21425596 0.15289514 0.008354902 0.04241188 -0.03697676 0.14047253
-0.01106451 0.12359469 -0.21064587 0.082629725 -0.07995374 0.111109294 0.101447515 0.071838744
0.09323635 -0.04453005 -0.12102631 -0.16006936 -0.24576549 0.07150035 0.13547684 -0.19381887
-0.12081453 0.15202942 -0.17455424 0.22219297 -0.21249476 -0.22755212 0.13008368 -0.16848019
-0.0141367065 0.03629215 0.04679045 0.18191643 0.039361402 0.07121084 -0.05456896 -0.18671425
0.19390939 -0.1379778 0.023385987 -0.18878192 -0.07191527 -0.13582 0.21804269 -0.020615613
0.10146038 -0.1598749 -0.17919043 0.24534482 0.15616243 0.026393205 0.14776821 -0.08067549
-0.22308561 0.011234948 -0.21707669 0.062410858 0.12982118 0.12135538 -0.08439356 -0.1516605

hiden_layers.4.bias f4 [64]
00000000: 60d6 2ebd 0751 75bd 1986 9a3c ee0c 49bc
00000010: a2ee e5bc c048 a53d a646 27bd 6400 fabc
00000020: a813 2f3d a5e5 453b 8731 233b 5a33 adbc
00000030: 84ad 14bd 5844 6fba 88cf c13c bf82 2ebc
00000040: 8b9a 36bd ae21 50bc d13a d2bc 5738 64bd
00000050: 66f6 0b3c 3fa8 153c a2f4 56bd 516b 1cbd
00000060: 3391 b3bc 7dd1 26bd ab4c 5dbd 4618 9d3d
00000070: c3e5 9fbc 729a 143d 9117 843c 2a65 53bc
00000080: 3b87 89bd 6f22 5c3d b366 95bc f960 52bd
00000090: 3215 a1bc 5d88 0c3d 5cbe 95bc 7c9c a1bd
000000a0: 4c6f d6ba 6ffb 713d 5489 0dbb 74ab 213d
000000b0: 9c12 54bd 46b3 eb3c 386d 373d d2f8 06bd
000000c0: 986d f13c 53da 403d d887 0b3d 94d3 3b3b
000000d0: a92e 7cbc cad4 39bd f14c 1fbd b22b 18bc
000000e0: 5166 403c 8f1c 5f3c 0bfd 2f3c b477 86bd
000000f0: 1968 1b3d 6e92 21bd 5d9d 1cbd 81ef 483d
-0.042684913 -0.059891727 0.01886277 -0.012271149 -0.02806789 0.080705166 -0.04083886 -0.030517764
0.042743355 0.0030196693 0.0024901347 -0.02114265 -0.03629829 -0.00091273105 0.023658529 -0.0106512895
-0.044580977 -0.012703342 -0.025662811 -0.055717792 0.008542633 0.009134351 -0.052479394 -0.038188282
-0.021919822 -0.040727127 -0.054028194 0.076706454 -0.019518739 0.036280103 0.016124519 -0.012902537
-0.06715246 0.053743776 -0.018237447 -0.05136201 -0.019663427 0.034309734 -0.018279247 -0.07891175
-0.0016360073 0.059077676 -0.0021596747 0.03947015 -0.05177556 0.028772008 0.044781893 -0.032952137
0.029471204 0.04708321 0.034065098 0.0028660046 -0.015391984 -0.045368947 -0.038891736 -0.0092877615
0.011743144 0.013617649 0.0107414825 -0.065658 0.037941072 -0.039446287 -0.03823601 0.049056534
