results/4_like_3_without_pde/epoch520/model_weights.pth (torch, 749398 bytes, 128 tensors)

init_layer.0.weight f4 [64, 5]
0	0xbe6fbc4a	-0.2341167
1	0x3e97c20f	0.29640242
2	0x3d20ac3c	0.039226755
3	0xbe45712d	-0.19281454
4	0x3e1ed737	0.15511785
5	0xbe9e3c61	-0.3090544
6	0xbe90441d	-0.28176966
7	0xbe8d8d8f	-0.27647063
8	0xbe6ff425	-0.23432977
9	0xbe8ee367	-0.2790787
10	0x3ea1dccb	0.31613764
11	0x3e7c36c7	0.24630271
12	0xbc8fc141	-0.017548205
13	0x3da8a256	0.08234088
14	0xbe1ababd	-0.15110298
15	0xbe619895	-0.22030862
16	0x3eafaa8c	0.34309804
17	0x3e677b23	0.22605567
18	0xbe8def7c	-0.27721775
19	0x3e5f8695	0.21828683
20	0xbeacf91a	-0.337838
21	0xbe81d55b	-0.2535809
22	0xbdcd7c46	-0.10033469
23	0xbdda74a3	-0.10666778
24	0x3cc2c3fb	0.023775091
25	0x3eeaf232	0.45887905
26	0xbe8ba2d6	-0.2727267
27	0x3dd089fd	0.10182569
28	0x3e888365	0.26662746
29	0xbc1a9729	-0.009435453
30	0x3e5807ed	0.21096773
31	0xbe9b5bd7	-0.30343506
32	0x3c0458f5	0.00807785
33	0xbd1f1dfb	-0.03884695
34	0x3e1b210e	0.15149328
35	0x3ebb2fe3	0.36559972
36	0x3e11d9e4	0.14243275
37	0x3d498c3c	0.049206004
38	0x3e351644	0.17684275
39	0xbe074b9a	-0.13212433
40	0xbe6a289d	-0.22867055
41	0xbedc7615	-0.4305884
42	0x3c7cc707	0.015428311
43	0xbe8194c7	-0.2530882
44	0x3e46685e	0.1937575
45	0x3db81804	0.089889556
46	0x3d8613a2	0.065467134
47	0xbe43c408	-0.19117749
48	0x3d11a704	0.03555967
49	0x3e2870d9	0.16449298
50	0x3eecf5da	0.4628132
51	0x3e8bbf90	0.27294588
52	0xbbb5fcc5	-0.005553814
53	0x3e03d845	0.12875469
54	0x3d46be1d	0.04852115
55	0xbe36ffc4	-0.17871004
56	0x3d968305	0.07349209
57	0x3e0b564c	0.13607138
58	0x3d8e77a0	0.069564104
59	0x3d5c412d	0.053773094
60	0xbecaeacf	-0.3963227
61	0xbe5abd2d	-0.21361227
62	0xbe096f3b	-0.13421337
63	0xbdecb08a	-0.1155711
64	0xbd586e15	-0.052839357
65	0xbd217e49	-0.039427076
66	0xbec65ebb	-0.3874415
67	0xbe533962	-0.20627359
68	0x3da70ef2	0.081571475
69	0xbda24ed9	-0.07925195
70	0xbecb55bc	-0.39713848
71	0xbeb1b0ac	-0.34705102
72	0x3e84516d	0.25843373
73	0xbe8f7d1e	-0.28025144
74	0xbe34e7b4	-0.17666513
75	0x3e8a4e0b	0.27012667
76	0xbe8d98ac	-0.27655542
77	0x3dd660a1	0.10467649
78	0x3e9d1be3	0.30685338
79	0x3d6a88ef	0.057259496
80	0x3ce90395	0.02844409
81	0xbea02feb	-0.31286559
82	0x3e0cff3c	0.13769239
83	0x3e5f3949	0.21799196
84	0xbded12e1	-0.115758665
85	0xbcdfa174	-0.027298667
86	0x3ced73c2	0.028985862
87	0xbc098c29	-0.008395233
88	0x3e8d8f28	0.27648282
89	0xbe578086	-0.21045122
90	0xbd7ed08a	-0.062210597
91	0x3e418a46	0.18900403
92	0xbc6fad02	-0.014628651
93	0xbe71d8e6	-0.23617896
94	0x3e771886	0.24130449
95	0xbe19eea0	-0.15032434
96	0xbeb1a011	-0.34692433
97	0x3da18b1a	0.0788786
98	0x3d88fcf8	0.06688875
99	0x3d533b8a	0.051570453
100	0x3e778a8e	0.24173948
101	0xbe2e2bcc	-0.17008895
102	0xbe71a654	-0.23598605
103	0x3e24a63a	0.16079035
104	0x3e702ad2	0.23453835
105	0xbdae74cd	-0.08518372
106	0xbce01fb2	-0.027358864
107	0x3ce9fe00	0.0285635
108	0xbbfefc49	-0.0077815396
109	0x3c5b340f	0.013379111
110	0xbe3d8ad6	-0.18509993
111	0x3e792d22	0.24333623
112	0x3d273906	0.040825866
113	0xbe466454	-0.1937421
114	0x3d85c58d	0.065318204
115	0xbe8217aa	-0.2540868
116	0xbe9c4405	-0.30520645
117	0x3dc4fc00	0.09618378
118	0xbe6ae740	-0.22939777
119	0x3e14fcd0	0.14549565
120	0xbe83f43b	-0.2577227
121	0x3ed18ed2	0.40929276
122	0xbe13f3b1	-0.1444843
123	0xbdd6c159	-0.10486097
124	0xbe72ac71	-0.23698594
125	0xbec7dba5	-0.39034763
126	0xbe9110a8	-0.2833302
127	0x3e7cc7ae	0.24685547
128	0x3da14a85	0.078755416
129	0xbe63c945	-0.22244747
130	0xbeadc72c	-0.3394102
131	0xbdf22fd9	-0.118255325
132	0xbd4f7164	-0.050645247
133	0x3e532173	0.20618229
134	0xbdaec5a0	-0.08533788
135	0x3d8e3f48	0.06945664
136	0x3f01abe5	0.50652915
137	0xbdcb3d40	-0.09923792
138	0x3e8fc4a3	0.2807971
139	0x3e59ebec	0.21281403
140	0xbe92fb33	-0.28707275
141	0x3e3226f4	0.17397672
142	0x3db77b1d	0.08959029
143	0xbe3fb7cd	-0.18722458
144	0xbdb03896	-0.08604543
145	0xbf00844d	-0.50201875
146	0x3ec13c46	0.37741297
147	0x3d05a832	0.032631107
148	0xbe8656f7	-0.26238224
149	0x3be62f0b	0.007024651
150	0xbce59192	-0.028023515
151	0xbea04049	-0.31299046
152	0x3dd0ddb5	0.10198537
153	0xbd088e78	-0.033338994
154	0xbe4ef2c5	-0.20209797
155	0x3edc8416	0.43069524
156	0x3dfe3c16	0.12413804
157	0x3e253f59	0.16137446
158	0x3dc1e528	0.09467536
159	0x3e332598	0.1749481
160	0xbeef1195	-0.46693102
161	0x3e5c3fb1	0.21508671
162	0xbe13a073	-0.14416675
163	0xbe3ca8ed	-0.18423815
164	0x3d3e8e09	0.046522174
165	0x3e7f171a	0.24911156
166	0xbeb9c1ff	-0.3628082
167	0xbe85957d	-0.26090613
168	0x3e8bb795	0.272885
169	0xbdc4db75	-0.096121706
170	0x3da4679c	0.080275744
171	0x3e83bf62	0.2573195
172	0x3e635854	0.22201663
173	0x3e682f31	0.22674252
174	0xbe11c29d	-0.14234395
175	0xbea3d6e5	-0.3199989
176	0xbecfabbf	-0.4056072
177	0x3e42e362	0.19032052
178	0xbe87dcac	-0.26535547
179	0xbe0e492d	-0.13895102
180	0xbe5e6a1c	-0.21720165
181	0xbee803d6	-0.45315427
182	0x3d13da6d	0.03609698
183	0xbcde7715	-0.027156392
184	0xbd484c45	-0.04890086
185	0x3e8567dc	0.260558
186	0xbe37e584	-0.17958647
187	0xbe304afa	-0.17216101
188	0xbe1d4c9c	-0.15361255
189	0xbd80860b	-0.06275567
190	0x3e419e3e	0.18908021
191	0xbe93075b	-0.2871655
192	0xbcb21271	-0.02173731
193	0x3e45dd0a	0.19322601
194	0xbe3d16bc	-0.18465704
195	0x3eb5db4a	0.35518867
196	0xbe4aa304	-0.19788748
197	0x3db43e62	0.08800961
198	0xbd37bfbd	-0.04486059
199	0xbd947ab1	-0.07249964
200	0xbeb1301b	-0.34607014
201	0xbdc48a77	-0.095967226
202	0xbddbcc8b	-0.10732373
203	0x3c98f98a	0.018673677
204	0xbcaa91f9	-0.020821558
205	0xbea25679	-0.31706598
206	0xbef29b95	-0.47384325
207	0xbe102229	-0.14075531
208	0x3e3e1247	0.1856166
209	0x3cb7363f	0.022364734
210	0x3e834b1a	0.25643235
211	0xbe8866fb	-0.26641068
212	0xbda9ead8	-0.08296746
213	0x3e20e726	0.15713176
214	0x3d652bb3	0.055949878
215	0x3f090994	0.5353024
216	0xbdd8683a	-0.10566755
217	0xbe514c7a	-0.2043933
218	0x3e648b71	0.22318818
219	0x3e661ac2	0.22471145
220	0xbf0530e0	-0.520277
221	0xbe8669c6	-0.26252574
222	0xbdde6409	-0.10858924
223	0xbe023914	-0.12717086
224	0x3d88f57d	0.06687448
225	0xbe936c6e	-0.28793663
226	0x3e59c0e9	0.21264996
227	0x3e63b009	0.22235121
228	0xbe45fec7	-0.19335471
229	0xbbe37907	-0.006941918
230	0xbf01a3d2	-0.50640595
231	0x3ead125f	0.3380308
232	0x3e052d71	0.13005616
233	0xbdebb482	-0.115090385
234	0xbd8ac279	-0.06775374
235	0xbe0aefb2	-0.13567999
236	0x3e01c88d	0.1267416
237	0x3e504fe1	0.20342971
238	0xbc93ce80	-0.018042803
239	0xbe5e2a93	-0.21695928
240	0x3eea7823	0.45794782
241	0x3dfa860c	0.12232599
242	0xbe03eb41	-0.12882711
243	0x3e28882c	0.16458195
244	0xbd3fb883	-0.046806823
245	0x3e19d8be	0.15024087
246	0xbec9831b	-0.39357838
247	0xbcf8d26a	-0.03037377
248	0xbba91124	-0.005159514
249	0xbe6526bb	-0.22378056
250	0xbefc6bb4	-0.4930092
251	0xbe81189a	-0.25214082
252	0x3d046990	0.032327235
253	0xbde3ed85	-0.11129288
254	0xbe1a83be	-0.15089318
255	0x3e2cc03a	0.16870204

init_layer.0.bias f4 [64]
0	0xbd24effe	-0.040267937
1	0x3bd02d0a	0.0063530253
2	0x3df356a1	0.118817575
3	0xbd54be92	-0.051939555
4	0xbd3fc580	-0.04681921
5	0x3d009353	0.0313905
6	0x3d4acee9	0.04951373
7	0x3d930f5b	0.07180663
8	0xbcb5b197	-0.022179408
9	0xbd89637e	-0.0670843
10	0x3cc37c90	0.023863107
11	0xbe1064f5	-0.14101012
12	0xbcafd503	-0.021463877
13	0xbcde5c0a	-0.027143497
14	0x3b648dfc	0.0034874668
15	0x3cf6cd6d	0.030127252
16	0x3cac2d54	0.021017708
17	0x3d17e573	0.037084054
18	0xbd43771b	-0.04772101
19	0xbd3039bb	-0.043023806
20	0xbbbe6939	-0.0058108834
21	0xbcd8312e	-0.026390638
22	0xbd352250	-0.044222176
23	0xbc1aa683	-0.009439114
24	0xbcf0c6b9	-0.029391633
25	0x3b3f02e4	0.002914601
26	0xbd9a4f0f	-0.075346105
27	0xbb974118	-0.004615914
28	0xbc4a9d4e	-0.012366606
29	0xbd584991	-0.052804533
30	0x3d42b138	0.04753229
31	0xbb3db307	-0.002894582
32	0xbd7d03b1	-0.0617711
33	0x3cd12b1b	0.02553325
34	0xbc962fdc	-0.018333368
35	0x3cd0e13b	0.025498023
36	0xbcfc568d	-0.03080299
37	0x3d882dcf	0.06649362
38	0x3d82d9c2	0.0638919
39	0x3d8a4b18	0.06752604
40	0xbde3c619	-0.111217685
41	0xbdaa6512	-0.08320059
42	0xbb3d1b51	-0.0028855393
43	0x3a7aa5c5	0.0009561445
44	0xbd559b76	-0.052150212
45	0xbc253bd4	-0.010085065
46	0xbd13d1da	-0.036088802
47	0xbbf27e52	-0.0074003125
48	0x3d057a6c	0.032587454
49	0x3cb7e52c	0.022448145
50	0x3bfed8b5	0.0077772983
51	0x3dd63f56	0.10461299
52	0x3d07cafe	0.033152573
53	0xbc76fe50	-0.015075281
54	0x3c99e196	0.018784326
55	0xbd505c20	-0.050869107
56	0xbd2bee02	-0.04197503
57	0x3c23e4f8	0.010003321
58	0x3c604e6a	0.01369057
59	0x3d00a19b	0.03140412
60	0xbbc7727b	-0.006086645
61	0x3d11cfd6	0.0355986
62	0x3c0c00f5	0.00854515
63	0xbce39c85	-0.027784595

hiden_layers.0.weight f4 [64, 64]
0	0xbe3b2d4a	-0.18278995
1	0xbe7c99d1	-0.24668051
2	0x3da8b8f9	0.08238406
3	0x3d57a2e5	0.052645583
4	0xbe1ef924	-0.15524727
5	0x3dd5fd99	0.104487605
6	0x3e4f7925	0.20261057
7	0xbc1db1a4	-0.009624872
8	0x3d600e49	0.054701123
9	0xbd9c7e22	-0.076412454
10	0x3e929abc	0.28633678
11	0xbe2fb180	-0.17157555
12	0xbe6494e4	-0.22322422
13	0xbcb1660c	-0.021655105
14	0xbe8643eb	-0.26223692
15	0x3e8ba706	0.27275866
16	0xbe3b97e3	-0.18319659
17	0xbe0ae1de	-0.13562724
18	0xbe48ac5f	-0.19597004
19	0xbe0e42cd	-0.1389267
20	0xbde80609	-0.11329276
21	0xbdc8310c	-0.0977498
22	0xbd27f7e1	-0.04100788
23	0xbe692f48	-0.22771943
24	0x3c291381	0.0103195915
25	0x3d7c8ae0	0.06165588
26	0xbe293f3a	-0.16528025
27	0x3e507b59	0.20359553
28	0xbe2aa6b7	-0.16665159
29	0xbea6c0b3	-0.32568893
30	0xbe44e877	-0.19229303
31	0x3c02fa03	0.007994178
32	0xbce7783c	-0.028255574
33	0x3e3f032e	0.18653557
34	0xbdf75a49	-0.120777674
35	0xbd681d22	-0.05666841
36	0x3d1ebce2	0.03875435
37	0x3def6985	0.11690048
38	0xbb011783	-0.0019697852
39	0x3d373e76	0.0447373
40	0x3d612f55	0.05497678
41	0x3e04d555	0.12972005
42	0x3e904a6d	0.28181782
43	0x3e002e53	0.12517671
44	0xbe8776dd	-0.26457873
45	0xbd8bfabd	-0.06834934
46	0xbe4dd2b4	-0.20099908
47	0xbdc38715	-0.09547249
48	0x3da3488f	0.07972824
49	0x3d955ff3	0.072936915
50	0xbe52dba4	-0.20591599
51	0xbd95b55e	-0.07309984
52	0xbcbb8f88	-0.02289559
53	0x3d8cb88c	0.06871137
54	0x3db0f64e	0.08640729
55	0xbcd4247c	-0.025896303
56	0xbd1afee1	-0.037840728
57	0xbd84534c	-0.064612
58	0xbda7c6a7	-0.08192187
59	0x3d289508	0.041157752
60	0x3dd7dc9d	0.105401255
61	0x3e036864	0.1283279
62	0x3bb6cde5	0.0055787438
63	0xbd4970b4	-0.049179748
64	0xbe279129	-0.16363968
65	0x3e803bcf	0.2504563
66	0xbd0fde03	-0.035123836
67	0xbe9139d4	-0.28364432
68	0xbd5b2d7b	-0.05351017
69	0xbda07598	-0.07834929
70	0x3e961b8e	0.29317898
71	0xbc2ca7ab	-0.010538022
72	0x3e972201	0.2951813
73	0xbdecb409	-0.115577765
74	0xbe81c3c0	-0.25344658
75	0x3e227631	0.15865399
76	0x3d51a6b7	0.051184382
77	0x3dc01d5d	0.093806006
78	0x3c501ba0	0.012701899
79	0xbd0a1461	-0.03371084
80	0xbda6963a	-0.08134122
81	0xbe1f7d67	-0.15575181
82	0xbdd54144	-0.10412839
83	0x3caa5947	0.020794524
84	0xbe2368d5	-0.15957959
85	0xbc5cd31e	-0.013478069
86	0x3d9328bc	0.07185504
87	0x3e920137	0.28516552
88	0xbe0acd1a	-0.13554803
89	0x3de67384	0.112525016
90	0x3d2033d3	0.039111923
91	0xbdd8d07c	-0.1058664
92	0x3da889d2	0.08229412
93	0x3c3e0da0	0.011599928
94	0x3dd647e5	0.104629315
95	0xbc0fd8e6	-0.00877974
96	0xbe81c181	-0.25342944
97	0xbd02d593	-0.03194196
98	0xbe599767	-0.21249162
99	0x3e2797ae	0.16366455
100	0x3e9e6c8f	0.309422
101	0x3e31bc12	0.173569
102	0x3dd1ced1	0.10244525
103	0xbdd96d59	-0.106165595
104	0x3dab7930	0.08372724
105	0xbd983112	-0.074312344
106	0x3dfc3aef	0.12315928
107	0x3db28031	0.08715857
108	0x3d96e586	0.07367997
109	0xbd5255ba	-0.051351286
110	0xbe73c5c4	-0.2380591
111	0xbd85b6a3	-0.06528976
112	0xbd8fceef	-0.07021891
113	0x3e63f6e0	0.22262144
114	0x3e35df7e	0.17761037
115	0x3d8c8478	0.06861204
116	0xbe2322df	-0.15931271
117	0x3eb87217	0.36024544
118	0x3e262297	0.16224132
119	0x3da4148c	0.080117315
120	0x3db08035	0.086182036
121	0xbe951568	-0.29117894
122	0x3e12dd10	0.14342141
123	0xbdb3d07f	-0.08780002
124	0xbe609557	-0.21931969
125	0xbd820f41	-0.06350566
126	0xbc379d60	-0.011206955
127	0x3e091a23	0.13388877
128	0x3d2b523f	0.041826483
129	0xbe0df60d	-0.13863392
130	0xbd0ecb3e	-0.034861796
131	0x3e2597af	0.16171144
132	0x3da360eb	0.0797747
133	0x3e2e51f2	0.17023447
134	0x3c2cdbfd	0.010550496
135	0xbb8f59dc	-0.0043747257
136	0xbccafa98	-0.024777696
137	0x3e51c073	0.2048357
138	0x3ee09eac	0.43871057
139	0x3d691088	0.05690053
140	0xbe54834e	-0.20753214
141	0xbe48000f	-0.19531272
142	0xbe0366ed	-0.12832232
143	0x3dcf16e8	0.10111791
144	0x3bb1929c	0.0054190885
145	0xbde5fb69	-0.11229593
146	0xbc6d239b	-0.014473821
147	0xbda303ac	-0.07959685
148	0x3e43cd07	0.1912118
149	0xbe642ccf	-0.22282718
150	0x3da0cf33	0.0785202
151	0xbd026c5e	-0.03184163
152	0xbe0a6c63	-0.13517909
153	0xbe8825a6	-0.26591223
154	0x3de6f990	0.11278069
155	0x3d0aed29	0.03391758
156	0xbc9a1d35	-0.018812755
157	0xbe2acf3e	-0.16680619
158	0x3cec4f72	0.028846476
159	0x3e360b3a	0.1777772
160	0xbc6bc970	-0.014391288
161	0xbd480d9e	-0.04884111
162	0x3e30ad7d	0.1725368
163	0xbe8d9845	-0.27655235
164	0xbe111153	-0.14166765
165	0xbe328b38	-0.1743592
166	0x3da5f54b	0.081034265
167	0xbe18b0e5	-0.1491123
168	0x3d82e77f	0.063918106
169	0x3db0da71	0.086354144
170	0x3e7bcb3f	0.24589251
171	0xbdf465d2	-0.11933483
172	0xbe05bea1	-0.13061
173	0xbe3e34a7	-0.18574773
174	0xbe8d9bbd	-0.2765788
175	0x3d2f5e72	0.04281468
176	0x3e14d85b	0.14535658
177	0xbe2acb98	-0.16679227
178	0xbe3bdcf3	-0.18346004
179	0x3d6ff375	0.058581788
180	0x3e07a890	0.13247895
181	0xbd96f6f5	-0.07371322
182	0x3c8123fe	0.015764233
183	0xbe393b48	-0.1808902
184	0xbbdd2c07	-0.0067496332
185	0x3d8038e8	0.06260854
186	0xbe28c7a4	-0.16482407
187	0xbe1b016a	-0.15137258
188	0x3df2e4ca	0.11860044
189	0x3e612240	0.21985722
190	0x3e599f20	0.21252108
191	0x3e3d6023	0.18493704
192	0xbd8091ac	-0.06277785
193	0x3e8072cd	0.25087586
194	0xbe50148b	-0.20320337
195	0xbe813062	-0.25232226
196	0x3ce70aed	0.028203452
197	0x3c2130f9	0.009838336
198	0x3e764b9d	0.24052282
199	0x3df55180	0.119784355
200	0x3e63c3f0	0.22242713
201	0x3dd67810	0.10472119
202	0xbf028789	-0.5098806
203	0x3df4daa6	0.119557664
204	0x3e83eb91	0.2576566
205	0xbe069c35	-0.13145526
206	0x3ea1c9ca	0.31599265
207	0xbe7db4c2	-0.24775985
208	0x3df4a3be	0.11945294
209	0x3d36a195	0.04458769
210	0xbdb33666	-0.0875061
211	0x3cac32f0	0.021020383
212	0xbe3c04a6	-0.18361148
213	0x3d7b3167	0.06132641
214	0xbdf6b97b	-0.12047096
215	0x3e89953d	0.26871672
216	0xbdb08fa1	-0.08621145
217	0x3e6a120e	0.2285845
218	0x3d8d3249	0.06894357
219	0xbe8f7d09	-0.28025082
220	0x3dc112fd	0.0942745
221	0xbcb05343	-0.021524077
222	0x3e5a07b9	0.21292008
223	0xbd0d5e21	-0.034513596
224	0x3e4d0e86	0.20025072
225	0x3de2081a	0.110367015
226	0xbe3f4519	-0.18678702
227	0x3e782186	0.24231538
228	0x3e9b2657	0.30302688
229	0x3e749434	0.2388466
230	0x3dd4b328	0.10385734
231	0x3e74ae70	0.23894668
232	0x3dc44cb9	0.09584946
233	0xbde32bfc	-0.11092374
234	0xbd1edd5e	-0.03878533
235	0xbe5505ea	-0.20803037
236	0x3e3d7209	0.18500532
237	0x3ded1d4c	0.115778536
238	0x3e0147f9	0.12625112
239	0x3c11ccb3	0.008898902
240	0xbe2dbf24	-0.16967446
241	0x3db1b69e	0.086774096
242	0x3ece4d20	0.40293217
243	0x3dffe517	0.12494867
244	0xbe55d8bc	-0.20883459
245	0x3e996622	0.29960734
246	0x3e3d006e	0.18457195
247	0xbc02b1ee	-0.007976992
248	0x3dc24a6c	0.09486851
249	0xbe49beba	-0.19701663
250	0xbbe437b8	-0.00696465
251	0x3da38e91	0.07986177
252	0x3e020e0d	0.12700672
253	0x3c965df0	0.01835534
254	0xbea19f9e	-0.3156709
255	0xbca6cea3	-0.020362204

hiden_layers.0.bias f4 [64]
0	0x3d206405	0.039157886
1	0xbd02f15f	-0.03196847
2	0x3ccac57f	0.024752377
3	0xbd33240b	-0.043735545
4	0x3d0088ea	0.03138057
5	0xbd0effef	-0.034912046
6	0x3ba64705	0.005074384
7	0x3cb54e93	0.022132194
8	0xbd497e2b	-0.04919259
9	0xbd2f6f22	-0.042830594
10	0x3d865845	0.06559805
11	0x3c95813e	0.018250104
12	0xbc9f65eb	-0.019457778
13	0xbc82ef17	-0.015983148
14	0xbd033e10	-0.03204161
15	0xbd110f16	-0.035414778
16	0x3cee2f44	0.029075272
17	0xbd8a4518	-0.0675146
18	0xbb595d9c	-0.0033167368
19	0x3ccc8235	0.024964431
20	0x3ca8d7c2	0.020610694
21	0x3d1fc38e	0.039004855
22	0xbc74b691	-0.014936105
23	0xbcd6eef1	-0.026236983
24	0xbd55de0d	-0.052213717
25	0x3d1139e2	0.035455592
26	0x3d406049	0.046966825
27	0xbcaf676d	-0.021411622
28	0x3d4d0ccb	0.05006103
29	0x3d00fca6	0.031490944
30	0xbc9864b7	-0.018602712
31	0x3d28608a	0.04110769
32	0x3c85e5ae	0.016344871
33	0x3cc1bc3b	0.023649326
34	0x3d248bbd	0.040172327
35	0xbaa53762	-0.0012605006
36	0x3b16af8a	0.0022992813
37	0x3d1671e2	0.0367297
38	0x3d0d357a	0.034474827
39	0xbd0766c2	-0.03305698
40	0x3cb783d0	0.02240172
41	0xbd823c92	-0.06359209
42	0xbd4ab26a	-0.049486555
43	0xbd1d9c33	-0.03847904
44	0x3c97273e	0.01845133
45	0xbcdf0a26	-0.027226519
46	0xbd4de0b9	-0.05026314
47	0x3cc8f0b1	0.024528833
48	0xbcb75f52	-0.02238432
49	0x3c0ba3c9	0.008522936
50	0x3c870cbf	0.01648557
51	0xbcc87d0f	-0.024473695
52	0x3cf686c4	0.030093558
53	0xbb5313f5	-0.003220794
54	0xbd33404b	-0.043762486
55	0xbd5ac69b	-0.05341206
56	0x3c9b9602	0.018992428
57	0xbccc715c	-0.024956398
58	0x3d20ae7c	0.0392289
59	0x3d6145dc	0.054998264
60	0x3d6d6011	0.057952944
61	0x3c8e961d	0.017405564
62	0xbc91c2c4	-0.017793067
63	0xbcd4e6b0	-0.025988907

hiden_layers.1.weight f4 [64, 64]
0	0x3e81e2ac	0.2536825
1	0x3dd67128	0.104708016
2	0x3df0b3d5	0.1175305
3	0x3d2bb84b	0.041923802
4	0xbd8138c8	-0.06309658
5	0x3cc508b5	0.024052003
6	0x3e461019	0.19342078
7	0xbe2ddc98	-0.16978681
8	0x3cfe02de	0.031007227
9	0x3d729a55	0.059229214
10	0xbd3c1aef	-0.045924123
11	0x3b9fcb24	0.004876511
12	0xbe87cc6d	-0.26523152
13	0x3e05c94d	0.13065071
14	0xbdacc561	-0.084360845
15	0x3dd0dc11	0.10198224
16	0x3e1ea9f4	0.1549452
17	0xbdec5959	-0.11540479
18	0x3d68c9a1	0.056832913
19	0x3e0676a1	0.13131191
20	0xbe2ddf27	-0.16979657
21	0xbe11f4a3	-0.14253478
22	0xbdc95fb1	-0.09832705
23	0xbd893b54	-0.06700769
24	0xbdc8f238	-0.098118246
25	0xbe3c507f	-0.18390082
26	0x3da17ef7	0.07885545
27	0x3e544740	0.20730305
28	0x3df5a4b0	0.11994302
29	0xbdf53ade	-0.11974119
30	0x3e48ff28	0.19628584
31	0xbdedf159	-0.11618299
32	0xbe02d895	-0.12777932
33	0xbe99e1cb	-0.3005508
34	0x3cee8acf	0.029118923
35	0x3d0283b2	0.031863876
36	0xbe359fe5	-0.17736776
37	0x3d6a2b48	0.057170182
38	0x3e3000a9	0.17187752
39	0x3dfaac81	0.12239934
40	0x3e4ec19b	0.20191042
41	0xbcb3e271	-0.021958562
42	0x3c8c1d1b	0.017103722
43	0x3ca05a9c	0.019574456
44	0x3e419387	0.18903933
45	0x3dfd9f6f	0.12383925
46	0xbd3d195c	-0.046166763
47	0xbc3d3e32	-0.011550473
48	0x3cb974db	0.022638729
49	0x3d89f2f2	0.06735791
50	0xbd1952ad	-0.03743236
51	0xbe240649	-0.16018023
52	0xbe73c3a3	-0.23805098
53	0x3e387a13	0.18015318
54	0xbddea3d9	-0.10871095
55	0xbd046aea	-0.032328524
56	0x3e1edd00	0.15513992
57	0xbe4a1e75	-0.19738181
58	0xbd5a8a4b	-0.053354543
59	0x3b2c2109	0.0026264808
60	0xbda3136d	-0.079626895
61	0x3dc5b645	0.09653906
62	0x3daf69ae	0.08565079
63	0xbd4037c1	-0.04692817
64	0x3e1e88eb	0.15481918
65	0xbd8b0ec5	-0.067899264
66	0x3e731ea3	0.23742156
67	0xbe3b920f	-0.18317436
68	0x3c83427d	0.016022915
69	0xbe248742	-0.16067222
70	0x3e38e50f	0.18056129
71	0x3ce3c5c2	0.02780426
72	0x3e2f8c96	0.17143473
73	0x3bfe9515	0.007769237
74	0x3f217227	0.6306481
75	0x3c841a61	0.01612586
76	0xbe047aa7	-0.12937413
77	0x3e08b2ba	0.13349429
78	0xbd2f7c6d	-0.04284327
79	0x3e17b944	0.14816767
80	0xbde57e3c	-0.11205718
81	0x3e289fcc	0.16467208
82	0xbe65b0ee	-0.22430775
83	0x3e08508f	0.1331198
84	0x3cd5c1ae	0.02609333
85	0x3b6f3f8b	0.003650638
86	0xbd9aee07	-0.07564931
87	0xbe7fc24b	-0.2497646
88	0xbbf09428	-0.0073418804
89	0x3ddaf3f1	0.106910594
90	0xbdff0603	-0.124523185
91	0xbdd2b597	-0.10288542
92	0xbe1af740	-0.15133381
93	0xbe05558a	-0.13020912
94	0x3de65b8f	0.11247932
95	0x3dd41a96	0.10356633
96	0x3e4a1d1f	0.19737671
97	0x3cec0350	0.028810173
98	0x3e60a216	0.21936831
99	0x3d862d3c	0.065515965
100	0xbe1f6696	-0.15566477
101	0x3f431b02	0.76213086
102	0x3d5b8fb4	0.053603843
103	0x3d671748	0.056418687
104	0x3e38280f	0.17984031
105	0x3e08a5d9	0.13344516
106	0xbbeee82d	-0.007290861
107	0xbe0544c2	-0.1301451
108	0x3d2ef42d	0.042713333
109	0x3e698836	0.22805867
110	0x3d86e53e	0.06586693
111	0xbd215ab9	-0.03939316
112	0x3e6dff41	0.23241903
113	0xbde686fa	-0.112562135
114	0xbce4e0c4	-0.027939208
115	0x3b87a7ef	0.0041398923
116	0x3e4eb68e	0.20186827
117	0x3e31a97a	0.17349806
118	0xbd0962ef	-0.033541616
119	0xbe8453c4	-0.25845158
120	0xbd8f6370	-0.07001388
121	0x3e931ea5	0.28734317
122	0x3f084f61	0.5324612
123	0x3e4e18c5	0.20126636
124	0xbe2e1bf3	-0.1700285
125	0x3e29b0bb	0.16571324
126	0x3e4b3143	0.1984301
127	0xbe620965	-0.22073896
128	0x3d75a432	0.059971042
129	0xbdea6abd	-0.1144614
130	0xbd503287	-0.050829437
131	0xbdde5781	-0.10856534
132	0x3dcdf5b0	0.10056627
133	0xbdd55386	-0.104163215
134	0x3e41cb64	0.18925244
135	0x3e10f0c7	0.1415435
136	0x3e4726ba	0.19448367
137	0x3e22ac6c	0.15886086
138	0x3ee04bf8	0.4380796
139	0xbd09bdfa	-0.03362844
140	0xbe8dc6a6	-0.2769062
141	0xbe2e5c26	-0.1702734
142	0xbd83348e	-0.064065084
143	0x3e69535e	0.22785708
144	0x3d034ab1	0.032053653
145	0xbdc06453	-0.09394135
146	0x3e402b83	0.18766598
147	0xbddc0cff	-0.10744666
148	0xbe1960cd	-0.14978333
149	0x3e0de010	0.13855004
150	0x3e015536	0.12630162
151	0x3bd02855	0.006352464
152	0xbd23d860	-0.040001273
153	0xbd661339	-0.056170676
154	0x3daf4de6	0.0855978
155	0xbd8936a0	-0.06699872
156	0xbdf71a18	-0.12065524
157	0xbe52de24	-0.20592552
158	0x3df74b3c	0.12074897
159	0x3e37ad7c	0.17937273
160	0x3e66e3a3	0.22547774
161	0xbb986a14	-0.0046513174
162	0x3d8c6574	0.06855288
163	0xbe47b940	-0.19504261
164	0x3e4fd981	0.20297815
165	0xbe2ea25a	-0.1705412
166	0xbe3d69a5	-0.18497331
167	0xbe6738c7	-0.22580253
168	0x3e405593	0.18782644
169	0x3e4517d6	0.19247374
170	0x3d17d881	0.03707171
171	0x3df065fc	0.11738202
172	0x3d1c34cd	0.038136292
173	0x3e9126d8	0.28349948
174	0xbce86b82	-0.028371576
175	0x3e3fd43d	0.18733306
176	0x3dccda63	0.100025915
177	0x3e3ddb0b	0.1854059
178	0x3dbc7172	0.092013255
179	0xbd6fca44	-0.058542505
180	0x3c953b97	0.018216891
181	0x3df453e2	0.11930062
182	0x3e46babb	0.1940717
183	0xbdb359f3	-0.08757391
184	0xbe03db72	-0.1287668
185	0x3d915433	0.07096138
186	0x3e27b60d	0.1637804
187	0xbe29a29e	-0.1656594
188	0xbe16684c	-0.14688224
189	0xbda6d508	-0.08146101
190	0x3e959ce1	0.29221252
191	0xbe899625	-0.26872364
192	0xbe6f8ec8	-0.2339431
193	0x3bb67772	0.005568438
194	0xbd8e007e	-0.069336876
195	0xbe677010	-0.22601342
196	0xbb8de2cf	-0.004330016
197	0xbde0e2f5	-0.109807886
198	0xbdc99b42	-0.09844066
199	0x3e2efe1d	0.17089124
200	0xbda58bc2	-0.08083297
201	0x3da33ebc	0.0797095
202	0xbd0d1e9c	-0.03445302
203	0xbe81e866	-0.25372618
204	0x3e145770	0.1448648
205	0x3dd1e279	0.10248274
206	0x3de4e388	0.11176211
207	0xbdc1f23d	-0.094700314
208	0x3e86cb29	0.26326874
209	0xbbe0105f	-0.006837889
210	0x3dc23d3c	0.09484336
211	0xbd5f53a0	-0.05452311
212	0xbda9004c	-0.0825201
213	0x3c444450	0.011979178
214	0xbd824a4b	-0.063618265
215	0x3e87381a	0.2640999
216	0xbdf72126	-0.120668694
217	0xbdc3c4a9	-0.09558994
218	0xbe21683d	-0.1576242
219	0xbd848753	-0.064711235
220	0xbd836341	-0.064154156
221	0x3e135538	0.14387977
222	0xbde2f473	-0.11081781
223	0x3d15bf4a	0.03655938
224	0x3d21c8ab	0.039498013
225	0x3e266dd5	0.16252835
226	0x3dba27df	0.09089636
227	0xbbb58390	-0.005539365
228	0xbd599bb6	-0.053127013
229	0xbe62a574	-0.22133428
230	0x3a88cf36	0.001043773
231	0x3e094241	0.1340418
232	0x3d418980	0.04725027
233	0xbde7a0a5	-0.113099374
234	0x3d08fed8	0.033446163
235	0x3d89d24a	0.067295626
236	0xbd6fb289	-0.058519874
237	0xbd613192	-0.054978915
238	0xbd305b33	-0.043055724
239	0x3e5b5b0e	0.21421453
240	0x3e3efd31	0.18651272
241	0xbd92a7c7	-0.07160907
242	0x3da62934	0.081133276
243	0x3e95af1e	0.29235166
244	0x3e1dd8a2	0.1541467
245	0x3cdbc93a	0.02682935
246	0xbc5cc922	-0.013475688
247	0x3e11aafe	0.14225385
248	0x3db36806	0.08760075
249	0x3e2bc4b9	0.16774262
250	0x3e0c4d89	0.13701452
251	0x3d88567c	0.066571206
252	0x3e021562	0.1270347
253	0xbb7bf4a5	-0.003844538
254	0x3d7874b9	0.06065819
255	0xbeb071c7	-0.34461805

hiden_layers.1.bias f4 [64]
0	0x38f5400d	0.00011694441
1	0x3d408e4e	0.047010712
2	0x3c44abf2	0.012003886
3	0xbd3427d3	-0.04398329
4	0x3d9118a8	0.07084781
5	0x3bf61e41	0.0075109308
6	0xbd8034d7	-0.062600784
7	0xbac53ee7	-0.0015048654
8	0xbc9b46ee	-0.01895472
9	0xbd261f66	-0.040557288
10	0x3b469d67	0.0030306221
11	0x3d69c188	0.05706933
12	0x3cc37479	0.02385925
13	0x3da003bb	0.078132115
14	0x3cb13c04	0.021635063
15	0x3d9d26f6	0.07673447
16	0x3ce0e9b4	0.027455188
17	0x3c8b047b	0.01696991
18	0x3d28d174	0.041215375
19	0xbc741a5e	-0.014898865
20	0xbd425c7a	-0.047451474
21	0x3c81f1c3	0.015862351
22	0x3d2c3ad2	0.042048283
23	0x3cba12c4	0.022714026
24	0xbc867201	-0.016411783
25	0xbd89e047	-0.06732231
26	0xbc6f76f6	-0.014615765
27	0x3b34a604	0.0027564773
28	0x3d75d723	0.060019623
29	0xbd9317d2	-0.07182278
30	0xbbd241ef	-0.0064165513
31	0xbd311158	-0.04322943
32	0xbd27f96f	-0.041009363
33	0xbd9d0785	-0.0766745
34	0xba8ceaa7	-0.0010751084
35	0xbd01afa4	-0.031661645
36	0xbd8520c3	-0.065003894
37	0x3d524f3e	0.051345102
38	0xbd94e9a6	-0.072711274
39	0x3df6ca08	0.12050253
40	0xbcd7dab4	-0.026349403
41	0xbd2cb04a	-0.04216031
42	0x3d2a1296	0.04152163
43	0x3d7354b0	0.059406936
44	0x3d41bbe0	0.047298312
45	0xbc842f83	-0.016135937
46	0xbd1bed54	-0.03806813
47	0x3b833674	0.004004294
48	0x3dbb18c1	0.09135581
49	0x3d6eda66	0.05831375
50	0x3be2f9ba	0.0069267424
51	0xbd866c59	-0.065636344
52	0x3dacb2e5	0.08432559
53	0x3da9097a	0.08253761
54	0xbd6fd4c6	-0.058552526
55	0xbd2faac8	-0.04288748
56	0xbbbbc428	-0.0057301708
57	0xbd7f4935	-0.062325675
58	0xbd70fb87	-0.058833625
59	0xbc086bba	-0.008326465
60	0x3d10dd51	0.035367314
61	0xbca825bd	-0.020525808
62	0x3d85276e	0.06501661
63	0xbbd3881b	-0.006455434

hiden_layers.2.weight f4 [64, 64]
0	0xbdd7889d	-0.10524104
1	0xbe9b0047	-0.3027365
2	0xbe54a18e	-0.20764753
3	0x3e2941a7	0.1652895
4	0xbe27f7c4	-0.16403109
5	0x3caddbc5	0.021222958
6	0x3e07039b	0.13184969
7	0x3e5de79f	0.21670388
8	0x3e57d808	0.21078503
9	0xbd171681	-0.036886696
10	0xbbabf49d	-0.005247666
11	0xbe822494	-0.25418532
12	0xbd53f8fc	-0.051751122
13	0x3d265dd8	0.04061684
14	0x3e3ba271	0.18323685
15	0xbe227d1b	-0.15868036
16	0x3e4f4444	0.20240885
17	0x3e7a878b	0.24465768
18	0x3d32f4f4	0.043690637
19	0xbd556157	-0.052094784
20	0x3d26375b	0.040580135
21	0xbe2cf9a9	-0.16892113
22	0xbe21b7b7	-0.15792738
23	0xbe362486	-0.1778737
24	0xbccd1f81	-0.025039436
25	0x3dea9750	0.11454642
26	0xbdc5bf3b	-0.09655615
27	0x3c76fdee	0.01507519
28	0xbdba12ba	-0.09085603
29	0x3e113292	0.14179447
30	0xbe27601d	-0.16345258
31	0x3d70d07d	0.05879258
32	0x3e2c8cf1	0.1685064
33	0x3de78378	0.113043725
34	0x3e08a244	0.1334315
35	0x3bf19666	0.007372665
36	0x3e91115c	0.28333557
37	0xbe5c0bd5	-0.21488889
38	0xbd884557	-0.066538505
39	0xbe26a2b2	-0.16273001
40	0xbe08393f	-0.13303088
41	0xbe1989eb	-0.14994018
42	0x3d91bb7b	0.07115837
43	0x3daa461f	0.08314156
44	0xbdbd5d5c	-0.092463225
45	0x3d8a50c5	0.06753687
46	0x3e14e377	0.14539896
47	0xbe276286	-0.16346177
48	0x3cb6216a	0.02223273
49	0x3d17ded4	0.03707774
50	0xbc8fd6ba	-0.017558444
51	0x3de71520	0.11283326
52	0xbd8580ef	-0.06518733
53	0x3e36c883	0.17849927
54	0x3c39a6ec	0.011331301
55	0xbdb957bf	-0.09049939
56	0x3e507412	0.20356777
57	0xbe1dbb31	-0.15403439
58	0x3de4d227	0.11172896
59	0x3d3d8fd6	0.04627975
60	0x3e4de203	0.20105748
61	0x3e1cd561	0.15315773
62	0xbd2ce974	-0.042214826
63	0x3c59ba42	0.013289036
64	0x3c85a171	0.016312333
65	0xbcd10fd6	-0.025520246
66	0x3e68b747	0.22726165
67	0x3c0b317d	0.008495686
68	0xbdc6604e	-0.096863374
69	0x3c3f05b7	0.011659077
70	0x3d88daed	0.06682382
71	0x3e3e02d7	0.18555771
72	0x3de7426c	0.11291966
73	0x3e2d67cc	0.16934127
74	0xbe26db34	-0.16294557
75	0x3d86c5ee	0.06580721
76	0x3e8b839c	0.27248847
77	0xbd1c8c9c	-0.038220033
78	0xbdcf4a4c	-0.10121593
79	0xbd63babe	-0.055598013
80	0xbdfe75b4	-0.12424794
81	0x3dbca7f9	0.09211726
82	0xbd8b8646	-0.0681272
83	0x3e47e7e6	0.19522056
84	0xbe6d8f4e	-0.23199198
85	0x3de396b3	0.11112728
86	0xbe99c83b	-0.30035576
87	0x3ed40a5c	0.41414154
88	0x3e0b05eb	0.13576476
89	0xbd779080	-0.06044054
90	0x3c84d6e5	0.016215751
91	0xbb4d54f2	-0.003133115
92	0xbdb94a20	-0.09047341
93	0x3d974562	0.073862806
94	0x3dd2a5b2	0.1028551
95	0xbe42fc72	-0.19041613
96	0xbd9383fe	-0.0720291
97	0xbdd93cc3	-0.106072925
98	0x3bd9edaf	0.0066506485
99	0xbecd0a87	-0.40047094
100	0x3e41c895	0.18924172
101	0x3dcba266	0.099430844
102	0x3e0ca19e	0.13733527
103	0x3dbe7124	0.092989236
104	0xbd52586e	-0.051353864
105	0xbe8547c0	-0.26031303
106	0xbd7728f8	-0.060341805
107	0x3e2d0a4b	0.16898458
108	0x3ea8eea3	0.32994565
109	0x3e0b2f6a	0.13592306
110	0x3d84c8a4	0.06483582
111	0xbe83d5ec	-0.25749147
112	0xbe4ba580	-0.19887352
113	0x3d177dd0	0.03698522
114	0xbe11dd50	-0.1424458
115	0xbe0071ce	-0.12543413
116	0xbdf6c8c5	-0.120500125
117	0xbe0fc525	-0.14040048
118	0x3e8091bf	0.25111195
119	0xbd6c50f9	-0.05769441
120	0xbea253b9	-0.317045
121	0x3de00ef1	0.1094035
122	0x3b19b098	0.0023451205
123	0xbdee689e	-0.11641048
124	0x3e8fdb24	0.2809688
125	0xbdffa716	-0.12483041
126	0x3aea1313	0.0017858468
127	0xbdc2cc7e	-0.0951166
128	0xbe31a607	-0.1734849
129	0x3dca647a	0.09882446
130	0xbcee093d	-0.02905714
131	0x3c4ba7cc	0.012430143
132	0x3b5e1252	0.0033885431
133	0x3e35f3a8	0.17768729
134	0xbd2987dd	-0.041389335
135	0x3df6e231	0.12054861
136	0x3dfaea8a	0.12251766
137	0xbcca4674	-0.024691798
138	0x3b63f83a	0.0034785406
139	0x3e3cd289	0.18439688
140	0x3e2a6c82	0.16642955
141	0xbd1eccdc	-0.038769588
142	0xbd4a7419	-0.049427126
143	0xbd06ed4d	-0.03294115
144	0xbe035949	-0.12827028
145	0xbe925784	-0.28582394
146	0xbde1fa23	-0.11034038
147	0x3d65a8bc	0.05606912
148	0xbe035a22	-0.12827352
149	0x3dfb5f13	0.12273993
150	0xbe08e46a	-0.13368383
151	0x3e5ab27a	0.21357146
152	0x3e48cc3d	0.1960916
153	0x3de5dca7	0.11223727
154	0xbdc3cee5	-0.095609464
155	0x3e984b62	0.29745013
156	0x3de639c5	0.112414874
157	0xbe9e2c78	-0.30893302
158	0x3e1a501c	0.15069622
159	0x3c86204b	0.01637282
160	0x3e010116	0.1259807
161	0x3e1933df	0.14961194
162	0xbdaaedd2	-0.08346142
163	0xbdbe4f8f	-0.09292518
164	0x3da7412f	0.0816673
165	0x3da52ab4	0.080647856
166	0x3e98e0f4	0.29859126
167	0x3c2a936b	0.010411124
168	0xbdb41a15	-0.08794037
169	0xbdaf438d	-0.08557806
170	0x3d62dad1	0.05538446
171	0x3e896db6	0.26841515
172	0x3ce3f238	0.02782546
173	0x3db58348	0.088629305
174	0xbdfcb766	-0.12339668
175	0xbe34f995	-0.17673333
176	0xbdd091ec	-0.101840824
177	0x3d24eb01	0.04026318
178	0xbea1c038	-0.31591964
179	0xbe13c7b3	-0.14431648
180	0x3da02fb9	0.078216024
181	0x3d01872b	0.031623047
182	0xbdb1173a	-0.08647008
183	0x3d8a237d	0.0674505
184	0x3d619584	0.05507423
185	0x3e08d5c9	0.13362803
186	0xbdba5336	-0.090979025
187	0x3d226013	0.039642405
188	0x3e11bf51	0.14233138
189	0xbe3aab46	-0.18229398
190	0x3ca60435	0.020265678
191	0xbe48c1c0	-0.1960516
192	0xbd9d39ba	-0.07677026
193	0x3d9d0d2b	0.07668527
194	0xbe327f67	-0.17431413
195	0xbdbc860c	-0.09205255
196	0x3e1fc809	0.15603651
197	0x3deb4159	0.114870735
198	0xbd220e2a	-0.03956429
199	0x3d19e6e6	0.037573718
200	0x3e6da8b2	0.23208883
201	0x3d4dbc44	0.050228372
202	0xbe53134e	-0.20612833
203	0x3ccf8fdf	0.025337158
204	0xbea9ffd4	-0.33202994
205	0xbe148b79	-0.1450633
206	0xbe4d6e3c	-0.20061582
207	0xbc035e61	-0.008018107
208	0x3e6ed587	0.23323642
209	0xbcbeb78a	-0.023280878
210	0xbe13448d	-0.14381619
211	0x3e13d7f9	0.14437856
212	0x3c6682f0	0.014069304
213	0xbd8bd746	-0.068281695
214	0x3becf631	0.0072314967
215	0xbdb379a2	-0.08763434
216	0xbe45a2de	-0.1930041
217	0xbe574cca	-0.21025386
218	0xbe593b4c	-0.21214026
219	0x3e2409ea	0.16019407
220	0xbe136205	-0.1439286
221	0xbe063650	-0.13106656
222	0xbe942bfa	-0.289398
223	0xbd9a3d3d	-0.075312115
224	0x3cb00dfb	0.021491041
225	0xbd18770d	-0.03722291
226	0xbe30d7b9	-0.17269792
227	0xbce047c4	-0.02737797
228	0x3dd45c55	0.103691734
229	0x3e4f1e58	0.20226419
230	0x3ce07c24	0.027402945
231	0xbe181e05	-0.14855202
232	0xbddd0bfc	-0.107933015
233	0x3e7350bb	0.23761265
234	0x3db98e94	0.09060398
235	0x3e096725	0.13418253
236	0xbe87dd63	-0.26536092
237	0xbe4f22d9	-0.20228137
238	0xbe458254	-0.19287997
239	0x3e006c68	0.12541354
240	0x3e1ded92	0.15422657
241	0xbe7c92df	-0.24665402
242	0x3d2534ca	0.040333547
243	0xbdd1f5a6	-0.10251932
244	0x3e000a0c	0.12503833
245	0x3e3e1572	0.18562868
246	0xbe663b7a	-0.22483626
247	0xbdf0e810	-0.117630124
248	0x3e0527cc	0.13003463
249	0xbe0b575f	-0.13607548
250	0xbe463cbf	-0.1935911
251	0xbca97b8d	-0.020688796
252	0xba3ce438	-0.0007205638
253	0x3e012235	0.12610705
254	0x3d11d31b	0.035601716
255	0xbe0f306f	-0.1398332

hiden_layers.2.bias f4 [64]
0	0xbd99ade6	-0.075038716
1	0xbd11453a	-0.03546641
2	0xbc5e29ba	-0.013559753
3	0x3d28ec5d	0.04124104
4	0x3d57c4ff	0.052678104
5	0x3d2db023	0.042404305
6	0xbb70eb9b	-0.0036761526
7	0xbc13c77e	-0.009019731
8	0x3daaf433	0.083473586
9	0xbc05963a	-0.008153493
10	0xbdf447a9	-0.119277306
11	0xbd459a4f	-0.048242863
12	0x3d1c55fa	0.03816793
13	0xbdd499f9	-0.103809305
14	0x3dafc0c4	0.08581689
15	0x3e0a99ee	0.13535282
16	0x3dbcc0b8	0.09216446
17	0xbd026fb0	-0.031844795
18	0x3d849ba2	0.06474997
19	0xbd2e97f6	-0.04262539
20	0xbd97d404	-0.07413486
21	0xbe4f9f14	-0.20275527
22	0xbd6c9491	-0.05775887
23	0x3cbdaffc	0.023155205
24	0xbdaae328	-0.08344108
25	0x3e90a13a	0.28248006
26	0xbcba806f	-0.02276632
27	0xbc15751b	-0.009122158
28	0x3d9b0795	0.075698055
29	0xbdabd0ae	-0.08389412
30	0xbd4b142c	-0.049579784
31	0xbe2737a5	-0.1632982
32	0xbd05f271	-0.032701913
33	0x3d94f23c	0.07272765
34	0x3d9ff10d	0.07809649
35	0x3d360579	0.044438813
36	0xbdfd873b	-0.12379309
37	0x3cda335d	0.02663582
38	0x3df95271	0.121739276
39	0xbd9d176d	-0.07670484
40	0xbc8d77a6	-0.017268967
41	0xbd25bf7c	-0.040465817
42	0x3caaf395	0.020868102
43	0x3c395681	0.011312128
44	0x3cd67816	0.026180308
45	0xbcd25da9	-0.025679426
46	0xbafa8c65	-0.0019115327
47	0x3da45243	0.08023503
48	0xbd076ee2	-0.03306473
49	0x3d5c27cd	0.053748894
50	0xbe4a0536	-0.1972855
51	0x3d853a85	0.06505302
52	0xbd4ce974	-0.050027326
53	0x3d17fec4	0.037108198
54	0xbd03d43b	-0.03218482
55	0x3d6357b7	0.055503573
56	0x3c447021	0.011989624
57	0xbb9cff5f	-0.004791185
58	0x3db32bc1	0.0874858
59	0xbbca58c9	-0.006175135
60	0xbdb03971	-0.08604706
61	0xbe085057	-0.13311897
62	0x3dcc1935	0.09965745
63	0xbd958e11	-0.07302488

hiden_layers.3.weight f4 [64, 64]
0	0xbe32333a	-0.17402354
1	0xbe4c12a1	-0.19928981
2	0xbd9abc51	-0.0755545
3	0x3dcea4ca	0.10090025
4	0x3db97482	0.09055425
5	0xbe1a882a	-0.15091005
6	0xbe311c3a	-0.17295924
7	0x3e46ebb4	0.19425851
8	0x3d9be1fd	0.07611463
9	0x3e1f69fd	0.15567775
10	0xbc930cce	-0.017950442
11	0x3c42572e	0.011861606
12	0xbcc89364	-0.024484344
13	0x3e9ebdff	0.3100433
14	0x3d55b84f	0.052177723
15	0x3c6f49a2	0.014604958
16	0xbde46e64	-0.11153868
17	0xbd4e6061	-0.050384883
18	0x3ce7568f	0.028239517
19	0xbdf46b38	-0.11934513
20	0xbe7ae7d9	-0.24502505
21	0xbd86b72f	-0.06577908
22	0xbde34d22	-0.11098696
23	0x3db474c6	0.08811335
24	0xbda23b61	-0.07921482
25	0xbe198abf	-0.14994334
26	0xbe0f49d1	-0.13993002
27	0xbc7f1d97	-0.01557102
28	0xbd38653f	-0.04501843
29	0x3d8cbdb0	0.068721175
30	0x3e141750	0.14462018
31	0x3ca8461e	0.020541247
32	0xbe64fab8	-0.22361267
33	0x3d6fce65	0.058546443
34	0x3cd30dc6	0.025763404
35	0x3dcfc2e7	0.101445965
36	0x3e322901	0.17398454
37	0x3eac8c62	0.33700854
38	0x3db7dc06	0.08977513
39	0xbe374ac1	-0.1789961
40	0xbda06e8a	-0.07833584
41	0xbe4adb5f	-0.19810246
42	0x3e8133ef	0.25234935
43	0x3e8417ca	0.257994
44	0x3cee9a8d	0.02912643
45	0x3e318fb5	0.17339976
46	0x3e634b23	0.22196631
47	0xbd128c61	-0.035778407
48	0xbaa89343	-0.001286127
49	0xbe16fb9d	-0.1474442
50	0xbdd4723d	-0.10373352
51	0xbd1f30e9	-0.038865004
52	0x3e136ce6	0.1439701
53	0xbdc1d116	-0.09463708
54	0x3d863cd9	0.065545745
55	0x3d30886d	0.043098856
56	0x3c295e20	0.010337383
57	0xbe4680b9	-0.19385041
58	0x3e0414d8	0.12898576
59	0x3e73b832	0.23800734
60	0x3db5f0bb	0.08883806
61	0x3e9279cb	0.28608546
62	0x3d845495	0.06461445
63	0xbe60dd66	-0.21959457
64	0xbdde73bd	-0.10861919
65	0xbda1207d	-0.07867525
66	0x3e40d2c0	0.18830395
67	0xbe07d98b	-0.1326658
68	0x3e5b31a1	0.2140565
69	0x3e29d8f1	0.16586663
70	0xbe032860	-0.1280837
71	0x3e31a787	0.17349063
72	0x3e2a3b4d	0.16624184
73	0x3e56ae66	0.20964965
74	0xbe3cf190	-0.18451524
75	0x3d540a6c	0.05176775
76	0x3d3f49aa	0.04670111
77	0x3e6aaf40	0.22918415
78	0x3e1283fc	0.1430816
79	0xbdc7fece	-0.09765397
80	0xbe2f40cf	-0.17114566
81	0x3c9b52fc	0.018960468
82	0xbe1a9739	-0.1509675
83	0xbe47e485	-0.19520767
84	0xbdb9109b	-0.0903637
85	0x3cd4da27	0.02598293
86	0x3e0b782e	0.13620064
87	0x3e2d4485	0.1692067
88	0x3e43d39f	0.19123696
89	0x3dac885f	0.08424448
90	0xbdd904b8	-0.10596603
91	0x3e63cf09	0.22246946
92	0xbe5e32ef	-0.21699117
93	0x3df86b66	0.121298596
94	0xbd831d72	-0.064021006
95	0xbe1f09d1	-0.15531088
96	0xbc460802	-0.01208687
97	0x3e3d58d9	0.18490924
98	0x3e61f42b	0.22065799
99	0x3dc7b8c9	0.09752042
100	0x3e8321ab	0.25611624
101	0xbc8cb1c0	-0.017174602
102	0xbe338857	-0.17532478
103	0xbda2d92d	-0.07951579
104	0xbe5d4dde	-0.21611735
105	0xbe16c783	-0.14724545
106	0xba99e627	-0.0011741564
107	0xbe3be70d	-0.18349858
108	0x3d384c10	0.044994414
109	0x3d2dce25	0.042432923
110	0x3dde7ad9	0.10863275
111	0x3e75a749	0.23989595
112	0x3db6abbf	0.08919477
113	0x3e266fc3	0.16253571
114	0x3e29e011	0.16589381
115	0x3e189376	0.14900002
116	0x3e8cc826	0.2749645
117	0xbd9268dc	-0.071489066
118	0xbd1dee7f	-0.038557526
119	0xbe33a655	-0.1754392
120	0x3e8a65e2	0.27030855
121	0x3e141c39	0.14463891
122	0xbd3eba13	-0.046564173
123	0x3ded0ae4	0.11574343
124	0x3e3fdecc	0.18737334
125	0x3d1ecb72	0.03876824
126	0x3e20181b	0.15634196
127	0x3e33a69b	0.17544024
128	0x3b49858b	0.0030749764
129	0xbe5dbbdc	-0.21653694
130	0x3c5b776b	0.013395171
131	0x3e883520	0.2660303
132	0xbbcb098d	-0.006196207
133	0xbe2282c2	-0.15870193
134	0xbd8dc2e6	-0.069219396
135	0x3a60eff0	0.00085806753
136	0xbe05783f	-0.13034151
137	0xbe13eeb8	-0.14446533
138	0xbd4cfb7c	-0.05004452
139	0xbce260e2	-0.027634088
140	0xbacc87f3	-0.0015604481
141	0x3e2d8fe0	0.16949415
142	0xbe4c89aa	-0.1997439
143	0x3d3c6474	0.045994237
144	0xbd84ee4e	-0.064907655
145	0x3c2a156e	0.010381086
146	0x3d39e1bf	0.045381304
147	0xbe1aad68	-0.15105212
148	0xbe77fd7b	-0.24217789
149	0xbe2cde0b	-0.16881578
150	0xbe05dc6c	-0.13072366
151	0x3e8914e2	0.26773745
152	0x3dfb72b7	0.122777395
153	0xbdfdbc6c	-0.12389454
154	0x3e2878a6	0.16452274
155	0x3da10358	0.07861966
156	0x3dab9cd2	0.083795205
157	0xbe2fca7e	-0.17167088
158	0x3d8ad53a	0.06778951
159	0x3e35699e	0.17716071
160	0xbdeee52a	-0.11664803
161	0x3e3956f0	0.1809957
162	0xbe0c9d55	-0.13731892
163	0x3da13c46	0.07872824
164	0x3dca960a	0.09891899
165	0xbe3baae5	-0.1832691
166	0x3dbecafb	0.09316059
167	0x3e12ed70	0.14348388
168	0xbe493c6b	-0.19651954
169	0x3d9818c5	0.074265994
170	0x3e69cd1a	0.22832146
171	0xbcfc0a21	-0.030766549
172	0x3e054dca	0.13017955
173	0x3dab9ba3	0.08379295
174	0x3e45e025	0.19323786
175	0xbdad01c9	-0.08447606
176	0xbe5529cb	-0.20816724
177	0xbe32b3e1	-0.17451431
178	0x3e735472	0.23762682
179	0x3db7bae2	0.08971192
180	0x3dd09254	0.1018416
181	0xbe1ccfeb	-0.1531369
182	0xbaecaef7	-0.0018057515
183	0xba9013c8	-0.0010992223
184	0x3d2d9586	0.042378925
185	0x3e3e65d0	0.18593526
186	0xbd50380b	-0.050834697
187	0xbd514269	-0.051088724
188	0x3db30306	0.08740811
189	0x3dba2204	0.09088519
190	0xbe777cb3	-0.24168663
191	0xbe31d034	-0.1736458
192	0x3ded0676	0.11573498
193	0x3c8a19e3	0.016858047
194	0xbd1c0f1a	-0.03810034
195	0xbe6ff676	-0.23433861
196	0xbe45064d	-0.19240685
197	0x3e4ad1d7	0.1980661
198	0x3d79b637	0.06096479
199	0x3de2cd2f	0.11074292
200	0x3ddc29cc	0.107501596
201	0xbdc7a49e	-0.09748195
202	0x3c8781cd	0.016541386
203	0x3d95c9d5	0.07313887
204	0x3d784ea5	0.060621876
205	0x3d5e5504	0.054280296
206	0xbe1d812e	-0.1538131
207	0xbc886e8e	-0.01665428
208	0xbe1ce54a	-0.15321842
209	0xbe479dc4	-0.19493777
210	0x3da08388	0.078375876
211	0xbdd96cf9	-0.10616488
212	0xbdd3201b	-0.10308858
213	0x3e78d9a3	0.24301772
214	0x3d9def01	0.07711602
215	0x3cf28d04	0.029608257
216	0x3e0de9b6	0.13858685
217	0xbeadfc60	-0.3398161
218	0x3dde4ef2	0.108549014
219	0x3d0741d5	0.033021767
220	0x3d8585b4	0.065196425
221	0xbd678598	-0.05652389
222	0x3defaa9f	0.11702465
223	0x3d8db6de	0.06919645
224	0x3da1e263	0.07904508
225	0xbc21ddf1	-0.009879575
226	0xbdfa1af4	-0.12212172
227	0xbcf04a62	-0.029332343
228	0x3ed889c2	0.422926
229	0x3eafa322	0.34304148
230	0x3ea4fc6c	0.32223833
231	0xbdf57dd6	-0.11986892
232	0x3d9e1bb7	0.0772013
233	0x3e913d6e	0.2836718
234	0xbd7bdcaa	-0.06148974
235	0x3d5a8fa7	0.053359654
236	0x3d46f392	0.04857213
237	0x3e6669a3	0.22501235
238	0x3b0dc210	0.0021630563
239	0xbe981ed5	-0.29711023
240	0xbda83b8b	-0.08214482
241	0xbc069023	-0.008213076
242	0xbe4444c5	-0.19166858
243	0x3e73ace7	0.23796426
244	0xbe1bf16d	-0.15228815
245	0xbe2fac07	-0.17155467
246	0x3e2282c5	0.15870197
247	0x3e86618e	0.26246303
248	0xbd560c83	-0.052258026
249	0xbe4eb6b0	-0.20186877
250	0xbdf4c365	-0.11951331
251	0x3d7ff31d	0.06248771
252	0x3e183a36	0.14865956
253	0x3ebb572f	0.36589953
254	0xbe91038e	-0.28323025
255	0x3dcb4d03	0.09926798

hiden_layers.3.bias f4 [64]
0	0x3e02c768	0.1277138
1	0x3d563eeb	0.052306097
2	0xbe08a5a6	-0.1334444
3	0xbe346a95	-0.17618783
4	0xbcfd6e8e	-0.030936506
5	0x3dbacd02	0.091211334
6	0xbd8025c6	-0.06257205
7	0x3c742267	0.01490078
8	0x3d8f2a3c	0.069904774
9	0x3c905bff	0.017621992
10	0x3cf5690a	0.029957313
11	0xbd58f890	-0.052971423
12	0xbdfef89c	-0.12449762
13	0x3d7083e0	0.058719516
14	0xbcdd931b	-0.027047684
15	0x3c1f04c4	0.009705726
16	0xbd7f08b3	-0.062264156
17	0xbdbd42a8	-0.09241229
18	0xbc1f7650	-0.009732798
19	0x3da06ba5	0.078330316
20	0xbdc4ba62	-0.09605862
21	0xbd8845c3	-0.06653931
22	0x3e5a72a0	0.21332788
23	0xbd6e1640	-0.058126688
24	0x3d58f7d9	0.05297074
25	0x3cb8b79f	0.022548495
26	0xbcd776ac	-0.026301704
27	0x3dbb6be1	0.09151436
28	0x3e0ea7e0	0.13931227
29	0xbd7482ca	-0.059695043
30	0xbcde3f12	-0.027129684
31	0xbe464e9a	-0.19365922
32	0x3d58cf5f	0.05293214
33	0x3e3bc83f	0.18338107
34	0xbd430593	-0.047612738
35	0x3e35efbe	0.17767236
36	0xbd5500b3	-0.05200262
37	0x3e004c48	0.12529099
38	0x3dd75f78	0.10516256
39	0xbd92dbd0	-0.07170832
40	0xbc0be3fc	-0.008538242
41	0xbcf4da5b	-0.029889276
42	0x3d7ebfd0	0.062194645
43	0x3d9c2f85	0.07626251
44	0x3a0f3a34	0.000546369
45	0xbd468f73	-0.048476648
46	0x3c05cde3	0.008166763
47	0x3dd547a7	0.10414057
48	0x3e8ca8c3	0.27472505
49	0x3d195516	0.03743466
50	0xbd29b709	-0.04143432
51	0x3d85412a	0.0650657
52	0x3da29838	0.0793919
53	0xbde06108	-0.10956007
54	0xbd366e90	-0.044539034
55	0xbdc8a05d	-0.09796212
56	0x3e015f1b	0.12633936
57	0xbd07cfd0	-0.03315717
58	0xbd80e617	-0.06293886
59	0x3db01334	0.08597413
60	0xbdd0ffba	-0.10205026
61	0x3bdf2f67	0.0068110707
62	0xbe377c46	-0.179185
63	0x3c17e6e0	0.0092713535

hiden_layers.4.weight f4 [64, 64]
0	0xbe51e5b4	-0.20497781
1	0xbe4562f7	-0.19276033
2	0x3bb3fce4	0.0054927934
3	0xbe5c8b36	-0.2153748
4	0xbda8bebb	-0.08239504
5	0xbe631881	-0.22177316
6	0xbe87c570	-0.2651782
7	0xbeb1f2fe	-0.347557
8	0xbe645dfc	-0.22301477
9	0xbe06abe2	-0.13151506
10	0x3c06c459	0.008225524
11	0x3e1df1f9	0.15424336
12	0xbb8a4407	-0.0042195353
13	0x3e11268f	0.14174865
14	0x3eb0116a	0.34388286
15	0x3e001177	0.12506662
16	0xbe10f900	-0.14157486
17	0xbe910947	-0.2832739
18	0x3da09126	0.07840185
19	0x3ec79b4f	0.3898568
20	0xbcd334ac	-0.025781952
21	0x3e0af785	0.13570984
22	0x3e3535dd	0.17696328
23	0x3e39c769	0.18142475
24	0x3d51c8db	0.05121694
25	0xbbaa5340	-0.0051979125
26	0x3d9231f4	0.07138434
27	0x3d3a93f1	0.045551244
28	0xbe1ea0fd	-0.154911
29	0x3e016e57	0.12639748
30	0xbdf4fbdf	-0.11962103
31	0x3dd7fd3b	0.10546347
32	0xbe8452e0	-0.2584448
33	0xbc1d1209	-0.009586819
34	0xbdbbf807	-0.09178167
35	0x3d1c0fc0	0.038100958
36	0xbe6b9efb	-0.23009865
37	0x3e245747	0.16048919
38	0xbd8b885c	-0.06813118
39	0x3df478c4	0.11937097
40	0x3ea386bb	0.3193873
41	0xbe6977ec	-0.22799653
42	0x3e95b88c	0.2924236
43	0xbd4f9798	-0.05068168
44	0x3e38adf3	0.18035106
45	0x3e9788f7	0.29596683
46	0x3e297ead	0.16552229
47	0x3e530134	0.20605928
48	0xbdc229a6	-0.094806
49	0xbd081da6	-0.0332314
50	0x3e30b35f	0.17255925
51	0xbe91d369	-0.28481606
52	0x3e344884	0.17605788
53	0xbda4e40d	-0.0805131
54	0xbe2fdb5a	-0.1717352
55	0xbe8c7157	-0.2743022
56	0x3da3513b	0.07974478
57	0x3d48d17a	0.049027897
58	0x3d20cecc	0.039259717
59	0x3e951bcc	0.2912277
60	0x3bdfd530	0.006830834
61	0xbe1bbf5e	-0.1520972
62	0xbe0978e7	-0.13425027
63	0x3ef63865	0.480899
64	0x3e255f39	0.16149606
65	0xbdf49704	-0.119428664
66	0x3e8a8a4b	0.27058634
67	0x3e26f58f	0.1630461
68	0x3c63ac34	0.013896037
69	0xbe87bdb4	-0.2651192
70	0xbe2187ec	-0.15774506
71	0xbd42d2d2	-0.047564335
72	0x3e643332	0.22285154
73	0x3e473c2e	0.1945655
74	0x3d9ee3b8	0.07758278
75	0xbac50096	-0.0015030082
76	0x3d42db6f	0.04757255
77	0xbdb2cfc3	-0.08731034
78	0x3de3d2c5	0.111241855
79	0x3c1e1273	0.009647953
80	0xbd36c540	-0.044621706
81	0xbe0c4304	-0.1369744
82	0x3e169402	0.14704898
83	0xbd80f313	-0.06296363
84	0xbe36beae	-0.17846176
85	0xbe2f2898	-0.17105329
86	0x3ec13166	0.37733
87	0xbe2e34c6	-0.17012319
88	0x3e1afa17	0.15134464
89	0xbe3ebad1	-0.18625952
90	0xbe20da4e	-0.15708277
91	0x3e57820b	0.21045701
92	0xbe0cad9e	-0.13738105
93	0x3e268de4	0.16265064
94	0x3dafbae1	0.08580566
95	0xbdfb3b8c	-0.12267217
96	0x3e1a11f2	0.15045908
97	0xbe71844f	-0.23585628
98	0xbe5edeef	-0.2176473
99	0x3ee01a19	0.4376991
100	0x3e258f98	0.16168058
101	0x3dd497b0	0.103804946
102	0x3ca0c6bc	0.019626014
103	0x3df43d32	0.119257346
104	0x3ccf2d32	0.025290105
105	0x3e945757	0.28972885
106	0x3dd33eb9	0.10314698
107	0x3e93767d	0.28801337
108	0xbdd3aba3	-0.103354715
109	0x3da77f7b	0.08178612
110	0xbe10eaeb	-0.14152114
111	0x3e15cc78	0.1462878
112	0xbded8c75	-0.11599056
113	0xbe387bdc	-0.18015999
114	0xbcef85a7	-0.029238535
115	0xbe156e8d	-0.14592953
116	0xbe95f487	-0.29288122
117	0xbc3b95af	-0.011449262
118	0x3d96f119	0.073702045
119	0xbe2a53af	-0.16633485
120	0xbe002105	-0.12512596
121	0xbe81a24d	-0.25319138
122	0x3df73a3c	0.12071654
123	0xbdc68869	-0.09693987
124	0xbe2f80a2	-0.17138913
125	0x3d4ac805	0.04950716
126	0xbe3c9aba	-0.18418398
127	0x3e5f034a	0.21778598
128	0xbe91efe9	-0.2850335
129	0xbdbf4700	-0.09339714
130	0xbdf28f79	-0.118437715
131	0x3cc3b0af	0.02388796
132	0x3e361364	0.17780834
133	0x3dd0f458	0.10202855
134	0xbe842bd2	-0.25814682
135	0xbd23e128	-0.040009648
136	0x3e18f274	0.14936239
137	0x3df9a44b	0.121895395
138	0x3e4860fd	0.19568248
139	0xbe848b71	-0.25887635
140	0x3e03bbff	0.12864684
141	0x3e22fad4	0.15915996
142	0xbe615402	-0.22004703
143	0x3e038720	0.12844515
144	0xbe856b8e	-0.2605862
145	0x3ceae526	0.02867372
146	0xbe87703d	-0.2645282
147	0xbda8891a	-0.08229275
148	0x3e33f8d3	0.17575388
149	0xbdf85e93	-0.121274136
150	0xbe527dfc	-0.20555872
151	0x3ce89ae6	0.028394174
152	0x3c15b4f4	0.009137381
153	0x3dccd099	0.10000724
154	0xbda0b744	-0.07847455
155	0x3e85b6fe	0.26116174
156	0x3d0ae4ae	0.033909492
157	0x3df3bc89	0.119011946
158	0x3dc3bbea	0.09557326
159	0xbc529678	-0.012853257
160	0xbd2b3fdb	-0.041808944
161	0x3e2f30b2	0.1710842
162	0xbb47f561	-0.0030511247
163	0x3e0e4dc2	0.1389685
164	0x3e563a01	0.20920564
165	0xbe4e7503	-0.20161824
166	0x3d25f8f3	0.04052062
167	0x3dfc9c3c	0.12334487
168	0xbda8dc17	-0.08245104
169	0x3db6e643	0.08930638
170	0xbe239ed4	-0.15978557
171	0x3c2a03e3	0.010376903
172	0x3ded3dc3	0.11584046
173	0xbddd0eae	-0.107938156
174	0xbe66ceb8	-0.22539794
175	0xbe785209	-0.24250044
176	0x3e1a5cba	0.15074435
177	0x3e887f8c	0.2665981
178	0xbd903d68	-0.07042962
179	0x3e54f8a5	0.20797975
180	0x3ca13516	0.019678634
181	0x3e2e36b2	0.17013052
182	0x3e6bd0e2	0.23028901
183	0xbdc011cf	-0.09378397
184	0x3ea966bd	0.33086196
185	0x3d2b0524	0.04175295
186	0x3e8cf38c	0.27529562
187	0xbd5b81da	-0.053590633
188	0xbd854876	-0.065079615
189	0xbe687e44	-0.22704417
190	0xbe6832fe	-0.22675702
191	0xbd97d5bf	-0.07413816
192	0x3e97036e	0.29494804
193	0x3e78470f	0.24245857
194	0xbdbc8abc	-0.09206149
195	0x3e04f182	0.12982753
196	0x3e020c0b	0.12699907
197	0xbe2b3b3e	-0.16721818
198	0xbe211560	-0.1573081
199	0xbcbe43e5	-0.023225734
200	0xbd406c38	-0.046978205
201	0xbd504289	-0.050844703
202	0xbe4a3786	-0.19747743
203	0xbe2a010d	-0.16601963
204	0x3d15ad70	0.036542356
205	0xbd38ec0d	-0.04514699
206	0xbce4b06b	-0.027916154
207	0x3e813dfb	0.252426
208	0x3e885757	0.26629135
209	0x3d440c07	0.047863033
210	0xbd8cf347	-0.06882339
211	0xbdea4f1f	-0.114408724
212	0xbe332d27	-0.17497693
213	0xbdee3c14	-0.11632553
214	0xbd72ba87	-0.059259918
215	0x3d495a69	0.049158487
216	0x3d431c2a	0.04763428
217	0xbdefee05	-0.117153205
218	0xbe6088c4	-0.21927172
219	0xbdb2c9ab	-0.08729871
220	0xbce8710e	-0.028374221
221	0xbdaadfcf	-0.08343469
222	0xbe531b66	-0.2061592
223	0xbdb375b7	-0.08762687
224	0xbd82ecbd	-0.063928105
225	0xbe649085	-0.22320755
226	0x3da4a6d2	0.08039631
227	0xbe625db5	-0.22106059
228	0xbe81d442	-0.25357252
229	0x3e8d0e94	0.27550185
230	0xbe361e6a	-0.1778504
231	0xbe97296d	-0.29523793
232	0x3e3347af	0.17507814
233	0x3dbf568d	0.0934268
234	0x3e706f2e	0.23479912
235	0x3e636268	0.22205508
236	0x3d2f344a	0.042774476
237	0x3e9e5f8b	0.30932269
238	0xbe7f287a	-0.24917784
239	0xbd9ef372	-0.07761277
240	0xbd7f43d9	-0.062320564
241	0xbe1a9886	-0.15097246
242	0xbc54c054	-0.012985308
243	0xbe2fa818	-0.17153966
244	0x3d1d3027	0.038376
245	0x3d8b5aed	0.06804452
246	0xbe9dc423	-0.30813703
247	0x3e2a5e89	0.16637625
248	0xbe9b0e88	-0.30284524
249	0xbe628b65	-0.22123487
250	0xbdb9ea5d	-0.090779044
251	0xbe7a145e	-0.24421832
252	0xbdd4883c	-0.10377547
253	0xbd29f125	-0.04148974
254	0xbdec3089	-0.11532695
255	0xbb71dad7	-0.003690412
