results/14_piche/epoch5/model_weights.pth (torch, 486655 bytes, 88 tensors)

init_layer.0.weight f4 [64, 5]
0.13518979 -0.2168885 -0.009884384 -0.1294646 -0.2519428 0.11171628 0.2708129 0.33675253
0.1983198 0.275875 -0.2645401 -0.2660224 0.27973607 0.112355806 -0.1082174 0.11850199
0.09689199 0.30694196 -0.26912987 0.19863363 0.06024359 0.09942887 -0.19027056 0.049415864
-0.21913913 0.083898716 -0.18836813 -0.09526167 -0.14577512 -0.077406876 -0.030391237 -0.15670672
0.23287405 0.17932524 -0.1720609 0.041889478 -0.27150285 -0.21334286 0.12961 0.03715597
0.24706396 0.204388 -0.06088647 -0.034283265 -0.18911032 0.2860668 0.10971895 -0.20865048
0.21519698 -0.2702079 0.15072879 0.12598763 -0.109137736 0.1421781 -0.13156919 -0.133323
-0.05590021 -0.041057922 -0.29106587 -0.26601693 -0.29981366 -0.083836876 -0.066910475 0.032125145
0.010468524 -0.19206223 -0.054646637 0.03632784 -0.2517685 -0.0906258 -0.17831764 -0.05190744
0.16681395 -0.08514352 0.048006862 -0.1724974 0.1983538 -0.18600087 -0.27887562 0.00088483695
0.0959703 -0.121837124 0.033691328 -0.2593176 0.20352545 -0.14885378 -0.14118211 0.17858498
-0.17627168 -0.18169245 -0.11376618 -0.21543981 -0.07709034 0.24820939 0.17202884 -0.19897643
0.20137376 0.010034635 0.07091038 0.012430242 0.036000192 -0.056592934 0.33123893 -0.25209436
-0.0382814 -0.27664924 -0.15076306 0.22051467 0.2568284 0.097059995 -0.1584871 0.08334673
0.041403804 0.22962812 -0.020720495 -0.30341437 0.04984036 0.09992342 0.0753715 0.19302832
0.029780827 -0.2692145 0.1602082 0.25442627 0.19604236 0.08227022 0.029081976 -0.2479169
0.25044885 0.0017422258 -0.028489325 -0.25981006 0.06891976 0.28798065 -0.20071508 0.26110086
-0.08730286 -0.08309688 0.09564495 -0.22577713 -0.29553598 0.1261643 -0.029030977 -0.2036471
-0.1607376 -0.16295071 0.25543308 0.1127055 0.06296037 0.23803623 0.17584266 0.29615054
-0.3013256 0.17321433 0.15121171 -0.27384079 -0.24322365 -0.031026067 -0.116875164 0.23821229
-0.26520288 0.29325745 0.021368934 -0.11374269 0.16976759 0.28082055 -0.18259162 -0.0957076
0.018042183 -0.2533889 0.036916886 0.05398301 -0.1749931 -0.19825798 -0.15258734 -0.027253354
0.24922198 -0.042930126 0.046319 -0.2746893 -0.062922 0.16706352 -0.023698661 -0.28794947
0.29785967 0.07166753 0.15588415 0.23846059 -0.13308181 0.09098874 0.2958338 -0.06936663
-0.03829508 -0.027209729 0.03975878 0.052281078 -0.16399369 -0.25249836 0.26429516 -0.17592964
0.2322656 -0.18244573 -0.013418869 -0.15605545 0.1737062 -0.0028569263 -0.21523024 -0.07428066
0.012446581 -0.016283398 0.08012629 -0.06588486 0.08308103 0.10688378 0.023800932 0.063318186
-0.20755155 0.20933698 -0.02712635 0.16396798 -0.03739736 0.11359655 -0.097457044 0.21835981
0.12606913 -0.22430001 -0.061533954 -0.06571479 0.14307894 0.038377497 -0.14768445 -0.27325204
0.27819583 0.24888767 0.10140095 -0.3233415 -0.18271151 -0.24370904 0.005108617 -0.13498056
-0.25948033 -0.21286668 -0.2658636 -0.28307223 -0.059273172 -0.27281502 -0.08986546 -0.028700229
-0.2655094 0.03239358 0.22967772 -0.33517775 -0.20413335 0.06919606 -0.14789672 0.042151883
00000000: 316f 0a3e 0518 5ebe 1df2 21bc 5e92 04be
00000010: a6fe 80be 81cb e43d fda7 8a3e d46a ac3e
00000020: 5814 4b3e 7d3f 8d3e cd71 87be 1734 88be
00000030: 9139 8f3e cd1a e63d 16a1 ddbd 2cb1 f23d
00000040: 4f6f c63d 7f27 9d3e 64cb 89be 9d66 4b3e
00000050: fcc1 763d 5da1 cb3d 49d6 42be 4a68 4a3d
00000060: 0266 60be 17d3 ab3d 93e3 40be 8d18 c3bd
00000070: 1346 15be 7f87 9ebd 0bf7 f8bc ba77 20be
00000080: 8976 6e3e 09a1 373e bc30 30be 4d94 2b3d
00000090: 6c02 8bbe 8d76 5abe 7cb8 043e dc30 183d
000000a0: 56fe 7c3e 164b 513e 1764 79bd 9c6c 0cbd
000000b0: 23a6 41be 5977 923e 54b4 e03d 79a8 55be
000000c0: 995c 5c3e b158 8abe a658 1a3e e702 013e
000000d0: 9b83 dfbd 2397 113e 13ba 06be d385 08be
000000e0: 9ef7 64bd 5a2c 28bd 9606 95be 5f33 88be
000000f0: 2d81 99be abb2 abbd 5c08 89bd a895 033d
00000100: 2c84 2b3c f6ab 44be 27d5 5fbd 80cc 143d
00000110: cde7 80be 059a b9bd e698 36be e59c 54bd
00000120: 47d1 2a3e ba5f aebd d8a2 443d 29a3 30be
00000130: 421d 4b3e 0377 3ebe c9c8 8ebe 67f4 673a
00000140: 148c c43d be85 f9bd ebff 093d 47c5 84be
00000150: fa68 503e 206d 18be 0b92 10be fbde 363e
00000160: 9080 34be 960d 3abe 3efe e8bd 419c 5cbe
00000170: 8ae1 9dbd 9a2a 7e3e 5428 303e 7ac0 4bbe
00000180: ec34 4e3e 4f68 243c 7639 913d 37a8 4b3c
00000190: f074 133d fecd 67bd 2698 a93e 8312 81be
000001a0: f5cc 1cbd f8a4 8dbe a261 1abe 99ce 613e
000001b0: 037f 833e 64c7 c63d 714a 22be b1b1 aa3d
000001c0: 0997 293d a223 6b3e 07be a9bc 2159 9bbe
000001d0: 6825 4c3d a6a4 cc3d 5f5c 9a3d 37a9 453e
000001e0: ecf6 f33c 7cd6 89be 9e0d 243e 2944 823e
000001f0: 54bf 483e 4a7d a83d 533d ee3c eedd 7dbe
00000200: d53a 803e 665b e43a 7262 e9bc d305 85be
00000210: ce25 8d3d 3372 933e 4188 4dbe 03af 853e
00000220: d8cb b2bd b22e aabd 80e1 c33d 1f32 67be
00000230: 7e50 97be 3731 013e 5fd2 edbc de88 50be
00000240: 6698 24be 8ddc 26be 20c8 823e 24d2 e63d
00000250: 5ef1 803d c5bf 733e 1910 343e 0ba1 973e
00000260: 5947 9abe 195f 313e 3ed7 1a3e dc34 8cbe
00000270: 9f0f 79be 612a febc 3f5c efbd eced 733e
00000280: acc8 87be d725 963e e70d af3c edf1 e8bd
00000290: 8ed7 2d3e b6c7 8f3e 4cf9 3abe 5902 c4bd
000002a0: 33cd 933c 31bc 81be 2936 173d 4a1d 5d3d
000002b0: 6431 33be 2404 4bbe db3f 1cbe 6d42 dfbc
000002c0: 0c34 7f3e 80d7 2fbd feb8 3d3d 13a4 8cbe
000002d0: 40dd 80bd b312 2b3e b223 c2bc 1d6e 93be
000002e0: 1081 983e 6dc6 923d 18a0 1f3e 032f 743e
000002f0: 9946 08be 4e58 ba3d 8777 973e 1710 8ebd
00000300: 4ddb 1cbd f0e6 debc 1ada 223d af24 563d
00000310: f6ed 27be 7747 81be b251 873e e626 34be
00000320: 09d7 6d3e 0ed3 3abe d1da 5bbc 00cd 1fbe
00000330: 0ae0 313e 453b 3bbb 5165 5cbe 7520 98bd
00000340: bfec 4b3c c364 85bc 4119 a43d a4ee 86bd
00000350: 6326 aa3d e2e5 da3d 2cfa c23c f7ac 813d
00000360: 6588 54be 6f5c 563e 1438 debc 39e7 273e
00000370: f92d 19bd 4fa5 e83d 8f97 c7bd b799 5f3e
00000380: 4418 013e e7ae 65be 070b 7cbd 7a95 86bd
00000390: 4983 123e b931 1d3d 983a 17be b1e7 8bbe
000003a0: af6f 8e3e 69dc 7e3e 4dab cf3d 048d a5be
000003b0: ba18 3bbe dd8e 79be 2f66 a73b 5838 0abe
000003c0: 9bda 84be b9f9 59be 461f 88be d8ee 90be
000003d0: 6dc8 72bd 69ae 8bbe 620b b8bd be1c ebbc
000003e0: d9f0 87be 21af 043d a330 6b3e 6b9c abbe
000003f0: 5508 51be aab6 8d3d 3d72 17be 74a7 2c3d

init_layer.0.bias f4 [64]
-0.09411039 -0.06237054 -0.032202747 0.05002833 0.06011168 0.05273854 -0.04450813 -0.06346141
-0.06604875 0.06023579 -0.0011700145 -0.05621005 0.015128177 -0.07167854 0.089491464 -0.051917057
-0.04500454 0.06800943 -0.016784877 -0.04098798 0.047908287 -0.05150964 0.081433825 -0.056459878
0.0034916338 -0.04124817 -0.022311421 0.038094703 -0.024869671 -0.07820329 -0.025427977 0.01814054
-0.037107542 -0.05641086 0.062176306 0.043687806 0.08224334 -0.044717137 0.031798832 -0.085067175
-0.00206069 0.017403826 -0.07288924 -0.055630226 -0.04382844 -0.05042444 -0.04746933 -0.062223498
-0.021172218 -0.012929384 0.053941935 0.09842258 0.039390255 0.038953826 0.025016678 0.056788437
0.024395699 0.032178532 0.0892469 -0.0060206335 0.037540436 -0.10993846 0.05505018 0.08467158
00000000: f3bc c0bd 4078 7fbd 07e7 03bd 82ea 4c3d
00000010: aa37 763d 5e04 583d 284e 36bd 0ef8 81bd
00000020: 9144 87bd ceb9 763d 2c5b 99ba 823c 66bd
00000030: 2cdc 773c 33cc 92bd 4d47 b73d fba6 54bd
00000040: ae56 38bd 8748 8b3d 7080 89bc 03e3 27bd
00000050: 7b3b 443d c6fb 52bd c7c6 a63d 7942 67bd
00000060: e5d3 643b d7f3 28bd 71c6 b6bc 3109 1c3d
00000070: 7bbb cbbc 0c29 a0bd 554e d0bc 789b 943c
00000080: 14fe 17bd 130f 67bd 95ac 7e3d fcf1 323d
00000090: 326f a83d 5129 37bd 7e3f 023d b337 aebd
000000a0: a40c 07bb 7892 8e3c f446 95bd 85dc 63bd
000000b0: 7385 33bd dc89 4ebd 336f 42bd 11de 7ebd
000000c0: 5c71 adbc c4d5 53bc 38f2 5c3d c791 c93d
000000d0: ad57 213d 0c8e 1f3d c7ef cc3c fe9a 683d
000000e0: 7dd9 c73c a3cd 033d 14c7 b63d bc48 c5bb
000000f0: 00c4 193d 6a27 e1bd 4c7c 613d 4b68 ad3d

hiden_layers.0.weight f4 [64, 64]
0.20605695 0.008105314 -0.10047267 0.18932116 0.117218055 -0.040484276 0.12801671 0.103223614
0.16497527 -0.14730953 0.12294768 -0.05415438 -0.23392041 -0.09430874 0.051619332 -0.003081106
-0.091481656 0.114896186 0.12379102 0.037042283 0.1910041 -0.056244873 0.17249727 -0.17564867
0.24010229 0.14333163 0.048143834 0.14798585 0.035020452 -0.16245466 -0.12314353 -0.09653038
0.018052831 0.20903188 0.10430556 -0.18848632 -0.07818988 -0.12096834 0.01768669 -0.1607745
0.13959225 0.19351561 0.09099625 -0.019724935 -0.24645641 -0.07913597 0.014838305 0.13909546
0.121544205 -0.06949512 0.041369442 0.06485909 -0.15650412 0.22833651 -0.0794203 0.19924743
-0.2542412 -0.090045 -0.22462854 -0.115188204 0.074746534 0.07647856 0.1033357 0.020481084
-0.11422836 0.058463007 0.016304 0.12189054 0.19415048 -0.17372401 0.022958353 -0.11417399
-0.12142132 0.21219803 -0.17706484 0.09479812 0.16567017 -0.104302354 0.18258731 0.16833179
0.08225606 -0.16601174 -0.08863473 -0.010308928 -0.10584537 -0.04317605 0.060419906 0.06895782
-0.0261855 -0.14090823 0.08301473 -0.23950149 0.24607304 0.116907544 0.1809509 0.13187842
0.2076044 -0.0644697 -0.0382803 0.24873042 0.22089367 -0.12924628 -0.21740986 0.02516512
-0.032757998 -0.102979444 -0.018239327 0.1709202 0.21941791 0.05923132 0.066321544 -0.007941046
-0.16324504 0.13642484 0.1569205 -0.20318517 0.027266439 0.16780345 -0.15232606 -0.05475478
0.13414602 0.21936142 -0.014047872 0.023299986 0.16756076 0.08510729 0.010844476 -0.16856885
-0.030975126 0.11432179 -0.06487152 -0.13211025 -0.044126682 0.0695336 -0.031424224 -0.0970248
-0.25034007 0.10674564 -0.07345548 0.22667398 -0.0651582 -0.10200584 0.08583343 -0.021699494
0.060334712 0.2687562 -0.17840406 0.10460075 0.043648772 -0.0480227 0.14219248 0.13259146
0.057539705 -0.05796166 -0.17970431 0.10669132 0.12501007 0.18062384 0.13360298 0.027600285
-0.05269717 -0.0896778 -0.062926546 0.10047946 0.14128934 -0.21130127 -0.17134057 -0.102760635
0.09661166 -0.07883972 0.16024938 -0.033126183 0.05634827 -0.16899349 0.07483503 0.083955705
-0.19723833 -0.08938172 0.04198056 -0.09195182 0.025384389 -0.049946066 0.16451454 -0.027910566
-0.15771644 0.023635434 -0.1361175 -0.19522153 0.1176724 -0.15519857 0.03645936 0.16168562
-0.18703891 0.15603848 0.17204228 -0.06771918 0.13760892 -0.09202202 0.08739348 -0.03436887
-0.19839697 0.19217488 -0.1424563 -0.16872509 -0.12837985 -0.09675407 0.05873163 0.069592655
-0.17103428 -0.08054777 0.1513425 -0.13981232 -0.16360348 0.047948133 0.18457404 0.08678214
0.0012467797 0.18700859 -0.23686165 -0.057429787 0.046747644 -0.15561695 -0.061546102 0.020195741
0.16020477 -0.08008519 0.083855994 0.023637598 0.1063512 -0.036080945 -0.08286514 -0.11901626
-0.07880853 0.017050283 0.069229245 0.14170209 -0.14270426 -0.11882151 -0.17147611 -0.16780406
0.04328987 0.15032542 -0.1715034 0.021314926 0.13941982 -0.07057951 0.0080381725 -0.058314037
0.052054234 -0.051921844 0.18300392 -0.0141026 0.20825519 0.072873965 -0.21721233 0.23715796
00000000: 9800 533e 27cc 043c 9dc4 cdbd 68dd 413e
00000010: 0510 f03d d7d2 25bd d016 033e e766 d33d
00000020: 47ef 283e 4fd8 16be fecb fb3d fcd0 5dbd
00000030: d588 6fbe f124 c1bd cb6e 533d 62ec 49bb
00000040: bc5a bbbd b14e eb3d 2586 fd3d a6b9 173d
00000050: 9496 433e 0661 66bd 20a3 303e 3fdd 33be
00000060: 60dd 753e 87c5 123e 7832 453d 9a89 173e
00000070: 9b71 0f3d 845a 26be ad32 fcbd b8b1 c5bd
00000080: 88e3 933c 740c 563e 279e d53d 8f02 41be
00000090: 0422 a0bd 40be f7bd ade3 903c 12a2 24be
000000a0: 45f1 0e3e f528 463e 3e5c ba3d 3096 a1bc
000000b0: 125f 7cbe 0a12 a2bd 5d1c 733c 0a6f 0e3e
000000c0: 2bec f83d 7553 8ebd 0173 293d d8d4 843d
000000d0: 9e42 20be 0cd1 693e 1ca7 a2bd 8507 4c3e
000000e0: e72b 82be 8369 b8bd 0605 66be cbe7 ebbd
000000f0: b614 993d cba0 9c3d aba1 d33d f2c7 a73c
00000100: 8ff0 e9bd e876 6f3d f78f 853c bfa1 f93d
00000110: 62cf 463e b5e4 31be 2813 bc3c 0ed4 e9bd
00000120: beab f8bd 714a 593e 7c50 35be 8425 c23d
00000130: 71a5 293e 799c d5bd 2bf8 3a3e 2b5f 2c3e
00000140: dd75 a83d fbfe 29be 2086 b5bd c7e6 28bc
00000150: 75c5 d8bd 5fd9 30bd dd7a 773d c239 8d3d
00000160: f982 d6bc 3f4a 10be a003 aa3d e13f 75be
00000170: 92fa 7b3e 396d ef3d 314b 393e 230b 073e
00000180: 3f96 543e b108 84bd cecb 1cbd 30b3 7e3e
00000190: f331 623e 2359 04be b1a0 5ebe 1527 ce3c
000001a0: 402d 06bd e3e6 d2bd a46a 95bc b405 2f3e
000001b0: 17af 603e 8a9c 723d 97d3 873d 291b 02bc
000001c0: b529 27be f4b2 0b3e c4af 203e c60f 50be
000001d0: de5d df3c abd4 2b3e 5dfb 1bbe 8c46 60bd
000001e0: 935d 093e 48a0 603e 0c29 66bc 9ddf be3c
000001f0: 0c95 2b3e bb4c ae3d 07ad 313c 509d 2cbe
00000200: 8cbf fdbc 8b21 ea3d 5cdb 84bd e947 07be
00000210: 2ebe 34bd a267 8e3d b0b6 00bd f0b4 c6bd
00000220: 932c 80be 759d da3d d46f 96bd 391d 683e
00000230: aa71 85bd 70e8 d0bd 70c9 af3d 23c3 b1bc
00000240: 8821 773d 6a9a 893e 8eaf 36be eb38 d63d
00000250: 0ec9 323d 73b3 44bd e89a 113e 0ec6 073e
00000260: c1ae 6b3d 3569 6dbd 6804 38be fb80 da3d
00000270: a402 003e 75f5 383e 38cf 083e fe19 e23c
00000280: fdd8 57bd ffa8 b7bd a2df 80bd 2dc8 cd3d
00000290: 27ae 103e 5c5f 58be e773 2fbe 2b74 d2bd
000002a0: 56dc c53d b876 a1bd 6a18 243e 52af 07bd
000002b0: 72cd 663d a10c 2dbe 1c43 993d f8f0 ab3d
000002c0: d8f8 49be c30d b7bd cff3 2b3d 3c51 bcbd
000002d0: ecf2 cf3c 3f94 4cbd 8076 283e b3a4 e4bc
000002e0: 6b80 21be 199f c13c 6362 0bbe 27e8 47be
000002f0: 3afe f03d 60ec 1ebe 6956 153d ea90 253e
00000300: 2187 3fbe 8dc8 1f3e da2b 303e 5ab0 8abd
00000310: 5ae9 0c3e 0a76 bcbd 5afb b23d 5fc6 0cbd
00000320: 9328 4bbe 7ec9 443e 10e0 11be 45c6 2cbe
00000330: 0276 03be ff26 c6bd 9490 703d 9886 8e3d
00000340: 9c23 2fbe 3bf6 a4bd 87f9 1a3e f62a 0fbe
00000350: ac87 27be 4365 443d fa00 3d3e d6ba b13d
00000360: fc6a a33a 2e7f 3f3e dc8b 72be 7f3b 6bbd
00000370: 757a 3f3d 0d5a 1fbe c417 7cbd 8a71 a53c
00000380: b80c 243e b403 a4bd b1bc ab3d a3a3 c13c
00000390: a8ce d93d 9dc9 13bd 33b5 a9bd ccbe f3bd
000003a0: 5e66 a1bd 09ad 8b3c 10c8 8d3d 5a1a 113e
000003b0: 1121 12be b158 f3bd 6f97 2fbe d4d4 2bbe
000003c0: b850 313d e8ee 193e 969e 2fbe a49c ae3c
000003d0: 12c4 0e3e fd8b 90bd 8ab2 033c b3da 6ebd
000003e0: d236 553d 00ac 54bd 6165 3b3e 970e 67bc
000003f0: d940 553e f23e 953d e96c 5ebe 89d9 723e

hiden_layers.0.bias f4 [64]
0.06478087 -0.0075125927 0.041593876 0.041187238 -0.01942741 0.01472125 0.056021366 -0.006751968
-0.054785546 0.051517032 -0.056884456 -0.069111936 0.05492136 -0.019474672 -0.040821012 0.057100996
0.06500143 -0.012720518 0.041285295 -0.029312301 -0.031565603 -0.000725789 -0.035200547 0.036499556
-0.06273171 0.04608166 -0.025263943 -0.034353595 0.025417417 -0.074641734 0.040973496 -0.06661779
-0.045823134 -0.053986646 0.0807777 0.038830243 -0.043405335 -0.03354398 -0.0008382958 -0.08845909
0.05114695 0.081115834 -0.052320797 -0.06050962 0.045576096 -0.047876175 -0.038455687 0.06500344
0.057052128 -0.06873711 0.009691407 -0.054911733 -0.049436394 0.03884617 -0.07674623 -0.08985249
0.044216882 -0.013745473 0.008094714 0.033670828 0.048569012 0.052788556 -0.07033852 -0.023037376
00000000: d5ab 843d 322c f6bb 575e 2a3d f3b3 283d
00000010: 3b26 9fbc 6631 713c a976 653d 9d3f ddbb
00000020: cf66 60bd 8603 533d adff 68bd 8f8a 8dbd
00000030: 38f5 603d 5989 9fbc ef33 27bd bce2 693d
00000040: 781f 853d b869 50bc c51a 293d 5a20 f0bc
00000050: ef4a 01bd e042 3eba 732e 10bd 8f80 153d
00000060: 7c79 80bd 1fc0 3c3d 54f6 cebc 5bb6 0cbd
00000070: 3038 d03c c4dd 98bd d3d3 273d e86e 88bd
00000080: 0ab1 3bbd 1a21 5dbd c76e a53d 760c 1f3d
00000090: cbc9 31bd 6a65 09bd 14c1 5bba 0a2a b5bd
000000a0: 777f 513d 0f20 a63d 554e 56bd efd8 77bd
000000b0: 00ae 3a3d cf19 44bd b683 1dbd 8620 853d
000000c0: 7eaf 693d 0bc6 8cbd b5c8 1e3c 20eb 60bd
000000d0: d17d 4abd 291d 1f3d 212d 9dbd 9504 b8bd
000000e0: c31c 353d b134 61bc b19f 043c 6cea 093d
000000f0: 4df0 463d d038 583d a40d 90bd e1b8 bcbc

hiden_layers.1.weight f4 [64, 64]
0.19982406 0.1935343 0.15734465 -0.08838931 -0.106528625 -0.10469772 0.16614376 -0.13050391
-0.13727987 0.15349397 -0.032127216 -0.13023528 -0.07563205 -0.020536667 0.14432384 -0.12637839
-0.105894916 -0.1739055 -0.022883236 0.15281132 0.13686334 -0.14593224 -0.07697273 0.18050998
-0.15267555 0.11065284 -0.20133652 0.14018264 -0.12781325 -0.22270526 0.020106165 -0.112623654
-0.22281699 -0.05093834 0.032459244 0.21808347 0.10181272 0.1524657 0.21707185 -0.07961917
0.18983139 0.031024963 -0.21048817 -0.23127455 0.10081597 0.016735313 0.06650795 0.018014573
0.16502364 -0.15708655 -0.0030826654 -0.10344162 -0.092737146 0.038317133 -0.23382072 0.056106377
0.13687988 0.13888894 -0.11728541 -0.10509851 0.07254952 0.11267203 -0.11268141 -0.16811989
0.118110806 0.13721184 -0.021902513 -0.1155988 -0.10226429 0.10646601 -0.16082367 0.001453467
0.105083816 0.055387773 -0.035537034 -0.16431327 0.114523694 0.070316054 0.0013480982 0.17972355
0.044535406 0.17091812 0.22344865 -0.2089308 -0.03315838 -0.0036762431 -0.20944206 0.1944749
-0.011346011 -0.03076813 0.09476909 -0.0950049 -0.045356404 -0.16013053 -0.070806384 0.09848611
-0.22291452 -0.07017417 -0.098318785 -0.1585371 -0.04520606 -0.15853406 -0.00450959 -0.04831156
0.07982778 0.11026905 -0.017719422 0.11172467 -0.076859325 0.0924449 0.03691493 0.06241664
-0.1517935 -0.11640627 0.04114113 -0.1973732 0.11387137 0.16074175 -0.19208193 -0.0029107402
0.14228736 0.18055695 0.07603083 -0.13456677 0.045028828 -0.16986488 0.10925203 0.21153855
-0.004889416 0.21915348 0.050183985 0.0932299 -0.15001552 -0.021145707 0.0938712 0.07833146
0.17512007 0.018695412 -0.14121927 0.037074216 0.10050776 0.1737988 -0.120320894 -0.18134345
0.05622048 0.028829204 -0.23480716 -0.23200855 -0.13462868 -0.12696245 -0.16375858 -0.14310966
-0.08326888 -0.104152456 -0.25800812 0.19343716 0.1318232 -0.23709586 0.014821489 -0.082409024
0.045870326 -0.05665459 0.09719185 -0.15532933 -0.07148111 -0.1837999 -0.18164825 -0.21757768
0.16454914 0.080506094 -0.17239264 -0.053094514 0.20553511 -0.17363882 -0.17928818 0.19467612
0.19310322 0.09596223 -0.19770643 -0.22281569 -0.1424174 0.24706718 0.18071382 -0.21457595
0.029154189 -0.19299194 0.11649326 0.16130397 -0.11151437 0.10459891 -0.17337216 0.116001
-0.07871757 0.042428825 -0.12731653 0.1538547 -0.18191044 -0.01055074 0.23132378 -0.19652364
-0.07562681 0.044679753 0.15827683 0.03998768 0.18848595 -0.13081932 0.034102663 -0.044918835
0.04541489 0.0093328245 0.025143223 -0.14990294 -0.04971309 0.17820622 -0.05855793 0.1396575
0.17716815 0.14619595 -0.1065746 0.1244731 0.20686729 -0.0812551 0.04868377 0.13254558
0.0016728642 -0.1819849 0.18796915 -0.0627745 0.10220333 -0.11296693 0.22844218 0.07951381
0.24614143 -0.03242916 -0.18449664 -0.011166129 0.106356464 -0.032218248 0.08631767 -0.04500248
-0.105429426 -0.22218771 0.027664024 0.05555981 -0.1295575 -0.080986805 -0.23320955 -0.023754293
0.1611695 0.1490774 -0.08103122 -0.06792665 0.11825407 0.213811 0.06763064 0.20025507
00000000: ae9e 4c3e db2d 463e f51e 213e 7405 b5bd
00000010: ae2b dabd c26b d6bd 9721 2a3e d1a2 05be
00000020: 1893 0cbe 862d 1d3e d497 03bd 665c 05be
00000030: fae4 9abd 833c a8bc a1c9 133e 5669 01be
00000040: 6fdf d8bd 4914 32be a075 bbbc 927a 1c3e
00000050: e725 0c3e 436f 15be e1a3 9dbd 9cd7 383e
00000060: fb56 1cbe f59d e23d 292b 4ebe 0a8c 0f3e
00000070: 7ae1 02be d90c 64be afb5 a43c 3ba7 e6bd
00000080: 232a 64be b9a4 50bd fcf3 043d 4651 5f3e
00000090: 3083 d03d f81f 1c3e 1548 5e3e 600f a3bd
000000a0: 2963 423e 1028 fe3c 368a 57be 3cd3 6cbe
000000b0: 9a78 ce3d 7f18 893c 5235 883d 4c93 933c
000000c0: f5fb 283e 4cdb 20be 8b06 4abb 33d9 d3bd
000000d0: f9ec bdbd 6df2 1c3d b36e 6fbe cdcf 653d
000000e0: 3d2a 0c3e e738 0e3e 5533 f0bd e33d d7bd
000000f0: d894 943d 98c0 e63d 83c5 e6bd 9f27 2cbe
00000100: 14e4 f13d 4381 0c3e e66c b3bc 10bf ecbd
00000110: f16f d1bd da0a da3d f6ae 24be 4282 be3a
00000120: 2f36 d73d 4ade 623d 488f 11bd bd41 28be
00000130: 668b ea3d dd01 903d abb2 b03a 7309 383e
00000140: c26a 363d 2905 2f3e b9cf 643e f5f1 55be
00000150: 15d1 07bd 20ed 70bb fb77 56be 6e24 473e
00000160: 9fe4 39bc 720d fcbc 4c16 c23d ee91 c2bd
00000170: a3c7 39bd 42f9 23be f002 91bd 16b3 c93d
00000180: b443 64be 7ab7 8fbd 5c5b c9bd 8d57 22be
00000190: fd29 39bd c156 22be 2fc5 93bb 58e2 45bd
000001a0: bf7c a33d bdd4 e13d 5228 91bc e7cf e43d
000001b0: 6c68 9dbd c053 bd3d 1c34 173d 97a8 7f3d
000001c0: c16f 1bbe 6966 eebd 9a83 283d 331c 4abe
000001d0: 6535 e93d 7c99 243e 20b1 44be 1ec2 3ebb
000001e0: c7b3 113e ece3 383e 0db6 9b3d dfcb 09be
000001f0: 2670 383d 0ff1 2dbe 87bf df3d 909d 583e
00000200: 6537 a0bb c569 603e b98d 4d3d 51ef be3d
00000210: ab9d 19be c339 adbc 8b3f c03d 3f6c a03d
00000220: ad52 333e 1f27 993c c99b 10be 22db 173d
00000230: 03d7 cd3d 50f8 313e cd6a f6bd 19b2 39be
00000240: 7247 663d 392b ec3c 4a71 70be a693 6dbe
00000250: 1adc 09be 7202 02be 54b0 27be 578b 12be
00000260: e088 aabd e24d d5bd a419 84be 6414 463e
00000270: a9fc 063e 42c9 72be d5d5 723c 10c6 a8bd
00000280: 86e2 3b3d a50e 68bd 850c c73d a70e 1fbe
00000290: b064 92bd 0a36 3cbe 0002 3abe afcc 5ebe
000002a0: 927f 283e 61e0 a43d b287 30be a279 59bd
000002b0: cc77 523e 60ce 31be 5297 37be 2d59 473e
000002c0: dabc 453e d887 c43d 8e73 4abe cc29 64be
000002d0: ded5 11be 2eff 7c3e 0b0d 393e ccb9 5bbe
000002e0: c4d4 ee3c ae9f 45be 0594 ee3d de2c 253e
000002f0: a561 e4bd f437 d63d 7988 31be ef91 ed3d
00000300: ad36 a1bd d9c9 2d3d 445f 02be 168c 1d3e
00000310: bb46 3abe 03dd 2cbc 24e0 6c3e 7e3d 49be
00000320: 3be2 9abd 1e02 373d 5213 223e 1fca 233d
00000330: 7602 413e 80f5 05be 3caf 0b3d d0fc 37bd
00000340: f704 3a3d b4e8 183c 29f9 cd3c 2880 19be
00000350: f49f 4bbd b17b 363e 71da 6fbd 6002 0f3e
00000360: 916b 353e 64b4 153e c943 dabd c1eb fe3d
00000370: 05d5 533e 1369 a6bd a268 473d 07ba 073e
00000380: 0244 db3a 405a 3abe fc7a 403e eb8f 80bd
00000390: fb4f d13d 355b e7bd bfec 693e 23d8 a23d
000003a0: 800c 7c3e 70d4 04bd b0ec 3cbe 24f2 36bc
000003b0: 6bd1 d93d 48f7 03bd 52c7 b03d 8554 38bd
000003c0: 62eb d7bd 2d85 63be aa9f e23c af92 633d
000003d0: b9aa 04be 69dc a5bd 7cce 6ebe 5d98 c2bc
000003e0: 9e09 253e bfa7 183e b2f3 a5bd 211d 8bbd
000003f0: 312f f23d 45f1 5a3e ef81 8a3d aa0f 4d3e

hiden_layers.1.bias f4 [64]
0.0071753515 0.048528973 0.044285767 0.039627686 0.05020073 -0.0077037285 0.008447892 0.025128003
0.022837728 -0.0077530975 -0.038908426 -0.043983676 0.030762028 0.000885693 -0.03691206 0.04249577
0.026674384 -0.0043028803 0.041078083 0.038953744 0.019338978 0.016138854 -0.05541945 0.039469983
-0.017346306 -0.008474516 -0.016504481 -0.062851496 -0.06925052 -0.05073921 -0.00023788401 0.0091361925
0.03249843 -0.058424946 -0.0052945074 0.04321313 0.06907907 -0.036729436 0.04577653 -0.031321563
0.035164274 0.05680948 0.025660114 0.058078412 -0.051190883 0.034050427 -0.0131835835 0.010839015
-0.041047096 -0.0248082 -0.018213082 0.034026224 0.050067615 0.010154848 -0.07103741 0.038640536
-0.04363046 -0.04131514 -0.047136858 0.054309458 -0.028109452 0.026920432 0.047749978 -0.037316076
00000000: 361f eb3b 51c6 463d fe64 353d a450 223d
00000010: 489f 4d3d 8f6f fcbb 0769 0a3c 3ed9 cd3c
00000020: 3016 bb3c b20d febb 715e 1fbd 3a28 34bd
00000030: a600 fc3c da2d 683a 1a31 17bd 0b10 2e3d
00000040: 3d84 da3c 2dff 8cbb 7e41 283d f68d 1f3d
00000050: c76c 9e3c a135 843c 81ff 62bd 47ab 213d
00000060: d719 8ebc b2d8 0abc 6834 87bc 49b8 80bd
00000070: 37d3 8dbd ebd3 4fbd 8170 79b9 f8af 153c
00000080: 131d 053d ff4e 6fbd 8c7d adbb 4000 313d
00000090: 5479 8d3d 9b71 16bd 2c80 3b3d 0a4b 00bd
000000a0: 6a08 103d 0fb1 683d 2935 d23c a1e3 6d3d
000000b0: 88ad 51bd 7678 0b3d f5ff 57bc 2096 313c
000000c0: 0021 28bd 913a cbbc 9a33 95bc 155f 0b3d
000000d0: b313 4d3d 8560 263c 107c 91bd 8a45 1e3d
000000e0: dab5 32bd 103a 29bd 9412 41bd 9873 5e3d
000000f0: cb45 e6bc 3d88 dc3c 7b95 433d bed8 18bd

hiden_layers.2.weight f4 [64, 64]
-0.14054355 -0.109904245 0.17546755 -0.12496416 -0.007113299 0.06922366 -0.1023294 4.1301926e-05
0.0962506 0.05866473 -0.012093852 0.094824314 0.063549645 0.05654027 0.17907545 -0.13771357
0.056904625 0.09766661 0.18306017 -0.13397843 0.10558551 -0.1516108 -0.036551226 0.19693726
0.08154968 0.09180124 0.07412933 0.05072851 -0.10475502 0.01898643 -0.1310389 0.24405155
-0.019862708 0.2027502 -0.12559591 0.066589 -0.0328006 -0.16387641 0.200212 -0.1470212
0.2000064 -0.17660005 -0.08915252 -0.16014084 0.12969783 0.060603008 0.18244512 0.004966645
0.18887757 -0.117419854 0.20493393 0.16454528 0.19028874 0.16658437 0.24703561 0.029364375
-0.06812099 0.09229171 0.062743485 -0.16893384 -0.21129936 -0.18119815 -0.08917158 0.17292336
-0.24085057 -0.18764533 0.14879932 -0.16363035 -0.12830381 0.09693747 0.014376117 -0.18936525
-0.2327869 0.17762646 -0.100331426 -0.12984699 -0.20027208 0.011307276 0.1738926 -0.10486105
-0.22179855 0.11766782 -0.14837763 -0.16129258 0.19781311 -0.118344866 0.06356663 0.056790132
0.21636537 0.10305356 0.10620078 -0.017956251 0.14794217 -0.00987689 0.038311597 -0.09758218
-0.1508772 0.082783274 -0.2461576 -0.19160815 0.10344264 0.21124285 -0.07638571 -0.12135052
-0.02467918 0.17864847 0.1840534 0.063901536 0.13609527 -0.23571444 -0.2155503 0.0585519
0.018746216 0.08271411 -0.022595005 0.16073236 -0.18801607 -0.044951834 -0.01906025 -0.07391802
-0.18188633 0.2421581 0.20367739 -0.011120918 -0.09879302 -0.18116188 -0.21220613 0.051950935
-0.20112419 -0.048682213 0.10225037 0.12049327 0.007915689 -0.14994788 0.023146097 -0.14328274
0.24191533 -0.20853178 0.20866382 0.045966286 0.05223903 0.14222346 0.081904426 0.04593464
0.013978713 0.060580775 0.032565646 -0.17692438 -0.1634075 0.10850245 -0.23531985 0.19103535
0.06788354 0.04252696 -0.023391819 -0.031085405 0.19300553 0.16768414 0.117533825 -0.1057526
0.16548796 0.0989785 -0.19688796 -0.014751266 0.10026517 0.193448 0.19785516 0.051677454
-0.063864514 -0.14085203 -0.17443326 0.15269214 -0.012148131 -0.02558766 -0.11177332 0.16641305
0.0746546 -0.13030823 0.21948838 -0.035270862 -0.19355744 0.10555281 0.22924219 0.15494853
-0.11689633 -0.19463795 -0.08249244 0.19703984 -0.10930172 0.18502621 0.1386808 -0.06356686
0.11105288 -0.02757164 0.111224875 -0.10074025 0.12307291 -0.088100635 -0.13230704 0.18706976
0.065114066 0.17773606 -0.026255853 0.028974222 0.23210332 -0.14257137 -0.043587424 0.109570354
0.017272921 -0.03658896 -0.15411608 -0.11175472 -0.075472414 -0.12497943 -0.07367129 0.115655154
-0.1606145 -0.093932986 -0.22908199 -0.005633574 0.06086102 -0.14473732 -0.047209833 0.017834214
0.113365985 -0.10148182 0.1996759 -0.07948028 -0.08062654 0.18947214 0.03250208 -0.17166722
0.19564232 0.020677416 0.2488896 0.18497795 0.10087486 0.15595219 0.123353705 0.09668532
0.20110469 -0.18974364 -0.070035994 -0.10412989 0.057912484 0.0849339 0.019366655 -0.011714724
-0.027510436 -0.030343233 -0.036510892 0.248058 0.017417157 -0.13820049 0.12903593 -0.15588312
00000000: a6ea 0fbe 7a15 e1bd c4ad 333e 36ed ffbd
00000010: ad16 e9bb 22c5 8d3d 1492 d1bd 9b3b 2d38
00000020: 091f c53d 6e4a 703d 4b25 46bc 4033 c23d
00000030: 5126 823d c596 673d 8e5f 373e c904 0dbe
00000040: d314 693d 6e05 c83d 2074 3b3e a431 09be
00000050: 373d d83d dd3f 1bbe bdb6 15bd eca9 493e
00000060: 8503 a73d 4a02 bc3d 1ed1 973d b3c8 4f3d
00000070: cd89 d6bd 6e89 9b3c 102f 06be a6e8 793e
00000080: 1eb7 a2bc c09d 4f3e 379c 00be d05f 883d
00000090: ec59 06bd 38cf 27be 6004 4d3e ba8c 16be
000000a0: 7ace 4c3e a5d6 34be 9995 b6bd f6fb 23be
000000b0: 82cf 043e dc3a 783d e5d2 3a3e 3dbf a23b
000000c0: 1f69 413e d279 f0bd 33da 513e 8f7e 283e
000000d0: 0ddb 423e 1895 2a3e e7f6 7c3e 8f8d f03c
000000e0: 0583 8bbd 7003 bd3d a87f 803d fefc 2cbe
000000f0: dc5e 58be 028c 39be 979f b6bd d212 313e
00000100: 88a1 76be 1926 40be d95e 183e b78e 27be
00000110: 1362 03be 2787 c63d ce89 6b3c f7e8 41be
00000120: b05f 6ebe b6e3 353e 907a cdbd 9cf6 04be
00000130: 2014 4dbe 2742 393c e710 323e 64c1 d6bd
00000140: 291f 63be d3fb f03d 4ef0 17be e229 25be
00000150: 858f 4a3e cb5e f2bd 392f 823d c59c 683d
00000160: e28e 5d3e bf0d d33d cb7f d93d fd18 93bc
00000170: 277e 173e aed2 21bc 9fec 1c3d 2ad9 c7bd
00000180: 8d7f 1abe 478a a93d bd10 7cbe ed34 44be
00000190: bcd9 d33d 0c50 583e 1c70 9cbd 9f86 f8bd
000001a0: fe2b cabc a0ef 363e 7f78 3c3e cfde 823d
000001b0: 8f5c 0b3e 205f 71be 38b9 5cbe 1ed4 6f3d
000001c0: aa91 993c 0466 a93d 2919 b9bc 0697 243e
000001d0: 4987 40be 6a1f 38bd 3e24 9cbc 5562 97bd
000001e0: 6940 3abe 4bf8 773e ce90 503e 8334 36bc
000001f0: ff53 cabd 8082 39be 904c 59be 81ca 543d
00000200: 80f3 4dbe 0067 47bd a468 d13d 2dc5 f63d
00000210: ceb0 013c f08b 19be e29c bd3c b6b8 12be
00000220: a7b8 773e 5b89 55be f8ab 553e 2547 3c3d
00000230: 98f8 553d 07a3 113e 82bd a73d f625 3c3d
00000240: f906 653c 8c23 783d 8e63 053d aa2b 35be
00000250: 4c54 27be 8836 de3d b0f7 70be c59e 433e
00000260: 8706 8b3d c030 2e3d 33a0 bfbc d2a6 febc
00000270: 3ea3 453e 64b5 2b3e 93b5 f03d d294 d8bd
00000280: ad75 293e 3db5 ca3d ff9c 49be 4baf 71bc
00000290: d357 cd3d 3c17 463e 8b9a 4a3e bdab 533d
000002a0: 66cb 82bd 843b 10be a29e 32be 545b 1c3e
000002b0: f408 47bc 369d d1bc 69e9 e4bd 2f68 2a3e
000002c0: 83e4 983d 856f 05be 90c1 603e 2e78 10bd
000002d0: ec33 46be 122c d83d 77be 6a3e d4aa 1e3e
000002e0: 5867 efbd 2c4f 47be ccf1 a8bd d0c4 493e
000002f0: 95d9 dfbd 8377 3d3e 5702 0e3e 582f 82bd
00000300: b16f e33d ecdd e1bc dec9 e33d e750 cebd
00000310: a60d fc3d 1b6e b4bd 7f7b 07be 378f 3f3e
00000320: 865a 853d 7100 363e 8416 d7bc 595b ed3c
00000330: 7eac 6d3e 3bfe 11be ba88 32bd 6c66 e03d
00000340: f17f 8d3c 4ede 15bd 9bd0 1dbe a9df e4bd
00000350: 4891 9abd 37f5 ffbd f9e0 96bd 9cdc ec3d
00000360: 2178 24be f05f c0bd 7894 6abe d899 b8bb
00000370: 6849 793d 0536 14be 195f 41bd 0f19 923c
00000380: 6d2c e83d b3d5 cfbd d777 4c3e 8fc6 a2bd
00000390: 871f a5bd fc04 423e e720 053d 88c9 2fbe
000003a0: 7656 483e af63 a93c eadc 7e3e dc6a 3d3e
000003b0: 7b97 ce3d eeb1 1f3e dea0 fc3d f402 c63d
000003c0: 63ee 4d3e 284c 42be 086f 8fbd 0d42 d5bd
000003d0: a435 6d3d d3f1 ad3d d2a6 9e3c 1def 3fbc
000003e0: 915d e1bc 5f92 f8bc 728c 15bd eb02 7e3e
000003f0: 6dae 8e3c 6e84 0dbe ff21 043e d39f 1fbe

hiden_layers.2.bias f4 [64]
-0.00034624158 -0.006981953 0.0039402163 0.035655312 0.07919804 0.016035933 -0.06827287 -0.028902527
-0.039777234 -0.0024221367 -0.025479818 -0.050509866 0.00081609446 0.05262792 -0.021393519 0.026921049
-0.0026477415 -0.055736735 -0.06428091 0.03577572 0.043456577 0.037579726 0.033782717 -0.022456937
0.049348302 -0.04514213 0.023576194 -0.014877405 0.019641316 -0.034533594 0.040975302 0.025268257
-0.042781927 -0.00663746 0.027543323 0.015081563 -0.052253764 0.009285515 0.0014476775 0.02720292
0.042654883 -0.019033002 -0.011139035 -0.004528222 -0.03257001 0.0032098326 -0.036133654 0.015916191
0.014407566 0.052503422 -0.016763223 -0.01705459 0.05019638 0.03330225 0.03410914 0.00215879
0.017401164 0.038321882 -0.015271737 0.07169895 -0.019009024 0.023328792 -0.031642664 -0.023052305
00000000: c287 b5b9 dec8 e4bb ee1c 813b 4e0b 123d
00000010: 9532 a23d ca5d 833c a5d2 8bbd fec4 ecbc
00000020: 74ed 22bd b6bc 1ebb 0dbb d0bc 6fe3 4ebd
00000030: 2cef 553a 6090 573d 7641 afbc 8889 dc3c
00000040: bb85 2dbb 344c 64bd b6a5 83bd 9089 123d
00000050: 86ff 313d 33ed 193d bf5f 0a3d 9cf7 b7bc
00000060: 7221 4a3d f4e6 38bd dd22 c13c 5cc0 73bc
00000070: d3e6 a03c 1973 0dbd b8d5 273d 60ff ce3c
00000080: 1a3c 2fbd 0d7f d9bb 89a2 e13c a918 773c
00000090: 0b08 56bd 4622 183c ffbf bd3a a8d8 de3c
000000a0: e3b6 2e3d 19eb 9bbc 8080 36bc 7b61 94bb
000000b0: 2168 05bd 0e5c 523b e200 14bd ac62 823c
000000c0: b60d 6c3c d40d 573d 0753 89bc 11b6 8bbc
000000d0: b89a 4d3d f167 083d 07b6 0b3d 7c7a 0d3b
000000e0: e38c 8e3c 68f7 1c3d 4f36 7abc e6d6 923d
000000f0: d0b8 9bbc 061c bf3c bd9b 01bd 30d8 bcbc

hiden_layers.3.weight f4 [64, 64]
0.014472273 0.13863339 0.078985244 -0.14151908 -0.08161374 -0.23330417 0.1488603 -0.0026112378
0.051615894 -0.07729809 0.020609293 0.15007551 -0.072356455 -0.13620538 0.010889851 -0.19902992
0.023395937 0.24148227 -0.04155063 -0.23518433 -0.18454243 0.22107072 0.16059633 -0.17061022
0.034453444 0.2016583 -0.03275864 0.13202226 0.13955587 0.11386415 -0.15091988 0.071439154
0.08526889 -0.104791306 -0.20513053 -0.12372668 -0.030438893 -0.05994172 0.08916482 -0.08814206
-0.15551859 -0.03964536 0.01693044 -0.030220874 0.09309064 0.18373094 0.0037380778 -0.19714415
-0.23166177 -0.19022135 -0.0052604047 0.02718634 0.07216531 -0.13104169 0.012999422 -0.08371713
-0.0009979061 -0.07384983 0.08420254 0.14356257 -0.043279637 0.07493233 -0.19336998 -0.039334625
-0.104139574 -0.22032999 0.16782407 -0.028547978 0.116366886 0.06394288 0.0072010406 -0.026301825
0.0039308826 0.05094975 0.10104841 -0.2263525 -0.22348273 0.0175267 -0.20720117 0.0642829
0.0034846999 -0.002374229 0.12651962 0.18657082 0.053836856 -0.1042359 -0.20072004 0.27129525
0.15660022 0.041499056 -0.11422306 -0.25035584 0.009383379 0.10503954 -0.034354463 0.08555574
0.15419298 0.058886603 0.105379775 -0.13973267 0.11334097 -0.06780398 0.057021756 0.024522197
-0.038660206 -0.20857844 -0.091151185 0.058683258 -0.05111009 0.034603074 0.18203105 -0.16887373
0.07481429 -0.029408593 -0.22281934 -0.17832197 0.022292271 -0.18359503 -0.13298199 0.03589415
0.06446677 -0.04244153 0.059406683 -0.17705405 -0.11659864 -0.14615211 0.16991247 0.20812698
-0.025485532 -0.11956564 -0.18040445 0.10597675 -0.0406111 0.15294637 -0.20104063 0.19456112
0.04025134 -0.062942185 -0.004567333 -0.028825345 -0.11711938 0.10288565 0.1764284 0.19079487
0.15637596 0.04992488 -0.08111499 0.168468 -0.048219174 -0.13437626 0.1806627 -0.01524465
-0.12224054 0.06392456 0.009361663 -0.031069929 -0.015166664 0.117705986 0.062608734 0.12715286
-0.1134757 0.0025283794 -0.09959928 0.11173179 -0.08358791 -0.044450462 0.04328235 0.117355764
0.08504408 0.0639606 -0.0695547 -0.038954157 -0.07518175 0.20460777 -0.17093731 -0.14078638
-0.061339106 0.2325059 -0.051628362 -0.12617902 -0.069834985 -0.10797937 0.04621362 -0.16786133
-0.09879792 0.009347488 0.1426268 0.23726681 -0.037651572 -0.1378833 -0.12538697 -0.15964293
0.11003976 -0.048610393 -0.05121065 0.07574317 0.17856453 -0.09931424 0.205177 -0.15120444
0.0010077778 -0.17212822 -0.07704773 0.00795697 0.05044959 0.016274406 -0.09754573 0.04707066
0.068568535 -0.087644555 0.098519705 0.16666794 0.18777633 -0.12043317 0.1204093 0.27172893
-0.18379259 -0.11942209 0.14092301 -0.18447493 0.15570578 -0.049262162 -0.15284579 -0.11858831
0.06615637 -0.060321387 -0.023211626 -0.0008019519 0.052248526 -0.18002442 -0.21341568 0.12646584
-0.07255955 -0.096555755 -0.2378711 -0.045783233 0.045117836 0.07152088 -0.17528012 0.020056134
0.044807423 0.08377472 -0.23992144 0.23087609 -0.16719489 0.08476918 0.20159206 -0.20857315
0.22169483 -0.0030824223 0.18565767 -0.03964986 -0.23233168 0.043632567 0.013679672 0.29230186
00000000: 1d1d 6d3c e9f5 0d3e 04c3 a13d 61ea 10be
00000010: 1b25 a7bd 4ae7 6ebe d66e 183e 4d21 2bbb
00000020: 306b 533d 764e 9ebd d2d4 a83c 65ad 193e
00000030: 9f2f 94bd 6c79 0bbe 586b 323c 80ce 4bbe
00000040: d6a8 bf3c 2147 773e fe30 2abd 29d4 70be
00000050: b1f8 3cbe 5d60 623e 5d73 243e 72b4 2ebe
00000060: 0e1f 0d3d 837f 4e3e ec2d 06bd d830 073e
00000070: bce7 0e3e 9c31 e93d be8a 1abe b14e 923d
00000080: 75a1 ae3d d39c d6bd bd0d 52be 6a64 fdbd
00000090: fc5a f9bc 7385 75bd 0c9c b63d d383 b4bd
000000a0: 4440 1fbe 2c63 22bd b5b1 8a3c c491 f7bc
000000b0: 4ea6 be3d f723 3c3e 8afa 743b 28e0 49be
000000c0: be38 6dbe 63c9 42be 795f acbb e3b5 de3c
000000d0: 68cb 933d cb2f 06be 87fb 543c e373 abbd
000000e0: 2ccc 82ba 943e 97bd 6272 ac3d 1102 133e
000000f0: fd45 31bd 1f76 993d c802 46be 581d 21bd
00000100: 2147 d5bd 2f9e 61be 13da 2b3e 73dd e9bc
00000110: c351 ee3d 7cf4 823d b5f6 eb3b ed76 d7bc
00000120: a2ce 803b afb0 503d 78f2 ce3d f3c8 67be
00000130: a8d8 64be 2794 8f3c 8b2c 54be c1a6 833d
00000140: 905f 643b f498 1bbb 5c8e 013e 6c0c 3f3e
00000150: 0984 5c3d a279 d5bd 8e89 4dbe 36e7 8a3e
00000160: cf5b 203e eafa 293d c8ed e9bd a42e 80be
00000170: bebc 193c f81e d73d 44b7 0cbd d937 af3d
00000180: c4e4 1d3e 1433 713d 5ad1 d73d 1516 0fbe
00000190: 4f1f e83d d0dc 8abd a58f 693d c6e2 c83c
000001a0: 2a5a 1ebd 9695 55be 79ad babd db5d 703d
000001b0: d058 51bd f4bb 0d3d 5966 3a3e 3ced 2cbe
000001c0: 3c38 993d 4aea f0bc c12a 64be 099a 36be
000001d0: 489e b63c 5600 3cbe 6e2c 08be bf05 133d
000001e0: 2707 843d 2bd7 2dbd 6c54 733d a84d 35be
000001f0: 45cb eebd e6a8 15be 89fd 2d3e 3d1f 553e
00000200: 09c7 d0bc d5de f4bd f2bb 38be 570a d93d
00000210: d357 26bd f99d 1c3e 98dd 4dbe 083b 473e
00000220: 97de 243d d5e7 80bd 91a9 95bb 2123 ecbc
00000230: 49dc efbd b6b5 d23d a6a9 343e bb5f 433e
00000240: 0521 203e 087e 4c3d 9e1f a6bd e082 2c3e
00000250: 7881 45bd ee99 09be a5ff 383e b2c4 79bc
00000260: 4059 fabd e1ea 823d a961 193c 5d86 febc
00000270: 997d 78bc d60f f13d 0239 803d 5c34 023e
00000280: f365 e8bd 2bb3 253b b5fa cbbd a3d3 e43d
00000290: 2330 abbd b011 36bd d548 313d 3858 f03d
000002a0: 972b ae3d c6fd 823d b272 8ebd 658e 1fbd
000002b0: e4f8 99bd b384 513e 310a 2fbe 4e2a 10be
000002c0: b73e 7bbd 0716 6e3e 4378 53bd 1335 01be
000002d0: a505 8fbd 4a24 ddbd 7e4a 3d3d d7e3 2bbe
000002e0: 9056 cabd 3526 193c c30c 123e 12f6 723e
000002f0: 8938 1abd 4831 0dbe 7165 00be 7079 23be
00000300: 875c e13d b11b 47bd 42c2 51bd 3c1f 9b3d
00000310: 9fd9 363e 4465 cbbd eb19 523e 56d5 1abe
00000320: 6917 843a 6142 30be 33cb 9dbd f35d 023c
00000330: 3ba4 4e3d e751 853c 0ec6 c7bd 2acd 403d
00000340: a96d 8c3d fd7e b3bd b3c4 c93d 00ab 2a3e
00000350: 7048 403e aaa5 f6bd 2799 f63d 0e20 8b3e
00000360: 2034 3cbe 9293 f4bd 1f4e 103e ffe6 3cbe
00000370: 5671 1f3e 1fc7 49bd 9b83 1cbe 6ede f2bd
00000380: fe7c 873d 8f13 77bd 4f26 bebc 153a 52ba
00000390: 8d02 563d 5258 38be a489 5abe 4380 013e
000003a0: 1a9a 94bd 06bf c5bd 7b94 73be 3387 3bbd
000003b0: 7bcd 383d 8a79 923d a27c 33be c34c a43c
000003c0: fd87 373d 1592 ab3d f7ad 75be c86a 6c3e
000003d0: 2335 2bbe 779b ad3d 266e 4e3e 3394 55be
000003e0: f803 633e 7702 4abb 0b1d 3e3e e467 22bd
000003f0: 5be8 6dbe 10b8 323d b420 603c 97a8 953e

hiden_layers.3.bias f4 [64]
-0.028566487 -0.019315444 0.09307181 2.5495863e-05 -0.02179196 -0.032109957 -0.021647489 0.008437595
0.017035248 -0.009308441 -0.059401184 -0.005844249 -0.02602021 0.01699761 0.003258868 0.040519103
0.0068058856 0.03616623 0.02120485 0.01815813 -0.015322977 0.030372802 -0.0025849366 -0.00096715475
-0.013254514 -0.026578568 -0.08256859 0.0111285485 -0.025578165 0.010829655 0.057040643 0.0071392828
-0.042873092 -0.059684154 -0.0041534514 0.0096951155 0.061231438 0.029331831 -0.024370851 -0.059310947
-0.055856567 -0.05030024 -0.023040699 -0.041130483 -0.047978822 -0.01309316 0.036308452 -0.033186182
-0.0024188575 0.0017074612 -0.010404278 0.03912261 -0.018489731 0.023402117 0.007101206 0.0112660555
0.025687357 0.055909183 -0.0053536375 -0.029818505 -0.04491735 0.03240756 -0.029489389 -0.0423156
00000000: 4404 eabc 6c3b 9ebc 6f9c be3d f3df d537
00000010: 0d85 b2bc bb85 03bd 1356 b1bc d73d 0a3c
00000020: 818d 8b3c 6e82 18bc a84e 73bd 1d81 bfbb
00000030: 5628 d5bc 923e 8b3c bb92 553b 5cf7 253d
00000040: e803 df3b 0a23 143d cbb5 ad3c 5cc0 943c
00000050: 390d 7bbc 62d0 f83c 0a68 29bb a888 7dba
00000060: 7629 59bc 4cbb d9bc b919 a9bd 8454 363c
00000070: 4d89 d1bc de6e 313c 73a3 693d a5f0 e93b
00000080: b29b 2fbd 5f77 74bd ad19 88bb 43d8 1e3c
00000090: d1cd 7a3d 4f49 f03c 61a5 c7bc 09f0 72bd
000000a0: dbc9 64bd a007 4ebd d9bf bcbc 7078 28bd
000000b0: 7185 44bd b284 56bc 2cb8 143d 3cee 07bd
000000c0: b285 1ebb e4cc df3a b476 2abc 083f 203d
000000d0: c777 97bc ccb5 bf3c 3cb1 e83b 4395 383c
000000e0: 4b6e d23c 0701 653d 916d afbb f045 f4bc
000000f0: 41fb 37bd cabd 043d bb93 f1bc 1f53 2dbd

hiden_layers.4.weight f4 [64, 64]
0.07236836 -0.18247655 -0.06112469 0.015426852 -0.26920998 0.017079392 0.0014606484 0.10072999
0.04630606 -0.21375494 -0.15938678 -0.05729446 0.059890646 0.2098313 0.01329691 -0.1985872
0.24823484 0.083545744 0.006197318 0.026664013 -0.047327235 -0.03944088 0.27755094 0.03820316
0.07670834 -0.036358066 -0.20657007 -0.07688625 -0.07349836 0.16492093 -0.016761797 0.100182295
-0.102992 0.18748249 0.20514642 0.1404779 -0.15575574 0.024522375 0.08177197 0.080958635
0.16266192 0.15985629 -0.21501757 0.09217911 -0.10252948 -0.26916304 0.1403482 -0.03529767
0.20340641 -0.1879648 -0.092524596 -0.18700358 0.020775445 0.028101807 0.1388494 -0.16296075
0.04315477 -0.035855304 -0.002758705 -0.21517505 0.0039461995 0.028968014 0.22216024 -0.08981601
-0.12581235 -0.021553185 0.14306444 0.22935435 -0.15880723 -0.12107915 -0.16878845 0.04291337
0.18726496 0.054033168 -0.22407052 0.23826064 -0.017950868 -0.12338093 -0.19299814 0.017861234
-0.044811673 -0.19573182 0.10178669 -0.04044059 -0.042073734 0.20903683 0.06455208 -0.08139195
0.016049398 -0.022416025 0.1699056 0.06122629 -0.020027334 0.13183239 0.12145152 -0.21079232
0.083822876 0.1410806 -0.1390042 -0.015184129 -0.13109691 0.18121742 0.12725346 -0.11678595
-0.095922776 -0.14280929 -0.1341906 0.17820026 -0.115420766 0.024936985 0.022395147 0.07844284
0.082798816 0.023560358 -0.023215858 0.04845142 -0.16207914 -0.14977163 -0.1347142 -0.19467773
0.18493226 0.13387886 -0.22187315 0.09719079 0.086107895 0.2187721 0.18887693 0.06335703
-0.1446268 -0.0043321336 -0.021661773 0.061527647 -0.19495885 -0.2765998 -0.02191794 0.13605537
-0.09190832 0.092409775 -0.21562904 0.18031555 0.18786079 0.10095122 0.029728055 0.173426
0.16031706 -0.16073073 0.25322863 0.10283902 -0.12614077 0.12854028 -0.16964372 -0.16606984
-0.15021399 -0.16997889 0.23344915 0.18684083 -0.08706368 0.07270144 -0.07199174 0.15004122
0.12891744 0.0842678 -0.09271823 -0.063304104 0.17417298 0.1454374 0.0083523085 0.18428914
0.052185193 -0.18756942 -0.0015960373 0.19134381 -0.055895645 -0.15593661 -0.039618634 0.14548342
-0.12261755 -0.20722352 0.22589041 0.14526728 0.056363426 -0.14284909 -0.011208581 -0.05750598
-0.1152007 0.20666899 -0.2320133 0.1078615 0.11629016 -0.06788566 0.122483574 -0.074458495
-0.23105006 0.01987491 0.056821115 0.05028819 0.030194394 -0.03149872 -0.14413403 -0.064327754
-0.0067718276 0.01283265 -0.017823078 0.029882634 -0.066234924 -0.008999865 0.073591314 0.05425795
-0.14319447 0.08578656 0.16962814 -0.08127959 -0.07205488 -0.05091667 0.19265379 0.034464926
-0.17520958 -0.20658062 0.1644028 0.18276607 0.012450355 0.20645815 0.17123272 -0.14521688
0.13657117 -0.13732709 0.011097619 -0.1114356 0.14558882 -0.0683262 0.17382878 -0.22912458
-0.0987935 -0.11832363 -0.035724398 0.19164269 -0.07786583 -0.060175844 0.12741672 -0.1911831
0.103185676 0.20244859 -0.021237552 -0.028227739 -0.061504792 0.15246107 -0.14830182 0.19375166
0.090745665 0.14858557 0.10910227 -0.15453312 0.16964729 0.14470403 -0.09952502 0.08173648
00000000: dd35 943d 22db 3abe e25d 7abd e8c0 7c3c
00000010: e4d5 89be 15ea 8b3c 3a73 bf3a 864b ce3d
00000020: 6cab 3d3d 93e2 5abe 4a36 23be 98ad 6abd
00000030: e54f 753d 04de 563e 48db 593c 715a 4bbe
00000040: 4631 7e3e 081a ab3d df12 cb3b 7d6e da3c
00000050: 34da 41bd c38c 21bd 281b 8e3e eb7a 1c3d
00000060: 4319 9d3d 32ec 14bd 1b87 53be 8a76 9dbd
00000070: 4f86 96bd 08e1 283e 0950 89bc 602c cd3d
00000080: 78ed d2bd 69fb 3f3e e711 523e 70d9 0f3e
00000090: 6f7e 1fbe 26e3 c83c 1078 a73d a4cd a53d
000000a0: d990 263e 5eb1 233e 912d 5cbe 67c8 bc3d
000000b0: fafa d1bd bdcf 89be 70b7 0f3e 4a94 10bd
000000c0: c549 503e d879 40be 897d bdbd de7d 3fbe
000000d0: 4431 aa3c c335 e63c 8a2e 0e3e 2fdf 26be
000000e0: 0ec3 303d 03dd 12bd 64cb 34bb d956 5cbe
000000f0: 1f4f 813b 544e ed3c f97d 633e 75f1 b7bd
00000100: f4d4 00be 4e90 b0bc 7c7f 123e dedb 6a3e
00000110: 5d9e 22be 58f8 f7bd e1d6 2cbe eec5 2f3d
00000120: 63c2 3f3e e251 5d3d be72 65be 99fa 733e
00000130: b30d 93bc 24af fcbd 4ea1 45be b951 923c
00000140: 728c 37bd ec6d 48be 8a75 d03d 08a5 25bd
00000150: 8255 2cbd c00d 563e e233 843d d3b0 a6bd
00000160: 077a 833c d0a1 b7bc bcfb 2d3e 6bc8 7a3d
00000170: 5d10 a4bc 12ff 063e 93bb f83d f1d9 57be
00000180: 54ab ab3d 6f77 103e 1e57 0ebe dac6 78bc
00000190: 453e 06be 0f91 393e bb4e 023e 792d efbd
000001a0: 2973 c4bd 993c 12be 4369 09be 217a 363e
000001b0: b961 ecbd a648 cc3c 0776 b73c a4a6 a03d
000001c0: 6d92 a93d a701 c13c 2f2f bebc ff74 463d
000001d0: 13f8 25be bc5d 19be 85f2 09be 9959 47be
000001e0: e25e 3d3e 8a17 093e b732 63be f70b c73d
000001f0: 5659 b03d cb05 603e f468 413e 55c1 813d
00000200: 0c19 14be 92f4 8dbb 0874 b1bc 6a04 7c3d
00000210: 4ba3 47be 7d9e 8dbe 408d b3bc 1952 0b3e
00000220: 6e3a bcbd 5641 bd3d dccd 5cbe a4a4 383e
00000230: 945e 403e 83bf ce3d 4088 f33c 9696 313e
00000240: 282a 243e 9996 24be 2fa7 813e 449d d23d
00000250: 0c2b 01be 10a0 033e 15b7 2dbe 360e 2abe
00000260: b2d1 19be f20e 2ebe 4b0d 6f3e 3453 3f3e
00000270: 714e b2bd 7ee4 943d 6870 93bd 68a4 193e
00000280: ef02 043e 9994 ac3d 0ee3 bdbd 95a5 81bd
00000290: 675a 323e 8bed 143e 1fd8 083c 4bb6 3c3e
000002a0: 24c0 553d 3312 40be 2032 d1ba a2ef 433e
000002b0: d5f2 64bd d9ad 1fbe 2647 22bd 9bf9 143e
000002c0: e91e fbbd 6732 54be d14f 673e f2c0 143e
000002d0: 56dd 663d 0847 12be 32a4 37bc 648b 6bbd
000002e0: 58ee ebbd 09a1 533e e594 6dbe 7de6 dc3d
000002f0: 8929 ee3d a307 8bbd abd8 fa3d b27d 98bd
00000300: 6398 6cbe b5d0 a23c 42bd 683d fdfa 4d3d
00000310: 3c5a f73c cd04 01bd df97 13be 45be 83bd
00000320: 35e6 ddbb 0940 523c b401 92bc 6dcc f43c
00000330: 2da6 87bd 2b74 13bc 0bb7 963d 963d 5e3d
00000340: 92a1 12be ddb0 af3d 00b3 2d3e ea75 a6bd
00000350: 8291 93bd 008e 50bd 0947 453e 182b 0d3d
00000360: 246a 33be df89 53be 3559 283e 0727 3b3e
00000370: 93fc 4b3c c469 533e a157 2f3e bcb3 14be
00000380: 50d9 0b3e 799f 0cbe cad2 353c 5938 e4bd
00000390: 3c15 153e 9bee 8bbd 2c00 323e a29f 6abe
000003a0: 3f54 cabd a953 f2bd bf53 12bd fb3d 443e
000003b0: 1f78 9fbd f27a 76bd 8779 023e 81c5 43be
000003c0: 0353 d33d af4e 4f3e 60fa adbc dc3d e7bc
000003d0: 73ec 7bbd c11e 1c3e 6fdc 17be d666 463e
000003e0: ddd8 b93d d126 183e 0371 df3d ee3d 1ebe
000003f0: 05b8 2d3e 4b2d 143e c6d3 cbbd 7565 a73d

hiden_layers.4.bias f4 [64]
0.025596114 0.03882575 0.027553402 0.016944591 0.022700863 0.08841808 0.015846021 -0.03325182
0.011474583 -0.00027391475 -0.015325687 -0.013946135 0.04834707 0.009204128 -0.045779232 0.0037675304
-0.006179453 -0.012332989 -0.04798924 -0.008449007 -0.033126544 0.005863731 -0.020738365 0.06782969
-0.035223678 0.012591548 0.0026206865 -0.018756818 0.0014491422 -0.0073596826 0.020314582 0.01480963
0.05261553 -0.047733217 0.04845654 0.073909454 0.016654063 -0.015719663 -0.023945387 0.02926893
0.02685443 -0.0030665132 0.034636047 0.02789485 -0.02759017 -0.013119325 0.013880795 0.07626484
-0.014712959 0.045991905 -0.0009200498 -0.060801685 -0.030310258 0.016229888 -0.019099705 0.02695896
-0.030417057 -0.0026433647 0.007778327 0.019972185 0.006449346 -0.040081587 -0.049186904 0.00087498367
00000000: f1ae d13c c007 1f3d acb7 e13c 62cf 8a3c
00000010: 29f7 b93c 8a14 b53d 84cf 813c 0f33 08bd
00000020: e4ff 3b3c 379c 8fb9 9718 7bbc 547e 64bc
00000030: 9407 463d e9cc 163c 0183 3bbd ace8 763b
00000040: 027d cabb 4e10 4abc 5e90 44bd b46d 0abc
00000050: b3af 07bd 8a24 c03b 81e3 a9bc 4bea 8a3d
00000060: b446 10bd c84c 4e3c d3bf 2b3b e6a7 99bc
00000070: 25f1 bd3a 7e29 f1bb c46a a63c 17a4 723c
00000080: 6283 573d e883 43bd 5d7a 463d d75d 973d
00000090: 1a6e 883c 86c6 80bc 1e29 c4bc 65c5 ef3c
000000a0: d2fd db3c 8ef7 48bb 87de 0d3d be83 e43c
000000b0: c804 e2bc 70f2 56bc 466c 633c be30 9c3d
000000c0: 9f0e 71bc 0262 3c3d 7f2f 71ba 300b 79bd
000000d0: 384d f8bc 8bf4 843c fc76 9cbc 09d9 dc3c
000000e0: 312d f9bc 4d3c 2dbb 56e1 fe3b b59c a33c
000000f0: 0955 d33b 972c 24bd 3578 49bd 295f 653a
