results/8_with_inertia/epoch960/model_weights.pth (torch, 749334 bytes, 128 tensors)

init_layer.0.weight f4 [64, 5]
0	0xbea4b9ef	-0.32173106
1	0xbeb4896b	-0.35261092
2	0x3e2f5519	0.17122306
3	0xbd2912f0	-0.041277826
4	0x3e67f572	0.22652224
5	0xbd8a9526	-0.06766729
6	0xbbd6f714	-0.0065602157
7	0xbeae6a23	-0.3406535
8	0x3d3f98cb	0.046776574
9	0x3e099939	0.13437356
10	0x3ed6062a	0.41801578
11	0xbdaa6e73	-0.08321848
12	0x3ddea27c	0.10870835
13	0x3de173dc	0.110084265
14	0x3e9052ad	0.28188077
15	0xbe065216	-0.13117251
16	0xbe757211	-0.23969294
17	0x3e88d091	0.26721624
18	0xbe6440b3	-0.22290306
19	0x3e25fdd8	0.16210115
20	0x3e8a1c32	0.26974636
21	0x3e3d837b	0.18507187
22	0xbe0b024e	-0.13575098
23	0x3d843d64	0.06457022
24	0x3e18f615	0.14937623
25	0x3ebe36d9	0.3715122
26	0x3e81f583	0.25382623
27	0xbd7b5991	-0.061364714
28	0x3e38070c	0.17971438
29	0x3d9fdc7e	0.078057274
30	0x3d22c800	0.039741516
31	0xbe98f704	-0.29875958
32	0x3e7eac47	0.24870406
33	0x3ca76070	0.020431727
34	0x3e922a93	0.28548107
35	0xbea88359	-0.3291271
36	0xbe2bfef8	-0.16796482
37	0x3d6301f6	0.055421792
38	0x3e911a0f	0.28340194
39	0xbe975b37	-0.2956178
40	0x3e45e350	0.19324994
41	0xbeaa3544	-0.33243763
42	0x3e04f06c	0.12982339
43	0xbcfd7ca2	-0.030943219
44	0x3dbb7019	0.0915224
45	0xbe8f22e3	-0.27956304
46	0x3e9b9a61	0.3039122
47	0xbe8c9a66	-0.27461547
48	0xbe76ee37	-0.24114309
49	0xbd26ce96	-0.04072436
50	0x3ea599d9	0.3234394
51	0x3df1babf	0.11803197
52	0xbdd5a4c6	-0.10431819
53	0xbe96b10f	-0.2943196
54	0x3daae683	0.08344748
55	0xbea06bf3	-0.3133236
56	0x3e844709	0.25835446
57	0xbe0478bf	-0.12936686
58	0x3cc2f788	0.023799673
59	0x3b2c9fc4	0.0026340345
60	0x3db19924	0.086717874
61	0xbe88a393	-0.26687297
62	0xbe85e752	-0.26153046
63	0x3e25b630	0.1618278
64	0x3e8ef77a	0.27923185
65	0xbe462ab3	-0.19352226
66	0x3e211333	0.1572998
67	0xbce88c72	-0.028387282
68	0x3e291919	0.1651348
69	0xbe82011e	-0.25391477
70	0xbdc1aaa1	-0.09456373
71	0xbd9e8a83	-0.07741263
72	0xbcedc369	-0.029023843
73	0x3d901982	0.07036115
74	0x3cea6732	0.02861366
75	0x3e583a45	0.21115978
76	0xbd32eaac	-0.04368083
77	0xbe972469	-0.29519966
78	0x3e901ee4	0.28148568
79	0x3e60e2ac	0.21961468
80	0x3e0dd854	0.13852054
81	0xbe092224	-0.1339193
82	0x3e68fb6c	0.2275216
83	0xbe7a19de	-0.2442393
84	0x3e5c8f9d	0.21539159
85	0x3cd22d74	0.02565644
86	0x3e97026e	0.2949404
87	0xbe55430a	-0.20826355
88	0x3de90906	0.11378674
89	0x3d96b689	0.073590346
90	0xbe351311	-0.17683055
91	0x3e98a1af	0.29810855
92	0xbe07355d	-0.1320395
93	0xbe4e9432	-0.2017372
94	0xbe9682c9	-0.29396656
95	0xbe7afe16	-0.24510989
96	0x3e4f6177	0.20252024
97	0x3dfd34dc	0.12363598
98	0xbe615e03	-0.22008519
99	0x3cbfb0da	0.02339976
100	0xbe8f180a	-0.27948028
101	0x3cc3560d	0.023844743
102	0x3e3b7bb1	0.18308903
103	0xbe459073	-0.19293384
104	0xbe8313e1	-0.25601104
105	0xbeb49db3	-0.35276565
106	0xbe992910	-0.2991414
107	0x3da12df4	0.07870093
108	0x3e6c83bf	0.23097132
109	0xbe70581a	-0.23471108
110	0xbe2b2d22	-0.16716436
111	0xbd7f5b77	-0.062343087
112	0xbe557fde	-0.20849559
113	0x3e132125	0.14368112
114	0xbe38905d	-0.1802382
115	0x3e819280	0.25307083
116	0xbe3a5101	-0.18194963
117	0x3d941d8a	0.07232197
118	0x3c93fb1e	0.018064078
119	0xbdce7895	-0.10081593
120	0x3ce57646	0.028010499
121	0x3e302cda	0.1720461
122	0x3e67c42c	0.22633427
123	0xbdd9af9d	-0.10629199
124	0x3de4ad9e	0.11165927
125	0x3ea444bd	0.32083693
126	0x3eb6d1cd	0.3570694
127	0x3e3dbdc4	0.18529421
128	0xbe19b007	-0.15008555
129	0x3e31c2e3	0.173595
130	0xbe9bb745	-0.3041326
131	0x3e81d8c4	0.25360692
132	0xbbc2e7bd	-0.0059480355
133	0x3d9e5c9c	0.077325076
134	0x3e930b20	0.28719425
135	0xbe02ef4e	-0.127866
136	0x3ea4fc73	0.32223853
137	0x3e56292c	0.20914143
138	0x3e43c797	0.19119106
139	0x3e603a1d	0.21897168
140	0xbdd98ee6	-0.10622959
141	0xbe3e29c6	-0.18570623
142	0xbe871c6f	-0.2638888
143	0xbbd479e8	-0.006484259
144	0x3e8165fd	0.25273123
145	0x3e0d0b3d	0.13773818
146	0x3e3cde00	0.18444061
147	0x3d32de75	0.043669183
148	0xbd9c1cfe	-0.07622717
149	0x3e2529c5	0.16129215
150	0x3e47040d	0.19435139
151	0x3d69e6f2	0.057105012
152	0x3e6a575c	0.22884887
153	0x3e758469	0.23976292
154	0x3e6c479b	0.2307419
155	0xbe8a34cf	-0.26993415
156	0xbea7d396	-0.32778615
157	0x3df5c826	0.12001066
158	0xbde92695	-0.11384312
159	0xbe2e5ee3	-0.17028384
160	0xbe93815c	-0.2880963
161	0x3e11e32b	0.14246814
162	0xbd5de2b6	-0.054171287
163	0x3e82862f	0.25493
164	0xbe1cf477	-0.15327631
165	0x3e6a1ffb	0.22863762
166	0xbea3046c	-0.3183931
167	0xbe3b159e	-0.18269965
168	0x3df9d465	0.12198714
169	0x3dfc1240	0.123081684
170	0xbd8be181	-0.06830121
171	0x3e2887f0	0.16458106
172	0xbd71fd47	-0.059079435
173	0x3e344d21	0.17607547
174	0xbe4ff7ea	-0.20309415
175	0x3df785b6	0.1208605
176	0xbe4f1e8f	-0.20226501
177	0x3e633009	0.22186293
178	0x3e938c3a	0.28817922
179	0x3e6ae899	0.22940291
180	0x3e475815	0.19467194
181	0xbe01178f	-0.12606643
182	0x3eabd4e8	0.33560872
183	0x3e3d2806	0.18472299
184	0x3cd58ba3	0.02606756
185	0xbdaa7bec	-0.083244175
186	0xbd675748	-0.056479722
187	0x3e782e00	0.24236298
188	0x3da10d78	0.07863897
189	0x3e30b413	0.17256193
190	0xbe02fe46	-0.1279231
191	0xbe347405	-0.17622383
192	0x3e5ee55b	0.2176718
193	0x3da8fbb2	0.08251132
194	0xbdfbc05c	-0.12292549
195	0xbe7c720c	-0.2465288
196	0xbe40503d	-0.18780608
197	0x3e0428c7	0.1290618
198	0xbe468988	-0.19388402
199	0x3ea10237	0.31447002
200	0x3ea162b0	0.31520605
201	0xbe1abf34	-0.15112
202	0x3e400bbd	0.18754478
203	0x3ea91f6c	0.33031785
204	0xbe29be62	-0.16576532
205	0x3e7edf62	0.24889901
206	0x3e370f92	0.17877033
207	0xbdf18e54	-0.11794725
208	0xbdf69b70	-0.12041366
209	0x3e87a8d9	0.26496008
210	0xbdd19a3f	-0.10234498
211	0xbe44df8d	-0.19225903
212	0x3e12b03d	0.14325042
213	0x3b6a4940	0.0035749227
214	0x3d2ec39f	0.042667028
215	0x3e40a388	0.18812382
216	0x3dceaf58	0.10092038
217	0xbcdb33ec	-0.026758157
218	0x3e0cbe1c	0.13744396
219	0x3d86495b	0.0655696
220	0xbe14be15	-0.14525636
221	0xbeb3250b	-0.349892
222	0xbded14ee	-0.11576258
223	0xbe784311	-0.24244334
224	0x3e3822f6	0.17982087
225	0xbe0dcff6	-0.13848862
226	0x3dc8a2ec	0.097967
227	0x3e7d05bd	0.2470922
228	0x3e4c5e0e	0.19957754
229	0x3e5524d7	0.20814835
230	0xbe945f6c	-0.2897905
231	0xbe15b3e2	-0.14619401
232	0xbe9d648d	-0.30740777
233	0x3e048ff8	0.12945545
234	0xbe3b1208	-0.18268597
235	0xbe6aa8c2	-0.22915938
236	0x3e9b003c	0.30273616
237	0x3e46d074	0.19415456
238	0xbe949ae2	-0.29024416
239	0x3e835e2d	0.25657788
240	0x3e36c1f5	0.17847426
241	0xbe482e71	-0.19548966
242	0xbd678b58	-0.056529373
243	0xbd6251e1	-0.055253867
244	0xbe446a60	-0.19181204
245	0xbe8eb6c5	-0.27873817
246	0xbdf22d62	-0.11825062
247	0xbe40bdfa	-0.1882247
248	0xbd7495b5	-0.059713084
249	0xbe82cb48	-0.25545716
250	0x3d354fc2	0.044265516
251	0x3eadf62d	0.3397688
252	0x3e80867c	0.25102603
253	0xbe6aed02	-0.22941974
254	0x3e334205	0.17505653
255	0xbe1ac0e8	-0.1511265

init_layer.0.bias f4 [64]
0	0xbc43d20a	-0.011951933
1	0x3c333100	0.0109369755
2	0x3ab79572	0.001400633
3	0xbc3a21b5	-0.011360575
4	0xbcadcf14	-0.021216907
5	0x3bbe0f37	0.0058001536
6	0x3bf34094	0.00742347
7	0xbbe43f67	-0.006965566
8	0xbc6b8734	-0.014375497
9	0xb9d2f7bc	-0.00040238898
10	0x3b0b21dd	0.00212299
11	0x3bfa5537	0.007639553
12	0x3b59d348	0.0033237506
13	0x3cb7d4e6	0.022440385
14	0x3cc0de07	0.02354337
15	0x3c167ac1	0.00918454
16	0xbbc26a6f	-0.005933098
17	0xba1284af	-0.00055892294
18	0xbc4c1937	-0.012457184
19	0xbcb5d0fd	-0.02219438
20	0xbb589a0d	-0.0033050806
21	0x3ca2d336	0.019876104
22	0x3baa7ec4	0.0052031
23	0x3cab8ddf	0.020941673
24	0xbcb1a197	-0.021683497
25	0xbc03d31b	-0.008045937
26	0xbbaefa00	-0.005339861
27	0x3c26adcf	0.010173275
28	0xbbab546c	-0.0052285697
29	0xbc00aecf	-0.007854178
30	0x3bd12bd2	0.0063833976
31	0xbac1ca27	-0.0014784978
32	0x3a2d0b94	0.00066011515
33	0x3ce78b00	0.028264523
34	0x3c09d059	0.00841149
35	0xbaf8bc26	-0.0018976971
36	0xbd52be80	-0.051451206
37	0xbcece47d	-0.028917545
38	0xbb789aaa	-0.0037933984
39	0x3cb4ec4f	0.022085337
40	0xbd24eb2a	-0.040263332
41	0xbc7ec990	-0.015550986
42	0xbc2e611b	-0.010643269
43	0x3c3da980	0.0115760565
44	0x39440882	0.00018695186
45	0xbcbcf953	-0.023068106
46	0xbc80ce97	-0.01572351
47	0x3b2486a7	0.0025104673
48	0x3bb7bdaf	0.005607329
49	0x3cffccfe	0.031225678
50	0xbd09d092	-0.033646174
51	0x3b028247	0.0019914077
52	0xbb9aa537	-0.004719402
53	0x3d85b454	0.065285355
54	0xbb1c88a0	-0.0023885146
55	0x3b983be4	0.0046458114
56	0x3be00ef3	0.0068377196
57	0x3c9271c9	0.017876523
58	0x3be72ad2	0.007054665
59	0xbcfbe566	-0.030749034
60	0xbcae6763	-0.021289533
61	0xbc0aea98	-0.008478783
62	0xbc96a32e	-0.018388357
63	0xbc18e5be	-0.009332119

hiden_layers.0.weight f4 [64, 64]
0	0x3e07b788	0.13253605
1	0x3d3450dc	0.044022426
2	0x3dab871b	0.08375379
3	0x3d1b5747	0.03792503
4	0xbe247f88	-0.16064274
5	0x3e3a4185	0.18189056
6	0xbe3c407d	-0.18383975
7	0xbe12f033	-0.14349441
8	0x3d9f32f2	0.07773389
9	0x3e225c68	0.15855563
10	0xbcec42c5	-0.028840432
11	0x3e51668a	0.20449272
12	0xbdbe032d	-0.092779495
13	0x3e21727a	0.15766326
14	0x3bf0c8fb	0.0073481775
15	0xbc95fc04	-0.018308647
16	0xbd44fa05	-0.04809
17	0x3db08bbe	0.08620404
18	0xbd65cad6	-0.056101643
19	0x3df1806f	0.11792075
20	0xbe62bf2b	-0.22143237
21	0xbe039475	-0.128496
22	0x3e5f7933	0.21823578
23	0xbe0a8d26	-0.13530406
24	0xbbfc91d4	-0.0077078138
25	0x3d38f8c4	0.045159116
26	0xbc9b1d48	-0.01893486
27	0xbe34be9d	-0.17650838
28	0x3dc369f0	0.0954169
29	0xbd10bdaa	-0.035337128
30	0xbe30e2b9	-0.17273988
31	0x3d81f72b	0.06345972
32	0x3dc0eb54	0.09419885
33	0x3dc2388b	0.09483441
34	0x3dfd4eb1	0.12368525
35	0xbe6871bc	-0.22699636
36	0xbe7c8426	-0.24659786
37	0xbd8104b6	-0.06299727
38	0xbe391369	-0.1807381
39	0x3e3161ff	0.17322539
40	0x3d53c7eb	0.05170433
41	0xbe219430	-0.15779185
42	0xbe854f88	-0.2603724
43	0xbd8f30f8	-0.06991762
44	0xbe4f56ec	-0.20248002
45	0xbe08cb2b	-0.13358752
46	0xbd2758e8	-0.040856272
47	0xbe001f58	-0.12511957
48	0x3d36e773	0.04465432
49	0x3c83de89	0.016097324
50	0x3e1b042e	0.15138313
51	0x3dfd5ccf	0.123712175
52	0x3e0e1289	0.13874258
53	0xbd4662e0	-0.04843414
54	0x3d8506c3	0.0649543
55	0xbe3883eb	-0.18019073
56	0x3c5ff0ec	0.01366828
57	0xbdf42169	-0.11920435
58	0xbe105347	-0.14094268
59	0x3c9dfb5e	0.0192849
60	0xbd940da8	-0.07229167
61	0x3e57ec99	0.21086349
62	0xbe4393a7	-0.19099294
63	0xbe093b75	-0.13401587
64	0xbd63d45b	-0.05562244
65	0xbd82bf9c	-0.06384203
66	0xbd8c3bfe	-0.0684738
67	0x3dbed6e3	0.0931833
68	0xbdaad153	-0.08340707
69	0x3e01802a	0.12646547
70	0x3db41679	0.08793349
71	0x3dd45a86	0.103688285
72	0x3eaa3245	0.33241478
73	0xbdf44fe2	-0.11929299
74	0x3e4c8b89	0.19975103
75	0xbd8e993c	-0.06962821
76	0x3d381966	0.044946097
77	0x3e27ff8e	0.1640608
78	0xbc1909d6	-0.009340724
79	0xbc6262d4	-0.013817508
80	0x3dc55500	0.09635353
81	0xbde4aa7f	-0.11165332
82	0xbd5236b0	-0.051321685
83	0x3e0e0cf1	0.13872124
84	0xbd49edb2	-0.04929895
85	0xbd133468	-0.03593865
86	0xbdb2e698	-0.087353885
87	0x3e0a3903	0.1349831
88	0xbc89ad7f	-0.016806362
89	0xbd84a639	-0.06477017
90	0xbe1d0ae4	-0.15336186
91	0xbddcb4c7	-0.10776668
92	0x3e1e7b6f	0.15476774
93	0xbdbdfce5	-0.092767514
94	0x3df50008	0.119628966
95	0xbcda0808	-0.026615158
96	0xbe01b6b8	-0.12667358
97	0x3d144f2d	0.03620832
98	0xbe6157fd	-0.22006221
99	0x3dfb5193	0.122714184
100	0xbe2806f0	-0.16408896
101	0xbe01adb3	-0.12663917
102	0xbd89b1e4	-0.06723383
103	0x3e62b0d1	0.22137763
104	0xbdd10ed4	-0.10207906
105	0x3b4a0761	0.0030827152
106	0x3d0d9c8b	0.03457312
107	0xbe65aedf	-0.2242999
108	0x3e74ceea	0.23907056
109	0x3d86bda8	0.06579143
110	0x3e5f4877	0.21804987
111	0x3e015ff7	0.12634264
112	0xbe313797	-0.17306362
113	0x3d8a834d	0.06763325
114	0xbe5a6cde	-0.21330592
115	0xbe20d0b5	-0.15704615
116	0xbdb46393	-0.08808055
117	0xbe730a14	-0.23734313
118	0x3e44c5a7	0.19216023
119	0x3d4f4188	0.050599605
120	0x3e2dc5b8	0.16969955
121	0xbe333687	-0.1750127
122	0x3e4eb363	0.20185618
123	0xbd44615e	-0.04794442
124	0xbdfd4ed7	-0.12368553
125	0xbe154d64	-0.14580303
126	0x3e305393	0.17219381
127	0x3cd9ff4c	0.026610993
128	0xbbdf88c0	-0.006821722
129	0xbe973a27	-0.29536554
130	0x3d374a59	0.044748638
131	0x3e09bf9d	0.13452001
132	0xbe81f921	-0.25385383
133	0xbd9e41cd	-0.07727394
134	0x3d3f3642	0.046682604
135	0x3e45b237	0.19306265
136	0x3dc3f19b	0.09567567
137	0xbe42bbb8	-0.19016922
138	0x3d544803	0.05182649
139	0xbda1a0a2	-0.078919664
140	0x3e2a5348	0.16633332
141	0x3e31b2f6	0.17353424
142	0x3d726be7	0.059184935
143	0xbe761d43	-0.240346
144	0x3d7089ec	0.058725283
145	0x3e1b62c3	0.15174393
146	0xbdb9139e	-0.09036945
147	0x3df12728	0.117750466
148	0xbda1504f	-0.07876646
149	0x3e1b1aa5	0.15146883
150	0x3d9c0223	0.07617595
151	0xbe63fb34	-0.22263795
152	0x3e2c7b25	0.16843851
153	0x3e236f91	0.15960528
154	0xbc1cfefb	-0.009582276
155	0x3d911c88	0.0708552
156	0x3e1da1f2	0.15393808
157	0xbe3de9d0	-0.18546224
158	0x3e2ea952	0.17056778
159	0x3de10a3d	0.10988281
160	0x3e42322c	0.18964452
161	0xbd8fcfed	-0.070220806
162	0xbde8f6df	-0.11375212
163	0x3e122f2a	0.14275804
164	0x3e07cdf3	0.13262157
165	0x3e6863b6	0.22694287
166	0x3d7606b3	0.060064983
167	0x3ddd3a9f	0.10802197
168	0xbcd431f2	-0.025902722
169	0x3e21f69f	0.15816735
170	0x3e4ec59b	0.20192568
171	0xbd9b8dc2	-0.075953975
172	0x3e4cf06a	0.20013586
173	0x3e8ef678	0.27922416
174	0x3d00abcb	0.031413835
175	0xbe04f3b5	-0.12983592
176	0x3daec59a	0.08533783
177	0xbe2e02d4	-0.16993266
178	0xbdad3e77	-0.0845918
179	0xbd1a64a3	-0.03769363
180	0xbd627751	-0.05528957
181	0x3da33c2b	0.079704605
182	0x3d9e4900	0.077287674
183	0xbe1d273b	-0.15346996
184	0xbe5fffa8	-0.21874869
185	0x3d40cd59	0.047070835
186	0xbe6895e6	-0.22713432
187	0x3e419f39	0.18908395
188	0x3dc18ed2	0.09451069
189	0x3b2ca815	0.0026345302
190	0xbddef3bf	-0.10886335
191	0x3e3835f6	0.17989334
192	0xbe33c65b	-0.17556135
193	0xbcfba981	-0.030720474
194	0x3d470774	0.048591092
195	0xbe2867ed	-0.16445895
196	0x3da9f028	0.08297759
197	0xbbbf9ade	-0.005847319
198	0x3d67ec30	0.05662173
199	0xbe4fc2f0	-0.20289207
200	0x3e0fba93	0.14036016
201	0x3de617be	0.11234997
202	0x3e650093	0.223635
203	0x3de742c2	0.1129203
204	0xbd81dc2e	-0.06340824
205	0x3e40ec3c	0.18840116
206	0xbd9a962b	-0.075481735
207	0x3dc6518b	0.09683522
208	0xbe493981	-0.19650842
209	0xbe2b7f92	-0.16747883
210	0x3e10e286	0.14148912
211	0x3e217642	0.15767768
212	0x3e2936c8	0.16524804
213	0xbe76841b	-0.24073832
214	0xbe19e843	-0.15030007
215	0xbe699559	-0.22810878
216	0xbe38270b	-0.17983644
217	0x3e5eb4ce	0.21748659
218	0x3d6dad84	0.058026806
219	0xbdd371ed	-0.10324464
220	0x3e55c3c4	0.2087546
221	0x3c329931	0.0109007815
222	0xbdbf4320	-0.09338975
223	0x3de8ea1c	0.11372778
224	0xbe36fefa	-0.17870703
225	0xbe6259b9	-0.22104539
226	0x3c22be26	0.00993303
227	0x3e09034c	0.13380164
228	0xbd727ce3	-0.059201133
229	0xbe272ce5	-0.1632572
230	0xbe2386d3	-0.159694
231	0x3cd38b13	0.025823152
232	0xbdfd1b1d	-0.12358687
233	0xbc9f3ffe	-0.019439694
234	0xbe01bc36	-0.12669453
235	0x3e4500bc	0.19238561
236	0xbe2874db	-0.16450827
237	0x3d7e026a	0.06201402
238	0x3d133f86	0.035949253
239	0x3dea6d85	0.114466704
240	0xbe209107	-0.15680324
241	0x3e34ba65	0.17649229
242	0xbd499fc7	-0.04922464
243	0x3dfb65ea	0.12275298
244	0xbe0a690f	-0.13516639
245	0xbd3541dc	-0.04425226
246	0xbdce3500	-0.10068703
247	0xbe3dd422	-0.18537953
248	0xbe160150	-0.14648938
249	0xbe434dd1	-0.19072653
250	0x3e1bdc43	0.15220742
251	0x3e23ed58	0.16008508
252	0xbe3feacc	-0.18741912
253	0x3d36d706	0.044638656
254	0x3bedbf67	0.007255483
255	0x3e1d1e0b	0.15343492

hiden_layers.0.bias f4 [64]
0	0xbbc2f998	-0.005950164
1	0x3bb6b160	0.005575344
2	0xbc2ea0f8	-0.010658495
3	0x3a4c1823	0.0007785579
4	0x3d38e228	0.045137554
5	0xbb8e2cb0	-0.0043388233
6	0x3d1b09b2	0.037851043
7	0x3b4edfe9	0.0031566566
8	0xbcebce5a	-0.02878492
9	0x3c8ba376	0.017045718
10	0xbcd345e8	-0.02579017
11	0xbd550885	-0.052010078
12	0xbc3e2aba	-0.0116068665
13	0xbaec6142	-0.0018034356
14	0x3bafea89	0.005368535
15	0xba21c733	-0.00061713456
16	0x3aa4dcf4	0.0012578056
17	0xbc6843e9	-0.014176347
18	0x3c8d7980	0.01726985
19	0xbc2cb29b	-0.01054063
20	0xbc1b0f2d	-0.009464067
21	0xbce802a1	-0.028321566
22	0xb80f96c5	-3.4234272e-05
23	0x3c636129	0.013878145
24	0xbaf3bc73	-0.0018595591
25	0xbc0a6cdf	-0.008448808
26	0xbcf0fefe	-0.029418465
27	0xbcf80fde	-0.030281004
28	0x39159b0e	0.0001426751
29	0xbb919207	-0.0044424566
30	0x3a9f75f3	0.0012165889
31	0x3c05aff4	0.008159626
32	0x3b4a24bf	0.0030844656
33	0xbbc6844c	-0.0060582515
34	0xbcb29d8a	-0.021803636
35	0xbbbdaa2b	-0.005788108
36	0xba127f80	-0.0005588457
37	0xbd9d61f5	-0.076846994
38	0xbc042c97	-0.008067272
39	0xb99c2f9f	-0.0002979012
40	0x3c679dcc	0.014136743
41	0xbc5e6e82	-0.013576152
42	0xbc792630	-0.0152068585
43	0xbc47268d	-0.012155187
44	0x3bcd8599	0.0062720296
45	0xbc2c7092	-0.010524886
46	0xbb32b1da	-0.0027266652
47	0x3c87cbb7	0.016576631
48	0xbc18b05e	-0.009319393
49	0x3ab80408	0.0014039287
50	0xbb101788	-0.0021986682
51	0xbc9d0dc4	-0.019171603
52	0xbc6151e2	-0.013752433
53	0x3ba61c27	0.005069274
54	0xbbe7301c	-0.0070552956
55	0x3bb33819	0.005469334
56	0x3c994642	0.01871026
57	0xbbcd1ffa	-0.0062599154
58	0x3cb3818d	0.02191236
59	0x3c7c2838	0.015390448
60	0xbc0fbd3e	-0.008773146
61	0xbc978315	-0.018495122
62	0x3c50b5cf	0.012738659
63	0xbc8550b0	-0.016273826

hiden_layers.1.weight f4 [64, 64]
0	0x3d0564f6	0.032566987
1	0xbe2ccec9	-0.16875757
2	0x3e3bcc36	0.18339619
3	0xbe2d2007	-0.16906749
4	0x3c870c9a	0.016485501
5	0xbe1ce3f1	-0.15321328
6	0xbd45a83b	-0.04825614
7	0x3e51677c	0.20449632
8	0x3e15b2eb	0.14619033
9	0x3e29a508	0.1656686
10	0xbdc651d2	-0.09683575
11	0xbdd2c1f3	-0.10290899
12	0x3d6881af	0.0567643
13	0xbe2b726d	-0.16742869
14	0xbcc88d30	-0.024481386
15	0x3e01420a	0.12622848
16	0x3e0387e8	0.12844813
17	0x3d849148	0.06473023
18	0x3e1708c0	0.14749432
19	0xbdf4139b	-0.11917802
20	0x3e04407f	0.12915228
21	0xbbd3bd29	-0.0064617586
22	0xbdcd5fab	-0.10028013
23	0x3dc53d4a	0.096308306
24	0xbe24f54c	-0.16109198
25	0xbdfcfccc	-0.12352905
26	0x3e1fc500	0.15602493
27	0x3d59d2d8	0.053179592
28	0xbde65cda	-0.11248179
29	0x3ce4622a	0.02787884
30	0xbe03f639	-0.12886895
31	0x3d105dc3	0.03524567
32	0x3ddd2f73	0.10800066
33	0x3e3a698b	0.18204324
34	0xbe70e68c	-0.23525447
35	0x3c89ae68	0.016806796
36	0xbd91093e	-0.07081841
37	0xbe40caeb	-0.18827407
38	0x3e4bcf1c	0.19903225
39	0xbdd3f1c8	-0.103488505
40	0xbe53c048	-0.20678818
41	0xbe4d17ac	-0.20028561
42	0xbde01363	-0.10941198
43	0xbd8aafed	-0.067718364
44	0xbe3cfc2a	-0.18455568
45	0xbd14cc2b	-0.036327522
46	0xbb267994	-0.0025402056
47	0x3d1876e9	0.037222777
48	0xbe78699a	-0.24259034
49	0x3d714ebc	0.058912978
50	0xbda6ef0b	-0.081510626
51	0x3e0e2960	0.13882971
52	0x3e0e318d	0.1388609
53	0xbcac1952	-0.021008167
54	0x385c2233	5.2483938e-05
55	0x3d485338	0.04890749
56	0xbe146a7e	-0.14493749
57	0x3db94e5b	0.09048148
58	0xbe2ccb2b	-0.16874377
59	0x3e2b11f6	0.1670607
60	0xbdb06b6e	-0.086142406
61	0xbe7a83fc	-0.2446441
62	0xbe027668	-0.12740481
63	0x3df1d1d8	0.11807603
64	0xbe545049	-0.20733751
65	0xbe760fa7	-0.24029408
66	0xba8b04b8	-0.0010606265
67	0xbe9f29ef	-0.3108668
68	0xbd2d52c0	-0.042315245
69	0xbe42b9ae	-0.19016144
70	0xbea453bb	-0.3209513
71	0xbeb39b73	-0.35079536
72	0x3c8eedf9	0.017447459
73	0xbe3d053c	-0.18459028
74	0x3c8b008d	0.016968036
75	0x3e2cf7b8	0.16891372
76	0xbe4479be	-0.19187066
77	0x3dbb2463	0.091377996
78	0x3e6501e1	0.22363998
79	0x3d2b1bde	0.041774623
80	0xbe26f0a6	-0.16302738
81	0xbe327c6a	-0.17430273
82	0xbdd8cd1b	-0.10585996
83	0x3e7d6bbc	0.24748129
84	0x3e28a7c1	0.16470243
85	0x3e0b2e59	0.13591899
86	0xbdd57556	-0.10422771
87	0xbd105d61	-0.035245303
88	0x3da4db67	0.0804966
89	0xbe7fd768	-0.24984515
90	0x3dcc5a50	0.09978163
91	0x3df42611	0.11921323
92	0x3d8152f7	0.063146524
93	0xbe944ecb	-0.28966364
94	0x3dfc7b33	0.12328186
95	0xbe4106f7	-0.18850313
96	0x3e56ae80	0.20965004
97	0x3e3ca28e	0.18421385
98	0x3e7e41f5	0.24829848
99	0xbd0ac0d6	-0.03387531
100	0xbe8cc0e6	-0.2749092
101	0x3e6221b3	0.22083168
102	0x3cc03f3b	0.02346765
103	0xbc3c1a64	-0.011480901
104	0xbd94a8cc	-0.07258758
105	0x3dd6a3e3	0.10480478
106	0xbe929041	-0.28625682
107	0xbcfca465	-0.030840108
108	0x3d7acb58	0.06122908
109	0x3e351c4e	0.17686579
110	0x3d8a12bd	0.06741855
111	0xbd134cf1	-0.03596205
112	0xbc5a8848	-0.013338156
113	0xbd620f70	-0.055190504
114	0x3e938a82	0.2881661
115	0x3db2c325	0.08728627
116	0x3df1c545	0.11805204
117	0xbe226552	-0.15858963
118	0x3dd0b1dc	0.10190174
119	0xbe05c6b5	-0.13064082
120	0xbe657b2a	-0.22410265
121	0xbde556c9	-0.111981936
122	0xbe51b5d0	-0.20479512
123	0xbd1cbcb6	-0.038265906
124	0xbe62296f	-0.22086118
125	0xbe743d50	-0.23851514
126	0x3c5c91a8	0.0134624615
127	0x3c76c327	0.015061176
128	0x3dc1affa	0.09457393
129	0xbdc86dff	-0.09786605
130	0xbdc9e3f2	-0.0985793
131	0xbe3368a5	-0.17520387
132	0x3e1e34ce	0.15449831
133	0x3e558fbc	0.20855612
134	0xbd30b153	-0.04313786
135	0x3da7ca1e	0.08192848
136	0xbdda07fa	-0.10646053
137	0xbd067f6e	-0.03283637
138	0x3db940f4	0.09045592
139	0x3dea058c	0.11426839
140	0x3cfa658d	0.030566001
141	0x3ba52bfd	0.005040644
142	0x3e613427	0.21992551
143	0x3d6b15f2	0.057393976
144	0xbe428c4a	-0.18998829
145	0xbe10aa00	-0.1412735
146	0xbd653f2d	-0.055968452
147	0x3e289cfe	0.16466138
148	0xbe09c548	-0.13454163
149	0x3d18b509	0.037282024
150	0xbe3bde9f	-0.18346642
151	0xbd254393	-0.040347647
152	0xbdf8f70c	-0.121564955
153	0xbdf7fd63	-0.121088766
154	0x3cc064a1	0.023485484
155	0x3e4b89e2	0.19876817
156	0x3e41cf54	0.18926746
157	0x3dc4d3a5	0.096106805
158	0x3dadfb05	0.08495144
159	0x3d81b645	0.06333593
160	0x3cfb4521	0.030672612
161	0xbda4e8cf	-0.08052217
162	0xbde1118f	-0.10989677
163	0x3bcbd528	0.0062204786
164	0x3dcf327c	0.10117051
165	0x3bf23085	0.007391038
166	0xbbf850d4	-0.007577995
167	0xbdd87055	-0.10568301
168	0x3e2431f4	0.1603468
169	0xbcb3e7ae	-0.02196106
170	0xbd8caf79	-0.06869406
171	0x3e26f52a	0.1630446
172	0xbd818521	-0.063242204
173	0x3cb2163f	0.021739123
174	0xbd635130	-0.05549735
175	0x38701314	5.7238227e-05
176	0xbd47a053	-0.04873688
177	0xbe2937da	-0.16525212
178	0xbcc20e94	-0.023688592
179	0xbe24f7b6	-0.16110119
180	0xbc680815	-0.014162083
181	0xbd959bc2	-0.07305099
182	0xbcfd4480	-0.030916452
183	0xbdccfc17	-0.1000902
184	0x3d05b0ed	0.032639433
185	0xbe47b245	-0.19501598
186	0xbe115438	-0.14192283
187	0x3d684672	0.056707807
188	0xbdcca565	-0.09992484
189	0xbe2f249e	-0.17103812
190	0x3d64ba41	0.055841688
191	0x3e2f0fd6	0.17095885
192	0x3e7fdf3a	0.24987498
193	0x3c48332b	0.012219231
194	0xbc83b8fc	-0.016079418
195	0x3e5c076f	0.2148721
196	0x3e5c2566	0.21498641
197	0xbdf7dd05	-0.12102703
198	0xbe28b688	-0.1647588
199	0x3d97c7b4	0.07411137
200	0x3d648ba1	0.055797223
201	0x3e6f581f	0.2337346
202	0x3e0e4d7f	0.1389675
203	0xbda31a98	-0.07964057
204	0x3dc275e9	0.09495146
205	0xbe420f20	-0.18951082
206	0xbc893649	-0.016749518
207	0x3d1baaa4	0.038004532
208	0xbdee48a0	-0.11634946
209	0x3bb90d7a	0.0056473585
210	0x3d01753a	0.031605937
211	0xbe287525	-0.16450937
212	0xbe63a8ac	-0.22232312
213	0xbdf63fff	-0.12023925
214	0xbe03ba00	-0.12863922
215	0xbe4aae78	-0.19793117
216	0x3e1a70af	0.15082048
217	0x3e27feda	0.16405812
218	0x3dcba8a8	0.09944278
219	0x3e0b3e0f	0.13597892
220	0x3e5f4b67	0.21806107
221	0xbe465093	-0.19366674
222	0xbe1de08a	-0.15417686
223	0x3ddfee7f	0.109341614
224	0x3d018d76	0.03162905
225	0xbe3689ce	-0.17826006
226	0xbdd9df8c	-0.10638341
227	0xbc7c08ae	-0.015382929
228	0x3a44c2f0	0.00075058546
229	0x3e23ecce	0.16008303
230	0x3d8a87a7	0.06764155
231	0x3d089d57	0.033353176
232	0x3e0fa357	0.14027153
233	0xbc3fa181	-0.01169622
234	0x3dc28719	0.09498424
235	0x3c1a9d9a	0.009436989
236	0xbe57b1e7	-0.21063958
237	0xbdfcc35f	-0.123419516
238	0xbd5b2fa9	-0.05351225
239	0x3e4c28f3	0.19937496
240	0x3e4edb19	0.20200767
241	0xbd845af8	-0.064626634
242	0xbd36a3c4	-0.044589773
243	0x3da1f1ea	0.079074696
244	0x3dfc348d	0.12314711
245	0xbc908c4d	-0.017645026
246	0xbdcffcee	-0.101556644
247	0x3db8fda6	0.090327546
248	0xbe2737e5	-0.16329916
249	0xbdb38291	-0.08765138
250	0x3d85c16e	0.065310344
251	0x3e669ab0	0.22519946
252	0x3e44a73d	0.19204421
253	0xbca5a92e	-0.020222273
254	0x3c384114	0.011245985
255	0xbd5099ef	-0.050928053

hiden_layers.1.bias f4 [64]
0	0x3cc89b6c	0.024488173
1	0xbd10f9e5	-0.035394568
2	0xb9c39dc9	-0.00037310857
3	0x3900a294	0.00012267596
4	0x3bcfa9d1	0.0063373824
5	0xbc42c444	-0.011887614
6	0xbd4338e5	-0.04766168
7	0xbb91950a	-0.0044428157
8	0xbb822a86	-0.0039723543
9	0x3cd932e4	0.026513524
10	0x3bb73659	0.0055911955
11	0xbadbe655	-0.0016777018
12	0x3de72950	0.112871766
13	0xbbfb456f	-0.0076681892
14	0xbca5e9c8	-0.020253077
15	0xbcf76cf5	-0.030203322
16	0xbd125f61	-0.03573549
17	0xbb240949	-0.0025029948
18	0x390dfedd	0.00013541752
19	0xbc0ca9d1	-0.008585409
20	0xbba9318b	-0.0051633767
21	0x3d5b4564	0.053532973
22	0x3c726f59	0.014797055
23	0xbc87609b	-0.016525557
24	0xbc327bab	-0.010893743
25	0xbced1161	-0.028938951
26	0xbc5353a0	-0.012898356
27	0xbc7446b8	-0.014909439
28	0x3c2c27fe	0.010507582
29	0xb92ed19b	-0.00016672017
30	0xbcda9dea	-0.026686627
31	0xbcc9b556	-0.0246226
32	0x3c796fca	0.0152244065
33	0x3b131b23	0.0022446595
34	0xbaf264af	-0.0018493141
35	0xbd163c4e	-0.036678605
36	0x3c864c97	0.016393943
37	0xbc142c4a	-0.009043762
38	0x3c4ae25e	0.012383072
39	0x3beb8db8	0.007188525
40	0xbc6e0150	-0.01452668
41	0xbab3ca45	-0.0013716897
42	0xbc1095c9	-0.008824774
43	0xbbc612ce	-0.006044722
44	0xbd4f4a9e	-0.05060827
45	0x3d9d8089	0.07690532
46	0xbbbee0df	-0.0058251466
47	0x3be8c3f1	0.007103436
48	0xbc0610e4	-0.008182738
49	0xbcefc75e	-0.02926987
50	0xbcb6964c	-0.022288464
51	0xbc3b5667	-0.011434174
52	0x3b15ca8f	0.002285633
53	0xbbd5cc0e	-0.0065245694
54	0x3ce5de67	0.028060151
55	0x3c99b4de	0.018763002
56	0xbce07cd6	-0.027403276
57	0xbc21dce1	-0.009879322
58	0x3c85e6f9	0.016345488
59	0xbd0b1165	-0.033952136
60	0x3cf8593f	0.030315993
61	0x3bf5bbb1	0.007499181
62	0xbda9ab3b	-0.08284613
63	0x3c5c6350	0.013451412

hiden_layers.2.weight f4 [64, 64]
0	0xbe024811	-0.12722804
1	0xbe54f66a	-0.20797125
2	0xbcc02392	-0.023454461
3	0x3e56984c	0.20956534
4	0x3e55849c	0.20851368
5	0xbcd754cd	-0.026285553
6	0x3e6a701a	0.22894326
7	0x3d760a70	0.060068548
8	0x3da2022c	0.079105705
9	0xbdd9c62f	-0.10633504
10	0x3e7dde3b	0.24791805
11	0xbe178631	-0.14797284
12	0xbde77246	-0.11301093
13	0xbd0fe7c7	-0.03513315
14	0x3e472903	0.19449238
15	0xbdc6eae3	-0.0971277
16	0xbca0ff50	-0.019652992
17	0xbdac96e7	-0.0842722
18	0x3e53d80c	0.20687884
19	0xbd76fb11	-0.06029803
20	0xbe0b2e87	-0.13591968
21	0xbe749b5b	-0.23887388
22	0xbe0e9798	-0.13925016
23	0x3d5dedb9	0.054181788
24	0xbccadc8f	-0.024763374
25	0x3da1dac3	0.079030536
26	0xbd9bcc99	-0.07607383
27	0xbdc2d0b4	-0.09512463
28	0x3eafbd9f	0.34324357
29	0xbdcc56dc	-0.099775046
30	0x3e533bb6	0.20628247
31	0xbe895d9a	-0.26829225
32	0xbe278fe6	-0.16363487
33	0x3e76786f	0.2406938
34	0xbe8cc1aa	-0.27491504
35	0x3dacf9a7	0.08446055
36	0x3da4cf5e	0.08047365
37	0x3c820637	0.015872104
38	0xbe6013ec	-0.218826
39	0x3deecb9d	0.1165993
40	0x3e045f40	0.1292696
41	0xbe4ce031	-0.20007397
42	0xbd13b076	-0.03605696
43	0x3dc8a7f7	0.09797662
44	0x3db01767	0.08598214
45	0x3d6450bd	0.05574106
46	0x3daf386a	0.08555682
47	0xbc8680e8	-0.01641889
48	0x3dc31f66	0.09527473
49	0x3e50e1c1	0.20398618
50	0xbe33f2f7	-0.17573152
51	0xbc4c9a26	-0.012487924
52	0xbe334139	-0.17505349
53	0xbb0f87ff	-0.0021901128
54	0x3da5c205	0.08093647
55	0x3e5268e9	0.20547833
56	0x3e6e0caa	0.23247018
57	0xbdfb6f3e	-0.12277077
58	0x3c95344b	0.018213412
59	0x3cc7e440	0.02440083
60	0x3d7c90d9	0.061661575
61	0x3e5b5713	0.21419935
62	0xbe76f6be	-0.24117562
63	0x3c9307c3	0.017948037
64	0x3c9a0b8f	0.01880434
65	0xbd13101e	-0.035904042
66	0x3dd93b88	0.10607058
67	0x3be862cf	0.007091857
68	0xbdf73604	-0.120708495
69	0x3a27e1a8	0.000640417
70	0xbdee587d	-0.116379716
71	0xbe164608	-0.14675152
72	0x3e36cced	0.1785161
73	0xbddb2358	-0.10700101
74	0xbe09edd2	-0.13469627
75	0x3dabbd4d	0.08385716
76	0x3b9aa11e	0.0047189137
77	0xbda3587d	-0.07975862
78	0x3e3d87b9	0.18508805
79	0xbdf09ebd	-0.11749027
80	0xbe036d12	-0.12834576
81	0x3e282d23	0.16423468
82	0xbe0dba8f	-0.13840698
83	0x3e537d22	0.20653203
84	0x3e6ebf26	0.23315105
85	0xbdef3971	-0.11680878
86	0xbdd536d4	-0.10410848
87	0xbe121d69	-0.14269032
88	0xbe21284c	-0.15738028
89	0xbdf81701	-0.12113763
90	0x3db07271	0.08615578
91	0x3e4984fe	0.19679639
92	0xbe2f9d13	-0.17149763
93	0x3e1047e7	0.14089929
94	0x3e4eaaaf	0.20182298
95	0x3bfa0722	0.007630245
96	0xbd9ebd49	-0.07750947
97	0x3c89e86d	0.016834462
98	0xbc8f39f0	-0.017483681
99	0xbdad3183	-0.08456709
100	0xbd95ba8f	-0.07310974
101	0x3e113560	0.14180517
102	0x3e574989	0.21024145
103	0xbe4667be	-0.19375512
104	0x3deb56be	0.11491154
105	0xbd89c69e	-0.06727336
106	0x3e6ced2a	0.23137346
107	0x3dc3600d	0.095398046
108	0xbd2ae6dd	-0.041724075
109	0xbd54ebb9	-0.051982615
110	0x3d99370e	0.07481204
111	0x3d8c2807	0.06843572
112	0x3de2cf10	0.1107465
113	0x3e268acb	0.16263883
114	0xbde9259c	-0.113841265
115	0x3e3842a5	0.17994173
116	0xbe8a5d56	-0.27024335
117	0x3e7c9970	0.24667907
118	0xbd965089	-0.073395796
119	0x3e5c5b91	0.21519305
120	0x3d8cfade	0.068837866
121	0x3df44f23	0.11929157
122	0xbd8befa1	-0.06832815
123	0x3d44216d	0.04788344
124	0xbd403966	-0.04692974
125	0x3e5414d9	0.20711078
126	0x3e0830db	0.13299887
127	0xbe116e25	-0.14202173
128	0xbe0d0cbb	-0.13774388
129	0xbdde834c	-0.10864887
130	0x3e29c831	0.16580273
131	0xbe5133a8	-0.20429862
132	0x3e0698f0	0.13144279
133	0x3dbb524c	0.09146556
134	0xbe5a4b3b	-0.2131776
135	0xbccaed9a	-0.0247715
136	0x3e0a9c46	0.13536176
137	0x3e0b1964	0.13583905
138	0x3e0b78a2	0.13620237
139	0xbce6e8f4	-0.028187253
140	0xbe592a3a	-0.21207514
141	0xbd3ef0f9	-0.04661653
142	0x3cd0855e	0.02545422
143	0x3dce2485	0.10065559
144	0x3d7490b4	0.059708312
145	0xbc86016e	-0.016358104
146	0x3e364ef2	0.17803553
147	0x3e29aab9	0.16569032
148	0xbb141a28	-0.0022598598
149	0xbe2bfebd	-0.16796394
150	0xbc897972	-0.016781542
151	0xbdae3ada	-0.08507319
152	0x3e1dec25	0.15422113
153	0x3e6536f7	0.22384249
154	0xbdeed09c	-0.11660883
155	0xbe7377e5	-0.23776205
156	0xbe0fc01d	-0.14038129
157	0xbdda31de	-0.10654043
158	0xbe29169d	-0.16512533
159	0x3dbf21f9	0.09332652
160	0x3e397ed0	0.18114781
161	0x3e24e12d	0.16101523
162	0x3dd4a291	0.103825696
163	0x3da93307	0.08261686
164	0xbe3ee491	-0.18641879
165	0xbe783593	-0.24239187
166	0xbe2a8cfe	-0.16655347
167	0xbe38bf83	-0.18041806
168	0xbd792b81	-0.060832504
169	0x3df18cac	0.11794409
170	0xbe7ca755	-0.24673207
171	0x3da26a06	0.079303786
172	0x3d9152a7	0.07095843
173	0x3e76f6fc	0.24117655
174	0x3bb28b0e	0.0054487055
175	0x3e0b8956	0.13626608
176	0x3e51f63f	0.20504092
177	0x3e69b991	0.22824694
178	0x3d80439e	0.06262897
179	0x3df245e3	0.11829736
180	0x3e7b1b53	0.24522142
181	0x3e4cf3ff	0.20014952
182	0x3e1df1bc	0.15424246
183	0x3dbbc1b0	0.09167802
184	0xbdccdb2a	-0.1000274
185	0xbd19db0d	-0.03756242
186	0x3e297206	0.16547403
187	0xbe8dc58e	-0.27689785
188	0xbe2893e1	-0.16462661
189	0x3da4989a	0.08036919
190	0x3e5e119c	0.21686405
191	0x3ce1161c	0.027476363
192	0x3dd4a0bf	0.103822224
193	0x3e45784f	0.19284175
194	0x3bc7e0e1	0.0060998057
195	0x3d67ab37	0.056559768
196	0x3c91641f	0.017747937
197	0x3d9b7106	0.07589917
198	0x3d5b03d3	0.053470444
199	0xbe5ab260	-0.21357107
200	0xbd9be6f3	-0.076124094
201	0xbe42ef5b	-0.1903662
202	0xbe6f4ede	-0.23369929
203	0x3dae5258	0.085117996
204	0x3d95db85	0.07317261
205	0x3dd035fe	0.10166548
206	0xbdf7d86a	-0.121018246
207	0xbdbc3008	-0.09188849
208	0x3e35d052	0.17755249
209	0x3e834c48	0.25644135
210	0x3e2b779f	0.1674485
211	0xbde73f59	-0.112913795
212	0x3bc2aa53	0.0059407144
213	0x3dafebbc	0.08589885
214	0x3e59c5dc	0.21266884
215	0xbe4c6e83	-0.19964032
216	0xbe27b9cd	-0.16379471
217	0xbd89a542	-0.067209736
218	0xbe30b3f1	-0.17256142
219	0x3e10b009	0.14129652
220	0xbe646ea9	-0.22307838
221	0x3da13863	0.07872083
222	0xbd93e391	-0.07221139
223	0x3dc2f1e8	0.09518796
224	0x3ccefa1a	0.025265742
225	0x3d14d49c	0.036335573
226	0xbe301ee7	-0.17199288
227	0x3cab871d	0.02093845
228	0xbe10f295	-0.14155038
229	0xbd409713	-0.047019076
230	0xbe2e838c	-0.17042369
231	0x3d83cc87	0.06435495
232	0xbe180fd0	-0.14849782
233	0xbd65ca67	-0.05610123
234	0x3e4ee714	0.20205337
235	0x3e725630	0.2366569
236	0xbe31ce82	-0.17363933
237	0x3e36dd33	0.17857818
238	0xbe1d72da	-0.15375844
239	0x3da403bc	0.08008525
240	0x3dcaebad	0.09908233
241	0x3e02b691	0.12764956
242	0xbc10a72a	-0.0088289175
243	0x3e18caa1	0.14921047
244	0xbdb5430e	-0.0885068
245	0xbe389993	-0.18027334
246	0x3c7c746e	0.015408618
247	0xbe3ac27e	-0.18238255
248	0x3cebaf37	0.028770072
249	0xbc218b0b	-0.009859811
250	0x3d8d7ab1	0.06908167
251	0x3e1f37e7	0.15548669
252	0xbe47d734	-0.19515687
253	0xbe01dc15	-0.12681611
254	0x3de01a25	0.10942487
255	0xbd7c2328	-0.061556965

hiden_layers.2.bias f4 [64]
0	0xbd3bf7e9	-0.045890722
1	0x3bccd5eb	0.006251087
2	0xbd02f276	-0.03196951
3	0xb959497d	-0.00020722109
4	0xbc0ee60e	-0.0087218415
5	0x3c33f316	0.010983249
6	0x3b8c6ab1	0.0042851795
7	0xbca0d185	-0.019631157
8	0x3d316dcd	0.043317605
9	0x3b6cc575	0.0036128436
10	0x3c40610c	0.011741888
11	0xbbadc681	-0.0053032045
12	0xbd3296c5	-0.043600816
13	0xbc3232e5	-0.010876392
14	0xbc9609f3	-0.018315291
15	0xbc630526	-0.013856208
16	0x3af0db6d	0.0018375941
17	0x3cbade27	0.022811009
18	0xbd9eeb8c	-0.07759771
19	0x3dfe301b	0.12411519
20	0xbc269992	-0.01016845
21	0xbd8183c0	-0.063239574
22	0x3c386210	0.011253849
23	0x3d23c449	0.039982114
24	0xbba138c7	-0.0049200985
25	0x3cb34ccd	0.021887207
26	0xbc86c7bb	-0.01645266
27	0x3d20050c	0.039067313
28	0xbd09895a	-0.033578254
29	0xbc88194f	-0.01661363
30	0x3c686242	0.014183583
31	0x3ba1c889	0.0049372357
32	0x3bcd4018	0.006263744
33	0x3d612a16	0.054971777
34	0xbc863718	-0.016383693
35	0x3c23f436	0.010006955
36	0xbe98d943	-0.29853258
37	0xbbb04a53	-0.005379954
38	0xbbe4dcce	-0.00698433
39	0x3c5102dd	0.01275703
40	0xbab65f04	-0.0013913815
41	0xbd7e9808	-0.062156707
42	0x3cb96e98	0.022635743
43	0xbcf19c8f	-0.029493598
44	0xbb9f083c	-0.0048532765
45	0x3c560231	0.013062046
46	0x3b3f1882	0.0029158895
47	0x3c294b2c	0.010332864
48	0x3d70eb6a	0.05881826
49	0x3c8fd40c	0.017557167
50	0xbc0b7381	-0.008511425
51	0x3bc8ab30	0.0061239228
52	0xbb686e8d	-0.0035466284
53	0x3d1b4266	0.03790512
54	0x3d80a02b	0.062805496
55	0x3c6ea4ad	0.014565629
56	0x3c85da63	0.016339486
57	0xbd508000	-0.05090332
58	0x3c68d95e	0.014211981
59	0xbb302285	-0.0026876044
60	0xbbc53df1	-0.006019347
61	0xbd37a44a	-0.044834413
62	0x3b7f01d4	0.0038911002
63	0x3d0e161a	0.034689046

hiden_layers.3.weight f4 [64, 64]
0	0x3ec79880	0.38983536
1	0x3d78486b	0.06061594
2	0x3dcb23b4	0.09918919
3	0xbdff9978	-0.12480444
4	0xbd079c42	-0.033108003
5	0x3ba55b7b	0.0050463057
6	0xbd6971ca	-0.056993283
7	0xbd693762	-0.056937583
8	0xbe4eccd5	-0.20195325
9	0x3df034e5	0.11728839
10	0x3dafba7e	0.085804924
11	0x3dfbe86d	0.12300191
12	0x3e5a4037	0.21313559
13	0x3de44e5f	0.111477606
14	0x3dbd27a3	0.09236076
15	0xbe16111d	-0.14654966
16	0xbe7c4e4d	-0.24639244
17	0xbe43155c	-0.19051117
18	0x3d0cbcf0	0.034359872
19	0xbe464e5f	-0.19365834
20	0xbcb82cc3	-0.022482282
21	0x3da27645	0.079327144
22	0x3d717fc3	0.058959734
23	0xbd38fed5	-0.0451649
24	0x3e64595d	0.22299714
25	0x3de9ca13	0.11415496
26	0x3eca090f	0.39460036
27	0xbe78dc7c	-0.24302858
28	0xbd992a27	-0.07478743
29	0xbd974fa4	-0.07388237
30	0xbe3c7612	-0.18404415
31	0xbc798481	-0.015229345
32	0x3e0bb365	0.13642652
33	0xbe039707	-0.12850581
34	0xbdf22273	-0.11822977
35	0xbe41c967	-0.18924485
36	0x3e338dc2	0.17534545
37	0x3d3e3d8a	0.046445407
38	0xbe37a94b	-0.17935674
39	0x3dcd9056	0.100372955
40	0xbe5485fe	-0.20754239
41	0x3bf5ecb2	0.007505023
42	0x3dde58b2	0.10856761
43	0x3df1aab9	0.11800141
44	0xbdc9bc75	-0.098503985
45	0x3e9cbb00	0.3061142
46	0xbd9e8b88	-0.07741457
47	0x3e59877a	0.21243086
48	0xbe9e7742	-0.30950361
49	0x3cce75d6	0.025202673
50	0x3d553ea7	0.052061703
51	0xbe3c9f13	-0.18420057
52	0xbe242ac9	-0.16031946
53	0xbe576726	-0.21035442
54	0xbe5d64c2	-0.21620467
55	0x3e1f7fb5	0.1557606
56	0xbe243d38	-0.16038978
57	0x3ea714a8	0.32632947
58	0x3d65b36f	0.056079324
59	0xbdabdb44	-0.08391431
60	0x3e66ba1d	0.22531934
61	0x3e17af8d	0.14813061
62	0xbe2f8cf9	-0.1714362
63	0x3d27bafa	0.0409498
64	0x3dae1a9f	0.08501171
65	0x3beaf7b9	0.007170644
66	0x3d4216b4	0.047384933
67	0xbd13b42d	-0.0360605
68	0xbdf5da86	-0.12004571
69	0x3e4e5160	0.2014823
70	0xbe45a9db	-0.19303076
71	0xbd86cb0e	-0.06581698
72	0xbe4dfc65	-0.20115812
73	0xbe3575b9	-0.17720689
74	0xbd200f6e	-0.039077215
75	0x3d30b973	0.04314561
76	0x3dc5c29a	0.09656258
77	0x3e042fce	0.12908861
78	0x3d55d8aa	0.05220858
79	0x3e51219e	0.2042298
80	0xbccdf264	-0.025139995
81	0xbdba72a3	-0.091038965
82	0xbe24ee4f	-0.16106533
83	0xbe1f8594	-0.155783
84	0x3e2d2f41	0.16912557
85	0xbe8ccd53	-0.275004
86	0x3c8d9714	0.017283954
87	0xbe3a3b14	-0.18186599
88	0x3dec619a	0.115420535
89	0xbe005758	-0.12533319
90	0xbd543175	-0.05180498
91	0xbdec3fd5	-0.115356125
92	0x3c703185	0.014660244
93	0x3e15b6ed	0.14620562
94	0xbbc19698	-0.0059078448
95	0x3e35481b	0.17703287
96	0x3e04475a	0.12917843
97	0x3e396701	0.18105699
98	0x3b941097	0.004518579
99	0x3e2ea9c0	0.17056942
100	0xbd9cda74	-0.07658854
101	0x3e4a7e30	0.19774699
102	0x3d9ddb39	0.07707829
103	0x3d26d0e4	0.040726557
104	0xbda69dcb	-0.08135565
105	0xbe6d9f30	-0.23205256
106	0xbde8556b	-0.11344417
107	0x3e04d585	0.12972076
108	0xbb0b7776	-0.002128092
109	0xbdf19ed2	-0.11797871
110	0x3d70fa7a	0.058832623
111	0x3dcbc8ae	0.09950386
112	0x3e322000	0.1739502
113	0x3cd992aa	0.026559193
114	0x3e83cdc0	0.25742912
115	0xbe67ad64	-0.22624737
116	0x3c80fd04	0.015745647
117	0x3d832383	0.06403258
118	0xbe7010a4	-0.23443848
119	0xbd898f0a	-0.06716736
120	0xbe403f80	-0.18774223
121	0x3e0c3ddc	0.13695472
122	0xbe111907	-0.14169703
123	0xbe357872	-0.17721727
124	0xbc94356a	-0.018091876
125	0x3e7c74b2	0.2465389
126	0xbce14972	-0.027500842
127	0xbe1f90e5	-0.15582617
128	0xbd158923	-0.036507737
129	0xbd768d10	-0.06019312
130	0x3e0f05df	0.13967083
131	0x3e5046b7	0.20339476
132	0xbe2edfee	-0.1707761
133	0xbbfb6eeb	-0.0076731346
134	0xbdf477a3	-0.119368814
135	0x3e5a7613	0.21334104
136	0x3e2d587a	0.16928282
137	0xbd1f206b	-0.038849276
138	0xbe514a75	-0.2043856
139	0xbdbaeaaa	-0.0912679
140	0xbe217fee	-0.15771458
141	0x3d8d412e	0.06897198
142	0x3e1471bd	0.14496513
143	0x3cdf3a10	0.027249366
144	0x3e244e36	0.1604546
145	0xbe252206	-0.1612626
146	0xbe084939	-0.13309182
147	0x3d6e91b2	0.058244415
148	0xbbc97675	-0.0061481544
149	0x3d6b1c57	0.057400074
150	0x3e76b3bf	0.24092005
151	0xbe7f3d09	-0.24925627
152	0xbdd17477	-0.10227292
153	0x3e46cbe1	0.19413711
154	0x3d9474ca	0.07248838
155	0x3d6b3759	0.05742583
156	0xbd429a22	-0.047510274
157	0x3de37b85	0.11107544
158	0xbe41432e	-0.18873283
159	0xbcbbe5aa	-0.02293666
160	0x3e232324	0.15931374
161	0xbe1b58a3	-0.15170531
162	0x3cd3b003	0.025840765
163	0xbe11aeda	-0.14226857
164	0x3ce9fa8e	0.028561857
165	0xbd9d39a4	-0.0767701
166	0xbd9e7fba	-0.07739206
167	0xbe965a91	-0.29365972
168	0x3db59dd6	0.088679954
169	0xbc4f4a53	-0.012651998
170	0xbdef8cd9	-0.116967864
171	0x3e3ed049	0.18634142
172	0xbe06a34b	-0.13148229
173	0x3de65f84	0.11248687
174	0xbdde232e	-0.10846554
175	0xbe41d6c5	-0.18929584
176	0xbd3ce11c	-0.04611312
177	0xbd8ded93	-0.06930079
178	0x3de9407b	0.11389252
179	0xbe1e29e3	-0.15445666
180	0xbe477bf7	-0.19480883
181	0xbe67e2e0	-0.2264514
182	0x3e60e775	0.21963294
183	0x3c270335	0.010193636
184	0xbe0bb647	-0.13643752
185	0xbde2fe45	-0.11083654
186	0x3dec8d14	0.11550346
187	0x3e86e2de	0.2634496
188	0x3c925f3e	0.01786768
189	0x3d9ce349	0.07660539
190	0xbe1e2a9e	-0.15445945
191	0xbd77b245	-0.060472745
192	0x3dfc0e12	0.12307371
193	0x3de9b8f9	0.11412234
194	0x3d94b310	0.07260716
195	0xbe80c139	-0.25147417
196	0xbd71c0fa	-0.059021927
197	0x3e277a07	0.16355143
198	0x3dd25c68	0.10271531
199	0x3b831216	0.0039999587
200	0xbd88f0a9	-0.06686527
201	0xbe0fb4d6	-0.14033827
202	0xbd92296d	-0.071368076
203	0xbd843c7d	-0.0645685
204	0xbdeadc08	-0.11467749
205	0xbe1ffa7b	-0.15622894
206	0xbb2261f4	-0.0024777623
207	0xbe0d9652	-0.13826874
208	0x3d2af5ac	0.041738197
209	0xbda36ba9	-0.07979519
210	0xbd803e57	-0.062618904
211	0x3db3b09e	0.087739214
212	0x3d3092ec	0.043108866
213	0xbd3ffe46	-0.046873353
214	0xbc3dc4f1	-0.011582599
215	0x3d74232f	0.059603866
216	0x3e3a96a3	0.18221526
217	0x3d25430b	0.04034714
218	0xbdda23c7	-0.10651355
219	0xbe7b030f	-0.24512886
220	0x3d8f5e96	0.07000463
221	0x3e7d62f7	0.24744783
222	0x3e2f8f00	0.17144394
223	0x3e401b62	0.18760446
224	0x3d540c72	0.05176968
225	0x3e1108dd	0.14163537
226	0xbd290339	-0.04126284
227	0xbe68b2ac	-0.22724408
228	0x3e0ac7fc	0.1355285
229	0xbdf71321	-0.120641954
230	0xba3a3050	-0.0007102536
231	0xbe5c444b	-0.21510427
232	0x3e0392ac	0.1284892
233	0x3d32985e	0.04360234
234	0x3e3d36e3	0.18477969
235	0x3e1ede17	0.15514408
236	0xbe11c9ad	-0.1423709
237	0x3cb90c3b	0.02258884
238	0xbb743d31	-0.0037267918
239	0xbc422a27	-0.01185087
240	0x3c8cf636	0.017207246
241	0xbe78dd1a	-0.24303094
242	0xbddcbacf	-0.107778184
243	0xbe05e5bd	-0.1307592
244	0xbb1f17e2	-0.002427571
245	0x3ce72fe5	0.02822108
246	0xbe6a1444	-0.22859293
247	0xbd8906b5	-0.066907324
248	0xbe839b60	-0.2570448
249	0x3e4dad8e	0.20085737
250	0x3d81a787	0.063307814
251	0x3e0d9d24	0.13829476
252	0xbda33bc3	-0.07970383
253	0xbe02a02c	-0.12756413
254	0xbe7ddfb2	-0.24792364
255	0x3d080a87	0.033213165

hiden_layers.3.bias f4 [64]
0	0xbd19e942	-0.037575968
1	0x3bbf8070	0.0058441684
2	0xbd7b835c	-0.06140457
3	0x3c5e59ad	0.013571185
4	0x3c8082f8	0.01568745
5	0xbc95842c	-0.018251501
6	0x3cbd27a0	0.023090184
7	0xbdb57860	-0.0886085
8	0xbbfefe02	-0.007781745
9	0xbb58337f	-0.0032989678
10	0x3c951a94	0.01820115
11	0x3d434416	0.047672354
12	0x3ba2676a	0.0049561756
13	0xbc3662f4	-0.011131991
14	0xbca8b452	-0.020593796
15	0x3c217f00	0.009856939
16	0x3c3ef08d	0.011654031
17	0xbd95850f	-0.073007695
18	0x3c93c01f	0.018035946
19	0xbb26cca8	-0.0025451574
20	0x3bf0705f	0.0073376144
21	0x3c2b9923	0.010473522
22	0xbd59a89b	-0.05313931
23	0x3d66ecda	0.056378223
24	0x3cb0f82b	0.02160271
25	0xbc27d129	-0.010242739
26	0xbd8cc55c	-0.06873581
27	0xba5c08f1	-0.00083936664
28	0x3c346089	0.011009344
29	0xbb14e841	-0.0022721442
30	0xbcd3c854	-0.02585236
31	0x3c4708ea	0.012148121
32	0x3c99b1ca	0.018761534
33	0xbde3df85	-0.11126617
34	0xbc1b386a	-0.009473899
35	0xbd2c9631	-0.04213542
36	0xbb1e1b4f	-0.0024125164
37	0xbd1575c9	-0.03648928
38	0xbc23c6cb	-0.009996126
39	0xbca34b6d	-0.019933427
40	0xbbb24bf1	-0.005441182
41	0x3d9d11cf	0.07669412
42	0xbcb46c65	-0.022024343
43	0x3adc067e	0.0016786603
44	0xbd82f25e	-0.06393884
45	0xbb4a990a	-0.0030913972
46	0xbd26340c	-0.04057698
47	0xbd0357f1	-0.03206629
48	0x3ca9b506	0.020716202
49	0xbc2e0491	-0.010621206
50	0x3ba46d4f	0.0050179134
51	0xbafee5e2	-0.0019447173
52	0xbce038a4	-0.027370758
53	0x3c1eae09	0.009685048
54	0xbd4eccce	-0.050488286
55	0x3c7aea63	0.015314671
56	0x3c110039	0.008850151
57	0x3c00e971	0.007868157
58	0xbc8e0921	-0.017338337
59	0x3cfed762	0.031108562
60	0x3cb850d5	0.022499481
61	0xbd1b990f	-0.037987765
62	0xbd950b74	-0.07277575
63	0xbd0b2cc1	-0.033978228

hiden_layers.4.weight f4 [64, 64]
0	0xbc8f13c9	-0.017465489
1	0xbe4c6118	-0.19958913
2	0x3df43abf	0.119252674
3	0xbe33d2b6	-0.17560849
4	0x3e2a3468	0.16621554
5	0x3e58159d	0.21101995
6	0xbe046907	-0.1293069
7	0xbde9c20f	-0.11413967
8	0xbe89b9d7	-0.26899597
9	0x3cda6c5d	0.026663
10	0xbd97b872	-0.07408227
11	0x3e407568	0.18794787
12	0xbd5f82f0	-0.05456823
13	0xbe969100	-0.294075
14	0x3ceba490	0.028764993
15	0xbe31460d	-0.17311879
16	0x3d3e43b4	0.046451285
17	0xbe121351	-0.14265181
18	0x3d806eb7	0.06271117
19	0x3e34bd21	0.17650272
20	0x3d01f859	0.031730983
21	0x3bdc8007	0.0067291292
22	0xbdeba2fc	-0.11505696
23	0xbdba9955	-0.09111277
24	0xbd843b48	-0.064566195
25	0xbe075354	-0.13215381
26	0x3c3db7e2	0.011579486
27	0xbe1decfb	-0.15422432
28	0xbea71d1c	-0.32639396
29	0x3dee24cc	0.11628112
30	0x3e5ec30d	0.21754093
31	0x3dd845fb	0.10560223
32	0x3e57126f	0.21003126
33	0x3d318edf	0.043349143
34	0xbeb1d89c	-0.34735572
35	0xbe5bf007	-0.21478282
36	0x3dc3c4f0	0.09559047
37	0x3c18e36a	0.0093315635
38	0x3dcd5651	0.10026229
39	0x3e330fb5	0.1748646
40	0xbd0d59e3	-0.03450955
41	0x3e419b01	0.18906786
42	0x3e4ac207	0.19800578
43	0xbda822dc	-0.08209774
44	0x3e4c0dc2	0.19927123
45	0x3d0513d7	0.032489624
46	0xbe2488fd	-0.16067882
47	0x3e1c97b2	0.15292242
48	0xbddf9ac7	-0.10918193
49	0x3d97b6ae	0.0740789
50	0x3d8cbcca	0.06871946
51	0x3e967bfc	0.29391468
52	0x3d797f5b	0.06091247
53	0x3e4a0488	0.19728291
54	0xbe5dcb6d	-0.21659632
55	0x3ea4a31e	0.321557
56	0xbe92081d	-0.28521815
57	0xbd95899f	-0.0730164
58	0x3d0df55e	0.03465783
59	0x3d63ce0d	0.055616427
60	0xbd9475eb	-0.072490536
61	0x3ca2b065	0.019859502
62	0xbdceda4d	-0.10100231
63	0xbd52bde9	-0.051450644
64	0x3c71770d	0.014737857
65	0xbe010d29	-0.12602676
66	0xbe27e0df	-0.16394375
67	0x3dc03d42	0.09386684
68	0x3c08ac17	0.008341811
69	0xbb6c4c31	-0.0036056156
70	0x3e000f3a	0.12505808
71	0x3dec4ea5	0.11538438
72	0x3dc24aa2	0.09486891
73	0x3e06edb0	0.13176608
74	0x3d2a5401	0.04158402
75	0xbde6c497	-0.11267965
76	0xbd990522	-0.07471682
77	0x3e667525	0.22505625
78	0x3dc59971	0.09648407
79	0xbde0c65a	-0.109753326
80	0x3df24fe2	0.11831643
81	0xbe63ae84	-0.22234541
82	0xbd829311	-0.06375707
83	0x3e2774f9	0.16353215
84	0x3ce90409	0.028444307
85	0x3e649af1	0.2232473
86	0xbe7e1a88	-0.24814808
87	0xbe0bb1d7	-0.1364206
88	0x3dd1e25a	0.10248251
89	0x3cd8bb9a	0.026456643
90	0x3d0a2fc6	0.033736967
91	0xbe9795c9	-0.29606465
92	0x3d8ba11a	0.06817837
93	0x3e36fa70	0.17868972
94	0x3d10523d	0.03523468
95	0xbe0e985d	-0.1392531
96	0x3d913c9d	0.07091639
97	0x3e0886bb	0.13332646
98	0x3d8562dc	0.065129966
99	0x3db200a3	0.08691528
100	0xbc39da40	-0.011343539
101	0x3d8bbf45	0.06823591
102	0xbe4ec5dd	-0.20192666
103	0xbde12397	-0.10993116
104	0xbe290c9b	-0.16508715
105	0xbe5574cd	-0.20845337
106	0x3de1d2ec	0.11026558
107	0xbd9a0ac3	-0.07521584
108	0xbe989991	-0.29804662
109	0x3e237b7b	0.15965073
110	0xbe6187b4	-0.22024423
111	0x3e0b3b82	0.13596919
112	0x3e08ba69	0.1335236
113	0x3e62ce46	0.22149
114	0x3d485b63	0.04891528
115	0x3e38c5d1	0.18044211
116	0xbdcd5ef0	-0.100278735
117	0x3c4f8bf8	0.0126676485
118	0xbd803f79	-0.062621064
119	0xbe259705	-0.1617089
120	0x3e7b14da	0.24519673
121	0x3e01524e	0.12629053
122	0xbda8ab52	-0.08235802
123	0x3d1d0fb7	0.038345065
124	0xbe3efd43	-0.18651299
125	0xbe77419c	-0.24146122
126	0xbc8c7d16	-0.01714949
127	0xbe019d4e	-0.12657663
128	0xbdc9ca91	-0.098530896
129	0x3e68ad8b	0.22722451
130	0x3c622250	0.013802126
131	0x3e6c050f	0.23048805
132	0xbd9125b7	-0.07087272
133	0xbd4e97cc	-0.050437734
134	0xbdab4b0c	-0.083639234
135	0xbd98b9cc	-0.07457313
136	0x3dfb863f	0.12281465
137	0x3e8236a3	0.2543231
138	0xbce46e8c	-0.027884744
139	0xbd5484fc	-0.051884636
140	0xbe57f398	-0.21089017
141	0x3db55004	0.088531524
142	0x3e52a325	0.20570047
143	0x3c80178b	0.015636226
144	0xbd2e34c1	-0.04253078
145	0xbda1c049	-0.078980036
146	0x3defc1a6	0.117068574
147	0xbe73c944	-0.23807245
148	0x3e60880f	0.21926902
149	0xbdac7c6a	-0.084221676
150	0xbe0ce6ab	-0.13759868
151	0x3d0df2d2	0.0346554
152	0x3ad47c7b	0.0016211414
153	0xbd820e27	-0.063503556
154	0x3dfea724	0.12434223
155	0x3e51b925	0.20480783
156	0x3dfb77a9	0.12278683
157	0xbe41b74e	-0.18917581
158	0xbdfa4ee1	-0.12222076
159	0xbe113b2c	-0.14182729
160	0xbe0c6ff7	-0.13714586
161	0xbe0acabe	-0.13553903
162	0xbd657244	-0.056017175
163	0xbccfcfa7	-0.025367571
164	0x3dc7c647	0.09754615
165	0xbe18e3da	-0.14930668
166	0xbe2aa9fd	-0.16666408
167	0x3e2e6b15	0.17033036
168	0xbd16f45e	-0.03685414
169	0x3e27f475	0.16401847
170	0x3d274fe9	0.040847693
171	0x3e8922b6	0.26784295
172	0xbd610e71	-0.054945413
173	0xbe5e1fce	-0.2169182
174	0xbcccfe5b	-0.02502363
175	0xbd985aab	-0.074391685
176	0x3e889829	0.2667859
177	0x3d22f124	0.03978075
178	0xbe162781	-0.14663507
179	0xbe5be75a	-0.21474972
180	0xbd4119bd	-0.047143687
181	0x3e5c39b6	0.2150639
182	0x3da98006	0.08276372
183	0xbddd5976	-0.10808079
184	0x3e9cb4fd	0.30606833
185	0x3e2013df	0.1563258
186	0xbd051cf2	-0.032498308
187	0x3da7bba3	0.08190086
188	0xbd0beb6e	-0.03416007
189	0x3d7bd5bd	0.061483134
190	0xbe5d1b93	-0.2159255
191	0x3ce9de3e	0.028548356
192	0xbdee50fc	-0.1163654
193	0xbc3d57fa	-0.01155662
194	0xbe281d58	-0.16417444
195	0xbdbeb509	-0.093118735
196	0x3dd6a383	0.10480406
197	0xbdca7a6f	-0.098866336
198	0xbd400be6	-0.046886347
199	0xbd2017e1	-0.039085273
200	0x3dee8fbf	0.11648511
201	0xbde94863	-0.1139076
202	0x3d53b132	0.05168266
203	0xbdc879c5	-0.09788851
204	0x3e2d1350	0.16901898
205	0x3c0cc7d0	0.008592561
206	0xbe17df80	-0.14831352
207	0xbc485d1c	-0.01222923
208	0x3e131b5c	0.14365906
209	0xbd68e401	-0.056858066
210	0xbe24abf5	-0.16081221
211	0xbc82f9d3	-0.015988266
212	0x3d66413d	0.05621456
213	0xbe3face1	-0.18718292
214	0xbbb8b97d	-0.0056373463
215	0x3daecfc5	0.08535723
216	0xbdb866f0	-0.09004009
217	0xbe4fa19d	-0.20276494
218	0xbe1047b3	-0.14089851
219	0x3d3e1b10	0.046412528
220	0xbd893bea	-0.06700881
221	0xbdafa206	-0.085758254
222	0x3d31e97a	0.04343555
223	0x3d3f02c2	0.04663349
224	0xbe1a0e58	-0.15044534
225	0xbcfbd6a8	-0.030742005
226	0xbea2802f	-0.3173842
227	0x3d804021	0.062622316
228	0x3d917ad8	0.07103509
229	0xbe681cc3	-0.22667222
230	0xbc973697	-0.018458648
231	0xbe6c7736	-0.2309235
232	0xbd281309	-0.04103378
233	0xbc8771a6	-0.016533684
234	0x3d259b9d	0.040431608
235	0x3da5d6f8	0.08097643
236	0x3ea24208	0.31691003
237	0xbde98315	-0.11401955
238	0x3dcbb074	0.09945765
239	0xbdee25ed	-0.116283275
240	0x3d52598b	0.051354926
241	0xbe440d7e	-0.19145772
242	0x3d85923f	0.06522035
243	0x3e89ca80	0.26912308
244	0x3df69f40	0.12042093
245	0x3d802e94	0.06258884
246	0x3cf95ce1	0.030439796
247	0x3e3ecd8e	0.186331
248	0x3e14ea82	0.14542583
249	0x3e1ecf3c	0.15508741
250	0xbd8c0843	-0.06837513
251	0xbd477b42	-0.048701532
252	0xbc72defd	-0.014823672
253	0x3e678cca	0.226123
254	0x3dea9fb0	0.11456239
255	0xbc62272f	-0.013803287
