results/4_like_3_without_pde/epoch1020/model_weights.pth (torch, 749398 bytes, 128 tensors)

init_layer.0.weight f4 [64, 5]
00000000: ec49 90be 9ec8 a83e aea5 9e3c 7001 32be
00000010: f746 323e 33bf babe 8e51 97be 9fbf 8ebe
00000020: da10 65be 4972 89be dabd c23e fb40 663e
00000030: d68b 4dbc 790e a33d be84 1dbe 0659 65be
00000040: a109 bb3e 9b90 493e e467 87be e295 6c3e
00000050: f693 d2be 0913 7bbe 50eb c4bd 5ea4 cdbd
00000060: a603 f63c 21fe 0d3f 30b7 95be 13a3 e53d
00000070: 3c63 813e af48 bfbc d5bc 883e fad8 a7be
00000080: 2320 db3c 39c8 5bbd 95f6 0b3e bacd e53e
00000090: 78be 093e c67c 4e3d 5694 2f3e 8ecd 0cbe
000000a0: 39f4 81be 61a0 debe ce21 f03b fcf7 83be
000000b0: e7a2 413e 2088 c13d 6f8f 5e3d c1fa 2cbe
000000c0: ef55 1c3c a3cc 0d3e b8c8 0e3f 4304 903e
000000d0: e5ab 053c 641a 013e 9dc5 3b3d 4409 4fbe
000000e0: 9d4d 4d3d 81b2 ae3d 4004 853d e658 493d
000000f0: b3c4 ffbe 40b3 63be f02a 01be ac20 e7bd
00000100: f14e 4dbd f260 eabc 6b50 ccbe e3d1 43be
00000110: 8388 983d 3dd5 b0bd 827b f1be 090f bcbe
00000120: 34c6 573e 53c0 87be 6b6f 25be 086a ae3e
00000130: e66b 94be 72d1 fc3d d769 923e 7df8 143d
00000140: 9f3f 243d 0eb2 a2be ed65 183e a3a8 563e
00000150: 2a33 febd 48f0 e8bc 0546 f13c b939 013c
00000160: 3b8f 793e fb10 79be c440 a6bd 0e3b 263e
00000170: a659 c9bc dfb6 6bbe e839 7d3e 6a94 35be
00000180: b2fe b0be 11a6 903d 2983 903d 2247 623d
00000190: 1d36 963e f8f1 1fbe 5421 43be 7794 033e
000001a0: 1419 4f3e 2145 0dbe 00ac 0b3d dfea f13a
000001b0: b6e5 2bbc 5acc 2e3c 83a0 73be 6f2e 833e
000001c0: 29e2 843c b469 37be a4bb a33d 6a0d 98be
000001d0: e38f 9fbe 4df6 9b3d 99ce 6abe 7315 153e
000001e0: 5a1b 92be b617 dd3e 3168 22be 62db bfbd
000001f0: 7839 67be 85e6 f6be aaea 8dbe 3cfd 4d3e
00000200: b1b5 c43d a913 52be 178f ccbe 3bea cebd
00000210: b3cd 81bd 76bb 563e 0391 a7bd 1745 983d
00000220: 886c 0d3f dadc b4bd faae 8c3e 5bc0 533e
00000230: 46f5 c3be 207b 363e 0f36 5c3d f9f1 25be
00000240: 1559 79bd 28d9 13bf 8fa0 ce3e a55f 063c
00000250: d95e 80be 1a13 993c 1d56 58bd eae1 a9be
00000260: f997 c03d 66d2 a1bc d509 41be 7353 063f
00000270: 050e 033e 2e10 243e 1634 a13d cfcc 223e
00000280: 0c34 10bf d3d5 763e 4efa 12be e6f4 2ebe
00000290: b25d 753d 25be 913e 03e9 bebe 38f8 6cbe
000002a0: 6adb 803e bb4b f0bd 61d3 9e3d 30c6 853e
000002b0: e7d0 4f3e ab91 6e3e 2060 0bbe 4ac5 c9be
000002c0: 268e d6be a652 1c3e 81ef 7dbe fbff f8bd
000002d0: 8833 86be dcc5 f0be 33e4 b73c 790c f0bc
000002e0: 4e17 51bd 98bb 923e d65a 52be 0cdd 12be
000002f0: 7337 1dbe d65b 80bd 04e3 793e b75a a1be
00000300: e5b4 983a 9c54 3b3e 2b9f 47be c584 cd3e
00000310: d703 75be c73a b43d a519 58bd 42a8 a4bd
00000320: d265 e4be cedc acbd 32f5 bfbd 3e61 983c
00000330: 8c2a abbc cc19 cbbe 54d0 f7be 502b 1cbe
00000340: dac5 403e 12ce cc3c 362e ad3e 02ad 89be
00000350: cc81 40bd 6bbd 013e 120c d13c 8628 273f
00000360: d1f9 02be d18a 1dbe 0cf0 463e 5a7f 483e
00000370: d09d 22bf 8396 86be 1430 f5bd 3789 f7bd
00000380: 75de 953d d941 a8be c983 513e 986a 3d3e
00000390: 7939 2bbe 564a 9d3c f5bd 17bf 778f bb3e
000003a0: fb75 ca3d 2698 cabd f94a 53bd 508d 21be
000003b0: eca4 f83d 9614 373e 5e6c 153c f959 42be
000003c0: 791e 113f 4845 f83d 29e9 b9bd a703 1f3e
000003d0: 4ccb 65bd 8bc3 263e a2ca dbbe ca9f bebc
000003e0: da58 8c3b f07a 5bbe b780 18bf 7597 84be
000003f0: 2bf4 953c 39cb ddbd c172 17be d21b 6b3e
-0.28181398 0.3296556 0.019366112 -0.17383361 0.17409883 -0.36473998 -0.2955441 -0.2788057
-0.2236971 -0.26845005 0.3803547 0.22485726 -0.0125455465 0.07961745 -0.15382668 -0.22397241
0.36530784 0.19684069 -0.2644645 0.23104051 -0.4112851 -0.2451898 -0.09615195 -0.10041116
0.030031037 0.55465895 -0.29241323 0.112127446 0.25271022 -0.023350088 0.26706567 -0.32782727
0.026748722 -0.053657744 0.13668282 0.4488352 0.13451564 0.050411962 0.1714643 -0.13750288
-0.2538164 -0.43481734 0.0073282486 -0.25775135 0.18909799 0.09449792 0.054336008 -0.1689253
0.009541973 0.13847594 0.5577502 0.2812825 0.008158659 0.12607723 0.045842756 -0.20218378
0.050122846 0.08530141 0.06494951 0.049157046 -0.49954757 -0.22236347 -0.12614036 -0.112855285
-0.050124113 -0.02861068 -0.39905104 -0.19123034 0.074479125 -0.08634422 -0.4716454 -0.3673022
0.21071702 -0.2651392 -0.16155784 0.3406527 -0.2898857 0.12344636 0.28596374 0.03636979
0.040099736 -0.3177647 0.14882632 0.20962767 -0.124121025 -0.028434888 0.029452333 0.007887297
0.24371044 -0.24322884 -0.08117822 0.16233465 -0.02457888 -0.23018979 0.2472912 -0.17732397
-0.34569317 0.07062925 0.07056267 0.05524362 0.2933816 -0.15619648 -0.19055682 0.12849604
0.2022441 -0.13795902 0.03409958 0.0018456838 -0.010491779 0.010668838 -0.23791699 0.25621364
0.016221123 -0.17911416 0.07994774 -0.29697734 -0.31164464 0.076153375 -0.22930373 0.14558963
-0.28536493 0.43182153 -0.15860058 -0.09368016 -0.22580516 -0.48222747 -0.27718097 0.20116132
0.096049674 -0.20515312 -0.3995292 -0.1010327 -0.06338062 0.20969948 -0.08181956 0.07435053
0.5524373 -0.088311866 0.27477247 0.20678847 -0.38273066 0.17820406 0.05376249 -0.16205586
-0.06087597 -0.5775323 0.4035687 0.008201514 -0.25072363 0.018685866 -0.0528165 -0.3318017
0.094039865 -0.019753646 -0.18851407 0.52471083 0.12798317 0.16021797 0.07871263 0.15898441
-0.5632942 0.24105005 -0.14353296 -0.17085609 0.059903808 0.2846538 -0.3728715 -0.23141563
0.251674 -0.117331944 0.07755161 0.26127768 0.20294534 0.23297755 -0.13610888 -0.39408332
-0.41905326 0.15265903 -0.24798395 -0.121581994 -0.2621119 -0.47025955 0.022447681 -0.029302822
-0.051047616 0.28658748 -0.20542464 -0.14342135 -0.15353183 -0.06267516 0.24403006 -0.31514522
0.001165059 0.18293995 -0.19494312 0.40140358 -0.23927246 0.088002734 -0.05275883 -0.08039905
-0.44608933 -0.08440553 -0.09372939 0.018601056 -0.020894311 -0.3966812 -0.4840113 -0.15250897
0.18825474 0.025000606 0.3382432 -0.26889807 -0.046998784 0.12669913 0.02551845 0.6529621
-0.1279061 -0.15384986 0.19427508 0.19579831 -0.6352205 -0.26286706 -0.11972061 -0.120867185
0.07317821 -0.32862738 0.20460428 0.18497694 -0.16721143 0.019200485 -0.59274226 0.36632892
0.09885784 -0.09892301 -0.05158517 -0.15776563 0.12140831 0.17878947 0.009120075 -0.18979634
0.5668712 0.12122589 -0.09077675 0.15528737 -0.056102082 0.16285531 -0.42928034 -0.023269553
0.004283053 -0.21433616 -0.59571403 -0.25896803 0.018304905 -0.10829777 -0.14789869 0.22959831

init_layer.0.bias f4 [64]
00000000: 0661 aebc b822 8b3c bcc2 ed3d 1b80 20bd
00000010: d025 26bd a129 8f3c 9524 0e3d 190b 883d
00000020: eedf dbbc 37ac bebd 7b8c ad3c df1e 15be
00000030: 9496 99bc 2b3b 0cbd 7056 983c 695a 173c
00000040: d757 4f3c d631 8d3b 57ef 2abd 2a2e 21bd
00000050: 2a13 1cbd b864 eebc 786b f2bc 621d 19bc
00000060: 2e30 95bc 9e8d a53c 771a 93bd 5b58 2ebc
00000070: 09c4 513c 0e86 28bd 8c56 7a3d 957a 9abc
00000080: 0a34 46bd 2ba3 8d3b 5544 46bc 8695 2f3d
00000090: 1cf6 06bd 4158 883d 0b92 5b3d 1a3c 743d
000000a0: 63ec e3bd 55ff a4bd 7477 08bd 2409 e5bc
000000b0: acc9 3bbd c68a 833c ad30 a3bc 09e5 a13c
000000c0: 5dcf be3c d69f 023d 2f7c 303c 3151 d33d
000000d0: 80ab 013d b3cf 8fbc 37d4 9139 8148 0cbd
000000e0: a534 23bd c24a f43b 52a5 053d ed3c 0e3d
000000f0: 7e4b a73c ffba cf3c 0456 1e3b a94e e0bc
-0.021286499 0.016984329 0.11609408 -0.03918467 -0.040563405 0.017475905 0.034702856 0.06642742
-0.026840176 -0.09310191 0.02118515 -0.14562558 -0.018748559 -0.034236114 0.018595904 0.009237864
0.01265522 0.0043089194 -0.04173216 -0.039350666 -0.038104214 -0.02910076 -0.02959226 -0.009345384
-0.01821145 0.02020913 -0.07182782 -0.010641183 0.012803086 -0.04114347 0.061117694 -0.01885728
-0.048389472 0.0043224297 -0.012101253 0.042867206 -0.032949552 0.06657458 0.053606074 0.05962763
-0.111290716 -0.08056513 -0.033317044 -0.02795846 -0.045846626 0.016057383 -0.019920671 0.019762533
0.023292238 0.031890713 0.010771795 0.103182204 0.031657696 -0.017555093 0.00027814668 -0.034248833
-0.039845128 0.007455201 0.032628365 0.034726072 0.02042174 0.025357721 0.0024160156 -0.027381258

hiden_layers.0.weight f4 [64, 64]
00000000: cea7 89be f0d5 81be 902d 343e 09ef 393d
00000010: 3237 79be a0ff 3e3e 3e1f 793e 0934 0b3e
00000020: 22f8 a0ba 238b b8bd b66a ef3e 3165 55be
00000030: 8c77 a2be 43b4 1bbd 370e 84be 36c6 8e3e
00000040: 5802 3dbe 7512 4fbe 2764 61be 988e 34be
00000050: 0933 06be a407 21be fe98 71bd 814c 88be
00000060: bf0b 6e3b d1c4 0d3d 1df7 71be 98dc 343e
00000070: e90f 34be c50f cabe b93e 25be a0d2 a93d
00000080: 6f78 14be aaab 383e 791e cbbd 3889 63bd
00000090: 60b4 16bb c9cb 1d3e 679c 8f3d e682 f83d
000000a0: 7757 69bd 8e3b 943d a205 a33e 2b11 173e
000000b0: c67a c8be 268e 91bd 47cb 8fbe 586b 90bd
000000c0: 253d 313e 9dfb f13d 6b9d bfbe c9f3 3cbc
000000d0: fdb9 9cbb d030 bf3d 3598 bc3d ea15 50bd
000000e0: 412f a1bd 1f7e a5bd 687d 56bd 31d0 fe3b
000000f0: 5a4c 783d 2447 873e 12b6 e03d 4707 a3bd
00000100: 135a 29be 41a3 823e a32f b6bc 6ab3 89be
00000110: 1d09 8cbd c51c 97bd f383 963e 8db5 103c
00000120: 03cb 9b3e fc61 01be e511 86be 4f53 253e
00000130: 489e 0e3d 1f21 a33d 693e 1e3d 38f7 0fbd
00000140: 8d32 95bd 5587 dabd 7f70 9cbd fc8b d43c
00000150: 6704 2dbe 4a95 04bc 3404 a03d 3543 943e
00000160: 0355 0bbe a3bc fa3d 23d4 653c c158 14be
00000170: 1cb4 af3d 65c3 2b3c 10ed 113e 959c f3ba
00000180: 1853 89be 13fc 1fbd 14a9 47be 74b2 4b3e
00000190: c0a1 a73e 1d12 333e 70d1 d23d 54c7 80bd
000001a0: 31aa 813d 9f88 b7bd cd59 ed3d d368 9c3d
000001b0: ff86 523d 23db 18bd 3b63 73be 63cf 62bd
000001c0: 4746 85bd d696 833e 5d98 4a3e 6761 ee3d
000001d0: 0c63 2dbe 7847 d13e 9d1b 103e 7e58 c93d
000001e0: 4005 8e3d 49f3 9cbe 29ed 153e 3223 cbbd
000001f0: 17b4 58be f8d4 34bd b5e3 49bd 3761 0f3e
00000200: 97c7 8b3c be5e 09be 1b5b 063d 5996 263e
00000210: 630c a33c dd33 3d3e 0802 193c d93c bc3d
00000220: 5721 83bd fdb2 343e 65b8 103f de92 293d
00000230: b5e2 89be 8c1f 57be 2304 d2bd cbd7 b83d
00000240: 4165 e9bb 6fec 34be 1711 08bd 873d ebbd
00000250: 0aae 293e 26f4 83be 98e9 af3d e011 49bd
00000260: a8d5 febd 3e80 8dbe 8592 4b3d ac47 833c
00000270: 7387 2dbb 0e08 35be 1c21 733d 6d61 643e
00000280: cc03 39bd 2a3b 77bd 8fa6 413e b55a 84be
00000290: 757c 32be 35e8 11be 52f2 bd3d 4fe0 cdbd
000002a0: 6894 e0bb 8962 2e3d b5bf 7a3e f151 f4bd
000002b0: 4449 60be 9050 37be 6fb6 98be 16fe 993d
000002c0: 539b 483e 5bf0 10be 0b33 8abe 3533 ce3d
000002d0: 1302 1d3e 7c90 8abd ca15 713c 5975 40be
000002e0: 47b0 2dbd a09e 423d 1dbc 08be 9ce6 34be
000002f0: 523d ec3d 8e5b a23e fa9d 943e 4bf9 1b3e
00000300: 4ee4 fabc e29d 833e e0a6 7bbe 9b40 80be
00000310: 4607 8d3d 73ba 28bc 8224 6f3e 9aa0 4b3d
00000320: e16d 843e cbbb fc3d 4d77 24bf 6057 053e
00000330: 1e53 953e b23b f1bd 660d a13e 9736 7ebe
00000340: 5fa0 fc3d e119 fa3d 1807 79bd 7177 2a3d
00000350: 9082 2abe e8a1 143e cc53 eebd a78d 923e
00000360: 24f3 b2bd 222e 763e a62f e03d 7d4d 90be
00000370: ec8e be3d 512d 12bc 0afb 513e 64ec 84bd
00000380: a3c4 6c3e 8910 f63d e93c 46be 3dd5 7f3e
00000390: 72c7 ad3e 41f8 623e f0b2 aa3d fbfc 3c3e
000003a0: 2480 103e cf82 a6bd a9a7 4fbd ac81 60be
000003b0: 0f4d 803e b8d7 ef3d 6007 1f3e b643 56bc
000003c0: db75 5bbe 471c 993d c8bd 033f d7cd c63d
000003d0: 79fc 60be 4a0d b33e f784 323e 66af 9a3c
000003e0: 6347 e53d ac1c 49be fe6d a3bc c2d3 d23d
000003f0: 4053 0f3e c5dc 50bd 7a37 f3be 23a8 afbb
-0.26885837 -0.25358534 0.17595506 0.045393977 -0.24337462 0.186522 0.24328324 0.13594069
-0.0012280981 -0.09010913 0.467611 -0.20839383 -0.31731832 -0.038013708 -0.25792095 0.27885598
-0.18457925 -0.20221885 -0.22010861 -0.1763252 -0.13105406 -0.15725571 -0.058983795 -0.26620868
0.003632292 0.034611527 -0.23629422 0.17662275 -0.17584194 -0.39465156 -0.16137208 0.08292127
-0.14499067 0.18034235 -0.099179216 -0.055550784 -0.0022995695 0.15409769 0.07012253 0.12134342
-0.05696818 0.07237922 0.31840235 0.14752643 -0.3915617 -0.07107191 -0.28084776 -0.07051724
0.17308481 0.118155695 -0.37424788 -0.011532732 -0.0047829137 0.09335482 0.09208719 -0.05080215
-0.07870341 -0.08080696 -0.05236569 0.007776283 0.06061969 0.26421463 0.10972227 -0.079603724
-0.16538267 0.25515178 -0.022239512 -0.26894695 -0.06837676 -0.07378534 0.29397544 0.008832348
0.30428323 -0.12635034 -0.26185527 0.16145061 0.034818918 0.07965302 0.038633738 -0.035147876
-0.072850324 -0.10670344 -0.076386444 0.025945656 -0.1689621 -0.008092234 0.07813302 0.28957525
-0.13606648 0.12243011 0.014027628 -0.14486982 0.08579275 0.010483597 0.14250588 -0.0018586094
-0.26821208 -0.039058756 -0.19498092 0.19892293 0.32740593 0.17487378 0.10293853 -0.06288019
0.063312896 -0.08961605 0.11589394 0.07637181 0.051398274 -0.03731836 -0.23768322 -0.05537356
-0.06507545 0.25701016 0.19784684 0.11639672 -0.16932315 0.4087484 0.14073034 0.09831332
0.06934595 -0.30654362 0.1464125 -0.09918822 -0.21162449 -0.044148415 -0.049289424 0.14001928
0.017062945 -0.13415048 0.03280173 0.1626829 0.019903367 0.18476816 0.009338863 0.09191293
-0.064028434 0.17646404 0.56531364 0.04139983 -0.26930776 -0.21008128 -0.10254695 0.09025534
-0.007122666 -0.17668317 -0.033219423 -0.11486345 0.16570297 -0.25772208 0.08589476 -0.049089313
-0.124430954 -0.27636904 0.04970028 0.016025387 -0.002647844 -0.17678854 0.059357747 0.2230279
-0.045169637 -0.060359158 0.18911193 -0.25850454 -0.17430289 -0.14248736 0.092747346 -0.10052549
-0.006853629 0.04257444 0.24487193 -0.119296916 -0.21902949 -0.17901826 -0.29826686 0.07519166
0.19590501 -0.14154188 -0.26992068 0.10068361 0.15332823 -0.067658395 0.014714668 -0.18794765
-0.04240444 0.047514558 -0.1335301 -0.17666095 0.115351334 0.31710476 0.29026777 0.15231816
-0.030626442 0.25706393 -0.24575377 -0.2504929 0.06886153 -0.010298359 0.2335377 0.04971371
0.2586508 0.12340506 -0.6424454 0.13021612 0.29164976 -0.11778964 0.31455535 -0.24825512
0.12335276 0.12211967 -0.06079778 0.041617814 -0.16651368 0.14514887 -0.11637077 0.28623697
-0.08737782 0.24041036 0.10946588 -0.2818412 0.09304604 -0.008921937 0.2050592 -0.064904004
0.23121886 0.120148726 -0.19359173 0.24983688 0.33941227 0.22165014 0.08334911 0.1845588
0.14111382 -0.081304185 -0.050697003 -0.21924466 0.2505879 0.11711067 0.15530157 -0.013077667
-0.21431677 0.074760966 0.5146146 0.097072296 -0.2197131 0.34971076 0.17433535 0.018882465
0.111952566 -0.19639844 -0.01994991 0.10294296 0.13996601 -0.050991792 -0.47503263 -0.0053606196

hiden_layers.0.bias f4 [64]
00000000: fc33 893c 3a6c 4abd a63c b0bb fa84 20bd
00000010: 4437 d53c 1c77 0bbd 6b12 133c 566e b33c
00000020: 01e6 53bb 82cd 13bd 7488 a23d f520 183a
00000030: fe88 f2bc 055a a2bc 86f8 583c f6a2 d8bc
00000040: c56c 0f3d dd06 5dbd 73c6 573c f89c c83c
00000050: 818f 0c3d 818b 2b3d 16b5 4abb f62b b4bc
00000060: 1195 25bd 8fa0 f13c 69a8 a0bb 6b22 84bc
00000070: dcaa 4a3d 675b 333d e0ae 5bbc 256a 3a3d
00000080: 2c80 ce3c f6fc b83c 4485 403d b062 36bb
00000090: 44c4 16bc 66d0 f83c b7e2 b13c 1c1f 32bd
000000a0: f19e c53c 90a5 9abd f6ed ebbc 1833 dfbc
000000b0: deb4 813c 4ef3 febc 88d2 ffbc 9913 de3c
000000c0: 8dbc f1bc db59 94bc 8c0a f53c 9eef 1bbd
000000d0: 32d0 813c 2403 99bb c050 01bd 498c b8bc
000000e0: 8ec8 943c 0f49 aabc 1a5b 1a3d c503 193d
000000f0: 7740 f93c cfd8 7d3b d8f1 3abb 595e 0bbd
0.01674842 -0.04941962 -0.0053783236 -0.039189316 0.02602733 -0.03404914 0.008976559 0.021903198
-0.0032333138 -0.03608466 0.079361826 0.0005803251 -0.029606339 -0.019818315 0.013242846 -0.026444893
0.03501584 -0.053961623 0.013169873 0.024488911 0.034316543 0.04188109 -0.003093069 -0.021993618
-0.040425364 0.029495506 -0.0049028886 -0.016129693 0.04947935 0.04378834 -0.013408393 0.045511384
0.025207601 0.022581559 0.047002092 -0.0027829818 -0.009202067 0.03037281 0.021714551 -0.0434867
0.02412364 -0.0755111 -0.028799992 -0.027246043 0.015833315 -0.031121876 -0.031228319 0.027108954
-0.029508853 -0.018109253 0.029912256 -0.038070314 0.015846346 -0.004669564 -0.03157115 -0.02252783
0.018162038 -0.02078679 0.037684537 0.03735711 0.030426247 0.0038733964 -0.0028525498 -0.034025524

hiden_layers.1.weight f4 [64, 64]
00000000: b408 983e cb12 a73d 9397 ed3d c1b0 12bb
00000010: da98 42bd e4fa c33c 6a87 653e bd49 27be
00000020: 337e 293d d8d4 ae3d 3237 963b 0f23 b53b
00000030: 78a9 89be 40f2 fb3d 1b55 a5bd a7c3 d43d
00000040: fe66 2a3e 9901 a7bd 70b1 323d 56bb 033e
00000050: 71d0 3dbe 5494 0fbe 0a7c aabd f27a debd
00000060: 80cf cfbd 76f1 3bbe 2668 8c3d d181 4c3e
00000070: 96b4 063e 5c6f cfbd db34 513e d9d1 d5bd
00000080: 4e1d 05be ab6c 82be 98c5 b23d c03d 7e3d
00000090: dc8e 34be 9f4b 033e c59c 503e 68be 0a3e
000000a0: 4e3d 603e 8910 adbb b53e e03b 8818 993c
000000b0: fc24 583e 6971 b03d aff8 9fbd 3bdf 6c3c
000000c0: aff0 ac3c e0fa 7a3d b60d c0bc 6ed4 0fbe
000000d0: c720 7dbe b9bd 613e 1b00 05be c778 7fbd
000000e0: eabc 183e 5aef 46be e89a 9cbb 539f f0b8
000000f0: c5c9 92bd 5750 9d3d 70c2 ad3d 9f92 8fbd
00000100: 620f 593e 3918 a9bd 3167 8b3e 1f7f 5cbe
00000110: 1591 573c dd4d 19be 21aa 413e 9eec 4d3d
00000120: 4988 213e e3a6 28ba 536b 433f 0060 673d
00000130: 4b81 ffbd 0f2b 053e 4ae3 30bc 02d9 fa3d
00000140: 763e 14be b2bd 253e a9fd c3be 309e 0a3e
00000150: 870d 523d 7231 15bc 290e 93bd 26d0 c0be
00000160: 0f06 4cbd 6e80 de3d f6b5 4fbe c20c ccbd
00000170: c03d 17be b5d0 0dbe 3e3d e83d 3d10 ae3d
00000180: 227f 3b3e 186c 993c 3810 bc3e ae7a 273e
00000190: e55b 22be af2e 6e3f 499b 0a3e 328b 993d
000001a0: 0f26 263e 9469 123e 8ea8 ecbc 1a43 17be
000001b0: a652 f63d 1644 5e3e 15fd 813c b8f8 dbbd
000001c0: 544d 6b3e 9e30 dcbd 90f0 15bd ef02 58bd
000001d0: 6e67 393e 5279 3a3e dd02 b0bd eb37 a0be
000001e0: 603c 2bbd b937 923e aa2b 0e3f 865d 483e
000001f0: 8a5d 24be a2f7 233e f9df 1c3e 7af1 44be
00000200: 2624 883d 3259 c0bd 3047 4abd 5af7 00be
00000210: 2368 d33d 78b7 bfbd 658e 123e 5510 b43d
00000220: 03a5 4c3e 7bb8 203e 2b7c ed3e ba48 e1bc
00000230: 4fe9 78be d82b 0cbe c163 bbbd b3ee 603e
00000240: 2f3e 7a3d 57db a0bd 534f 413e 475b d3bd
00000250: 5a2c 19be ee39 1e3e 1081 bb3d 8898 f7bb
00000260: 2c2c 02bd 1c1c 26bd f557 133e 6bc1 92bd
00000270: d98f e4bd d008 55be 7615 973d 1743 3d3e
00000280: 3df6 893e f8cc 4a3d 7774 b33d 0478 47be
00000290: 6ac7 493e c3bc 0ebe 1a60 37be 13b2 76be
000002a0: b0fe 6f3e 5c23 163e db23 fa3c 57e7 e53d
000002b0: 79c8 013d f55f 913e ce43 00bd 4682 333e
000002c0: 0ebb 9a3d d5e9 4e3e 6ea9 f23c 24b4 01bd
000002d0: 2515 bd3c e76a b13d 084a 403e d5ea b3bd
000002e0: 9492 1abe 6680 dc3c d642 3b3e 8d68 17be
000002f0: efc1 abbd 028d 95bd a0c4 903e fa0e 85be
00000300: 0990 71be 44f4 bbbc 1791 87bd 8bb0 77be
00000310: 124a 583b adde c7bd 9284 9bbd 94c2 3c3e
00000320: 69ab 78bd 7e05 863d fcf4 813b 2119 a0be
00000330: 7481 ed3d 93a9 fd3d 4e4e 0f3e ade9 67bd
00000340: 00f1 8a3e 1eec 673c 19d1 be3d e41b 83bd
00000350: 4741 a2bd 2363 47bb f7ee 38bd faa0 883e
00000360: d343 d0bd 780b fdbd 7426 f9bd d36f 86bd
00000370: c27f b8bd f1e4 e83d 42f3 b3bd 25a6 c43c
00000380: 4cd4 0c3d 1fe1 223e 2567 c83d 8c09 33bc
00000390: 78ad 6ebd d6d6 5abe 6de5 68bb 7a91 043e
000003a0: 5963 8f3d fc62 e6bd 4e38 7b3d 3f3e c13d
000003b0: 08be 3ebd 232b 00bc 720b 14bd e927 8b3e
000003c0: 025d 443e 107b bfbd 725a d23d d4f3 933e
000003d0: d4a4 1c3e fa54 3e3d bea0 fbbb 0591 1d3e
000003e0: 67e5 a53d 8e70 453e 1406 233e 257b 403d
000003f0: 9b6b f03d 5186 643c a0bb ea3d b854 c7be
0.2969414 0.08157881 0.11601176 -0.0022383186 -0.04750905 0.023923345 0.22414938 -0.16336723
0.04138012 0.085366905 0.0045842165 0.005527861 -0.26887107 0.12302065 -0.08072873 0.1038888
0.16640851 -0.081546016 0.04362625 0.12864432 -0.18536545 -0.14021426 -0.0832444 -0.10863294
-0.10146999 -0.18353829 0.06855802 0.19971396 0.13154826 -0.10128662 0.20430319 -0.10440416
-0.1299946 -0.25473532 0.08729094 0.06207061 -0.17632622 0.12821816 0.20372303 0.13549197
0.21898386 -0.005281512 0.0068434128 0.018688455 0.21107858 0.08615381 -0.078111045 0.014457519
0.02111086 0.06127441 -0.023444038 -0.14045879 -0.24719535 0.2204503 -0.12988321 -0.06237104
0.14915815 -0.19427243 -0.0047792085 -0.00011473768 -0.07167391 0.07681339 0.08484352 -0.07010388
0.21197274 -0.08256573 0.27227166 -0.21532868 0.013157149 -0.14971109 0.18912555 0.050274484
0.15774645 -0.00064335595 0.7633564 0.056488037 -0.124758326 0.13004707 -0.010796377 0.12248422
-0.14476952 0.16185644 -0.38279465 0.13536906 0.051282432 -0.009106027 -0.07180435 -0.37658805
-0.049810465 0.1086434 -0.20284256 -0.09963371 -0.1476965 -0.13849147 0.11339806 0.08499191
0.18310216 0.0187283 0.36731124 0.16355392 -0.15855367 0.93039984 0.13535799 0.074972525
0.16225456 0.14298087 -0.028888967 -0.14771691 0.12027483 0.2170566 0.01586775 -0.10740799
0.22978717 -0.107514605 -0.03660637 -0.052737173 0.18105862 0.18210343 -0.08594296 -0.31292662
-0.041805625 0.28558138 0.55535376 0.19566926 -0.16051307 0.16012433 0.15319814 -0.19232741
0.0664752 -0.09392013 -0.049384296 -0.12594357 0.10322597 -0.09361166 0.14312132 0.087921776
0.19984822 0.15695374 0.46383795 -0.027500499 -0.2430775 -0.136886 -0.09149886 0.21966057
0.06109446 -0.07854336 0.18877916 -0.10320144 -0.14958325 0.15451786 0.09155476 -0.007556025
-0.031780407 -0.04055415 0.14389022 -0.07165798 -0.11160249 -0.20804143 0.0737714 0.18482624
0.26945677 0.04951188 0.08762448 -0.19479376 0.19704977 -0.13939194 -0.17907754 -0.24091367
0.23437 0.14661926 0.030534675 0.11225765 0.031685326 0.28393522 -0.031314664 0.17530164
0.07555209 0.20206387 0.029621806 -0.031665936 0.023081372 0.08662968 0.1877824 -0.08785025
-0.15094978 0.026916694 0.18287215 -0.14785977 -0.08386599 -0.07302286 0.28275013 -0.2598799
-0.23590101 -0.022943623 -0.066194706 -0.2418844 0.0033003134 -0.09759269 -0.07593645 0.184336
-0.060710344 0.06544016 0.003965972 -0.31269172 0.11596957 0.12385859 0.13994715 -0.056619335
0.27136993 0.014155416 0.09317226 -0.06401804 -0.07922607 -0.003042408 -0.04514977 0.26685315
-0.101691864 -0.12355703 -0.121655375 -0.065642975 -0.09008743 0.11371792 -0.08786632 0.024005005
0.03438215 0.1590619 0.09785298 -0.010927569 -0.0582709 -0.21371016 -0.003553714 0.1294612
0.07001371 -0.112493485 0.061332993 0.094357006 -0.046567947 -0.007822785 -0.036143728 0.27178887
0.19176105 -0.09349644 0.10271157 0.28896964 0.15297252 0.04646776 -0.007679074 0.15387352
0.08100396 0.19281217 0.15920287 0.04699244 0.11739274 0.013948039 0.11461568 -0.38931823

hiden_layers.1.bias f4 [64]
00000000: 8a47 f83a 90ef 2d3d 62ee bf3c 67d8 5bbd
00000010: 227b e03d 5ad5 fd3c df4d 8bbc b7a9 d63c
00000020: 332b 023d 7635 c1bc 730f c63c a85f 703d
00000030: 57be 34bb 7da5 a23d 0c07 1d3d 0f96 c33d
00000040: b6a2 043d 0cc7 c13c b608 a23d 8d80 adbc
00000050: b184 56bd 5128 023d 9b70 043d 3442 003c
00000060: 0a8b cabc 415f a5bd 21a5 c3bc 7ece 793c
00000070: 7df0 4d3d efde 89bd d75d 09bd d4e6 7bbb
00000080: 397e 1dbd da96 a2bd d1b5 77bc 2392 2cbc
00000090: 75d2 a6bd 4712 893d 06bd acbd 8964 fc3d
000000a0: 2ad0 a7bc 7a13 c3bc a803 6d3d f375 9e3d
000000b0: d53c 1d3d 6166 22bd 2ebb 57bc cd83 213d
000000c0: b310 093e c5aa 733d 0497 193c 4ea4 9dbd
000000d0: c3f5 473e 4c36 033e 55e6 9ebd a7e9 6dbd
000000e0: 5139 f23c 2695 1abd 21a1 d9bc 5f89 203c
000000f0: bfc4 573c 639c 6bbd 5660 5a3d 4ba6 e5bc
0.0018942219 0.042464793 0.0234291 -0.053673174 0.10960986 0.030985523 -0.017004905 0.026203973
0.03177948 -0.023585062 0.024177289 0.058684975 -0.0027579272 0.07941721 0.0383368 0.09550106
0.032381736 0.023654483 0.07911818 -0.021179462 -0.052372638 0.03177673 0.03233395 0.007828284
-0.024724502 -0.08074809 -0.02388245 0.0152469855 0.050278176 -0.06731974 -0.03353676 -0.0038437145
-0.038450453 -0.07938929 -0.015119032 -0.010532889 -0.0814561 0.06692939 -0.08434491 0.12323863
-0.020485003 -0.023812998 0.057864815 0.07737341 0.038388092 -0.039648417 -0.013167186 0.039432336
0.13385276 0.05948903 0.009374384 -0.07697354 0.19527344 0.12813681 -0.07758776 -0.058084156
0.029568346 -0.037739895 -0.02656609 0.009798377 0.0131694665 -0.05752219 0.05331453 -0.028033396

hiden_layers.2.weight f4 [64, 64]
00000000: 5d19 efbd 2122 93be 1780 3cbe ae14 4a3e
00000010: 0e92 2abe d701 c1bc 1d29 26bd a5a9 883e
00000020: 2c56 683e 5fe8 c83c 168a ff39 4420 6dbe
00000030: 76ad 8fbd ba1e 6abc 6408 323e d4fe 36be
00000040: e699 573e f85a 7b3e 67a2 f33c 0915 3fbd
00000050: 6d3a a03d 3ecf 16be 912c 21be 0ad7 51be
00000060: 80e5 a6bc b97d dd3d a0e8 d2bd a92d d9bc
00000070: 6e5f a4bd b329 093e 5281 1cbe 7ed1 8e3d
00000080: b773 0c3e 3422 3f3e f832 d83d 13a1 4b3d
00000090: 9d0d 883e 6353 86be bd80 99bd a466 17be
000000a0: 8a86 50be 4dfe 10be ccce b73c 1fa2 c43d
000000b0: 31e6 a9bd 6e17 2d3e 58e4 ed3d 00ec 36be
000000c0: a3a2 9fbc 37a2 353d 1bdc 923b f8d9 0e3e
000000d0: a6e0 fcbc 85d5 953e e78d 3e3d 03c2 a6bd
000000e0: 0732 4c3e f765 eebd 5633 303d dd7d 473d
000000f0: c0d9 753e fa8c 173e b0a6 903c 92c6 9a3d
00000100: 41ed da3c 62d9 8fbd 3192 503e 3c20 20bd
00000110: 200a a8bd 4c54 283d 259e 353d f432 4f3e
00000120: 8502 123e f295 4d3e 08c6 0abe fd80 b63c
00000130: 0505 573e 188b 2cbd c638 babd 6fb7 45bd
00000140: 84ba ebbd 1a79 f23d 8f9c acbd d589 153e
00000150: 5a96 48be bc99 133e 1bcf 90be 5340 b43e
00000160: be3a 083e 6095 fdbd 7d46 383c f721 ee3c
00000170: c784 d4bd 3e47 343d 6861 363d 8a9a 1fbe
00000180: 5409 91bd 48a8 bdbd da4e 703c 4179 babe
00000190: 6d5f 553e af11 993d bfd7 123e 61f4 6f3d
000001a0: 1ee2 9dbd df52 75be 3b8c a1bd 9e8b 493e
000001b0: 0147 9e3e 5188 023e 07cf 943d a522 82be
000001c0: 7994 4dbe ea42 bd3a c82c 38be 5524 1bbe
000001d0: 538d adbd f115 15be 4542 7e3e e5a4 1abd
000001e0: a0b1 98be f4f5 143e 5334 5e3c 301b cdbd
000001f0: 8c0a 903e ef4b d8bd 45a9 a5bd aeee 69bd
00000200: 7b14 2cbe 245a be3d d06e 34bd a246 79bc
00000210: 36c0 a43c 0bf7 743e 3dd1 a43c 6580 0e3e
00000220: f0c5 123e cf55 8e3b 1f2a bf3c eb4c 133e
00000230: e469 173e bec1 f4bc 5166 fdbd 0602 34bd
00000240: 27d3 05be 0a48 84be 73fc f8bd 674f b3bc
00000250: 5841 f3bd 815b 0b3e 1345 27be 83b6 4c3e
00000260: ff5c 5c3e 457b 5e3d c9c7 acbd 9399 b33e
00000270: 869d be3d ef7c 9ebe d14f 153e f530 e03d
00000280: d469 013e 1359 263e 5e70 9ebd f7b5 b1bd
00000290: 8ee6 963d 9c28 b63d 7cb8 a13e 5a6c f9bc
000002a0: 8098 d3bd 5503 a4bd 0289 233d dbcc 9c3e
000002b0: da73 a13c 09ba 1e3e 2545 afbd ac4e 36be
000002c0: f829 02be f992 a03c e6a5 b4be 2c50 4fbe
000002d0: 7021 d53d cfad 7bbc 55a7 98bd fb71 bb3d
000002e0: 7d9b 6e3d 12f5 283e b2b5 6dbd 175f 223d
000002f0: 37bb 043e 988b 2fbe 538a d13c c576 0bbe
00000300: af35 a8bd 216d 833d 6d61 5dbe cd83 ddbd
00000310: b2f5 213e 878e ba3d b595 85bd 986d 3f3c
00000320: ae9e 503e 1e26 673c 369e 7dbe 1f7b 4f3d
00000330: 3e63 a2be efdc fabd c30c 44be 2aa0 843c
00000340: 0f37 8d3e 7a24 a6bc 7bd7 e0bd fedc 1e3e
00000350: 2be0 ca3c da2e 87bd c95b c43c ecde 80bd
00000360: 897b 40be 57c4 5dbe a2c5 72be 7c84 163e
00000370: 69ca eabd 76e0 fabd 5630 93be e3bf f1bd
00000380: 76ee d93a e665 34bd d15b 40be 1425 48bd
00000390: 4df6 303e cfa6 5c3e e97f db3a 11e2 01be
000003a0: f29b 9dbd 480e 5e3e 824a dc3d 742b e53d
000003b0: 7d8f 82be 891e 71be 7dd4 64be 4769 203e
000003c0: 8d2b 313e 59e5 93be fb88 5a3d 22d0 b2bd
000003d0: cdbc b93d 8bad 673e a9be 68be f567 06be
000003e0: c24e d83d d6da 1dbe 4390 69be 2c36 893c
000003f0: 58fc 793c abb1 bc3d 15e2 6abc 4286 3abe
-0.116747595 -0.28736976 -0.18408237 0.19734451 -0.16657278 -0.023560448 -0.040566552 0.26691929
0.22689122 0.024524866 0.00048740272 -0.2315684 -0.07015507 -0.014289552 0.17386013 -0.17870647
0.21054801 0.2454642 0.029740525 -0.04665092 0.07823644 -0.14727494 -0.15739657 -0.20492187
-0.020373106 0.10814995 -0.10298276 -0.02651103 -0.08026014 0.13394813 -0.15283707 0.06973551
0.13716017 0.18665391 0.105565965 0.04971416 0.26572886 -0.26235494 -0.07495258 -0.14785248
-0.20363823 -0.14159508 0.022437476 0.09601235 -0.08295859 0.16903469 0.11615819 -0.17863464
-0.01948673 0.044344153 0.004481805 0.13950336 -0.03086884 0.29264465 0.046522047 -0.081424735
0.19940959 -0.11640542 0.043017708 0.048704017 0.24008846 0.14799872 0.017657608 0.075574055
0.02672446 -0.07023884 0.20368268 -0.03909324 -0.08205056 0.041096017 0.04434027 0.20234281
0.14258774 0.20076731 -0.13552105 0.022278303 0.20998009 -0.042124838 -0.0909286 -0.04827064
-0.115101844 0.118395045 -0.08428299 0.1460336 -0.19588605 0.14414114 -0.2828301 0.35205325
0.13303658 -0.12382007 0.0112472745 0.02906893 -0.10376888 0.044013254 0.044526488 -0.15586296
-0.07081857 -0.09260613 0.014667237 -0.36420634 0.20837183 0.07474076 0.14340113 0.058582667
-0.07709144 -0.23957394 -0.07888075 0.19682166 0.30913547 0.12747313 0.0726605 -0.25417057
-0.20076169 0.0014439498 -0.17985833 -0.15150578 -0.08474221 -0.14559151 0.24829967 -0.037754912
-0.29823017 0.14546949 0.01356228 -0.10014951 0.28133047 -0.10561358 -0.08088926 -0.05711239
-0.16804688 0.09294537 -0.04405099 -0.015214594 0.020111185 0.23922364 0.020119304 0.13916166
0.1433332 0.0043437253 0.023335515 0.1438481 0.14786488 -0.02987754 -0.12373031 -0.043947242
-0.1306883 -0.2583621 -0.12157526 -0.021888448 -0.11877698 0.13609125 -0.16334943 0.19991498
0.2151985 0.054316778 -0.084365435 0.35078105 0.09307389 -0.30954692 0.14581229 0.10946838
0.12638026 0.16244917 -0.07736276 -0.08677285 0.073681936 0.088944644 0.31586063 -0.030447174
-0.103318214 -0.08008448 0.039925583 0.30625042 0.019708563 0.15500654 -0.0855811 -0.17803448
-0.12711322 0.019601332 -0.3528282 -0.20245427 0.10406768 -0.015361263 -0.07453791 0.091525994
0.058253754 0.16499737 -0.058034606 0.039641466 0.12962042 -0.17143095 0.025578653 -0.13619526
-0.08213364 0.06417299 -0.21619196 -0.10816155 0.15816382 0.09109216 -0.06522695 0.011683844
0.20373031 0.014108209 -0.24767384 0.050654527 -0.3171634 -0.12249171 -0.19145493 0.016189653
0.2758107 -0.020281065 -0.109786 0.1551399 0.024765095 -0.06600733 0.023969548 -0.06292519
-0.18797125 -0.21656929 -0.23708203 0.14698976 -0.11464388 -0.12249844 -0.28747815 -0.118041776
0.0016626853 -0.04404249 -0.18785025 -0.048863485 0.17281456 0.21548007 0.0016746494 -0.12683894
-0.0769576 0.21685135 0.10756399 0.11189929 -0.25500098 -0.23546804 -0.22346683 0.1566516
0.1730177 -0.28885916 0.05335329 -0.087311044 0.09069214 0.22624795 -0.22728981 -0.13125594
0.10561897 -0.1541551 -0.22808938 0.016749464 0.015257917 0.09213575 -0.014336129 -0.18215278

hiden_layers.2.bias f4 [64]
00000000: 318e 1ebe 4f6d 99bd 5152 49bd a58e b73d
00000010: 31c8 503d 69cd dd3c 41f9 82bc 589e 303c
00000020: ee71 dc3d 2ca0 36bd 89bd 4dbe 3110 32bd
00000030: 91c4 683d 30fa dfbd 8070 8e3d b63f 283e
00000040: d959 603e d9ec 7ebd b2ab 8b3d 436d 2fbd
00000050: d39f 96bd 2632 56be accb 2cbd fdb3 873d
00000060: 7ac6 d0bd 7c44 9f3e 68c6 8cbd 6021 0dbb
00000070: afa7 c83d eee4 d0bd c4fd 9abd a4e5 4ebe
00000080: b575 43bd d63c e93d dcdb a73d fe83 943d
00000090: c4a6 1dbe d0c0 3f3d 12ea 123e a087 d2bd
000000a0: 95cf 52bc c96a 0b3c 0e80 153d 74f9 bb3c
000000b0: 818e 0d3d 3251 8abd 2a57 713c 6f5a d13d
000000c0: 4dfb 65bc 33eb 6b3d 615a 4abe e09e c33c
000000d0: 3814 a6bd c229 e73c bf26 99bd 4497 883d
000000e0: c623 bb3c a651 b23b b0a9 393d a3eb ccbc
000000f0: e572 d1bd 7fbe 3ebe d2da fc3d f4bc c8bd
-0.15483929 -0.07491552 -0.04915077 0.08962754 0.050972167 0.027075486 -0.015987994 0.01077994
0.10763918 -0.044586346 -0.20091833 -0.043472473 0.056828085 -0.10936391 0.069550514 0.16430554
0.21909274 -0.062237594 0.06819858 -0.04282881 -0.07354703 -0.20917568 -0.042186424 0.06626127
-0.101941064 0.31106937 -0.068737805 -0.0021534786 0.09797608 -0.10199915 -0.07567933 -0.20204788
-0.047719676 0.11388557 0.08196232 0.07251738 -0.15395647 0.04681474 0.14347103 -0.10279775
-0.012866874 0.008509346 0.036499076 0.022946097 0.03455973 -0.06753768 0.014730254 0.10222327
-0.014036966 0.05759735 -0.1976104 0.023879468 -0.08109325 0.028218154 -0.07478093 0.06669477
0.022844207 0.005441862 0.045327842 -0.025014704 -0.102269925 -0.18627356 0.12346424 -0.09801665

hiden_layers.3.weight f4 [64, 64]
00000000: 7753 6bbe 9881 19be 3965 19be 5057 df3d
00000010: a46e 2b3d c3d8 23be f8dd 44be ff25 4e3e
00000020: cb4f 0b3d d87d b73d 991e 16bd ced3 943d
00000030: 0c2c dfbd 2017 963e 5d04 103d 0260 43bd
00000040: 1ceb 28bd 6b58 b8bc d8f5 e03c 9c1b 00bd
00000050: ea5e 96be 9f7f babd 43f5 28be f5cb d5bb
00000060: 0f66 cabd c505 34be 3076 10be 4496 5cbb
00000070: daf8 a0bc 1a07 ae3d 073e 1b3e 9f66 983d
00000080: 4ce7 46be 07c6 60bc 1d1b c23c 0b60 2c3d
00000090: 1db8 bc3e 091c b43e 7a7f da3d de25 56be
000000a0: cde3 b1bd ce7c 8cbe 0717 903e e402 663e
000000b0: aea5 ac3d cfcd 343e fcce 803e ba8e 85bd
000000c0: 9319 08bd 2b5a e0bd 9a10 3dbe 9e7b 773d
000000d0: 60b1 cf3d ae55 bdbd abac 9e3d dfb1 d83d
000000e0: e18b 98bd 1348 80be 94dd 333e cdf9 593e
000000f0: 4d6f d83c ac5b a93e 8945 e43d 9d9e 67be
00000100: 6f47 12be 50d8 4dbd 167d 503e 5338 3abe
00000110: 6455 6f3e 8a8d 803e eafa d6bd 9c20 373e
00000120: 8483 0a3e 6442 863e 8184 6cbe 8f5b 833b
00000130: 0299 af3c 06d9 703e 54f6 253e 0d44 eabd
00000140: 161a 0ebe a83d 543d e746 d9bd ace1 19be
00000150: e50d 08be f771 6d3d e4d7 e73d c7b9 193e
00000160: 68d7 1e3e 6bff 8f3d 3a26 18be d51a 4b3e
00000170: 3387 34be 3844 133e f97f 99bd 4a71 e1bd
00000180: c979 f03a 2319 3b3e 46da 663e 4ded 863d
00000190: 9c84 623e 338d 063d 01c7 aebd 2782 f8bd
000001a0: 84e2 86be f70f 30be 403d 463d 0d21 3fbe
000001b0: 1ba6 b33d 5d2b f83a 5c11 d83d 8d34 5c3e
000001c0: 4842 973d 4cd6 4b3e 5449 1a3e 61f0 aa3d
000001d0: 88c7 c33e e7f2 e6bd 7a6c 703d ddcf 07be
000001e0: fe7b 773e a43b 2d3e e842 66bc c4e9 123e
000001f0: ff20 603e addf 803d d70a 313e 37f2 0a3e
00000200: 3be1 3abc a316 6dbe 0992 1a3c 97f8 893e
00000210: 0748 acbc 3c27 0cbe decc 98bd 9aa1 24bd
00000220: b307 0dbe 33b8 44be 89d7 f0bc a249 59bd
00000230: 250f 47bc b0ba 663e 4918 55be b3a7 6e3a
00000240: 61c6 98bd 2575 a2bb 9325 a13c 4084 07be
00000250: e307 4fbe 8438 d0bd 47db 37be 1d59 9f3e
00000260: e459 fd3d 2143 3abe 1cfd 4e3e eb8d 8d3d
00000270: 0956 6f3d bed5 47be 6d92 d93d 6ae6 063e
00000280: 9263 d1bc eede 353e 81a0 16be 6885 7f3d
00000290: aabc 4d3d 4aaf 4ebe 7cba f93d 413f 173e
000002a0: d316 3cbe 371f 453d c1f0 3f3e 1b3f cdbc
000002b0: c7fc ac3d 20f4 e53d f82e 3f3e 5ff2 93bd
000002c0: 6972 78be 452a 3bbe 4a1b 853e 14f8 db3d
000002d0: 05f8 a13d ec4b 18be dba8 6fbd 6a10 893c
000002e0: 88a4 d33c 2050 303e d3a1 98bd 88c5 7ebd
000002f0: af63 dc3d 67a4 bb3d b12f bbbe 8c12 25be
00000300: f3e3 d83d 665d 23ba ee01 47bd ce62 75be
00000310: d8c5 2cbe 17e0 3c3e 893c 643d edfe e23d
00000320: 7d2b 053e eea1 c4bd 5dc2 553c ee63 9a3d
00000330: 7aa1 853d 57de 1c3d 7f33 1cbe 9334 a5bc
00000340: 4f71 14be 6a11 4ebe 3038 ab3d 836b debd
00000350: 2fcf 9ebd 223d 8a3e 77ec 393d 7068 e23c
00000360: e712 063e 9c55 aebe 862c f03d 89f2 fe3c
00000370: ca84 8e3d 9972 44bd 0f20 c83d 6d64 8d3d
00000380: aa2f c73d 6ec9 a33b 5697 0ebe 50f2 8fbc
00000390: e9cc d83e f4a9 ae3e cbe5 b13e 27ab efbd
000003a0: b5f5 a73d 877d 8e3e 208a 94bd 39b7 773d
000003b0: 554f 6a3d cb1e 573e e47a 503c 1537 99be
000003c0: 1afe dcbd 3182 d7ba a003 3dbe f421 3a3e
000003d0: 4ee1 21be dd9f 2cbe 76f2 113e cdeb 8a3e
000003e0: 0502 32bd 9f68 50be 8a03 f8bd dd02 6a3d
000003f0: 1691 203e f081 b93e 29e0 96be 73d8 d03d
-0.22981058 -0.14990842 -0.1498002 0.109053254 0.041853562 -0.16000657 -0.192253 0.20131682
0.034011643 0.0895955 -0.036650274 0.07266961 -0.10897073 0.29314518 0.03516041 -0.047698982
-0.041239843 -0.022503098 0.027460977 -0.03127633 -0.2936929 -0.09106373 -0.1649981 -0.0065245577
-0.098827474 -0.17580326 -0.14107585 -0.0033658901 -0.019649912 0.08497448 0.1516038 0.074414484
-0.1942417 -0.013719088 0.02369457 0.04208378 0.36859217 0.3517764 0.106688455 -0.20912883
-0.08686028 -0.27438968 0.28142568 0.2246204 0.084300384 0.17656635 0.25157917 -0.065213636
-0.033227514 -0.10954698 -0.18463364 0.060420625 0.101412535 -0.09244858 0.077477776 0.10580801
-0.07448555 -0.25054988 0.17564994 0.21286698 0.02642026 0.33077753 0.11146075 -0.226191
-0.14285062 -0.05025512 0.20360216 -0.18185548 0.23372418 0.25107986 -0.10497077 0.17883533
0.13526732 0.26222527 -0.23097421 0.0040087174 0.021435264 0.23520288 0.16207248 -0.11438761
-0.13877138 0.051816612 -0.10609227 -0.15027493 -0.1328655 0.057970013 0.11320475 0.15012275
0.15511858 0.07031139 -0.14858332 0.19834454 -0.176297 0.14381492 -0.07495112 -0.11007936
0.0018346842 0.18271308 0.22544202 0.0658823 0.22120899 0.0328495 -0.08534051 -0.121341996
-0.26344693 -0.1719359 0.048398256 -0.18664952 0.087719165 0.0018933822 0.10550186 0.21504422
0.07385689 0.19905967 0.15067035 0.0834663 0.38238168 -0.11276799 0.0586972 -0.13262887
0.24168393 0.16917282 -0.014054038 0.14346987 0.21887587 0.06292663 0.17289291 0.1356896
-0.011406238 -0.23153166 0.009434232 0.26947471 -0.021030439 -0.13686842 -0.0746095 -0.040193178
-0.13772468 -0.19210891 -0.02939965 -0.053048737 -0.012149607 0.22532153 -0.20810045 0.00091039686
-0.07459713 -0.0049578124 0.019671237 -0.13234043 -0.20217852 -0.101670295 -0.17954741 0.31122676
0.12370661 -0.1818967 0.20213741 0.06911834 0.05843166 -0.1951513 0.106236316 0.13173833
-0.025560174 0.17760822 -0.14709665 0.062383085 0.050228752 -0.20184055 0.12193772 0.14770223
-0.18368082 0.048125472 0.18744184 -0.025054505 0.08446651 0.11228204 0.18670261 -0.07223963
-0.24262394 -0.18277843 0.25997382 0.107406765 0.07908634 -0.14872712 -0.058510642 0.01673146
0.02583529 0.17218065 -0.074527405 -0.0622001 0.10761201 0.09162217 -0.36559823 -0.16120356
0.10590353 -0.0006231874 -0.048585825 -0.23963472 -0.16872346 0.18444858 0.055721793 0.110837795
0.1300487 -0.09601198 0.013046828 0.07538591 0.0652494 0.038297977 -0.15254019 -0.02016667
-0.14496349 -0.2012383 0.08360326 -0.1086035 -0.07754361 0.26999766 0.045391526 0.02763769
0.13093148 -0.3404969 0.11727242 0.03112151 0.06958921 -0.04796085 0.0977174 0.0690392
0.09725888 0.0049983775 -0.13924918 -0.017571598 0.42343834 0.3411404 0.3474563 -0.117025666
0.08201162 0.27830145 -0.07252908 0.06047747 0.057204563 0.2100784 0.012724612 -0.29924837
-0.107906535 -0.0016441998 -0.18458414 0.18177015 -0.15808603 -0.16857858 0.14252648 0.27133027
-0.043458957 -0.2035241 -0.1211005 0.057131637 0.15680346 0.36231947 -0.29467896 0.101975344

hiden_layers.3.bias f4 [64]
00000000: 7e27 773e 3098 893d 8f15 32be 5f61 48be
00000010: f73e 283d 365d fa3d 16d2 79bd cc3a 2a3d
00000020: 3d3e fe3d d972 d33c 19f8 803d e46f 5cbd
00000030: afe1 08be 2f73 e13d 399b 58bd cb06 ebbc
00000040: a366 4ebd 0ab9 c5bd 03d8 3fbd a960 803d
00000050: 9fd5 00be 582c d8bd f315 8a3e 5828 afbd
00000060: c556 3c3d 06dd 433b 4481 8ebc ce76 e73d
00000070: fefb 203e 60b4 65bd 97e0 24bc 759d 62be
00000080: 4a00 873d 45e3 693e 4d41 acbd 38b6 493e
00000090: 0671 a3bd 6413 dc3d 8773 303e 2e3f 01bd
000000a0: a622 82bb 7017 32bd c85e bf3d bd13 913d
000000b0: eecd 743c 265f 0c3d e893 4e3d 8555 053e
000000c0: a209 a33e a61c a33a 33c8 343b 8df5 a03d
000000d0: 3940 c83d 6ec0 f9bd 5197 95bd a264 06be
000000e0: a03c 193e 19b6 c1bc ec58 93bd e6dc b43d
000000f0: d4be a9bd 0c3a ca3c 7c23 35be d038 743c
0.24136159 0.067184806 -0.17391036 -0.19568394 0.041075673 0.1222481 -0.06099137 0.04155998
0.12414215 0.0258116 0.06297321 -0.053817645 -0.13367341 0.11008298 -0.052882407 -0.028689763
-0.05039085 -0.09654434 -0.046836864 0.062684365 -0.1258149 -0.10555333 0.2696987 -0.08552617
0.045981187 0.002988638 -0.017395623 0.11301957 0.15721127 -0.056080222 -0.010063312 -0.22130378
0.06591852 0.22840603 -0.08410893 0.19698417 -0.07980542 0.10745886 0.1723157 -0.031554393
-0.0039714156 -0.043479383 0.0934425 0.07083843 0.014941676 0.034270428 0.050434023 0.13020904
0.31843287 0.0012444451 0.0027585148 0.07859335 0.097778745 -0.12194906 -0.07304252 -0.13124326
0.14964533 -0.023646401 -0.07194695 0.088311955 -0.08288351 0.024685882 -0.17689317 0.014906123

hiden_layers.4.weight f4 [64, 64]
00000000: 0079 45be 14ca 41be b3ff 32bc 2ee1 2bbe
00000010: a930 c9bd ccd9 7fbe 01f2 72be 1c2c babe
00000020: 1eeb 93be 3d83 18be e8d8 683c c5f8 093e
00000030: f156 bc3c 2571 023e 023e ac3e 3314 463e
00000040: 3f9a 73be d8d4 8dbe 74b7 d13d 87da dd3e
00000050: ddb2 0ebd dc63 0f3e ac65 1c3e fc92 6f3e
00000060: 787a 543d 9c35 c7bb fe67 3d3d 5977 093e
00000070: 3598 36be 0a3b f93d cdd7 04be c11e 153e
00000080: e63c 72be 2645 b53d 7fd8 abbd 1b0c 733d
00000090: e667 2cbe 8ca8 0e3e cb16 b6bd 3904 c43d
000000a0: d8f0 b83e 16ed 98be 76dd 963e b59f 8fbd
000000b0: 5782 173e 5d84 9f3e 16a1 203e b9f7 3c3e
000000c0: 97e4 c2bd b8b4 08bd 45ef 013e 3d28 90be
000000d0: b7b4 4e3e df72 11bc 8627 63be 068a 7cbe
000000e0: a532 ad3d 979c c83c 0e1f 703d 3bda a13e
000000f0: 6cca 033d cfca 27be b8f1 ecbd f295 f93e
00000100: 91bb ea3d b71f 0dbe 3561 be3e 4c79 3e3e
00000110: 7b96 b5bb aca4 9abe 3ab7 dfbd ac14 bcbd
00000120: 10de 7e3e eb94 3b3e dd5c 8f3d d498 8cbc
00000130: 5047 493c 04a6 1dbe 0444 003e 2ba7 05bd
00000140: 8df2 cabc dde5 1dbe 563e 253e bac2 c0bd
00000150: b38b 39be 83d9 45be f992 d33e bc34 3bbe
00000160: e926 613e 5a83 1abe 157c 2dbe 40ce 063e
00000170: b1b3 f1bd 468d 103e 71c9 923d b7b9 a1bd
00000180: 1c70 213e 1aaf 9bbe c027 9cbe 2f3c d03e
00000190: 41f7 0b3e 247b c53d 7c54 79bc 50c7 f23d
000001a0: 5481 083d fbaf bc3e 4103 ff3d 2076 8b3e
000001b0: 0cb7 b5bd 9b7b cf3d e464 c8bd aa54 163e
000001c0: ad71 0abe 8b45 5bbe 16af b7bc de04 eabd
000001d0: c632 c6be 8c61 98bc 7011 433e ab7d 9dbd
000001e0: 7cd4 17be 9207 6ebe 1e43 a23d 1002 eabd
000001f0: e2d5 14be 40b1 e23b 69ac 46be d1b8 533e
00000200: e69f 90be 7561 a9bd 2d35 e2bd e285 6ebc
00000210: baa8 2f3e ae1a d93d 4c3f 88be 5457 8d3c
00000220: bb78 113e 04dd f23d 088f 0f3e 3bcc 99be
00000230: c345 c13d 4b20 253e 72e9 2cbe 2bba 063e
00000240: 80af 64be 81c9 f13c 6cb7 97be 20a3 14be
00000250: 4fbe 353e ad75 85be 1282 50be f7b2 153e
00000260: 4d09 abba 239b f23d c188 d0bd 02df a63e
00000270: 830c 21bc e5c1 d63d 951e 773d 00b9 3fbd
00000280: 2d2a 67bd 482d 1d3e d8b0 143c 8f3e 4c3e
00000290: eee0 5a3e e007 43be efc1 123d 295d d63d
000002a0: 4c46 3dbd db58 0a3a 3047 37be c64b d73c
000002b0: 9dbe d73d c6dc e2bd 5db2 71be a4b4 54be
000002c0: 90a4 303e ccff 833e 4b42 a9bd 5a84 7d3e
000002d0: 186f bd3c 69e1 f53d f777 0c3e ea60 f5bd
000002e0: 4164 a03e e515 743d bb7e 6e3e 4b95 6c3b
000002f0: 5290 48bd 5c5d 91be 42c9 7fbe ad97 2ebd
00000300: 3433 a03e 53bb 8a3e 183e 1bbe 9849 8e3d
00000310: 0e98 0d3e 1b4d 18be 96b9 30be 1c1a 24bd
00000320: 6f58 75bc bf94 c6bc c2a5 45be 3ba4 1dbe
00000330: 60ca ff3c 0c57 adbb 0ff1 303c 5d34 713e
00000340: 9f2b 8f3e b631 e73d 8305 a8bd 6971 c3bd
00000350: a0ba 22be 42d1 02be 9d40 36bd 1c85 8b3d
00000360: c588 673d ba66 13be e215 5fbe 9df0 e2bd
00000370: ceac 2ebd 2f30 8dbd 467a 55be 9bcc b2bd
00000380: fb04 c6bd 4bd8 67be 8062 d33d 4481 70be
00000390: c354 82be d19e 863e 206c 1dbe 0881 87be
000003a0: 91b0 053e 10ee 533d 9980 8e3e b78d 7e3e
000003b0: 6f30 e2bb ae26 9f3e 1016 96be 2b66 a3bd
000003c0: 858c a5bc e780 d9bd c8a8 8f3c 222f 28be
000003d0: 6c9a 853d 79d0 5f3d 9d1b 80be 2094 393e
000003e0: fabe bbbe 02cc 7fbe 8ddd a9bd 9be8 a2be
000003f0: 0602 f6bd 3b61 353c 2d65 28be 5d8f 0fbd
-0.19284439 -0.18924743 -0.010925221 -0.16785118 -0.09823734 -0.24985427 -0.2372513 -0.36361778
-0.28890318 -0.14893813 0.014211871 0.13473804 0.022990676 0.12738474 0.33641058 0.19343643
-0.23789309 -0.2770145 0.10240069 0.43330786 -0.034838546 0.14002937 0.1527316 0.23395914
0.051874608 -0.006079389 0.046241753 0.13424434 -0.178315 0.12169464 -0.12972946 0.14562513
-0.23656043 0.0885108 -0.08390903 0.059337717 -0.16836509 0.13931483 -0.08891066 0.09571118
0.3612125 -0.29868382 0.29465836 -0.070128836 0.14795814 0.31155673 0.1568645 0.18453874
-0.09516256 -0.03337547 0.1268893 -0.281557 0.20186125 -0.008877485 -0.22183046 -0.24662027
0.08456925 0.02448873 0.058623366 0.3161181 0.032175466 -0.16385959 -0.11569542 0.48747212
0.11461557 -0.1378163 0.37183538 0.18600959 -0.0055416203 -0.3020376 -0.109236196 -0.0918363
0.24889398 0.18318526 0.07000134 -0.017162718 0.012285069 -0.15395361 0.12525946 -0.032630127
-0.02477386 -0.15419717 0.1613706 -0.09412141 -0.18119697 -0.19321255 0.4132307 -0.18281835
0.219875 -0.15089169 -0.16941865 0.13164616 -0.118018515 0.14116392 0.07167328 -0.078967504
0.15765423 -0.3040703 -0.30499077 0.40670916 0.13668539 0.09642628 -0.015217897 0.11854422
0.033326462 0.36853012 0.124517925 0.2723856 -0.08872804 0.10130998 -0.09784868 0.14680734
-0.13519926 -0.21413247 -0.022422355 -0.114267096 -0.38710612 -0.018601201 0.1904962 -0.07689985
-0.1482715 -0.23245075 0.07922958 -0.11426175 -0.14534715 0.0069181025 -0.19401707 0.2067597
-0.28246993 -0.082705416 -0.11045299 -0.014558287 0.17154208 0.10600792 -0.26610792 0.017253555
0.14206211 0.11858562 0.14019406 -0.30038628 0.09437134 0.161256 -0.16885927 0.13156955
-0.22332573 0.02951503 -0.29632127 -0.14515352 0.17748378 -0.26066342 -0.20362118 0.14619051
-0.0013049036 0.11845996 -0.10182334 0.32592016 -0.009829643 0.10486201 0.0603319 -0.04680729
-0.056436706 0.15349305 0.009075366 0.19945739 0.21374866 -0.19045973 0.03582948 0.10466988
-0.04620962 0.0005277523 -0.1789825 0.026281249 0.105344035 -0.110772654 -0.23603196 -0.20772034
0.17250276 0.25781095 -0.082645975 0.2475752 0.023124263 0.12005884 0.13717638 -0.119813755
0.31326488 0.059591193 0.23290531 0.0036099728 -0.04896576 -0.2839154 -0.24979118 -0.042625118
0.31289065 0.27096042 -0.15160406 0.06947631 0.13827536 -0.14873163 -0.17258295 -0.040063962
-0.0149746975 -0.02424085 -0.19301513 -0.1539468 0.03122443 -0.005289918 0.01079966 0.23555131
0.27962968 0.112887785 -0.08204176 -0.09543116 -0.15891504 -0.12775138 -0.044495214 0.06812498
0.056526918 -0.14394656 -0.21785691 -0.110810496 -0.04264527 -0.06893956 -0.20847425 -0.08730432
-0.09668919 -0.22641103 0.10321522 -0.23486811 -0.25455293 0.26293042 -0.15373278 -0.2646563
0.13055636 0.051740706 0.27832487 0.24858747 -0.0069027464 0.31084198 -0.29313707 -0.07978471
-0.020208606 -0.10620289 0.017536536 -0.1642423 0.06523594 0.054642174 -0.25021067 0.18122911
-0.3666914 -0.24980167 -0.082942106 -0.3181809 -0.12012105 0.011070545 -0.16444845 -0.03504883

hiden_layers.4.bias f4 [64]
00000000: 7e56 973c 7993 2abd 4b32 0a3e 0992 17be
00000010: e0cd 933d 293f 9b3d 3a83 4e3e ace5 4bbe
00000020: fd78 32bd d0de 003d 584b ac3c 83ba e73d
00000030: 78cd 09bd 9deb 053d 2869 0b3d 57df 953d
00000040: 2582 a33c 8e7a e53c 236a 57bb 7650 213c
00000050: 440f fa3d 00c8 af3b fc36 c83d 3b06 0e3e
00000060: 5f92 19bd a6ec ae3c c931 e73c 2308 91bd
00000070: 3d1d cc3d ecb1 253e 8b58 3abe bedf c23d
00000080: b7ae 713d 4f78 ce3b d10d 243e f393 d7bd
00000090: b9e6 8a3e 275b 723e b7f9 6bbd 7f58 01be
000000a0: c3ae 17be 9aaa b1bc f90d 38be 161c 573e
000000b0: 92a6 32be 3b95 a5bd 544a 7ebd d4fa 0a3e
000000c0: 50bf c83d 925d 613d 822e 88bc f32c 3cbe
000000d0: 4395 3d3e 7179 07bc 07ee b23d a450 9b3c
000000e0: 2618 d3bd 7dac d63d 8482 7d3c c54d 1fbd
000000f0: f012 d43d 5f29 563e efd2 9abb 4248 c33d
0.01847386 -0.041644547 0.13495748 -0.14801802 0.07217002 0.07580406 0.20167246 -0.19911832
-0.043572415 0.03146249 0.02103202 0.11314871 -0.033643216 0.0326954 0.03403583 0.07317989
0.019959519 0.02801254 -0.003286966 0.009845844 0.12209943 0.005364418 0.097761124 0.13869564
-0.037493106 0.021353077 0.028221982 -0.0708163 0.09966514 0.16181153 -0.18197839 0.09515332
0.05900451 0.006300963 0.16020896 -0.10526266 0.27129152 0.23667584 -0.057611194 -0.12631415
-0.1481276 -0.021687794 -0.1797408 0.21006808 -0.17446354 -0.08085104 -0.062082604 0.13572246
0.09802115 0.055020876 -0.01662374 -0.18376522 0.1851397 -0.0082687 0.08736806 0.01895935
-0.1030734 0.10482118 0.015473012 -0.038892526 0.103551745 0.2091422 -0.0047248523 0.095352665
