results/13_less_points_around/epoch500/model_weights.pth (torch, 486655 bytes, 88 tensors)

init_layer.0.weight f4 [64, 5]
0	0xbe1e2190	-0.1544249
1	0x3e4ba3f1	0.19886757
2	0x3ec1ae0f	0.3782811
3	0xbe82d989	-0.2555659
4	0xbe4d4a0e	-0.20047781
5	0x3eb49c68	0.35275578
6	0x3e89e8d9	0.2693546
7	0x3eac22af	0.3362021
8	0xbd8911e3	-0.06692865
9	0xbe71c09a	-0.23608628
10	0xbe888b8e	-0.26668972
11	0x3d6c1d95	0.0576454
12	0xbe9e7276	-0.30946702
13	0xbe8edb27	-0.27901575
14	0xbe34f711	-0.17672373
15	0xbe0bf00f	-0.13665794
16	0xbe3d2d65	-0.18474348
17	0x3e46aad4	0.19401103
18	0x3e96657c	0.293743
19	0xbdd2d9a7	-0.1029542
20	0xbebc530d	-0.36782113
21	0xbe0156a4	-0.12630707
22	0xbc8183d4	-0.01580993
23	0x3e21fde7	0.15819512
24	0x3e5bbb15	0.21458085
25	0x3e4e6f42	0.20159629
26	0x3e218647	0.15773879
27	0x3eb26155	0.34839883
28	0x3e377af0	0.1791799
29	0xbe5941a3	-0.21216445
30	0x3eeb0819	0.45904616
31	0xbe844cf4	-0.2583996
32	0xbd7665af	-0.060155567
33	0xbe070820	-0.13186693
34	0xbe8fd04d	-0.28088608
35	0xbe11cacb	-0.14237516
36	0x3e3c5393	0.18391256
37	0x3e00b9f0	0.1257093
38	0xbe23db69	-0.16001667
39	0x3e82b4bf	0.25528523
40	0xbe241c75	-0.1602648
41	0xbe03578c	-0.12826365
42	0x3e51fa9f	0.2050576
43	0x3e5dcbb6	0.21659741
44	0xbdfc2c40	-0.123131275
45	0xbe481025	-0.19537409
46	0xbe4514ae	-0.1924617
47	0xbe07bc1a	-0.13255349
48	0x3cf2d8b1	0.029644342
49	0xbe85f9b0	-0.2616706
50	0xbd406ce9	-0.046978865
51	0x3ce8bebe	0.028411265
52	0x3e16e15c	0.14734405
53	0x3c6b86f7	0.01437544
54	0x3d8e530d	0.069494344
55	0xbe115527	-0.1419264
56	0xbe2a7cf7	-0.16649233
57	0x3e6111dd	0.2197947
58	0x3c9ccbce	0.01914015
59	0xbd0bb9ef	-0.034112867
60	0xbe5c0eb1	-0.2148998
61	0xbe9a2966	-0.3010971
62	0x3d2eaf94	0.042647913
63	0x3dc24f64	0.09487799
64	0x3e820807	0.2539675
65	0xbe0273b7	-0.12739454
66	0xbe3164d5	-0.1732362
67	0x3bd6a3a9	0.0065502715
68	0x3d619a59	0.055078838
69	0x3e64982c	0.22323674
70	0x3dd22a5d	0.102619864
71	0xbe25a79d	-0.1617722
72	0xbe08e2a6	-0.1336771
73	0xbc999a65	-0.018750379
74	0xbe8fa0ae	-0.28052276
75	0xbd33b7dd	-0.043876518
76	0x3e1e1539	0.15437783
77	0x3e8f0491	0.2793317
78	0x3def83bb	0.116950475
79	0xbe609a14	-0.21933776
80	0xbe54c0d2	-0.2077668
81	0x3d3140a0	0.04327452
82	0xbd70dc09	-0.058803592
83	0x3c175125	0.009235655
84	0x3d9912d3	0.074742936
85	0x3e608011	0.21923853
86	0x3e0aed08	0.13566983
87	0xbddd7c8a	-0.108147696
88	0x3e2a8773	0.16653232
89	0xbe1fc9cc	-0.15604323
90	0x3cdb17eb	0.026744803
91	0xbc5d9f27	-0.013526714
92	0xbe82dc98	-0.25558925
93	0x3e65a6d3	0.2242692
94	0x3e1a160c	0.15047473
95	0x3e295a6e	0.16538402
96	0xbe0c20f8	-0.13684452
97	0x3d9e0928	0.0771659
98	0x3e55a26b	0.20862739
99	0x3d9fcb49	0.078024454
100	0xbe06dd47	-0.13170348
101	0xbe9bf87b	-0.30463013
102	0x3ca94e19	0.020667123
103	0x3dbef51d	0.093240954
104	0xbe4eefa1	-0.20208599
105	0xbdf45b37	-0.1193146
106	0x3e8b849f	0.2724962
107	0x3da5df80	0.0809927
108	0xbdec8ed2	-0.11550678
109	0xbe6b19d0	-0.22959065
110	0x3c146882	0.00905812
111	0x3e6a533b	0.22883312
112	0x3c8b94a8	0.017038658
113	0xbe8a3dd5	-0.270003
114	0x3e0b2299	0.13587417
115	0xbe03dd78	-0.12877452
116	0x3e0026e1	0.12514831
117	0x3e068e8f	0.1314032
118	0x3dd4061b	0.10352727
119	0xbe75d1c6	-0.24005803
120	0x3e0b9f89	0.13635077
121	0xbd87046e	-0.06592642
122	0x3d9c7cca	0.07640989
123	0x3df10c67	0.11769944
124	0x3e46fc57	0.19432198
125	0x3e80be7a	0.25145322
126	0x3e4b2638	0.19838798
127	0x3d7d2580	0.06180334
128	0x3e528356	0.20557913
129	0x3d9a4071	0.075318225
130	0xbe066876	-0.13125786
131	0x3e8a5dc7	0.2702467
132	0xbd1b0027	-0.037841942
133	0xbca0f015	-0.01964573
134	0x3cfc9151	0.030831011
135	0x3e493501	0.19649126
136	0x3e1be4a5	0.1522394
137	0xbe576aaf	-0.2103679
138	0x3df6279e	0.12019275
139	0x3d1fa314	0.038973883
140	0xbdf18058	-0.11792058
141	0x3e3e13f1	0.18562295
142	0xbe8533f8	-0.26016212
143	0x3d9251eb	0.07144531
144	0x3e34c05b	0.17651503
145	0x3ccae8ae	0.024769153
146	0xbe591772	-0.2120035
147	0x3b224710	0.0024761595
148	0xbd343169	-0.043992434
149	0x3d9c1443	0.07621052
150	0xbe747b73	-0.23875217
151	0xbdeacadc	-0.114644736
152	0x3d7f4e89	0.062330756
153	0x3e0c5205	0.13703163
154	0xbe828831	-0.2549453
155	0xbe68f2df	-0.22748898
156	0x3e9ae8dd	0.30255786
157	0x3e026565	0.12733991
158	0xbe6dbc9e	-0.23216483
159	0xbd02e23f	-0.031954046
160	0x3ec16e67	0.37779543
161	0xbd8f1cd6	-0.06987922
162	0x3e927318	0.28603435
163	0x3dd5dd65	0.10442618
164	0x3b92ffa1	0.0044860397
165	0xbb10cfee	-0.0022096592
166	0xbe87b791	-0.26507238
167	0xbdfdc5a8	-0.123912156
168	0x3d2dd37f	0.042438027
169	0xbca1e038	-0.019760236
170	0x3df75853	0.120773934
171	0xbe3f99f1	-0.18711068
172	0xbd783bd8	-0.060603946
173	0x3d39a191	0.045320097
174	0xbdcabd31	-0.09899367
175	0x3e46d694	0.19417793
176	0x3dbddb5b	0.09270354
177	0x3de9bedd	0.114133574
178	0xbe8de963	-0.27717122
179	0x3ded030b	0.11572846
180	0xbe57d8d9	-0.21078815
181	0x3d7c7f95	0.06164511
182	0x3dbb5800	0.09147644
183	0x3e5df45a	0.21675244
184	0x3e78b855	0.24289067
185	0xbe095c1b	-0.13414042
186	0xbe284579	-0.16432752
187	0xbddafadd	-0.106923796
188	0xbe378467	-0.17921601
189	0xbe4b4b09	-0.19852842
190	0xbe65bd55	-0.22435506
191	0xbdb4a515	-0.088205494
192	0xbe2bab67	-0.16764604
193	0xbcf3b476	-0.029749136
194	0x3d7fdd69	0.062467013
195	0xbe4be924	-0.19913155
196	0x3e92fb0d	0.28707162
197	0x3ccb1136	0.02478848
198	0xbe1efbbf	-0.15525721
199	0x3db4b99d	0.088244654
200	0xbc095f72	-0.008384572
201	0xbdf32d1f	-0.118738405
202	0x3e82d280	0.25551224
203	0x3e4208cd	0.1894867
204	0x3d618308	0.0550566
205	0x3e35755d	0.17720552
206	0x3dbd19dc	0.09233448
207	0xbe1dbbe2	-0.15403703
208	0x3d9c2792	0.07624735
209	0x3e1dd9de	0.15415141
210	0x3e6c9b13	0.23106031
211	0xbcbbdc66	-0.022932243
212	0xbe23de44	-0.16002756
213	0x3e73d312	0.23810986
214	0xbe8790f1	-0.2647777
215	0xbe1380a3	-0.1440454
216	0x3db5f8a8	0.08885318
217	0x3e47bb9b	0.1950516
218	0x3e6686b8	0.22512329
219	0x3e15a2f0	0.14612937
220	0xbc483443	-0.012219491
221	0xbc5532c0	-0.013012588
222	0xbe773182	-0.2413998
223	0x3cd50b58	0.026006386
224	0xbe317d78	-0.17333019
225	0x3e737c38	0.23777854
226	0xbe4a6739	-0.19765939
227	0x3e88e65c	0.2673825
228	0xbe869434	-0.26284945
229	0xbe60d198	-0.21954954
230	0x3ea58338	0.32326674
231	0xbea86558	-0.3288982
232	0xbe66d147	-0.2254077
233	0x3e3ed898	0.18637311
234	0x3df55526	0.119791314
235	0xbe7add7a	-0.24498549
236	0xbd253ebd	-0.040343035
237	0x3cc31f25	0.023818562
238	0x3dcf1b94	0.10112682
239	0x3e8067ce	0.25079197
240	0x3e2163ae	0.15760681
241	0x3d83a01c	0.06427023
242	0xbe2d4d86	-0.16924104
243	0x3e2fa1f9	0.17151631
244	0xbe921ae9	-0.28536156
245	0x3e02efea	0.12786832
246	0x3c156940	0.009119332
247	0xbe95cb59	-0.29256704
248	0xbe8f0450	-0.27932978
249	0x3e48d0b6	0.19610867
250	0xbe1a923c	-0.15094846
251	0x3eb87f63	0.36034688
252	0xbe1f4094	-0.15551978
253	0x3e7b67ad	0.24551268
254	0xbdb2bc2d	-0.08727298
255	0xbed8faff	-0.42378995

init_layer.0.bias f4 [64]
0	0x3b4696d9	0.0030302315
1	0x3ddc6dbf	0.1076312
2	0xbddd9ddf	-0.10821127
3	0xbdc13a32	-0.09434928
4	0xbdd050ab	-0.10171636
5	0xb9d9fe99	-0.00041579155
6	0x3b05530b	0.0020343687
7	0x3de4b3ef	0.11167132
8	0xbdb88787	-0.09010225
9	0xbda53333	-0.08066406
10	0x3d8cd7d9	0.06877107
11	0x3e70bc3d	0.23509307
12	0x3dcb1dd4	0.09917799
13	0xbda25bfe	-0.07927702
14	0x3c94204f	0.018081812
15	0xbde8e02e	-0.11370884
16	0xbdd3b3b9	-0.10337014
17	0x3c850805	0.016239176
18	0xbe202228	-0.1563803
19	0x3dcabd48	0.09899384
20	0xbbac3166	-0.005254912
21	0xbd9b22c7	-0.075749926
22	0x3dfd8228	0.12378341
23	0x3d608ffe	0.05482482
24	0x3d66713f	0.056260344
25	0x3d9327f6	0.07185356
26	0x3e3aa08d	0.18225308
27	0x3e21b62c	0.1579215
28	0xbd2b4bf8	-0.041820496
29	0x3df53435	0.11972848
30	0x3ce39198	0.027779385
31	0xbc023959	-0.007948243
32	0x3e4e41af	0.20142244
33	0xbe09d0d4	-0.13458568
34	0xbe2ca452	-0.16859558
35	0xbd539740	-0.051657915
36	0xbd2c28cb	-0.04203109
37	0x3c139694	0.009008069
38	0x3e20e2fe	0.1571159
39	0x3e05a969	0.13052906
40	0xbe23e8dc	-0.16006798
41	0x3d631261	0.05543745
42	0x3e1ea788	0.15493596
43	0xbdf99e52	-0.121884
44	0x3d6556e8	0.055991083
45	0x3dc38312	0.09546484
46	0x3b5c50ab	0.0033617418
47	0x3e380235	0.17969592
48	0x3dc536a0	0.096295595
49	0x3e254e18	0.16143072
50	0xbe07b425	-0.13252313
51	0x3e2c803b	0.16845791
52	0x3e19eabb	0.15030949
53	0x3e2b0f05	0.16704948
54	0x3db630ef	0.08896052
55	0xbc33b5bd	-0.010968623
56	0xbdb03045	-0.08602957
57	0x3d6a99f4	0.057275727
58	0xbd9c43bf	-0.07630109
59	0xbdabc3bd	-0.083869435
60	0x3d03dfe1	0.03219593
61	0xbd90f4d6	-0.07077949
62	0xbe18a462	-0.14906457
63	0x3b2a1314	0.0025951313

hiden_layers.0.weight f4 [64, 64]
0	0x3df60b71	0.12013901
1	0x3dffc980	0.12489605
2	0x3e44c043	0.19213967
3	0x3dd79486	0.105263755
4	0xbe335056	-0.17511114
5	0xbd5fcf4d	-0.054641057
6	0xbe5e771c	-0.21725124
7	0x3d19ef93	0.03758199
8	0x3dc9f4fe	0.09861182
9	0x3e0ff96c	0.1405999
10	0x3ccd9b07	0.025098337
11	0xbd098d72	-0.03358216
12	0xbdd4a0f9	-0.103822656
13	0x3e0b5c7c	0.13609499
14	0xbe24c078	-0.16089046
15	0xbc8457f0	-0.016155213
16	0x3da283f7	0.079353265
17	0xbe46b318	-0.19404256
18	0xbdf86170	-0.1212796
19	0x3dd6deb1	0.10491694
20	0x3e41b652	0.18917206
21	0xbdfe8ae3	-0.12428834
22	0x3e5dbb0b	0.21653382
23	0xbe157dd7	-0.14598785
24	0xbdda19c7	-0.10649448
25	0xbd7f3f84	-0.062316433
26	0xbbf027ac	-0.007328948
27	0xbe595e7f	-0.21227454
28	0x3e450a73	0.19242267
29	0xbe25a80c	-0.16177386
30	0xbe338420	-0.1753087
31	0xbca8bd37	-0.020598037
32	0xbe3bf09d	-0.18353505
33	0xbd0d96fe	-0.034567825
34	0x3d63bfce	0.05560284
35	0x3d8a6b5b	0.06758758
36	0xbe0c7c92	-0.13719395
37	0x3e4be25d	0.1991057
38	0x3e080ffb	0.13287346
39	0x3d56a797	0.05240592
40	0x3da6fc38	0.08153576
41	0xbe4b96ba	-0.19881716
42	0x3d234158	0.03985724
43	0xbd0fd674	-0.035116628
44	0x3da38dc0	0.07986021
45	0xbe3530a0	-0.1769433
46	0xbe014d5a	-0.12627164
47	0x3c56cae9	0.013109901
48	0x3e1144ee	0.14186451
49	0x3e0fed61	0.14055397
50	0xbe054fdc	-0.13018745
51	0x3db9aaa4	0.0906575
52	0x3deea6ac	0.11652884
53	0x3da7533b	0.08170172
54	0xbe608519	-0.21925773
55	0xbe08821d	-0.13330884
56	0xbd47e0c8	-0.048798352
57	0xbda4b396	-0.08042066
58	0xbe3897dc	-0.1802668
59	0xbbc5c9d8	-0.0060360245
60	0xbe51d1c1	-0.20490171
61	0xbd3cf4a2	-0.046131738
62	0x3da4f7ab	0.080550514
63	0x3e2f2a41	0.17105962
64	0xbd94b9bb	-0.07261988
65	0xbe609ba0	-0.21934366
66	0xbda5a5fd	-0.080883004
67	0x3dc8d54d	0.09806309
68	0x3dcbaecf	0.099454515
69	0xbe373276	-0.17890343
70	0xbe33e710	-0.17568612
71	0xbd512c0b	-0.051067393
72	0xbde7d6a6	-0.11320238
73	0xbd3ead8a	-0.04655222
74	0x3d610081	0.05493212
75	0xbe2ae8ea	-0.16690412
76	0xbe1bb4bc	-0.15205663
77	0xbd94000c	-0.072265714
78	0x3c304ad9	0.010760033
79	0xbe10eb54	-0.1415227
80	0x3e2c83e5	0.16847189
81	0x3d8f1268	0.069859326
82	0x3e048259	0.12940349
83	0xbde59892	-0.11210741
84	0x3d90c915	0.07069603
85	0xbcc2f603	-0.023798948
86	0xbe332386	-0.1749402
87	0xbe708879	-0.2348956
88	0x3d72f1e0	0.0593127
89	0xbe43f57a	-0.1913661
90	0xbe490af8	-0.1963309
91	0xbdcb4566	-0.09925346
92	0xbe30b31a	-0.17255822
93	0x3dfe0d07	0.124048285
94	0x3da63063	0.08114698
95	0x3e2ecaf4	0.17069608
96	0x3e3bf242	0.18354133
97	0x3db2757b	0.08713814
98	0x3e4cff15	0.20019181
99	0xbe4f602d	-0.20251532
100	0x3df62748	0.12019211
101	0x3e8bdd48	0.27317262
102	0x3e0c9ef9	0.13732518
103	0xbe5ceca8	-0.21574652
104	0xbe267bda	-0.16258183
105	0xbe82726c	-0.25477922
106	0xbc4aef56	-0.012386164
107	0x3d3ae10c	0.045624778
108	0xbdeab9c3	-0.114612125
109	0x3b7462dc	0.003729037
110	0xbe7df236	-0.24799427
111	0x3d81be71	0.06335152
112	0x3bf3b803	0.0074377074
113	0xbe31b625	-0.17354639
114	0x3ddea1f5	0.108707346
115	0xbe2d77b1	-0.1694019
116	0xbd68e088	-0.056854755
117	0xbe2caa38	-0.16861808
118	0xbdcd5ec0	-0.10027838
119	0xbcb39819	-0.021923112
120	0x3e03ee45	0.12883861
121	0xbdbbaca7	-0.0916379
122	0x3e973943	0.29535875
123	0x3d731769	0.059348498
124	0xbd9ca6ad	-0.076489784
125	0xbe398797	-0.1811813
126	0x3e62db50	0.22153974
127	0xbe4dc640	-0.20095158
128	0x3cc30870	0.023807734
129	0xbd417f90	-0.047240794
130	0xbe1c7496	-0.15278849
131	0xbe2cb20f	-0.16864799
132	0x3ded5df1	0.115901835
133	0x3db3e5de	0.08784078
134	0xbe244f7f	-0.1604595
135	0xbe4b88d6	-0.19876418
136	0x3e1c827d	0.15284152
137	0x3e1d6145	0.15369137
138	0xbdf2f9a6	-0.11864023
139	0x3df982f7	0.12183183
140	0xbd11887a	-0.035530545
141	0x3dc58161	0.09643818
142	0x3ddb2a83	0.10701468
143	0x3d877a12	0.0661508
144	0xbcdae5e6	-0.026720952
145	0x3e22f56b	0.15913932
146	0xbcab7574	-0.02093003
147	0x3ced64f3	0.0289788
148	0x3db43554	0.08799234
149	0xbe3781b4	-0.17920572
150	0xbd9c9074	-0.0764474
151	0xbe000cec	-0.1250493
152	0x3ded3567	0.11582451
153	0x3d54d462	0.051960357
154	0x3deb4023	0.114868425
155	0x3d8fd91c	0.07023832
156	0x3bc7a2e6	0.006092417
157	0x3e28d1a5	0.16486223
158	0xbe16fe0c	-0.14745349
159	0xbe309653	-0.17244844
160	0x3e0ee79d	0.13955541
161	0x3d0de434	0.03464146
162	0x3d488d14	0.048962668
163	0x3d1456e8	0.036215693
164	0xbe6647ae	-0.22488281
165	0x3d9c1ad3	0.07622304
166	0xbd6d5450	-0.057941735
167	0x3e11da17	0.14243351
168	0xbdf30e3d	-0.1186795
169	0x3e10b5ef	0.14131902
170	0x3d536707	0.051611926
171	0x3dd484c1	0.10376883
172	0x3e1fe153	0.15613298
173	0xbdd44b36	-0.10365908
174	0xbd98bdd5	-0.074580826
175	0x3d57619c	0.052583322
176	0x3e444ef7	0.19170748
177	0x3da17027	0.078827195
178	0x3e1a2b9d	0.150557
179	0xbe4c7ecc	-0.19970244
180	0xbde3d07e	-0.11123751
181	0x3e2bb266	0.16767272
182	0x3c8c555b	0.017130544
183	0xbe1afae4	-0.1513477
184	0x3c3f3117	0.011669419
185	0x3d8acb6c	0.06777081
186	0xbda77d2c	-0.081781715
187	0xbcab0119	-0.020874547
188	0x3df3cc75	0.119042315
189	0x3d81afcc	0.06332359
190	0x3d3c397b	0.045953255
191	0xbe7b0b6c	-0.24516076
192	0xbe685149	-0.22687258
193	0x3dba4d32	0.09096755
194	0x3dcb2b3e	0.09920357
195	0xbe427698	-0.18990552
196	0xbe46471a	-0.1936306
197	0xbe2039e9	-0.15647091
198	0x3e52af65	0.2057472
199	0x3e25aecc	0.16179961
200	0xbe665af5	-0.22495635
201	0x3d6a97e5	0.057273764
202	0x3e219609	0.1577989
203	0x3cf3e0b4	0.029770233
204	0x3e340060	0.17578268
205	0xbe38288d	-0.17984219
206	0x3e19fbe7	0.150375
207	0xbe1b78c5	-0.15182789
208	0xbcbe52ca	-0.023232836
209	0x3dde2f33	0.10848846
210	0x3de83566	0.1133831
211	0x3e1d479a	0.15359345
212	0xbdb79a13	-0.08964934
213	0xbc77ccbd	-0.015124497
214	0x3dc06790	0.09394753
215	0xbe663b16	-0.22483477
216	0x3d0f50cf	0.034989174
217	0xbd98b661	-0.07456661
218	0x3e1459fc	0.14487451
219	0x3db8d572	0.090250865
220	0x3d83087c	0.06398103
221	0x3d24b4c9	0.040211473
222	0x3d75e932	0.060036846
223	0x3dafce4f	0.08584272
224	0x3bd2b086	0.0064297346
225	0x3c543104	0.012951139
226	0x3e0cbf5f	0.13744877
227	0xbd1ba6c5	-0.03800084
228	0x3baea02c	0.0053291526
229	0x3de412d1	0.111364014
230	0x3e8504e6	0.259803
231	0x3dea2469	0.11432726
232	0xbe384941	-0.17996694
233	0xbc1fbb25	-0.009749209
234	0x3d886ee2	0.06661774
235	0xbe17e51c	-0.14833492
236	0x3e9cfdd2	0.306624
237	0x3e28381e	0.16427657
238	0x3e1c1dcb	0.1524574
239	0x3ba8c159	0.005150002
240	0xbd8bd704	-0.0682812
241	0xbd7f84c6	-0.062382482
242	0xbe67281e	-0.22573897
243	0x3e2a0037	0.16601644
244	0x3d981938	0.07426685
245	0xbcf14e50	-0.029456288
246	0x3d62bb8c	0.05535464
247	0x3da26e50	0.07931197
248	0x3d8d1897	0.06889456
249	0xbd8aa451	-0.06769622
250	0x3e82194a	0.2540992
251	0x3e174d79	0.14775647
252	0xbe090216	-0.13379702
253	0xbdbc0288	-0.0918017
254	0x3e29c8db	0.16580527
255	0xbe018dac	-0.126517

hiden_layers.0.bias f4 [64]
0	0xbd351f3f	-0.04421925
1	0xbd8b831b	-0.06812116
2	0x3c0803df	0.008301704
3	0x3d9a839e	0.07544635
4	0x3da1d03d	0.079010464
5	0x3c9b403f	0.018951533
6	0x3de204d7	0.110360794
7	0x3d9c8d7f	0.07644176
8	0x3d2a2882	0.041542538
9	0xbaefd59f	-0.0018297917
10	0xbe07ac14	-0.13249236
11	0xbd2d4c40	-0.042309046
12	0xbe0544e5	-0.13014562
13	0x3cdcc08f	0.026947288
14	0xbd3dd51f	-0.046345826
15	0x3dc05f46	0.09393172
16	0x3c843043	0.016136294
17	0x3d146fcd	0.036239434
18	0xbbc43097	-0.0059872377
19	0x3d93d59b	0.072184764
20	0xbda669ae	-0.081256256
21	0xbab886cc	-0.0014078259
22	0xbe1d8588	-0.1538297
23	0x3def3fb6	0.11682074
24	0x3cef8eb4	0.02924285
25	0x3e19ed92	0.15032032
26	0xbdd88318	-0.10571879
27	0xbd990889	-0.07472331
28	0xbd58655b	-0.052831035
29	0x3ccdd145	0.025124202
30	0xbdd112af	-0.10208642
31	0xbd378456	-0.04480394
32	0xbe377d68	-0.17918932
33	0xbc3c8c60	-0.011508077
34	0x3dfac0bc	0.122437924
35	0xbdc74445	-0.09729818
36	0x3d129e8a	0.035795726
37	0x3cc9047a	0.024538267
38	0xbd459457	-0.04823717
39	0xbd5afe92	-0.053465433
40	0x3d9b021f	0.07568764
41	0x3dd7af54	0.10531488
42	0xbda45a1c	-0.080249995
43	0x3d9b29db	0.07576343
44	0xbd421af8	-0.047389
45	0xbde3c618	-0.11121768
46	0x3c4fe213	0.012688178
47	0xb82a75b9	-4.0640796e-05
48	0xbd534936	-0.05158349
49	0xbd3bb390	-0.04582554
50	0xbdc599d6	-0.096484825
51	0x3cf9eeea	0.03050943
52	0x3cda6c90	0.026663095
53	0xbc251be3	-0.0100774495
54	0xbe1434b3	-0.14473228
55	0xbcfa555b	-0.030558279
56	0x3dd69103	0.104768775
57	0x3de428d9	0.111406036
58	0xbd8bbba3	-0.06822898
59	0xbddc386f	-0.10752951
60	0xbd92575f	-0.07145571
61	0xbd1293d8	-0.035785526
62	0x3d273786	0.040824436
63	0xbdf1bbd4	-0.118034035

hiden_layers.1.weight f4 [64, 64]
0	0xbdf0d1a2	-0.11758734
1	0xbd01625f	-0.031587955
2	0xbde30bb7	-0.11086219
3	0x3c543056	0.012950977
4	0x3e1e7ccf	0.15477298
5	0xbe26578a	-0.16244331
6	0xbeb8cbe8	-0.36093068
7	0xbb245ac9	-0.0025078526
8	0xbe125d6c	-0.1429345
9	0xbe22c56c	-0.15895623
10	0x3dde8768	0.108656704
11	0x3d132a4f	0.03592902
12	0xbde8d4ec	-0.113687366
13	0x3d27be5e	0.040953033
14	0xbe0618b3	-0.1309536
15	0xbe814709	-0.25249508
16	0x3eb246ce	0.34819645
17	0x3db5a0a3	0.0886853
18	0xbe2a446a	-0.1662766
19	0xbd11eb60	-0.03562486
20	0x3ddb4d6f	0.10708129
21	0x3e240722	0.16018346
22	0xbdd8d324	-0.10587147
23	0xbe0f0c43	-0.13969521
24	0xbe898c5d	-0.268649
25	0x3e02af59	0.12762202
26	0xbc3781d8	-0.011200391
27	0x3e4d327d	0.20038791
28	0xbe27344e	-0.16328546
29	0x3dd70544	0.10499051
30	0x3e27be06	0.16381082
31	0x3dea9248	0.11453682
32	0xbd9cb725	-0.076521195
33	0x3e8c8b82	0.27450186
34	0x3db615ed	0.08890901
35	0x3d7f210f	0.062287387
36	0xbdeda5d7	-0.11603897
37	0x3dd9244f	0.106026284
38	0xbe9d1e22	-0.30687052
39	0x3e15bf34	0.1462372
40	0x3e65e8e5	0.22452123
41	0x3e334703	0.17507558
42	0x3e0f752f	0.14009546
43	0xbe3c6f63	-0.18401866
44	0x3e8957c6	0.26824778
45	0x3e23acd5	0.15983899
46	0x3e2e17bf	0.17001246
47	0x3e5b989f	0.21444939
48	0x3e5c918e	0.215399
49	0xbe7ac186	-0.24487886
50	0xbe85ece6	-0.26157302
51	0xbe3fa165	-0.18713911
52	0x3e55d9e5	0.20883901
53	0x3e660fda	0.22466984
54	0x3e399474	0.18123037
55	0xbe149455	-0.14509709
56	0x3e0dbdff	0.13842009
57	0xbdca0054	-0.09863344
58	0xbe881d3d	-0.26584807
59	0x3c91ef22	0.017814223
60	0x3ce998eb	0.0285153
61	0x3e4eba3c	0.2018823
62	0xbcb4b1f4	-0.02205751
63	0x3e402517	0.18764149
64	0x3d9800e1	0.07422043
65	0x3da00a43	0.07814457
66	0x3e329c2b	0.17442386
67	0x3e3b6187	0.18298922
68	0xbdd30f53	-0.10305657
69	0x3e4a6944	0.19766718
70	0xbe84ba1e	-0.25923246
71	0xbdeb06ce	-0.11475907
72	0xbe19425b	-0.14966719
73	0x3e22af85	0.15887268
74	0x3c1aa296	0.009438178
75	0x3e0a84f7	0.13527285
76	0x3e01f4af	0.12690996
77	0xbe63b2ee	-0.22236225
78	0x3d9ba7a6	0.07600336
79	0x3d8b2f43	0.06796124
80	0xbe58cae2	-0.21171144
81	0xbd936a1d	-0.07197974
82	0x3dc00e09	0.09377677
83	0xbe028e2f	-0.12749551
84	0x3e1fc405	0.1560212
85	0x3e4d63b3	0.20057563
86	0xbe4622f1	-0.19349267
87	0xbe5caf9e	-0.21551368
88	0x3e442bd5	0.19157346
89	0xbdf18767	-0.11793404
90	0x3db50c9a	0.08840294
91	0x3e01a669	0.12661137
92	0xbb565892	-0.00327066
93	0xbe43441d	-0.19068952
94	0x3e639e8b	0.22228448
95	0x3e65c9ed	0.2244031
96	0x3d5f1245	0.054460783
97	0xbe2d8048	-0.16943467
98	0xbde9d921	-0.11418367
99	0x3e6dc34d	0.23219033
100	0x3d5fa7a3	0.05460323
101	0x3e5ac273	0.21363239
102	0xbe4a890c	-0.19778842
103	0x3d1d0d9f	0.03834307
104	0x3dbdce74	0.092678934
105	0x3d6f3c73	0.05840726
106	0xbdaf9998	-0.085742176
107	0xbe1b02a9	-0.15137734
108	0x3e10242b	0.14076297
109	0x3ca6395c	0.020291023
110	0x3d42ed63	0.04758967
111	0x3dce65b3	0.10077991
112	0x3bdc1d56	0.0067173643
113	0x3dd4bb58	0.103872955
114	0x3da0827e	0.078373894
115	0x3d4d4b3e	0.050120585
116	0x3e769d3e	0.2408342
117	0x3d887d9e	0.066645846
118	0x3c9d4d27	0.019201828
119	0x3e2f3e0b	0.17113511
120	0xbdfdfe3b	-0.12402006
121	0xbe1f2441	-0.15541174
122	0xbe15e650	-0.14638638
123	0x3df16365	0.11786536
124	0xbe10525d	-0.14093919
125	0xbd390ab2	-0.045176215
126	0xbdc8da2b	-0.09807237
127	0xbe46ed4b	-0.19426458
128	0xbe206c5d	-0.15666337
129	0xbd50a152	-0.050935097
130	0x3dc84773	0.09779253
131	0xbdd340cf	-0.10315096
132	0xbda78b67	-0.08180886
133	0xbe0ba3b7	-0.13636671
134	0xbe7af1d3	-0.24506311
135	0xbe646ff4	-0.22308332
136	0xbe7a7a94	-0.24460822
137	0xbcb43465	-0.02199764
138	0x3e03aeda	0.1285967
139	0x3da28d11	0.079370625
140	0x3dd74fca	0.105132654
141	0x3e1a0da3	0.15044264
142	0xbd79d66f	-0.060995515
143	0xbe71ff6e	-0.23632595
144	0xbe0de761	-0.13857795
145	0x3df325d6	0.11872451
146	0xbd8483b7	-0.06470435
147	0xbd94e4ef	-0.07270228
148	0xbd051fe1	-0.032501105
149	0x3d336d85	0.043805618
150	0xbdd67d31	-0.10473097
151	0xbe04ae68	-0.12957156
152	0x3e43cfdf	0.19122265
153	0xbe36dbae	-0.17857239
154	0xbe6e3839	-0.23263635
155	0xbe1cfce8	-0.15330851
156	0xbe309798	-0.17245328
157	0xbdebce94	-0.11514011
158	0x3dac9c26	0.084282205
159	0xbe0f5767	-0.13998185
160	0x3d045fe2	0.032318003
161	0x3e8c30f1	0.2738109
162	0x3e1cbd04	0.15306479
163	0x3dc60522	0.09668948
164	0xbd4abe72	-0.04949803
165	0x3cdf832f	0.027284233
166	0xbe765f32	-0.24059752
167	0xbd5ab77b	-0.053397637
168	0xbe28cf9b	-0.16485445
169	0xbe4c58d7	-0.19955765
170	0x3e65dfd8	0.22448671
171	0x3c1eb49b	0.009686614
172	0xbe09fdd8	-0.1347574
173	0xbdbfc13f	-0.09363031
174	0x3e6383cc	0.22218245
175	0x3e065eba	0.13122073
176	0x3c8e1422	0.017343584
177	0x3e4c838f	0.1997206
178	0x3c90f957	0.01769702
179	0x3e48b2fc	0.19599527
180	0xbe125fea	-0.14294401
181	0x3d840487	0.06446176
182	0xbd8ca69f	-0.06867718
183	0x3dd8e2f0	0.1059016
184	0x3dd0386a	0.1016701
185	0x3d7f140d	0.06227498
186	0x3ce314ad	0.02771982
187	0x3ca1bf56	0.019744556
188	0xbdd640e9	-0.104615994
189	0x3de24597	0.110484295
190	0xbe1f87ee	-0.15579197
191	0x3e320d15	0.17387803
192	0x3e54402a	0.20727602
193	0x3e303fc6	0.17211828
194	0xbdd9bb74	-0.10631457
195	0xbe0da4d6	-0.13832411
196	0xbdedc022	-0.11608912
197	0x3d6a564c	0.057211205
198	0x3e897cbe	0.26852983
199	0xbe186588	-0.14882481
200	0x3e3a558f	0.181967
201	0x3e4a93ff	0.19783019
202	0x3d9e716e	0.07736479
203	0x3c7231fb	0.014782424
204	0x3e619fbe	0.22033593
205	0x3e013752	0.1261876
206	0x3db69cfd	0.08916662
207	0xbbb60e5d	-0.0055559115
208	0xbdf5a412	-0.119941846
209	0xbdb24bc5	-0.08705858
210	0x3e60c6ba	0.21950808
211	0x3d9aeda6	0.07564859
212	0xbe1634be	-0.14668557
213	0x3e31b24e	0.17353174
214	0xbd7f5081	-0.062332634
215	0xbd8a4526	-0.0675147
216	0xbc9a5fd8	-0.01884453
217	0xbdac78a4	-0.08421448
218	0x3cec690a	0.02885868
219	0x3db62976	0.08894627
220	0x3e2e8ff2	0.17047098
221	0x3e158d13	0.14604597
222	0x3df4c5b1	0.11951769
223	0x3e1a2d55	0.15056355
224	0x3db456c5	0.088056125
225	0x3d8eac74	0.069664866
226	0xbe57821b	-0.21045725
227	0x3e792e77	0.24334131
228	0xbe0ad04e	-0.13556024
229	0xbe0e388e	-0.13888761
230	0xbd663ff9	-0.056213353
231	0xbb0fec00	-0.0021960735
232	0x3db6e007	0.089294486
233	0xbe78952e	-0.24275658
234	0x3a8bbd78	0.0010661324
235	0xbe85c980	-0.26130295
236	0xbe1de88e	-0.15420744
237	0xbdb7db14	-0.08977333
238	0x3c496c88	0.012293942
239	0xbe101b65	-0.1407295
240	0xbddde0c9	-0.1083389
241	0x3cf2c9dc	0.02963727
242	0x3d0fc45c	0.035099372
243	0x3e3468fd	0.17618175
244	0x3d846618	0.06464785
245	0xbe554fb1	-0.20831181
246	0xbdcbc3b3	-0.09949436
247	0x3dd47fa1	0.10375906
248	0xbe585adb	-0.21128409
249	0xbe2ee4d4	-0.17079479
250	0x3e201db1	0.15636326
251	0x3e5f745e	0.21821734
252	0xbe251169	-0.16119923
253	0xbdf39d0a	-0.11895187
254	0x3e52812d	0.20557089
255	0x3dff2d4c	0.124598116

hiden_layers.1.bias f4 [64]
0	0xbceda774	-0.029010512
1	0xbd09d760	-0.033652663
2	0x3dc93ad4	0.09825674
3	0xbd52a2d9	-0.051424835
4	0xbda7a483	-0.08185675
5	0xbdcf7155	-0.10129038
6	0xbddbf858	-0.10740727
7	0xbdaac6d2	-0.08338703
8	0x3d909dfe	0.070613846
9	0xbce15422	-0.027505938
10	0x3d6aadac	0.057294533
11	0xbd87a3d1	-0.066230424
12	0x3d569114	0.05238445
13	0x3d1f33d7	0.038867798
14	0xbc027875	-0.0079632895
15	0xbd9619df	-0.07329153
16	0x3c967731	0.018367382
17	0x3e154cd9	0.14580096
18	0xbd2c18f6	-0.042015992
19	0xbcff9c7e	-0.031202551
20	0xbde68dca	-0.11257513
21	0xbd109b76	-0.03530451
22	0x3bdd514c	0.006754076
23	0xbc18fb31	-0.009337232
24	0xbda21661	-0.07914425
25	0xbd73230b	-0.05935959
26	0xbbc64918	-0.006051194
27	0x3c61d36d	0.013783318
28	0xbd420e17	-0.04737672
29	0x3d0ff1c2	0.035142668
30	0x3dc8568a	0.09782131
31	0xbcaea591	-0.021319183
32	0x3d1e8e0d	0.03870969
33	0x3cc75ee5	0.024337241
34	0x3d81a5ac	0.063304275
35	0xbd0a2c1a	-0.033733465
36	0xbb952f4e	-0.0045527583
37	0xbba5edff	-0.0050637717
38	0xbbf649fc	-0.007516144
39	0x3a42aea7	0.0007426538
40	0x3ce4b3ea	0.027917821
41	0x3d7543bb	0.059879046
42	0xbd4b1a4a	-0.049585618
43	0x3c980dc1	0.018561246
44	0x3cbffd00	0.02343607
45	0xbc2dc68d	-0.01060642
46	0xbd39c4e0	-0.04535377
47	0xbd91149d	-0.0708401
48	0x3d98be05	0.07458118
49	0xbd0c96b9	-0.034323428
50	0x3db83771	0.089949496
51	0xbd9a8306	-0.07544522
52	0xbd281a9e	-0.04104101
53	0x399233a3	0.00027885762
54	0x3d878b20	0.06618333
55	0xbc896281	-0.016770603
56	0x3c122e16	0.008922121
57	0xbd3a6004	-0.045501724
58	0x3d0cebfd	0.034404743
59	0x3d2f0ce5	0.042736907
60	0x3cf34ff7	0.029701216
61	0xbd1005f9	-0.035161946
62	0x3cebb163	0.028771108
63	0xbc9b3dbb	-0.018950334

hiden_layers.2.weight f4 [64, 64]
0	0xbdea57f1	-0.11442555
1	0xbe551e6f	-0.2081239
2	0xbe089ba5	-0.13340624
3	0xbe45d406	-0.19319162
4	0xbdf856a7	-0.121259026
5	0x3d6b4a7a	0.057444073
6	0xbd6c50ac	-0.057694122
7	0xbdc3d7a6	-0.09562616
8	0x3e550661	0.20803215
9	0x3db30812	0.08741774
10	0xbbbf04ec	-0.005829444
11	0xbe1e974e	-0.15487406
12	0x3d93f3fb	0.0722427
13	0xbe4fb22e	-0.20282814
14	0x3dfc6ef9	0.12325854
15	0x3e2993be	0.16560265
16	0xbe8d85bf	-0.27641103
17	0xbe7afb64	-0.2450996
18	0x3dcd14af	0.10013711
19	0xbdee9e5d	-0.11651299
20	0x3d5dd6ce	0.05415993
21	0xbe6d07e9	-0.23147549
22	0xbdd5cee6	-0.10439853
23	0x3e1a9dfa	0.15099326
24	0xbe03e6bc	-0.12880987
25	0x3da48a2b	0.08034166
26	0x3e14f777	0.14547525
27	0x3ad5fec3	0.0016326535
28	0xbde77c6d	-0.11303029
29	0xbd617f0e	-0.05505281
30	0x3e47b4e6	0.19502601
31	0xbe05c3b7	-0.1306294
32	0xbdf4ee95	-0.119595684
33	0x3c21dae1	0.009878845
34	0xbe5dab3a	-0.21647349
35	0x3dd46d38	0.10372394
36	0x3db2ed8f	0.08736717
37	0xbe09468d	-0.13405819
38	0xbe2560da	-0.16150227
39	0x3e548135	0.20752414
40	0xbe16fa63	-0.14743952
41	0x3d8a018a	0.06738575
42	0xbe5646bf	-0.20925425
43	0xbe50e604	-0.20400244
44	0xbdbb1752	-0.09135307
45	0xbe00c462	-0.12574914
46	0xbde7677e	-0.112990364
47	0xbd50e253	-0.05099709
48	0x3d165d43	0.036710035
49	0x3e4d6888	0.20059407
50	0xbc8ec1be	-0.017426368
51	0xbe1ac1c3	-0.15112977
52	0x3e24fea5	0.16112764
53	0x3d89cbda	0.06728335
54	0xbb7b4c37	-0.0038344988
55	0x3e8d85e0	0.276412
56	0xbe155942	-0.1458483
57	0xbe5383cf	-0.2065575
58	0xbd5c0cf1	-0.05372328
59	0x3e825696	0.25456685
60	0xbc6cc43c	-0.014451083
61	0x3d90c8a2	0.07069518
62	0xbe6a09a4	-0.2285524
63	0x3d90be40	0.07067537
64	0x3deab742	0.11460735
65	0xbb10f052	-0.0022115898
66	0x3d884aab	0.06654867
67	0xbde9c67e	-0.114148125
68	0x3c840ed9	0.016120361
69	0x3c4ee0c7	0.012626833
70	0x3e0ee86f	0.13955854
71	0xbdb74e57	-0.08950489
72	0x3e067f5e	0.13134524
73	0x3dbc583f	0.09196519
74	0xbdcc99a2	-0.09990241
75	0xbde7c379	-0.1131658
76	0xbd57055f	-0.052495357
77	0x3e4d13d0	0.20027089
78	0xbd2351d3	-0.039872956
79	0xbdc66fa0	-0.096892595
80	0x3ddd9781	0.10819913
81	0x3d1f9cbd	0.038967837
82	0xbdff7b7f	-0.12474727
83	0xbd06a22e	-0.03286951
84	0x3dd74630	0.10511434
85	0xbe32b7b7	-0.17452894
86	0x3da5811d	0.08081267
87	0x3d6d9707	0.05800536
88	0xbc9a590b	-0.018841287
89	0x3ddaa1ae	0.10675369
90	0xbdd6d7db	-0.1049039
91	0xbe2861b2	-0.16443518
92	0x3dc58e4b	0.09646281
93	0x3cedf695	0.029048244
94	0xbbd952ff	-0.0066322084
95	0x3ad18539	0.0015985138
96	0xbe0921aa	-0.13391748
97	0x3d156977	0.036477532
98	0x3dbfb107	0.09359937
99	0x3e297ccf	0.16551517
100	0xbde5b07b	-0.112153016
101	0xbccd5962	-0.025067035
102	0x3e6c5ddd	0.23082681
103	0x3db8b6b3	0.09019222
104	0x3d737262	0.059435256
105	0xbdc69334	-0.096960455
106	0xbdeed024	-0.116607934
107	0xbe3f0bf9	-0.18656911
108	0x3caabfca	0.020843405
109	0xbe20d0d3	-0.1570466
110	0x3d92f9b6	0.07176535
111	0x3de08553	0.109629296
112	0xbe87e96b	-0.2654527
113	0xbdc7bf0b	-0.097532354
114	0xbcf29fa5	-0.02961714
115	0x3e5f9548	0.2183429
116	0xbe1a459f	-0.15065621
117	0x3db71d4d	0.089411356
118	0xbd5837b0	-0.052787483
119	0xbe16d23e	-0.14728639
120	0xbde54363	-0.111944936
121	0x3d2e14ef	0.042500433
122	0x3d1d08f0	0.0383386
123	0x3df944c8	0.12171322
124	0xbe33a93c	-0.17545027
125	0xbe0602bd	-0.13086982
126	0x3e3ab633	0.18233566
127	0x3e244e23	0.16045432
128	0xbe6c1ae6	-0.23057136
129	0xbc7df737	-0.015500835
130	0x3da596d4	0.08085409
131	0x3e3bf260	0.18354177
132	0x3e1532d4	0.1457017
133	0x3dd4bd1c	0.10387632
134	0xbe0da840	-0.13833714
135	0x3d96aa66	0.0735672
136	0x3c9fae90	0.019492418
137	0xbd0452cb	-0.03230552
138	0x3c8cc523	0.017183846
139	0xbdc6f3ec	-0.09714493
140	0x3dc00f0e	0.093778715
141	0xbe85720d	-0.26063576
142	0x3e722fbb	0.2365102
143	0xbd6446e9	-0.055731688
144	0x3e306620	0.17226458
145	0x3e0ab7a4	0.13546616
146	0xbe76eacc	-0.24113005
147	0xbdbe0916	-0.09279077
148	0xbd48418e	-0.048890643
149	0xbd633fe8	-0.055480868
150	0x3e1a4080	0.15063667
151	0xbd8bfdc1	-0.06835509
152	0xbe2fb22d	-0.17157812
153	0x3d7e1153	0.06202824
154	0xbe28ee6f	-0.16497205
155	0x3c86c035	0.016449073
156	0xbe1ce7dd	-0.15322824
157	0x3e1a7b2f	0.15086053
158	0xbdcaa26e	-0.09894262
159	0xbe940ea4	-0.2891742
160	0x3cb560d1	0.022140892
161	0x3e718a6f	0.23587964
162	0xbdde26cf	-0.10847246
163	0x3dfd2d1b	0.12362119
164	0x3c3b2f5a	0.011424864
165	0xbd9098a6	-0.070603654
166	0x3d6f1188	0.05836633
167	0x3e459b36	0.1929749
168	0x3e80b67f	0.25139233
169	0x3d6673eb	0.05626289
170	0xbe16a38c	-0.14710826
171	0x3e2a69db	0.16641943
172	0x3e0f312b	0.139836
173	0xbd679cb1	-0.056545917
174	0x3b731e3e	0.0037096883
175	0x3cbb8b7e	0.022893663
176	0x3e6d6412	0.23182705
177	0xbe8e117e	-0.2774772
178	0x3e31a166	0.17346725
179	0x3d012f25	0.0315391
180	0xbe64b02d	-0.2233283
181	0xbe051d38	-0.12999427
182	0x3d184d00	0.037182808
183	0xbdd9f903	-0.10643198
184	0x3e9282e2	0.2861548
185	0x3de5ec9c	0.1122677
186	0x3e9190d0	0.28430796
187	0x3e4de960	0.20108557
188	0x3db00afa	0.085958436
189	0xbe92d9dc	-0.2868184
190	0xbca4b439	-0.020105468
191	0x3d290f2d	0.04127424
192	0x3dfc69a0	0.12324834
193	0x3e9eb1cd	0.30995026
194	0x3db4a48f	0.088204496
195	0xbe197243	-0.14984994
196	0x3cbab364	0.022790618
197	0xbe67a89b	-0.22622912
198	0x3c3b8dea	0.011447409
199	0xbddc69cb	-0.10762366
200	0xbe042197	-0.12903439
201	0xbdf33697	-0.118756466
202	0xbe5fd585	-0.21858795
203	0x3e493034	0.19647294
204	0x3e5d969d	0.21639486
205	0xbd4fda49	-0.050745282
206	0xbe06504c	-0.13116568
207	0xbde86492	-0.11347307
208	0x3e79d78b	0.2439863
209	0x3e93ce19	0.28868178
210	0xbb1789df	-0.002312295
211	0x3d621029	0.055191193
212	0xbdabc7e9	-0.08387739
213	0xbe32131e	-0.17390105
214	0x3df1bdb5	0.11803762
215	0x3e2b4178	0.16724193
216	0xbd96dfd9	-0.07366914
217	0xbe23b82c	-0.15988225
218	0xbf0c904d	-0.54907686
219	0xbde0581c	-0.109543055
220	0xbdb15b90	-0.08660042
221	0x3f826765	1.0187804
222	0x3df11302	0.117712036
223	0xbd1d35d0	-0.038381398
224	0x3dea448b	0.11438855
225	0x3dea6355	0.11444727
226	0xbe735870	-0.23764205
227	0xbdaa461a	-0.08314152
228	0x3e1c91e7	0.15290032
229	0xbd61258f	-0.05496746
230	0xbe4de1bf	-0.20105647
231	0x3e040774	0.12893468
232	0xbe1940f9	-0.14966191
233	0xbd728aa5	-0.059214253
234	0x3e60dc26	0.2195898
235	0x3d5b1e7c	0.05349587
236	0x3e360a30	0.17777324
237	0x3d505345	0.050860662
238	0xbe5203f3	-0.20509319
239	0xbde79bea	-0.11309035
240	0x3dee010a	0.11621292
241	0xbe63461e	-0.22194716
242	0x3dd24545	0.10267118
243	0xbda77135	-0.081758894
244	0x3e3bc058	0.18335092
245	0x3e7db921	0.24777652
246	0x3dc49563	0.09598806
247	0xbde879c7	-0.11351352
248	0x3b308bac	0.002693872
249	0xbe19f730	-0.15035701
250	0xbe096151	-0.1341603
251	0x3ea244ba	0.3169306
252	0xbe1369aa	-0.14395776
253	0x3d504cf5	0.050854642
254	0xbe926b35	-0.28597417
255	0xbd054415	-0.03253563

hiden_layers.2.bias f4 [64]
0	0x3d429241	0.04750276
1	0xbca24c9f	-0.019811926
2	0x3c91496d	0.017735207
3	0x3dda536e	0.10660444
4	0xbc0640bc	-0.008194145
5	0x3dcb51fd	0.099277474
6	0x3daee583	0.0853987
7	0xbdd08827	-0.10182219
8	0xbdf08920	-0.117449045
9	0x3d055c25	0.03255858
10	0x3cbde4b3	0.023180341
11	0x3d513542	0.05107618
12	0x3ddb33e6	0.10703258
13	0x3c4e621a	0.012596631
14	0xbcdfd41b	-0.02732282
15	0xbdb1f9ad	-0.086902
16	0xbc6e94cd	-0.014561844
17	0x3d709c5a	0.05874286
18	0xbcb60791	-0.022220405
19	0x3cac794d	0.021053934
20	0xbd96b236	-0.0735821
21	0xbd914f7f	-0.07095241
22	0x3de02993	0.1094543
23	0xbd1e0eeb	-0.038588446
24	0xbd0c65e8	-0.034276873
25	0xbb09e6c0	-0.0021042079
26	0x3c0af235	0.008480598
27	0x3d7595e2	0.059957393
28	0xbd5311d8	-0.05153069
29	0xbdc9124f	-0.09817945
30	0xbd4c78c1	-0.049919847
31	0xbc611400	-0.0137376785
32	0x3caa4eb3	0.02078948
33	0x3d94022a	0.07226975
34	0x3c22e2a2	0.009941729
35	0xbdd86921	-0.10566927
36	0xbd17d341	-0.0370667
37	0x3ce82067	0.028335763
38	0x3d45f4a1	0.048329
39	0x3a29c329	0.00064759195
40	0x3d3b5089	0.0457311
41	0x3d170a8c	0.036875293
42	0xbc86c1e0	-0.016449869
43	0x3d3cc46f	0.04608577
44	0x3cb580bd	0.022156114
45	0xbd630490	-0.055424273
46	0x3b9ed636	0.0048473133
47	0xbd893284	-0.06699088
48	0x3cf8de4e	0.03037944
49	0xbd26b256	-0.04069742
50	0x3c5b136f	0.013371333
51	0xbb1812be	-0.002320453
52	0xbd79932c	-0.06093137
53	0xbda1f125	-0.07907323
54	0xbdce953b	-0.10087057
55	0xbcbad105	-0.022804746
56	0x3db23dea	0.087032154
57	0x3b90fbe6	0.00442456
58	0x3c113a11	0.008863942
59	0x3b58ae10	0.0033062734
60	0xbd276ea3	-0.040876996
61	0xbca8f0fd	-0.020622725
62	0xbddff8e8	-0.10936147
63	0xbc38bb8b	-0.0112751825

hiden_layers.3.weight f4 [64, 64]
0	0xbd1f609c	-0.038910493
1	0x3e86d43d	0.263338
2	0xbd34356b	-0.043996256
3	0xbdf925a5	-0.12165383
4	0x3e92e0ff	0.28687283
5	0xbe358e19	-0.17729987
6	0xbe5ef6bc	-0.21773809
7	0x3d5843ab	0.05279891
8	0x3e4fa44d	0.2027752
9	0x3d896fcc	0.06710777
10	0x3e11d3ab	0.14240901
11	0xbe1f1223	-0.15534262
12	0xbda370f2	-0.07980527
13	0x3e6afec4	0.22948748
14	0x3d83aa85	0.064290084
15	0x3cd9667e	0.02653813
16	0x3d8996ca	0.06718214
17	0xbcef55d5	-0.029215733
18	0xbd634ca9	-0.05549303
19	0xbe80ae2d	-0.25132886
20	0x3e29b0b4	0.16571313
21	0xbe5406ee	-0.20705768
22	0x3c2aeef4	0.010432947
23	0x3de50202	0.111820236
24	0xbd18c3c0	-0.037296057
25	0xbe730bd7	-0.23734985
26	0xbc94bfb8	-0.018157825
27	0xbe87bfaa	-0.26513416
28	0x3b33f849	0.0027461222
29	0xbca01ef3	-0.019546008
30	0xbe1dbb23	-0.15403418
31	0xbd9672e0	-0.073461294
32	0x3c1d10ca	0.009586522
33	0xbd85727a	-0.06515975
34	0x3e26180c	0.1622011
35	0x3e3afb4a	0.18259922
36	0x3d9256ab	0.07145437
37	0xbe50f9f8	-0.20407856
38	0x3db4c51d	0.08826659
39	0xbe127381	-0.14301874
40	0xbe10902e	-0.141175
41	0xbe1fe79d	-0.15615697
42	0xbe01c8b3	-0.12674217
43	0xbddf0eb4	-0.10891476
44	0x3e1b6ce2	0.15178254
45	0xbe6de64a	-0.2323238
46	0x3e8dd342	0.2770024
47	0x3c7fded8	0.015617095
48	0x3e034dbe	0.12822625
49	0x3e8ae2ce	0.27126163
50	0xbc85b6a0	-0.016322434
51	0xbd858f3b	-0.0652146
52	0x3e4ef65f	0.2021117
53	0x3da0ad39	0.078455396
54	0x3e097528	0.13423598
55	0xbcf8aad5	-0.030354897
56	0xbdd5e0f1	-0.10443295
57	0x3e04a538	0.12953651
58	0xbde5fe01	-0.11230088
59	0xbe16f28d	-0.14740963
60	0x3e3dea9c	0.18546528
61	0x3e60339a	0.21894684
62	0x3e46910b	0.19391267
63	0xbda28a8f	-0.07936584
64	0x3defcdcc	0.117091745
65	0xbdae4c79	-0.0851068
66	0xbe5b7c29	-0.21434082
67	0x3e2fb099	0.1715721
68	0x3e34724c	0.17621726
69	0x3d3b9a20	0.045801282
70	0xbdc6be47	-0.09704261
71	0x3e240278	0.16016567
72	0x3ea5ec67	0.32406923
73	0xbda6cdfd	-0.08144758
74	0x3e3c9a17	0.18418156
75	0xbd52e0a1	-0.051483754
76	0x3db45f94	0.088072926
77	0xbe156d0a	-0.14592376
78	0x3e4dc991	0.20096423
79	0x3e3243fc	0.17408746
80	0xbc8083dc	-0.015687875
81	0xbdf130ab	-0.11776861
82	0x3da4c66b	0.08045658
83	0x3dd62835	0.10456888
84	0xbd407b52	-0.046992607
85	0x3e1714ad	0.14753981
86	0xbd882ed3	-0.06649556
87	0x3dbea8a2	0.09309508
88	0x3c9a966a	0.018870551
89	0xbc147d02	-0.009063007
90	0xbe4b85e0	-0.19875288
91	0xbeae60a4	-0.34058106
92	0xbd3f49e2	-0.04670132
93	0xbe45abd5	-0.1930383
94	0xbdf4afcd	-0.11947594
95	0xbde597a9	-0.112105675
96	0x3db6b012	0.089203015
97	0xbdf98b80	-0.12184811
98	0x3de60611	0.11231626
99	0x3e27ec96	0.16398844
100	0x3e7eb4c1	0.2487364
101	0xbddc9b54	-0.10771814
102	0xbde89719	-0.113569446
103	0x3e64cb6f	0.22343229
104	0xbe587633	-0.2113884
105	0xbe69604d	-0.22790642
106	0x3e33834b	0.17530553
107	0xbd5f3dc6	-0.05450227
108	0x3d862b68	0.06551248
109	0xbe932e9b	-0.28746495
110	0x3dae07f2	0.08497609
111	0xbd446926	-0.04795184
112	0x3cfddd39	0.030989276
113	0xbce11fa8	-0.027480915
114	0x3da27342	0.0793214
115	0xbdab8f7c	-0.08376977
116	0xbe39296e	-0.1808221
117	0xbdc748f0	-0.097307086
118	0xbdfaf13e	-0.122530445
119	0x3d0085da	0.03137765
120	0x3d88388a	0.06651409
121	0x3df75ee5	0.120786466
122	0x3c8add6f	0.01695129
123	0xbcdaa233	-0.02668867
124	0x3e4ed64e	0.20198938
125	0x3e1535ef	0.14571355
126	0xbdf8d4d6	-0.1214997
127	0x3e17b303	0.14814381
128	0xbe4231cf	-0.18964313
129	0x3df863d7	0.12128418
130	0x3e3da166	0.185186
131	0xbe158572	-0.14601687
132	0x3e84116f	0.2579455
133	0xbdce5f01	-0.10076714
134	0x3d8f9507	0.070108466
135	0x3da01f6d	0.07818494
136	0x3dda339a	0.106543735
137	0x3e07fa41	0.13279058
138	0xbe368bf0	-0.1782682
139	0x3d892532	0.066965476
140	0xbb627a9f	-0.003455795
141	0x3e438a34	0.19095689
142	0x3d76126e	0.06007617
143	0xbd49f1b6	-0.04930278
144	0x3d310e8e	0.04322677
145	0xbea1599e	-0.31513685
146	0xbe443041	-0.19159032
147	0xbe683d4b	-0.22679631
148	0xbe61f4cc	-0.22066039
149	0x3cca2976	0.024677973
150	0xbe038ba9	-0.12846245
151	0x3dd7ed11	0.10543264
152	0xbe749731	-0.238858
153	0x3de9be2a	0.11413224
154	0x3e234f70	0.15948272
155	0x3d6719c7	0.056421068
156	0xbe47bc66	-0.19505462
157	0x3caabc6c	0.0208418
158	0x3dff38d5	0.12462012
159	0x3cb8261a	0.022479106
160	0xbeb93aad	-0.3617758
161	0xbe23e1f0	-0.16004157
162	0x3e3da764	0.18520886
163	0xbd1a0d84	-0.037610546
164	0x3dd12d39	0.10213704
165	0xbe3df742	-0.18551353
166	0x3e1f1df0	0.15538764
167	0x3df19b62	0.11797215
168	0xbe196887	-0.1498128
169	0x3b7455d6	0.0037282608
170	0xbddb53ba	-0.10709329
171	0x3e4e33a6	0.2013689
172	0x3e9f8718	0.31157756
173	0xbe84b899	-0.25922087
174	0xbdde666d	-0.1085938
175	0x3da6fa57	0.08153217
176	0x3d958c2a	0.07302125
177	0x3e187a33	0.14890365
178	0xbe343a2f	-0.1760032
179	0x3dc0e46d	0.09418569
180	0x3dd45226	0.10367231
181	0xbdeb7c1c	-0.11498281
182	0x3e04f135	0.12982638
183	0xbd685e05	-0.05673029
184	0x3e8264b5	0.25467458
185	0xbc90b656	-0.01766507
186	0xbdc3531c	-0.09537336
187	0xbe46e260	-0.19422293
188	0xbe35d9c7	-0.17758857
189	0xbd2ec5ff	-0.042669293
190	0xbcf923f9	-0.03041266
191	0x3cde3d3a	0.027128804
192	0xbe0c2f57	-0.13689934
193	0x3c247ebe	0.010039983
194	0x3bc92d16	0.006139408
195	0xb7fb09be	-2.9926068e-05
196	0xbe742a00	-0.23844147
197	0xbd90c5c4	-0.07068971
198	0xbde0218c	-0.109438986
199	0xbc416469	-0.011803725
200	0x3e3a69f9	0.18204488
201	0xb9ca65a6	-0.00038604176
202	0xbd54919a	-0.05189667
203	0xbdb9fa84	-0.09080985
204	0x3d0fd2f6	0.035113297
205	0xbde1e7e5	-0.110305585
206	0xbd9a708d	-0.075409986
207	0x3d706eae	0.058699302
208	0x3c9f3f17	0.019439263
209	0x3a0399e7	0.00050201867
210	0xbe0976bd	-0.13424201
211	0xbd9ad0ef	-0.07559382
212	0xbe3f0e37	-0.18657766
213	0x3e590596	0.21193537
214	0x3e08b5e6	0.13350639
215	0xbe252616	-0.1612781
216	0xbce6521a	-0.028115321
217	0xbdd0ea1b	-0.10200902
218	0xbd885366	-0.06656532
219	0xbe452577	-0.19252573
220	0x3e6cfa92	0.2314246
221	0x3e76181b	0.24032633
222	0x3e498c3c	0.19682401
223	0x3cc68ada	0.024236131
224	0xbddac432	-0.106819525
225	0x3db2017e	0.08691691
226	0xbda98eea	-0.08279212
227	0x3d642167	0.055695917
228	0x3d4ec974	0.05048509
229	0xbe559b71	-0.20860077
230	0xbdd8adaf	-0.105800025
231	0x3dfeffad	0.1245111
232	0x3c206923	0.009790692
233	0xbe578a79	-0.21048917
234	0xbe13123a	-0.14362422
235	0xbe06b6f1	-0.13155724
236	0x3e46b066	0.19403228
237	0x3de0d7eb	0.10978683
238	0x3e3314a6	0.17488346
239	0x3e07b404	0.13252264
240	0x3e34d806	0.17660531
241	0x3decfdee	0.11571871
242	0x3e7ae290	0.24500489
243	0xbe34b697	-0.17647777
244	0xbd65bfcf	-0.056091126
245	0x3cfafd9f	0.030638514
246	0x3e834eb8	0.25645995
247	0x3e44bdc5	0.19213016
248	0x3d8493ff	0.064735405
249	0xbe038c02	-0.12846377
250	0x3c98b0ef	0.018639056
251	0x3e15de27	0.14635526
252	0x3d23e9a3	0.040017735
253	0xbe05bd26	-0.13060436
254	0xbdd7ef5d	-0.10543702
255	0x3d46df4e	0.048552804

hiden_layers.3.bias f4 [64]
0	0xbd98cc1c	-0.07460806
1	0xbd3b4055	-0.04571565
2	0xbcc6b649	-0.024256842
3	0xbd8d4c75	-0.06899349
4	0xbd7d735f	-0.061877605
5	0x3db3f970	0.08787811
6	0xbca75fa9	-0.020431357
7	0xbb17a48d	-0.0023138851
8	0xbd9297ea	-0.071578816
9	0xbe3caadf	-0.18424557
10	0x3db0bd19	0.086298175
11	0xbd8aa916	-0.06770532
12	0xbd81854e	-0.06324254
13	0x3c2ad70a	0.010427246
14	0x3d6cb432	0.057789035
15	0xbd5cb7d0	-0.053886235
16	0xbb22cf87	-0.0024842934
17	0x3d93b37f	0.072119705
18	0x3dad1986	0.08452134
19	0x3ced2257	0.028947039
20	0xbd9498cd	-0.07255707
21	0xbd97e430	-0.0741657
22	0x3bb8507d	0.0056248293
23	0xbd55b857	-0.052177753
24	0x3d1ceb5a	0.038310386
25	0x3d17e631	0.037084762
26	0xbc1c5bf8	-0.009543411
27	0xbc5a3b61	-0.013319821
28	0xbdb611c6	-0.08890109
29	0xbb3304ef	-0.0027316173
30	0x3de8741e	0.113502726
31	0xbd00e64e	-0.031469636
32	0x3dd55222	0.10416056
33	0xbd771d64	-0.060330763
34	0x3d216123	0.039399277
35	0xbd2ba645	-0.041906614
36	0x3d33d223	0.043901574
37	0x3cbc5858	0.022991344
38	0x3d39f29e	0.045397393
39	0x3d451302	0.04811383
40	0xbd3006df	-0.042975303
41	0xbdc22d1a	-0.09481259
42	0x3dfac5b9	0.12244744
43	0x3c1d418e	0.009598149
44	0xbd3d7f63	-0.046264064
45	0x3d091862	0.03347052
46	0x3ba65d74	0.0050770584
47	0x3e1e2c21	0.15446521
48	0x3b6ec466	0.003643298
49	0xbd6175a1	-0.05504382
50	0x3d891a34	0.06694451
51	0x3de3af45	0.111174144
52	0xbabbffa0	-0.001434315
53	0xbd897a4e	-0.06712781
54	0x3ca44a08	0.020054832
55	0xbc896caa	-0.016775448
56	0x3d90f9ba	0.070788816
57	0x3ddd9123	0.10818698
58	0x3ce21e7c	0.027602427
59	0xbb846f53	-0.004041591
60	0x3c872493	0.016496932
61	0xbe1cd37e	-0.15315053
62	0xbcfbee41	-0.030753257
63	0xbd96bcdd	-0.073602416

hiden_layers.4.weight f4 [64, 64]
0	0xbe45a147	-0.19299804
1	0xbde43454	-0.11142793
2	0x3d67a858	0.05655703
3	0xbd462fa2	-0.04838527
4	0xbeb20a18	-0.34773326
5	0x3d1c81cd	0.038209725
6	0x3b992980	0.0046741366
7	0xbc955545	-0.018229136
8	0x3deaeff2	0.11471547
9	0xbe952d2d	-0.2913603
10	0xbdaab9d0	-0.08336222
11	0x3d9f3080	0.077729225
12	0xbe1f5c75	-0.15562613
13	0xbded5a43	-0.11589482
14	0x3e8b3f4a	0.27196723
15	0x3c563e23	0.013076338
16	0x3aa73a70	0.0012758505
17	0xbc3843ae	-0.011246605
18	0xbd487567	-0.04894009
19	0xbd0d1b8a	-0.03445009
20	0xbe32a9ba	-0.17447558
21	0xbd89ffc8	-0.067382395
22	0xbe1ace2d	-0.15117712
23	0xbe511630	-0.2041862
24	0xbd642934	-0.055703357
25	0xbe31af0d	-0.17351933
26	0x3e794862	0.24344018
27	0xbd3a5eed	-0.045500685
28	0xbe6039f3	-0.21897106
29	0xbc6993a0	-0.014256388
30	0xbe136112	-0.14392498
31	0xbe62803f	-0.22119235
32	0xbda7d827	-0.08195525
33	0x3df63221	0.1202128
34	0x3e29dccd	0.16588135
35	0xbd76fb21	-0.06029809
36	0xbe2fd9f1	-0.17172982
37	0xbd778d3f	-0.060437437
38	0x3e22076e	0.15823147
39	0xbdca0044	-0.09863332
40	0xbdabbce0	-0.083856344
41	0xbd3dc868	-0.0463337
42	0x3e083da4	0.13304764
43	0x3e5b2cf0	0.21403861
44	0x3e248645	0.16066845
45	0xbe2c593e	-0.16830918
46	0xbe6ceb2d	-0.23136587
47	0x3e1a061d	0.15041395
48	0xbe52102a	-0.20513979
49	0xbe4b17fd	-0.1983337
50	0x3d0f52e9	0.03499118
51	0xbe35b684	-0.17745405
52	0xbe220b0a	-0.15824524
53	0xbe2c9687	-0.16854297
54	0x3d35bb09	0.044367824
55	0x3e4ace4e	0.19805261
56	0xbbac6dc9	-0.005262111
57	0x3e718a07	0.2358781
58	0x3df5dbe8	0.120048344
59	0xbda38477	-0.0798425
60	0xbc261110	-0.010135904
61	0xbe5b552f	-0.21419214
62	0xbe39909b	-0.18121569
63	0x3d6ccbe0	0.057811618
64	0x3e19df97	0.15026699
65	0xbe697a23	-0.22800498
66	0x3dee8dd0	0.11648142
67	0xbe195992	-0.14975575
68	0x3e13a5b8	0.14418685
69	0x3ddd8b7c	0.1081762
70	0xbe72586d	-0.23666544
71	0x3d2afa4a	0.0417426
72	0x3e49bdb6	0.19701275
73	0xbd1a623c	-0.03769134
74	0xbdb3979c	-0.087691516
75	0xbe634cf4	-0.22197324
76	0x3e758d60	0.23979712
77	0x3e82aaa9	0.25520828
78	0x3d6ad2c3	0.057329904
79	0xbd493bfb	-0.049129467
80	0x3e785512	0.24251202
81	0xbd9251ea	-0.0714453
82	0xbd4a5cd3	-0.04940493
83	0xbe6bbf2f	-0.2302215
84	0xbdfd2cd8	-0.12362069
85	0xbe3a1ff2	-0.18176249
86	0xbe609e31	-0.21935345
87	0xbe396ae0	-0.18107176
88	0x3deea1bc	0.11651942
89	0x3d13c33d	0.036074866
90	0xbe3834d1	-0.17988898
91	0x3d83b4ba	0.06430955
92	0xbe24b5b6	-0.16084942
93	0x3d8f209f	0.06988644
94	0xbe3a3c1a	-0.1818699
95	0xbe08aff9	-0.13348378
96	0xbe71f1fb	-0.23627464
97	0x3d893987	0.067004256
98	0x3e4e0c2d	0.20121832
99	0xbe06d502	-0.13167194
100	0x3e5d2fba	0.21600237
101	0xbdf17fae	-0.11791931
102	0xbd8c5f77	-0.06854146
103	0xbcc0ebf6	-0.023550015
104	0x3ddaffbe	0.1069331
105	0x3e44cecb	0.1921951
106	0xbd54f0c8	-0.05198744
107	0x3d8c9fa0	0.068663836
108	0xbd922e31	-0.071377166
109	0x3cbd2e38	0.023093328
110	0xbd047b59	-0.032344196
111	0x3cfdf02e	0.030998316
112	0x3e3b415f	0.18286656
113	0x3ca54909	0.020176427
114	0xbe443cf8	-0.19163883
115	0xbd0a0c3e	-0.03370308
116	0x3c5ce8ab	0.013483207
117	0xbd9aef7f	-0.075652115
118	0xbdee9245	-0.116489924
119	0xbd288d33	-0.041150283
120	0x3db04a23	0.086078905
121	0x3dda0dea	0.10647185
122	0x3db70b60	0.089377165
123	0xbd9c5c28	-0.07634765
124	0xbe59b101	-0.21258928
125	0x3e490a2c	0.19632787
126	0x3c94b5cb	0.018153092
127	0x3de50be8	0.111839116
128	0x3c4f0f23	0.012637886
129	0x3e50345c	0.20332474
130	0x3e643732	0.2228668
131	0x3e879f3b	0.2648867
132	0x3ddd3185	0.10800461
133	0xbc6b839e	-0.014374642
134	0x3d4d7e91	0.05016953
135	0xbe499a2d	-0.1968772
136	0x3d1d7aa4	0.038447037
137	0xbd90fee3	-0.07079866
138	0xbe4decc9	-0.20109858
139	0xbd1da712	-0.03848941
140	0x3bdbbc70	0.006705813
141	0x3d9ce9c4	0.07661775
142	0xbd8e7551	-0.0695597
143	0x3de2765a	0.1105773
144	0x3e6ec683	0.23317914
145	0x3d04b84b	0.032402318
146	0x3d9a57f0	0.07536304
147	0x3dd631d7	0.10458725
148	0xbd9d308f	-0.076752774
149	0x3e88f436	0.26748818
150	0x3e200c99	0.15629806
151	0xbe05270c	-0.13003176
152	0x3e15ceb7	0.14629637
153	0xbe19e1f4	-0.150276
154	0x3dbcf058	0.092255294
155	0xbd504481	-0.05084658
156	0x3e4afcd1	0.19823004
157	0xbe2176e8	-0.15768015
158	0x3d2dcf3a	0.042433955
159	0x3e5ef339	0.2177247
160	0xbd900f9b	-0.070342265
161	0x3e150d23	0.14555793
162	0xbcf58e7d	-0.02997517
163	0x3e95334c	0.291407
164	0x3da2ffc4	0.0795894
165	0xbe05b502	-0.1305733
166	0xbdd15b24	-0.10222462
167	0x3e33cb30	0.17557979
168	0x3e1638a6	0.14670047
169	0xbc956efd	-0.0182414
170	0xbe27fcb1	-0.16404988
171	0x3dd27fca	0.1027828
172	0xbd12ca38	-0.035837382
173	0x3c7193b5	0.014744689
174	0xbd5063a0	-0.05087626
175	0x3e220c92	0.15825108
176	0x3dea752a	0.114481285
177	0x3e0aa3ea	0.13539091
178	0xbdd61a32	-0.10454215
179	0xbe75a469	-0.23988499
180	0xbe204f23	-0.15655188
181	0x3e3915e7	0.18074761
182	0xbbe86d12	-0.0070930803
183	0xbd9c7fed	-0.076415874
184	0x3e384871	0.17996384
185	0xbe022ccb	-0.127124
186	0x3e4bafed	0.19891329
187	0x3df5c7c9	0.120009966
188	0x3d2f5063	0.042801272
189	0x3e90656a	0.28202373
190	0xbe2798dc	-0.16366905
191	0x3e7f4cba	0.24931613
192	0xbe610910	-0.21976113
193	0xbe7c02bc	-0.24610418
194	0x3dcb24c0	0.09919119
195	0x3e77a634	0.24184495
196	0x3e7332ae	0.23749802
197	0x3e44c88e	0.1921713
198	0xbe13a96f	-0.14420103
199	0x3e8d8fcc	0.2764877
200	0x3e07deae	0.1326854
201	0xbd42a15d	-0.04751717
202	0xbe1a6cd1	-0.15080573
203	0xbe46a2d9	-0.19398059
204	0x3e8edb7a	0.27901822
205	0xbcb826c2	-0.022479419
206	0xbe836c85	-0.2566873
207	0xbd42dfab	-0.047576588
208	0x3dfe3b4d	0.124136545
209	0xbd6521ff	-0.055940624
210	0xbe6395dc	-0.22225136
211	0x3db3d7a1	0.08781362
212	0x3baf322c	0.005346557
213	0xbe1d212f	-0.1534469
214	0xbdb4a4e8	-0.08820516
215	0xbda06303	-0.07831385
216	0x3c05d395	0.008168121
217	0xbd10194e	-0.035180382
218	0x3e3cf099	0.18451156
219	0x3e73310e	0.23749182
220	0xbd9a8095	-0.07544056
221	0xbdd1179f	-0.102095835
222	0xbe477d54	-0.19481403
223	0xbe5cb53c	-0.2155351
224	0xbd86f133	-0.06588974
225	0x3e8054a2	0.2506457
226	0xbafe0f30	-0.0019383188
227	0xbd860be3	-0.06545236
228	0xbd78ba17	-0.060724344
229	0xbd956eb0	-0.072965026
230	0xbe410172	-0.18848208
231	0x3e2cca78	0.1687411
232	0xbe305302	-0.17219165
233	0x3ea601ef	0.3242335
234	0xbe579e51	-0.21056487
235	0xbdcb6513	-0.09931388
236	0xbd89f4f6	-0.06736176
237	0xbd007273	-0.031359147
238	0x3d9d6ad6	0.07686393
239	0x3d1c6d9b	0.038190465
240	0xbd62e755	-0.055396397
241	0xbe3007f0	-0.17190528
242	0x3e06b9e8	0.13156855
243	0x3d8577bd	0.06516979
244	0x3d27246f	0.04080623
245	0x3e5850b1	0.21124531
246	0xbe0415cc	-0.1289894
247	0xbe19fcc8	-0.15037835
248	0x3d84bc6a	0.0648125
249	0x3da51390	0.08060372
250	0xbe19f92e	-0.15036461
251	0x3e6a2285	0.2286473
252	0x3e096388	0.13416874
253	0xbbf2b0f9	-0.0074063507
254	0xbe027483	-0.12739758
255	0x3e18b3b8	0.14912307
