results/8_with_inertia/epoch1140/model_weights.pth (torch, 749334 bytes, 128 tensors)

init_layer.0.weight f4 [64, 5]
00000000: 4aa5 a6be 22e3 b2be b206 303e 24a4 2abd
00000010: 7459 683e 35f6 86bd 6520 76bc 0033 afbe
00000020: 70d3 333d 708a 0c3e cdcc d93e bdc0 aabd
00000030: d5aa dc3d 729e e03d 4688 903e 3a19 09be
00000040: a09a 78be ba62 883e 2051 64be 450e 263e
00000050: e40d 8b3e c038 403e a755 0abe 1bc5 853d
00000060: b532 183e 7314 c03e 5d7b 803e 5b49 7dbd
00000070: cdb3 373e b182 a03d 8dc8 0d3d ca3b 9abe
00000080: 6087 7e3e 7911 a43c 835f 923e c725 a9be
00000090: 5819 2cbe fd71 5e3d 3d27 913e 6568 97be
000000a0: aafd 4b3e f679 aabe 94da 033e a974 fbbc
000000b0: 1fee ba3d 4ae5 8fbe 63f8 973e 27c5 8cbe
000000c0: 295c 77be 0817 25bd 4de4 a83e 7711 f03d
000000d0: 54b2 d5bd dfac 96be e3d4 aa3d ed55 a2be
000000e0: ee41 823e 7805 04be 54f8 c43c ae98 1c3b
000000f0: 3464 b13d 7801 8abe 9b49 86be 19ce 243e
00000100: 9b6b 8f3e f1cc 44be b21b 1f3e 7851 e0bc
00000110: c161 283e 7fa5 81be 47cc c3bd 4e6c 99bd
00000120: 721a debc 1423 8e3d 6141 f23c c008 573e
00000130: ec22 3abd e537 97be 1276 903e d733 603e
00000140: 5bc7 133e 8f3b 0ebe 140c 6a3e e1a7 79be
00000150: a01d 5c3e b2b5 e53c 36f3 953e 9fee 55be
00000160: 76d9 e83d 19e6 963d 0969 36be 5914 993e
00000170: 7011 06be 7057 4ebe c0a0 96be 4666 80be
00000180: cfe6 4d3e 3273 fe3d d89b 60be 1f9e b93c
00000190: be1b 91be 889b c93c 5cf8 3a3e 36a6 45be
000001a0: 2109 83be 64ef b8be 5d54 9bbe 3d7c a23d
000001b0: dc04 6c3e 37d9 6fbe 8c35 31be 2fd8 82bd
000001c0: 036e 56be 9401 133e cc70 38be bd55 843e
000001d0: 2afc 3abe 9b72 953d cbe7 913c a5f3 cdbd
000001e0: 49a7 c03c 062a 353e 10d3 673e 5552 d9bd
000001f0: 5650 e43d 4f0f a63e dd63 b73e 5adf 3c3e
00000200: 03c3 1abe dfd5 323e 831d 9ebe b499 823e
00000210: 04b8 c8bb 224a 9d3d 9d4f 933e 0098 06be
00000220: 4082 a63e 8510 563e af7e 433e 0583 603e
00000230: fe6b d7bd 17c2 3dbe 5499 87be 4cbd e2bb
00000240: 319f 813e 488e 083e f18e 3e3e dc12 333d
00000250: 6b66 9abd 8b4e 243e 7f2e 483e f52e 6a3d
00000260: 818a 6a3e 53b1 753e b11a 6c3e aeb4 8fbe
00000270: cc2d a8be 9215 f53d 583b e8bd fcd3 2ebe
00000280: c19a 96be 0989 163e 48d4 63bd 5471 823e
00000290: 0acb 1cbe 3822 6a3e 732f a3be 5a60 3bbe
000002a0: 94cf f83d 1117 fd3d f1d0 8cbd 19d1 283e
000002b0: 1869 6cbd cb42 343e 94ed 4fbe 2eb9 f83d
000002c0: 2380 4bbe 123b 633e 1424 933e 28b9 6b3e
000002d0: 502c 473e d3e4 fbbd eb50 ab3e 7927 3e3e
000002e0: 7a90 cd3c ab6f a6bd 66cf 68bd 396d 783e
000002f0: 663d a03d 2d1c 313e ee45 04be 583b 35be
00000300: 8f04 5f3e baf3 a73d 64b8 fabd f161 7ebe
00000310: d70e 41be 79b7 053e 0f60 48be 7eed a13e
00000320: 8a29 ac3e 778e 17be 4182 423e 0cb7 aa3e
00000330: 2eee 2cbe a01b 843e 67fd 383e 06aa f0bd
00000340: 7baf f4bd 512e 873e 9dca dfbd 145a 46be
00000350: b51c 123e a60a 4b3b 6eb7 303d 8061 423e
00000360: e745 d03d 4160 e5bc d4e3 0b3e 4afe 873d
00000370: fd72 14be 25f9 b2be cffc eebd 3ede 77be
00000380: 23be 373e 899d 0ebe 9982 cf3d 3aaa 7c3e
00000390: a061 4d3e 4521 543e 2ffb 94be e30c 19be
000003a0: b27f 9ebe d74d 053e e7cf 3bbe 6e4d 70be
000003b0: 3769 9d3e c1b9 473e 7c30 94be c7f3 823e
000003c0: eaa1 3b3e 9adb 4abe 6cfa 6ebd a0d7 61bd
000003d0: df88 44be 2159 8fbe b102 e9bd a753 40be
000003e0: 6913 7abd aa1b 82be 6dc3 353d b3f2 af3e
000003f0: e947 803e ade5 69be b03a 323e c429 15be
-0.3254798 -0.34938914 0.17190054 -0.041660443 0.22690374 -0.06589929 -0.015022372 -0.34218597
0.043902814 0.13724685 0.42539063 -0.08337543 0.10774771 0.10967721 0.28228968 -0.1338853
-0.24277735 0.26637822 -0.22296572 0.16216381 0.27159035 0.18771648 -0.13509236 0.065317355
0.14863093 0.37515602 0.2509412 -0.061837535 0.17939682 0.078374274 0.03461509 -0.3012374
0.24856329 0.020027863 0.28588495 -0.33036634 -0.16806543 0.054307926 0.2835025 -0.29571834
0.19920984 -0.33296174 0.1287635 -0.030695276 0.09127449 -0.2810462 0.29681692 -0.27494165
-0.2415625 -0.040305167 0.3298668 0.11722081 -0.10434404 -0.29428765 0.08341386 -0.3170618
0.25440925 -0.12892711 0.024044193 0.0023894715 0.0866169 -0.26954246 -0.26228032 0.16094245
0.28011784 -0.19218804 0.15537909 -0.027382597 0.1644354 -0.25321576 -0.09560447 -0.074913606
-0.02711222 0.06940284 0.02957219 0.20999432 -0.04544346 -0.29534832 0.2821508 0.21894775
0.14431517 -0.13889907 0.2285617 -0.24380447 0.21495676 0.02804074 0.29287118 -0.20891808
0.113696024 0.073681064 -0.17813505 0.29898337 -0.1309259 -0.20150542 -0.29419518 -0.25078028
0.20107578 0.124243155 -0.2193445 0.022658406 -0.28341478 0.024610296 0.18258804 -0.19301686
-0.25592902 -0.3612014 -0.30337802 0.07933853 0.23048729 -0.23422705 -0.17305583 -0.0638889
-0.20940404 0.14356071 -0.18011779 0.25846663 -0.18260255 0.0729725 0.017810723 -0.10056237
0.023517268 0.17691812 0.22639108 -0.10611407 0.11148135 0.32433555 0.35818377 0.18444577
-0.15113454 0.17464398 -0.3088189 0.2550789 -0.006125452 0.07680155 0.28771678 -0.13143921
0.32521248 0.20904739 0.19091295 0.2192498 -0.10518645 -0.1853107 -0.26484168 -0.0069195386
0.25316766 0.13335526 0.18609215 0.043719158 -0.07539066 0.16045587 0.19548987 0.057173688
0.22904398 0.23993425 0.23057057 -0.28067535 -0.3284744 0.11967005 -0.11339444 -0.17073053
-0.29414943 0.14700712 -0.05562237 0.25477087 -0.15311828 0.22864616 -0.31872138 -0.18298474
0.121489674 0.12357915 -0.0687579 0.16486014 -0.057717413 0.17603604 -0.20305473 0.12144695
-0.19873099 0.22190502 0.28738463 0.2301985 0.19450498 -0.12299504 0.33460173 0.18569745
0.025093306 -0.08126768 -0.056838416 0.24260415 0.07824211 0.17295904 -0.12917301 -0.17698419
0.21779083 0.08200784 -0.12242201 -0.24842049 -0.18853317 0.1305827 -0.19567893 0.31626505
0.33625442 -0.1480044 0.18995 0.3334278 -0.16887733 0.25802326 0.18065415 -0.117511794
-0.11947533 0.26402524 -0.10927317 -0.193703 0.14268763 0.0030981689 0.043143682 0.18982506
0.10169583 -0.027999999 0.13661128 0.06640299 -0.1449699 -0.34955707 -0.11669313 -0.24205872
0.17943625 -0.13927282 0.101323314 0.24674311 0.20056772 0.20715816 -0.29097888 -0.14946322
-0.309568 0.13017975 -0.18341027 -0.23467037 0.30744335 0.19504453 -0.2894324 0.25576612
0.18323484 -0.19810334 -0.05834429 -0.055137277 -0.19192837 -0.27997687 -0.113774665 -0.18781911
-0.061053667 -0.2541173 0.044375826 0.34364852 0.25054863 -0.2284152 0.174052 -0.14566714

init_layer.0.bias f4 [64]
00000000: bf8d 3dbc 7446 623c 7df1 ec3a 2319 39bc
00000010: fceb b3bc 9872 c83b 783e 003c 3d80 e7bb
00000020: fd96 6fbc b6ff 8d37 b8f6 083b 8d51 f23b
00000030: dbec 893b cb8e bd3c 35b8 c83c f38d 0b3c
00000040: 44ab d0bb b881 f5b9 bce1 4fbc a6e3 bbbc
00000050: 152e 53bb 76ca a63c e671 ae3b 30a1 ad3c
00000060: f315 b3bc 6d4b e5bb 42d3 9dbb b23b 2b3c
00000070: fb10 9dbb bf63 0ebc 308b cb3b cb7c fcba
00000080: b767 563a 049e eb3c 7277 0a3c 6c7c 90ba
00000090: 24bc 56bd 04a4 e9bc 509e 57bb 2ea2 c33c
000000a0: d5a9 31bd 3314 87bc 7391 26bc 2050 4b3c
000000b0: 45be 4eb9 4917 c5bc 05bf 86bc 289a de3a
000000c0: bfeb b33b 2d64 053d 48ed 0dbd 7dba 863a
000000d0: b596 a8bb 39e4 863d b9ec 2dbb f7a0 9c3b
000000e0: cee0 f73b 97f0 8f3c 1b2c d73b 6dd3 00bd
000000f0: 3285 b6bc ab41 13bc 0bf7 acbc 0ec3 1bbc
-0.011569439 0.013810743 0.001807734 -0.011297497 -0.021963112 0.0061171763 0.007827394 -0.0070648477
-0.014623401 1.6927585e-05 0.002089901 0.0073949755 0.0042091436 0.023139378 0.0245019 0.00851773
-0.0063680727 -0.0004682669 -0.012688097 -0.0229357 -0.0032223512 0.020360213 0.0053236363 0.021195024
-0.021861052 -0.006997517 -0.0048164437 0.010451244 -0.004793284 -0.0086907735 0.006211661 -0.0019263265
0.0008178907 0.028761871 0.00845133 -0.0011023409 -0.05242552 -0.028520592 -0.0032900758 0.023881044
-0.043374855 -0.016489124 -0.010166514 0.01240924 -0.00019716572 -0.024058955 -0.016448507 0.0016983198
0.0054907496 0.03256624 -0.034650117 0.0010278967 -0.005144919 0.06586499 -0.0026538803 0.0047799307
0.0075646406 0.017570777 0.006566537 -0.03145163 -0.02228031 -0.008987824 -0.021113893 -0.009506954

hiden_layers.0.weight f4 [64, 64]
00000000: f04f 023e cb57 3a3d 115a b63d a74c 053d
00000010: 4faf 1fbe c792 413e 9ba9 40be 85c3 10be
00000020: 103a a43d 3ff9 203e c31b f4bc 913e 4d3e
00000030: bb7f b8bd 2446 223e 7f13 4d3b ae11 66bc
00000040: fe9d 4cbd 88b0 b73d 8948 69bd 87b9 eb3d
00000050: abd9 68be 0fd3 01be c389 603e 1c4b 08be
00000060: 1d97 14bc abed 313d c8c4 b3bc b4fb 38be
00000070: da9f bf3d 36a8 14bd 8627 30be 8f95 793d
00000080: abda c13d 75ef cf3d a488 003e 86e3 69be
00000090: aa95 7dbe a9da 87bd dc8e 39be 9491 2c3e
000000a0: 682c 573d dad7 22be 4cff 87be a2b4 7fbd
000000b0: af04 54be 7f1d 0cbe cbe1 23bd 21cd 01be
000000c0: f191 3f3d f308 7e3c b9f1 183e f21e 013e
000000d0: 8ec2 0f3e 19ff 30bd 5668 733d 469c 34be
000000e0: b05e 933c 0651 eebd 7511 0bbe 20fb 9c3c
000000f0: cfef 8dbd ffe0 573e bd22 45be f388 0abe
00000100: c832 6cbd 758b 85bd cc24 83bd 2a24 be3d
00000110: 2d4b a5bd 0cf3 053e 14ec b63d 37f5 d13d
00000120: 05c3 ac3e 84bc f7bd 302c 4e3e 7598 95bd
00000130: 080e 3a3d 09cd 263e 21b4 57bc c937 4dbc
00000140: d661 c73d 02c7 e7bd f7ba 65bd e66b 0c3e
00000150: a327 58bd 065b 18bd 6c33 b5bd 4192 0c3e
00000160: 8624 86bc 5e47 82bd 6da1 1ebe 8425 e0bd
00000170: 4965 1d3e 3dad bcbd 10ea f93d 5db4 e7bc
00000180: 7ba5 03be 2243 213d a593 61be 679b ff3d
00000190: 128d 26be 86eb 01be 0383 89bd 6ff1 613e
000001a0: 59c9 cfbd fb46 823b 8e1d 0b3d 1948 60be
000001b0: 8a08 743e 3f3f 853d 49ea 5d3e 6b8b 003e
000001c0: db17 2fbe e7a6 863d e94a 5abe 7e4f 22be
000001d0: a1e4 b1bd b1a5 71be d7a0 443e f16b 5e3d
000001e0: 68a3 303e 5c26 32be 161b 513e d912 3cbd
000001f0: 04b8 fabd 2abb 16be a5ae 313e b447 d33c
00000200: 2732 47bb a108 95be 9514 483d cbeb 103e
00000210: 9b16 84be 2e2c a9bd 03bc 5a3d 1b6a 413e
00000220: c121 c53d e1e6 3bbe 25ff 673d e9ae 9bbd
00000230: 8293 2e3e 0f66 2a3e c61a 823d c351 73be
00000240: 7ff3 863d 977e 153e 3647 bebd 3c59 f53d
00000250: 9737 acbd e2ff 193e 0934 963d 850d 66be
00000260: 2c7e 293e 112b 223e 993d 97bb de76 8e3d
00000270: 57f8 223e e707 3fbe 31b3 2a3e 6c49 eb3d
00000280: 63c8 3a3e 55e6 90bd c39f f6bd ed23 123e
00000290: 86f0 023e f4a5 6a3e 18c7 743d 022d ea3d
000002a0: 6e62 ffbc 7668 243e 991a 583e cf17 a8bd
000002b0: d079 503e 7716 8c3e a65c 003d c7e4 02be
000002c0: 7891 ae3d d4eb 2cbe 7fb5 b2bd 7390 2fbd
000002d0: ec21 71bd ba51 953d b618 af3d 5a02 17be
000002e0: 6b76 5fbe afd1 293d 71c5 63be 5c30 483e
000002f0: c021 b53d 7851 9a3b 30f0 d3bd 4df6 333e
00000300: af4e 33be d040 f9bc 9cc1 493d 3bb7 27be
00000310: a1e6 ac3d 024e abbb b731 683d 7c5f 51be
00000320: d946 0f3e a914 ea3d a310 673e 8b2f e93d
00000330: e036 83bd 452e 403e f65a 99bd 4182 c53d
00000340: 709a 48be 6f8f 2abe df63 113e f275 233e
00000350: e3e0 283e 2374 79be 76ab 1abe 51bb 6cbe
00000360: faf2 36be ce8e 603e 7a23 793d 67cf cfbd
00000370: 0e3b 563e 7187 483c 173f c0bd c8b2 e43d
00000380: eee5 37be bf9f 63be 4176 1b3c 2aa3 073e
00000390: 1bd2 76bd 89d3 26be c85b 25be 71d0 dc3c
000003a0: 8eab 00be 3a58 8ebc 8f19 02be e02f 443e
000003b0: 0906 28be 3d22 803d 7280 0f3d d83b ee3d
000003c0: 6afd 22be 96ca 333e e528 43bd 5130 fa3d
000003d0: 6b0f 0dbe 64d0 37bd d54f cfbd c16c 3ebe
000003e0: f49c 18be 381c 44be 5bdb 1b3e 0836 253e
000003f0: 168a 40be 7a6d 403d 542e fe3b a1f5 1b3e
0.12725806 0.045493882 0.089038976 0.032543804 -0.15594219 0.18903647 -0.188147 -0.14137085
0.08018887 0.1572008 -0.029798394 0.20043398 -0.09008738 0.15847069 0.0031292138 -0.014042301
-0.04995536 0.089692175 -0.05695394 0.11509996 -0.22739284 -0.12678169 0.21927552 -0.13309902
-0.009069231 0.04343955 -0.021944419 -0.18064767 0.09356661 -0.03629323 -0.17202577 0.060933646
0.09465536 0.10153095 0.12552124 -0.228407 -0.24764124 -0.06633503 -0.18120903 0.16852409
0.052532583 -0.15902653 -0.26561964 -0.062428124 -0.20704912 -0.13683127 -0.040010255 -0.12675907
0.04677004 0.015505063 0.1493596 0.12609461 0.1403906 -0.04321203 0.059425674 -0.17637739
0.017989486 -0.11636548 -0.13580878 0.019162714 -0.069305055 0.21081923 -0.19251533 -0.13528804
-0.057665616 -0.0652074 -0.06403503 0.092842415 -0.08070979 0.13080996 0.08931747 0.10251849
0.33742538 -0.120965034 0.20134044 -0.073044695 0.045423537 0.16289152 -0.013165505 -0.012525507
0.097354576 -0.113172546 -0.056086507 0.13713035 -0.052772176 -0.03719618 -0.088476986 0.13727666
-0.016374838 -0.063612685 -0.15491267 -0.109446555 0.15370668 -0.0921273 0.12202847 -0.028284246
-0.12856095 0.039370663 -0.22028978 0.124808125 -0.16264752 -0.12687501 -0.067144416 0.22064756
-0.10145826 0.0039757467 0.033963732 -0.21902503 0.23831382 0.06506204 0.21671404 0.12553184
-0.17098944 0.06574803 -0.21317638 -0.15850636 -0.08686186 -0.23598363 0.1920198 0.05430216
0.17249835 -0.17397445 0.20420489 -0.045916412 -0.122421294 -0.14719835 0.17351778 0.025791027
-0.0030394883 -0.29108146 0.048847754 0.14152448 -0.25798497 -0.0826038 0.05340196 0.18888132
0.09625579 -0.18349792 0.05663981 -0.07601721 0.17048457 0.16640495 0.06352763 -0.23761658
0.06589412 0.14599071 -0.09290926 0.11979911 -0.084090404 0.15039018 0.07334144 -0.22466095
0.16552037 0.15836741 -0.0046154973 0.06956266 0.15915047 -0.18655358 0.16669919 0.114886135
0.18240504 -0.07075182 -0.12042191 0.14271517 0.12787065 0.22914869 0.059760183 0.11434366
-0.031174865 0.16055474 0.21103896 -0.08207666 0.20358968 0.2736089 0.031338356 -0.12782584
0.0852384 -0.16886836 -0.08726024 -0.042862367 -0.05887024 0.07290979 0.08549635 -0.14746991
-0.21822517 0.041459735 -0.22243287 0.19549698 0.08844328 0.004709419 -0.103485465 0.17574425
-0.17510484 -0.030426413 0.049256906 -0.1637849 0.084424265 -0.005227805 0.056688037 -0.2044658
0.1399187 0.11429722 0.2256494 0.11386021 -0.06406951 0.1876765 -0.074880525 0.096439846
-0.19590163 -0.16656278 0.14198254 0.15962961 0.16492037 -0.24360709 -0.1510447 -0.2311833
-0.17866126 0.21929476 0.06082485 -0.10146981 0.20920965 0.012239323 -0.093870334 0.11166912
-0.17958805 -0.22228907 0.009488643 0.13245836 -0.060258966 -0.16291632 -0.16148293 0.026954861
-0.12565443 -0.017376054 -0.12705062 0.19158888 -0.16408552 0.062565304 0.035034604 0.11632508
-0.15916982 0.17557749 -0.047646422 0.12216247 -0.13775413 -0.04487647 -0.101226486 -0.18596174
-0.14903623 -0.1915139 0.15220396 0.16133893 -0.18802676 0.046979405 0.0077569876 0.15230419

hiden_layers.0.bias f4 [64]
00000000: 7937 d2bb 0c70 a73b cac7 e8bb 7dac ce3a
00000010: 7288 3b3d 5449 8cbb 8bc9 1f3d 1b99 bf3b
00000020: c7a0 f8bc 1964 983c 8a66 dbbc 7ed1 7dbd
00000030: 2ab3 48bc 4959 a4ba f4d1 b63b c45a 2cb9
00000040: 2340 b93a f400 6abc 9daf b63c cd91 55bc
00000050: c3d8 2ebc 777c ffbc 779c 7ab9 5f65 6b3c
00000060: 0c9a 89ba 2229 f7bb d4d9 09bd 2894 00bd
00000070: e8b3 503a 7a9b 90bb 376e 1c3b d877 1d3c
00000080: 1ca2 543b 18c4 efbb a9aa cdbc 3656 abbb
00000090: 23f1 a43a 2948 b0bd 3d55 0fbc b5fa 9e3a
000000a0: c51e 7d3c 3451 73bc 688f 7fbc e024 3fbc
000000b0: a39d c73b 09f1 2dbc ac39 30bb b341 853c
000000c0: 33a6 22bc b52f a339 6631 42bb c4ac 97bc
000000d0: f304 5fbc a892 b43b b49f 25bc f2b6 cf3b
000000e0: 435c a73c f08c c0bb 3b6f ac3c feb4 843c
000000f0: 69f7 c6bb 34cf a5bc ce5f 573c b140 94bc
-0.0064153043 0.0051097926 -0.007103895 0.0015767958 0.04578442 -0.0042812023 0.039010566 0.005847109
-0.030350102 0.018602418 -0.026782293 -0.061967365 -0.012249747 -0.0012538816 0.0055792276 -0.00016437011
0.0014133494 -0.014282454 0.022300536 -0.01303525 -0.010671797 -0.03118728 -0.00023900146 0.0143674305
-0.001049818 -0.007542745 -0.033655003 -0.031391293 0.00079613784 -0.0044130655 0.0023869404 0.0096110925
0.0032445258 -0.0073170774 -0.025105791 -0.005228783 0.0012584071 -0.086075135 -0.00874835 0.001212916
0.015449231 -0.014850903 -0.015598156 -0.0116665065 0.00609179 -0.010616549 -0.0026889844 0.01626668
-0.00992732 0.00031125327 -0.0029631495 -0.018514998 -0.01361202 0.005510647 -0.010108877 0.0063389475
0.020429736 -0.005876176 0.021049133 0.016199585 -0.006071974 -0.020240404 0.0131454 -0.018097254

hiden_layers.1.weight f4 [64, 64]
00000000: eff4 0b3d a051 2dbe 7cd2 3b3e a9a1 2fbe
00000010: 9a46 693c b4e2 17be 9493 48bd e6da 533e
00000020: ec0a 143e 94ab 2d3e 49bd cbbd f952 d7bd
00000030: 8825 743d aa24 2dbe a3e0 dabc 6ce3 fd3d
00000040: ce92 023e 048b 7a3d 6c65 133e d372 f7bd
00000050: fd7a 043e d505 0fbc 9037 ccbd 00a7 c33d
00000060: cb88 25be f32a febd f37c 1d3e 33c3 613d
00000070: b511 e3bd 1602 d53c 8104 06be 4358 143d
00000080: afc4 dc3d e56f 3a3e 7c22 72be adb1 5e3c
00000090: 92e8 92bd 20de 42be ddba 473e 3c55 d2bd
000000a0: fdfe 56be 2350 50be e23c dfbd 2534 8dbd
000000b0: 1df3 3bbe 3dcf 1dbd d6c8 0fbb d707 1e3d
000000c0: ec9e 7dbe d069 8f3d fde8 a9bd a0fc 0e3e
000000d0: 8acb 103e 5f4a d7bc f0ad 4eba 0b18 543d
000000e0: 8029 15be 5186 bb3d 32c0 30be 163f 2c3e
000000f0: 5160 acbd e09f 79be 5cbd 00be e6db fa3d
00000100: f7c8 57be b387 7bbe 8bc2 34bc 1d9a a1be
00000110: 6def 5cbd 1667 45be 4284 a7be 5075 b9be
00000120: b11d db3c 42c8 4abe 7615 d23c 7af9 3b3e
00000130: 6daa 45be 9125 b23d 02ff 683e ed60 183d
00000140: 83db 1dbe 90f8 2cbe 856e e3bd 9ed8 833e
00000150: 5757 213e 71c4 1a3e 7035 d1bd 5006 1fbd
00000160: 14f7 9c3d 9787 7dbe 9670 e93d 6bef df3d
00000170: 4127 8d3d bf04 96be 00ef 023e e947 40be
00000180: 5749 5e3e 902d 3c3e 47b3 843e 31b9 f8bc
00000190: 0b74 90be dc33 653e ce0e be3c ebc0 5bbc
000001a0: 17d9 a2bd 20fc c53d fe97 96be 14ff f4bc
000001b0: c863 813d ac5b 383e cda4 8e3d d544 1fbd
000001c0: b92f 44bc d3b9 67bd 90e3 953e 7fca a93d
000001d0: d54e ee3d fb9f 1dbe 1213 ee3d cb1c 0ebe
000001e0: 5afa 73be a2e0 f0bd 2fbe 52be cf9e 39bd
000001f0: e6b0 5ebe 77f8 71be 6f6f 7a3c 40d5 423c
00000200: 7f12 be3d 6e23 c0bd 45de d2bd ece7 2fbe
00000210: 4e1c 213e b7fd 533e da36 1cbd 164d ac3d
00000220: bfd3 debd 78c9 05bd e452 b83d fa58 ec3d
00000230: cf52 e43c 1271 c53b 1ba4 623e bbbd 763d
00000240: a9e4 41be d73d 14be 2865 5ebd 9576 273e
00000250: a3ff 0dbe d1ca 0b3d 9cda 38be eb05 19bd
00000260: 9310 f2bd c1e0 ecbd bbb0 a23c 3fbc 473e
00000270: f50d 433e 83ac cb3d 3e71 af3d 296f 823d
00000280: 3990 f03c 7d3a a3bd 5dac e9bd e1c4 3a3b
00000290: 2e97 d43d 49ee 063c 26ed 1fbc 47db debd
000002a0: 528a 263e 6d4c cebc 8dd3 8dbd 0af9 213e
000002b0: d813 84bd 9bf6 903c 2e91 51bd ba0c 39ba
000002c0: d6a5 45bd d6ba 28be ad2f b4bc 75b0 2bbe
000002d0: 2921 7cbc f2f1 93bd 4a8e 14bd 28d8 cabd
000002e0: c241 103d 78d0 45be ee78 10be 5b14 743d
000002f0: 54e0 c1bd 4c50 34be ea5e 603d 1a1d 2d3e
00000300: e86e 7e3e d2ac 353c 463b 4ebc 8f4f 593e
00000310: 1524 5c3e 746c f8bd 9991 29be 171c 8f3d
00000320: 8b0d 753d 594d 6c3e 47ee 113e 27d5 9dbd
00000330: 9fc8 bd3d 0fcb 40be 92fc 7bbc 624f 193d
00000340: a030 f7bd c4da 8a3b a12d 053d 7971 23be
00000350: 15d5 60be 26f4 efbd f64d 04be 2876 49be
00000360: 60b7 1a3e 9495 263e b586 d43d 3ed7 0f3e
00000370: 8312 5e3e a8de 46be 2f14 20be 1ab2 dd3d
00000380: 10ca f93c ed10 34be b81e d7bd 6bbf 62bc
00000390: 7c65 d5ba 27a8 243e 14fb 863d 69e6 013d
000003a0: 3add 0f3e e024 57bc 829c c43d 5267 3b3c
000003b0: f952 58be 332c f8bd d074 66bd d8bd 493e
000003c0: 43c1 4d3e 848c 85bd 4e8f 35bd fb1f ab3d
000003d0: 16d2 f83d 01cc 4dbc 1abf c9bd aa1d bf3d
000003e0: 6d4e 25be 233d bbbd 9f11 843d 216b 643e
000003f0: 791e 413e c108 99bc b8b4 303c 7a42 4ebd
0.034169134 -0.16925669 0.18342012 -0.17151512 0.014238024 -0.14832574 -0.048968866 0.20688972
0.14457291 0.16959983 -0.09948213 -0.10513873 0.059606105 -0.16908517 -0.026718443 0.12396893
0.12751314 0.061167732 0.14394158 -0.12082448 0.12937541 -0.008729418 -0.09971535 0.09553337
-0.16165464 -0.12410536 0.15379696 0.055117797 -0.11087362 0.026001971 -0.13087656 0.036216985
0.10779702 0.18206747 -0.23645967 0.013592166 -0.071732655 -0.19030046 0.19504876 -0.102701634
-0.20995708 -0.2034307 -0.10900284 -0.068947114 -0.18354459 -0.038527716 -0.0021939776 0.038581695
-0.24767655 0.07002604 -0.08296392 0.13963556 0.14140144 -0.02628058 -0.0007884195 0.05178074
-0.14566612 0.09156478 -0.17260817 0.1682094 -0.084168084 -0.24377394 -0.12572235 0.122489735
-0.21072756 -0.24563484 -0.011032711 -0.31562892 -0.05393927 -0.19277605 -0.32718092 -0.36222315
0.026747556 -0.19802955 0.025644999 0.18356887 -0.19303294 0.086985715 0.22753528 0.03720181
-0.15415768 -0.16891694 -0.11105064 0.25751203 0.15755974 0.15113999 -0.102152705 -0.03882438
0.07664314 -0.24758755 0.11398427 0.10934337 0.06892253 -0.29300496 0.12786484 -0.18777432
0.21707664 0.18376756 0.25918028 -0.030361744 -0.28213534 0.22383064 0.023200419 -0.013412694
-0.07951563 0.0966723 -0.29412836 -0.029906787 0.0631786 0.1800372 0.06965027 -0.038884003
-0.011974269 -0.0565737 0.2927518 0.08290576 0.1163613 -0.15393059 0.11624731 -0.13878171
-0.2382597 -0.11761595 -0.20580362 -0.045317467 -0.21747169 -0.23629938 0.015285357 0.011891663
0.092808716 -0.09381758 -0.10296301 -0.17178315 0.15733454 0.20702253 -0.038138248 0.084131405
-0.10880231 -0.03266284 0.09000185 0.115404084 0.027871517 0.006025442 0.22132914 0.060239535
-0.18934883 -0.14476715 -0.05429569 0.16353829 -0.13867049 0.034128968 -0.18052143 -0.03735916
-0.118195675 -0.11566306 0.019859662 0.19505404 0.19048293 0.099450134 0.08566521 0.06368858
0.029365646 -0.0797014 -0.11409829 0.0028498697 0.10380398 0.008235523 -0.00976113 -0.108816676
0.16263703 -0.025182927 -0.06925116 0.15817657 -0.064490974 0.017695716 -0.051163845 -0.00070590863
-0.048253857 -0.16477522 -0.02199539 -0.16766532 -0.015388765 -0.07223882 -0.03626851 -0.0990451
0.03521896 -0.19317806 -0.14108631 0.059589725 -0.09466615 -0.17608756 0.054778017 0.16905633
0.24846995 0.011088567 -0.012587374 0.21221755 0.21498139 -0.12130061 -0.16559447 0.069877796
0.05982737 0.23076381 0.14251052 -0.07706671 0.09266781 -0.1882746 -0.015380042 0.03742922
-0.12069821 0.0042375047 0.03251422 -0.15961255 -0.21956284 -0.117164895 -0.12920365 -0.1967398
0.15109015 0.16267997 0.10377256 0.14046952 0.21686749 -0.19420874 -0.156327 0.10824986
0.030491859 -0.17584582 -0.10503906 -0.013839583 -0.0016280855 0.1607977 0.06590858 0.031713877
0.14049235 -0.01313135 0.09600164 0.011438208 -0.21125402 -0.12117805 -0.056263745 0.19701326
0.20093255 -0.06520942 -0.04432612 0.08355709 0.12149446 -0.012560845 -0.09850903 0.0933183
-0.16143198 -0.0914252 0.064486735 0.22306491 0.1885928 -0.018680932 0.010785274 -0.050356366

hiden_layers.1.bias f4 [64]
00000000: 876a e53c 879a 1ebd 90d3 e53a daec 8539
00000010: 2838 163c 3b3e 07bc b500 44bd 9eb3 17bc
00000020: c4ae 8fbb 37e2 ec3c 8ea5 003c 975a 14bb
00000030: 94c7 d93d 80eb a3bb 7c0e 99bc d971 fcbc
00000040: 8897 1fbd f8c7 63ba b72b 29bb 547c 19bc
00000050: 347d 9dbb 6c90 a03d 552a 8a3c 3c83 97bc
00000060: 051f 8bbc 119a 48bd 146b 64bc fbda 88bc
00000070: cfad 143c 01ed 203a ac36 0abd a8e4 fcbc
00000080: 3521 823c f9e3 6e3a ec1a 2fbb bf72 2abd
00000090: 6aa3 8b3c dc50 1fbc bdf6 753c 11a2 ec3b
000000a0: 9196 83bc 3d13 853a b446 07bc a2f2 dabb
000000b0: 1f4b 74bd 2e30 9c3d 561a e4bb add7 f23b
000000c0: 3821 f7bb 8899 f9bc 6d37 acbc 7c5f 39bc
000000d0: fe5b 1d3b 80a6 c3bb 4f3e d83c 99a3 bf3c
000000e0: 8415 ffbc f8ec 34bc 3a23 b23c 9a1c 2bbd
000000f0: 232f 0c3d ad13 e33b fe59 b9bd f9b1 793c
0.028004898 -0.038721588 0.0017534364 0.00025544205 0.009168662 -0.008254583 -0.047852237 -0.009259133
-0.0043848474 0.028916461 0.007851971 -0.0022637004 0.1063377 -0.005002439 -0.018683665 -0.030816006
-0.03896287 -0.00086891605 -0.002581341 -0.009368021 -0.004806185 0.07840046 0.016865889 -0.018495195
-0.016982565 -0.048975054 -0.013941545 -0.01670598 0.009074642 0.0006138832 -0.033743545 -0.03087075
0.015884975 0.000911295 -0.0026718928 -0.041613337 0.017045695 -0.009723868 0.01501244 0.0072214683
-0.016063007 0.0010152828 -0.008256603 -0.006681756 -0.059641954 0.07626377 -0.0069611473 0.0074109645
-0.007541802 -0.030468717 -0.021022523 -0.011314269 0.002401113 -0.005970776 0.026396899 0.02339344
-0.03113819 -0.011042826 0.021745313 -0.041775323 0.03422464 0.006929836 -0.09050368 0.015240186

hiden_layers.2.weight f4 [64, 64]
00000000: 9f8a 08be 95e3 56be 5edb 9fbc 87bf 5d3e
00000010: c12b 593e c8d6 dcbc aa7a 6b3e 8250 7a3d
00000020: df59 9e3d 7f2e d2bd 2a3f 7c3e c16d 14be
00000030: 3d24 f3bd 0fb7 29bd f818 473e 0bde bbbd
00000040: c9a1 6dbc e4a9 a4bd fbe3 583e bcd8 46bd
00000050: 0636 0dbe 5cfd 77be 90ac 18be 4120 723d
00000060: 1ae5 c4bc 3843 ab3d 79c2 77bd e685 c8bd
00000070: f8c4 b23e 9cc0 ccbd e1a0 533e 7a46 89be
00000080: 9293 28be bf2f 743e 11fe 8ebe d84b ae3d
00000090: 9e7c a73d 25f3 a13c a681 5bbe aa03 f03d
000000a0: d4fc 0c3e 435f 50be 555d 1dbd 0706 c43d
000000b0: cc72 b23d c30f 603d d513 b83d aa56 a6bc
000000c0: 6fd0 c03d 4876 4c3e 31e4 41be c222 93bc
000000d0: 48b7 32be c396 5a3b 2c99 9c3d b245 5b3e
000000e0: dfae 6f3e 9639 fcbd fd9d 9b3c 2b99 d03c
000000f0: ae5a 7f3d 9d2d 5e3e 2b86 7abe 8f4a d03c
00000100: 13b9 923c 7906 0bbd a3d3 df3d 362b 813b
00000110: a9a1 f8bd e1a5 13ba c450 eabd 4382 13be
00000120: cb77 393e 0244 dbbd 25dc 0bbe 9238 a83d
00000130: a476 ee3a 6fc4 a5bd 2a73 3c3e e9f8 f3bd
00000140: bcb6 04be 228f 293e 8f52 0ebe cb3f 593e
00000150: daca 6d3e daf6 f2bd 4543 d5bd beb5 11be
00000160: 14ad 22be 8378 f3bd 2840 b13d 492b 493e
00000170: 8baf 2fbe f0d8 153e 87ce 4d3e 58ef f53b
00000180: d33f 97bd 5cc4 8e3c 33bd 89bc 47c6 aebd
00000190: 9537 93bd 09ad 123e 3889 563e dadf 49be
000001a0: fd2d ec3d bf05 89bd 6af7 6a3e 0d97 bf3d
000001b0: b6af 26bd 4f40 4cbd 2a8c 973d f1ae 893d
000001c0: c200 e03d 2df7 273e 701a ecbd 3ba0 373e
000001d0: c5bc 8abe 1167 803e 174c 97bd 92a7 5f3e
000001e0: 29fd 913d 9d20 f03d 080e 8fbd 752a 4b3d
000001f0: 1029 40bd 3796 513e c76b 083e ae92 11be
00000200: 946c 0ebe a194 d6bd 438f 293e be8b 50be
00000210: 0f2d 063e 88ae bc3d cc4b 60be 618e 04bd
00000220: a472 033e 9715 083e bc1e 073e e982 03bd
00000230: 8383 51be 7571 2fbd 442e d43c 5d6f ce3d
00000240: 3bb0 823d 4b40 76bc bb80 383e 04ca 273e
00000250: 9d9a 19ba 7627 33be ffdc 94bc 62ba a9bd
00000260: 9844 203e adc4 673e 2b96 f3bd 5a47 77be
00000270: 6503 13be 90c5 d7bd 6884 2abe 5818 c23d
00000280: 7440 3b3e c4b2 263e 63a0 d63d ded9 a73d
00000290: 1283 36be 015f 7cbe 501a 25be 365f 3abe
000002a0: f730 66bd 7953 f53d 079a 7ebe 0bde 9c3d
000002b0: 1479 953d 9ec6 763e 72a5 aa3b e80e 0e3e
000002c0: 4382 4c3e 9741 6e3e 9f16 7c3d 123b e63d
000002d0: 3cb9 793e 0c34 4f3e bd68 1e3e 6e06 c93d
000002e0: 6bd1 c9bd f065 18bd ec08 2b3e c8fc 90be
000002f0: b01d 29be a030 9e3d c41e 603e 7072 e93c
00000300: 9fb0 d03d d136 433e 149f 1d3c af82 5e3d
00000310: 5b31 9d3c 423a 9a3d dc28 623d 3fcc 59be
00000320: a22c 9ebd 8d71 47be ac52 6ebe dfce b33d
00000330: 9c1c 903d 56ee c83d 493c f2bd 7e4e c0bd
00000340: d9cf 343e 7995 833e 3bc7 2c3e d479 ecbd
00000350: 3474 7a3b d1b8 ba3d 1447 563e 8097 4bbe
00000360: 8e7e 27be 66cb 80bd d34c 2fbe 756e 103e
00000370: 6654 62be fa4a aa3d d07d 85bd ece1 bd3d
00000380: c21b d13c 9192 183d 25b7 2fbe 309f a13c
00000390: 3985 13be 8ec6 39bd 2e32 2fbe 2452 783d
000003a0: 5898 1bbe 9347 6bbd 598e 4d3e 2137 743e
000003b0: 3b8a 2ebe 1bf7 363e d490 1cbe a437 a33d
000003c0: 3892 cd3d bb77 033e f0df 58bc d9ee 193e
000003d0: eb71 b1bd 78bc 3abe 1571 563c 8e9b 39be
000003e0: 024b f73c 0306 1bbc ae06 8d3d da7a 203e
000003f0: 8e20 47be d0cd 01be 5474 db3d 1515 76bd
-0.1333413 -0.20985253 -0.019513782 0.21655093 0.21208097 -0.026957884 0.22996011 0.061111934
0.07731985 -0.10262775 0.2463347 -0.14494993 -0.11872146 -0.041434344 0.19443119 -0.09173211
-0.014503905 -0.080402166 0.21180718 -0.048546538 -0.1379014 -0.24217743 -0.14909577 0.05911279
-0.024035025 0.0836243 -0.060488198 -0.09791164 0.349159 -0.09997675 0.20666839 -0.26811582
-0.16462544 0.23846339 -0.27928212 0.0851056 0.08178066 0.01976926 -0.21436176 0.11719449
0.13768321 -0.2034884 -0.038419086 0.09571462 0.08713302 0.05470253 0.08988158 -0.020304997
0.094147556 0.19966996 -0.18934704 -0.01796091 -0.17452729 0.003335402 0.07646403 0.21413305
0.23406552 -0.12315671 0.018996233 0.025463661 0.06234234 0.21697088 -0.24465244 0.025426177
0.017910516 -0.03394172 0.109290384 0.0039419187 -0.12140209 -0.0005632323 -0.11441186 -0.1440516
0.18112104 -0.10706331 -0.13658197 0.08213915 0.0018193317 -0.08094107 0.18403307 -0.1191271
-0.12960333 0.16558507 -0.13898681 0.21215741 0.23221913 -0.118634894 -0.10413221 -0.14229485
-0.15886337 -0.1188822 0.08654815 0.19645418 -0.17156808 0.14633536 0.20098315 0.0075053386
-0.073852204 0.017427616 -0.01681385 -0.08533912 -0.07188336 0.1432382 0.20950782 -0.19714299
0.11532209 -0.06690549 0.22945943 0.093549825 -0.040694915 -0.049866017 0.07399781 0.067228206
0.109376445 0.16402884 -0.1152848 0.17932217 -0.27097145 0.25078633 -0.0738756 0.21841267
0.071283646 0.117249705 -0.06985098 0.049601037 -0.04691416 0.20467459 0.13322364 -0.1421611
-0.13908607 -0.104775675 0.16558556 -0.20365807 0.13103126 0.09212977 -0.21903914 -0.032362346
0.128367 0.13289486 0.13195318 -0.032107268 -0.20460324 -0.04283281 0.025900967 0.100798346
0.063812695 -0.015029977 0.18017857 0.16385657 -0.0005859526 -0.17495522 -0.018171785 -0.08287503
0.15651166 0.2263362 -0.11893877 -0.24148312 -0.14356764 -0.10535729 -0.16652071 0.094772995
0.18286306 0.16279131 0.1047981 0.08195852 -0.17823437 -0.24645616 -0.16123319 -0.18200383
-0.05619904 0.11978812 -0.24863444 0.07659539 0.072984844 0.24099204 0.005207711 0.13872874
0.19971566 0.23267208 0.06154501 0.112417355 0.24387068 0.20234698 0.15469642 0.098156795
-0.098543964 -0.03720659 0.16702622 -0.28317857 -0.16515231 0.07724118 0.21886736 0.02849695
0.10189938 0.1906388 0.009620447 0.05432385 0.019188574 0.07530643 0.055214748 -0.2126932
-0.07723357 -0.1947691 -0.23273724 0.08779692 0.07036707 0.09811084 -0.11827905 -0.09389971
0.17657413 0.25699976 0.16872875 -0.11546674 0.0038216235 0.09117282 0.20925552 -0.19882011
-0.1635687 -0.06288795 -0.1711915 0.14104636 -0.22102508 0.08315082 -0.065181375 0.09271607
0.025525931 0.03724915 -0.17159708 0.019729227 -0.14406289 -0.045355372 -0.17108986 0.06062521
-0.15194833 -0.057441305 0.20073833 0.23849155 -0.17044918 0.17867701 -0.15289623 0.07969597
0.10037655 0.12838642 -0.013236985 0.1503252 -0.08664306 -0.18235958 0.013088484 -0.18125746
0.030187134 -0.0094618825 0.0688604 0.15671864 -0.19446012 -0.12676167 0.10715547 -0.0600787

hiden_layers.2.bias f4 [64]
00000000: 0b7f 44bd 4506 d93b 8ccd 0ebd c2be b73a
00000010: bac2 2fbc 2e7a 4c3c cf79 563b a4ee b8bc
00000020: 86a0 343d 2f44 923b 7790 4f3c 1ca4 a1bb
00000030: b9c9 49bd 9cfa 07bc 0f7b b6bc 3300 6abc
00000040: 819f 713b 5db2 ea3c c830 9ebd 116d 1b3e
00000050: f768 19bc 4840 84bd 6d1a d93b 0028 283d
00000060: cd8b eabb de04 a13c f344 a2bc a3b6 333d
00000070: 07c2 12bd c3a5 9cbc 3efe 863c 6a63 be3b
00000080: 16ca a33b da66 763d f492 99bc 1068 333c
00000090: 910f b0be 465d c8bb 4a4d e7bb cedd 3f3c
000000a0: 629d 65ba ec14 83bd 9e61 c13c d524 f9bc
000000b0: 613d 11bc 34ac 303c 04c4 053b 2541 243c
000000c0: a1ac 793d 9d2c ad3c 2162 c4bb 58f9 a93b
000000d0: b909 f0ba fc6d 2c3d d9bd 9c3d 6c18 4e3c
000000e0: 1ebc b73c 1df6 80bd 6be4 f53c c266 82bb
000000f0: ef45 5fbb dd3a 3cbd a250 863b c711 0d3d
-0.04797272 0.006623062 -0.034863994 0.0014018642 -0.010727579 0.012480302 0.0032726412 -0.02257473
0.0440984 0.0044636945 0.01266872 -0.0049328934 -0.049264643 -0.008299496 -0.022275476 -0.014282274
0.0036868753 0.028649503 -0.07724148 0.15178324 -0.0093634045 -0.06457573 0.0066254647 0.041053772
-0.007157779 0.019655641 -0.019808268 0.043875348 -0.03582957 -0.01912201 0.016478654 0.005810191
0.0049984558 0.06015668 -0.01874683 0.010950103 -0.34386876 -0.0061146347 -0.007058774 0.011710597
-0.00087591086 -0.06400475 0.023606118 -0.03041307 -0.0088647315 0.010783244 0.0020411024 0.010025297
0.060955647 0.021139437 -0.005993143 0.005187195 -0.0018313444 0.042097077 0.07653398 0.012579065
0.022428568 -0.062969424 0.030016145 -0.003979535 -0.0034068783 -0.045954574 0.0040989676 0.034440782

hiden_layers.3.weight f4 [64, 64]
00000000: bab2 cc3e a5f0 673d bce5 c33d b401 febd
00000010: bf7f febc 9759 b93b 911b 5cbd 1889 63bd
00000020: 5f81 49be b21f f83d 008b b43d c13e ee3d
00000030: 6912 5d3e da46 e63d 1379 bd3d 43ec 14be
00000040: c537 78be eb2b 3fbe 794a 283d 923f 4abe
00000050: 51b2 c5bc ff26 a83d c428 853d f7dd 35bd
00000060: ee2c 6b3e 98a0 e03d 467f cb3e 6160 76be
00000070: 4d94 9ebd 868e 8bbd 40ce 3cbe e0c5 51bc
00000080: 19ca fe3d 1a9b 08be 9987 d1bd 7180 3fbe
00000090: 9889 3b3e 59c4 4b3d 1da6 3dbe 45dc d13d
000000a0: edb2 50be 4d90 9f3c f63e 033e a516 e73d
000000b0: 7438 ccbd efa5 a53e d30b 95bd e41a 533e
000000c0: 42f0 9bbe a5c4 063d 69a1 3a3d 1a8c 3fbe
000000d0: d07a 1ebe cbb5 53be 4246 6fbe ca45 213e
000000e0: 936c 27be c4ad a33e 80fd 723d 8705 94bd
000000f0: aa15 683e f006 0b3e c3ac 2abe 959d 283d
00000100: ef4e b03d 0c88 033c 0d4f 8a3d b9da 0fbd
00000110: a87a f8bd cb9c 523e 645b 4cbe 3a53 8abd
00000120: 82a6 52be 044f 38be 34dc 21bd 6ac2 373d
00000130: 7653 bb3d b3a2 023e 678b 583d 14d6 4c3e
00000140: f17b 9cbc ca4d c9bd 0857 27be 32be 17be
00000150: 7ed6 333e c22a 92be e230 7a3c 003e 3cbe
00000160: 4604 d43d 6800 ffbd 2b8a 63bd 1414 f7bd
00000170: 6a7f 593c 79cb 0c3e 6a0f 32bb 4a9f 313e
00000180: 8a66 043e e3ef 443e d365 b03b 313f 333e
00000190: 05e4 a2bd d6e1 4a3e 9f52 a33d c95a 2b3d
000001a0: fba4 bdbd 30fa 7bbe d3b2 eebd 5c5e 033e
000001b0: f0c6 9d3a 138b ecbd b94a 863d 92a0 d63d
000001c0: 359d 303e 21a0 e23c 9b45 883e 4ce0 6cbe
000001d0: 74d5 fc3b e127 833d 027d 80be a950 8dbd
000001e0: a86d 40be 05a7 153e fee1 26be d5a6 36be
000001f0: 7b83 8abc 4d37 853e d536 0abd 2ca3 18be
00000200: c3c2 13bd b65e 78bd d0a4 143e a0f9 4d3e
00000210: 6eee 33be 909c 3ebc bbca fcbd f3ba 5c3e
00000220: e40b 313e d99c 17bd cc63 4cbe eca1 babd
00000230: 9a3f 25be 6b0a 943d f31d 103e 1cc7 aa3c
00000240: 836f 263e 65b8 38be 3b5c 02be 3b8f 793d
00000250: c95a 68bb c945 613d 784e 6f3e bdef 7cbe
00000260: c90f d5bd 0e2b 473e 1d9f 9d3d 548d 6d3d
00000270: 89ae 50bd 43ba e43d 2b9a 3dbe ea36 b6bc
00000280: c083 273e 8f74 1abe 5f7c 163d ccd7 13be
00000290: 9ec7 ba3c ca69 9abd 46dc a9bd dc62 98be
000002a0: f29c b43d 99d7 5ebc b736 ddbd 1464 433e
000002b0: 195e fbbd bc55 e03d ae37 e5bd 0f87 3abe
000002c0: 5454 39bd 3e8b 85bd 3856 e53d 2085 23be
000002d0: 8db8 47be ef64 62be 267a 643e 2c0a 3e3c
000002e0: 7453 12be b03d dfbd 536f eb3d 8356 8a3e
000002f0: afad 913c d6ea a93d 9022 26be 4d3d 71bd
00000300: 68aa f53d c903 e93d c659 9d3d 4e3d 82be
00000310: 94cc 77bd 156b 2f3e 5567 d93d 8796 27bb
00000320: f9a0 8ebd 4188 0cbe 8a1c 97bd fc51 81bd
00000330: 7502 febd b456 1fbe ad58 f939 cd82 07be
00000340: 406c 0c3d 4208 b8bd 225d 7abd fa7b b63d
00000350: 4faf 333d 247b 56bd 46b1 7d3b a1ea 8c3d
00000360: 19da 363e c366 283d cea4 c9bd 0cd9 77be
00000370: a5ea 963d c565 823e 5bac 2d3e 48cc 413e
00000380: 8198 623d 691f 0e3e 2138 3abd b82e 6abe
00000390: 150f 003e ec30 f0bd 3a8d 95bb 5c73 5ebe
000003a0: 68c6 053e cb7f 163d 38c0 413e e6b3 203e
000003b0: 5167 13be 2eba e83c afc6 e439 7750 0ebc
000003c0: cb53 273c db3f 7cbe ad77 ddbd 383f 09be
000003d0: 9af1 b23a f242 d93c d945 70be 31e8 86bd
000003e0: 39da 83be 3af5 483e 2ea9 8e3d 5fb3 0e3e
000003f0: dd21 a4bd 6da7 00be 875c 81be 421b 123d
0.39980108 0.05662598 0.09565303 -0.124026686 -0.031066773 0.005656432 -0.053737227 -0.055550665
-0.19678257 0.121154204 0.08815575 0.11633063 0.21589054 0.112439826 0.09251609 -0.14543252
-0.24240024 -0.18669097 0.041086648 -0.19750813 -0.02413288 0.08210563 0.06501916 -0.044401135
0.22966358 0.10968131 0.3974554 -0.24060203 -0.0774313 -0.068142936 -0.18438053 -0.012803525
0.12440891 -0.13340417 -0.10230941 -0.1870134 0.18314207 0.0497478 -0.18520398 0.10247091
-0.20380755 0.019477988 0.12816986 0.11283616 -0.09971705 0.3235316 -0.07277646 0.20615727
-0.3045674 0.03290238 0.04556409 -0.18705788 -0.15476537 -0.20674817 -0.23366645 0.15749279
-0.16350012 0.3196851 0.059323788 -0.07227617 0.22664514 0.13576865 -0.16667466 0.041165907
0.086088054 0.008028042 0.06753359 -0.0351207 -0.1213277 0.20567624 -0.19956738 -0.067541555
-0.2057133 -0.17998892 -0.039516643 0.044863142 0.09146778 0.12757377 0.05286732 0.2000354
-0.019102069 -0.0982929 -0.16341794 -0.14818648 0.17562291 -0.28548247 0.015270444 -0.18383026
0.103523776 -0.12451249 -0.05555169 -0.120643765 0.013275007 0.13749494 -0.0027169832 0.1734592
0.1292974 0.19232135 0.005383232 0.17504574 -0.079536475 0.19812712 0.07974743 0.041834626
-0.09259983 -0.24607158 -0.11655202 0.12828964 0.0012037437 -0.11549964 0.06557221 0.10479845
0.1724747 0.027664246 0.26615605 -0.23132437 0.0077158753 0.06404091 -0.25095373 -0.0690015
-0.1879183 0.14614494 -0.16297147 -0.17837079 -0.016908398 0.26018754 -0.0337437 -0.14905995
-0.03607441 -0.0606372 0.14515996 0.20114756 -0.17571422 -0.011634007 -0.12343355 0.2155569
0.17289692 -0.037014816 -0.19959944 -0.091129154 -0.16137543 0.072285496 0.14073925 0.020846896
0.16253476 -0.18039091 -0.12730496 0.06092761 -0.0035454503 0.054998193 0.23369777 -0.24700828
-0.104034014 0.19450018 0.07696364 0.05799611 -0.0509477 0.11168339 -0.18515842 -0.022242982
0.16358852 -0.15083526 0.036739703 -0.14437789 0.022800263 -0.07539709 -0.08293967 -0.29762924
0.088189974 -0.013601207 -0.10801452 0.19081146 -0.12273807 0.109538525 -0.11192261 -0.18215583
-0.045246437 -0.06520699 0.111980855 -0.15968752 -0.19503994 -0.22108816 0.22312221 0.011599105
-0.14289647 -0.10900438 0.11495843 0.27019128 0.017783014 0.082967445 -0.16224122 -0.05889635
0.11995393 0.11377675 0.076831385 -0.25437397 -0.060497835 0.17130692 0.10615412 -0.00255719
-0.06964297 -0.13723852 -0.0737849 -0.063144654 -0.124028124 -0.15560418 0.0004755905 -0.1323349
0.034282923 -0.0898595 -0.061123975 0.089103654 0.04386836 -0.05236353 0.00387104 0.068806894
0.17856635 0.041113626 -0.09845887 -0.2420389 0.07368974 0.2546827 0.1696028 0.18925583
0.05532122 0.1387917 -0.045463685 -0.22869384 0.12505753 -0.11728081 -0.0045639547 -0.21723694
0.13063967 0.036742967 0.18920982 0.15693626 -0.14394881 0.02840909 0.0004363558 -0.0086861765
0.010212849 -0.24633734 -0.10813842 -0.13403022 0.0013652325 0.02652118 -0.23464145 -0.06587256
-0.25752428 0.19624797 0.06965862 0.13935612 -0.080142714 -0.12563868 -0.25265905 0.035670526

hiden_layers.3.bias f4 [64]
00000000: dc03 2abd 838b 063c e6c9 8ebd c65b 9e3c
00000010: e75f 9d3c 9dd6 a0bc ff10 003d c7f3 b4bd
00000020: 8eba 60bc 4ac1 86bb 123e 9d3c f4a7 463d
00000030: 474b aa3b 3962 45bc ba12 d1bc 8699 453c
00000040: 49dd 503c 21de 9bbd 0acd ab3c 918c 31bb
00000050: d6d5 a23b 7d6d 603c 45a1 67bd d844 763d
00000060: 5e9a b33c 5fd6 61bc 249a 93bd 4c3b 423b
00000070: 0580 2c3c b2cb 63ba a4da f5bc afe7 413c
00000080: 865b 893c ec64 e4bd 7bf6 26bc 8260 39bd
00000090: cd6c 6bb9 a84c 20bd 5c08 3bbc eb4a adbc
000000a0: 0fd6 b8bb 19f7 ae3d 3697 bdbc fc3f 323b
000000b0: 0116 8dbd 9faf 06bc 6c1e 2bbd 146d 00bd
000000c0: b905 a03c c674 30bc e500 213c 2c9e bbba
000000d0: 1d23 e6bc dee5 2c3c 359c 58bd d197 773c
000000e0: ade6 673c 2ea3 0e3c fac3 a0bc 3b55 063d
000000f0: 9332 a63c ad3c 31bd 0c09 99bd 636d 13bd
-0.041507587 0.008211973 -0.06972103 0.01933087 0.019210769 -0.019633586 0.03126621 -0.08835559
-0.013716353 -0.0041123973 0.019194636 0.048500016 0.005196962 -0.012047344 -0.025521625 0.012060529
0.012748071 -0.07610727 0.020971794 -0.002709184 0.004969339 0.013697979 -0.056550283 0.06012425
0.021924194 -0.01378402 -0.07207134 0.0029637394 0.010528569 -0.0008689716 -0.030011483 0.011835023
0.016767275 -0.11152062 -0.010190601 -0.045258053 -0.00022451878 -0.039135605 -0.011415567 -0.021153888
-0.005640752 0.08543224 -0.023143392 0.0027198782 -0.068889625 -0.008220582 -0.04177706 -0.031354025
0.019533979 -0.010770028 0.009826873 -0.0014314107 -0.028092915 0.0105528515 -0.052883346 0.015111879
0.0141541185 0.008705897 -0.019624699 0.032796126 0.020287788 -0.043270756 -0.07472429 -0.03599299

hiden_layers.4.weight f4 [64, 64]
00000000: 0bc4 68bc 3d2d 53be a3aa ec3d b99b 2fbe
00000010: 4826 283e 0c8d 533e 0cf1 f9bd bf04 e0bd
00000020: f2b6 8bbe 4754 963c 8635 9cbd 3672 423e
00000030: b573 55bd 236b 97be e3c4 ca3c bec2 30be
00000040: 3604 413d b70d 15be 5ffc 813d e19a 363e
00000050: ea6b fa3c 911b f03b 92c3 e6bd 2754 bdbd
00000060: a409 8abd 8346 09be 3eef 433b f0a0 20be
00000070: 60d9 a5be 1eab e73d 16f5 673e e8ca e23d
00000080: d586 593e 5c04 183d 2954 aebe 14fe 5bbe
00000090: 50ad bd3d 70b4 0d3c 2978 ce3d 4b7f 3c3e
000000a0: c24b 0fbd 5205 483e 9b7f 4b3e 1a85 b4bd
000000b0: 5f08 4a3e ba7c f93c caac 21be 0ff5 213e
000000c0: 9529 ddbd fb7b 923d 0f99 883d 5e0f 923e
000000d0: 93fd 7b3d d239 423e 61d1 5fbe 6dac a03e
000000e0: d374 90be 1baa 8cbd aef3 f73c a3c7 643d
000000f0: d680 9cbd 31ae cc3c 4930 d1bd cde3 3ebd
00000100: 8665 263c 9c79 0fbe e3af 21be 7193 a53d
00000110: 011b be3b 3ab8 03bc f7da f03d 8964 eb3d
00000120: b43d c43d 492f 0d3e 3831 253d 8b4c e2bd
00000130: b881 7abd 077a 653e 09e1 ad3d 91f2 e4bd
00000140: f103 fa3d 064d 5cbe 3890 77bd 8458 1d3e
00000150: f868 c13c 2c82 753e ebf9 83be fcaf 15be
00000160: abc9 d73d 118f ff3c 457a a23c e409 9cbe
00000170: ecd8 753d c688 423e 7665 8b3c d4af 12be
00000180: 50c5 4f3d ad54 173e 3f31 743d 785e b33d
00000190: c5c9 81bc f234 953d 49c5 59be ab09 f8bd
000001a0: 9144 30be 23ab 57be ff9e d13d 7731 9abd
000001b0: 201b a1be 18cf 2a3e 877b 5ebe 7a6d 0a3e
000001c0: d22b 083e 3a97 6c3e 34c6 493d 8930 3b3e
000001d0: 9754 cebd ee6f 583b 64e0 52bd d52b 29be
000001e0: 1ef7 773e 22d6 ef3d acf5 c4bd 4c1d 583d
000001f0: 7f3b 41be bd42 82be b140 75bc d893 f5bd
00000200: c178 d1bd bacd 623e de15 bd3c 6c9e 713e
00000210: 2f7e 8bbd 091b 36bd 2667 aabd d25c afbd
00000220: b882 063e 41d7 813e 52a8 e0bc d681 54bd
00000230: b020 59be 3530 b33d c23a 523e 8366 263c
00000240: 7dc1 23bd 164c 9abd 478e f03d 67cb 6fbe
00000250: d737 693e fc95 b6bd 0b15 0abe f571 173d
00000260: 5dcc b6ba c33f 7fbd f93c f23d 7a38 573e
00000270: e885 ee3d 95eb 46be dda1 eebd 81c7 0abe
00000280: 7309 05be e49c 06be bc05 6abd bb41 c2bc
00000290: 52dd c23d 772f 15be 22b2 2dbe 6b97 343e
000002a0: 8fb2 20bd 332d 273e f974 393d 88d6 8e3e
000002b0: 6c76 6abd 9117 67be 20ef a3bc e537 9ebd
000002c0: b256 893e 25a0 1d3d e877 17be 07c9 5fbe
000002d0: e31e 3ebd a96c 623e df72 9f3d 1e5b d5bd
000002e0: e54c a13e cf1d 1f3e fbeb 01bd 4e98 993d
000002f0: 374f 1dbd 0893 833d 336f 56be 79b4 fd3c
00000300: 4ea4 efbd 570a 5dbc a0d1 26be b47a bfbd
00000310: 9585 d23d 00c3 d5bd bbe4 47bd 1185 2bbd
00000320: 3e42 e33d d35f f4bd 208f 4d3d 3c40 c9bd
00000330: 1f4b 2c3e 5a37 b23b 0eed 15be 581d 7ebc
00000340: ab1b 153e b1d8 57bd 04f2 24be 6677 75bc
00000350: eaa7 503d 71b9 3cbe 4286 1cbc 3351 ac3d
00000360: c579 b7bd 11ea 4ebe 65c5 16be 4766 393d
00000370: cb20 8bbd c82c b0bd c899 2f3d 1977 4c3d
00000380: 6da6 1ebe 30ae dcbc 9d54 a4be d1ad 893d
00000390: 5e69 9a3d 4073 6cbe 9848 acbc 1f37 6cbe
000003a0: b5ac 3abd 9d4c 21bc fb61 233d 04fc aa3d
000003b0: 38f3 a23e e652 e5bd 6a93 cd3d 4082 e6bd
000003c0: 8b55 503d 2909 48be 150b 843d d5eb 8c3e
000003d0: 514e f33d 3904 803d db49 023d 7afb 423e
000003e0: 0e32 123e f0a9 203e df5f 94bd 8607 4bbd
000003f0: ae13 54bc 7e64 683e a6eb e43d e606 8bbc
-0.014206897 -0.20622726 0.11555984 -0.17149247 0.16420853 0.20659274 -0.12204179 -0.10938405
-0.27288014 0.018350733 -0.07627396 0.1898888 -0.0521123 -0.29573926 0.024752086 -0.17261788
0.047123156 -0.14556013 0.06346964 0.17832519 0.030569036 0.007327505 -0.11267771 -0.092445664
-0.0674012 -0.13405804 0.0029897238 -0.15686393 -0.32392406 0.11311935 0.22652087 0.110738575
0.2124284 0.037113532 -0.34048584 -0.21483642 0.09261572 0.008648977 0.100815125 0.18407933
-0.034984358 0.1953328 0.19872896 -0.088144496 0.19729756 0.030454982 -0.1578857 0.15816139
-0.10798947 0.07152554 0.066698186 0.2852735 0.061521124 0.18967369 -0.21857215 0.3138155
-0.2821413 -0.068683825 0.030267563 0.05585445 -0.07641761 0.024985405 -0.10214288 -0.046603967
0.010156041 -0.14011234 -0.15789752 0.08084763 0.005801559 -0.0080395285 0.11760514 0.11493785
0.095820814 0.13787569 0.04033014 -0.11049756 -0.061158866 0.22409831 0.08490188 -0.11179078
0.12207783 -0.21513757 -0.060440272 0.15365797 0.023609623 0.23975438 -0.2577661 -0.14617914
0.10536512 0.031196149 0.019833693 -0.30476296 0.060021326 0.18997487 0.017016154 -0.14324886
0.05072528 0.14778395 0.059617277 0.08758253 -0.015843282 0.07285489 -0.21266665 -0.12111219
-0.17213656 -0.21061377 0.10235404 -0.07528966 -0.31466007 0.16680562 -0.2172681 0.13518324
0.13297966 0.23104563 0.049261287 0.18280233 -0.10074728 0.00330257 -0.051483527 -0.16520627
0.24215361 0.117107645 -0.09617171 0.052762315 -0.18870352 -0.25441542 -0.014969037 -0.119910896
-0.1022811 0.22148791 0.023081716 0.2359559 -0.06811177 -0.044459376 -0.08320455 -0.08562626
0.13135803 0.25359538 -0.027424011 -0.051881634 -0.21203876 0.08749429 0.20530227 0.010156277
-0.039979447 -0.075340435 0.11745887 -0.23417436 0.22775207 -0.08915326 -0.1348459 0.036973912
-0.0013946403 -0.062316667 0.11828036 0.21017638 0.11646634 -0.19425805 -0.11651967 -0.13552667
-0.12991886 -0.13145787 -0.057134375 -0.023712983 0.0951487 -0.14568888 -0.16962484 0.17635886
-0.039232787 0.16325836 0.04527757 0.2789805 -0.057241842 -0.22567584 -0.020011485 -0.07725505
0.26823956 0.038482804 -0.14791834 -0.2185403 -0.046416175 0.22111763 0.07785582 -0.1041777
0.31503978 0.15538715 -0.03171919 0.07499753 -0.038405623 0.06424528 -0.20940857 0.030969845
-0.117012605 -0.013491235 -0.16290903 -0.09349576 0.10279385 -0.10437584 -0.04880212 -0.04187495
0.11096619 -0.119323395 0.050185323 -0.09826705 0.16825531 0.0054387273 -0.1464121 -0.015509926
0.14561336 -0.052696887 -0.16107947 -0.01498208 0.050941385 -0.18430115 -0.009553494 0.08413925
-0.089587726 -0.20206477 -0.14723738 0.045263555 -0.06793364 -0.08602291 0.042871267 0.049918268
-0.15493174 -0.026938528 -0.32095805 0.06722606 0.075396284 -0.2309084 -0.02103071 -0.23067902
-0.045574863 -0.009844926 0.039888363 0.083488494 0.31826186 -0.11197452 0.100378826 -0.11255312
0.05086283 -0.19534744 0.06447426 0.27523676 0.11880172 0.062508054 0.031808715 0.19041243
0.14276907 0.15689826 -0.072448485 -0.04956772 -0.012944145 0.22694585 0.11177759 -0.016971063

hiden_layers.4.bias f4 [64]
00000000: 27d1 d53b 71ba a23d 1094 a2bc 6493 e33c
00000010: 08c1 adbc aa1f 1bbd bafb 2b3c 135e df3c
00000020: 8104 ebba 4483 9b3c da5b 5d3d 665d 323d
00000030: 22f9 3b3d 2a6d 813c be3d 04bb a712 4d3c
00000040: c8dd 363c 30da 26bb 91e9 503c a195 143b
00000050: cae1 21bc db0e 2dbc 37a8 bebc e505 1a3c
00000060: 9c1c 033b 0347 0dbd dcaf 51bd 3434 073e
00000070: f62a d23c cfa5 b43d 110f e4bc 79d6 03bd
00000080: 24d5 be3d 0cc7 4fbd 64e4 90bd 4d50 02bd
00000090: d57c 64bd a641 443d 746f 4ebb dfa8 17bd
000000a0: 861f 483d 4da0 af3c cf32 d7bc 6fee 9c3d
000000b0: fde8 7a3d 7680 303c 81c7 4abd d715 153e
000000c0: 8256 383d b57b 9bbc 779f 6fbd 7de2 a8bd
000000d0: b6cb 22bd 418b 613c 065f 063e 70bb 93bb
000000e0: e4f7 063c ad4f 9b3d 6977 1abd 7fec 783d
000000f0: 7993 f4bc 1716 27bc 303e b53c 0b2a 2bbd
0.006525177 0.07945717 -0.019845992 0.027780242 -0.021210209 -0.037871994 0.010497028 0.027266538
-0.0017930419 0.01898349 0.054042675 0.043546103 0.04589189 0.015799124 -0.0020178403 0.012516654
0.011161275 -0.002545964 0.012750999 0.0022672194 -0.009880492 -0.010562624 -0.02327357 0.009400819
0.0020006066 -0.03449155 -0.051193103 0.13203508 0.025655251 0.08820688 -0.027839215 -0.03218696
0.09317997 -0.050726935 -0.07074812 -0.031814862 -0.05578311 0.04791417 -0.0031499537 -0.037026282
0.048858188 0.021438742 -0.026269345 0.07662665 0.06125735 0.010772815 -0.049506668 0.14559112
0.045004375 -0.018979887 -0.058501687 -0.08246324 -0.039745055 0.013766111 0.13122186 -0.0045084283
0.008237813 0.07583556 -0.037711535 0.060772415 -0.029855477 -0.010198138 0.02212438 -0.041788142
