results/15_without_terme/epoch15/model_weights.pth (torch, 486655 bytes, 88 tensors)

init_layer.0.weight f4 [64, 5]
00000000: a160 a13e 2283 59be 5bb3 403c 99b9 edbb
00000010: 9861 09be ef5a 6e3e 170f 193e 327c cf3d
00000020: 07af 253d f1d4 d23d 4a7a a13e 1bfa 62be
00000030: 6114 a9be cf64 edbd db1a 1a3d 5ac6 a6bd
00000040: 9976 253e 91d9 6ebe eee3 763e fea6 f3bd
00000050: 5959 0c3d 87e8 abbd b82f 183e 8ebe 953e
00000060: c512 9439 c893 853e 073e 0c3e 0646 51be
00000070: df1a 77bc c5d4 33bc b895 75be bc08 bbbc
00000080: 4d69 663e 4ff5 09bd 9c47 d6bd 2a4c 433e
00000090: 776b 3d3e 5313 af3e d2d5 56be 1792 e4bd
000000a0: 65d1 943e 4b74 1cbe 5e57 c2be 47ac 2cbe
000000b0: d95b a2bd 54fb a73e df84 9c3e c68d 603e
000000c0: 4432 22be edc0 c6bb 4c08 52bd 2626 2dbd
000000d0: 6ed0 4d3e d6fa 90be a7f9 cbbd a84a 4e3e
000000e0: db1f a83e 1aa7 f43d 75ef 433e 0971 1bbd
000000f0: 2257 bfbd 9cc6 5c3b 1d50 6b3e d227 383e
00000100: 3443 bbbd 640c 75be b2a7 403e 62fd 753e
00000110: 1874 1bbe 6ed5 0abe d3fb 6c3d 14a6 de3d
00000120: db69 78be 44e7 923e 8142 e13c f8fb 823e
00000130: 1fb9 1c3d 9755 edbd 199d d43c 3bd4 04be
00000140: bc40 863c 94ae 6ebe 5a32 9abb 215d a33d
00000150: d076 93be ebf6 64be d521 ba3d d4f1 883d
00000160: 97cc a8bd a0b8 8bbe d897 773e e9bc 69bd
00000170: 7d42 313e 4b80 70bd 3180 de3d c94b ffbd
00000180: 18d6 3a3e 0e21 4bbe 043b 033d 038a 493e
00000190: e98e 6b3e c4fd 2d3d 6681 47be a3f0 12bc
000001a0: 7f81 ecbd 4236 833e fa7d 18bd f3e6 5b3e
000001b0: 09f8 653e f94f 8c3e 16a3 973e a188 bcbd
000001c0: 9f29 ce3d 969d 5fbe d83c b63d 4336 83be
000001d0: b997 e53c 36e0 6d3e 9bb8 9a3d c251 423d
000001e0: aeaf 8e3e 7c69 f4bd 869d 0dbe 8441 40be
000001f0: 1bd1 383e 86a3 e8bd 8100 35be a4e9 153c
00000200: e72e a6bd f716 a8bd 6bd5 4abc 1ae1 943e
00000210: 6a3a 013c bf0b 6a3e abf0 c4bd d783 c63c
00000220: f272 533e 988e a8ba 0cb2 803e afc2 683e
00000230: 9fb3 aa3e fdf4 a7bd 2519 a03d e557 aabd
00000240: b46a 07be 24d5 ec3d 53f0 d23d 8731 273e
00000250: 187b db3d 5042 5dbd 7819 4f3d bdf7 fabd
00000260: 0116 8c3e 8561 bdbd 01c8 b93b 6417 293e
00000270: 6c00 473e b031 dbbc ff96 7bbd d596 f43d
00000280: b3b5 5f3d 8e75 93bd 3507 0cbd ae52 8e3e
00000290: 4b07 ffbc 6587 963e d538 6c3e d24d 183d
000002a0: f630 dabc 673a 203e 2af8 c43d 1c04 a2bd
000002b0: 3b07 a23d f159 253e 561c 71be b777 83be
000002c0: 2393 8c3e 010c 71be 34d0 613e 9544 ccbc
000002d0: 177b 60bd ca46 0b3e 6805 c1bd 2054 bf3d
000002e0: 9114 053c 510f 8c3d a3d6 8e3e cea9 433e
000002f0: 8303 523e 3a6b 16be 3883 9b3d 2f68 ef3d
00000300: eac4 51be 4e99 44be 28bb f7bd 38fc 3c3d
00000310: 5c6e f1bc d375 253e dbf2 8c3e 97df 293e
00000320: 450a 59be c07b 35be 4a64 df3c 3edf 26be
00000330: 714c 873d d521 b2bd 8a51 a53d 93ad 5fbe
00000340: 25fe 45be fd74 2abb f538 1f3e 0089 463e
00000350: 3ef2 b4bd 83c7 393e 197a 6f3d 6ec8 11be
00000360: fd21 11bd b5ff 9abd 36dc 49be b38f 833e
00000370: 6ba6 00be cb8f 4e3e 375e 9cbd 6f36 aebd
00000380: 8a43 993d 3fcb a23c 2ea1 2f3e 0d1d 70be
00000390: 5c35 4e3e 7788 1abe da1d a0be 123c 623e
000003a0: e40b 0a3d c500 463e 2b96 263e 65f6 9fbe
000003b0: c187 e63d dfea 0fbe 1e4b 913d 85f4 073d
000003c0: b61e a83e 783c 7b3e 3d8b a5be 44dd 9bbc
000003d0: 8cc5 44bd e47d 9a3c 95f0 fc3c 5946 c43d
000003e0: 27c3 fd3d c2a9 cf3d 441b 69be 8bc0 0ebe
000003f0: 1fa9 81be c985 423e 892e ad3d d852 9bbe
0.31519035 -0.2124143 0.011761512 -0.007254791 -0.13416135 0.23276876 0.14947163 0.1013111
0.040450122 0.102945216 0.31538612 -0.2216572 -0.3302336 -0.11591493 0.037623268 -0.08143301
0.16158523 -0.23325182 0.24110386 -0.118970856 0.034264896 -0.083939604 0.14861953 0.29246944
0.00028242744 0.2608931 0.13695537 -0.20436868 -0.01508209 -0.010976021 -0.23982894 -0.022831313
0.22501107 -0.03368121 -0.10462877 0.19072023 0.18498026 0.3419443 -0.20980003 -0.11160677
0.29066005 -0.15278737 -0.3795728 -0.16862594 -0.07927675 0.32808936 0.30570123 0.21929082
-0.15839487 -0.006065479 -0.051277444 -0.04227271 0.20099041 -0.28316373 -0.09959727 0.20145667
0.32836804 0.119459346 0.19134314 -0.037949596 -0.09342791 0.0033687716 0.2297978 0.1798394
-0.09143677 -0.23930508 0.1881397 0.24022439 -0.15181005 -0.1355798 0.057857346 0.10871521
-0.2425913 0.28692067 0.027497532 0.25582862 0.038262483 -0.115885906 0.025953816 -0.12971584
0.01638829 -0.23308784 -0.0047057094 0.07976747 -0.28801584 -0.22359817 0.09088484 0.0668675
-0.082421474 -0.27289295 0.24179018 -0.057064924 0.1731052 -0.0587161 0.10864294 -0.12465627
0.18245733 -0.19836828 0.032038704 0.19681554 0.23003735 0.042478338 -0.19482955 -0.008968505
-0.11548137 0.25627333 -0.037229516 0.21474819 0.22457899 0.27404764 0.29616612 -0.092057474
0.10066532 -0.21837458 0.08898324 -0.25627336 0.028026449 0.23230061 0.07554742 0.04744125
0.27868408 -0.11934182 -0.13829622 -0.18774992 0.18048517 -0.113593146 -0.17675973 0.009149943
-0.08114415 -0.08207505 -0.012379984 0.2907799 0.007887462 0.22856043 -0.09616216 0.024232788
0.20649317 -0.0012859879 0.2513584 0.22730516 0.33340165 -0.08201025 0.07817296 -0.08317546
-0.13224298 0.11564091 0.102997445 0.16327487 0.10716838 -0.05401832 0.0505614 -0.122542836
0.27360538 -0.09247116 0.0056695943 0.16512829 0.19433755 -0.026757091 -0.061423298 0.119428314
0.05461664 -0.07200156 -0.03418656 0.27797455 -0.031131407 0.29400173 0.23068555 0.03718359
-0.026634675 0.15647279 0.09617646 -0.0791094 0.07911535 0.16147591 -0.23545966 -0.25677273
0.27456006 -0.23539735 0.2205208 -0.024935046 -0.054804888 0.13601223 -0.09424859 0.093422174
0.008122579 0.06838859 0.2789813 0.19107744 0.20509152 -0.14689341 0.07593387 0.11689793
-0.20485273 -0.19199106 -0.12096244 0.046138972 -0.029471569 0.16158228 0.27529034 0.16589199
-0.21195324 -0.17722988 0.027269501 -0.16296098 0.06606377 -0.08697859 0.08072193 -0.21843557
-0.1933523 -0.0026009672 0.15549071 0.19388199 -0.088352665 0.18142514 0.05846605 -0.14236614
-0.035432804 -0.075683035 -0.1971291 0.2569557 -0.12563483 0.2017204 -0.076351576 -0.08506476
0.07483585 0.019872306 0.17151329 -0.23448582 0.20137542 -0.1509112 -0.31272775 0.22093228
0.033702746 0.19336231 0.16268222 -0.31242672 0.11256362 -0.1405444 0.070944056 0.033192176
0.3283593 0.24534786 -0.32332793 -0.019026406 -0.048039958 0.018858857 0.030876437 0.0958373
0.12390738 0.101398006 -0.22764307 -0.13940637 -0.25324342 0.18996347 0.084561415 -0.30336642

init_layer.0.bias f4 [64]
00000000: a87d a9bd dbae fdbd 09e7 9c3d bb63 f0bc
00000010: 94cd d13d 16bf 7ebd 058c 45bd 42a1 483c
00000020: ad48 693d e9a2 b6bd de0f 9f3d 7fc6 503d
00000030: 4bf5 993d 9213 b93d 8170 cbbd 44d5 8a3c
00000040: c9f9 bbbb 6c38 34bd d681 db3d 3038 b93c
00000050: c137 cabd 99b5 c93d 1b5b a8bd 6460 763c
00000060: de28 953d f6c4 1f3d d305 883d 11ce dbbd
00000070: 23ec 9c3d b7f1 b9bd 049b bc3d 09de fd3c
00000080: 3089 99bd b41c 223d 806f 30bd 3991 773d
00000090: e301 b53d 8f5b 8b3d ab22 a9bd b2b4 c0bd
000000a0: 63c3 7dbd b3f7 81bd b822 93bd 39ef d73d
000000b0: 3c1c c83d c4bc 34bd 1506 acbc e313 d33c
000000c0: d62a 13bc 1094 b83d 4fef 543d ddc8 a4bc
000000d0: fae9 063e 3897 0dbd 005a 993d 921b a1bd
000000e0: 161d d23d 7fe1 0fbd 26a7 8d3d f799 8cbd
000000f0: 0efd 143d 3a55 1c3c 3666 213d 8bdd 9d3c
-0.0827592 -0.12386867 0.07661254 -0.02934443 0.10244289 -0.062193953 -0.048229236 0.012245478
0.056954075 -0.089177914 0.07766698 0.05097055 0.07517489 0.09036936 -0.09933568 0.016947396
-0.005736564 -0.04399912 0.107181236 0.0226098 -0.098739155 0.0984909 -0.08220502 0.01503763
0.072831854 0.039006196 0.06641736 -0.107326634 0.07662227 -0.090793066 0.092092544 0.030989664
-0.074968696 0.039578155 -0.043075085 0.06044123 0.088382505 0.06804573 -0.082585655 -0.09409465
-0.061953913 -0.06346073 -0.071843565 0.10543675 0.0977101 -0.044125333 -0.020998994 0.025766319
-0.008982381 0.09012616 0.051986035 -0.02011531 0.13175192 -0.03456804 0.07487869 -0.07866587
0.10259454 -0.03512716 0.06916647 -0.06865304 0.036374144 0.009541804 0.039404117 0.019270679

hiden_layers.0.weight f4 [64, 64]
00000000: 41c3 143e 9fd2 37bc db5b 203e cfca c8bd
00000010: 367a 183e 534d 203e fdf1 323e cec1 323d
00000020: b063 56be b86a 1ebe 25ba 793d 4c59 3bbe
00000030: 7c6c 4e3d 5c06 12be 453a e3bd a472 833d
00000040: 1285 103e be05 b5bd 9774 713e 73d4 5abe
00000050: 6eb0 f13c bbcd 9abd 09e4 3e3d 0f82 47be
00000060: 3a39 c8bc 33cb 163c 777c 103e 25b9 0d3d
00000070: 028e 60bd 03b5 693d 43a9 77bd c0d0 19bc
00000080: b314 b3bc acbf 7dbd 66e4 513e 9594 2b3e
00000090: 5847 e7bd 469b 1e3d c34c 62be 4d61 2bbe
000000a0: 9a0b 5cbd d10b c23b adb4 c1bd fdd1 113e
000000b0: 5357 013e 1305 aa3c b18d 98bd 0d0e 70be
000000c0: a01e e2bd 14df 0a3e 42ab 4b3e 8570 993d
000000d0: 81aa 973d 69df 39be 46fa 243d df2d 103d
000000e0: 966e 02bd 7df9 723e 60cd 2abe 390f 17be
000000f0: 2066 63bd fa9d 4bbd 5fb4 803d 6652 513e
00000100: 55bb e1bd d269 55be 0f4e 8fbe 7743 03be
00000110: 45d5 58be a85a 7abe 6b3a 7e3e 78b9 0e3e
00000120: 8662 03be b0fc 9f3d f3a1 043e b70b 45be
00000130: 9f1b dabc b0d8 373e f3e9 223e d733 00bd
00000140: eba9 34bd 2582 aebd 4e28 72be 6d07 4fbe
00000150: 9117 82be 4a34 f2bd dc5b 2e3e f34e 203e
00000160: ab22 3fbd 7f57 783c ddc2 fe3d 65ac 10bd
00000170: 3e9f 30be fffc f6bd d47b fbbd 4671 073e
00000180: 42f1 b4bc cde6 0a3d c043 3cbe 5735 343b
00000190: 89e6 3f3c e076 49be 06bd 9ebd 4220 61bd
000001a0: 991d 03bd fd63 38be ac60 27bd 15db 293e
000001b0: 3706 40be 2275 f6bc 5a61 f5bb ec83 6e3d
000001c0: 39b9 7abe a2ee a73d dbb0 5a3e a3dc 6f3e
000001d0: 7b74 123e 9ef0 1e3d 1b26 b6bd 3630 473d
000001e0: 190e 7bbd 97a7 f73d 545e 42be 171d c33c
000001f0: 7106 e7bd 2b35 bf3d 88db 87be 2b1c 67be
00000200: 9838 06be 931e cb3d 8c77 89be 111e 87b9
00000210: d577 ddbd f509 2cbe b8fe 973e 0ca7 573c
00000220: 79c3 88be 8293 edbd 21f5 483e fbb2 a8bd
00000230: e318 3e3e d877 853e 238f 80be 90b2 2a3d
00000240: b03d f13c 485d 563e bb86 323e fa16 373e
00000250: 023d eabc cc7c 1cbd 3f70 5dbd 28cb 693e
00000260: 3569 88be 33b5 f7b9 dd7f 123d aa37 8ebd
00000270: 3e99 193e c302 593d a94c 6e3c 1da6 0b3e
00000280: fd09 83be 84b5 9d3d 0a25 6dbd a93f 543e
00000290: 38bf 4a3d bbae 3cbe e1ba 4dbe eb94 1b3d
000002a0: d717 703c b011 19bd 0d0b 84be 5075 2fbe
000002b0: e399 f7bd 9e19 1fb9 2614 073e c181 9f3d
000002c0: 8acf 3bbe f1d1 213d 5a95 873d c83a 853e
000002d0: f2b8 053d 7afe d23d 8ceb 9d3d 823e e0bd
000002e0: a0ba 82bc 2043 c13c 563d 053d af43 cf3c
000002f0: 6cca 8f3d 422d 173e eb11 473d 5df4 183d
00000300: e4f9 ec3c 515c 58be 1200 63be e4ac 24be
00000310: 53fc e2bc 0f56 21bd 3b2d ce3b 73e6 32be
00000320: 5484 1d3e 9ca6 9f3d 93ac 563e 9af4 18be
00000330: 2fb6 2cbe dbe4 2ebc 4f5a 2e3e 836c c93d
00000340: e99f 9cbd b849 ad3c bf5c fe3d c708 1c3d
00000350: c442 19be 1876 38be 1eb7 2a3d 469d 9a3d
00000360: aef9 c83d 20a3 c83d a446 68bd b7f8 21be
00000370: 8885 0dbe 0eeb 9abd abd9 283c a10f 66bd
00000380: 4075 1e3e 480f 2ebd 9616 f2bc ed9a ebbc
00000390: 0325 f73d f2ff 7b3d d8ca 29bd d146 01bd
000003a0: 5c4e 113e 60f9 263e d0aa d7bd b62e ce3d
000003b0: 686c 9abc eb35 36be 3cc6 52bd 59f6 efbd
000003c0: 1441 e73c d392 6a3d d80f 223e 23e0 583e
000003d0: d43c c03d 22bb 2d3c 597d 3d3d e187 dd3c
000003e0: 4107 373e 040f 3b3e c5ac 05be 51b2 773c
000003f0: db39 d1bd e936 333e fcc9 0dbd d307 c03d
0.14527608 -0.01121965 0.1566004 -0.09804308 0.1489037 0.15654497 0.17475124 0.043641858
-0.20936465 -0.15470397 0.060968537 -0.18295783 0.050396428 -0.14260238 -0.110950984 0.0641835
0.14113262 -0.08838986 0.23579632 -0.21370105 0.029503074 -0.07558771 0.04660419 -0.19483207
-0.02444135 0.00920372 0.1410998 0.034600396 -0.05482293 0.05705739 -0.060464155 -0.009388149
-0.021860456 -0.06195037 0.20497283 0.16755898 -0.112929046 0.0387223 -0.22099595 -0.16736336
-0.053722 0.005921819 -0.09458289 0.1424026 0.12630968 0.020754373 -0.074489005 -0.2344286
-0.110409975 0.1356166 0.19889548 0.074921645 0.07405568 -0.1815163 0.04027774 0.035199996
-0.031843744 0.23727985 -0.16679907 -0.147519 -0.055517316 -0.049711205 0.06284403 0.20441589
-0.11022059 -0.20841148 -0.2798924 -0.12818705 -0.21175106 -0.24448645 0.24826972 0.13937938
-0.12830552 0.07811868 0.12952404 -0.1924275 -0.026624499 0.17953753 0.15909557 -0.03129944
-0.04410736 -0.08520917 -0.23648188 -0.20217676 -0.25408605 -0.118263796 0.17027229 0.15655117
-0.04666392 0.015157579 0.12439511 -0.03532066 -0.17248246 -0.12059974 -0.12279478 0.13226804
-0.022087697 0.033911515 -0.1838522 0.0027497613 0.011712679 -0.19674253 -0.07750897 -0.054962404
-0.03201065 -0.18006893 -0.040863678 0.1658748 -0.18752371 -0.03008515 -0.007488412 0.05823128
-0.2448472 0.081998125 0.21356528 0.2342401 0.14302246 0.03880369 -0.08893987 0.048629962
-0.06129274 0.12092512 -0.18981296 0.023817582 -0.112805255 0.09336313 -0.26534677 -0.22569339
-0.13107526 0.09917941 -0.2684902 -0.00025771608 -0.10813872 -0.16800673 0.29686522 0.013162386
-0.26711634 -0.116004005 0.1962476 -0.08237263 0.18564181 0.26067996 -0.25109205 0.041674197
0.02944836 0.20934021 0.17434208 0.17879859 -0.028593544 -0.038204953 -0.054062124 0.22831404
-0.26642767 -0.00047246515 0.03576647 -0.06944211 0.14999864 0.05298115 0.014544644 0.13637586
-0.25593558 0.07700637 -0.05789665 0.2072741 0.049498767 -0.1842603 -0.2009082 0.037983816
0.014654121 -0.037370384 -0.2578968 -0.17134595 -0.120898984 -0.00015172965 0.1319128 0.077884205
-0.18340889 0.039506856 0.066202834 0.2602141 0.03264708 0.10302444 0.077109426 -0.109494224
-0.01595813 0.023591578 0.032529198 0.025300829 0.07021031 0.14763358 0.048601072 0.037342418
0.02892775 -0.21128966 -0.22167996 -0.16081578 -0.027708208 -0.039388712 0.006292013 -0.17470722
0.1538251 0.0779545 0.2096427 -0.14937058 -0.16866373 -0.010674681 0.17026637 0.0983515
-0.07647688 0.021153316 0.12420034 0.03809431 -0.14966875 -0.18013799 0.04167854 0.07549529
0.098132476 0.097967386 -0.056707993 -0.15817533 -0.1382047 -0.075643644 0.010305802 -0.05616725
0.15474415 -0.042495042 -0.029551785 -0.028760398 0.12067606 0.061523385 -0.041453212 -0.031561676
0.14190048 0.16306067 -0.10530627 0.10067503 -0.01885052 -0.17794006 -0.051458582 -0.11716909
0.028229274 0.05726893 0.15826356 0.21179251 0.09386602 0.010603698 0.04626212 0.027042331
0.17873861 0.18267447 -0.13054188 0.015118198 -0.10216113 0.17501415 -0.034616455 0.09376492

hiden_layers.0.bias f4 [64]
00000000: 56c2 753c 2076 4cbd c4f1 12bc 8aee 243c
00000010: f12b 6c3d 86c7 503d b598 74bd 93ad 943d
00000020: 274b 9339 ee8b ad3d a3a0 79bd ec35 3abd
00000030: e4eb 87bd 86c3 883d 15a7 f0bc b324 32bc
00000040: 2b94 9bbd 1104 34bd 70ed 49bd 8575 eebc
00000050: 1b7c 303d 9a9c 2abd d899 cbbc 11d5 26bd
00000060: 78ab a03d 7601 8ebd b573 173c e637 e9bc
00000070: 8c8d d0bd 2d57 883d 7ee6 44bd bcc2 bdbc
00000080: b108 7dbd b7b4 41bd 2f2a 43bd 6ab7 d9bd
00000090: a9bd 88bd c124 4d3d db2b 123d b8cf 5abc
000000a0: 76bd 40bd 24fa 703d eda7 99bc 4a61 a4bd
000000b0: dc77 1d3d 1c48 7fbd d977 07ba 8e99 603c
000000c0: e3b9 14bd d39e 79bd 9a02 593d b6e6 42bd
000000d0: eb5d 8f3c 7770 893c f62d d9bb 28d1 abbd
000000e0: 9384 adbc 072e 7a3d 4966 8bbd e31c 5c3d
000000f0: d327 65bd e778 8cbd 2e72 4abc d18d a23d
0.014999947 -0.04991734 -0.008968774 0.010066638 0.057659093 0.05097153 -0.059715945 0.07259669
0.00028094018 0.08473955 -0.06094421 -0.04546158 -0.066367894 0.06677918 -0.029376546 -0.010873008
-0.0759662 -0.04394919 -0.049298704 -0.029108772 0.043087106 -0.041653253 -0.024853632 -0.04073054
0.07845205 -0.069338724 0.009243895 -0.028469037 -0.10183248 0.066572525 -0.048071377 -0.023164146
-0.061775867 -0.047291484 -0.04764765 -0.106306866 -0.066768 0.05008388 0.035686355 -0.013355188
-0.047055684 0.058832303 -0.018756831 -0.08026369 0.038444385 -0.06232463 -0.00051677 0.013708485
-0.036310088 -0.060942482 0.052980997 -0.047583304 0.017500838 0.01677726 -0.0066277934 -0.08389503
-0.02118138 0.06107905 -0.06806619 0.053738486 -0.055946182 -0.06858998 -0.012356324 0.079372056

hiden_layers.1.weight f4 [64, 64]
00000000: a708 ec3d 2e31 0a3e e15e 5b3d 6e9c e53d
00000010: 002d 21be 684f 993d 8e4d c13d 7ef9 e13d
00000020: 3ac4 a8bd ff3a bebd e2ec 1f3e 2a93 3abe
00000030: 0a96 b3bd c9bb aa3d e491 a73d 42f7 ccbd
00000040: c083 4a3e 688e e23d 581d 013e 8902 a23d
00000050: 7bc1 6cbe b971 023c 6f3a 453e f52f 3a3e
00000060: be52 143e e2ce 263e 898e 083e 413f 383e
00000070: 2a56 68bd 1329 28be 4b7b f2bd c607 223d
00000080: 0e0a 843d c1fe 463e 6d6f 2fbe 7eb9 ed3d
00000090: 08c4 b63d ef78 1d3d f5eb 23be 8a6d 8cbd
000000a0: 6a78 76be 3836 6fbe 36e8 3ebd d47b 233d
000000b0: 648f 873d ee4c b13d 0ffe c7bd 0c58 b6bd
000000c0: b4fd 483c 409b 593d 31a1 343e b52e 07bd
000000d0: 8740 353e a17f 37bd 6ca6 463d fb9d f8bc
000000e0: f1b5 363e 891a 083d 7b91 193e 0176 2c3e
000000f0: 9867 03bd 924e 9b3e 0717 823d c568 34be
00000100: e803 5abe 96b5 283d cd00 123d 1a08 763d
00000110: 780f f7bd f8e1 a93d 1509 cebd b167 54be
00000120: bc8b 833d 1aa7 fdbc a6ab 70be 238a 35bd
00000130: 8bd8 17be 0deb d5bd e6e2 123e f5bc 47be
00000140: 7896 e43d 1e07 6f3d 844c 2c3e 5a58 483e
00000150: c5d1 0e3e c458 30be 4dc4 bb3d c9d2 f23d
00000160: d01f 143e b3c0 ae3d 3e0d 813e 3387 33be
00000170: 4843 773d 156c 193c 76a2 8abd 24d4 23bd
00000180: 35e7 e93d 4811 25be abd8 babd fd41 413e
00000190: b3e4 4abe d266 fd3d 16b8 02be ba84 eebd
000001a0: 890a 50be ac6e 47be 89c6 a53d 2620 7b3d
000001b0: ff51 403e 7e39 31bc 891f 17be f8bc 233e
000001c0: 03bd 113e 5529 74be 568d c4bd 4237 0a3e
000001d0: 21be 003e 50ec 59bd 5a3d c4bd 3557 ffbd
000001e0: 7f96 a7bd d15a 253d 0f5d 5fbe 324b 51bc
000001f0: dc6b 1dbe 120e 4fbe 3039 753d 1a01 303e
00000200: 7890 a6bd 6ea2 0b3d ad84 c83d bcdf 363d
00000210: f316 d8bc 3a9c c3bc 287c 663e a6a1 0dbd
00000220: e392 a4bd 0260 bf3d 30bb 8b3d bd12 233e
00000230: f435 c6bd 6470 143e 36c1 773d 2cdc f03c
00000240: 35e9 723d ae3d 03be a1a4 223e fa4b 15bd
00000250: 4be1 bc3c a478 1b3e d237 053e 08ba 143e
00000260: 6574 113e 29c8 6bbe 361b 3c3e a990 17bd
00000270: 500b 0a3d ff94 3b3e 5bcb db3d 43f2 56be
00000280: d26e 0a3d 2d59 0c3e 5b03 2b3e 3b40 9f3d
00000290: 6032 623e b649 493e f532 03be 4c28 2cbd
000002a0: 1067 263d 4bd7 683e 7239 c33c 1e09 063d
000002b0: 7daa 3d3e 241a 983c 2dca 07be 84eb 2abe
000002c0: 3042 0fbe ff14 44bd bb8c dcbd 9331 d8bd
000002d0: b45f 883d 96ad 75be 4411 95bd 4b9c 683e
000002e0: 25b1 86bb a4d5 32be f5c6 3b3e 10de 183d
000002f0: c9d2 413e 1277 a63d 1a0d 19be b9c2 513e
00000300: aba5 5ebe bdf1 53bd 858c 793d 52e5 82bc
00000310: 0195 6bbe 8e64 96bd 1b5f a3bd ae97 ffbd
00000320: 631c 453d bdc4 c03d 924e 823e f7e8 2d3e
00000330: fdea 02be 7c5d b5bd e41d 013c d79e b23d
00000340: 5852 bc3c 7b96 b33c cf6a c73d 2dd9 013e
00000350: 30b1 673d 43ac 463e f837 4dbc 8aaf 7bbe
00000360: b5dd 59bd a1a2 e0bb f025 8abc 1fa6 48be
00000370: 5979 a63e 7f21 2abe 895b 89bd 7dfb 2dbe
00000380: af6d 133e 54c5 313e c0bb 623c 015d 8d3d
00000390: 3ca2 19be b38b 2abe cddf 0cbe 2bfc 59be
000003a0: 02ae 85bc ae35 043b 3f99 473e 56ec 393e
000003b0: 204f 493e f9f9 383e 3da5 a3bc d4e8 343e
000003c0: 28b0 41be acbf bd3d 38d2 4b3d 18d2 01be
000003d0: 09ad 07bc 3892 013e 8545 dfbc acaa 6f3e
000003e0: 8dcf 60bd 7e4f c0bd 8d00 853e ae9c 703d
000003f0: 1c66 c73a 7102 003e 42d7 d93d 233e 67be
0.11525088 0.13495323 0.05355728 0.11211477 -0.15739822 0.07485849 0.094386205 0.11033915
-0.08240552 -0.09288596 0.15617707 -0.18220201 -0.08768852 0.083365984 0.08182123 -0.10008098
0.19776821 0.11062318 0.1260885 0.0791064 -0.23120682 0.007961684 0.19260572 0.18182357
0.14484689 0.16289857 0.13335623 0.1799288 -0.056722797 -0.16421919 -0.118399225 0.039558195
0.0644723 0.19433118 -0.1713235 0.116076455 0.08924109 0.03844541 -0.16007979 -0.068568304
-0.24069372 -0.23360527 -0.046608172 0.039913014 0.066191465 0.08657251 -0.09765255 -0.08903512
0.012267519 0.053126574 0.17639615 -0.033003528 0.17700396 -0.04479945 0.048498556 -0.030348768
0.17842843 0.03322843 0.14996903 0.1684189 -0.032081217 0.30333382 0.06352048 -0.17618091
-0.21290553 0.0411888 0.035645295 0.06006632 -0.12063497 0.08295053 -0.10060326 -0.2074268
0.064231366 -0.03096347 -0.23502979 -0.04432119 -0.14828698 -0.10445223 0.14344367 -0.19505675
0.11161512 0.058356397 0.16826063 0.19564953 0.13947208 -0.17221361 0.09168301 0.1185661
0.1446526 0.08532848 0.25205415 -0.17532043 0.0603669 0.009364148 -0.06769268 -0.039997235
0.11421052 -0.16119874 -0.091233574 0.18872829 -0.19813804 0.12373127 -0.12765536 -0.11646409
-0.20316519 -0.19475812 0.08094508 0.061309956 0.18781279 -0.01081693 -0.14758123 0.15990055
0.14232258 -0.23843892 -0.0959727 0.13497642 0.12572528 -0.05320388 -0.095820144 -0.12467805
-0.08183002 0.040369812 -0.21812843 -0.012774276 -0.15373176 -0.20220211 0.05986899 0.1718792
-0.08133024 0.034090452 0.09790931 0.044646963 -0.02637813 -0.023878206 0.225083 -0.034577988
-0.08035829 0.09344484 0.068228126 0.15925117 -0.096782595 0.14495999 0.060486995 0.029401861
0.059304435 -0.12816498 0.15883113 -0.03644941 0.023056647 0.1518274 0.13009575 0.1452409
0.14204557 -0.23025574 0.18369755 -0.037003193 0.033702195 0.18318556 0.10732146 -0.20990853
0.033797093 0.13705893 0.16700499 0.07775923 0.22089529 0.19657025 -0.12812407 -0.042030618
0.04062563 0.22738378 0.023831103 0.03272354 0.18522067 0.018567152 -0.13260718 -0.16691405
-0.13990092 -0.047871586 -0.1076903 -0.105563305 0.06658879 -0.23991999 -0.07278684 0.22715871
-0.0041104727 -0.1746431 0.18337615 0.03732115 0.18928064 0.081281796 -0.14946404 0.20484437
-0.21742885 -0.05174421 0.060925025 -0.01597849 -0.23006059 -0.07343398 -0.07977124 -0.124801025
0.048122775 0.09412525 0.2545057 0.169834 -0.12784953 -0.08855721 0.007880662 0.087217025
0.022988483 0.02192234 0.09737169 0.12680502 0.056565464 0.1940165 -0.012525551 -0.24578682
-0.053189952 -0.0068553244 -0.016863793 -0.1959462 0.32514456 -0.1661434 -0.06706912 -0.16990466
0.1439731 0.17360431 0.013838708 0.06902505 -0.15003294 -0.16654854 -0.13757248 -0.212876
-0.016318325 0.0020173597 0.19492052 0.18156561 0.1965909 0.18064107 -0.019976253 0.17666942
-0.18914855 0.09265074 0.049761027 -0.126778 -0.008281001 0.12653434 -0.02725483 0.2340495
-0.054885436 -0.09390162 0.25976983 0.05874317 0.0015212926 0.12500931 0.1063676 -0.22582297

hiden_layers.1.bias f4 [64]
00000000: 24c2 3dbd 3d82 cd3c 7d0a 0a3c f7d1 8fbd
00000010: f08c 953d eab9 783d 476d 0b3d 1561 cc3c
00000020: 207d 18bd a760 363c 3bd6 0fbd 635c a3bc
00000030: bf77 1cbd c251 b33a 2b08 723c cd8b 293b
00000040: d58d 363d 4bed 783d 4444 2dbd e993 78bc
00000050: 418d 84bc 618f a13c 58c6 5fbd 92b7 90bc
00000060: bdfc abbd dbc5 96bd a7dc 09bd 0c95 1abc
00000070: dcf5 ee3c 8c0b ea3c 1579 673a 94c4 8d3d
00000080: 6ef7 923d 819d bebc 83dc 5c3d ce75 5fbd
00000090: 6d70 4fbd d702 663d 6fae 38bd a254 dfbb
000000a0: c2e7 45bc fffe 4bbd 08df 0b3d aa66 813d
000000b0: 9b82 4c3d c70a ad3c a6d2 fb3c aabc 3d3d
000000c0: fc70 453c f5cd 123c 6fb2 8e3d ea82 f1bc
000000d0: 43a8 653d 8f85 60bd 3d73 803d d2da 983d
000000e0: a03c 6b3d 1e07 f8bc 066b 26bd bc70 55bc
000000f0: e73f 90bd 4ec3 303d 6ab1 9f3c 4811 d0bc
-0.046327725 0.025086517 0.008425352 -0.070224695 0.07302272 0.060724176 0.034039762 0.024948636
-0.037228703 0.011131442 -0.035116415 -0.019941514 -0.038200136 0.0013680982 0.014772455 0.0025870681
0.044568855 0.060773175 -0.04230143 -0.015171983 -0.016180636 0.019721689 -0.054632515 -0.017665658
-0.083978154 -0.07361957 -0.033657696 -0.00943495 0.02916997 0.02856996 0.00088299933 0.0692226
0.071761 -0.023268463 0.053921234 -0.054555707 -0.050644327 0.056155052 -0.045088228 -0.006815509
-0.012079181 -0.04980373 0.034148246 0.0631841 0.049929243 0.021123303 0.030740093 0.046322502
0.012050863 0.008960237 0.06967627 -0.02948137 0.05606867 -0.05481487 0.0627198 0.07463612
0.057430863 -0.030276831 -0.04062941 -0.013027366 -0.070434384 0.043155007 0.019493777 -0.025398865

hiden_layers.2.weight f4 [64, 64]
00000000: 6645 60bd d006 0bbd d01e 4b3e 3e04 713e
00000010: a9da cbbd 5dba 893e 37e2 2bbe 9251 85be
00000020: 583c 733e f853 bdbe 3aee 353e 001a 5bbe
00000030: 78c7 93be ed35 fc3d 98ef 25be a575 383e
00000040: e831 32be 5064 4f3e f722 183e cee1 60bd
00000050: b85f 8b3e d0a6 54be 61ac a43b 7fcd 9ebd
00000060: 10be 263e e2b9 27bd d1ed a13d 7294 8c3d
00000070: 9158 e3bd d7d9 55be f9d1 c8bd 5e5b 0fbe
00000080: c0b4 4abe 718a 96be a51c c3be c2c5 043e
00000090: 612c 6dbe dfa1 02be ba4f 853e 1fda b0bd
000000a0: 507e 5a3d bb86 c3bd 0cc5 503c 9c97 00be
000000b0: 9234 82be 1dde 653d 4023 f4bd 0f5f 823d
000000c0: 46d5 843e 4c10 50be 6447 b339 4d01 673e
000000d0: 7e9d 80bd caa8 06bd fd8a 4c3d 9bf3 bf3d
000000e0: 9291 1ebe 0abb 9fbd 6b14 073e 1600 6c3d
000000f0: 49b8 f33d df68 87be 62ae 0c3c 7859 0e3e
00000100: 1756 debd 5dc3 9ebd 49a6 69be 77f5 e53b
00000110: 48a4 8e3e af51 cbbc b0df 6cbd cdc0 b6bd
00000120: e372 03be 25d4 d53d 8b8e 64be 7925 bf3b
00000130: 10ff 8c3d a7fe 98bc b714 603e e54f 2cbd
00000140: 18ee 143e ce25 2fbd e721 50be 2d52 f9bd
00000150: 2af8 42be 2e72 3abd 6f43 7abd 1db9 4f3e
00000160: bf96 c93d a205 3d3d d599 61bd a9cb 80bc
00000170: baa4 fb3d 1460 30be c7f5 c3ba b3a5 20be
00000180: 4ce2 003e a263 263e 55e6 bcbc 6f84 c1bd
00000190: 9543 f5bd 199f 68be ab08 53be 964f 5e3e
000001a0: f5b2 60bd 6dc5 fabd db9e 8d3d 1e8c 21be
000001b0: 3413 2ebe 9fad 86bd 320c 533d 9303 b03d
000001c0: 1b77 2e3e 3b89 b43c 64e0 5b3e 3833 afbc
000001d0: f58c 04be fa4c 05be dd87 0abd c693 47be
000001e0: a922 333e ccb9 b03d d81c f1bd 3a17 c7bc
000001f0: c96e 48bd d401 87bd 763b e6bd d63d 1d3d
00000200: d253 383e cd59 203e 7290 0a3e 4d79 2bbd
00000210: 3770 2cbe c13c 6f3c 0e94 0e3e 7379 203e
00000220: f0aa 33be 7e0e d6bd 8828 99b9 169c ac3d
00000230: 7ddd 623e b03b 8d3d 2314 49bd 1ade 3fbe
00000240: 6cb0 dfbc f5f5 383e 5989 ee3d bc4e da3d
00000250: 2a42 ae3d a2a1 3cbe 636f ad3d eb6d 79bd
00000260: 49c2 d3bd ce21 bc3c a43c f83d 394c 403e
00000270: 760d 2d3e d759 26be 33c3 883d 9af9 c73c
00000280: 8b08 d0bd 2915 0cbe cb03 4c3e 9611 063e
00000290: f8f5 5a3e c513 ebbc 3883 5dbe a7f4 40be
000002a0: 5310 233e 1165 dcbc 0b8a 533d 7b35 523d
000002b0: e4c7 17be f86b 4d3e 8e1a 30be 597e 5a3d
000002c0: 0211 7dbe 9c9d e2bd 730a 6b3d dd06 b1bd
000002d0: c095 2d3e 5ff6 483e ea3b 68be 2c52 a63d
000002e0: 0765 6d3e b429 433e a932 1abd 780a 713d
000002f0: f41e 7c3d a56a 553e b5e8 db3c 31a9 8abd
00000300: 1f15 25bc 1dd9 583e 23d8 5c3d 681b 23be
00000310: 5e11 4bbe 8d21 313d f140 443b b475 debd
00000320: 6391 99bd 341d 5dbe c9b1 adbd e45d 12bd
00000330: 5abd 57bd 9cde b03c dcaf 953d 72da 24be
00000340: 77f8 cdbb 241d bbbd 6980 073e f177 a0bd
00000350: 900d b7bd 90c8 81bd b285 35be d8cb e6bd
00000360: 26a1 f43d bdbe 3dbe 30d1 103e 95b9 0d3e
00000370: c02c ddbc e07f 933d dca2 2ebe ef32 90bc
00000380: 9773 1abe 92a8 153e 6761 eb3d f705 20be
00000390: 4a9b 4dbe 57ee cebd 7a6d 4b3e e94d cdbd
000003a0: 20e8 42be 88ec 0cbe d572 1cbe 4834 27be
000003b0: 8309 c63a 10f5 213e 39ec f13d b618 233e
000003c0: d716 6c3e 7315 f73d ce5c fbbd 63c8 9b3d
000003d0: 8a08 d2bc b8da 54bd 05da e9bd 287f 7c3e
000003e0: 8a0c 9ebd 6ad9 58be d167 073e 560d 153e
000003f0: 767c 193c 199f c4bd cacd 9c3d 4df7 28be
-0.054753684 -0.033942044 0.19835973 0.23536775 -0.099538155 0.26899996 -0.16785513 -0.26038796
0.23753488 -0.36978126 0.17766657 -0.21396637 -0.2886312 0.12314973 -0.16204679 0.18013628
-0.1740185 0.2025311 0.14857088 -0.054902844 0.27221465 -0.20766759 0.005025432 -0.07754039
0.1628344 -0.040948756 0.07906688 0.06864251 -0.11100877 -0.2088388 -0.09805674 -0.13999698
-0.19795513 -0.29402497 -0.38107792 0.12966064 -0.2316146 -0.12757061 0.2603739 -0.08635353
0.053343117 -0.09547182 0.012742292 -0.12557834 -0.25430733 0.056120027 -0.11920786 0.06365787
0.25943965 -0.20318717 0.0003419473 0.2255909 -0.06280039 -0.032875814 0.049937237 0.09372636
-0.15485218 -0.07799347 0.13191383 0.05761727 0.11900384 -0.26447198 0.008586498 0.13901317
-0.10856264 -0.07752106 -0.22817339 0.007017787 0.27859712 -0.024819223 -0.057830513 -0.089234926
-0.12836795 0.10440854 -0.22320001 0.0058333245 0.06884587 -0.018676115 0.21882902 -0.04206838
0.1454395 -0.042760663 -0.20325433 -0.12173877 -0.1903998 -0.045519046 -0.061099466 0.20285459
0.09843206 0.04614795 -0.055078346 -0.015722113 0.122872785 -0.17224151 -0.0014950567 -0.15688209
0.12586325 0.16248944 -0.02305905 -0.09449088 -0.11975781 -0.22716941 -0.20608775 0.21710047
-0.054858167 -0.12244687 0.06915065 -0.15776107 -0.16999513 -0.06576084 0.051525302 0.08594432
0.17037623 0.022038093 0.21472317 -0.021386728 -0.12944396 -0.13017645 -0.033820976 -0.19489965
0.1749369 0.08629188 -0.1177308 -0.024303067 -0.048933778 -0.065921456 -0.1124181 0.03838905
0.18000725 0.15659256 0.13531664 -0.04186373 -0.16839682 0.014601887 0.13923666 0.15671329
-0.17545676 -0.10451983 -0.00029212632 0.084282085 0.22154804 0.0689615 -0.04909147 -0.18737069
-0.027305804 0.18062575 0.11647291 0.10659549 0.085087135 -0.18421033 0.08468511 -0.06089584
-0.10339791 0.022965338 0.12120941 0.18779077 0.16899666 -0.16245209 0.06677856 0.024411011
-0.101578794 -0.13679947 0.19923322 0.13092646 0.21382892 -0.02869595 -0.21632087 -0.18843327
0.15924196 -0.026903661 0.05164532 0.051320534 -0.14822346 0.20060718 -0.1719763 0.05334315
-0.24713519 -0.11065218 0.057383012 -0.08643887 0.16951656 0.19625233 -0.22679105 0.08121142
0.2318307 0.19058877 -0.03764597 0.058847874 0.061552957 0.20841463 0.026844362 -0.06770552
-0.010075836 0.21176572 0.05391706 -0.15928423 -0.19830844 0.043244887 0.0029945935 -0.10862294
-0.074984334 -0.21593171 -0.084811755 -0.035734072 -0.052670814 0.021590523 0.07308933 -0.16098955
-0.006285723 -0.091364175 0.13232578 -0.07835377 -0.08938134 -0.063370824 -0.17726782 -0.11269349
0.11944799 -0.18529792 0.14142299 0.13840325 -0.026998878 0.072021246 -0.17054313 -0.017602412
-0.15083157 0.14615086 0.114931874 -0.15627275 -0.2007877 -0.101040535 0.1986598 -0.10024626
-0.19033861 -0.13762105 -0.1527818 -0.16328537 0.0015109036 0.1581614 0.11812634 0.15927395
0.23055588 0.12064638 -0.122735605 0.0760658 -0.025638837 -0.0519664 -0.11418537 0.24657881
-0.077172354 -0.21176687 0.13223197 0.14555869 0.009368053 -0.09600658 0.07656439 -0.16500588

hiden_layers.2.bias f4 [64]
00000000: 8520 4cbb d004 793c f241 2539 13ff 153b
00000010: 6d6a 49bd 15d9 9ebc 2fb3 d63c 4105 4b3d
00000020: fdde 32bd dcea ee3c ef07 18bb edba a3ba
00000030: 0192 393d e12a 68bd 5fee 493d b038 383d
00000040: 75a5 f3bb 6b0a 113d 55ec 0cbd 95c2 65bc
00000050: 9d40 94bd 45d0 18bc 63b7 21bd 902a 1bbd
00000060: 20b7 39bc 51fd 5ebd 5353 77bd e6d0 ef3c
00000070: 292a 1c3c a3bd 10bd eda9 743d 63f2 03bd
00000080: fa98 e93c 7539 c5bb 1ad2 eabc 9ac0 0f3d
00000090: 7e6d ae3c 2014 593c 5c5f b7bb 5868 3d3b
000000a0: 5f43 053d bfcb 24bd 1234 223d b9a1 953d
000000b0: 7723 c73c ba05 c23b 163f 1f3d f8e3 b73c
000000c0: 9edf 89b8 6bfb 473d 1855 f0bc 28bc 44bd
000000d0: c755 6ebd dcaa 623d fe48 bfbd ff9a 5cba
000000e0: 139e ee3c 67ef 1fbd e877 b9bc a507 273d
000000f0: 765f d53c 7811 bcbc 34d8 863c ab89 27bd
-0.0031147313 0.015198901 0.00015760193 0.0022887632 -0.04917376 -0.019390622 0.026208488 0.049565557
-0.04366969 0.029164724 -0.0023198088 -0.0012491621 0.045305256 -0.056681518 0.049299594 0.044975936
-0.0074354955 0.035410326 -0.03440507 -0.014023443 -0.072388865 -0.009326999 -0.03948153 -0.037882388
-0.011335164 -0.0544408 -0.0603822 0.029274415 0.009531536 -0.0353371 0.059732366 -0.03221358
0.028515328 -0.0060188123 -0.028664637 0.03509579 0.021292444 0.013249427 -0.0055960845 0.0028901305
0.032534953 -0.04023337 0.03960044 0.07306237 0.024308903 0.005921093 0.038878523 0.022447571
-6.574321e-05 0.048823755 -0.02933745 -0.048031002 -0.058187272 0.055338725 -0.09340094 -0.000841543
0.02912811 -0.03904667 -0.022640184 0.040778775 0.026046496 -0.022957548 0.016460516 -0.040902775

hiden_layers.3.weight f4 [64, 64]
00000000: 9d91 62be b656 08be 3c14 df3d c6fa f9bd
00000010: af59 2a3e 5d67 cc3d 61e1 aa3d 7c6e c83d
00000020: 494f 99bd 6b7b 3cbd 104b 20be d757 14be
00000030: dab9 a43d e98f 1f3e 2033 0f3d eb2d c8bd
00000040: 4020 253e 0dbc 553e fba9 ed3d fd1a 31be
00000050: 07e8 30bd 0513 32be 81ac 76be 52e5 3bbe
00000060: 9316 ddbd f934 553e cba1 0bbd b04c 0a3e
00000070: 683a 8cbd 1b59 6e3e 3fc3 4abe 5cc3 e3bd
00000080: 6d5c 843d 3596 a53d 0935 5a3e 0388 c63d
00000090: 8d75 61be 47ac 713e 45b9 353e 8681 283e
000000a0: faf0 993b b3e8 cfbb 601f 8ebe b7e9 bc3d
000000b0: 6cb0 16be 82e6 ca3d 5977 123d 35fc 173e
000000c0: 4ec1 31be 8740 4ebd a196 ddbd 5117 d93d
000000d0: 0c6d c93d ffb4 1c3e a3b1 d53d bfa1 61be
000000e0: adcb 0d3c f643 68bd 75bc 0cbd f84b 873e
000000f0: f2d8 353e e244 1b3e a917 bbbd 827a 2dbe
00000100: be2f 5c3c 3074 273e dafa 093d 68f5 8c3e
00000110: 5292 33be a75d 363c ad1e 673e df49 1bbb
00000120: e968 823c ec70 253e a9e5 1abc 5c9d 273c
00000130: 1915 9d3e 62fe 7c3e e596 363e 1ee9 243e
00000140: 829e 343d 5372 dd3d 711d 94be 14d4 5b3c
00000150: 5826 9e3c ed8a 81bd cbd0 3c3e 68dd 24be
00000160: c73b fdbd 4dc1 23be 45ac b5bd c5e1 ccbc
00000170: 4d41 27bd 494f 053c 8988 20be 757e 25bd
00000180: f62a 07be fd25 1abd 31df a1bd 249a 68be
00000190: 7a1c 1a3e 4711 bdbd 99ef 953d 0985 bebd
000001a0: 11d3 86bd 7d03 6e3d e12d b5bd fa8d fbbd
000001b0: 1ffa 513e d7e8 393e 2051 293e 46f2 493d
000001c0: bfe7 dbb9 52ee 27be 0956 8ebd 7dca a13d
000001d0: b238 133e b1cc dfbd 42f0 0fbe ea87 493e
000001e0: 6a27 f43d c574 64be 5d13 c63d 68f1 6cbe
000001f0: 459c e5bc 42d4 51bd 0cc5 693d 92fe 0cbe
00000200: 745c 6b3d 1e3e 3ebe b4cd 25be 0e1b 34be
00000210: 32e5 43bd 01c2 debd fab4 a1bd e726 9fbd
00000220: 5834 153e 68f7 73bd d964 ff3c fc0c 40be
00000230: 105d 2f3e 5ed0 913e 9874 b13d 3caf 29be
00000240: 601a 183d 7f59 6cbe 14a0 453d b497 58be
00000250: 71e0 a93d e5d7 2d3e 92f5 acbd 8889 3cbd
00000260: fb19 3bbe 44d8 d9bc d0e9 29bc 662a 553c
00000270: b413 1bbe 82b6 0d3e e268 d73d 6fc9 86bd
00000280: c306 38bd 928f 223e 3f96 2cbd 20d4 023e
00000290: 02ee 87be 0334 bebc 7f56 2fbe 616e 27be
000002a0: 3d18 26be 67bf 953e 2ab5 f9bc 0ba8 963c
000002b0: 3f38 31be 311a df3d 2cf5 a6bd 5dcc 3f3e
000002c0: 07d2 453e 4634 63be bbb9 383e 134a 1b3e
000002d0: 9513 0dbe 93ef 89be fe09 7d3e e78a 1ebe
000002e0: 7201 533e fe76 343e cdb6 693e 19b5 1cbe
000002f0: 413b cdbd e579 503e 2d31 083e 01e6 8dbd
00000300: 3c3d 88bd 5ff6 8a3d b286 383d aa13 33be
00000310: 0e14 d13c 3590 ecbd 06a8 e43c 1012 473d
00000320: cc3e e83c c220 01be 39f6 473c 013f 6d3e
00000330: 9085 9d3d 4055 553e c908 163e 6e87 57bc
00000340: 8c2f 683e 4b8a 22be 6573 2bbd fa6e 22be
00000350: 86b8 51be eb53 37bd b520 92bb c5b1 dd3d
00000360: b253 38be faaa 4ebd 3d15 6ebe b069 edbd
00000370: 0ad5 0ebe 0137 f6bd 34a0 1c3e e152 b93d
00000380: 0869 9d3d ec22 223e a059 39be 782f b5bd
00000390: f6de 543e 5f7f 35bd 4f1e 38be 4179 353e
000003a0: c1a4 6fbc f9ed ce3d f5c7 46bc 0f82 8ebd
000003b0: dcb7 37be 948e 2dbc 796b 4a3d 449e f8bd
000003c0: 387a b03d 6cae d53d c196 983d 4d2f b1bd
000003d0: 0d12 6f3e 42c1 9ebd 03d8 b9bd 6ef9 4c3e
000003e0: d70b 42be fa3f e33d 1142 743c 908a 343e
000003f0: 75d7 80bd ec89 15bd 3ddb 043d dbd5 ab3d
-0.2212586 -0.13314328 0.10892531 -0.12206034 0.16635774 0.099806525 0.08343769 0.09786698
-0.074858256 -0.046016138 -0.15653634 -0.14486633 0.08043261 0.15582241 0.034960866 -0.09774383
0.16125584 0.20872517 0.11604687 -0.17295451 -0.04319003 -0.17390068 -0.24089243 -0.18349198
-0.10795321 0.20820989 -0.034089845 0.13505816 -0.068470776 0.23276179 -0.19801043 -0.11121246
0.06462941 0.0808529 0.21309294 0.09693911 -0.22017498 0.23600875 0.17746456 0.1645566
0.004697916 -0.0063448786 -0.27758312 0.09224265 -0.14715737 0.09907247 0.03575835 0.14842303
-0.17358896 -0.050354507 -0.10819746 0.106001504 0.09835252 0.1530342 0.10434272 -0.22034357
0.008654517 -0.056705438 -0.034359414 0.26425147 0.1775854 0.15162995 -0.09135372 -0.16941264
0.013439117 0.16352916 0.033686496 0.2753098 -0.17536286 0.011130727 0.22570296 -0.0023695154
0.015919166 0.16156358 -0.009454169 0.0102303885 0.3068016 0.24706414 0.17830999 0.16104552
0.044096477 0.10812821 -0.28928712 0.013417263 0.019305393 -0.06325326 0.18439023 -0.16100085
-0.12364917 -0.15991707 -0.088707484 -0.025009999 -0.04083376 0.008136579 -0.15677084 -0.040403802
-0.13199982 -0.037633885 -0.079038985 -0.2271505 0.15049925 -0.09231811 0.0732109 -0.09302718
-0.065832265 0.058108795 -0.08846641 -0.12282939 0.2050557 0.18155228 0.16534853 0.049303316
-0.000419436 -0.16399506 -0.06950004 0.0789995 0.14377096 -0.10927714 -0.14056495 0.19680753
0.1192158 -0.22310169 0.09671662 -0.23138964 -0.028028617 -0.051227815 0.057072684 -0.13768986
0.057461217 -0.18578383 -0.16191751 -0.17588446 -0.047826 -0.10876847 -0.07895847 -0.07771092
0.14570749 -0.059562117 0.031176018 -0.18754953 0.17125344 0.28479284 0.086648166 -0.16570753
0.03713453 -0.23081015 0.048248366 -0.2115162 0.08294762 0.16976888 -0.08445276 -0.046029598
-0.1827163 -0.026592381 -0.010370687 0.013010597 -0.15144235 0.13839152 0.10518052 -0.06581389
-0.044928323 0.1587508 -0.042135473 0.12776232 -0.26548773 -0.02321816 -0.1712284 -0.163507
-0.16220184 0.2924759 -0.030481894 0.018390676 -0.17306612 0.108936675 -0.081522316 0.18730302
0.193184 -0.2218791 0.180396 0.15164976 -0.13777001 -0.26940593 0.24710843 -0.15482675
0.2060602 0.17623517 0.22823639 -0.15303458 -0.100210674 0.20358999 0.13300009 -0.069286354
-0.066523045 0.06785273 0.04505033 -0.1748797 0.025522258 -0.11550943 0.027912151 0.04860121
0.028350256 -0.12610152 0.0122047 0.23168565 0.07691491 0.20833302 0.14651789 -0.013154848
0.22674388 -0.15873067 -0.041858096 -0.15862647 -0.20480546 -0.044757765 -0.0044594654 0.108249225
-0.18000677 -0.050456025 -0.2325029 -0.11592424 -0.13948455 -0.1202221 0.15295488 0.09049011
0.07686049 0.15833634 -0.18100595 -0.088469446 0.20788178 -0.044310924 -0.17980312 0.17722036
-0.014626683 0.101039834 -0.012132634 -0.069584005 -0.1794123 -0.010593075 0.0494189 -0.12139562
0.086170614 0.10433659 0.07450629 -0.086516 0.2334673 -0.07751705 -0.09074404 0.20017025
-0.18949829 0.11096187 0.01490833 0.17630982 -0.06291095 -0.036508486 0.032435644 0.08390399

hiden_layers.3.bias f4 [64]
00000000: 13c2 97bb 9450 e73c f318 a5bc 50a2 943c
00000010: e745 133c eb94 053d c225 fdbc 794f 78ba
00000020: 23f4 7bbc ef77 a1bc 5e53 08bd e94e 3abd
00000030: cf14 1ebb 8512 a6bb f874 d03c 8ed2 48bd
00000040: bd2e 36bd 048e 453d 3a03 b63c d42c 93bb
00000050: c5f3 37bb 581d 20bc 96cb 93bc 9426 213d
00000060: afdd 43bd 1bfd 893c 71bb 6abc 0901 f839
00000070: 6f61 d83c aff2 9ebb 6855 143d 7246 253d
00000080: cae1 973b a8a3 403d 4ad7 983d 2c09 613c
00000090: 540e 883b 5652 723c fba8 08bc 9a82 c53d
000000a0: 7f7b ac3c c5ba b53c 0434 9f3c 1745 3ebc
000000b0: 7980 56bd c9fa 693d fcf2 3f3d 3063 c63c
000000c0: c08f 0b3d 990c b7bc ff5f b0bb 0079 573d
000000d0: e608 27bd e8c8 19bd b1b0 c83c b42a 30bd
000000e0: 6b3a d03c 320b bebc 7ca7 253d c618 3fbc
000000f0: 6207 b23c ed00 d33c 6085 913c e70f 953c
-0.0046312897 0.028236665 -0.020153498 0.018143803 0.008988834 0.032612722 -0.030901793 -0.00094722916
-0.015378031 -0.01971051 -0.03328263 -0.04548541 -0.002412129 -0.0050681257 0.0254464 -0.049028926
-0.044478167 0.04823114 0.022218335 -0.004491428 -0.0028068882 -0.009772621 -0.018041413 0.03934343
-0.047818836 0.016844323 -0.014326916 0.00047303017 0.026413647 -0.0048507075 0.036214262 0.040350385
0.0046350705 0.047031075 0.07462938 0.013735097 0.0041520987 0.014790138 -0.008341069 0.09644051
0.021054981 0.022183785 0.019433983 -0.011613152 -0.052368615 0.057123933 0.046862587 0.024217218
0.034072638 -0.022344874 -0.0053825374 0.05260563 -0.04077997 -0.037545115 0.024498316 -0.043009475
0.02541848 -0.023198698 0.04044293 -0.011663621 0.021732036 0.025757277 0.017763793 0.01819606

hiden_layers.4.weight f4 [64, 64]
00000000: e16c 483e eef7 bcbd a30e b73c a965 1cbe
00000010: 25ad c83d f235 27be 496a 20be ae93 1e3e
00000020: 13e4 bebd a613 94bd 6b8e 663d 6cd3 40be
00000030: 6a21 14be 72c0 bf3d da82 a0bd ad2e 1fbe
00000040: 9906 db3c 37d2 62bb 0107 823d da4d 0a3e
00000050: 4fd7 5dbd 6085 ca3d 3c01 59be 976c f93c
00000060: 0e0e a43d a155 3ebe a78b 32be 6e4e 14be
00000070: afa8 dfbb e688 2bbe 493f 48be ddee 48be
00000080: cc1c 093e 64ed 223d bde3 48be 5270 9abc
00000090: 8db8 1ebe dc71 cf3d 7242 363e 10aa be3d
000000a0: ddb2 723d 14a3 373e 83c7 7ebd 4477 1f3e
000000b0: ec2f d33c 3866 8bbd 4293 313e dcb5 1f3d
000000c0: 9f50 313e 121e 653e 680d 163e 69e1 643b
000000d0: 42d1 20be ad34 27be f32b 103e fa6d bebd
000000e0: 239f 613e 18ff 3f3e f1c7 bcbd ab8a 1abe
000000f0: 1478 fcbd 003a 36be e65d 20be 1a2e 263c
00000100: bd7c 163e 4fcf f03d 9129 403e 07a8 0f3e
00000110: fe5f 8f3d 7e2d aabd 03d2 343e 6ca7 68be
00000120: 429c d73d 9492 283e b0c7 323e c2e1 2f3e
00000130: 8321 f0bd 40ad 473d 7a48 93bd 0bb3 733d
00000140: 3dfd 23be 5c0c 94bc a1d8 9d3d 5c01 5a3e
00000150: d9d9 0ebe dd7e d2bb 90e4 ae3d 323e 543e
00000160: 6dce cd3d 4d0f ccbd a980 3abe 56c8 93bd
00000170: b9bc 303e 237b 80bd c1b6 4e3e d1c7 d13d
00000180: d3ba 2d3d 14f0 79be 85f4 a23d 1a8e 303d
00000190: 595d efbd a7a0 02be 60d4 49bd 8455 f1bd
000001a0: 148b 733d b6ad 23be 1e90 0e3c c6cb 003e
000001b0: 67fa 243e 4c98 cd3d 0e19 653e d96e a63d
000001c0: 5672 15be 2b42 8ebc 5a73 623e b841 5cbd
000001d0: 0e6c 173e d636 ab3d 67c0 b03c 28f0 a53d
000001e0: b541 763d ee83 23be 902f bdbd 26c5 243e
000001f0: cd31 e53a 7fc4 2bbc ec34 15be a34f 38be
00000200: 2421 20be 7253 5b3d 511f 0c3e 8364 993d
00000210: 9ee4 cd3d e7e2 a63b 769f dc3c 924e 09be
00000220: 4a25 90bb 0f0c 453c 71ef 6dbe 288b 333e
00000230: ae70 f3bd 309c 92bc f6cf 33bd 7c82 61be
00000240: 0cb6 11be f039 09bb fe48 943d 7986 453e
00000250: 28e0 bebd 8dca 003e d2ec 1b3e 2451 0abe
00000260: fd49 a63d 414a 373e 48fc 8abc 494e d83d
00000270: 6795 293e 3d61 9ebd e717 26be 6731 1bbe
00000280: b93c 12be 3224 ff3d 7180 62be 917b 6d3e
00000290: 33f6 903c 88f4 2d3e 98cc 8fbc 7061 223e
000002a0: b2bf 18be a803 c1bd b241 f53b 49fe 093d
000002b0: 6c7a ff3d 246c edb8 88cd a93d e859 b23d
000002c0: bc92 293d 6ea6 c83b 2ae5 e9bd ed98 c7bd
000002d0: fb70 d63d f5c9 ba3d 82d6 8fbd bda2 c2bd
000002e0: d829 f63d c6e7 39be f5b8 6ebe 34c0 87bc
000002f0: 0172 bfbd fcf7 893d 5765 813c 1377 2cbe
00000300: 2db2 28be c815 513d bb59 64bb 30c8 07bc
00000310: dab3 0f3e 4312 d2bd 1d15 2c3d fe0d 383e
00000320: 6a5e bc3d 796c 853d 6843 8dbd b42e d43d
00000330: de45 38be 7326 50be bd7f 093e c92c 393e
00000340: e634 87bd 5b8c aebd 87af fa3d 9fd9 82be
00000350: 2652 353e 1601 50be 494a b13d 8c6e b43d
00000360: dd9a 23be f3c2 e9bd ef93 5e3e 7d84 783d
00000370: 1f2c 143d 25e0 0abe 2b31 223d a825 093d
00000380: 8844 063d 4148 1a3e 2714 7ebd d478 53be
00000390: 40cb 753d 7846 9bbe 26be 29bb 11b7 43bd
000003a0: 474a 3fbe 87b6 3c3e c4cf 4fbe 4107 803e
000003b0: 65d1 363e 7b10 6ebd 2a58 a9bd b7ce 103d
000003c0: 175c 62be 8358 49be 2168 513e 9048 24bd
000003d0: 6896 443c 2206 b33c 7a6a e23d 0e27 933e
000003e0: 4fd4 2cbe 023b 8e3c c964 55be df76 5e3e
000003f0: 8af1 b1bd 52e3 35be 1523 d9bd 138c 693e
0.19572784 -0.09226976 0.022345847 -0.15273155 0.0979865 -0.16329172 -0.15665545 0.15486023
-0.093208455 -0.0723031 0.056288164 -0.18830651 -0.14465871 0.09362878 -0.07837458 -0.15545149
0.026736544 -0.003461016 0.06348992 0.1350626 -0.054160412 0.098887205 -0.21191877 0.030447287
0.08010493 -0.18587352 -0.17436086 -0.14483044 -0.0068255286 -0.16751441 -0.19555391 -0.19622369
0.13389891 0.039777175 -0.19618125 -0.018852387 -0.15500088 0.10129139 0.17798784 0.093097806
0.05925261 0.17933303 -0.062201988 0.1557284 0.025779687 -0.06806606 0.1734133 0.038991794
0.17315911 0.22374752 0.14653552 0.0034924394 -0.15704826 -0.16328688 0.14079265 -0.0929832
0.22033362 0.18749654 -0.09217823 -0.1509196 -0.123275906 -0.17795563 -0.1566082 0.010142827
0.14696021 0.11758291 0.18765856 0.14028941 0.07000731 -0.08309458 0.17658238 -0.22720116
0.10527851 0.16462165 0.17458987 0.17175964 -0.11725142 0.04874921 -0.07191558 0.05949692
-0.16014571 -0.0180723 0.07707334 0.21289581 -0.1395029 -0.0064238147 0.085396886 0.2072685
0.10049138 -0.09963856 -0.18213142 -0.072159454 0.17259492 -0.062734865 0.20186903 0.1024319
0.042414498 -0.24407989 0.07956795 0.04310427 -0.116877265 -0.12756597 -0.049274802 -0.11783889
0.059458807 -0.15984234 0.008701352 0.12577733 0.16111146 0.10038814 0.22372839 0.08126611
-0.14594397 -0.017365536 0.22114316 -0.05377361 0.14787313 0.083600685 0.02157612 0.08102447
0.060121257 -0.15968296 -0.092375875 0.16090831 0.0017486155 -0.01048386 -0.1457097 -0.17999129
-0.15637642 0.053546377 0.13683821 0.07489874 0.10053371 0.005092967 0.026931506 -0.13408878
-0.0043989765 0.012026801 -0.23235871 0.17533553 -0.11886726 -0.017896742 -0.0438995 -0.22022432
-0.14229602 -0.0020939074 0.07240485 0.19289578 -0.09320098 0.12577267 0.15227059 -0.13507515
0.08119581 0.1789942 -0.016966 0.10561807 0.16560899 -0.077333905 -0.16220056 -0.15155564
-0.14280976 0.124580756 -0.22119309 0.23191668 0.017695522 0.16987813 -0.017553613 0.15857482
-0.14916876 -0.094245255 0.007484638 0.03368977 0.12474522 -0.000113211834 0.08291155 0.087085545
0.041399702 0.0061233556 -0.11420663 -0.09745965 0.10470768 0.091205515 -0.07023336 -0.09503696
0.120197 -0.18154821 -0.23312743 -0.016571142 -0.093479164 0.067367524 0.015795393 -0.16842298
-0.16474219 0.051046163 -0.0034843523 -0.0082874745 0.14033452 -0.102573894 0.042012323 0.17974088
0.091976956 0.0651483 -0.06897622 0.103604704 -0.17995402 -0.20327167 0.13427635 0.1808349
-0.066018865 -0.085228644 0.122405104 -0.25556657 0.17707118 -0.20312914 0.08656747 0.08810148
-0.15977044 -0.11414137 0.2173612 0.060673226 0.03617489 -0.13562067 0.03959767 0.033483177
0.0327802 0.15066625 -0.062030938 -0.20651561 0.060008287 -0.303272 -0.002590069 -0.047782008
-0.18680678 0.18429004 -0.202941 0.25005534 0.17853315 -0.058121186 -0.08268769 0.03535339
-0.22105442 -0.19662671 0.20449878 -0.040108263 0.01199875 0.02185351 0.11055465 0.28740734
-0.16877864 0.017362121 -0.20839228 0.21725033 -0.08688648 -0.17762497 -0.106023945 0.2280734

hiden_layers.4.bias f4 [64]
00000000: 2418 a0bb d56f a43c 71a7 43bd 1214 0cbd
00000010: 25ba 993c 3ba2 74bd 5040 223c 58bc 03bb
00000020: cfaf 9dbc 93da 9c3c 7079 94bd d9e9 2ebd
00000030: fa80 5ebc fade 48bc 6826 98bc 6240 f5ba
00000040: 3f89 043d 32d0 133d c953 4ebd ee32 6dbd
00000050: f77f 053c a7e8 95bd 7b39 8ebc 23dc 20bd
00000060: 7146 513c be99 af3c 60ec 2a3d 3bc4 bd3c
00000070: 1e37 e93c 77ef 23bd 50d0 c83c 8a15 a1bc
00000080: 7f2d 95bd bafc 163d e575 03bd 5c8d 18bb
00000090: b283 51bc 37c2 4fbd 40ad 65ba 5763 83bd
000000a0: 84e1 423c 9c42 fdbc edcd 81bc 9582 7cba
000000b0: 3396 6a3d 2a1e 5abc 7f55 d33c b591 b0bc
000000c0: d236 2d3d 3fb3 c3bc 8235 15bd f0a5 eebb
000000d0: fee3 ad3c 638f bb3a a0e7 163c 1f12 b2bc
000000e0: 95d3 853c 8d35 e03c d35e ad3c 52f1 933b
000000f0: 545f 163d e797 013b b84d 1c3d 1a83 20bd
-0.0048856903 0.020072857 -0.047767106 -0.034198828 0.018765518 -0.059725028 0.009903029 -0.0020101275
-0.019248871 0.019147193 -0.07249725 -0.042703483 -0.013580555 -0.012260193 -0.018573001 -0.0018711204
0.03235745 0.036087222 -0.050372873 -0.0579099 0.008148185 -0.073197655 -0.017361393 -0.03927244
0.012773142 0.021435615 0.04172933 0.023164859 0.028468665 -0.040023293 0.024513394 -0.019663591
-0.07284068 0.036862113 -0.032094855 -0.0023277616 -0.012787746 -0.050722327 -0.0008761473 -0.06415432
0.011894587 -0.03091555 -0.015845263 -0.00096324953 0.057272147 -0.013312856 0.025797604 -0.021553854
0.04228861 -0.023889182 -0.036427982 -0.007282965 0.02122688 0.00143097 0.009210497 -0.021737156
0.016336242 0.027369285 0.02116338 0.0045148516 0.036712006 0.0019774379 0.038160056 -0.03918753
