results/8_with_inertia/epoch200/model_weights.pth (torch, 749334 bytes, 128 tensors)

init_layer.0.weight f4 [64, 5]
00000000: a801 a5be 7c71 adbe 8235 2b3e 48c9 2dbd
00000010: 6b23 693e d7c0 8bbd 1b8c 3e3d 25bb a4be
00000020: 3ed9 103d 0849 153e 6001 b23e 2339 aebd
00000030: 7d91 ee3d a9d4 dd3d 5a3a 913e 7dfe d2bd
00000040: 6e2d 66be 2f13 903e c4d1 65be e98e 273e
00000050: 8dba 793e 1bd5 2e3e f12a 13be 87f9 793d
00000060: 8096 1c3e 6a2a a93e d5ba 853e 72cf 71bd
00000070: 94f8 3d3e d1f8 933d 9fed 613d 95f8 86be
00000080: 13ee 813e 3cc4 c43c 7c54 903e d6e1 96be
00000090: 6739 19be 814e 703d 97e3 913e bf24 98be
000000a0: 3840 193e e13a 9dbe d4a2 103e b7e3 13bd
000000b0: a902 c63d d703 84be 3186 a03e e9e1 8fbe
000000c0: 78eb 7fbe 74db 02bd f71f 823e 62d9 fa3d
000000d0: ca45 d3bd 4738 96be 5802 a93d 7f9b 8bbe
000000e0: 0515 863e b54a 08be 2946 a83c b613 c13b
000000f0: 045e 973d 8001 84be eeae 85be 5534 283e
00000100: 89b8 8d3e cf41 4abe bd7f 1b3e 4122 30bd
00000110: f259 323e fca1 86be 0c39 9ebd c6f5 babd
00000120: 2162 47bd 1a70 a73d 200c 8d3c 1084 4d3e
00000130: e278 1ebd df08 9cbe b854 933e fa76 5a3e
00000140: 16c5 cd3d 2497 debd e4b5 663e 9fd6 7ebe
00000150: 5e4c 613e afd2 2abc a868 8c3e bec7 5cbe
00000160: 93f9 ed3d fcc5 913d ad6a 1cbe 6917 8a3e
00000170: 23a1 12be 5b8e 4dbe 2506 97be e2f0 52be
00000180: c760 4f3e 55df f13d 7937 6bbe 503d 073d
00000190: ec96 7fbe 8fa2 603c 4493 3f3e a797 43be
000001a0: 3e10 84be 76b7 95be 5e47 93be 06a6 9e3d
000001b0: 31a9 753e 8c7d 79be 0e92 ecbd a037 4bbd
000001c0: 9822 4cbe 6f31 143e a7a0 39be 42f0 693e
000001d0: 5158 2ebe c53f 963d f385 c93c 70db dbbd
000001e0: fcc3 283d 0d6b 183e d497 613e ba8b e4bd
000001f0: bb89 ef3d 8ace 8f3e 0ef2 a73e 9a6b 3c3e
00000200: 2422 18be 0035 303e 47c7 8fbe fb0d 763e
00000210: 8498 31bc 12a2 963d a0f9 943e 7cbd 03be
00000220: 1f76 973e 99bc 613e 5d13 493e 57ee 5a3e
00000230: d094 b3bd c50a 23be b825 82be a455 18bc
00000240: 8ad6 823e cde1 113e 128c 263e 6fd2 293d
00000250: f0d3 a6bd a485 2a3e 64a7 383e 0b00 183d
00000260: ada3 683e e01f 7a3e 24ac 673e 2c9a 63be
00000270: e756 99be 831e fd3d 8d53 ebbd ca47 2dbe
00000280: 14ae 77be 23af f73d 2ce7 74bd 9727 833e
00000290: 4737 1ebe 2a9a 493e ac4e 9cbe 0498 3abe
000002a0: 55a5 023e ea9b f03d c5a2 59bd d5e6 0f3e
000002b0: 8f46 89bd 0d17 393e d6c1 54be 8591 bd3d
000002c0: df90 50be ab45 653e 28f0 953e d120 663e
000002d0: 6aed 703e 8e65 27be ca3e ad3e 6eb7 473e
000002e0: 010f 813c 4c2d a8bd 6112 91bd 328c 7b3e
000002f0: 3851 8b3d 4192 3b3e 8191 05be 9719 2abe
00000300: 1c45 613e 278f ab3d d153 febd e749 59be
00000310: 54d2 38be aa1c fa3d ef54 43be ba67 9f3e
00000320: 678e 833e 3cc7 62be 9aab 253e ff3b a73e
00000330: c1f7 25be d250 4a3e 88af 1d3e 9cf1 f7bd
00000340: 79f0 01be 8cfa 8a3e 6b1a 6abd 09a5 23be
00000350: 6701 1b3e c440 773b 9bf4 2d3d 3b17 273e
00000360: 10d7 d43d e267 aebc f866 133e 90ee 713d
00000370: 035a ddbd 1559 a8be 3ee9 f0bd 3226 7ebe
00000380: 1706 3e3e 8682 0ebe 0c36 6f3d d818 7c3e
00000390: 062b 433e df57 5e3e c1dd 83be a3e8 fbbd
000003a0: fbd4 94be 38bc fe3d 28e0 35be 9959 52be
000003b0: 8367 8d3e 42e0 3f3e fd01 97be 48c5 853e
000003c0: cfb5 303e b820 2abe b536 3ebd 134e 54bd
000003d0: 34eb 47be 1c1b 70be 3485 ecbd 1156 3abe
000003e0: 3c04 4bbd 21fd 87be add1 2d3b eb01 993e
000003f0: ba3b 7d3e 8161 75be 84b6 3d3e c09a f2bd
-0.32227826 -0.33875644 0.1671963 -0.042428285 0.22767417 -0.06823891 0.046520334 -0.3217403
0.03536343 0.1457864 0.34766674 -0.08506992 0.116488434 0.10831577 0.2836483 -0.10302446
-0.22478268 0.28139636 -0.224433 0.1636311 0.2438757 0.17073481 -0.1437185 0.061028983
0.15291786 0.33040172 0.26119104 -0.059035726 0.18551856 0.07225192 0.055158254 -0.26361528
0.2537695 0.024019353 0.28189456 -0.29469174 -0.14963304 0.058668617 0.2849395 -0.29715535
0.14965904 -0.30708984 0.14124614 -0.036105838 0.09668476 -0.2578418 0.3135238 -0.28102043
-0.24992168 -0.031947568 0.25415012 0.12248494 -0.103160456 -0.2933981 0.082524 -0.27267072
0.26187912 -0.13309748 0.020541267 0.0058922423 0.07390979 -0.25782394 -0.26110023 0.16426213
0.27679852 -0.19751666 0.15185447 -0.043001417 0.17417124 -0.2629546 -0.077257246 -0.09128909
-0.048677567 0.081756786 0.017217696 0.20069909 -0.0386895 -0.30475518 0.28775573 0.21334448
0.10047357 -0.108686715 0.22530323 -0.24886559 0.22001788 -0.010426207 0.27423596 -0.2156057
0.11619868 0.07117841 -0.15275069 0.26970986 -0.14319281 -0.20073836 -0.29496875 -0.20599702
0.20251761 0.11810175 -0.2297038 0.033017457 -0.24959916 0.013710632 0.18708521 -0.1910082
-0.25793642 -0.29241532 -0.28765386 0.0774651 0.23990323 -0.24364299 -0.11551295 -0.049613595
-0.19935071 0.14471982 -0.1812769 0.22845557 -0.17025878 0.07336382 0.024600005 -0.10735214
0.04120253 0.14884587 0.22030574 -0.11159463 0.11696192 0.28087264 0.3280186 0.18400422
-0.14856774 0.17207718 -0.28081724 0.2402877 -0.010839585 0.07355131 0.290967 -0.12865251
0.29582307 0.220446 0.19636293 0.21379982 -0.08768618 -0.15922077 -0.25419402 -0.009297762
0.25554305 0.14246292 0.1626437 0.04146045 -0.081458926 0.16652542 0.18032604 0.037109416
0.22718687 0.24426222 0.2262426 -0.2222678 -0.29949114 0.12359335 -0.114905454 -0.16921917
-0.241875 0.120939516 -0.059790775 0.25616142 -0.15450774 0.19687715 -0.30528772 -0.18222052
0.12758382 0.11748488 -0.053133745 0.14052899 -0.06702911 0.180752 -0.20777068 0.09256271
-0.20367764 0.22389857 0.29284787 0.22473456 0.23528066 -0.16347334 0.33836967 0.19503567
0.015754225 -0.08211765 -0.070835836 0.24565199 0.068026006 0.1831751 -0.13043787 -0.16611324
0.2199902 0.083769135 -0.124183305 -0.21219598 -0.18048984 0.122124985 -0.19075368 0.31133825
0.25694582 -0.22146314 0.16178742 0.3266296 -0.16207792 0.19757393 0.15398991 -0.1210663
-0.1268939 0.27144277 -0.0571541 -0.15980925 0.15137254 0.0037727812 0.042469602 0.16317455
0.103925824 -0.02128977 0.14394748 0.0590654 -0.10808184 -0.32880464 -0.117632374 -0.24819258
0.1855701 -0.13916978 0.058401152 0.24618852 0.19059381 0.21713208 -0.25755122 -0.12300231
-0.2906874 0.12438244 -0.1776129 -0.20541991 0.27618036 0.18737891 -0.29493704 0.26127076
0.17256854 -0.16614044 -0.04643889 -0.05183227 -0.19523317 -0.23447841 -0.11548844 -0.18196894
-0.049564585 -0.2656031 0.0026522682 0.29884276 0.24729815 -0.23962976 0.18526655 -0.118459225

init_layer.0.bias f4 [64]
00000000: d4f7 30bc 2316 b73c 3bb5 4f3b ef12 21bc
00000010: 01cd 90bc 7e4a 89b6 9160 7b3b cd5b 0bbc
00000020: 7af0 16bc 2c33 093c 192a 9d3a 098d 323c
00000030: 0dd4 683a 4c94 5b3c 0106 473c 580d 3f3b
00000040: 394a abba 63a6 42bb 4675 5cbc cd0d 4ebc
00000050: 4074 abbb e950 333c 917c 883b d405 6c3c
00000060: 6932 86bc 9fb7 1cbc be57 cdba 18e4 a33b
00000070: 7546 1ebb 87cc 2bbb 7dba f63a 1ce2 d9b9
00000080: 47e7 15ba c9b2 b93c 22de 743b 9f25 d7bb
00000090: 56fc 7cbd 6bf3 95bc 9c7e a5bb 0149 9b3c
000000a0: 00d0 15bd ff9f 14bc 699f 31bc b32e a63b
000000b0: ac80 c23b a9c6 66bc bb79 2ebc 4711 ec3b
000000c0: 9b43 0f3b 4ea9 ac3c c501 c0bc 6fc8 123c
000000d0: 0b0b e8bb 1e9a 183d c982 3d3a 2786 9b3b
000000e0: dd3a c13a d228 793c 7a28 dd3b 2faa 76bc
000000f0: b385 89bc 6efe b63b ee53 0f3a 0c01 21bc
-0.010801274 0.022349423 0.0031693715 -0.009831174 -0.017675878 -4.09159e-06 0.0038357119 -0.008505774
-0.0092126075 0.008374017 0.0011990695 0.010897883 0.00088816957 0.013402056 0.012147428 0.002915224
-0.0013068385 -0.0029701225 -0.013455695 -0.012576533 -0.005232364 0.010944583 0.00416524 0.014405686
-0.01638146 -0.009565263 -0.0015666408 0.005001556 -0.0024150882 -0.0026214437 0.0018823888 -0.0004155793
-0.0005718362 0.02266826 0.0037363847 -0.006565764 -0.061764084 -0.018304547 -0.0050504934 0.01895571
-0.036575317 -0.009071349 -0.010841229 0.005071485 0.005935749 -0.01408545 -0.01064914 0.007204208
0.0021860364 0.021076825 -0.023438344 0.00895892 -0.0070813945 0.037256353 0.00072292663 0.004746217
0.0014742274 0.015207486 0.00674921 -0.015055223 -0.016787386 0.0055845296 0.00054675236 -0.00982691

hiden_layers.0.weight f4 [64, 64]
00000000: f625 223e e21f 103d 0434 a33d 3c87 753d
00000010: d76e 2bbe a328 1e3e 2f81 25be 58e0 20be
00000020: 4741 b83d 1208 2b3e b3e8 9ebc 5472 553e
00000030: f902 c3bd 5934 133e 7cdb bc3a dc3d 13bd
00000040: 0000 f7bc b5cb 953d 850b 90bd fe89 043e
00000050: 43e8 4dbe 7942 13be e136 533e b6c6 13be
00000060: 3512 353b 49d9 693d b88a 00bc e878 2ebe
00000070: 34d8 db3d 3a68 c8bc ff57 32be 9213 893d
00000080: 60bf a53d 27f7 aa3d 1030 dc3d 42c2 65be
00000090: a047 7ebe 8904 49bd 435b 3ebe bc7e 453e
000000a0: 7b8b 2d3d 2927 16be 2fce 7cbe 53a7 c5bd
000000b0: 15df 30be 04c1 eebd 2515 40bd dcce eebd
000000c0: b289 103d 1433 453c 4dfa 243e 9725 d73d
000000d0: 1f14 003e de51 8fbd fba8 ac3d 94e1 3dbe
000000e0: 7425 163c 6f84 0bbe 718b 25be d99f e93c
000000f0: 58e8 b8bd 6f37 5f3e 5371 33be a1ca 08be
00000100: 1e7a 7bbd 2de9 5ebd 207e bfbd 62ad a83d
00000110: 0f87 acbd 1c7c 053e 7f0c 8b3d 05d5 d93d
00000120: daef 923e adc8 e1bd f015 493e 9541 44bd
00000130: 2c47 0e3d 0e4b 2f3e 41f5 99bc 1f7f 83bc
00000140: 62cf bd3d 42f0 a9bd ab8a 27bc d058 133e
00000150: 27c2 13bd ba2a 13bd fa51 b6bd 07ec 003e
00000160: c4bd 65bc e4ba 68bd d10f 17be 9ac4 bebd
00000170: f2d2 1f3e 9564 b0bd 440f f93d 93d6 17bd
00000180: 1369 f0bd 1221 3f3c bc85 5ebe 1d66 db3d
00000190: acec 2ebe 1465 09be d5ef 95bd 8446 5d3e
000001a0: 6ea5 d5bd e7a9 7e3b f1e2 6d3c 82ba 55be
000001b0: 63f9 6e3e b20d 843d 5982 5b3e bbe7 003e
000001c0: 7511 3abe bfa2 7f3d 7510 53be 1185 1abe
000001d0: fab9 c6bd 56fc 69be 38ea 283e 5276 d53c
000001e0: 51f8 133e 48ce 31be 1291 4a3e f4be 5ebd
000001f0: cbc4 f1bd cff4 0ebe b71b 303e 4352 d33c
00000200: 29dd 6dbd 71b0 6ebe a4c2 323b e0a8 d23d
00000210: b80f 3dbe 263a e9bc 0225 ec3b 888e 413e
00000220: 373a ab3d 1c69 39be 5521 843d 36bd 93bd
00000230: d736 2e3e 5c98 4c3e acfd 423d 3518 52be
00000240: 6b40 ce3c d9e7 503e 3f92 88bd 9379 c93d
00000250: 1845 f2bd 92b2 003e e39b c83d 17e6 67be
00000260: ffc9 2c3e 2049 2a3e 1328 0cbd 6c45 7d3d
00000270: f29d 233e 225c 2ebe 08c8 093e 3405 193d
00000280: 0d23 643e 4b82 25bd af77 bfbd 6bb5 b73d
00000290: 9f64 b33d e37b 373e 4477 563a 8af1 b23d
000002a0: af28 92bc d6a8 3a3e 6ffc 013e 38f1 26bd
000002b0: ce0f 3a3e 91d6 823e 484d 5a3d 234b 0dbe
000002c0: 87e7 c23d 0b52 1ebe e06e 99bd 9472 4f3c
000002d0: 9bd4 75bd 9fe0 e13d 57a8 2a3c b847 1ebe
000002e0: 1ec8 61be 3122 453d be76 3cbe 0a9c 2d3e
000002f0: 086b 963d 721d aa3c a7f3 0fbe 218d 073e
00000300: cc71 38be 4326 f9bc d452 303d 2b69 2dbe
00000310: 4d5e a93d 104e 27bb 5038 5c3d f4e5 48be
00000320: ff14 103e 61fd ea3d 4417 5d3e a82c e83d
00000330: 0019 4dbd 17e8 433e eb30 9bbd 7ffb d33d
00000340: 8a76 4cbe 23d8 2abe 9a41 113e 0676 183e
00000350: f744 273e feca 6dbe b0ec 15be 12c0 62be
00000360: 1ca7 3ebe 2161 5b3e a1ff 4d3d 0645 f9bd
00000370: 0640 553e e83d c53b e656 babd c720 ea3d
00000380: dde9 32be 1afd 4fbe cd12 3d3c ad11 063e
00000390: 9405 80bd 1cf5 2dbe f74d 21be 3673 ac3c
000003a0: 43a3 f4bd 60ac d5bc 9a9e 03be 6c22 493e
000003b0: 9e4c 28be 5720 5b3d df27 273d fc8c df3d
000003c0: 49b8 18be a7e5 393e 1a46 62bd 8aad 013e
000003d0: ead1 05be b198 28bd 6374 cfbd a021 37be
000003e0: 63ce 05be 4fde 3fbe 4a54 203e 476a 1d3e
000003f0: 8388 3abe cd6f 273d 2f33 303b c1da 1c3e
0.15834793 0.035186656 0.079689056 0.059943423 -0.16741501 0.15445189 -0.16162561 -0.1571058
0.08996826 0.16702297 -0.019398069 0.20844394 -0.09522051 0.14375438 0.0014408673 -0.035947666
-0.030151367 0.07314245 -0.07033447 0.12943265 -0.20108132 -0.14380826 0.20626403 -0.14431271
0.002762926 0.057091985 -0.007845573 -0.1703831 0.10734597 -0.024463762 -0.1741638 0.06693186
0.080931425 0.08347922 0.10751355 -0.22437385 -0.2483201 -0.04907659 -0.18589501 0.19286627
0.042369347 -0.14663376 -0.24688028 -0.09651055 -0.17272599 -0.116579086 -0.046895165 -0.11660549
0.035287566 0.012036104 0.16111107 0.105052166 0.12507676 -0.06998037 0.08430668 -0.18543082
0.009164203 -0.13624738 -0.16166474 0.028518604 -0.09028691 0.2179849 -0.17523699 -0.13358547
-0.061395757 -0.054421593 -0.09350228 0.08236195 -0.08424198 0.13035625 0.06789493 0.106363334
0.28698617 -0.11024604 0.19637275 -0.047914106 0.034735844 0.17118475 -0.018793704 -0.016051827
0.09268071 -0.08297779 -0.010225932 0.14389348 -0.03607383 -0.03592942 -0.089023545 0.12590037
-0.014022294 -0.056818858 -0.14752127 -0.093148425 0.15607813 -0.086129345 0.12161115 -0.03706987
-0.11738791 0.011665599 -0.21730703 0.10712836 -0.1708247 -0.13417464 -0.07321135 0.21608931
-0.10431944 0.0038858594 0.014519439 -0.20871928 0.23337321 0.06447925 0.21436442 0.12588398
-0.18170722 0.062411066 -0.20611747 -0.15089823 -0.09703441 -0.22850165 0.16495597 0.026057396
0.14450194 -0.17363846 0.19781902 -0.054381326 -0.118051134 -0.13960575 0.17198072 0.025796061
-0.058072243 -0.23309495 0.002727666 0.102861166 -0.18463027 -0.02847011 0.00720656 0.18902028
0.08360713 -0.18106502 0.0645167 -0.072138235 0.17013107 0.19979995 0.0476052 -0.20517047
0.025177201 0.20400943 -0.06668519 0.098376416 -0.11829585 0.12568119 0.09795358 -0.22646366
0.1687393 0.16629457 -0.034217905 0.061833784 0.1597822 -0.17027333 0.13455212 0.037358478
0.22278996 -0.04040746 -0.09349 0.089701496 0.08759426 0.17918353 0.0008181224 0.08737476
-0.017841665 0.18228468 0.12693952 -0.040757388 0.18170092 0.25554326 0.053296357 -0.13798194
0.095168166 -0.15460984 -0.07491851 0.012661595 -0.06001721 0.11029171 0.010416112 -0.15457046
-0.22048995 0.04812831 -0.18404672 0.16954055 0.07344633 0.020765994 -0.1405779 0.1323743
-0.1801216 -0.030413752 0.04304774 -0.1693465 0.082699396 -0.0025528707 0.05376464 -0.1961897
0.1407051 0.114741094 0.21590906 0.113366425 -0.05007267 0.19131504 -0.0757769 0.103507034
-0.19967094 -0.16684012 0.14185181 0.14888772 0.16334902 -0.23221967 -0.1464107 -0.22143582
-0.18618435 0.2142377 0.050292615 -0.12171368 0.20825204 0.0060193427 -0.09098606 0.11432033
-0.17472024 -0.20311394 0.011540127 0.1309268 -0.06251064 -0.16988033 -0.15752397 0.02105103
-0.11945202 -0.026083171 -0.1285347 0.19642037 -0.16435477 0.05349764 0.04080951 0.109155625
-0.14914049 0.18154012 -0.055242635 0.12663856 -0.13068357 -0.041161243 -0.10129621 -0.1788392
-0.13067012 -0.18737148 0.15657154 0.15372573 -0.18216138 0.040878106 0.0026885977 0.15317823

hiden_layers.0.bias f4 [64]
00000000: c31d 933b 68e0 0a3c 2afa 2cbc cb0f c0ba
00000010: 5531 ff3c d32d fdbb 6b86 e23c 1074 42bb
00000020: 2d3a cabc 0394 1a3c 8717 bebc b77c 8abc
00000030: cd1b f0bb f1e3 d238 1bb8 ee39 4e61 68ba
00000040: f2fb cfb9 ee58 31bc 3511 f2bb 8c07 fdba
00000050: 5feb f8bb 4767 6fbc 6e26 5f3b 321b b03b
00000060: e926 63bb 439f 13bc 0324 52bb 0263 b7bc
00000070: 7b40 90ba 3ab0 d2bb 47db dfb9 307b 34bb
00000080: 1aaf 183b ba6a a1bb 3748 90bc 7eef 1cbb
00000090: 191e 7abb c444 ffbc d8e2 f0bb e618 85b9
000000a0: e09c 253c a965 dbbb 7ff0 bbbb 6800 4fbc
000000b0: 7b55 863b d148 21bc 0354 17bb ca00 573c
000000c0: 303d 9fbb 9b74 5f3b a4cd 89bb 058c 4ebc
000000d0: 0bad aebb f890 243a ab1a 9738 b09c 953b
000000e0: a900 a43c d3b4 bbbb d34a c43c 5194 513c
000000f0: 232a 903b 2f97 38bc c1c3 6d3c 3ed3 72bc
0.004489632 0.008476354 -0.010557691 -0.0014653144 0.031151453 -0.00772641 0.027651986 -0.002967123
-0.024685943 0.009434703 -0.023204578 -0.016905172 -0.007327533 0.00010056038 0.00045532067 -0.0008864597
-0.0003966983 -0.010824425 -0.007387305 -0.0019304617 -0.007596418 -0.014612026 0.0034050005 0.0053743357
-0.0034660643 -0.009010139 -0.0032064922 -0.022386078 -0.0011005545 -0.0064296992 -0.0004269725 -0.0027539246
0.0023297728 -0.004926053 -0.01761256 -0.002394646 -0.0038164912 -0.03116072 -0.0073512606 -0.00025386288
0.010108203 -0.0066954684 -0.0057354565 -0.012634374 0.0040995455 -0.009844021 -0.0023090846 0.013122747
-0.004859589 0.0034096602 -0.0042054225 -0.012606625 -0.005330687 0.00062777055 7.2052084e-05 0.0045657977
0.020019846 -0.005728343 0.02396146 0.012791709 0.0043995543 -0.011266514 0.014512003 -0.014820872

hiden_layers.1.weight f4 [64, 64]
00000000: 42f3 163d d2e4 20be aab5 483e 2d7d 2fbe
00000010: 701a 103d 4495 21be 757b 3fbd 061a 3b3e
00000020: 640d 2c3e f621 2b3e 279d aabd 4456 bcbd
00000030: ebc2 3d3d 68c1 34be 8247 0bbd a20e fb3d
00000040: 010d ed3d 329e a13d 1b48 2d3e bfd6 e8bd
00000050: fce3 0f3e 6c55 503c e295 d7bd 4307 bc3d
00000060: c371 1cbe 4e07 06be ecb7 3a3e 4fd1 8f3d
00000070: 9acc eabd 9510 c23c cc6d 07be 0674 9b3c
00000080: 5394 bb3d 721a 443e f85e 60be 9819 033d
00000090: 2368 92bd 43d5 2cbe 0f46 533e 060d d3bd
000000a0: bd55 34be dc62 48be d533 e3bd 50e9 4ebd
000000b0: 8f39 38be adf3 01bd ac39 8cbc c41e 363d
000000c0: 5560 61be c9b2 9f3c dab4 bebd 9c2f 0e3e
000000d0: eff2 053e 5564 fcba 21e0 ba3a fea6 5c3d
000000e0: 14bb 09be 9d3e b63d b81a 1abe 9fef 213e
000000f0: e5c1 c8bd 9a3c 72be 21a7 0dbe 38bd c83d
00000100: 06b6 31be db87 46be 4ef9 b7bb 5992 69be
00000110: 1daf d43c 650d e8bd d0ef 7cbe e753 89be
00000120: 4e69 2dbd 39cf e3bd f17e 143d 59c2 c03d
00000130: 8e73 3ebe 498e 683d dd44 5a3e cdf1 bb3d
00000140: ae48 41be ef9d 26be eb83 64bd 5965 493e
00000150: f826 013e 825c 77bb 2f89 cebd ef2b 513b
00000160: 57fe f93d 380e 6ebe a218 943c f3e2 013e
00000170: 5c62 9f3d dfbc 78be f953 043e 1b3f 42be
00000180: c88a 1b3e df11 383e 57da ce3d b3bc 2d3c
00000190: 4c29 59be 9eba 563e 102e 023d 5c2b 2e3c
000001a0: 0091 5dbc a64d 0d3e bf41 77be fc3c 89bd
000001b0: 18f9 7f3c f47e 2a3e 2ca1 4d3d 7be2 70bc
000001c0: 7e77 b03c 9ae0 14be 5f4c 5b3e f1d7 253d
000001d0: 26d4 c33d f902 16be 49c9 303d 754e e3bd
000001e0: 4f0e 1ebe a008 85bd 8174 21be be3d 973d
000001f0: 92de 0bbe a952 62be df1f 293c afe3 b93b
00000200: aaab d43d 8a34 ddbd 861d bcbd 0809 38be
00000210: 280e 193e 7182 543e bf0d 56bd 75db 8f3d
00000220: 5fb0 cdbd 7b7f 33bd 4627 d93d bee4 e03d
00000230: 31d3 9c3c 559c 813c 80a4 603e 1959 723d
00000240: 6850 2bbe d3c6 e6bd ec66 85bd 88eb 2c3e
00000250: e899 07be c9c1 433d 933a 41be 992a 49bd
00000260: d2de 0cbe 0f58 fdbd b03e d63c 68e8 4e3e
00000270: 99a7 2e3e c04b c43d 6dd9 d03d 02d4 8e3d
00000280: fde9 1d3d 46f8 b4bd ae0f c1bd 466f 223c
00000290: 96fe be3d 7a3c 103c 841f 343c 8a3d c2bd
000002a0: 519a 193e bac9 57bc 915f c9bd 1fec 2b3e
000002b0: 19ba 91bd 69f3 313d 1ab8 5fbd 7025 3ebc
000002c0: a557 46bd 8f39 27be a8d6 febc 0551 1dbe
000002d0: 7dea 02bb 90ae 99bd 6c11 b3bc 84ef f6bd
000002e0: d499 b93c d778 59be 24c2 15be 8939 4d3d
000002f0: ced1 e6bd 8a0b 2abe cd92 873d cb35 343e
00000300: 75fd 5a3e 9e87 dcbb 66a2 2cbc 7ba0 563e
00000310: 6fff 503e 0f46 0ebe 7193 2cbe f4d9 2d3d
00000320: c294 6e3d 7f87 513e b76e fc3d f270 79bd
00000330: 7951 f53d 98de 46be e5db 193c e9c7 893c
00000340: 469d c4bd a04f b83c 0e41 053d d76a 0dbe
00000350: 7b3a 55be f76d d7bd dd90 02be 0f79 45be
00000360: 01fd 063e 3087 313e ec68 f43d ce4f 0f3e
00000370: 6c2e 6e3e c3c9 59be 54d1 13be 1afb d93d
00000380: de8c 293d 9d28 2cbe ae1a cbbd 6ee8 30bc
00000390: 202f 36bc c75e 433e d8ad b13d 206d ba3c
000003a0: 9fe4 0b3e 5d1d 11bd 133c c53d 3c6a 8e3c
000003b0: 086c 50be ccdd f8bd b61e 56bd a71b 423e
000003c0: c56b 463e 9d2d 3abd bc94 49bc 2b34 a53d
000003d0: 3a0d ce3d cb3d 193c cb81 74bd 2ffd 843d
000003e0: f74b 3bbe e14f cabd 3d83 7b3d 1020 5d3e
000003f0: b42f 3a3e 107d d6bc 7b7a 3bbc 1180 89bd
0.036853082 -0.15712288 0.1960055 -0.17137595 0.035181463 -0.15779597 -0.046748597 0.18271646
0.16801983 0.16712174 -0.08330756 -0.09196141 0.046328466 -0.17651904 -0.034003742 0.1225865
0.11574746 0.078915015 0.16922037 -0.113690846 0.14051813 0.012715679 -0.10526635 0.091810726
-0.15277772 -0.13088724 0.18234223 0.07022344 -0.11464806 0.023689548 -0.13225478 0.018976223
0.0915915 0.19150713 -0.21911228 0.03200683 -0.07148769 -0.16878228 0.20632194 -0.103052184
-0.17610832 -0.19568962 -0.110938706 -0.050515473 -0.17990707 -0.031726528 -0.017117344 0.044462934
-0.22009404 0.019494431 -0.093118384 0.13885349 0.13080953 -0.0019255975 0.001425747 0.053870194
-0.13450271 0.08898661 -0.15049255 0.15814064 -0.098026074 -0.2365593 -0.13833286 0.098017156
-0.17354593 -0.19387762 -0.005614436 -0.22809733 0.025962407 -0.1133068 -0.24700856 -0.26821825
-0.042336755 -0.11123509 0.036253873 0.09412069 -0.18598768 0.05677632 0.21315332 0.09176979
-0.18875381 -0.16271184 -0.05578987 0.19667567 0.12612522 -0.0037744348 -0.100847594 0.0031917056
0.122067146 -0.23247612 0.018078152 0.1268423 0.077824324 -0.24290799 0.12922658 -0.18969385
0.1518966 0.17975567 0.10100239 0.010604071 -0.2120716 0.20969626 0.03178221 0.010630455
-0.01352334 0.13799152 -0.24146174 -0.06701085 0.015623353 0.16649991 0.050202534 -0.014702435
0.021541353 -0.14538804 0.21415852 0.04048914 0.095619485 -0.14649571 0.04316071 -0.11098949
-0.15435146 -0.06495786 -0.15767099 0.07384823 -0.13659123 -0.22101845 0.01032254 0.005672894
0.10384305 -0.10801037 -0.09185319 -0.17972195 0.14946806 0.20752884 -0.052259203 0.0702428
-0.10043406 -0.043822747 0.10603194 0.10981129 0.019143673 0.015821615 0.21937752 0.059167
-0.16729891 -0.112683915 -0.065137714 0.16886723 -0.13242304 0.04779223 -0.1887 -0.04911289
-0.13756874 -0.123703115 0.026152939 0.20205843 0.17056121 0.09584761 0.10197721 0.06974031
0.038553227 -0.08836417 -0.09426819 0.009914225 0.09325902 0.008803481 0.010993842 -0.09484394
0.15000273 -0.013170654 -0.09832681 0.16789292 -0.071155734 0.043445025 -0.054618932 -0.0116056055
-0.048423428 -0.1633055 -0.031108215 -0.15362938 -0.0019976192 -0.07503998 -0.021858893 -0.12057403
0.022656359 -0.21237503 -0.1462484 0.050103698 -0.11270486 -0.16605964 0.06619797 0.17598645
0.21385749 -0.006730034 -0.010536766 0.20959656 0.2040994 -0.13893913 -0.1685312 0.042444184
0.058247335 0.20461844 0.12325805 -0.06089873 0.1197843 -0.1942085 0.009390806 0.016818957
-0.0960031 0.022498906 0.032532744 -0.13810287 -0.2082309 -0.10519021 -0.12750573 -0.19284461
0.13182451 0.17336726 0.11934075 0.13995287 0.23259896 -0.21268372 -0.14435321 0.10643597
0.041394107 -0.16812368 -0.09917198 -0.010797603 -0.011119634 0.19079123 0.08675736 0.022757113
0.13661431 -0.035428394 0.09630599 0.01738464 -0.2035371 -0.121516794 -0.052275382 0.18955861
0.19377048 -0.045453656 -0.012303527 0.08066591 0.100611165 0.0093531115 -0.059694093 0.064936034
-0.18290697 -0.09878517 0.061404455 0.21594262 0.1818226 -0.026182681 -0.011442776 -0.0671388

hiden_layers.1.bias f4 [64]
00000000: 687f 9b3a 8e42 d2bb e6c1 dbbb 4e84 803c
00000010: 0145 bd3b 5037 1bbc 4c6c 09bd 079a 8fb8
00000020: 138d 59ba 0f17 273c b917 c03b e03b 6d3b
00000030: 59c7 c93c c7c0 6bbc c478 a7bc f846 a6bc
00000040: 80ad 05bc 5c79 213c 4075 903c 469c f8ba
00000050: 5549 08bc 2d78 7abc 0c9f c53c 7d73 b9bb
00000060: 6515 08bb f519 85bc 944a a1bc 3e1c 59bc
00000070: 4200 443c 66a0 37bb eff9 2e3b 44cc b9bb
00000080: 4f1e bf3b 8a17 043c c93d 583b 8c01 bbbc
00000090: e542 5f3c 3af1 213b 4721 bdbb 615f 383c
000000a0: 3afd 10bc a62e b9bb e61a f1bb c890 c4ba
000000b0: 8ee4 34bc 9a79 943d 24eb 843c c86d 333a
000000c0: d36c abbb 7ac0 89bc a3aa b7bc e939 c2bb
000000d0: c493 aa3b fc3d 3abb 9621 a83c f64b b43b
000000e0: e2af 50bc fe6c f2bb 58e1 d13c 8938 85bc
000000f0: 9205 f03b bf82 bd3b 90a5 01bd f636 f73a
0.0011863532 -0.0064166253 -0.006706464 0.015688088 0.005776048 -0.009473637 -0.033550546 -6.847461e-05
-0.0008298915 0.010198369 0.005862203 0.0036199018 0.02463119 -0.014389223 -0.020443328 -0.020297512
-0.008159041 0.0098555945 0.017634034 -0.0018967472 -0.008318265 -0.015287441 0.024123691 -0.005659519
-0.0020764705 -0.016247729 -0.019688882 -0.013251362 0.011962952 -0.002801919 0.0026699265 -0.0056701023
0.0058324705 0.008062253 0.0032995811 -0.022827886 0.013626789 0.0024710433 -0.0057717892 0.011253209
-0.008849436 -0.005651313 -0.007357943 -0.0014996761 -0.01104082 0.07249756 0.016225405 0.0006844667
-0.0052314787 -0.016815413 -0.022420233 -0.0059273136 0.0052056033 -0.0028418293 0.020523828 0.0055022193
-0.012737246 -0.007398247 0.025620148 -0.01626231 0.007324883 0.0057834084 -0.031652033 0.0018860984

hiden_layers.2.weight f4 [64, 64]
00000000: e4cc f0bd b49a 5ebe bb9d 0dbd 76e4 483e
00000010: 3976 493e 215d 053c e310 553e 6b25 7f3d
00000020: aced 783d 3d16 8ebd c87f 343e f6db 28be
00000030: 83ec 0ebe 153d 4abb 3a9f 473e a1d6 c3bd
00000040: 8557 2ebd b2fa 69bd 8b90 393e 81da 13be
00000050: 4e78 cfbd e622 55be ed8e 0bbe a9b1 97bc
00000060: 1cab dfbc 5a1c 933d 3f84 bebd d5bb bdbd
00000070: ee43 533e 707b 43bd 899c 3a3e 8152 7ebe
00000080: f361 0abe 891d 5d3e 0db2 77be ff83 133d
00000090: 2495 dd3c c529 7bba cf4c 3ebe 7bb8 bf3d
000000a0: f918 033e 7673 3cbe 597b 1bbd 995b a83d
000000b0: b725 b73c e4e7 863d 193a 9a3d a575 59bd
000000c0: 1ace 0e3e b045 3c3e f5c0 63bd a463 4fbc
000000d0: d292 56be 6a80 29bd 6d95 d43d becb 3b3e
000000e0: 0db0 153e 18f1 d8bd e86d af3b 17e3 a0bc
000000f0: c7b5 593d 47f4 3d3e 568a 4ebe 26d5 87bc
00000100: 4449 ce3c 5ba5 21bd ae62 c73d b97e b93c
00000110: b793 00be 93de 853c e497 f5bd 7d4b 1cbe
00000120: 16e5 233e eaca d4bd 553a e9bd 8028 ae3d
00000130: 0171 883c a63c 92bd 1358 413e f0cb e1bd
00000140: ae86 fdbd 5989 173e b36f 0dbe 5ca2 333e
00000150: a2e2 573e 0541 f5bd ccef d6bd 69b0 17be
00000160: 0868 1ebe 5219 03be 8c9c 993d 7f15 4e3e
00000170: 405a 26be 64c7 ae3d 3779 503e c53b 393c
00000180: 918d ecbd 2952 023c 1680 0abc 0818 a5bd
00000190: cd0c 7dbd 4199 103e 6eb5 583e 7334 38be
000001a0: 3e8a de3d d827 80bd 5209 633e 2605 c53d
000001b0: 614a 38bd 8621 80bd baa3 9f3d a502 b23d
000001c0: 372d c93d 1e22 303e 479d d9bd 6198 333e
000001d0: 5f96 76be 3b01 613e 020e 94bd a9f2 483e
000001e0: 0df7 763d 5f3c 003e 6101 90bd 4e3a 373d
000001f0: f86d 3abd ef34 593e 324b 093e 7c78 19be
00000200: 27fb 20be 38d8 d6bd 82c3 243e cebe 3abe
00000210: 9246 123e 4d1d b73d bbe5 53be 8c96 3bbd
00000220: 613c ec3d 0ded f13d b7b1 1d3e f441 16bd
00000230: 605b 59be 8edf a1bd 19a7 9b3c dfd5 cb3d
00000240: f8dd ac3d 61e1 983c 3aac 213e 23cf 203e
00000250: 2184 a13c 3d44 9ebd 25e5 31bd ec7a bebd
00000260: e353 0c3e 750c 3a3e 7eba c7bd dd89 6abe
00000270: 66cd febd 261c fbbd b15a 12be db79 8d3d
00000280: 3fd6 323e bcf8 213e b943 e83d d914 c03d
00000290: df70 48be c902 58be 2054 26be 4574 3dbe
000002a0: 58ac 9dbd 135a d63d ceb3 76be 98cb b83d
000002b0: f9dc 9d3d 2dc9 3f3e 9921 2b3c d269 0c3e
000002c0: eb20 583e ca49 723e 7a56 2a3d fcbe 013e
000002d0: eb06 733e e6e9 4d3e aef0 153e 2933 c43d
000002e0: c129 cbbd c5ec 89bd 3b5e 423e 21bd 80be
000002f0: 5cf6 30be f0a1 e93d ef56 583e 6982 3a3d
00000300: 8329 d83d ee76 443e 3533 093c 5f24 8e3d
00000310: d5b6 853c 0b1e 9d3d f92a 6d3d f6a8 5dbe
00000320: c32d 90bd 7138 2fbe 1cb6 66be d6f7 9d3d
00000330: 20a3 583d 6f35 d53d 1ef5 e0bd cb7b aebd
00000340: 9859 373e 6745 6e3e f2c3 313e fc20 d9bd
00000350: e067 b33b 8d3e 573d 5192 513e c3a6 4abe
00000360: 5265 1fbe 3360 97bd 0c83 4abe 82ed 113e
00000370: ecd5 5ebe 452c 993d 6cf7 b0bd 3efb ca3d
00000380: 45fa 423c 12e4 083d b089 34be 6da6 9d3c
00000390: 33fd 09be 85e5 4bbd 5f93 29be dbd6 8c3d
000003a0: 3988 17be 3d05 7ebd 0724 463e 67c3 633e
000003b0: 8407 2ebe 21e4 3e3e a912 27be 1bd6 a03d
000003c0: 21df bc3d cc37 f23d 807b 72bb 082e 033e
000003d0: 154b a7bd 29ef 32be d04a 343c 4cc8 43be
000003e0: 049f 0a3d 68ec d7bb c6e6 8b3d 7fb5 1d3e
000003f0: 1ab3 45be 980e 03be 77de d23d bc11 6ebd
-0.1175783 -0.21738702 -0.03457425 0.19618401 0.19674005 0.008139879 0.20807223 0.062291544
0.060773537 -0.06937835 0.1762687 -0.16490158 -0.1395741 -0.0030859162 0.19494334 -0.095624216
-0.042563934 -0.057123847 0.18121545 -0.14438821 -0.10130368 -0.20814094 -0.1362874 -0.018517332
-0.027303271 0.07183142 -0.09302568 -0.09264342 0.20631382 -0.04772514 0.18223776 -0.2483616
-0.13513927 0.21593298 -0.24189015 0.036014553 0.027048655 -0.0009581114 -0.18583988 0.09361359
0.12802495 -0.1840342 -0.03795943 0.08220596 0.022356851 0.065871984 0.075306125 -0.05309071
0.13945809 0.18385959 -0.05560394 -0.0126580335 -0.20954445 -0.04138223 0.10380063 0.1833944
0.1461794 -0.1059286 0.005353678 -0.019639535 0.053151872 0.18550216 -0.20169958 -0.01658113
0.02518142 -0.039464336 0.097356185 0.022643434 -0.12556349 0.016341483 -0.119918615 -0.15263171
0.16005358 -0.10390265 -0.11388079 0.085038185 0.016655447 -0.07140474 0.18881254 -0.11025226
-0.12379204 0.14798488 -0.13812141 0.17542404 0.21082547 -0.11975292 -0.104949564 -0.14813389
-0.15469372 -0.12802628 0.07500562 0.20125388 -0.16245365 0.085341245 0.2035874 0.011305754
-0.11550439 0.007954159 -0.00845339 -0.08061224 -0.061779786 0.14120962 0.2116296 -0.17988758
0.10866211 -0.062575996 0.22171524 0.096201226 -0.04499281 -0.06256394 0.077949 0.08691911
0.09823077 0.17200515 -0.106257014 0.17538597 -0.240808 0.21973126 -0.07229234 0.19623818
0.0602942 0.1252303 -0.07031513 0.044733338 -0.04551503 0.21211599 0.13407591 -0.14987367
-0.15720807 -0.10490459 0.16090205 -0.18236849 0.14284733 0.089411356 -0.20693104 -0.04579787
0.11534954 0.11812792 0.15399824 -0.03668399 -0.21226263 -0.07903968 0.019000577 0.09952902
0.08440775 0.018662157 0.15788355 0.15704016 0.019716324 -0.07727859 -0.04343142 -0.09300789
0.13703875 0.18168814 -0.097523674 -0.22904153 -0.124415204 -0.12261228 -0.14292409 0.06908008
0.17464541 0.15817541 0.11341042 0.093789764 -0.19574307 -0.21094812 -0.16243029 -0.18501385
-0.076988876 0.10466399 -0.24092028 0.090232074 0.07708163 0.18729086 0.010445022 0.13712242
0.21106307 0.23660961 0.041586377 0.12670511 0.23733108 0.20108756 0.14642593 0.095800705
-0.09920073 -0.06734613 0.18981259 -0.25144294 -0.17281479 0.1140784 0.21126913 0.045534525
0.10554793 0.19185993 0.008374025 0.06940531 0.016322533 0.07671746 0.05790231 -0.21646485
-0.07039978 -0.17111374 -0.22530407 0.077132866 0.052889943 0.10410582 -0.109842524 -0.085197054
0.17905271 0.23268662 0.17359903 -0.106019944 0.0054750293 0.052549887 0.20465972 -0.19790177
-0.15565994 -0.073913954 -0.19776553 0.14250758 -0.21761292 0.07479147 -0.08640942 0.09911202
0.011900489 0.03342063 -0.17630649 0.019244397 -0.13475494 -0.049779434 -0.16560124 0.06876918
-0.14798059 -0.062016714 0.19349681 0.22242509 -0.16995054 0.18641712 -0.16315712 0.078533374
0.09222246 0.11827049 -0.0036999881 0.12810528 -0.08168618 -0.17474045 0.011004165 -0.19119376
0.033843055 -0.006589461 0.06831126 0.15401267 -0.19306603 -0.12798536 0.10296338 -0.05812238

hiden_layers.2.bias f4 [64]
00000000: af17 acbc a517 12b9 6c1f 5ebc 5b95 b93b
00000010: 4415 d3ba 136e 833c 1213 193c 1823 a4bc
00000020: bf9a 2fbc b868 64bb 2e78 983b f15b 07bc
00000030: 1375 d83a e560 a1bc e231 d5bb 6d3d 20bc
00000040: 35f5 6cbc e9ea c13b ba9e eabc 816e 933b
00000050: e748 24bc e446 dbbc d5b0 243b 778b a13c
00000060: bfc9 cd3b 6442 9a3c 3b37 27bc 6a70 62ba
00000070: f9f2 a4bc 682a f9bb e52c c13a 4670 9eba
00000080: 5fe2 5f3b d855 a43b 3cc8 3f3c 66d0 d03b
00000090: 59af 78bd 9625 28bb ebb7 08bc 4dce 493c
000000a0: 2c3b ccba 3ae3 14bd 65ea 403c ba2b 3cbc
000000b0: 05e2 d63b 0f04 bb3c 9124 793c d69d e73b
000000c0: 1270 3e3d 374d 0e3c 185a 7bbc cdc6 8d3b
000000d0: 408b fcbb 4bd5 963c 6e2d 833b cb60 e63b
000000e0: f9eb d73b 3b25 4cbc 2aed c23c 72be 9dbb
000000f0: c838 86bc 4ccd 24bd b943 95bb 2a3d 693c
-0.021007387 -0.00013932453 -0.013557296 0.0056635565 -0.001610436 0.016043698 0.009342926 -0.020036265
-0.010718047 -0.0034852456 0.0046529984 -0.008261667 0.0016514383 -0.019699523 -0.0065061906 -0.00978027
-0.014462759 0.005917896 -0.02864014 0.004499257 -0.010027147 -0.026767202 0.0025129814 0.019719822
0.0062801535 0.018830486 -0.010206039 -0.0008637967 -0.02013539 -0.007603932 0.0014738111 -0.0012087903
0.0034162027 0.005015116 0.011705454 0.0063724993 -0.0607141 -0.0025657169 -0.008344631 0.012317252
-0.00155816 -0.036349513 0.011774634 -0.011485035 0.0065577053 0.022829084 0.015206472 0.007068376
0.046493597 0.008685402 -0.015341304 0.0043266774 -0.0077070296 0.018412253 0.0040032184 0.0070305816
0.0065894094 -0.012460048 0.02379473 -0.0048139626 -0.016384497 -0.04023485 -0.0045551923 0.014235774

hiden_layers.3.weight f4 [64, 64]
00000000: 19cb a83e 664a cb3d 5dbe de3d 3778 fdbd
00000010: d03b b1bc 6f8e 8c3c ed81 9dbd a253 2cbd
00000020: e5d6 4dbe ccf3 c93d e544 a83d 73b4 1d3e
00000030: a35b 3b3e abe0 f23d 7b8b a23d 7504 10be
00000040: 825b 62be 1872 60be 1537 f9ba e6b8 42be
00000050: ff76 98ba ee13 5d3d 93a2 2c3d fde8 88bc
00000060: 8cea 4c3e 68ce d73d ea02 b13e 0921 81be
00000070: 18ca ccbd 411d fabd da75 29be fab2 46ba
00000080: 95ad 493e 50f9 c1bd d62d 46be 6ef8 4cbe
00000090: bf7d 1c3e 64d5 0f3d 6e86 53be dded fa3d
000000a0: d0fa 70be 6fd0 6d3c 7af9 a63d 26ce 0b3e
000000b0: 089e d3bd a529 4f3e 4d9b cebd 503d 663e
000000c0: 41e6 95be ba95 d8bb bcda c03d 783d d8bd
000000d0: 0380 20be cae8 56be de48 383d 0576 2e3e
000000e0: 249a a0bd 542f b43e 6891 893d 34c4 e8bd
000000f0: 10d2 553e 8e06 363e 8a47 29be e653 883d
00000100: 7086 b83d fd51 90bc 3a3e 18bd 03b9 90bd
00000110: f552 ccbd 4e15 503e 0a6c 2fbe 445b 4bbd
00000120: 3fa9 52be a9c5 1fbe 07cc e0bc 325e d33b
00000130: cece d63d a7a8 183e 3306 403d 32d3 5c3e
00000140: 1890 07bd fcc9 8fbd b987 21be 84d2 2dbe
00000150: 56b1 203e 0e7b 78be 52ad 213c 67bd 39be
00000160: 67da 0e3e 68e5 dcbd 7c96 74bc 9263 cebd
00000170: 87e3 e43c 3fc7 1d3e bf82 0cbc 270d 443e
00000180: 6a06 283e cc1b 223e d72a cdb9 9c8e 073e
00000190: aeeb 173d 2b1b 523e 8eb1 dd3d c38c 383d
000001a0: f917 86bd 0ada 4ebe 4311 bdbd 8b41 0d3e
000001b0: 7441 3dbc 5847 bebd 391b 023d a406 b33d
000001c0: 4bc5 193e e9c6 263d c710 4d3e 757c 54be
000001d0: b268 9b3c 65ca 923d 08e6 36be 2911 99bd
000001e0: e1ae 38be 73ca eb3d d5be d6bd 0536 25be
000001f0: fe91 febc edc7 5b3e ace5 843c e9c2 32be
00000200: 0168 f9bc 58a3 54bd 9fb9 1b3e 38e9 543e
00000210: 384b 0bbe f2fe 863c 4854 1abe eb94 453e
00000220: 86c6 283e da99 c3bd f5c3 48be 7019 d4bd
00000230: 9752 1fbe d377 963d 073f f83d cfdc 113c
00000240: 73f0 323e 955f 0bbe 8541 16be bf40 8b3d
00000250: d4a3 6abd f9d5 803d 29ad 433e b201 73be
00000260: 086f 14be fd69 2a3e 37ae 713d a411 733d
00000270: 0f6f 52bd 9d64 d63d 5320 3dbe 5180 02bd
00000280: c383 193e fe86 17be 7137 d63c 7686 0abe
00000290: bb59 8b3d 3478 b2bd a6e3 6fbd 26ca 80be
000002a0: 6840 a03d 110f afbc e10b d0bd 73ac 243e
000002b0: ba32 2cbe bbce 043e 8ffa 04be aba9 59be
000002c0: 55a0 c5bc 6f65 84bd f48c 053e 71b4 29be
000002d0: a660 46be c535 59be 2ce5 4f3e 5ac0 1bbb
000002e0: c05e 01be d90f 16be ce27 d63d cb47 3b3e
000002f0: 369b 0cbc 23dd 783d 9408 bbbd 4ed6 6ebd
00000300: 3adf 013e d6e7 013e f6a3 1d3e 1346 5bbe
00000310: 8c29 cabd e43f d43d 1330 843d 4126 8c3d
00000320: 6425 65bd 50d3 29be 983e 3dbd 7c74 53bd
00000330: b3a7 afbd 6ebe 3cbe df97 393d 8e61 4bbe
00000340: 5a13 423d 559b a4bd 406a 69bd aa09 8a3d
00000350: 1d4d 663d 426e 0bbc a9a5 e0bd b6de 263e
00000360: d8ce 303e 6311 fe3c ec53 ebbd fd2e 5ebe
00000370: 27c3 c23c 6529 633e 5028 553e c99c 4e3e
00000380: 5f72 283d 71a7 0a3e efcf eabc b533 5bbe
00000390: dbc3 8b3e 50e9 12be d5fe a3bb 72db 53be
000003a0: 03e0 ea3d 3780 553d 06fa 2c3e 87f2 213e
000003b0: 24a4 d0bd 6409 07bd b044 1ebd bf51 65bd
000003c0: 3d65 be3d dc73 5bbe d5e1 a3bd 13df 0bbe
000003d0: 0c6f 2b3d e570 40bb c554 1fbe ea14 8dbd
000003e0: 635e 87be 0f9f 443e e3b5 703d fbe8 cc3d
000003f0: 26f3 a4bd 3a3a f8bd 89e2 5bbe 3e93 0d3d
0.3296745 0.099263 0.10876153 -0.12376445 -0.021634966 0.017157761 -0.07690797 -0.042071946
-0.20101507 0.09860954 0.082162656 0.15400867 0.18296675 0.11859258 0.0793676 -0.140642
-0.2210522 -0.21918523 -0.0019013608 -0.19015846 -0.0011632143 0.053974085 0.04214723 -0.01671266
0.20011348 0.10537416 0.34572536 -0.25220516 -0.09999484 -0.12212611 -0.16548863 -0.000757977
0.19695123 -0.09471381 -0.19353423 -0.20016643 0.15282343 0.035115615 -0.2065675 0.122524
-0.23533177 0.0145150265 0.08153053 0.13652858 -0.103328764 0.2023073 -0.10088215 0.22484326
-0.29277232 -0.0066096457 0.0941672 -0.10558599 -0.15673833 -0.2098724 0.044991367 0.17037208
-0.078419 0.35192358 0.06717187 -0.11365548 0.20880914 0.17775938 -0.16531196 0.06656627
0.09010017 -0.01761722 -0.03716872 -0.07066538 -0.0997676 0.20320627 -0.17131057 -0.049647585
-0.20572375 -0.15602745 -0.027441038 0.006450438 0.104886636 0.14908086 0.046880912 0.2156494
-0.033096403 -0.07020947 -0.1577443 -0.16974837 0.15692648 -0.24265692 0.009867983 -0.18138658
0.13950501 -0.10785943 -0.014928456 -0.10077585 0.027940525 0.15408038 -0.008576094 0.19145642
0.16408697 0.15830916 -0.00039132565 0.13237995 0.037089996 0.20518176 0.108248815 0.045056116
-0.06547541 -0.20200363 -0.09231808 0.13794534 -0.01155125 -0.092909515 0.031764243 0.08741501
0.15016668 0.04071704 0.20025931 -0.20750602 0.018970821 0.0716751 -0.17861187 -0.07473976
-0.18035461 0.115132235 -0.10485617 -0.16133888 -0.031075474 0.21462984 0.016222797 -0.17457165
-0.0304451 -0.05191359 0.15207528 0.20792091 -0.13602912 0.01647899 -0.15071213 0.19295089
0.1648198 -0.09550829 -0.19606002 -0.10356414 -0.1555885 0.073470734 0.121213965 0.0089027425
0.17474537 -0.1361068 -0.14673431 0.06799459 -0.057285145 0.06290812 0.19109024 -0.23731115
-0.1449548 0.16641994 0.059004035 0.059342995 -0.051375445 0.10468409 -0.18469362 -0.031860653
0.1499167 -0.14797589 0.026149483 -0.13527855 0.06804224 -0.08714333 -0.05856671 -0.25154227
0.078247845 -0.021369489 -0.10158516 0.16081409 -0.16816226 0.12969486 -0.12986206 -0.2125613
-0.024124304 -0.064646594 0.1304205 -0.16572739 -0.19372806 -0.21211918 0.20302266 -0.0023765774
-0.126338 -0.14654483 0.10456811 0.18289106 -0.008581927 0.060757767 -0.091324955 -0.058309846
0.1268281 0.12686095 0.15394577 -0.2141345 -0.09871206 0.10363749 0.06454482 0.06843234
-0.05594386 -0.16584516 -0.046202272 -0.05162476 -0.08576908 -0.18432018 0.04531085 -0.19861433
0.047381736 -0.0803744 -0.056986094 0.067401245 0.056225885 -0.008510174 -0.10969097 0.16295895
0.17266405 0.03101415 -0.11490616 -0.21697612 0.023774697 0.2218376 0.20816159 0.20176996
0.041124698 0.13540436 -0.028663604 -0.21406443 0.27297863 -0.14346814 -0.0050047436 -0.2068918
0.11468508 0.05212423 0.16892251 0.15815173 -0.10187557 -0.03296794 -0.038639724 -0.055986162
0.092966534 -0.21430916 -0.080020584 -0.13659315 0.04185395 -0.0029364165 -0.15559681 -0.06888755
-0.264392 0.19201301 0.05876721 0.10005375 -0.080541894 -0.12120481 -0.21473135 0.03456425

hiden_layers.3.bias f4 [64]
00000000: 16ed 2cbc 0a50 dc39 831c 01bd d199 b33a
00000010: b320 a8b9 ddcf 82bc ef0f e83b 5684 28bd
00000020: ef8d 773c 1572 3bbc 193d 1b3c 9e12 0b3c
00000030: fb49 39bc 62ec cbbb 2ebb df3a c850 5db9
00000040: b7f7 24bb a842 00bd 2188 e13b 2f25 c23a
00000050: 84f0 5e3c 1a02 31bb 4487 0fbd dcd8 beb9
00000060: 323d b13c ea8f 353a bf66 23bd 4df1 9fbc
00000070: 6951 a03b ff0c eabb 1a1d 96bb 8c3d 743b
00000080: 1007 143c 7383 803c 99b5 3ebc 0fd2 3bbd
00000090: c05a 823a 40b5 d1bc 43e1 a93a b453 b5bc
000000a0: 1b53 a5bb d67f 633d 73d4 35bc bc33 9c3b
000000b0: be93 fdbc 9a95 893b 227f 5abc 4147 933b
000000c0: 99b0 8d3c b0c9 49bc 5f79 acbb 431e 45ba
000000d0: 535d 6abc de07 cf3b 0d4f c6bc d334 6b3c
000000e0: bd4f a2bc 5b0b 7e3b 3c02 15bc c2d6 c43c
000000f0: 9149 223d e211 d2bc d801 4fbd 6016 adbc
-0.010554573 0.00042021304 -0.03152133 0.0013702457 -0.0003206782 -0.015968258 0.0070819776 -0.04114183
0.015109523 -0.0114407735 0.009475016 0.008488325 -0.011309142 -0.0062232474 0.0017069334 -0.00021106296
-0.0025172064 -0.03131357 0.006882683 0.0014812107 0.013607148 -0.002700931 -0.03504111 -0.00036401197
0.021635626 0.0006926047 -0.03989291 -0.01952424 0.0048925173 -0.0071426625 -0.004581106 0.003726813
0.009034887 0.01568768 -0.011639976 -0.045854624 0.0009945258 -0.025599122 0.001296081 -0.02213464
-0.0050453073 0.055541836 -0.011098015 0.0047669094 -0.030954238 0.004198742 -0.013335975 0.004494578
0.017296122 -0.012316152 -0.005263492 -0.0007519463 -0.014304477 0.0063180765 -0.024207616 0.014355856
-0.019813413 0.0038764093 -0.009094771 0.024028186 0.03962094 -0.025643293 -0.050538868 -0.021128833

hiden_layers.4.weight f4 [64, 64]
00000000: 6f5c d8bc 4d86 1cbe 6382 d83d 2699 dabd
00000010: f9bd 313e c09d 4d3e 812d 19be 987c 0dbe
00000020: a834 46be 268b 853d ab21 cebd 34a0 3a3e
00000030: 0fa6 3bbd 59eb 84be 6e67 103d ab05 36be
00000040: 2e37 c43d c643 02be c129 843d 05a5 543e
00000050: c8bd 0dbd 810b 98bc 4f76 bebd 4424 c5bd
00000060: 16f0 1bbd bf41 dbbd d323 8cbc 0c08 07be
00000070: 3854 93be 6c24 f43d d39c 463e bb7c 873d
00000080: 3400 3a3e 3b2a a63b 45b1 77be 2ab2 53be
00000090: 814a 133e b023 2d3d 278f ad3d ab77 023e
000000a0: 7033 77bd 8ef7 223e 91d7 2a3e 62e8 6bbd
000000b0: 812b 3b3e a69e c73c 8fd2 4dbe c44d 193e
000000c0: 0829 00be 0ef0 013e 6f88 9e3d 0457 783e
000000d0: 3b7b ab3d 3aa6 453e 7c15 40be 174c 8e3e
000000e0: 1e18 6bbe 2d89 d8bd 945f 53bc d0d5 573d
000000f0: e4bf 08be 028b 323d 1d8f 24be d5cc 76bd
00000100: 4fc3 133d 3acf edbc 2342 2cbe cfc4 d53d
00000110: 352e 783c effe 663c 3e3d c23d a2e6 313e
00000120: 2d71 d03d c306 103e 8d83 973d 1da6 cfbd
00000130: 1ca0 debd 63d2 603e 460b e83d ba69 02be
00000140: e0c6 903d 35e4 5dbe f269 c6bd 0c31 4d3e
00000150: e665 de3d 9dee 433e 3bd3 59be 7861 23bd
00000160: 00c1 c23d 3961 56bc 50b0 2c3d fe03 8dbe
00000170: dd75 153d dc2f 1a3e a1f0 9c3d 520e d6bd
00000180: 26cb a53d fafb 5e3c 9dd2 653d 2e23 563d
00000190: 9c2a 7bbd 5ec7 a23d cb8e 51be 8c60 d8bd
000001a0: 3e0b 02be b698 4cbe 34ba 023e cee8 91bd
000001b0: c31e 2fbe 56d6 a73d 676b 63be 6f6a fc3c
000001c0: 2906 053e a8fb 3b3e 9aa4 0f3d d28a 323e
000001d0: 54ff d3bd 8b75 97bb 52ce d7bd a0a1 b1bd
000001e0: 7e9b 843e 6e14 2b3e d3fe eabc f906 0c3d
000001f0: e5fb 37be 6c73 4ebe 2933 29bd 89f3 3abe
00000200: 6fa5 81bd b29b 4c3e 2458 cdbb 4bf1 5b3e
00000210: 3e96 88bd 3ea7 59bd 0abe b5bd 7b81 cf3c
00000220: 853c d13d 4db0 863e b208 91bc 8a1d b7bd
00000230: 92d3 34be 1169 dc3d 510c 583e ab31 003d
00000240: fbd7 80bd 92a9 bcbd 9152 1c3e 85ac 6cbe
00000250: 5e3c 513e 9542 adbd c0fa 0bbe fe7c 733c
00000260: 7545 5d3c 3803 72bd 1a40 c03d 0425 353e
00000270: 09e1 d43d dd15 27be f915 02be fb9a 2bbe
00000280: f718 20be da65 b3bd 80b9 a6bd d88b 1abd
00000290: 137c 6f3d b133 24be 4981 e9bd 3d74 313e
000002a0: e4c4 31bd fb3f 123e 516c 73bb e8bb 603e
000002b0: 683a ffbb d1c2 2fbe e1d4 2dbc 26d1 71bd
000002c0: eed7 7b3e dabb 103d 0f91 13be 633d 4abe
000002d0: 67c4 19bd d14c 3c3e 5763 d33d f855 ebbd
000002e0: d285 733e 6fb0 213e 014d 6ebc a0da 073e
000002f0: c4a4 64bc 7f4d 823d d00d 5bbe c444 793d
00000300: 7321 d0bd 8d1e f13b c06a 25be 06e1 91bd
00000310: e316 d23d 4a0e 91bd 7dab 87bd 1e25 05bc
00000320: 7b0a 113e b4e9 a5bd f4e1 893d 24fe d8bd
00000330: 19e0 2b3e fa97 b9b9 82d4 1cbe 80d7 8cbc
00000340: e932 133e cf77 45bd 6bda 2bbe d86c 33bd
00000350: 53ac c13d 3851 56be bba0 8b3c b20a c13d
00000360: 5eac a0bd 8106 43be f99f b1bd 6303 633d
00000370: 6308 a5bd 93e0 a3bd 2a91 503d fd9c 5a3d
00000380: 2119 11be c9d8 c8ba 1c90 80be 0472 103d
00000390: 14f4 4d3d 78dd 53be 17ac f5bb d6f0 64be
000003a0: d75f 77bd 724e 96bd 03d8 453d 2902 983d
000003b0: 19bb 943e cb41 02be dcdc b33d 14bd cdbd
000003c0: 0ae2 743d 11c3 2cbe 722e 773d 9610 4d3e
000003d0: 6943 053e 6e2e 803d 173c 2b3d 05c2 363e
000003e0: 0808 163e 747d 0b3e cb84 7ebd c689 37bd
000003f0: 7ef8 16bc cfd1 6c3e fe38 ff3d 98a1 153c
-0.026411263 -0.15285607 0.10571744 -0.10673742 0.17357625 0.20079708 -0.14958765 -0.1381706
-0.19356024 0.06520681 -0.100650154 0.18225175 -0.045812663 -0.25960806 0.03525489 -0.177756
0.09580837 -0.12721166 0.064532764 0.20766075 -0.034604818 -0.018560173 -0.09299909 -0.09626058
-0.03807076 -0.107058994 -0.017106926 -0.13186663 -0.2877519 0.119210094 0.19395761 0.06615587
0.1816414 0.0050709522 -0.24188717 -0.20673433 0.1438389 0.042270362 0.0847457 0.12740962
-0.06035179 0.15914747 0.16683795 -0.057594664 0.18278314 0.024367642 -0.20099853 0.14971071
-0.12515652 0.1268923 0.077408664 0.24251944 0.08373114 0.19301692 -0.18758196 0.27792427
-0.22958419 -0.10573039 -0.012901206 0.052694142 -0.1335445 0.0435896 -0.16070218 -0.060253937
0.036074933 -0.029029477 -0.16822104 0.10437929 0.015147735 0.014098867 0.09484337 0.17373136
0.101778366 0.1406508 0.07398138 -0.101391055 -0.10870382 0.21955256 0.11330275 -0.12735644
0.070691824 -0.21669085 -0.09688176 0.20038241 0.10859279 0.19133992 -0.21271984 -0.039887875
0.09509468 -0.013084703 0.042160332 -0.27542108 0.036489356 0.1505732 0.07663084 -0.1045195
0.08095388 0.013609881 0.05610906 0.052279644 -0.061319932 0.079481825 -0.20464627 -0.1056529
-0.12699601 -0.1998013 0.12766343 -0.07124482 -0.17101578 0.08195178 -0.2220894 0.03081247
0.12990631 0.18357718 0.035069086 0.17435768 -0.10351434 -0.0046221665 -0.10537399 -0.08673406
0.2589988 0.16707012 -0.028685963 0.034186337 -0.17967184 -0.20161217 -0.041308556 -0.18256964
-0.06330382 0.19981268 -0.0062666107 0.21478765 -0.066692814 -0.05313801 -0.08874138 0.025330296
0.10216621 0.26306382 -0.017704342 -0.08941181 -0.17658833 0.10762227 0.21098448 0.031297367
-0.06291195 -0.092120305 0.15265872 -0.23112686 0.20433185 -0.08459965 -0.13669872 0.014861343
0.013505329 -0.0590851 0.093872264 0.17689902 0.103944845 -0.16316934 -0.12703694 -0.16758339
-0.15634523 -0.08759661 -0.0814085 -0.03773102 0.058467936 -0.16035344 -0.11401612 0.17329498
-0.04340066 0.14282219 -0.003714342 0.2194668 -0.007788945 -0.1716416 -0.010609836 -0.05903735
0.2459409 0.0353354 -0.14410804 -0.1974998 -0.03754082 0.18388678 0.10321682 -0.114910066
0.23781517 0.1578996 -0.014544726 0.13266993 -0.013955299 0.063624375 -0.21391988 0.060856596
-0.1016263 0.0073583783 -0.16154003 -0.07122998 0.102582715 -0.070828035 -0.06624506 -0.008126525
0.14164154 -0.08101216 0.0673255 -0.105953485 0.16784705 -0.0003539918 -0.1531544 -0.017192602
0.1437489 -0.04820996 -0.16782539 -0.043804973 0.09456696 -0.2092942 0.017044416 0.09425868
-0.078453764 -0.1904545 -0.086730905 0.05542315 -0.0805824 -0.080018185 0.05091969 0.053372372
-0.14169742 -0.0015323396 -0.25109947 0.035264984 0.0502816 -0.20689952 -0.0074973213 -0.22357497
-0.060394134 -0.07339181 0.048301708 0.07422287 0.29048994 -0.1272041 0.0878236 -0.100458294
0.05978588 -0.16871287 0.060347028 0.20025858 0.13013996 0.06258856 0.041805353 0.1784745
0.14651501 0.13622075 -0.06213836 -0.044809125 -0.009214519 0.2312691 0.12462042 0.009132765

hiden_layers.4.bias f4 [64]
00000000: 8245 183b c226 113d aa16 533c 0c5a 763c
00000010: c695 ddbc c4c7 04bd 0b55 f43c cae7 293c
00000020: 540e 63bc e4e3 e53b 1aa4 763c a6c7 643c
00000030: f0a7 04bc fdc2 b63c b9fe d5bc 5553 523c
00000040: 0ee4 893c ed40 2a3c 9d0f 1e3c c451 c0bb
00000050: 47ae 4ebc c11d 843c 8cad b7bc 87e4 943c
00000060: 5b17 d23b 5d9f 98bc a33b 8a3c 0d5d 623d
00000070: 63a4 523c 9dc2 183d 12f6 d8bc 60e1 69bc
00000080: 407a 3d3d b68c 03bb 9746 32bd 9ea8 a7bc
00000090: 2723 bebc 9d7d 073d 9646 be3a 060c dbbc
000000a0: ef15 2a3d dc3f f53b 50e8 b0bc 8948 973c
000000b0: 6825 5fbc 2a18 103c 78f6 9abc 2748 763d
000000c0: 3a62 ef3c d384 58bc caed 2abd 13c3 82bd
000000d0: b0ad 8ebc b204 273c 3876 d23c 0440 f5bb
000000e0: 90e5 e6b8 c2c5 c23c 1d6c d2bc 49eb f03c
000000f0: f787 34bc d361 b1bc 2f52 963b 804d 59bc
0.002323479 0.035437353 0.0128838215 0.015036117 -0.027048957 -0.032417074 0.029825708 0.010370204
-0.013858397 0.007015692 0.015053773 0.0139636155 -0.00809668 0.022309775 -0.026122438 0.012837251
0.016832378 0.010391456 0.009647277 -0.005869122 -0.012614793 0.016127469 -0.02242162 0.018175377
0.0064114756 -0.018630678 0.01687414 0.05526452 0.012856576 0.037294973 -0.026484523 -0.014274925
0.046259165 -0.0020072884 -0.04352435 -0.020466145 -0.023210121 0.03307878 0.0014516886 -0.026739132
0.041524824 0.0074844193 -0.02159515 0.018467205 -0.013619758 0.008794824 -0.018916354 0.060127404
0.029221643 -0.0132152615 -0.04173068 -0.06384864 -0.017416805 0.010193991 0.025691137 -0.007484438
-0.00011010014 0.023775939 -0.025686318 0.029409068 -0.011018745 -0.021653092 0.0045874338 -0.013263106
