results/8_with_inertia/epoch720/model_weights.pth (torch, 749334 bytes, 128 tensors)

init_layer.0.weight f4 [64, 5]
0	0xbea61ef2	-0.32445484
1	0xbeb4d067	-0.35315248
2	0x3e2c56df	0.16830014
3	0xbd27b249	-0.04094151
4	0x3e679d94	0.22618705
5	0xbd957f6d	-0.07299695
6	0x3c33e338	0.010979466
7	0xbeac0417	-0.3359687
8	0x3d366882	0.04453326
9	0x3e0be557	0.13661705
10	0x3ecf1146	0.40442866
11	0xbdacee1e	-0.08443855
12	0x3de1a695	0.11018101
13	0x3de26401	0.110542305
14	0x3e9016e4	0.28142464
15	0xbdfdfbba	-0.12401529
16	0xbe715a0a	-0.23569503
17	0x3e8ab898	0.2709396
18	0xbe638ea6	-0.22222385
19	0x3e254bcb	0.16142194
20	0x3e8adb72	0.27120548
21	0x3e3b1a23	0.18271689
22	0xbe0caf3d	-0.13738723
23	0x3d8171b1	0.06320513
24	0x3e1a5bec	0.15074128
25	0x3eba9db4	0.36448443
26	0x3e833535	0.2562653
27	0xbd73f326	-0.059558056
28	0x3e38d725	0.18050821
29	0x3d9e3c08	0.07726294
30	0x3d4a4625	0.0493833
31	0xbe95dfe5	-0.2927238
32	0x3e7fbf91	0.2497542
33	0x3cad2dc0	0.02113998
34	0x3e91cdfd	0.2847747
35	0xbea42c44	-0.32065022
36	0xbe2a5edc	-0.16637748
37	0x3d723270	0.059130132
38	0x3e90c87a	0.2827795
39	0xbe9709a2	-0.29499537
40	0x3e3d9148	0.18512452
41	0xbea8cc6e	-0.32968467
42	0x3e073b0d	0.1320612
43	0xbd0282a2	-0.031862862
44	0x3dbd525e	0.09244226
45	0xbe89d26b	-0.2691835
46	0x3e9fac5b	0.31186184
47	0xbe8ce261	-0.27516463
48	0xbe77466c	-0.24147958
49	0xbd256fae	-0.04038971
50	0x3e9fd16d	0.31214467
51	0x3df26d7b	0.11837288
52	0xbdd64e95	-0.10464207
53	0xbe964045	-0.2934591
54	0x3da92286	0.08258538
55	0xbe9c8d81	-0.3057671
56	0x3e86aa8a	0.26301986
57	0xbe04f0e5	-0.12982519
58	0x3cbe2ab6	0.023213726
59	0x3b5304da	0.0032198937
60	0x3db36328	0.08759147
61	0xbe877798	-0.2645843
62	0xbe852769	-0.2600663
63	0x3e275f6d	0.16344996
64	0x3e8e22d3	0.27760944
65	0xbe448085	-0.19189651
66	0x3e255ea1	0.1614938
67	0xbcf23010	-0.029563934
68	0x3e29d6ee	0.16585895
69	0xbe82601c	-0.2546395
70	0xbdcbeb24	-0.09956959
71	0xbdab3111	-0.08358968
72	0xbd0c6997	-0.034280386
73	0x3d93d6c3	0.07218697
74	0x3cdb7104	0.026787288
75	0x3e558d1e	0.20854613
76	0xbd20084d	-0.039070416
77	0xbe96f64e	-0.2948479
78	0x3e8f123b	0.27943596
79	0x3e62fb68	0.22166216
80	0x3e0bd2fa	0.136547
81	0xbe036bd6	-0.12834105
82	0x3e67a8f1	0.2262304
83	0xbe7a8a9b	-0.24466936
84	0x3e5d005a	0.21582165
85	0x3c8196a0	0.015818894
86	0x3e976a5a	0.29573327
87	0xbe5466a2	-0.20742276
88	0x3de852d4	0.11343923
89	0x3d976cbb	0.073937856
90	0xbe3240e8	-0.17407572
91	0x3e96ccee	0.29453224
92	0xbe08b97a	-0.13352004
93	0xbe4e512b	-0.2014815
94	0xbe96a47b	-0.29422364
95	0xbe6fb312	-0.23408154
96	0x3e5092e4	0.20368534
97	0x3dfba0ac	0.12286505
98	0xbe62f6e7	-0.22164498
99	0x3ccc77dc	0.024959497
100	0xbe8cee25	-0.2752544
101	0x3c9c1294	0.019051827
102	0x3e3c433e	0.18385026
103	0xbe44edc4	-0.19231325
104	0xbe836577	-0.2566335
105	0xbeac7e93	-0.33690318
106	0xbe964fdb	-0.293578
107	0x3d9f3a17	0.07774752
108	0x3e6dd54f	0.23225902
109	0xbe71a9aa	-0.23599878
110	0xbe2133d2	-0.15742424
111	0xbd73f652	-0.05956108
112	0xbe539626	-0.20662746
113	0x3e137ff8	0.14404285
114	0xbe38ef30	-0.18059993
115	0x3e7c95dc	0.24666542
116	0xbe394b0d	-0.18095036
117	0x3d917b15	0.07103554
118	0x3c97250d	0.018450284
119	0xbdcf4327	-0.1012023
120	0x3ce3c101	0.027801992
121	0x3e29707a	0.16546813
122	0x3e66e79c	0.2254929
123	0xbddbae0b	-0.107265554
124	0x3de6ac0c	0.11263284
125	0x3ea278cf	0.31732795
126	0x3eb4503f	0.35217473
127	0x3e3db1a0	0.1852479
128	0xbe188845	-0.14895733
129	0x3e309b21	0.17246677
130	0xbe969796	-0.29412526
131	0x3e804732	0.25054318
132	0xbbd56498	-0.006512236
133	0x3d9d967b	0.076947175
134	0x3e933c68	0.28757024
135	0xbdfdfa1a	-0.12401219
136	0x3ea2655a	0.3171795
137	0x3e55e7ac	0.20889157
138	0x3e449051	0.19195677
139	0x3e5f7163	0.21820597
140	0xbdd6c942	-0.10487606
141	0xbe3d1620	-0.18465471
142	0xbe8543d9	-0.26028326
143	0xbbb21611	-0.0054347594
144	0x3e80dc9d	0.25168315
145	0x3e16209a	0.14660874
146	0x3e3a1f21	0.18175937
147	0x3d2e1f93	0.04251058
148	0xbd9dfd4a	-0.07714327
149	0x3e2619f1	0.16220833
150	0x3e46d312	0.19416454
151	0x3d6bf880	0.057610035
152	0x3e69a122	0.22815374
153	0x3e755d2c	0.23961323
154	0x3e6c6ed8	0.23089159
155	0xbe825850	-0.25458002
156	0xbea5b05f	-0.32361123
157	0x3df6e8e3	0.12056138
158	0xbdeb14a3	-0.114785455
159	0xbe2d67b2	-0.16934088
160	0xbe8ea53e	-0.27860445
161	0x3e0f2a1f	0.13980912
162	0xbd560c47	-0.052257802
163	0x3e832b99	0.256192
164	0xbe1e3f07	-0.1545373
165	0x3e656679	0.22402371
166	0xbea273e4	-0.31729043
167	0xbe3af84c	-0.1825878
168	0x3dfae647	0.12250953
169	0x3dfb005e	0.122559294
170	0xbd8aaee3	-0.06771638
171	0x3e26f692	0.16304997
172	0xbd7ab9ac	-0.061212227
173	0x3e34c7ab	0.17654292
174	0xbe507274	-0.2035616
175	0x3de755a8	0.112956345
176	0xbe54c6de	-0.20778987
177	0x3e64397b	0.22287552
178	0x3e945969	0.28974465
179	0x3e694ec5	0.22783954
180	0x3e40cd5d	0.1882834
181	0xbe08a317	-0.13343464
182	0x3eabb5d6	0.33537167
183	0x3e3c2702	0.18374255
184	0x3cdd94e5	0.027048538
185	0xbda66da4	-0.08126381
186	0xbd668f56	-0.05628904
187	0x3e78e912	0.2430766
188	0x3da0c968	0.07850915
189	0x3e30d62d	0.17269202
190	0xbe03c316	-0.12867388
191	0xbe3208a1	-0.17386104
192	0x3e5ed297	0.21760021
193	0x3da95571	0.0826825
194	0xbdfc1a1b	-0.12309667
195	0xbe759f50	-0.23986554
196	0xbe3b9a5f	-0.18320607
197	0x3e00eafb	0.12589638
198	0xbe451d43	-0.19249444
199	0x3ea04c36	0.31308144
200	0x3e93342b	0.28750739
201	0xbe2e6082	-0.17029002
202	0x3e3a9eb6	0.18224606
203	0x3ea74654	0.32670844
204	0xbe260bcd	-0.16215439
205	0x3e72231b	0.23646204
206	0x3e32629e	0.17420432
207	0xbdf29d1d	-0.11846373
208	0xbdfa875b	-0.12232848
209	0x3e88a3c6	0.2668745
210	0xbdbfc1c8	-0.09363133
211	0xbe3c7aec	-0.18406266
212	0x3e14e18b	0.14539163
213	0x3b804944	0.003914984
214	0x3d2d5f5c	0.04232727
215	0x3e3e5ca9	0.18590035
216	0x3dcf3464	0.101174146
217	0xbccd0a2c	-0.025029264
218	0x3e0e2d66	0.13884506
219	0x3d836a8d	0.06416807
220	0xbe112edf	-0.14178036
221	0xbeb29f92	-0.34887367
222	0xbdea867e	-0.114514336
223	0xbe78b2a4	-0.24286896
224	0x3e389289	0.18024649
225	0xbe0aface	-0.13572237
226	0x3db72643	0.08942845
227	0x3e7d839d	0.24757238
228	0x3e4a69ec	0.19766968
229	0x3e5718f9	0.2100562
230	0xbe92ec39	-0.2869585
231	0xbe0c8f9d	-0.13726659
232	0xbe9a0938	-0.30085158
233	0x3e02e6bb	0.12783329
234	0xbe3968cb	-0.18106382
235	0xbe66f0aa	-0.22552744
236	0x3e97afce	0.29626316
237	0x3e440cbc	0.19145483
238	0xbe95da22	-0.29267985
239	0x3e849d6d	0.25901356
240	0x3e34231b	0.17591517
241	0xbe41074b	-0.18850438
242	0xbd5e3ae1	-0.05425537
243	0xbd63542b	-0.05550019
244	0xbe4429ac	-0.19156522
245	0xbe8b486a	-0.27203685
246	0xbdfe000a	-0.12402351
247	0xbe4036dd	-0.18770929
248	0xbd6739c5	-0.056451578
249	0xbe847684	-0.2587167
250	0x3d345764	0.044028655
251	0x3ea84efe	0.32872766
252	0x3e80b5f3	0.25138816
253	0xbe6cd044	-0.23126322
254	0x3e352547	0.17690001
255	0xbe1f6211	-0.15564753

init_layer.0.bias f4 [64]
0	0xbc4954db	-0.0122882975
1	0x3c57f0e6	0.013179993
2	0x3a7719a1	0.0009426121
3	0xbc453f95	-0.012039085
4	0xbca2a068	-0.019851878
5	0x3ba40c82	0.005006374
6	0x3bdc0b2a	0.006715198
7	0xbbcfda6e	-0.0063431775
8	0xbc5c75e6	-0.013455844
9	0xb88e8bb1	-6.797107e-05
10	0x3aa53b06	0.0012606091
11	0x3c06c40a	0.00822545
12	0x3adeef03	0.0017008487
13	0x3cb1e458	0.021715328
14	0x3cb1e7e2	0.021717016
15	0x3c380b54	0.01123317
16	0xbbb4536b	-0.0055031083
17	0xb95d3258	-0.00021094957
18	0xbc504943	-0.012712779
19	0xbca909dc	-0.020634584
20	0xbb80ab1e	-0.0039266488
21	0x3c984736	0.018588644
22	0x3b9ea7d3	0.0048417835
23	0x3ca86402	0.0205555
24	0xbca9a940	-0.020710588
25	0xbc164c3f	-0.009173452
26	0xbba29810	-0.004961975
27	0x3c1a245c	0.009408083
28	0xbbcdb865	-0.006278085
29	0xbbe3558f	-0.0069376896
30	0x3bd611c5	0.00653288
31	0xba0c8cbe	-0.00053615484
32	0xba1d66f4	-0.0006004416
33	0x3ce3449e	0.02774268
34	0x3c0227c7	0.007944054
35	0xbb62d989	-0.0034614524
36	0xbd4eb9cf	-0.05047017
37	0xbcebd433	-0.028787708
38	0xbb81e56e	-0.0039641177
39	0x3ca98ac6	0.020696055
40	0xbd16213b	-0.036652785
41	0xbc5f6cbd	-0.013636765
42	0xbc33f3c5	-0.010983412
43	0x3c26b361	0.010174603
44	0x3a20d96e	0.0006135915
45	0xbcad5970	-0.021160811
46	0xbc670640	-0.014100611
47	0x3ba22431	0.004948162
48	0x3bbfd26b	0.005853941
49	0x3ce5146f	0.027963845
50	0xbd02448f	-0.031803664
51	0x3b9a2905	0.004704597
52	0xbb89770e	-0.0041951006
53	0x3d82e68d	0.0639163
54	0xbac5f7bf	-0.0015103741
55	0x3ba21d95	0.004947374
56	0x3bbc0fd6	0.0057391925
57	0x3c98e38b	0.018663188
58	0x3bfeaded	0.0077721984
59	0xbce57c3d	-0.028013343
60	0xbc9ec3ce	-0.019380476
61	0xbbd6b69c	-0.0065525305
62	0xbc5d3b4c	-0.013502907
63	0xbc17a529	-0.009255686

hiden_layers.0.weight f4 [64, 64]
0	0x3e0eb9f0	0.13938117
1	0x3d26dfda	0.040740825
2	0x3da93819	0.08262653
3	0x3d3e0461	0.046390895
4	0xbe2704e3	-0.16310458
5	0x3e338d3a	0.17534342
6	0xbe3305ee	-0.17482731
7	0xbe166b41	-0.14689352
8	0x3daae0f3	0.08343687
9	0x3e20fb55	0.15720876
10	0xbcd780cc	-0.026306532
11	0x3e4e57d2	0.20150688
12	0xbdbf2fd4	-0.09335294
13	0x3e1d47ee	0.1535947
14	0x3c195bc6	0.009360259
15	0xbcc158ab	-0.02360185
16	0xbd2f199f	-0.042749044
17	0x3da4adef	0.08040988
18	0xbd817c54	-0.06322542
19	0x3df4f0f7	0.11960023
20	0xbe5db580	-0.21651268
21	0xbe0702b4	-0.13184625
22	0x3e5d3af3	0.21604519
23	0xbe0943b5	-0.13404734
24	0xbbd8c1ac	-0.0066148844
25	0x3d3ea313	0.04654224
26	0xbc95e078	-0.018295512
27	0xbe3469a8	-0.1761843
28	0x3dc92345	0.0982118
29	0xbd094145	-0.03350951
30	0xbe30285a	-0.17202893
31	0x3d853bc2	0.065055385
32	0x3db9a21e	0.090641245
33	0x3dbd3290	0.0923816
34	0x3df2c679	0.11854262
35	0xbe641dec	-0.2227704
36	0xbe792721	-0.24331333
37	0xbd6edd5e	-0.05831658
38	0xbe3a031a	-0.18165246
39	0x3e38049b	0.17970507
40	0x3d535f3a	0.051604487
41	0xbe1e8685	-0.15481003
42	0xbe8227fa	-0.25421125
43	0xbd9ef950	-0.07762396
44	0xbe46b088	-0.19403279
45	0xbe05089f	-0.1299157
46	0xbd25dc69	-0.040493403
47	0xbdfee9d9	-0.12446947
48	0x3d35b0f6	0.044358216
49	0x3c8a622b	0.016892513
50	0x3e1bcf87	0.15215884
51	0x3df1aefc	0.11800954
52	0x3e0b741a	0.13618508
53	0xbd6482d9	-0.05578885
54	0x3d93fdad	0.07226119
55	0xbe3711f0	-0.17877936
56	0x3c6b1104	0.014347319
57	0xbdfbaa9d	-0.12288401
58	0xbe156da6	-0.14592609
59	0x3cb02507	0.021502031
60	0xbd9a049b	-0.0752041
61	0x3e57373e	0.21017167
62	0xbe3ebbb0	-0.18626285
63	0xbe091717	-0.13387714
64	0xbd57b32b	-0.052661102
65	0xbd810acc	-0.063008875
66	0xbd9d9d97	-0.076960735
67	0x3dbfce2a	0.093654945
68	0xbdb3b359	-0.08774442
69	0x3df5c73d	0.12000892
70	0x3db0dd47	0.08635955
71	0x3dd7d80c	0.105392545
72	0x3ea5b67d	0.3236579
73	0xbdeed84c	-0.11662349
74	0x3e49dd75	0.19713385
75	0xbd80fc9d	-0.06298182
76	0x3d2a6df1	0.041608755
77	0x3e2a28c0	0.16617107
78	0xbbb3c66e	-0.005486301
79	0xbc8b96e5	-0.017039726
80	0x3dc2f283	0.09518912
81	0xbde0f65f	-0.109844916
82	0xbd312d4a	-0.04325608
83	0x3e113d8b	0.14183633
84	0xbd2edf75	-0.042693574
85	0xbd0c786b	-0.034294527
86	0xbdb10702	-0.08643915
87	0x3e05f62e	0.13082191
88	0xbc871627	-0.016490055
89	0xbd85bb83	-0.06529906
90	0xbe19e7af	-0.15029787
91	0xbdd2ce1b	-0.10293218
92	0x3e1f2979	0.15543164
93	0xbdbe8795	-0.09303204
94	0x3df04ddb	0.117336
95	0xbcca6da3	-0.024710482
96	0xbdfcf513	-0.12351432
97	0x3ceb254b	0.028704306
98	0xbe60d80e	-0.21957418
99	0x3df637d3	0.120223664
100	0xbe299b0b	-0.1656305
101	0xbe003fec	-0.12524384
102	0xbd890e47	-0.06692176
103	0x3e63887b	0.22220032
104	0xbdd379cf	-0.103259675
105	0x3aefc686	0.0018293418
106	0x3d107eee	0.0352773
107	0xbe6c4af7	-0.23075472
108	0x3e750dab	0.23930995
109	0x3d8bceb0	0.06826532
110	0x3e601eae	0.21886703
111	0x3e02e08c	0.1278097
112	0xbe3555c3	-0.17708497
113	0x3d8df521	0.0693152
114	0xbe596e83	-0.21233563
115	0xbe1f89ad	-0.15579863
116	0xbdb84399	-0.08997268
117	0xbe74ae02	-0.23894504
118	0x3e449834	0.19198686
119	0x3d2e393c	0.04253505
120	0x3e275fdc	0.16345161
121	0xbe3419d3	-0.17587976
122	0x3e49e8be	0.1971769
123	0xbd51d888	-0.05123189
124	0xbdff3fb8	-0.12463325
125	0xbe133f58	-0.14379632
126	0x3e2f1c25	0.1710058
127	0x3ce9c685	0.028537044
128	0xbbc4909c	-0.005998684
129	0xbe9eb5af	-0.3099799
130	0x3cf940fb	0.030426493
131	0x3e01631f	0.12635468
132	0xbe87bd08	-0.26511407
133	0xbdad8a85	-0.08473686
134	0x3d2b6160	0.04184091
135	0x3e5202e3	0.20508914
136	0x3dd7eb70	0.10542953
137	0xbe5ec52a	-0.217549
138	0x3d13be4c	0.036070153
139	0xbdc3cc78	-0.09560484
140	0x3e21d631	0.15804364
141	0x3e3e530a	0.18586364
142	0x3d77817c	0.06042622
143	0xbe7b2846	-0.24527082
144	0x3d3e2e54	0.0464309
145	0x3e14856e	0.14504024
146	0xbdc8f419	-0.09812183
147	0x3dda3fd3	0.10656705
148	0xbd886eb0	-0.06661737
149	0x3e27e916	0.16397509
150	0x3dadbaa8	0.084828675
151	0xbe523733	-0.2052887
152	0x3e2c3d00	0.16820145
153	0x3e17cfd2	0.14825371
154	0xbcedd14d	-0.029030466
155	0x3d922340	0.0713563
156	0x3e138cff	0.14409254
157	0xbe45a4ed	-0.19301195
158	0x3e3100e0	0.1728549
159	0x3df3784e	0.11888181
160	0x3e505095	0.2034324
161	0xbd862a2b	-0.06551012
162	0xbdd33c21	-0.10314203
163	0x3e26fee0	0.16308165
164	0x3e1d31b5	0.15350993
165	0x3e6c19f1	0.23056771
166	0x3d9da12d	0.076967575
167	0x3dc90f76	0.09817402
168	0xbbea1ae5	-0.0071443194
169	0x3e145b71	0.14488007
170	0x3e506253	0.20350008
171	0xbd960452	-0.07325043
172	0x3e45d683	0.19320111
173	0x3e93e416	0.28884953
174	0x3d20815e	0.039185874
175	0xbe0e560a	-0.13900009
176	0x3dc56235	0.09637872
177	0xbe251ed8	-0.16125047
178	0xbdb0922c	-0.0862163
179	0xbce903cd	-0.028444195
180	0xbd185ada	-0.037196018
181	0x3db1717e	0.08664225
182	0x3da0155d	0.07816575
183	0xbe2256ce	-0.15853426
184	0xbe59d3ec	-0.21272248
185	0x3d63f02e	0.055648975
186	0xbe7331fe	-0.2374954
187	0x3e321b4a	0.17393222
188	0x3dc7e928	0.09761268
189	0xbc6dbae4	-0.01450989
190	0xbdf0ab97	-0.11751478
191	0x3e4b53cd	0.19856186
192	0xbe33d683	-0.17562298
193	0xbd0452af	-0.032305416
194	0x3d49d117	0.04927167
195	0xbe28d542	-0.16487601
196	0x3da51ef6	0.08062546
197	0xbbc7b333	-0.0060943603
198	0x3d6b4e5f	0.057447787
199	0xbe4ded31	-0.20110013
200	0x3e127d0b	0.14305513
201	0x3ddbc7b6	0.10731451
202	0x3e62b70e	0.22140142
203	0x3ddf6167	0.1090725
204	0xbd77899a	-0.06043396
205	0x3e412902	0.188633
206	0xbd9ae46a	-0.07563098
207	0x3dc7478e	0.09730445
208	0xbe498dde	-0.19683024
209	0xbe2e7ec4	-0.17040545
210	0x3e0e39ed	0.13889284
211	0x3e1dedc0	0.15422726
212	0x3e296a13	0.1654437
213	0xbe737b9b	-0.2377762
214	0xbe192609	-0.14955916
215	0xbe6311c2	-0.22174743
216	0xbe3a1d5d	-0.18175264
217	0x3e5d4d14	0.21611434
218	0x3d585def	0.052823957
219	0xbddf31a4	-0.1089814
220	0x3e5504e6	0.2080265
221	0x3c127b1b	0.008940483
222	0xbdbb351d	-0.0914099
223	0x3def8670	0.11695564
224	0xbe369cc5	-0.1783324
225	0xbe5ca0b4	-0.21545678
226	0x3c22c913	0.009935635
227	0x3e0d1fef	0.13781713
228	0xbd65f32e	-0.056140117
229	0xbe2736d5	-0.1632951
230	0xbe1fe57c	-0.15614885
231	0x3cca3dd4	0.024687685
232	0xbdf72ea9	-0.120694466
233	0xbcb455dc	-0.022013597
234	0xbdffbf98	-0.124877155
235	0x3e45f48a	0.19331565
236	0xbe2861c4	-0.16443545
237	0x3d78ae7c	0.060713276
238	0x3d16303f	0.036667105
239	0x3de52bc3	0.111899875
240	0xbe1babd3	-0.15202264
241	0x3e353ca4	0.17698914
242	0xbd5483f7	-0.051883664
243	0x3dfbacfd	0.12288854
244	0xbe0637b7	-0.13107191
245	0xbd341e86	-0.043974422
246	0xbdc9f448	-0.09861046
247	0xbe3aefb9	-0.1825551
248	0xbe0ddb19	-0.1385311
249	0xbe41cf71	-0.18926789
250	0x3e1bdb13	0.15220289
251	0x3e22cd57	0.15898643
252	0xbe3db241	-0.1852503
253	0x3d265de2	0.040616877
254	0x3be5c1bc	0.0070116203
255	0x3e1edd26	0.15514049

hiden_layers.0.bias f4 [64]
0	0xbb840830	-0.0040292963
1	0x3bcfbc56	0.00633959
2	0xbca7d72d	-0.020488346
3	0xb9632f81	-0.00021666104
4	0x3d35295a	0.04422889
5	0xbbb6e575	-0.0055815526
6	0x3d109efd	0.035307873
7	0xba1168ae	-0.00055469095
8	0xbcded438	-0.027200803
9	0x3c5cb1a3	0.013470086
10	0xbcc7c535	-0.024386028
11	0xbd07cdc8	-0.033155233
12	0xbc2bdea1	-0.010490091
13	0xbb0268c3	-0.0019898869
14	0x3bcc8eac	0.0062425938
15	0xba9e1206	-0.0012059815
16	0x3a3b306c	0.00071406993
17	0xbc510396	-0.012757203
18	0x3c14a0ce	0.009071542
19	0xbbf3e4ba	-0.007443038
20	0xbbf46bf6	-0.007459159
21	0xbca28d46	-0.019842755
22	0x3aabbb97	0.0013102171
23	0x3c64a96e	0.013956411
24	0xbb1fc8ef	-0.002438124
25	0xbbfede31	-0.007777952
26	0xbca79972	-0.02045891
27	0xbce99030	-0.028511137
28	0x3a17d49c	0.0005791874
29	0xbb8d6df9	-0.0043160883
30	0xb9fc880c	-0.00048166548
31	0x3be7d048	0.0070743896
32	0x3b421d3f	0.0029619483
33	0xbbada77e	-0.0052995076
34	0xbc90a7f5	-0.017658213
35	0xbbc09c26	-0.0058779893
36	0xbb47ea6f	-0.0030504724
37	0xbd7f9ae6	-0.062403582
38	0xbbeeea09	-0.0072910828
39	0xbaef636f	-0.0018263886
40	0x3c215eff	0.009849309
41	0xbc30b65b	-0.010785664
42	0xbc4d67b7	-0.012536935
43	0xbc58f9a1	-0.01324311
44	0x3bf407a0	0.007447198
45	0xbc3213fd	-0.010869023
46	0xbb719112	-0.003686015
47	0x3c8aa9a1	0.016926588
48	0xbbfea2c3	-0.0077708676
49	0x3b740cb1	0.003723901
50	0xba92af33	-0.001119113
51	0xbc9bf7c9	-0.019039052
52	0xbc5a534a	-0.013325522
53	0x3b9a048a	0.004700248
54	0xbb51cbbd	-0.0032012307
55	0x3b702464	0.0036642784
56	0x3c927a39	0.017880546
57	0xbbc04458	-0.005867522
58	0x3ccf3bde	0.025297102
59	0x3c7a4f0f	0.015277638
60	0xbc276460	-0.010216802
61	0xbc769526	-0.015050208
62	0x3c57f57c	0.013181087
63	0xbc774eab	-0.0150944395

hiden_layers.1.weight f4 [64, 64]
0	0x3ce31812	0.027721439
1	0xbe2ca477	-0.16859613
2	0x3e3bc2b5	0.18335994
3	0xbe288107	-0.1645547
4	0x3c952e9f	0.018210707
5	0xbe26d48b	-0.16292016
6	0xbd424edb	-0.047438484
7	0x3e4a30d1	0.19745184
8	0x3e1d043b	0.15333645
9	0x3e1f2552	0.1554158
10	0xbdb66c76	-0.08907406
11	0xbdc45138	-0.09585804
12	0x3d3faa33	0.046793174
13	0xbe23c323	-0.15992408
14	0xbc948df3	-0.018134093
15	0x3e09463e	0.13405702
16	0x3e08f753	0.13375597
17	0x3d9b3c02	0.07579805
18	0x3e19474b	0.14968602
19	0xbde74555	-0.11292521
20	0x3e03cfb6	0.12872204
21	0xb99abc52	-0.00029513479
22	0xbdd3392e	-0.103136405
23	0x3dc3767e	0.09544085
24	0xbe266e9c	-0.16253132
25	0xbdfc14c7	-0.123086505
26	0x3e26b966	0.16281661
27	0x3d55645d	0.052097667
28	0xbdf63cd7	-0.12023323
29	0x3d0b5114	0.03401287
30	0xbdff693b	-0.12471243
31	0x3d0adc68	0.033901602
32	0x3de61b3d	0.11235664
33	0x3e3af9ec	0.182594
34	0xbe6b59d7	-0.2298349
35	0x3cba0fcb	0.022712609
36	0xbd969046	-0.07351737
37	0xbe3ac760	-0.18240118
38	0x3e54ac96	0.20768961
39	0xbdd8c704	-0.10584834
40	0xbe50cd1d	-0.20390745
41	0xbe47eeab	-0.19524638
42	0xbde7dff3	-0.11322012
43	0xbd81aaf6	-0.06331436
44	0xbe3dea00	-0.18546295
45	0xbcf9dc3d	-0.030500526
46	0xba9f894a	-0.0012171653
47	0x3d01a6d7	0.03165325
48	0xbe723d35	-0.23656161
49	0x3d1a82d9	0.037722442
50	0xbda1cd12	-0.07900442
51	0x3e0d7136	0.13812718
52	0x3e086e6a	0.1332337
53	0xbc1c20b6	-0.009529283
54	0x3b02f4cf	0.0019982343
55	0x3d2cef44	0.04222037
56	0xbe1595d6	-0.14607939
57	0x3dad4a2b	0.08461412
58	0xbe2b6c2d	-0.16740485
59	0x3e2816bf	0.16414927
60	0xbdb5fb73	-0.08885851
61	0xbe7afbd1	-0.24510123
62	0xbe05a86f	-0.13052534
63	0x3de53d4c	0.11193332
64	0xbe4df079	-0.20111264
65	0xbe659022	-0.22418264
66	0x3c7b1d1c	0.015326764
67	0xbe967db3	-0.29392776
68	0xbc9de941	-0.019276263
69	0xbe389895	-0.18026955
70	0xbe9ceb33	-0.30648193
71	0xbea51d61	-0.32248977
72	0xbc792be6	-0.01520822
73	0xbe1d0a9d	-0.1533608
74	0xbace0d1f	-0.0015720463
75	0x3e112179	0.14172925
76	0xbe366ab1	-0.17814137
77	0x3da3470d	0.07972536
78	0x3e5cc8b0	0.21560931
79	0x3d39ff75	0.04540964
80	0xbe433ae5	-0.19065435
81	0xbe379c6e	-0.17930767
82	0xbdba93e4	-0.09110239
83	0x3e5f669c	0.21816486
84	0x3e346967	0.17618333
85	0x3db762f2	0.08954419
86	0xbdd730f7	-0.10507386
87	0xbce003e8	-0.027345613
88	0x3dc3d888	0.095627844
89	0xbe80d4d0	-0.25162363
90	0x3d815b87	0.063162856
91	0x3e05d27a	0.13068572
92	0x3d94dd27	0.07268744
93	0xbe92dbb0	-0.28683233
94	0x3deddf94	0.1161491
95	0xbe444143	-0.1916552
96	0x3e43d04c	0.19122428
97	0x3e3e5502	0.18587115
98	0x3e4c99de	0.1998057
99	0xbd110095	-0.035400946
100	0xbe8194b2	-0.25308758
101	0x3e5ca6c5	0.21547993
102	0x3cc89f1c	0.024489932
103	0xbc251e49	-0.010078021
104	0xbd682000	-0.056671143
105	0x3df045bc	0.11732051
106	0xbe867410	-0.26260424
107	0xbd191a56	-0.03737863
108	0x3d56a195	0.05240019
109	0x3e2b7a3b	0.16745846
110	0x3d3b9744	0.045798555
111	0xbcb8fa6d	-0.02258035
112	0xbc6bb47e	-0.014386294
113	0xbd86b0c1	-0.06576682
114	0x3e8c9536	0.2745759
115	0x3db90e8b	0.09035977
116	0x3def2465	0.116768636
117	0xbe26ac04	-0.16276556
118	0x3d962f88	0.073332846
119	0xbdea2e74	-0.114346415
120	0xbe46c4bc	-0.19410986
121	0xbda4de0c	-0.080501646
122	0xbe4be7fb	-0.19912712
123	0xbc5f296a	-0.013620714
124	0xbe641245	-0.22272594
125	0xbe75d020	-0.24005175
126	0x3c2a441a	0.010392213
127	0x3c838163	0.016052907
128	0x3dc6b52d	0.09702525
129	0xbdda35ad	-0.10654769
130	0xbdbaac00	-0.09114838
131	0xbe38af5e	-0.18035647
132	0x3e18c865	0.14920194
133	0x3e55c053	0.20874147
134	0xbd541c27	-0.05178466
135	0x3da11e2e	0.078670844
136	0xbdcdeae6	-0.10054569
137	0xbd18e874	-0.03733106
138	0x3dbef1c9	0.093234606
139	0x3debdbe0	0.11516547
140	0x3d0911c7	0.03346422
141	0x3b341fe0	0.002748482
142	0x3e6131e1	0.21991684
143	0x3d5a095e	0.05323159
144	0xbe3ee6a4	-0.1864267
145	0xbe065070	-0.13116622
146	0xbd734e0e	-0.05940061
147	0x3e2c22a5	0.16810091
148	0xbe04e317	-0.12977253
149	0x3d382e1f	0.04496586
150	0xbe3eef30	-0.1864593
151	0xbd379035	-0.04481526
152	0xbe056b6c	-0.1302926
153	0xbdfec698	-0.124402225
154	0x3cff2a21	0.031148018
155	0x3e5128fa	0.20425788
156	0x3e3fb04a	0.18719593
157	0x3dba88d2	0.09108128
158	0x3dbe49f4	0.09291449
159	0x3d80a488	0.06281382
160	0x3d0db517	0.03459653
161	0xbda8b41d	-0.08237479
162	0xbdd1ec8b	-0.10250195
163	0x3c38454a	0.011246989
164	0x3dc26590	0.09492028
165	0x3c035752	0.008016424
166	0x3b83c81a	0.0040216567
167	0xbdcff00e	-0.10153209
168	0x3e1f35de	0.15547892
169	0xbca7e93d	-0.020496959
170	0xbd942aec	-0.07234749
171	0x3e2af4a2	0.16694883
172	0xbd8685bf	-0.06568479
173	0x3cf45204	0.029824264
174	0xbd79225c	-0.060823783
175	0xb9a35658	-0.00031154114
176	0xbd46b8d0	-0.048516095
177	0xbe27a75e	-0.1637244
178	0xbcae00cb	-0.021240612
179	0xbe1b2795	-0.15151818
180	0xbc52cce6	-0.012866234
181	0xbd946c3f	-0.07247209
182	0xbcbd90a9	-0.023140268
183	0xbde4106c	-0.11135945
184	0x3cd0bd71	0.025480958
185	0xbe4b4404	-0.19850165
186	0xbe11b871	-0.14230515
187	0x3d4e9eb7	0.05044433
188	0xbdd95850	-0.106125474
189	0xbe2a5fc8	-0.166381
190	0x3d745b62	0.059657462
191	0x3e335da3	0.17516188
192	0x3e7b83b0	0.24561954
193	0x3c31d93f	0.010855018
194	0xbcb9eacc	-0.022694968
195	0x3e5f3768	0.2179848
196	0x3e5d5a42	0.21616462
197	0xbdfc59d7	-0.12321823
198	0xbe257bff	-0.16160582
199	0x3d9dbf2c	0.07702479
200	0x3d4d36d8	0.05010113
201	0x3e727b1b	0.23679774
202	0x3e0566a3	0.13027434
203	0xbdaa444d	-0.083138086
204	0x3dd35159	0.1031825
205	0xbe477fb0	-0.19482303
206	0xbc9a4981	-0.018833878
207	0x3d0b4181	0.033998016
208	0xbde06446	-0.10956626
209	0x3bc8a3cf	0.006123043
210	0x3d0d4cbb	0.034497004
211	0xbe2c397f	-0.16818808
212	0xbe654416	-0.22389254
213	0xbe002946	-0.12515745
214	0xbdffd6ff	-0.12492179
215	0xbe499481	-0.19685556
216	0x3e182bdb	0.1486048
217	0x3e2ae4fc	0.16688913
218	0x3dc0b712	0.09409918
219	0x3e0322aa	0.12806192
220	0x3e6b78be	0.22995278
221	0xbe47c904	-0.19510275
222	0xbe1c28b2	-0.15249899
223	0x3de1daec	0.11028084
224	0x3d015721	0.031577233
225	0xbe376bef	-0.17912267
226	0xbddec2b7	-0.10876983
227	0xbca95ce9	-0.020674186
228	0x3b06b2c2	0.0020553325
229	0x3e28e9f9	0.16495503
230	0x3d8c2f93	0.068450116
231	0x3d02f692	0.03197343
232	0x3e12f840	0.14352512
233	0xbc667989	-0.014067062
234	0x3dc3bdfe	0.095577225
235	0x3beace29	0.0071656895
236	0xbe550aff	-0.20804976
237	0xbe04b549	-0.1295978
238	0xbd49f0e5	-0.049302
239	0x3e528a68	0.2056061
240	0x3e4d683f	0.20059298
241	0xbd7ab6f6	-0.06120964
242	0xbd30e540	-0.04318738
243	0x3d90b0dd	0.07064984
244	0x3df73e6b	0.12072452
245	0xbc821a96	-0.015881818
246	0xbdd35aa0	-0.1032002
247	0x3dade10e	0.084901914
248	0xbe2c8cf8	-0.1685065
249	0xbda1ff5c	-0.07910034
250	0x3d869a71	0.06572426
251	0x3e6d0477	0.23146234
252	0x3e474125	0.19458444
253	0xbcad93f6	-0.021188717
254	0x3bbc965b	0.0057552285
255	0xbd7b0c7c	-0.061291203

hiden_layers.1.bias f4 [64]
0	0x3c6fbc61	0.014632315
1	0xbcf3e3cc	-0.029771708
2	0xbb6787c5	-0.0035328728
3	0x3bd0eed2	0.006376126
4	0x3ac1adc9	0.0014776523
5	0xbc8f3a99	-0.017483996
6	0xbd39ee5a	-0.045393325
7	0x3ae47760	0.0017430596
8	0xbb26d3a2	-0.0025455733
9	0x3cb3c07a	0.021942366
10	0x3b87c100	0.0041428804
11	0xb98d5e02	-0.00026963657
12	0x3de5f10f	0.11227619
13	0xbc3be196	-0.011467358
14	0xbcc6760e	-0.024226215
15	0xbcc2cb56	-0.023778599
16	0xbcf08009	-0.029357927
17	0xb965ae5e	-0.00021904099
18	0x3bbcab2e	0.005757711
19	0xbbdec0e7	-0.006797898
20	0xbbc4dec4	-0.006008001
21	0x3c5d0540	0.013490021
22	0x3c30566b	0.010762791
23	0xbc4ae026	-0.012382543
24	0xbb7d1f4b	-0.0038623388
25	0xbc0a4b1a	-0.008440757
26	0xbc450dae	-0.012027187
27	0xbc619c61	-0.013770194
28	0x3c382423	0.011239084
29	0xbb2efd90	-0.0026701428
30	0xbc16194f	-0.0091613075
31	0xbc8a80cd	-0.01690712
32	0x3c549b6a	0.012976507
33	0x3bee922a	0.0072806077
34	0x3a3e2331	0.0007253169
35	0xbcd89db6	-0.02644239
36	0x3c73f978	0.014891021
37	0xba0bd72c	-0.00053344923
38	0x3b61e042	0.0034465943
39	0x3c229201	0.009922505
40	0xbbfffb1d	-0.0078119175
41	0xbb891154	-0.004182974
42	0xbc20f7d5	-0.009824713
43	0xbb3df836	-0.0028987057
44	0xbd1ade22	-0.0378095
45	0x3d99062a	0.07471879
46	0xbaf69645	-0.0018813094
47	0x3bd442d8	0.006477695
48	0xbc19962b	-0.009374182
49	0xbcee94d4	-0.029123701
50	0xbca0b714	-0.019618548
51	0xbc28b84d	-0.010297847
52	0x3ad0b14f	0.0015921983
53	0xbbf39e07	-0.00743461
54	0x3ce9c470	0.028536052
55	0x3c8082fe	0.015687462
56	0xbcb3c7a7	-0.021945788
57	0xbc071cca	-0.00824661
58	0x3c47bb9e	0.0121907275
59	0xbcf00a53	-0.029301798
60	0x3cc0113f	0.023445724
61	0x3c03818b	0.008026491
62	0xbd8f33ca	-0.069923
63	0x3c107e07	0.00881911

hiden_layers.2.weight f4 [64, 64]
0	0xbdf384b5	-0.11890546
1	0xbe537d2f	-0.20653223
2	0xbce2f7a5	-0.027705977
3	0x3e4b21e6	0.1983715
4	0x3e542b9c	0.2071976
5	0xbcd58d65	-0.026068399
6	0x3e677937	0.22604834
7	0x3d8488f5	0.06471435
8	0x3da686ab	0.081311546
9	0xbdd851df	-0.10562491
10	0x3e802b19	0.2503288
11	0xbe1e0271	-0.15430619
12	0xbdcef98c	-0.10106191
13	0xbc8e1b9a	-0.017347146
14	0x3e4b072f	0.19826959
15	0xbde33fba	-0.11096139
16	0xbcf10140	-0.029419541
17	0xbdba55f7	-0.09098428
18	0x3e4a3870	0.19748092
19	0xbd9423bf	-0.072333805
20	0xbe001fec	-0.12512177
21	0xbe6b7917	-0.22995411
22	0xbdfdb26c	-0.12387547
23	0x3d450194	0.04809721
24	0xbcbcc015	-0.02304081
25	0x3d983052	0.07431091
26	0xbdc82ac8	-0.09773785
27	0xbdb8f386	-0.090308234
28	0x3ea5e130	0.32398367
29	0xbdbc055a	-0.09180708
30	0x3e53f181	0.20697595
31	0xbe8a9b02	-0.27071387
32	0xbe1f5fe1	-0.15563919
33	0x3e7e5086	0.24835405
34	0xbe8af6c6	-0.27141398
35	0x3d95e819	0.0731966
36	0x3d97c3fe	0.074104294
37	0x3a2dfb4d	0.0006636873
38	0xbe5bd73e	-0.21468827
39	0x3dd65eac	0.10467276
40	0x3de0f833	0.1098484
41	0xbe482d16	-0.19548449
42	0xbd020cdf	-0.031750556
43	0x3dc5ae09	0.09652335
44	0x3db5311c	0.088472575
45	0x3d7d1fb0	0.061797798
46	0x3da6a9ca	0.081378534
47	0xbc482e32	-0.012218045
48	0x3dcc0b3b	0.099630795
49	0x3e5376b9	0.20650758
50	0xbe1a1c9a	-0.15049973
51	0x3ba08ed3	0.0048998385
52	0xbe3cc4d6	-0.18434462
53	0xbbc69b40	-0.0060609877
54	0x3db3ecbd	0.087853886
55	0x3e424c09	0.18974318
56	0x3e7042aa	0.2346293
57	0xbdf7f9db	-0.12108203
58	0x3c40da3d	0.011770782
59	0x3c81ef35	0.015861133
60	0x3d7b7c8f	0.061398085
61	0x3e56a60f	0.20961784
62	0xbe6abcc7	-0.22923575
63	0x3b4eaaef	0.003153499
64	0x3ca68779	0.02032827
65	0xbd1c041b	-0.038089853
66	0x3dd66864	0.1046913
67	0x3c29e34f	0.010369136
68	0xbdf5e433	-0.12006416
69	0x3b1ee7ef	0.002424713
70	0xbdf28c82	-0.11843206
71	0xbe18b2c2	-0.1491194
72	0x3e322feb	0.17401092
73	0xbdda4f95	-0.1065971
74	0xbe05c389	-0.13062872
75	0x3daf1442	0.08548786
76	0x3be6faa3	0.007048921
77	0xbd9b577c	-0.07585046
78	0x3e3effe5	0.18652304
79	0xbdee80ae	-0.116456375
80	0xbe028c43	-0.12748818
81	0x3e259c91	0.16173007
82	0xbe0d1d92	-0.13780811
83	0x3e480e92	0.19536808
84	0x3e6e5229	0.23273529
85	0xbdeaf6e3	-0.11472871
86	0xbdd8d318	-0.10587138
87	0xbe12e71b	-0.14345972
88	0xbe1f9ca6	-0.155871
89	0xbdfb7614	-0.12278381
90	0x3dae5f8e	0.08514319
91	0x3e49a746	0.19692716
92	0xbe2f41ab	-0.17114894
93	0x3e061c08	0.1309663
94	0x3e4e6249	0.2015468
95	0x3c134104	0.008987669
96	0xbdaefc64	-0.085442334
97	0x3c7257fc	0.014791485
98	0xbc823dd8	-0.01589863
99	0xbdacbccd	-0.084344484
100	0xbd94941d	-0.07254813
101	0x3e105e5c	0.14098495
102	0x3e5a5189	0.21320166
103	0xbe41cead	-0.18926497
104	0x3deac551	0.11463416
105	0xbd8a927e	-0.067662224
106	0x3e6f5ed6	0.23376021
107	0x3dc83d76	0.09777348
108	0xbd3030c3	-0.043015253
109	0xbd68ebee	-0.056865625
110	0x3d9b241b	0.07575246
111	0x3d909cae	0.07061134
112	0x3de33723	0.11094501
113	0x3e24ca46	0.16092786
114	0xbde52676	-0.111889765
115	0x3e3831df	0.17987774
116	0xbe898471	-0.26858857
117	0x3e74b950	0.23898816
118	0xbd93fd13	-0.072260045
119	0x3e57ba72	0.21067217
120	0x3d84ac34	0.06478158
121	0x3dfaa364	0.122381955
122	0xbd875c77	-0.06609433
123	0x3d36f8eb	0.04467098
124	0xbd40db01	-0.04708386
125	0x3e586676	0.21132836
126	0x3e081bbd	0.13291831
127	0xbe1191fd	-0.14215846
128	0xbe0e7429	-0.13911499
129	0xbde5ad74	-0.11214724
130	0x3e2905fd	0.1650619
131	0xbe4f78ed	-0.20260973
132	0x3e0a7933	0.13522796
133	0x3dbaf345	0.09128431
134	0xbe5260ac	-0.2054469
135	0xbc91c2ac	-0.017793022
136	0x3e13e989	0.14444555
137	0x3e1095a1	0.14119579
138	0x3e157ecc	0.1459915
139	0xbcc3365f	-0.023829637
140	0xbe670005	-0.22558601
141	0xbd801664	-0.06254271
142	0x3ccf75e8	0.025324777
143	0x3dcccd6a	0.10000117
144	0x3d6ed158	0.058305115
145	0xbc8720e0	-0.016495168
146	0x3e2f309d	0.17108388
147	0x3e2600b7	0.1621121
148	0xbb93b5cb	-0.0045077554
149	0xbe1eeb1e	-0.15519378
150	0xbca256f7	-0.019816859
151	0xbdb1efb7	-0.086883
152	0x3e1835eb	0.14864318
153	0x3e5f1dc5	0.217887
154	0xbde0131c	-0.10941145
155	0xbe677048	-0.22601426
156	0xbe096d1d	-0.1342053
157	0xbde4cbfc	-0.111717194
158	0xbe28face	-0.16501924
159	0x3dbd3aa4	0.092397004
160	0x3e37034b	0.1787235
161	0x3e1f4574	0.15553838
162	0x3df0087a	0.11720367
163	0x3dafe5ea	0.085887745
164	0xbe457239	-0.19281854
165	0xbe6e5bfa	-0.23277274
166	0xbe37cb86	-0.17948732
167	0xbe3b1381	-0.18269159
168	0xbd897c3c	-0.06713149
169	0x3de71de6	0.112849995
170	0xbe782114	-0.24231368
171	0x3da0321b	0.07822057
172	0x3d8b515f	0.0680263
173	0x3e71091d	0.23538633
174	0x3c1c1678	0.009526841
175	0x3e056568	0.13026965
176	0x3e579050	0.21051145
177	0x3e66f92b	0.22555988
178	0x3d78bbd5	0.060726006
179	0x3e037a8b	0.12839715
180	0x3e7bd5ab	0.24593227
181	0x3e4cfaba	0.2001752
182	0x3e1f5b29	0.15562119
183	0x3dadc0d8	0.08484048
184	0xbdd201a7	-0.102542214
185	0xbd41809a	-0.047241785
186	0x3e27efbd	0.16400047
187	0xbe8790c7	-0.26477644
188	0xbe28f890	-0.16501069
189	0x3dadf1a6	0.084933564
190	0x3e5f942f	0.21833871
191	0x3cc081e5	0.023499439
192	0x3dda2ef7	0.10653489
193	0x3e46faef	0.19431661
194	0x3af90ca2	0.0019000957
195	0x3d76204a	0.060089387
196	0x3c8dba42	0.017300729
197	0x3d96b09f	0.073579066
198	0x3d5b1855	0.05349
199	0xbe5a6350	-0.21326947
200	0xbd92cc6b	-0.07167896
201	0xbe3a9224	-0.1821981
202	0xbe6fc2c7	-0.23414145
203	0x3da3c5d9	0.07996721
204	0x3d9cda3d	0.07658813
205	0x3dded197	0.1087982
206	0xbdfa0ec6	-0.12209849
207	0xbdb563a7	-0.08856898
208	0x3e360e2c	0.17778844
209	0x3e8240a0	0.2543993
210	0x3e29a4a4	0.16566712
211	0xbddcb390	-0.10776436
212	0x3bd30778	0.0064400993
213	0x3da158d1	0.078782685
214	0x3e5a5918	0.21323049
215	0xbe48a586	-0.19594392
216	0xbe27e322	-0.16395238
217	0xbd94c0eb	-0.07263359
218	0xbe31a29a	-0.17347184
219	0x3e11745f	0.14204548
220	0xbe64beff	-0.22338484
221	0x3d985d24	0.0743964
222	0xbda46b60	-0.08028293
223	0x3dc7ca92	0.09755434
224	0x3cb8b4ae	0.022547092
225	0x3d0f6a61	0.03501356
226	0xbe30aa47	-0.17252456
227	0x3cabd070	0.020973414
228	0xbe0d91ba	-0.13825122
229	0xbd48fe7b	-0.049070816
230	0xbe2c7180	-0.16840172
231	0x3d90bbfc	0.07067105
232	0xbe11cf97	-0.14239345
233	0xbd641a84	-0.05568935
234	0x3e4c2ae1	0.19938232
235	0x3e6c97a8	0.23104727
236	0xbe37116d	-0.17877741
237	0x3e36bf40	0.17846394
238	0xbe213cf2	-0.15745905
239	0x3da36569	0.07978327
240	0x3dc676a5	0.096905984
241	0x3e051fed	0.1300046
242	0xbaf6bf28	-0.001882528
243	0x3e143802	0.1447449
244	0xbdb1e646	-0.08686499
245	0xbe364ffe	-0.17803952
246	0x3c8dc1a9	0.017304258
247	0xbe3c179f	-0.18368386
248	0x3cdfb060	0.027305782
249	0xbc34dfa2	-0.011039646
250	0x3d8a4a03	0.06752398
251	0x3e1ec5bf	0.15505122
252	0xbe48d298	-0.19611585
253	0xbe03c63a	-0.12868586
254	0x3de5bf5d	0.1121814
255	0xbd83bdfa	-0.064327195

hiden_layers.2.bias f4 [64]
0	0xbd1ace9c	-0.037794694
1	0x3baebdb1	0.0053326716
2	0xbcdb3da0	-0.026762784
3	0xbb291d0b	-0.0025804664
4	0xbb8b9fe6	-0.0042610047
5	0x3ba40372	0.0050052935
6	0x3bb96ed1	0.0056589623
7	0xbc9efd71	-0.01940796
8	0x3d090a8d	0.033457328
9	0x3a6f45f7	0.0009127552
10	0x3bdb0298	0.006683659
11	0xbbc24782	-0.0059289346
12	0xbcea7360	-0.028619468
13	0xbc045370	-0.008076534
14	0xbc374914	-0.011186857
15	0xbc5d1121	-0.013492853
16	0xbb34c6ae	-0.0027584243
17	0x3c7ceb4e	0.01543696
18	0xbda4885a	-0.080338195
19	0x3da0e798	0.07856673
20	0xbc30aeb0	-0.010783836
21	0xbd5a0a2e	-0.053232364
22	0x3c9c6594	0.019091405
23	0x3d10ebb2	0.035381027
24	0x3ab20196	0.0013580795
25	0x3cc8add4	0.02449695
26	0xbc488f89	-0.012241253
27	0x3ce84fae	0.028358307
28	0xbcd78de2	-0.026312772
29	0xbc3fa267	-0.011696435
30	0x3c104d7c	0.008807536
31	0x3b1cd9f0	0.0023933612
32	0x3c0b08bd	0.00848597
33	0x3d57f447	0.052723195
34	0xba678674	-0.0008831986
35	0x3c10aff7	0.008831016
36	0xbe535c02	-0.20640567
37	0xbbb9095c	-0.0056468677
38	0xbba1060e	-0.004914052
39	0x3c680278	0.014160745
40	0xbadc6173	-0.001681371
41	0xbd76bd87	-0.06023934
42	0x3ca37b45	0.01995624
43	0xbcb21c44	-0.021741994
44	0x3a7587a9	0.0009366223
45	0x3c9dae80	0.019248247
46	0x3bdaa323	0.0066722794
47	0x3c09c467	0.008408642
48	0x3d59059f	0.052983876
49	0x3c39e21d	0.0113454135
50	0xbc2bcf15	-0.010486384
51	0x3bb1b23d	0.005422859
52	0xbbc905df	-0.006134733
53	0x3cfda1a4	0.030960865
54	0x3d108de0	0.035291553
55	0x3c8ab0ea	0.016930062
56	0x3beedf50	0.0072898045
57	0xbd09c8a0	-0.033638597
58	0xbb93a42e	-0.0045056557
59	0xbadb8185	-0.0016746974
60	0xbbdb3d1a	-0.0066906335
61	0xbd3bef15	-0.045882303
62	0x3b19bbdd	0.0023457923
63	0x3d0a95a6	0.033834122

hiden_layers.3.weight f4 [64, 64]
0	0x3ebcf19d	0.36903086
1	0x3d90f4f3	0.0707797
2	0x3ddda711	0.10822881
3	0xbdffe305	-0.124944724
4	0xbd150923	-0.036385667
5	0x3c45daef	0.012076124
6	0xbd84bb63	-0.06481054
7	0xbd4b6797	-0.049659338
8	0xbe4f3218	-0.20233953
9	0x3de54ddb	0.111964904
10	0x3d9f20b0	0.077699065
11	0x3e0a49b1	0.13504674
12	0x3e543ca9	0.20726265
13	0x3ddfc110	0.109254956
14	0x3db40cbd	0.08791492
15	0xbe16c826	-0.14724788
16	0xbe831b8c	-0.25606954
17	0xbe582a88	-0.21109974
18	0x3cd8abef	0.026449172
19	0xbe47623e	-0.1947107
20	0xbc981e98	-0.018569276
21	0x3d9745f1	0.07386387
22	0x3d7f86b6	0.06238433
23	0xbd339946	-0.043847345
24	0x3e61d63d	0.22054382
25	0x3de2865d	0.11060784
26	0x3eca9692	0.39568
27	0xbe7b418e	-0.24536726
28	0xbda04963	-0.078264974
29	0xbd9a0d00	-0.07522011
30	0xbe36d2c7	-0.17853843
31	0xbc412b71	-0.011790142
32	0x3e145d9f	0.14488839
33	0xbdf6314e	-0.12021123
34	0xbe12de8a	-0.14342704
35	0xbe4553bf	-0.19270228
36	0x3e23587b	0.15951721
37	0x3d2ab647	0.04167774
38	0xbe2cab37	-0.16862188
39	0x3dc4d06e	0.09610067
40	0xbe5f3d4f	-0.21800731
41	0xbb44653f	-0.0029967574
42	0x3dac8313	0.08423438
43	0x3dff6099	0.124695964
44	0xbdced25d	-0.10098717
45	0x3e9a7e30	0.30174398
46	0xbd9e33f5	-0.07724754
47	0x3e6a9655	0.2290891
48	0xbea13ea0	-0.31493092
49	0x3bb0284f	0.005375899
50	0x3d839d6c	0.0642651
51	0xbe46f7d9	-0.19430484
52	0xbe227f20	-0.15868807
53	0xbe5f63a5	-0.21815355
54	0xbe2b4ef3	-0.16729335
55	0x3e222f63	0.15838389
56	0xbe1b481c	-0.15164226
57	0x3eb25214	0.34828246
58	0x3d563a54	0.05230172
59	0xbdc266a3	-0.09492233
60	0x3e68af06	0.22723016
61	0x3e2902c3	0.1650496
62	0xbe350e92	-0.1768134
63	0x3d338fd4	0.043838337
64	0x3db26a38	0.08711666
65	0x38b4bf9e	8.61876e-05
66	0x3cb7e038	0.022445783
67	0xbd2dcac8	-0.042429715
68	0xbdf1c56f	-0.118052356
69	0x3e4e1529	0.2012526
70	0xbe3c1819	-0.18368568
71	0xbd870446	-0.06592612
72	0xbe51d057	-0.20489632
73	0xbe2eed46	-0.170827
74	0xbd1fbbdc	-0.038997516
75	0x3d142360	0.03616655
76	0x3dcf86f5	0.10133163
77	0x3e07aba9	0.13249077
78	0x3d675946	0.056481622
79	0x3e530a47	0.20609389
80	0xbce088b0	-0.027408928
81	0xbd9f35bf	-0.07773923
82	0xbe214f96	-0.15753016
83	0xbe275ee7	-0.16344796
84	0x3e28a19f	0.16467904
85	0xbe8656be	-0.26238054
86	0x3caa6fd3	0.020805275
87	0xbe327fa0	-0.17431498
88	0x3e0302ae	0.12793991
89	0xbe0321ca	-0.12805858
90	0xbd2835ce	-0.041066937
91	0xbdd90f8a	-0.10598667
92	0x3cc1b9ff	0.02364826
93	0x3e1ff1b5	0.15619548
94	0xbc145c24	-0.009055171
95	0x3e36d8e5	0.17856176
96	0x3e0629e2	0.13101915
97	0x3e2d8e7a	0.16948882
98	0x3b83efe6	0.004026401
99	0x3e21bfff	0.15795897
100	0xbd889043	-0.06668141
101	0x3e502555	0.20326741
102	0x3da9b056	0.082855865
103	0x3d167ea9	0.036741886
104	0xbd8af93c	-0.06785819
105	0xbe66a801	-0.22525026
106	0xbdce1506	-0.10062604
107	0x3e03b9a2	0.12863782
108	0xbb3b0ac5	-0.0028540355
109	0xbde72b82	-0.11287595
110	0x3d5ffba1	0.05468333
111	0x3dc16649	0.094433375
112	0x3e2b50dd	0.16730066
113	0x3d0aa8f6	0.03385254
114	0x3e80f8b9	0.2518976
115	0xbe615b0b	-0.22007386
116	0x3ca2b3f6	0.019861203
117	0x3d87272a	0.06599267
118	0xbe525d23	-0.20543341
119	0xbd8e9faa	-0.06964047
120	0xbe3c6f3f	-0.18401812
121	0x3df691e3	0.120395444
122	0xbde8eb9a	-0.113730624
123	0xbe30aa20	-0.17252398
124	0xbcaf61ba	-0.021408904
125	0x3e61e3a5	0.22059496
126	0xbc96a394	-0.018388547
127	0xbe257c2f	-0.16160654
128	0xbd15ab04	-0.036540046
129	0xbd76a91c	-0.06021987
130	0x3e145bb4	0.14488107
131	0x3e4b6af2	0.19865015
132	0xbe2528a0	-0.16128778
133	0x3b0d83db	0.0021593485
134	0xbdfc1537	-0.12308734
135	0x3e54d287	0.20783435
136	0x3e2bc7c7	0.16775428
137	0xbd636a9b	-0.05552159
138	0xbe5a8012	-0.21337917
139	0xbdbb47bd	-0.09144542
140	0xbe1dc9ec	-0.15409058
141	0x3d85cb84	0.06532958
142	0x3e1720f0	0.14758658
143	0x3cdccd19	0.026953267
144	0x3e234720	0.15945101
145	0xbdfd4c5d	-0.12368081
146	0xbe128d51	-0.1431172
147	0x3d73d343	0.059527647
148	0xbca28bd6	-0.01984207
149	0x3d6ca3da	0.05777345
150	0x3e7ad375	0.24494727
151	0xbe82c7b7	-0.25542995
152	0xbde78c06	-0.11306004
153	0x3e42a8b1	0.19009663
154	0x3d972793	0.07380595
155	0x3d3b1664	0.04567565
156	0xbd196b35	-0.037455756
157	0x3dcd9e1a	0.10039921
158	0xbe41eb23	-0.18937354
159	0xbcf4ff5e	-0.029906925
160	0x3e1fd62b	0.15609042
161	0xbe1abc0c	-0.15110797
162	0x3c548484	0.012971047
163	0xbe1341f5	-0.1438063
164	0x3d3ce3de	0.04611575
165	0xbda3552b	-0.07975229
166	0xbd829fd4	-0.06378141
167	0xbe903b89	-0.28170422
168	0x3daf69d1	0.08565105
169	0xbcef47df	-0.029209075
170	0xbdf4ab76	-0.11946766
171	0x3e3493fe	0.1763458
172	0xbe189433	-0.14900284
173	0x3df8ba08	0.12144858
174	0xbdda06c3	-0.10645821
175	0xbe500049	-0.20312609
176	0xbd423a91	-0.047419135
177	0xbd9b7231	-0.0759014
178	0x3df775fa	0.12083049
179	0xbe1867dc	-0.14883369
180	0xbe49676b	-0.19668357
181	0xbe665341	-0.22492696
182	0x3e59ee32	0.2128227
183	0x3bdd5350	0.0067543164
184	0xbdfe43fe	-0.12415312
185	0xbde94ef9	-0.11392016
186	0x3ddd6bf8	0.10811609
187	0x3e72c4c0	0.23707867
188	0x3c53a99f	0.012918859
189	0x3d908b33	0.070578
190	0xbe102b19	-0.1407894
191	0xbd81ffff	-0.063476555
192	0x3e06564e	0.1311886
193	0x3defc000	0.11706543
194	0x3d975bb6	0.07390539
195	0xbe7689e7	-0.24076043
196	0xbd753dbd	-0.05987333
197	0x3e0fd67e	0.14046666
198	0x3db97fb3	0.0905756
199	0x3c7911a8	0.0152019635
200	0xbd75f8c4	-0.060051695
201	0xbe194e19	-0.14971198
202	0xbd89709c	-0.06710932
203	0xbd844735	-0.06458894
204	0xbdc7c702	-0.097547546
205	0xbe2aa822	-0.166657
206	0xbb85ccb3	-0.00408324
207	0xbe192aaa	-0.14957681
208	0x3d4801c4	0.04882981
209	0xbd81b6f3	-0.06333723
210	0xbd73a5c2	-0.05948425
211	0x3da97730	0.08274686
212	0x3d30d451	0.04317123
213	0xbcee011d	-0.029053265
214	0xbd0bc5e7	-0.03412428
215	0x3d63354a	0.055470742
216	0x3e3ba22e	0.18323585
217	0x3d15b709	0.03655151
218	0xbde578ba	-0.112046674
219	0xbe8558ec	-0.26044405
220	0x3d7bf7e6	0.06151571
221	0x3e69d70a	0.22835937
222	0x3e338ca1	0.17534114
223	0x3e425243	0.18976693
224	0x3d44add4	0.048017338
225	0x3e102787	0.14077578
226	0xbd2a1bce	-0.041530423
227	0xbe64d616	-0.22347292
228	0x3e386106	0.18005762
229	0xbe04e0ba	-0.12976351
230	0xbb8b3677	-0.004248436
231	0xbe598e09	-0.21245588
232	0x3e039147	0.12848388
233	0x3d627455	0.055286724
234	0x3e2748a6	0.16336307
235	0x3e223973	0.15842228
236	0xbe0da179	-0.13831128
237	0x3c0e6cad	0.0086929025
238	0xbc827d3f	-0.015928863
239	0xbc7ecc89	-0.015551695
240	0x3cfcef86	0.030875932
241	0xbe63ea3e	-0.22257325
242	0xbddbfbfd	-0.10741422
243	0xbe063edf	-0.13109921
244	0xbabb0ad4	-0.0014270195
245	0x3ce5de18	0.028060004
246	0xbe50cbe2	-0.20390275
247	0xbd858b87	-0.06520753
248	0xbe86cb3e	-0.26326936
249	0x3e5b958a	0.21443763
250	0x3d6826aa	0.056677498
251	0x3e0090b8	0.12555206
252	0xbda0cc03	-0.07851412
253	0xbe0d9633	-0.13826828
254	0xbe77398f	-0.2414305
255	0x3ce0eed8	0.02745764

hiden_layers.3.bias f4 [64]
0	0xbcd2d17b	-0.025734654
1	0x3ba543ca	0.0050434815
2	0xbd494882	-0.049141414
3	0x3c1f5ca1	0.009726674
4	0x3c2b2bf9	0.010447496
5	0xbc8a3c22	-0.016874377
6	0x3c53e753	0.01293357
7	0xbdb3a3fc	-0.08771512
8	0xbb565bf6	-0.0032708622
9	0xbbb7823c	-0.005600242
10	0x3c8453b1	0.016153188
11	0x3d1d6186	0.038423084
12	0x3a8efd7b	0.0010909283
13	0xbc25f378	-0.010128848
14	0xbc5f560b	-0.013631354
15	0x3bd64cf3	0.006539935
16	0x3bdcc856	0.006737749
17	0xbd7c2c75	-0.061565835
18	0x3c8f079f	0.017459689
19	0x3b4f76e8	0.0031656567
20	0x3c280d6a	0.010257104
21	0x3bfdd674	0.007746512
22	0xbd4789e1	-0.048715476
23	0x3d467838	0.048454493
24	0x3cb3d637	0.021952732
25	0xbbb0eb19	-0.0053991196
26	0xbd775cd4	-0.060391262
27	0xbc17351c	-0.009228971
28	0x3c18f7e3	0.009336445
29	0xbb669a67	-0.0035187246
30	0xbca7227d	-0.020402187
31	0x3c2a7cbe	0.010405717
32	0x3c7cc112	0.015426891
33	0xbdb78fce	-0.089629754
34	0xbc14c9ba	-0.0090812985
35	0xbd184b8d	-0.037181426
36	0xbc0289f9	-0.007967466
37	0xbd05b176	-0.032639943
38	0xbbd6771b	-0.00654496
39	0xbcbaca68	-0.022801593
40	0xbb58ca4d	-0.0033079565
41	0x3d616aef	0.05503362
42	0xbc9bd916	-0.019024413
43	0x3aa7c2a0	0.0012799092
44	0xbd439ea4	-0.047758713
45	0x3bd8a533	0.00661149
46	0xbd22d913	-0.0397578
47	0xbce0d8bd	-0.027447099
48	0x3ca47839	0.020076858
49	0xbc263c58	-0.010146223
50	0x39ec604b	0.00045085172
51	0xba445df3	-0.0007490806
52	0xbcc703dc	-0.024293832
53	0x3c098209	0.008392819
54	0xbd3173a4	-0.043323174
55	0x3c8b48e2	0.017002527
56	0x3baa7c14	0.0052027795
57	0x3b99cc3f	0.0046935375
58	0xbc678960	-0.014131874
59	0x3ce6e34b	0.028184554
60	0x3cda4e2f	0.026648609
61	0xbcf72d19	-0.030172871
62	0xbd8a5ae4	-0.06755617
63	0xbd08543f	-0.03328347

hiden_layers.4.weight f4 [64, 64]
0	0xbcaf421f	-0.021393834
1	0xbe392ec1	-0.18084241
2	0x3e0031d4	0.12519008
3	0xbe3f5db3	-0.18688087
4	0x3e2af115	0.16693528
5	0x3e569932	0.20956877
6	0xbe0ec5a7	-0.13942586
7	0xbe05cbb6	-0.13065991
8	0xbe81f26f	-0.25380275
9	0x3d233464	0.039844885
10	0xbd900ffe	-0.070343
11	0x3e3fba41	0.18723394
12	0xbd5c841f	-0.053836938
13	0xbe936349	-0.28786686
14	0x3d03fa90	0.032221377
15	0xbe31fccd	-0.17381592
16	0x3d3dba3e	0.046320193
17	0xbe0c697c	-0.13712114
18	0x3d85def2	0.06536664
19	0x3e2fe362	0.17176583
20	0x3c64b6ae	0.01395957
21	0x3c1e9833	0.009679842
22	0xbdec6aaf	-0.11543786
23	0xbdbb10ea	-0.091340855
24	0xbd696add	-0.05698668
25	0xbe096c00	-0.13420105
26	0xbce0d0d1	-0.027443321
27	0xbe1444c3	-0.14479356
28	0xbea7f61c	-0.32804954
29	0x3df27260	0.118382215
30	0x3e57b4e8	0.21065104
31	0x3db88b1f	0.0901091
32	0x3e54193f	0.20712756
33	0x3d4892b8	0.048968047
34	0xbeb56f12	-0.35436302
35	0xbe61378b	-0.21993844
36	0x3dbbb3e8	0.09165174
37	0x3c33606a	0.01094828
38	0x3dcaf708	0.09910399
39	0x3e1a9d81	0.15099145
40	0xbd0e82c7	-0.034792688
41	0x3e405464	0.18782192
42	0x3e44fba2	0.19236615
43	0xbd96f53d	-0.07370994
44	0x3e4a0dd3	0.19731836
45	0x3d164346	0.03668525
46	0xbe344d50	-0.17607617
47	0x3e0fe6e6	0.14052925
48	0xbde41ac6	-0.11137919
49	0x3da49b37	0.080374174
50	0x3d92fe49	0.07177407
51	0x3e9b6b29	0.30355194
52	0x3d6fbcda	0.058529712
53	0x3e4d9114	0.20074874
54	0xbe5c5419	-0.21516456
55	0x3ea835d0	0.32853556
56	0xbe8e5d01	-0.2780533
57	0xbda0acaf	-0.07845437
58	0x3d1a7e54	0.037718132
59	0x3d851622	0.06498362
60	0xbd8e4d5a	-0.069483474
61	0x3ca2deb6	0.019881587
62	0xbdd9be3b	-0.10631987
63	0xbd5fc4c0	-0.054630995
64	0x3c86a089	0.016433971
65	0xbde13587	-0.10996538
66	0xbe29d7a6	-0.1658617
67	0x3dda31d5	0.10654036
68	0x3ba6e7ff	0.005093574
69	0xbbfe5fd3	-0.007762888
70	0x3e0b7de6	0.13622245
71	0x3e0b0e94	0.1357978
72	0x3db66cd8	0.08907479
73	0x3e0395f0	0.12850165
74	0x3d259490	0.040424883
75	0xbde04ad6	-0.10951774
76	0xbdc33b48	-0.095327914
77	0x3e69d1b7	0.22833906
78	0x3dd8c2a9	0.105840035
79	0xbdee0738	-0.116224706
80	0x3dde5c1a	0.10857411
81	0xbe6ffcc4	-0.23436266
82	0xbd9a846f	-0.07544791
83	0x3e341091	0.17584445
84	0x3cc0e3f1	0.023546191
85	0x3e5f0d67	0.21782456
86	0xbe71763d	-0.2358026
87	0xbe0141d5	-0.12622769
88	0x3dd4e8e0	0.1039598
89	0x3cafca48	0.02145876
90	0x3d8fb947	0.07017761
91	0xbe9829eb	-0.2971948
92	0x3da6c841	0.08143664
93	0x3e2cd162	0.16876748
94	0x3d21aa63	0.039469134
95	0xbe091b6b	-0.13389365
96	0x3dc7ecc3	0.097619556
97	0x3dca0fbf	0.098662846
98	0x3d8b37f0	0.067977786
99	0x3dcb1da5	0.099177636
100	0xbc10b32a	-0.008831779
101	0x3d914738	0.07093662
102	0xbe42e560	-0.19032812
103	0xbdc9fa27	-0.09862166
104	0xbe1afdba	-0.15135852
105	0xbe4c2dd5	-0.19939359
106	0x3dee7ca9	0.11644871
107	0xbd9ca7ba	-0.07649179
108	0xbe911240	-0.28334236
109	0x3e2001f7	0.1562575
110	0xbe691185	-0.2276059
111	0x3e030e56	0.12798437
112	0x3e0a1b94	0.13487083
113	0x3e512797	0.20425259
114	0x3d518947	0.05115631
115	0x3e34ed9f	0.1766877
116	0xbdc1a94a	-0.094561175
117	0x3cd4e0b2	0.02598605
118	0xbda7cb7b	-0.08193108
119	0xbe164004	-0.14672858
120	0x3e8e0420	0.27737522
121	0x3e16a5ce	0.14711687
122	0xbd7109de	-0.0588473
123	0x3c9cdc78	0.019148096
124	0xbe3c8b20	-0.18412447
125	0xbe673f8a	-0.22582832
126	0xbcb2776b	-0.021785459
127	0xbe162de3	-0.14665942
128	0xbdbc0864	-0.09181288
129	0x3e6a67c4	0.22891146
130	0x3b290d6d	0.0025795356
131	0x3e6884d8	0.22706926
132	0xbd9705ff	-0.073741905
133	0xbd801ffd	-0.06256101
134	0xbdb4e5f4	-0.088329226
135	0xbd4e0e6a	-0.050306715
136	0x3dd73ac4	0.105092555
137	0x3e85f36a	0.26162273
138	0xbcf9f3a3	-0.030511683
139	0xbd631153	-0.055436444
140	0xbe525b52	-0.20542648
141	0x3db2aaad	0.0872396
142	0x3e50b962	0.20383218
143	0x3c9f5fe0	0.019454896
144	0xbd2ac725	-0.041693825
145	0xbdb367bc	-0.0876002
146	0x3dfab36a	0.12241252
147	0xbe700ffc	-0.23443598
148	0x3e52e70e	0.20595953
149	0xbda5f184	-0.08102706
150	0xbe0fd0f2	-0.1404455
151	0x3d02abde	0.031902187
152	0x3a70cb9c	0.00091856136
153	0xbd7a30f7	-0.061081853
154	0x3dfc052b	0.12305673
155	0x3e4d8084	0.20068556
156	0x3df88b52	0.12135948
157	0xbe3cc8fc	-0.18436044
158	0xbe09a125	-0.13440378
159	0xbe1c9b86	-0.15293702
160	0xbe12f566	-0.14351425
161	0xbe0fbd8d	-0.14037152
162	0xbd69f069	-0.05711404
163	0xbd273dc5	-0.040830392
164	0x3dbfef2f	0.093717925
165	0xbe1f8ca6	-0.15580997
166	0xbe23e090	-0.16003633
167	0x3e3110f2	0.1729162
168	0xbd0f0450	-0.034916222
169	0x3e23970a	0.15975586
170	0x3d0a5ea6	0.03378167
171	0x3e816ec7	0.2527983
172	0xbd341ac5	-0.043970842
173	0xbe4e4d0d	-0.2014658
174	0xbcfcaab0	-0.030843109
175	0xbd9e8403	-0.07740023
176	0x3e86654c	0.26249158
177	0x3d3153d8	0.04329285
178	0xbe12db90	-0.14341569
179	0xbe555ac2	-0.20835403
180	0xbd4b8bab	-0.049693745
181	0x3e4b70f3	0.19867305
182	0x3db6d60e	0.089275464
183	0xbdefd706	-0.11710934
184	0x3e93dbf0	0.28878736
185	0x3e192d82	0.14958766
186	0xbcffdaec	-0.03123232
187	0x3db6d715	0.089277424
188	0xbcef8bb0	-0.029241413
189	0x3d66d78b	0.0563579
190	0xbe60f4bd	-0.2196836
191	0x3ce71000	0.028205872
192	0xbde52707	-0.111890845
193	0xbc0d381f	-0.008619337
194	0xbe29182d	-0.16513129
195	0xbdb33938	-0.08751148
196	0x3dd88bae	0.10573517
197	0xbdb503c6	-0.0883861
198	0xbd542464	-0.051792517
199	0xbd1381a9	-0.036012325
200	0x3e007629	0.12545075
201	0xbdd76a3e	-0.10518311
202	0x3d5f8e60	0.05457914
203	0xbdc8086e	-0.09767233
204	0x3e2edc14	0.1707614
205	0x3c64786c	0.013944726
206	0xbe1713a1	-0.14753582
207	0xbc235ec7	-0.009971327
208	0x3e0f9663	0.14022212
209	0xbd6cc8ce	-0.05780869
210	0xbe26df5c	-0.16296142
211	0xbca4f76b	-0.02013751
212	0x3d6fbdf2	0.058530755
213	0xbe471151	-0.194402
214	0xbb34e677	-0.0027603188
215	0x3db9ba7e	0.09068774
216	0xbdb83fa6	-0.08996515
217	0xbe4e2d2d	-0.2013442
218	0xbddf185f	-0.1089332
219	0x3d452577	0.048131432
220	0xbd8d77ec	-0.06907639
221	0xbdb0ecb4	-0.086388975
222	0x3d38b121	0.0450908
223	0x3d3ce14f	0.04611331
224	0xbe155007	-0.1458131
225	0xbcf63beb	-0.030057868
226	0xbe9c05fe	-0.30473322
227	0x3d6e34f9	0.058155987
228	0x3d88273b	0.066481076
229	0xbe65e81e	-0.22451827
230	0xbc862b02	-0.01637793
231	0xbe6b1f3d	-0.22961135
232	0xbd28ea16	-0.041238867
233	0xbcefba54	-0.029263653
234	0x3d271270	0.040789068
235	0x3da1057d	0.07862375
236	0x3e9f7880	0.31146622
237	0xbdf0c97a	-0.117571786
238	0x3dcd5e96	0.100278065
239	0xbde61519	-0.11234493
240	0x3d52e1c4	0.051484838
241	0xbe3c054d	-0.18361397
242	0x3d83b08a	0.064301565
243	0x3e829b13	0.25508937
244	0x3e00046f	0.12501691
245	0x3d86366f	0.06553351
246	0x3d07f2a4	0.033190385
247	0x3e3b73f1	0.18305947
248	0x3e16ade5	0.14714773
249	0x3e194c60	0.14970541
250	0xbd7eea02	-0.062234886
251	0xbd470468	-0.048588187
252	0xbca17522	-0.019709174
253	0x3e6ae509	0.22938932
254	0x3ded457d	0.115855195
255	0xbc2d803b	-0.010589655
