results/13_less_points_around/epoch690/model_weights.pth (torch, 486655 bytes, 88 tensors)

init_layer.0.weight f4 [64, 5]
000000 6e 69 02 be a9 e8 45 3e 54 5f cf 3e 9d d9 82 be
       -0.1273553 0.19327034 0.40502417 -0.2555665
000010 d1 4a 4d be 30 10 b6 3e 6e 6e 8f 3e a8 9a b1 3e
       -0.20048071 0.35559225 0.2801394 0.34688306
000020 48 21 89 bd d0 86 71 be 59 43 79 be cd 65 3b 3d
       -0.06695801 -0.23586583 -0.24342097 0.04575138
000030 13 8b 9f be f7 da 8e be 21 01 35 be 21 9c 07 be
       -0.31160793 -0.27901432 -0.17676212 -0.13243152
000040 d5 e2 3c be 5e e4 45 3e 15 65 96 3e 25 df d2 bd
       -0.18445905 0.19325396 0.29373994 -0.10296468
000050 06 0b be be ea ce fd bd c8 ea 44 bc a4 0a 22 3e
       -0.37117785 -0.12392981 -0.012018867 0.15824372
000060 60 58 5b 3e 0b 71 47 3e 73 0e 1b 3e 74 1b b8 3e
       0.21420431 0.19476716 0.1514223 0.35958445
000070 ed 77 37 3e 2f 2c 59 be ab a9 f0 3e 3d b9 86 be
       0.17916842 -0.21208261 0.47004446 -0.263132
000080 1f 0a 89 bd 3e 07 07 be 8f d5 8f be 11 03 14 be
       -0.066913836 -0.13186356 -0.2809262 -0.14454295
000090 6d dc 36 3e 8c 7b 00 3e 01 e4 23 be 6a d7 82 3e
       0.17857523 0.1254713 -0.16004945 0.25554973
0000a0 38 0d 19 be d5 21 f4 bd ce 25 53 3e 0b cb 5d 3e
       -0.14946449 -0.119205154 0.2061989 0.21659486
0000b0 05 26 fc bd c7 19 48 be e5 20 3c be 39 40 08 be
       -0.12311939 -0.19541083 -0.18371923 -0.13305749
0000c0 24 ed f2 3c 98 03 86 be 3a 9e 57 bd 5c b4 ca 3c
       0.029654093 -0.26174617 -0.05264113 0.024744205
0000d0 93 1d 1c 3e 35 95 6b 3c 5d 45 8e 3d 30 b6 10 be
       0.15245657 0.014378835 0.06946824 -0.14131999
0000e0 80 c2 23 be f3 fe 65 3e 8b 75 9c 3c 9a 68 0a bd
       -0.15992165 0.22460537 0.019099018 -0.033791162
0000f0 d9 39 57 be 32 62 99 be cf 8e 30 3d 34 4d c2 3d
       -0.21018161 -0.2995773 0.043104943 0.094873816
000100 ba 0c 82 3e 2a c7 f8 bd 16 63 36 be 63 59 02 3c
       0.25400335 -0.121473625 -0.17811236 0.007955882
000110 8f a7 61 3d 26 7e 64 3e b3 52 d4 3d 84 cb 20 be
       0.055091437 0.22313747 0.10367336 -0.15702635
000120 b5 5a 0a be 0c 96 99 bc cc a2 8f be 98 28 ff bc
       -0.13511164 -0.018748306 -0.28053892 -0.031147286
000130 e9 52 14 3e be d3 8e 3e c4 93 ef 3d 87 d8 60 be
       0.14484753 0.2789592 0.11698106 -0.21957599
000140 2e 2e 4e be 50 ed 2d 3d cb 72 78 bd fd b0 17 3c
       -0.20134804 0.042462647 -0.06065635 0.009258506
000150 bc b5 98 3d 11 a0 6c 3e f1 eb f2 3d c9 36 cf bd
       0.07456538 0.23107935 0.118614085 -0.10117871
000160 7f 86 2a 3e e0 c4 1f be 66 93 d1 3c bc cc fe bb
       0.16652869 -0.15602446 0.02558298 -0.007775871
000170 5d 6f 87 be 68 ac 65 3e 6b e9 19 3e ef 3c 23 3e
       -0.2645215 0.22429049 0.15030448 0.15941213
000180 fe 85 05 be a0 c1 9f 3d 37 9c 55 3e d8 29 a0 3d
       -0.13039395 0.07800603 0.20860372 0.07820481
000190 4f 89 07 be 16 25 9b be 88 31 9c 3c 85 f6 be 3d
       -0.13235973 -0.30301732 0.019066587 0.093243636
0001a0 8c f7 4e be 6a 4c d7 bd 96 95 8c 3e 2c 38 9d 3d
       -0.20211619 -0.10512622 0.27457875 0.076767296
0001b0 83 88 ec bd 8d 32 6b be 50 0c 9c 3a 48 b9 6e 3e
       -0.11549475 -0.22968502 0.0011905525 0.23312867
0001c0 6b 7f 97 3c 52 41 8a be 85 61 0b 3e 22 87 fc bd
       0.018493375 -0.2700296 0.1361142 -0.12330462
0001d0 b5 79 df 3d 86 14 09 3e 50 00 d4 3d 3e bc 75 be
       0.10911886 0.13386735 0.10351622 -0.2399759
0001e0 ed 94 12 3e 2b 24 82 bd 23 dd a3 3d f7 09 f1 3d
       0.14314623 -0.06354555 0.08001163 0.11769479
0001f0 62 08 47 3e ae 2f 7e 3e d6 83 50 3e 82 31 80 3d
       0.19436792 0.24822876 0.20362791 0.06259443
000200 6d 7f 52 3e af 7d 9a 3d 3a 08 13 be 5f eb 88 3e
       0.20556422 0.075435035 -0.14358607 0.26742074
000210 36 6e 20 bd b4 73 a1 bc e2 42 00 3d 2e 61 49 3e
       -0.039167605 -0.019708492 0.031313784 0.19665977
000220 ee c3 0c 3e c0 29 4e be 99 24 f6 3d d0 ce 1f 3d
       0.13746616 -0.20133114 0.12018699 0.03901559
000230 07 35 f2 bd 76 df 35 3e a1 4e 86 be 63 64 92 3d
       -0.118265204 0.17761025 -0.26231864 0.071480535
000240 04 7a 34 3e d3 94 ab 3c 52 3e 62 be ba fa bd 3b
       0.1762467 0.020944988 -0.22094086 0.005797711
000250 78 49 34 bd 9e 71 9c 3d 6f be 6b be e2 3f d5 bd
       -0.044015378 0.07638858 -0.23021863 -0.10412575
000260 db d2 81 3d 91 52 0c 3e 60 88 82 be 4b e9 5e be
       0.063390456 0.13703372 -0.2549467 -0.21768682
000270 9e 86 9c 3e 34 5e 03 3e 19 c2 6d be 28 36 02 bd
       0.30571455 0.12828904 -0.23218574 -0.03178993
000280 be 3d be 3e e0 66 8d bd 60 3b 91 3e 58 c5 d5 3d
       0.3715648 -0.069043875 0.28365612 0.10438031
000290 3b aa 9e 3b 3c a8 3b 3b 3f e0 88 be 00 fa 00 be
       0.0048420704 0.002863421 -0.26733586 -0.12595367
0002a0 80 f4 2d 3d 7b d2 a3 bc d9 09 04 3e 90 e6 3a be
       0.0424695 -0.019997826 0.12894382 -0.18252015
0002b0 3d ce 75 bd d9 c4 39 3d 92 46 cb bd 67 bd 3f 3e
       -0.060011137 0.045353744 -0.099255696 0.18724595
0002c0 c1 79 b3 3d 4d 4d f7 3d 84 e9 8d be 96 e7 ec 3d
       0.08763457 0.12075291 -0.2771722 0.11567609
0002d0 3d 77 4f be 53 af 6e 3d fd bf ba 3d a6 f4 5d 3e
       -0.2026033 0.05827267 0.0911865 0.21675357
0002e0 35 b6 78 3e 94 24 0a be b2 3a 26 be 74 55 da bd
       0.24288256 -0.13490516 -0.16233328 -0.1066083
0002f0 8f 82 37 be 8c 55 4b be 72 14 60 be 97 3e ac bd
       -0.17920898 -0.19856852 -0.218828 -0.084103756
000300 be 0e 34 be b1 10 f4 bc 65 a3 80 3d 9b f4 4d be
       -0.17583749 -0.029793115 0.06281165 -0.20112841
000310 a2 ec 98 3e 15 fc fb 3c 84 05 1f be d9 4c b5 3d
       0.29868037 0.03075985 -0.15529448 0.08852548
000320 64 e3 67 3b b5 ac de bd 5b 01 85 3e 2a 0c 42 3e
       0.0035383338 -0.10872785 0.25977597 0.18949953
000330 24 17 61 3d 4f 2f 33 3e f5 d5 bd 3d 18 62 1f be
       0.05495371 0.17498516 0.09269325 -0.15564764
000340 aa 22 9c 3d 7b ec 1d 3e 5d 80 73 3e 89 f7 ee bc
       0.07623799 0.15422241 0.23779435 -0.029170768
000350 3f 94 23 be d8 cb 73 3e dd 72 87 be eb 40 12 be
       -0.1597452 0.23808229 -0.2645482 -0.14282577
000360 58 5d b9 3d 3b 66 48 3e 89 8b 66 3e 54 7a 15 3e
       0.09051007 0.19570248 0.22514166 0.14597446
000370 48 c0 e6 bc 15 ac bf bc e4 8e 81 be 02 f8 d4 3c
       -0.028167859 -0.023397485 -0.2530433 0.025997166
000380 3b 6a 31 be a8 44 72 3e df 0a 48 be 53 7f 89 3e
       -0.1732568 0.23659003 -0.19535397 0.26854953
000390 7a 97 86 be 9d ab 60 be ee 5a ac 3e ac 4d a7 be
       -0.26287442 -0.21940465 0.33663124 -0.32676446
0003a0 e2 ca 66 be 11 d7 3e 3e 46 6a f5 3d b9 88 78 be
       -0.22538331 0.18636729 0.11983161 -0.24270906
0003b0 b5 ab 27 bd 37 68 ce 3c 39 0a cf 3d 53 8a 80 3e
       -0.040935237 0.025196178 0.10109372 0.25105533
0003c0 cf 4d 1c 3e 36 7f 7f 3d 7a e5 2b be 2b a0 2f 3e
       0.15264057 0.062377177 -0.16786757 0.17150943
0003d0 c0 15 92 be 27 22 e5 3d 90 6d a2 ba b2 55 95 be
       -0.2853222 0.11188155 -0.0012392271 -0.29166943
0003e0 e9 07 8f be 8c 19 49 3e 21 e3 1d be 36 56 b5 3e
       -0.27935722 0.19638652 -0.15418674 0.35417336
0003f0 ab 61 20 be de 75 7b 3e af 95 b3 bd 3c 27 d2 be
       -0.15662257 0.24556682 -0.08768784 -0.41045558

init_layer.0.bias f4 [64]
000000 c2 ac 42 3b 5d 77 ea 3d 09 6a e0 bd 34 f2 c1 bd
       0.0029705022 0.11448548 -0.109577246 -0.09470025
000010 7b 25 e5 bd 8b 2d 48 3b ad 55 48 3a 63 b7 f8 3d
       -0.111887895 0.0030544724 0.0007642161 0.12144353
000020 2b b0 b7 bd c9 89 a9 bd b3 26 8a 3d 65 0d 7e 3e
       -0.08969148 -0.082782336 0.067456625 0.24809797
000030 c5 c9 cc 3d 13 cf a7 bd 7f 3f 91 3c ea b3 f9 bd
       0.09999422 -0.08193793 0.017730473 -0.12192519
000040 55 90 de bd 53 f4 8f 3c 24 05 28 be 23 8e d4 3d
       -0.10867373 0.017572558 -0.16408211 0.10378673
000050 e6 44 c3 bb 3e 34 a0 bd 6e 40 04 3e 43 c6 6f 3d
       -0.005959141 -0.078224644 0.12915203 0.058538686
000060 ea f4 73 3d f6 10 99 3d af dd 45 3e 2d 22 24 3e
       0.05955974 0.07473938 0.19322847 0.16028662
000070 6d 22 45 bd 8f 34 fe 3d 55 39 e3 3c d7 e1 3a bb
       -0.048128534 0.124123685 0.027737299 -0.0028515959
000080 14 c8 64 3e a6 8d 0e be 28 de 33 be d2 07 60 bd
       0.22341949 -0.13921222 -0.17565215 -0.054694958
000090 45 a0 2d bd 8a 86 02 3c 2a 8e 2d 3e 6c ab 0d 3e
       -0.042389173 0.007966647 0.16948763 0.13834924
0000a0 71 f3 28 be 84 01 6c 3d d3 05 27 3e ec 27 04 be
       -0.16499116 0.057618633 0.16310816 -0.12905854
0000b0 24 1e 7b 3d b5 ae cc 3d 95 da 8f 3b 90 84 42 3e
       0.06130804 0.0999426 0.0043900707 0.18995881
0000c0 ca 55 c8 3d 25 41 32 3e f0 7c 10 be 05 b1 31 3e
       0.09781988 0.17407663 -0.1411016 0.17352684
0000d0 df 41 23 3e 1b 9c 39 3e 43 2c ca 3d 6e dd dc bb
       0.15943097 0.18125956 0.098717235 -0.0067402637
0000e0 9f c9 b2 bd cf fb 6a 3d 78 8f a3 bd 2d a9 a4 bd
       -0.087298624 0.05736905 -0.07986349 -0.0804008
0000f0 84 c3 11 3d 2f 2d 9a bd b7 09 28 be 66 12 4b 3c
       0.03558685 -0.07528149 -0.16409956 0.012394523

hiden_layers.0.weight f4 [64, 64]
000000 2b 62 fa 3d 03 7e 00 3e 22 68 46 3e 9a 7d d0 3d
       0.12225755 0.1254807 0.19375661 0.101802066
000010 b8 9b 34 be 37 d4 64 bd ea 4b 69 be 2d b6 2f 3d
       -0.17637527 -0.055866446 -0.22782865 0.042898346
000020 4e de c4 3d 9c c9 0e 3e e6 ed da 3c 3c f1 03 bd
       0.09612714 0.13944095 0.026724767 -0.03221248
000030 81 df d5 bd c0 a0 06 3e 1b 7d 28 be b4 73 8a bc
       -0.104430206 0.13147259 -0.16453974 -0.016900875
000040 2b 1a a7 3d cd a7 47 be a9 16 fa bd 32 42 d0 3d
       0.08159288 -0.19497605 -0.12211353 0.10168876
000050 ea d5 3b 3e 99 cc f0 bd a4 c0 62 3e 12 26 11 be
       0.1834332 -0.11757774 0.22143799 -0.14174679
000060 6e ce e0 bd 55 1e 79 bd 90 45 f6 ba 8c ef 55 be
       -0.10976873 -0.060819943 -0.0018789042 -0.20892161
000070 ef 99 46 3e ee 8c 28 be e8 9e 31 be 0b 0a 5d bc
       0.19394659 -0.1646001 -0.17345774 -0.013491164
000080 de ec 3c be b4 86 1e bd 36 3e 4d 3d 3d 94 80 3d
       -0.18449733 -0.03870268 0.050108157 0.06278274
000090 89 d7 07 be e1 e7 4a 3e 4d c9 0c 3e e9 9a 70 3d
       -0.13265814 0.19815017 0.13748665 0.058741484
0000a0 2b ff 9e 3d b9 4a 4a be 4f fc 20 3d bd 0f 0d bd
       0.07763513 -0.19755067 0.03930312 -0.034438837
0000b0 59 43 a8 3d a1 78 36 be 58 ef 08 be 9f e5 93 3c
       0.082159705 -0.17819454 -0.13372552 0.018053828
0000c0 c1 f3 12 3e ed 1a 12 3e 89 47 03 be c9 27 c5 3d
       0.14350797 0.14268084 -0.12820257 0.09626729
0000d0 71 b0 f7 3d 6c 87 a9 3d fd 66 60 be 2b e9 0d be
       0.120942004 0.08277783 -0.21914287 -0.13858478
0000e0 9b 75 5b bd 41 b3 ac bd ec f0 38 be 2d 82 15 bc
       -0.053578954 -0.084326275 -0.18060654 -0.009125275
0000f0 6b 3a 51 be a0 19 57 bd 70 9b a5 3d d2 be 29 3e
       -0.20432441 -0.052514672 0.08086288 0.16576698
000100 3f 37 9e bd 86 a0 69 be 9f b8 99 bd 0f 3e c5 3d
       -0.07725381 -0.22815141 -0.07505917 0.09630977
000110 c2 42 bf 3d c5 eb 3e be f1 b9 36 be 72 6d 6e bd
       0.09338905 -0.18644626 -0.17844369 -0.058209844
000120 c7 10 f0 bd e2 d6 1f bd dd bd 36 3d 9e 41 32 be
       -0.1172195 -0.039023288 0.04461466 -0.17407843
000130 85 13 1e be a0 8c 89 bd 61 3b 80 3c c4 e1 15 be
       -0.15437134 -0.06716275 0.015653314 -0.14636904
000140 a1 a1 2e 3e b0 a0 9d 3d 02 c2 0e 3e b6 c6 ed bd
       0.17053844 0.07696664 0.13941196 -0.11610167
000150 67 9b 92 3d 2d 42 9b bc 49 0a 3c be f4 e0 78 be
       0.07158547 -0.018952454 -0.18363298 -0.24304563
000160 50 50 63 3d 48 71 48 be 5a 1a 51 be 4e 88 c8 bd
       0.055496514 -0.19574463 -0.20420209 -0.09791623
000170 e1 fe 2c be 35 bd f3 3d 9a 40 93 3d 4c 2b 32 3e
       -0.16894104 0.11901323 0.07190056 0.17399329
000180 5c a7 39 3e 59 eb bf 3d 94 f4 55 3e ac 32 51 be
       0.18130249 0.09371061 0.2089408 -0.20429486
000190 b5 0e e7 3d 0f 96 8d 3e 09 d8 0b 3e 4d 17 62 be
       0.11282102 0.27653548 0.1365663 -0.22079201
0001a0 f8 6a 28 be 70 93 7e be 08 59 10 bc 63 46 29 3d
       -0.16447055 -0.2486093 -0.008810289 0.04132689
0001b0 f1 e8 dc bd c1 c4 ad 3a 48 3b 81 be 3c 20 61 3d
       -0.107866175 0.001325749 -0.2524054 0.05496238
0001c0 ea 45 53 3c b0 30 2d be 9c 65 e4 3d 9a 7a 30 be
       0.012895087 -0.16913104 0.11152193 -0.17234269
0001d0 64 6e 65 bd d7 3d 33 be 95 f7 dd bd e8 19 43 bc
       -0.05601348 -0.17504059 -0.10838238 -0.011908032
0001e0 0f 4c 07 3e 5f 4c bd bd 1a 5f 9c 3e 93 e9 73 3d
       0.13212608 -0.09243082 0.30541307 0.059548926
0001f0 11 eb 93 bd fb ab 37 be 39 13 6c 3e 3f 72 49 be
       -0.0722257 -0.17936699 0.23054208 -0.19672488
000200 6c 19 e5 3c 2f 1b 58 bd bb 6d 17 be 8a 6a 23 be
       0.027966224 -0.0527603 -0.14787953 -0.1595861
000210 bd ab ec 3d cb 34 af 3d ad 4f 2c be 94 df 53 be
       0.11556194 0.08554991 -0.16827269 -0.20690757
000220 ab ec 23 3e 2e c2 20 3e 61 83 f6 bd 82 f5 ff 3d
       0.1600825 0.15699074 -0.12036777 0.12497999
000230 3f 17 2c bd d9 8f d4 3d 67 ce e5 3d aa 3f 87 3d
       -0.042014357 0.10378999 0.11221009 0.0660394
000240 84 3b d4 bc a7 69 22 3e b9 ad c2 bc 06 75 fc 3c
       -0.025907286 0.15860616 -0.023764478 0.03081752
000250 e5 23 b5 3d c8 fd 37 be a1 6c b8 bd c9 a4 06 be
       0.08844737 -0.17967904 -0.09005094 -0.13148798
000260 78 5f f4 3d d0 aa 51 3d c1 de cf 3d ed 08 81 3d
       0.11932272 0.05118829 0.10149909 0.063005306
000270 fd 1a 73 3a a1 64 2c 3e 5f b6 1a be e3 03 2e be
       0.0009273736 0.16835262 -0.15108632 -0.1699367
000280 33 97 09 3e 4a 06 36 3d 75 fd 7e 3d 0d 63 2a 3d
       0.13436584 0.04443959 0.062253434 0.04159837
000290 33 ab 67 be 59 f3 9d 3d 22 4c 8c bd dc e3 0a 3e
       -0.22623901 0.077124305 -0.06850459 0.13563484
0002a0 9a c0 e1 bd 0d 57 0c 3e 6b 44 49 3d 66 a9 d4 3d
       -0.11023064 0.13705082 0.049137514 0.10383873
0002b0 30 f0 1c 3e a4 6a db bd 4a 5f ac bd ba 58 21 3d
       0.15326 -0.107136995 -0.084166124 0.039391257
0002c0 c9 fd 3f 3e 3f 54 99 3d 62 d4 1d 3e a1 c2 5e be
       0.18749155 0.07486772 0.15413049 -0.21753933
0002d0 16 a8 f6 bd bb bb 2d 3e c8 97 d7 3c c1 5f 12 be
       -0.120437786 0.16966145 0.026317492 -0.1429434
0002e0 5b c7 84 3c 4e 79 81 3d 24 9a 9e bd 4f a8 4d bc
       0.016208341 0.06321965 -0.07744244 -0.012552335
0002f0 bb e7 e8 3d 39 13 8f 3d e8 1a 2d 3d 5d 9f 7a be
       0.11372324 0.06986088 0.042261988 -0.24474855
000300 88 72 66 be 23 c0 b1 3d b5 a1 d7 3d 63 8d 48 be
       -0.22504628 0.08679225 0.1052889 -0.19585185
000310 41 80 3e be 5d b5 2c be 65 9a 46 3e a7 dd 2d 3e
       -0.18603612 -0.1686606 0.19394834 0.16979085
000320 0f dc 69 be 56 05 86 3d 8a 22 1e 3e 9b bb fa 3c
       -0.22837852 0.065439865 0.15442863 0.030607035
000330 e0 ef 34 3e c9 1f 37 be 9c 75 13 3e df 45 25 be
       0.1766963 -0.17883219 0.14400333 -0.16139935
000340 e6 85 25 bc 73 6d cf 3d 6f b9 ef 3d 33 aa 0f 3e
       -0.010102725 0.10128298 0.117052905 0.1402977
000350 d3 22 c3 bd 38 29 20 3b ee 41 d0 3d e5 1b 60 be
       -0.095281266 0.002443863 0.10168825 -0.21885641
000360 5c 7f 8a 3c 1d ee a8 bd 08 77 21 3e a5 6d bb 3d
       0.016906433 -0.082485415 0.15768063 0.091517724
000370 1d 0e 95 3d d0 1b 01 3d 92 b0 94 3d 75 2c d3 3d
       0.072780825 0.031520665 0.072602406 0.10311214
000380 13 95 a8 3b d0 4f 03 3c fd bd 03 3e 05 af 75 bd
       0.005144724 0.008014634 0.12865444 -0.059981365
000390 c4 09 ac 3c 67 27 fe 3d 1a e6 8d 3e aa b1 03 3e
       0.02100075 0.12409859 0.27714616 0.12860742
0003a0 e0 d8 48 be 92 ec 3d bc cb 2f 78 3d 83 d2 17 be
       -0.19613981 -0.011592047 0.060592454 -0.14826398
0003b0 b6 59 a5 3e 1e 16 24 3e 75 18 0a 3e 27 e6 62 3c
       0.32295007 0.16024062 0.13485892 0.013848818
0003c0 a1 c0 87 bd 99 c6 5c bd 7b c8 5d be 02 84 2a 3e
       -0.06628538 -0.053900335 -0.21658508 0.1665192
0003d0 48 cf ad 3d cb 06 ee bc 5b 6c 47 3d 60 6b 9d 3d
       0.084868014 -0.029055974 0.04868732 0.07686496
0003e0 7e 01 91 3d 56 cf 91 bd 32 78 86 3e ce 6f 0a 3e
       0.07080363 -0.07119624 0.26263577 0.13519213
0003f0 34 25 0e be 9b 40 db bd 83 bf 2f 3e 6f b8 00 be
       -0.1388138 -0.10705682 0.171629 -0.12570356

hiden_layers.0.bias f4 [64]
000000 28 05 2a bd 4a 9b 9a bd 2c d3 b2 3b 81 62 a2 3d
       -0.041508824 -0.0754915 0.0054573026 0.079289444
000010 e6 d1 9e 3d 36 c6 a9 3c ba 0d 01 3e 88 03 9d 3d
       0.07754879 0.020724397 0.12602893 0.07666689
000020 45 d9 35 3d ee f0 30 b9 00 e3 14 be 70 29 17 bd
       0.044396657 -0.00016874421 -0.14539719 -0.036904752
000030 e2 a5 0f be 60 7a e0 3c 81 db 4e bd 24 3a c1 3d
       -0.14028123 0.027402103 -0.050502304 0.094349176
000040 2e 84 99 3c 95 17 22 3d 45 13 c1 b9 ef 61 8f 3d
       0.018739786 0.03957327 -0.00036826186 0.07001101
000050 a3 88 ae bd 8c f2 99 bb 19 88 29 be ee c9 fc 3d
       -0.08522155 -0.0046981033 -0.16555823 0.123432025
000060 cc 34 95 3c 31 d0 2a 3e 1c 6d e6 bd 15 93 99 bd
       0.018213652 0.16680981 -0.1125128 -0.07498757
000070 11 57 3e bd 99 69 c0 3c 71 90 e4 bd 1d fd 35 bd
       -0.04646975 0.023487853 -0.111603625 -0.04443084
000080 6f 16 3d be 6a ce 3a bc b5 90 ec 3d ed 9e ff bd
       -0.18465589 -0.011401752 0.11551038 -0.124814846
000090 88 d1 27 3d 82 53 8d 3c 9e 44 79 bd 1d 01 68 bd
       0.04097131 0.017251734 -0.060856454 -0.056641687
0000a0 66 93 99 3d ee 7a e9 3d 26 4a a6 bd 7e 88 9c 3d
       0.07498817 0.114004 -0.081196114 0.07643221
0000b0 f5 e7 3c bd c1 f9 e6 bd 1f ab 25 3c a1 c3 96 3a
       -0.04611965 -0.112781055 0.010111599 0.0011502394
0000c0 fc db 68 bd ad 08 2e bd 47 71 ec bd ad 5a d7 3c
       -0.05685042 -0.042488743 -0.115450434 0.026288355
0000d0 26 a5 e9 3c a6 de 86 bc fb 84 16 be fc e7 e3 bc
       0.028521132 -0.016463589 -0.14699166 -0.02782058
0000e0 ce e5 ec 3d bc 36 eb 3d 5a 8a 88 bd d5 7b e4 bd
       0.11567269 0.11485049 -0.066670135 -0.111564316
0000f0 a3 83 a8 bd 0c a4 16 bd 2a ba 5e 3d 55 a0 f2 bd
       -0.08228233 -0.03677754 0.05437676 -0.11846987

hiden_layers.1.weight f4 [64, 64]
000000 8a c6 08 be be 77 25 bd d2 52 d0 bd 95 e9 ff 3b
       -0.13356987 -0.0403974 -0.10172047 0.0078098276
000010 c7 a1 2e 3e 72 21 34 be 70 01 c3 be 0c ed 61 3c
       0.170539 -0.17590883 -0.38087034 0.013789427
000020 32 f1 10 be d6 bf 23 be 11 9b dd 3d 8b f3 32 3c
       -0.14154509 -0.15991148 0.10820592 0.010922323
000030 98 6a 05 be 9c 63 29 3d 6f 74 03 be 7f 84 81 be
       -0.13028944 0.04135476 -0.12837385 -0.252964
000040 80 6e c1 3e 1f e3 a4 3d 95 de 30 be 4e 59 29 bd
       0.37779617 0.080511324 -0.17272408 -0.041344933
000050 0f 87 eb 3d d2 15 1a 3e bf a5 c4 bd ea 91 12 be
       0.1150037 0.15047386 -0.09601926 -0.14313474
000060 b3 31 95 be 31 7b 00 3e 60 d2 05 bc 8a 05 55 3e
       -0.2913948 0.12546994 -0.008167833 0.20802894
000070 af ff 26 be 59 56 b9 3d bf 5c 30 3e bb 63 02 3e
       -0.16308473 0.09049673 0.1722288 0.12733357
000080 df 3e 99 bd d6 4f 94 3e 14 dc c5 3d 52 1e 58 3d
       -0.07482695 0.2896716 0.09661117 0.05276329
000090 09 7d ed bd 88 72 cd 3d e3 48 9b be 6c b4 0f 3e
       -0.11596114 0.10031611 -0.30329046 0.14033669
0000a0 91 db 5d 3e 9b 4d 2b 3e 39 21 ff 3d 1e 8d 36 be
       0.21665789 0.16728823 0.124575086 -0.1782727
0000b0 9f 3b 8a 3e 4a ad 24 3e 53 0d 2d 3e 14 cb 54 3e
       0.26998612 0.1608173 0.16899614 0.20780593
0000c0 94 72 62 3e ca b4 80 be a8 4f 86 be 9f a3 39 be
       0.2211402 -0.2513793 -0.26232648 -0.18128823
0000d0 b5 9f 4d 3e b0 49 69 3e f6 b2 4d 3e 69 c3 15 be
       0.20080455 0.22782016 0.200878 -0.14625324
0000e0 81 e5 03 3e 1a a3 d1 bd 7a 27 88 be 4a 75 9f 3c
       0.12880518 -0.10236187 -0.26592618 0.019465107
0000f0 37 49 e0 3c 6f 35 4f 3e cd 09 fd bc d5 e3 45 3e
       0.027378662 0.20235227 -0.030888462 0.19325192
000100 53 83 a3 3d c8 3d ae 3d 19 07 3a 3e 8b 32 38 3e
       0.079840325 0.085078776 0.1816677 0.1798803
000110 6e f8 cd bd c9 dd 51 3e 3b 0d 89 be be a9 e8 bd
       -0.1005715 0.2049476 -0.26767907 -0.11360501
000120 c3 7c 19 be d5 65 27 3e 96 ac 3c 3c 4b e5 11 3e
       -0.14988999 0.1634744 0.011515757 0.14247625
000130 37 c6 06 3e 5f 8e 66 be 68 e5 98 3d 42 1f 8d 3d
       0.1316155 -0.22515248 0.07465631 0.068907276
000140 75 7d 62 be f5 21 9f bd db 65 c5 3d 0e 27 fd bd
       -0.2211817 -0.07770149 0.09638568 -0.12360965
000150 e5 ca 25 3e 1b da 4d 3e 8a 83 47 be a1 a4 5a be
       0.1619068 0.20102732 -0.19483772 -0.21351863
000160 d0 76 49 3e e0 f1 e9 bd 66 c1 b0 3d e7 2a 04 3e
       0.1967423 -0.11423087 0.08630638 0.12906991
000170 ab 6d eb ba c3 fa 48 be d3 3b 6f 3e fd e1 6b 3e
       -0.0017961761 -0.19626908 0.23362665 0.23035426
000180 82 39 5d 3d 60 b0 2f be c2 8c f5 bd a2 b2 76 3e
       0.05400992 -0.17157125 -0.11989738 0.2409158
000190 49 7a 5b 3d e4 83 54 3e 02 f7 50 be 31 ce 05 3d
       0.053583417 0.20753437 -0.20406726 0.032667343
0001a0 0b 9e c4 3d e8 9c 7e 3d 2e 11 90 bd 44 a7 19 be
       0.09600457 0.062161356 -0.07034527 -0.15005213
0001b0 c4 98 12 3e b6 18 92 3c d5 4e 5c 3d 2b ba c6 3d
       0.14316088 0.017834049 0.053786118 0.097034775
0001c0 af 0f 08 3c fc 2c eb 3d a1 21 92 3d 5e 40 44 3d
       0.0083045205 0.114831895 0.071353205 0.047912948
0001d0 30 09 79 3e 4c 06 96 3d 71 14 bd 3c e5 a1 2d 3e
       0.24319911 0.0732542 0.023081036 0.16956289
0001e0 41 08 f8 bd eb 2f 25 be ad f2 10 be 00 38 03 3e
       -0.12110949 -0.1613156 -0.14155073 0.12814331
0001f0 0a d4 0c be 19 c2 50 bd c1 5d bd bd 4a fb 4a be
       -0.13752761 -0.050966356 -0.09246398 -0.19822422
000200 0a d5 22 be 0c 49 5b bd f2 13 ad 3d cd 7d dd bd
       -0.1590158 -0.05353646 0.0845107 -0.1081501
000210 f6 90 92 bd d6 8a 23 be f4 0f 7f be bb 3f 7b be
       -0.07156555 -0.1597093 -0.2490843 -0.2453603
000220 70 55 86 be 8c 46 02 bd 31 db ff 3d e1 48 8b 3d
       -0.2623706 -0.03180556 0.12492979 0.0680101
000230 a6 ec df 3d 15 3e 27 3e 02 11 60 bd cc 84 7d be
       0.10933809 0.16332276 -0.05470372 -0.24757689
000240 53 eb 15 be be a1 e5 3d 53 e8 94 bd fb f5 95 bd
       -0.1464055 0.112124905 -0.07270875 -0.07322308
000250 bc 14 0d bd a9 81 4b 3d 93 9e d1 bd 7e 0f f6 bd
       -0.034443602 0.0496842 -0.10235324 -0.12014674
000260 01 6b 41 3e 53 ca 3c be 4c 3d 6a be a3 9e 23 be
       0.18888475 -0.18436556 -0.22874945 -0.15978484
000270 89 73 2d be e2 29 09 be da 5d ca 3d 08 bd 24 be
       -0.16938604 -0.13394883 0.09881182 -0.16087735
000280 00 ec d6 3c 26 22 92 3e 9e 73 23 3e 4a 66 d2 3d
       0.02623558 0.28541678 0.15962073 0.10273416
000290 e2 32 83 bd 35 00 00 3d 9f 2b 77 be d9 22 55 bc
       -0.064061895 0.031250197 -0.24137734 -0.013008797
0002a0 41 15 3c be 3a 93 63 be b7 19 5d 3e 6f d9 5f 3c
       -0.18367483 -0.22224131 0.2159184 0.01366268
0002b0 a3 d6 14 be d3 05 9f bd 52 06 60 3e 4c 96 0e 3e
       -0.14535002 -0.07764783 0.21877411 0.13924521
0002c0 89 83 5f 3c 33 d7 46 3e 21 d1 ad 3c cf 51 54 3e
       0.0136422 0.1941803 0.021217884 0.20734333
0002d0 79 ea 17 be 7f 72 75 3d 03 b9 7d bd 37 57 d2 3d
       -0.14835538 0.059923645 -0.06194402 0.10270541
0002e0 48 39 c3 3d 55 d9 6b 3d 80 f8 d8 3c 78 51 2c 3c
       0.0953241 0.05758031 0.026485682 0.010517471
0002f0 66 46 d3 bd 3c e3 b9 3d 81 1f 16 be a5 99 53 3e
       -0.10316162 0.09076545 -0.14660455 0.2066408
000300 19 3c 56 3e ab 15 28 3e ae c5 fa bd d6 c0 0f be
       0.20921363 0.16414516 -0.12244736 -0.14038405
000310 5b 35 f0 bd 3c 34 69 3d c2 34 8b 3e 70 e4 20 be
       -0.11728927 0.05693458 0.2718869 -0.15712142
000320 8d ad 3e 3e 56 da 4b 3e 6b 04 87 3d e3 fb ff 3c
       0.18620892 0.19907507 0.065926395 0.031248039
000330 c1 3e 60 3e 9e fc 05 3e c9 77 a8 3d 98 1e 1a ba
       0.21898939 0.13084647 0.08225972 -0.00058791926
000340 5e 86 04 be 67 d2 ab bd 02 f1 64 3e 42 6f a2 3d
       -0.12941882 -0.083897404 0.22357562 0.07931377
000350 b1 43 18 be 47 c2 31 3e 24 b7 68 bd 96 f3 85 bd
       -0.14869572 0.17359267 -0.05681528 -0.06540601
000360 61 e2 dd bb 9a ae a8 bd 9e 50 0b 3d e0 03 a9 3d
       -0.0067713712 -0.082364276 0.03401243 0.08252692
000370 54 47 38 3e e9 04 21 3e 5a 24 eb 3d 1d fb 19 3e
       0.1799596 0.1572453 0.11481543 0.15037198
000380 77 0e ab 3d 31 f8 6f 3d f9 64 54 be e0 02 72 3e
       0.08352368 0.058586303 -0.20741643 0.23633909
000390 a6 e3 07 be 08 91 15 be 58 c0 50 bd e5 7d 16 3a
       -0.13270435 -0.14606106 -0.050964683 0.00057408056
0003a0 5b bf ae 3d b8 10 75 be 6d e6 da 3b dd c5 86 be
       0.08532592 -0.23932159 0.006680301 -0.26322833
0003b0 53 09 27 be bb ec b0 bd 2e 0c 21 3c 0c 37 12 be
       -0.1631215 -0.08638903 0.009829564 -0.14278811
0003c0 cc c2 ed bd 8f 90 0a 3d 0e 42 2b 3d 24 97 38 3e
       -0.1160942 0.033829268 0.04181104 0.18026406
0003d0 e0 58 8e 3d f3 da 58 be 62 83 d7 bd 47 39 d4 3d
       0.06950545 -0.21177272 -0.10523106 0.10362487
0003e0 53 31 5c be b7 9d 2c be 8f 20 1f 3e 11 1b 6f 3e
       -0.2150319 -0.16857038 0.15539764 0.23350169
0003f0 ed fe 28 be 12 e8 fc bd 90 5c 5e 3e 16 74 fa 3d
       -0.16503496 -0.123489514 0.21714997 0.12229173

hiden_layers.1.bias f4 [64]
000000 04 45 23 bd f4 7a 04 bd ae b1 d2 3d 97 6a 58 bd
       -0.03986074 -0.03234382 0.10287796 -0.052836027
000010 f8 2f 94 bd a4 2c da bd d6 d9 f7 bd 1a 07 bd bd
       -0.07235712 -0.10653046 -0.12102096 -0.0922987
000020 35 54 90 3d 77 3b 04 bd 1c 75 65 3d 71 09 87 bd
       0.07047311 -0.032283273 0.056019887 -0.06593598
000030 9d e9 5e 3d 25 09 22 3d ba 3c 36 ba 04 83 97 bd
       0.05442201 0.039559502 -0.0006951798 -0.07398036
000040 85 5f bc 3c a3 80 fa 3d 65 59 23 bd d3 5d 4c bd
       0.022994766 0.12231567 -0.039880175 -0.049894165
000050 ef 37 f8 bd 44 cc 17 bd 1c c1 a9 3b e6 bd 2b bc
       -0.121200435 -0.037060037 0.005180491 -0.010482287
000060 e8 62 c0 bd 2e ca 5c bd 8b 7c d6 bc 97 54 4c 3c
       -0.09393865 -0.05390375 -0.026182434 0.01247134
000070 d7 a4 52 bd f6 2d b1 3d 8a cc 02 3e 33 fb c4 bc
       -0.051426735 0.086513445 0.12773338 -0.024045562
000080 09 88 72 3d 30 c3 f1 3c 65 d9 88 3d 04 ed 47 bd
       0.059211764 0.029512018 0.0668209 -0.04881002
000090 1c da 70 bc 08 88 2b bc c4 5f 1e bc d1 e9 1c bb
       -0.014700439 -0.010469444 -0.009666387 -0.0023943076
0000a0 ae 6c a9 3c 06 0b 00 3d 5b cf 8a bd e9 6b 1d 3c
       0.020681705 0.031260513 -0.06777831 0.009608247
0000b0 17 a8 c5 3c 36 cc 17 bc 1b 29 80 bd e7 41 9e bd
       0.024128003 -0.009264996 -0.0625784 -0.077274136
0000c0 a3 f7 a8 3d 86 91 08 bd 30 ea b9 3d e0 84 b7 bd
       0.08250358 -0.033341907 0.09077871 -0.08960891
0000d0 b7 d4 42 bd ab 24 ec 3a 37 61 95 3d 2d 5d bf bb
       -0.047566142 0.0018016299 0.07293933 -0.005839965
0000e0 fb ad ac 3b 18 67 49 bd 0e 07 10 3d 09 c3 29 3d
       0.0052697635 -0.049170583 0.035162978 0.041445766
0000f0 6a 2c 0b 3d 95 c8 24 bd 24 fd 29 3d 89 c5 37 bd
       0.033977903 -0.040230352 0.04150118 -0.04486612

hiden_layers.2.weight f4 [64, 64]
000000 ae 91 06 be c2 43 55 be c6 ae 15 be 64 f5 3e be
       -0.1314151 -0.20826629 -0.14617452 -0.18648297
000010 23 0b ef bd dc 79 72 3d 47 9b 5c bd 2f db b8 bd
       -0.11672046 0.059198245 -0.05385902 -0.09026181
000020 9b 29 56 3e 80 68 a2 3d 8b e5 8e 3b e4 45 26 be
       0.20914309 0.07930088 0.0043608597 -0.16237599
000030 46 37 99 3d 62 e8 51 be 99 4d f2 3d 5e 72 2e 3e
       0.07481246 -0.20498803 0.11831207 0.17035815
000040 e1 d1 95 be 71 6b 76 be 20 63 cd 3d d4 16 e8 bd
       -0.29261687 -0.24064423 0.10028672 -0.11332479
000050 63 47 5b 3d 63 8f 72 be 8d be ca bd 84 2f 0d 3e
       0.053534877 -0.2368751 -0.09899626 0.13787657
000060 00 2a 12 be a6 ad ab 3d 42 6f 14 3e c9 16 10 ba
       -0.14273834 0.0838273 0.14495566 -0.00054965593
000070 34 bf e7 bd db 33 39 bd 2f 2e 4a 3e e3 0c 00 be
       -0.11315766 -0.04521547 0.1974418 -0.12504916
000080 83 14 ec bd 46 5e 1e 3c 4c 58 60 be 0f fc c6 3d
       -0.1152735 0.009666031 -0.21908683 0.09716045
000090 ed be ad 3d 0a ad f8 bd c4 cd 2f be a3 c9 5a 3e
       0.08483682 -0.121423796 -0.17168337 0.21365981
0000a0 ba 45 15 be 7b ec 4c 3d fe 04 5c be 6f e3 42 be
       -0.1457738 0.050030213 -0.2148628 -0.19032072
0000b0 20 b3 c5 bd 39 7f 08 be 7e 16 ed bd 41 dc 31 bd
       -0.09653306 -0.13329782 -0.11576556 -0.04342294
0000c0 1f 6c 18 3d 4f 13 4a 3e 66 57 b2 bc 5e e5 12 be
       0.037212487 0.19733928 -0.02177019 -0.14345309
0000d0 b7 20 1f 3e ac 31 87 3d 27 e4 d1 3b 11 58 8f 3e
       0.15539823 0.06601271 0.0064053717 0.27996877
0000e0 c2 41 17 be ca 21 55 be 66 a5 48 bd b9 f0 79 3e
       -0.14771178 -0.20813671 -0.04898586 0.24408235
0000f0 e5 f4 1f bc f9 8a 84 3d 44 ea 6f be 26 96 8f 3d
       -0.009762977 0.064718194 -0.23429209 0.070110604
000100 8a e0 e7 3d c4 3e 3a bb d8 f9 9a 3d 86 b4 f5 bd
       0.11322124 -0.002841876 0.07567185 -0.11997323
000110 e8 37 0c 3c 1e a5 6b 3c e6 71 18 3e bb bf be bd
       0.008558251 0.014382629 0.14887199 -0.093139134
000120 9c b7 11 3e e3 cb c9 3d e2 98 b0 bd 33 b7 dd bd
       0.14230198 0.098533414 -0.0862291 -0.10825958
000130 52 c8 6a bd 3b 93 4f 3e fb 2f 33 bd 7f a6 bc bd
       -0.057319947 0.20271008 -0.04374693 -0.09211444
000140 3b e3 d4 3d 5a 70 32 3d 98 01 ff bd 09 8e eb bc
       0.10394903 0.043564178 -0.12451476 -0.028754251
000150 a8 eb d5 3d 4e 07 33 be 54 03 a6 3d 8c a5 73 3d
       0.104453385 -0.17483255 0.081061035 0.05948405
000160 dd fe 9e bc 2d bb de 3d 22 70 ad bd 42 12 2b be
       -0.019408638 0.10875545 -0.08468653 -0.16706184
000170 74 d6 cc 3d a1 e4 0c 3d d2 75 af 3b 82 66 03 3c
       0.10001841 0.034397725 0.0053546214 0.008020045
000180 7c c7 06 be 7a f4 11 3d bf 03 c3 3d 3e a2 23 3e
       -0.13162035 0.03563354 0.09522199 0.15979859
000190 b0 62 e6 bd c6 2a d0 bc db df 5d 3e 4f d6 ab 3d
       -0.11249292 -0.025411021 0.21667425 0.083904855
0001a0 66 e7 7d 3d 69 96 e3 bd 16 38 ec bd 3d 10 3c be
       0.061988257 -0.11112673 -0.11534135 -0.1836557
0001b0 7d d5 23 3c 08 c9 25 be 26 42 8a 3d 44 aa d2 3d
       0.00999963 -0.16189969 0.06750898 0.10286382
0001c0 96 4f 8a be a4 be c3 bd 65 1a 16 bd f4 18 6d 3e
       -0.27013844 -0.09557846 -0.036646266 0.2315405
0001d0 2d db 13 be fb 51 ad 3d b8 8a 45 bd 27 f2 0d be
       -0.14439078 0.08462902 -0.048227996 -0.13861905
0001e0 82 b4 02 be ba 82 49 3d 23 a4 fd 3c 3d 44 ed 3d
       -0.12764171 0.049196936 0.030962056 0.11585281
0001f0 47 ed 3e be 38 00 04 be cd bf 33 3e f7 d7 25 3e
       -0.18645202 -0.12890708 0.17553635 0.16195665
000200 13 09 78 be e5 b8 8e bc 8a 7a a5 3d d5 be 2a 3e
       -0.24222212 -0.017422149 0.08080013 0.16674359
000210 aa 2d 10 3e 8e c6 e1 3d 56 eb 0f be 3a f6 9a 3d
       0.1407992 0.110241994 -0.14054617 0.07566495
000220 36 5e 18 3d 3f b3 a5 bb 13 6f dd 3c 85 68 b5 bd
       0.03719922 -0.005056768 0.027030503 -0.08857826
000230 cb 72 ff 3d ff 9f 85 be 03 44 6e 3e a6 7b 54 bd
       0.12473067 -0.2609863 0.23268132 -0.051875733
000240 f8 3a 2e 3e 15 19 0c 3e f7 d9 87 be 1f 9a d4 bd
       0.17014682 0.13681443 -0.2653348 -0.10380959
000250 58 d5 05 bd dd 03 66 bd b7 3d 1d 3e 73 fd b1 bd
       -0.032674164 -0.056156028 0.15355574 -0.0869092
000260 e2 ea 30 be 06 d9 87 3d 9f f8 0f be 7e de 70 bb
       -0.172771 0.06633191 -0.14059685 -0.003675371
000270 66 dd 2a be d8 75 f5 3d b8 2e ec bd 43 dd 97 be
       -0.1668602 0.119853675 -0.115323484 -0.29660997
000280 d6 b3 78 3c 29 95 78 3e ba 5e d1 bd e3 d9 04 3e
       0.015179595 0.2427565 -0.10223146 0.12973742
000290 72 98 1e 3c c8 4e 94 bd 2e cf 33 3d 3a 57 53 3e
       0.0096799005 -0.07241589 0.043898754 0.20638743
0002a0 65 20 92 3e df d9 1f 3d 12 9d 29 be 93 91 2b 3e
       0.2854034 0.039026137 -0.16563824 0.16754751
0002b0 cc b1 19 3e 35 dd 5f bd ed d7 56 bb 41 dd c3 3c
       0.1500923 -0.05465432 -0.003278251 0.023909213
0002c0 e1 6a 7a 3e b2 b9 8f be 3e cb 32 3e 1f 7e 23 3d
       0.24454834 -0.28071362 0.17460343 0.0399152
0002d0 2b 82 58 be d3 7e 11 be 00 6e 21 3d b9 8d c7 bd
       -0.21143405 -0.14208536 0.039411545 -0.09743828
0002e0 b6 c2 94 3e 8d 49 f1 3d df 5b 9d 3e 32 9a 47 3e
       0.29054803 0.11781607 0.30734155 0.19492415
0002f0 c3 58 ed 3d a0 ef 9e be 6e 9a be bc b9 ae 3d 3d
       0.115891956 -0.31042194 -0.023266997 0.046309207
000300 c9 ba b0 3d d8 3c 99 3e 5f e4 1d 3e 15 bd 88 bd
       0.086293764 0.29929233 0.15419148 -0.066766895
000310 99 cb 5d 3c bb a2 84 be 7e e6 c4 b9 a1 c1 bd bd
       0.013537311 -0.25905403 -0.00037555763 -0.092654474
000320 f1 fe 42 be 62 9e 63 be 5e b5 6b be 17 7b 7d 3e
       -0.19042565 -0.22228387 -0.23018405 0.24753986
000330 34 92 55 3e 2f f9 a3 bd 42 c1 5a bd 21 a1 51 be
       0.20856553 -0.080065124 -0.05340696 -0.20471622
000340 c8 b4 7e 3e b5 32 98 3e b2 e2 1e bd c0 7d c1 3d
       0.2487365 0.29726186 -0.038790412 0.09447813
000350 30 e3 05 be dc 7c 48 be e7 38 00 bb 21 c1 06 3d
       -0.13074946 -0.1957888 -0.0019565166 0.032899026
000360 b4 71 0b be 6c 7f 28 be f0 da c9 be c6 b2 af bd
       -0.13617593 -0.16454858 -0.3942485 -0.0857902
000370 10 c1 9a bd a9 d6 a7 3f ba e4 0c 3e ed aa 5d 3c
       -0.07556355 1.3112384 0.13759127 0.013529521
000380 86 ac 59 3d 80 f4 ac 3d 02 fc 6c be 78 46 70 bd
       0.053143047 0.08445072 -0.23143008 -0.058660954
000390 ea 16 27 3e 02 e4 9c bd f2 94 3c be 92 14 e8 3d
       0.16317335 -0.076606765 -0.18416193 0.113320485
0003a0 85 30 5e be d5 ed 67 bd 29 84 93 3e b5 53 66 3d
       -0.21698196 -0.0566233 0.28811768 0.056232173
0003b0 0b 7b 0c 3e ec e4 25 3d 7a 42 47 be ac 80 2c be
       0.13718812 0.04050152 -0.19458953 -0.1684596
0003c0 15 09 38 3e 34 5d 84 be 70 20 a3 3d 5d cc 12 bd
       0.17972215 -0.25852358 0.07965171 -0.035839427
0003d0 e2 c6 74 3e c9 d6 82 3e 51 58 95 3d 78 21 34 be
       0.23903993 0.25554493 0.07292236 -0.17590892
0003e0 40 9a 0b 3d 81 bb 03 be 1c 5b d3 bd 3b f6 a6 3e
       0.03408265 -0.12864496 -0.10320112 0.32609734
0003f0 22 cc 10 be 96 5a f2 3d 7d e6 7a be ec 4e 1c bc
       -0.1414037 0.11833684 -0.24501987 -0.009540301

hiden_layers.2.bias f4 [64]
000000 a3 77 5d 3d 68 49 9f bc df 70 8c 3c 0a 0e 11 3e
       0.054069173 -0.019444183 0.017143665 0.14165512
000010 72 a2 61 bc be e9 93 3d 13 b1 9a 3d e2 81 c9 bd
       -0.01377164 0.07222317 0.075533055 -0.09839226
000020 2f cc 0c be b3 f7 05 3d 26 c1 c2 3c d3 33 53 3d
       -0.13749765 0.032706928 0.023773741 0.051563095
000030 ab 0f e3 3d b7 8a 80 3c cc ac f7 bc 24 9f b1 bd
       0.11086973 0.015691144 -0.030233763 -0.08672932
000040 04 0e a3 bc b9 8c 91 3d 25 8e 8a bc 41 e7 28 3c
       -0.019904144 0.07106919 -0.016913483 0.0103090415
000050 7e b7 89 bd 9c 39 b0 bd 79 c7 fb 3d 87 53 1b bd
       -0.067244515 -0.08604738 0.12293906 -0.037921455
000060 4e 24 db bc ce f4 36 bb 1c bf 6d 3c c9 1a 93 3d
       -0.02675071 -0.002791691 0.014510896 0.07182843
000070 b8 42 5e bd 9c d8 ce bd 15 ae 7c bd 99 82 4c bc
       -0.054262847 -0.10099909 -0.061689455 -0.012482309
000080 8d 80 cc 3c 89 e3 8b 3d 31 e6 91 3b de 3a a5 bd
       0.024963642 0.06830508 0.00445249 -0.08067869
000090 06 30 4d bd 53 ce be 3c 06 7f 39 3d 85 bb c2 bc
       -0.050094627 0.023291742 0.045287155 -0.023771057
0000a0 e7 05 30 3d e8 a2 3d 3d 79 2c a2 bc 4f 6f 1b 3d
       0.04297438 0.046297938 -0.019796597 0.03794795
0000b0 98 f4 9e 3c 81 37 63 bd a3 92 59 3c 16 41 94 bd
       0.01940374 -0.055472855 0.01327959 -0.07238977
0000c0 47 2d 20 3d 9b ce 3c bd 10 a3 ea 3a dd e0 54 3c
       0.03910568 -0.04609547 0.001790138 0.012993065
0000d0 88 17 79 bd 15 02 cb bd b9 3f 00 be 37 74 0a bd
       -0.060813457 -0.099125065 -0.12524308 -0.033802237
0000e0 6a b4 96 3d ae 52 ef 3b 14 10 34 3c f6 9f 30 3b
       0.0735863 0.0073035574 0.010990161 0.0026950813
0000f0 48 37 66 bd 8d 6d 94 bc 82 90 ef bd 39 e0 ff bc
       -0.056205064 -0.018118644 -0.116974846 -0.031234847

hiden_layers.3.weight f4 [64, 64]
000000 ae b3 20 bd c7 dc 8c 3e 74 13 2c bd fb 8b 1d be
       -0.039233856 0.2751219 -0.04201074 -0.1538543
000010 21 e8 9c 3e 7a e6 4f be 11 8d 66 be db e2 5b 3d
       0.3064585 -0.20302764 -0.2251475 0.053683143
000020 4f 74 5b 3e 8c 06 7e 3d ea 52 18 3e fb 1f 21 be
       0.21431087 0.062017962 0.14875379 -0.15734856
000030 e3 f2 6c bd 87 97 85 3e 00 18 7d 3d ef cb 0f 3d
       -0.057848822 0.2609217 0.061790466 0.035106596
000040 7e 58 90 3d 02 8d a1 bc ed d3 3a bd a5 99 7e be
       0.070481285 -0.019720558 -0.045612264 -0.24863298
000050 f0 cb 1d 3e b0 ee 68 be 94 7e b2 3c 1c 4a c2 3d
       0.15409827 -0.22747302 0.021788873 0.094867915
000060 ac df 3e bd ff 06 79 be ce 13 d4 bc ec f4 87 be
       -0.04660003 -0.24319075 -0.02588835 -0.26554048
000070 8a c9 ae 3c 8d 00 9f bc 6e 79 42 be b7 4b 8b bd
       0.021336336 -0.019409442 -0.18991634 -0.06801551
000080 ca 50 46 3c df 11 d0 bd e6 1b 2e 3e 6d 61 22 3e
       0.012104223 -0.10159659 0.1700283 0.15857477
000090 e1 ed 9b 3d c9 87 4c be 2a 8d c2 3d 4b af 06 be
       0.07613731 -0.19973673 0.09499581 -0.13152806
0000a0 5d 39 0a be a3 35 22 be 19 7c fe bd 08 77 e5 bd
       -0.13498445 -0.15840773 -0.124260135 -0.11204344
0000b0 bb 15 1c 3e 1c 43 73 be 8c 2d 88 3e b5 bf 0f 3d
       0.15242665 -0.23756069 0.2659725 0.035094935
0000c0 89 04 03 3e c6 de 92 3e 0f 26 92 bc 80 26 a7 bd
       0.12794699 0.28685588 -0.017840413 -0.0816164
0000d0 67 2f 58 3e d6 d2 ae 3d c9 a6 e5 3d 77 c8 28 bd
       0.21111833 0.085363075 0.11213452 -0.041206803
0000e0 e6 4f df bd c8 51 07 3e 3d e3 eb bd fd d6 0e be
       -0.10903911 0.13214791 -0.11517952 -0.13949199
0000f0 e9 8e 4a 3e fc 1d 59 3e 60 ad 47 3e a0 35 72 bd
       0.19781078 0.21202844 0.19499731 -0.059133172
000100 e2 1d 04 3e 45 2c b8 bd 6b 85 5a be bc dc 2c 3e
       0.12902024 -0.08992819 -0.21339957 0.16881078
000110 9c fc 37 3e 1d 94 62 3d 1c c0 d0 bd 2e c8 22 3e
       0.17967457 0.055317033 -0.10192892 0.15896675
000120 0b 27 b7 3e 17 91 b8 bd 44 5b 42 3e e3 6c 6e bd
       0.35771975 -0.09012049 0.18980128 -0.05820931
000130 31 29 50 3d 0f cf fb bd 71 14 3e 3e 16 08 40 3e
       0.050820533 -0.12295353 0.18562485 0.18753085
000140 e4 3b ca bb bb 80 0f be 1d 07 a0 3d e3 72 00 3e
       -0.0061716903 -0.1401395 0.07813857 0.12543826
000150 61 ed 16 bd 27 55 f5 3d dc b6 6a bd d0 1b d6 3d
       -0.036847476 0.11979132 -0.057303295 0.104545236
000160 7c 25 01 3c fa f7 a3 3b 1c 27 68 be 83 43 cb be
       0.007882472 0.0050039263 -0.22671169 -0.39699945
000170 e9 d6 bb bc 39 e3 26 be 2d 12 ed bd 6c 56 d0 bd
       -0.022929626 -0.16297616 -0.115757324 -0.10172734
000180 77 2e be 3d 83 19 02 be 44 83 d8 3d 7a 1c 25 3e
       0.09286206 -0.12705044 0.10571912 0.16124144
000190 35 61 79 3e 5c 90 de bd 74 e6 10 be bf 70 75 3e
       0.24353488 -0.10867378 -0.14150411 0.2396879
0001a0 4c 3e 69 be 47 51 7d be 8c 16 47 3e 75 50 a2 bd
       -0.2277767 -0.24738036 0.19442195 -0.07925502
0001b0 2f 34 7d 3d 6e da 9c be 63 57 b0 3d 88 4b 8c bb
       0.061817344 -0.306354 0.08610418 -0.004281465
0001c0 45 f9 2a 3d cf 82 50 3a 5c dc d1 3d 83 3e f1 bd
       0.04174163 0.00079540623 0.10247108 -0.11779501
0001d0 e1 b3 34 be 19 7b bf bd a9 e0 12 be aa d3 e4 3b
       -0.17646743 -0.09349651 -0.14343514 0.00698324
0001e0 ec 67 8e 3d c2 3e fd 3d 67 d4 1a 3b 10 54 b3 bc
       0.06953415 0.12365486 0.0023625137 -0.02189067
0001f0 32 82 3a 3e 67 a9 1a 3e 93 af f1 bd 05 c6 2f 3e
       0.18213728 0.15103684 -0.11801066 0.17165382
000200 ab 61 3d be 9a 14 fd 3d 05 33 35 3e 6c 82 ca bd
       -0.18494289 0.12357445 0.17695244 -0.09888157
000210 7c 53 82 3e 3c 72 e1 bd 1e 3c 62 3d 1b 59 a9 3d
       0.2545432 -0.110081166 0.055233113 0.08268949
000220 a1 fc b3 3d 89 ab 07 3e d6 43 37 be 4e ea 92 3d
       0.087884195 0.13249029 -0.17896971 0.07173596
000230 b3 96 10 35 e5 f8 4c 3e 0f 70 53 3d b3 ee 14 bd
       5.3863477e-07 0.2001682 0.05162054 -0.036360454
000240 fa b3 73 3d 3a 25 a8 be 79 4e 33 be a7 38 63 be
       0.05949781 -0.32840902 -0.17510404 -0.2218958
000250 d1 31 65 be 94 16 0f 3d b1 43 0a be 30 6d e6 3d
       -0.22382285 0.03493364 -0.13502385 0.112512946
000260 84 c7 6f be 31 7e c2 3d 9d 90 1a 3e 40 53 53 3d
       -0.23415953 0.09496725 0.15094228 0.051593065
000270 b2 f0 4e be 36 c6 9e 3c d3 f7 d0 3d 56 99 3e 3c
       -0.20209005 0.019381624 0.10203519 0.011633238
000280 c8 18 b9 be 6b 22 2b be ef f9 45 3e 45 54 34 bd
       -0.3615172 -0.16712348 0.19333623 -0.04402568
000290 cf c2 f3 3d af 52 31 be 85 93 29 3e f6 d3 08 3e
       0.11902391 -0.17316698 0.1656018 0.13362107
0002a0 10 82 12 be c3 88 d1 bb 41 06 d9 bd c1 99 4b 3e
       -0.14307427 -0.006394477 -0.10596896 0.19882871
0002b0 d1 55 9d 3e 86 22 79 be 39 e9 01 be ab 49 9b 3d
       0.30729535 -0.24329576 -0.12686624 0.075824104
0002c0 be e9 a4 3d 2a b8 26 3e d2 f9 2d be a3 10 d8 3d
       0.08052395 0.1628119 -0.1698983 0.10550048
0002d0 89 2d d3 3d ea c9 f3 bd 74 8f 0c 3e 33 d7 94 bd
       0.103114195 -0.119037464 0.13726598 -0.072676085
0002e0 d6 c0 88 3e 8c e5 81 bc d8 2e be bd b2 3c 49 be
       0.26709622 -0.015856527 -0.092862785 -0.1965206
0002f0 af 64 39 be 1e a2 1a bd 5b 56 24 bd 24 3d 01 3d
       -0.18104814 -0.037752263 -0.040121417 0.03155245
000300 9c a4 00 be 82 dc 93 3c 28 75 e7 3b 68 be 41 bd
       -0.12562793 0.018049482 0.0070635267 -0.047300726
000310 93 69 79 be f5 26 73 bd b9 85 eb bd a2 8b 66 bc
       -0.2435668 -0.059363324 -0.11500115 -0.014071377
000320 84 12 51 3e 2c 9c 14 3b 62 4c 42 bd 52 e3 e4 bd
       0.2041722 0.0022676094 -0.047436126 -0.111761704
000330 d0 4f 2b 3d d3 15 da bd 8f 66 8d bd 72 b9 5b 3d
       0.041824162 -0.10648694 -0.06904327 0.05364365
000340 66 e1 89 3c 1d d8 ac 3b cc a8 25 be 8e b5 79 bd
       0.016831111 0.005274786 -0.16177672 -0.06096416
000350 a0 7a 41 be 14 1d 4b 3e 92 87 10 3e d1 6c 3d be
       -0.18894434 0.19835311 0.14114216 -0.18498541
000360 cf 9c 14 bd 09 75 cd bd 83 3e ae bd bd 14 4d be
       -0.036282357 -0.10032088 -0.08508017 -0.20027442
000370 45 c5 79 3e e5 e5 6b 3e c7 6d 61 3e aa 20 d5 3c
       0.24391659 0.23036917 0.22014533 0.026016552
000380 6c 47 df bd 80 02 ae 3d 52 81 aa bd d2 2f a1 3d
       -0.109022945 0.084965706 -0.08325447 0.07870449
000390 01 2d 63 3d 3c 6f 5c be 60 7e c1 bd 5b 30 0b 3e
       0.05546284 -0.21526808 -0.09447932 0.13592665
0003a0 3c 45 e1 3b 7b c1 50 be 71 47 12 be c0 da 12 be
       0.0068747085 -0.20386307 -0.14285065 -0.14341259
0003b0 93 12 3a 3e 0e a3 c2 3d 66 70 20 3e 36 e7 05 3e
       0.18171148 0.095037565 0.15667877 0.13076481
0003c0 86 19 39 3e 7d 85 0d 3e 8e bf 87 3e 32 b7 32 be
       0.18076143 0.13820453 0.26513332 -0.17452696
0003d0 9f e6 5c bd 9d 74 f8 3c ff 99 81 3e fd 19 4b 3e
       -0.053930875 0.030329043 0.25312802 0.19834132
0003e0 15 e5 67 3d 7a 2b e5 bd af 69 50 bb 5d bf 18 3e
       0.056614954 -0.11189933 -0.0031801274 0.1491675
0003f0 22 ba 07 3d 80 af 03 be 8d da 03 be 7f d5 97 3d
       0.033136494 -0.12859917 -0.1287634 0.07413768

hiden_layers.3.bias f4 [64]
000000 11 bf a7 bd 6a c5 41 bd 73 c2 91 bc 8a 1a a0 bd
       -0.0819074 -0.04730741 -0.017792916 -0.07817562
000010 36 10 7b bd 97 f4 ca 3d 33 2e 50 bc c3 15 a2 3a
       -0.061294757 0.09909933 -0.012706327 0.0012366105
000020 62 45 8c bd 60 be 53 be dd 12 8c 3d 8e 7b 9a bd
       -0.06849171 -0.20678091 0.068395354 -0.075430974
000030 59 d3 8d bd 5f ef b7 3b fb 0b 9c 3d a1 f5 8d bd
       -0.06925077 0.005613252 0.076194726 -0.069316156
000040 3a 93 58 3c 11 1d a9 3d 12 00 b5 3d 1b 56 0c 3d
       0.013218695 0.08257497 0.08837904 0.034261804
000050 a4 fb 96 bd b5 37 92 bd 28 72 59 b9 3d 7e 64 bd
       -0.073722154 -0.071395315 -0.00020737259 -0.055784453
000060 5c 85 0b 3d f4 c3 01 3d a1 36 78 bc fc e1 95 bb
       0.03406273 0.031681016 -0.015149743 -0.0045740586
000070 71 f0 b6 bd 3d 3a 6e ba 8e a7 db 3d e1 3b 03 bd
       -0.08932579 -0.00090876577 0.10725318 -0.032039527
000080 03 06 bb 3d b6 fa 58 bd 97 91 0a 3d 91 17 4e bd
       0.09132006 -0.05297347 0.03383025 -0.050315443
000090 3f 8a 5c 3d 33 6b 55 3c cc 45 45 3d 6e d6 2a 3d
       0.05384278 0.013026047 0.048162267 0.041708402
0000a0 c5 18 2d bd a6 47 c9 bd 08 02 12 3e e1 35 9e 3c
       -0.04225995 -0.09828119 0.14258587 0.0193128
0000b0 82 ca 67 bd 04 4c 1b 3d 8a a6 65 bb ea a5 35 3e
       -0.05658961 0.03791429 -0.0035041892 0.17739072
0000c0 d9 4a a4 b9 7c 2d 43 bd 75 3f 94 3d 60 3f de 3d
       -0.00031336283 -0.0476508 0.07238666 0.108519316
0000d0 2a 86 d3 ba 33 c7 92 bd 1a 61 8d 3c 33 5f 3d bc
       -0.0016138006 -0.071669005 0.017258216 -0.011558342
0000e0 0d 41 a2 3d 8c d0 e0 3d 91 5f d9 3c 6b bd 03 3c
       0.07922564 0.10977277 0.026534827 0.008040766
0000f0 17 d2 c9 3b c5 3d 1e be cc eb ee bc 12 11 b4 bd
       0.006159078 -0.1545325 -0.029165171 -0.087923184
