results/4_like_3_without_pde/epoch60/model_weights.pth (torch, 749398 bytes, 128 tensors)

init_layer.0.weight f4 [64, 5]
00000000: 1ab5 53be 04f0 413e 1a88 90bc 98af 1cbe
00000010: c998 473e a8e2 4ebe 9016 5cbe dcd5 9ebe
00000020: e53f 6bbe c889 8cbe 8a51 983e 2bc5 5b3e
00000030: 0e5b 6c3b 7364 fe3b 8b18 67be ad67 69be
00000040: 7b36 723e ba1c 693e 7832 73be 7d19 843e
00000050: 765e 76be 9dbc 3abe 1c03 44be fd05 84bd
00000060: 7720 873d d18a af3e e089 53be 6d15 4a3e
00000070: 1271 693e b6fc 44bd e30c 1e3e a5bc 53be
00000080: 9e86 943d 051b a0bd feb5 e53d 0700 9c3e
00000090: 3191 e43d 899c ee3d 20df ef3d 1f72 44be
000000a0: 5487 41be 8efb aebe 8444 8d3c 2639 66be
000000b0: ee58 633e f932 3b3d 9c6f 483a 8e78 84be
000000c0: 16eb c73d c0fc 673e 9d13 a43e bc5b 543e
000000d0: bc48 713c d052 d03d cd05 b03c 58a6 e1bd
000000e0: 0bf6 8d3d 58e5 3f3e ca60 393e 6b35 293e
000000f0: ad57 8ebe 4363 06be f298 58be 5700 b4bd
00000100: e81a cebc 128e 27bd db1a 98be 3f39 74be
00000110: 69b9 c83d 66a4 80bd eb4a a7be cc2c 7cbe
00000120: 9e91 943e 1412 8bbe 7712 2cbe 51c7 413e
00000130: 4c86 3bbe 8f39 233e e3e2 8f3e 9dc4 003d
00000140: 3b7d 223d a69d 70be 6c5e 653e f6ff 483e
00000150: bbc2 0cbe 5899 a63d 38c4 483d 44e3 a43d
00000160: 14de 7c3e 6ec0 75be 0abf cebd d8e5 d43d
00000170: ea1b 24be dfce 53be 7391 8a3e 80d7 2cbe
00000180: c440 90be 1448 e23d 3640 d23d d6e0 b23d
00000190: c149 083e 5981 12be 874d 72be acc9 2b3e
000001a0: 404e 773e 8beb 33bd 6018 403d 9d92 f3bb
000001b0: 4916 893b 249f cf3c 9e2a 0dbe 9cad 153e
000001c0: fd9e 8fbb 1690 22be f16e cd3d a5f4 50be
000001d0: 0f5f 62be b330 ff3d c85d 57be 4686 283e
000001e0: 7fd4 7fbe 1dca 943e 4ce7 5bbe 3c66 9dbd
000001f0: 19ff 55be 0749 95be 05f1 75be 8daa 943e
00000200: 1a8c bb3d cca8 56be 217d aabe e414 adbd
00000210: 4c8b b9bd 6240 8d3e a51e 80bc 6ce6 7d3d
00000220: 98dc b03e 1f93 f8bd 9c18 8e3e 7394 563e
00000230: 10d5 2cbe 96e7 163e f01d 823d 9bbf 2ebe
00000240: 4a48 8ebd 7948 c6be 1541 9e3e fe65 58bc
00000250: 092c 5fbe 49cc 523d c1f6 cfbc 5c8d 21be
00000260: dca6 133e 2e5e 89bd 117e 71be 4638 a23e
00000270: 3f6b 503d 032c 823e 457c a13d 2bf1 223e
00000280: 5da4 bdbe ae6a 253e 371a 7fbe 1686 08be
00000290: 7e8b c73d dc35 433e e135 97be 805d 81be
000002a0: 2742 803e 8faf f2bd 8010 8a3d 1bea 463e
000002b0: 2e5a 7c3e 10f6 743e cbfb 04be ea61 7fbe
000002c0: 58d8 a3be 8331 6a3e b057 8bbe ac3e 15be
000002d0: d5b9 2bbe 70a9 b0be 049e 393d 9b0b 26ba
000002e0: 5052 b7bc 5abb 4b3e a5cf a6bd c942 0bbe
000002f0: 1134 57be 4e55 f4bd b2e4 df3d 9f0d 57be
00000300: dc48 4a3d 7445 133e 57ae 6fbe fc5f 9c3e
00000310: 59d5 e3bd 0ce3 513e e124 c2bd a9bf fabd
00000320: ecab 8abe 9ef1 5fbd 964a 69be 06d4 e23d
00000330: a8f0 913d a136 8fbe 2c0e bbbe 708e 37be
00000340: 3077 793e 3c98 a43d 79a3 3d3e 5206 41be
00000350: bc87 7fbd f8c0 183e 8c94 443d 7980 c73e
00000360: 0eee 68bd fdda 59be 749b 5c3e c52a 5e3e
00000370: c490 c7be e2fe 45be 23a5 38be 48ad babd
00000380: e1ba d23d b5f9 85be 979e 073e ca11 753e
00000390: 86ac 35be e666 133c 3ff2 cabe c0ce 833e
000003a0: 5fec e43d 72c4 96bd 7849 d7bc 160b 44bd
000003b0: a6ea c13d 2211 423e 4f4a 9cbc 313a 5fbe
000003c0: 695f a93e 6870 a83d 1156 27be a838 0d3e
000003d0: 707b 96bd 7b89 183e cbcc 85be a95c 14bd
000003e0: 51a7 59bc 7f78 6dbe 078b a5be 77e8 28be
000003f0: fa0c 4d3c 78a7 dbbd 9b60 16be 108a 0e3e
-0.20674554 0.18939215 -0.017643023 -0.15301359 0.19491877 -0.2020365 -0.21492982 -0.31022537
-0.22973593 -0.2744887 0.2974971 0.21461932 0.0036065015 0.0077634393 -0.22567956 -0.22793455
0.23653595 0.22764865 -0.23749721 0.25800696 -0.24059471 -0.18236013 -0.19141811 -0.06446455
0.06597989 0.34285596 -0.20658064 0.19734736 0.22797039 -0.048092566 0.15434603 -0.20677431
0.07252239 -0.078176536 0.11216353 0.3046877 0.111605056 0.116509505 0.117124796 -0.19184159
-0.1889928 -0.34176296 0.017244585 -0.22482738 0.22201893 0.04570291 0.00076460256 -0.25873226
0.09761636 0.2265501 0.32046214 0.20738119 0.014726814 0.10172045 0.021487141 -0.11018056
0.069316946 0.18739831 0.18103328 0.16524284 -0.27801266 -0.13123803 -0.21152094 -0.08789127
-0.025159314 -0.040906973 -0.2970799 -0.23849963 0.09800989 -0.062813565 -0.32674345 -0.24626464
0.29017347 -0.2716223 -0.16803919 0.1892369 -0.18312949 0.15939926 0.28102788 0.031437505
0.03967021 -0.23497638 0.223993 0.19628891 -0.13746159 0.08134717 0.049015254 0.0805116
0.24694091 -0.23999187 -0.100950316 0.10395402 -0.16026273 -0.20684384 0.27064094 -0.16879082
-0.28174412 0.11048904 0.102661535 0.0873429 0.13309385 -0.14307155 -0.23662387 0.1677615
0.24150944 -0.043925803 0.046898246 -0.007433249 0.004183565 0.025344439 -0.13785788 0.14617008
-0.0043829666 -0.15875277 0.10030926 -0.20405824 -0.22106574 0.124604605 -0.21031868 0.16457471
-0.24983405 0.2906045 -0.21474952 -0.07685515 -0.20898093 -0.29157278 -0.24017723 0.2903637
0.091575816 -0.20962828 -0.3329859 -0.0845125 -0.09059772 0.27588183 -0.015639612 0.061987326
0.345433 -0.12137436 0.2775315 0.20955066 -0.16878152 0.1473678 0.063533664 -0.17065279
-0.06947382 -0.38727167 0.3090903 -0.013207911 -0.21794142 0.051464353 -0.025386216 -0.1577658
0.1441912 -0.067074165 -0.23583247 0.31683558 0.050883528 0.25424203 0.07885031 0.15912311
-0.37039462 0.16153976 -0.24912344 -0.133324 0.09743403 0.19063514 -0.29533294 -0.25266647
0.2505047 -0.118498914 0.067414284 0.19425242 0.24643776 0.2392199 -0.12986676 -0.24939695
-0.32000995 0.2287045 -0.27215338 -0.14574689 -0.16770108 -0.3450427 0.04531671 -0.0006334127
-0.022378117 0.19895688 -0.08145074 -0.13599695 -0.21015956 -0.11930333 0.10932292 -0.2100129
0.04938589 0.14381963 -0.23406349 0.3054198 -0.11124677 0.20496768 -0.0947969 -0.122435875
-0.2708429 -0.054673783 -0.22782359 0.110755965 0.0712598 -0.27971366 -0.3653425 -0.1792543
0.24361873 0.08036849 0.18519391 -0.18850067 -0.062385306 0.14917362 0.047993228 0.38965204
-0.05686765 -0.21274944 0.21543676 0.21696003 -0.38977635 -0.19335511 -0.18031745 -0.09115082
0.102895506 -0.26167074 0.13244091 0.23932567 -0.17741594 0.008996701 -0.39637944 0.25743675
0.11177897 -0.07361688 -0.02628015 -0.047862135 0.09468584 0.18951848 -0.019078402 -0.21799542
0.33080605 0.08224565 -0.16341425 0.13791144 -0.073477626 0.14896195 -0.26132807 -0.03622118
-0.01328452 -0.23190497 -0.32332632 -0.16494928 0.012515301 -0.107253015 -0.1468529 0.13919854

init_layer.0.bias f4 [64]
00000000: cb45 f5b9 d052 333c 7735 353d e531 48bc
00000010: 2035 97bb cc1f eebb eedb 263c e20c 463c
00000020: bf4d c73b 38bc a4bb ffcb 4fbb 5100 f2bc
00000030: 47b2 cb3b 7464 2fbc 337b 463c 5411 8d3b
00000040: 2741 33ba 5533 f73b 5a9d 96bc 779a edbb
00000050: 8030 983a e657 6cbc 103f 17bc 06f1 1d3c
00000060: adc0 b5ba 2be5 803c bb10 b9bb 941e 01bc
00000070: 11ca 893b ef0c 09bc 9c0c 623c ce59 99bc
00000080: 97e7 31bc 7cd2 4e3b 67e4 bfbb 5932 993c
00000090: 2040 8cbb 78f4 223c 4a5a 6d3c cd17 903c
000000a0: dfc3 9cbc 2369 cebc e1a1 31bc 0db1 debb
000000b0: d621 84bc 73cf bf3b fc6e b03b b735 0abc
000000c0: bad9 c13b d0ab 6a3c 87a0 413c 2b31 993c
000000d0: 99c4 8b3c c714 333b e78d 6cbb e4c3 0fbc
000000e0: aaf8 cbbb d025 ed3a 1994 323c 9e22 663c
000000f0: 6151 873b 3941 f13a 3fa8 1ebc e96e e9bb
-0.0004678204 0.010945037 0.04424044 -0.012218927 -0.0046144873 -0.007266974 0.010184271 0.012088032
0.006082266 -0.0050273202 -0.0031707285 -0.029541166 0.0062163207 -0.010705102 0.012114334 0.004305044
-0.00068380166 0.007543961 -0.018385578 -0.0072510797 0.0011611134 -0.0144252535 -0.009231344 0.009639984
-0.0013866626 0.015734276 -0.0056477464 -0.007880826 0.0042049964 -0.0083649 0.013796952 -0.01871958
-0.010858438 0.0031558564 -0.005856085 0.018700765 -0.0042801052 0.009945981 0.014486859 0.017589474
-0.019136367 -0.025196617 -0.010841818 -0.0067960084 -0.016129415 0.0058535873 0.005384324 -0.008435658
0.0059158476 0.01432319 0.011818058 0.018700203 0.017061519 0.0027325617 -0.0036095323 -0.008774731
-0.0062247114 0.0018092934 0.010899567 0.014046339 0.004129574 0.0018406279 -0.009683668 -0.007123817

hiden_layers.0.weight f4 [64, 64]
00000000: 1922 06be 2ee5 62be a92f bb3d b03f 8f3d
00000010: 6aba 1cbe 836b 033d 3b9a 143e 8e5a b9bc
00000020: f2b5 3e3d 1447 dabd 9676 3c3e f8f1 36be
00000030: be00 4ebe 8218 55bd 5723 4abe 8538 533e
00000040: 150d 5fbe b562 40be 0e25 58be ad5c 28be
00000050: 1128 1dbe b6b9 b0bd 15f5 993c 790b 79be
00000060: 670c c63d 023d c73d 61f5 2abe 782c 273e
00000070: ae4b e4bd 0e8e 46be c023 1dbe 78ac 5cbc
00000080: 8541 653c bb7f 123e 75e6 f1bd 5c2e 0e3b
00000090: 0bf2 473d 6961 fd3d 22de fcbb eabf 293d
000000a0: d308 3a3d 1724 eb3d de9c 553e 17ba 463d
000000b0: b62f 64be a798 f1bb 98d8 b0bd c3f1 8ebd
000000c0: 5fb7 953c f66a 813d 7335 15be f4c1 e3bd
000000d0: a162 433b 3b4d 8f3d 818e a73d 9f21 6abc
000000e0: ee4a 50bd a81a 80bd 514c 5fbd 6c6f 0e3d
000000f0: 8ef1 463e 627b c73d 12c7 c0bd 6a50 96bd
00000100: 34cf c4bd d4a0 563e 016f 21bd 3038 69be
00000110: 8097 40bd e43a ebbd 3506 6d3e 0a14 0dbd
00000120: ebd4 843e e846 e1bd c25f 32be 3947 2e3e
00000130: 73da 573d 7c32 9d3d eb3c 15bd e65c dbbc
00000140: 9e4e c4bd a62c bbbd d88e b5bd 78ea 793c
00000150: 1a14 14be 1a08 8f3c 5cf0 c73d f32e 863e
00000160: 286a 07be 7442 a23d edf5 7c3d 74f7 3bbd
00000170: df54 b83d bf60 a33d c650 613d f1e0 c13b
00000180: 5e3a 61be 46ca 6bbd d49d 3ebe 9745 cf3d
00000190: fb9d 773e 12e8 213e 07f9 5d3c 6710 15be
000001a0: a393 ed3d 1d7c 84bd e38f e23d 4b7f da3d
000001b0: be7c ab3d ee76 55bd 64a8 2abe c825 9cbd
000001c0: 37e3 88bd 31e4 303e acd9 033e 82aa bf3d
000001d0: dca3 1cbe 2072 7b3e c301 023e 573b 003e
000001e0: 1577 db3d 62a6 6dbe 0aa0 143e a4a3 0cbe
000001f0: 493d 5ebe 8628 6fbd abd1 063e 3a62 0b3e
00000200: d700 8b3d 81e4 02be 3da0 29bd d01f 293e
00000210: f7a0 9b3d 9a24 433e c443 323d ef1b 4fbb
00000220: d4b9 3aba 730f 393e f907 913e 2110 a03d
00000230: ad66 4fbe c432 5fbe 64e3 6bbd 0f28 a23d
00000240: 68b8 cd3c e7e1 36be c701 8bbd ea79 95bd
00000250: 699d 1f3e bcb8 76be 008f 8c3d 6d5a b037
00000260: 4860 e1bd d16f 53be 187c e53d 50df adbc
00000270: 1861 013c b3f4 23be 4af8 a33d 872a 273e
00000280: f7dc 3dbd 6334 9ebd 1fe2 2d3e 26b0 50be
00000290: 799b a7bd 9db2 3cbe 0813 e83d 76b0 03be
000002a0: 5a5f 383d eb28 9e3d 02f0 603e 5649 3dbe
000002b0: 271f ebbd 1fb7 05be 220f 66be 154d 853d
000002c0: 1e6a 473d a11d 2dbe 5224 90bd b49b 013d
000002d0: 4e9d ea3d f1dd 3bbd a0eb ab3c 01f2 1cbe
000002e0: df4c 51bc 2e85 513b 1290 30be 975c 10be
000002f0: ea41 0b3e 0c27 403e 63a2 c13c 4f41 463e
00000300: 70fd 86bb b015 4a3e 1963 3bbe 7db2 26be
00000310: 2fc6 0cbd 18e3 243c 52da 473e ff6b 203e
00000320: a63f 2f3e bf84 c83d f710 83be 8346 113e
00000330: fdee 4c3e b458 47be 72e5 763e d017 61be
00000340: c26f f73d 39f4 103e 3d5a 9dbd 6693 5c3c
00000350: 3ff6 33be 044d 5d3d d0af c1bd 1c97 7f3e
00000360: 2784 dfbd 27e2 4b3e 2df7 823d 26c1 49be
00000370: 4d2b bc3d 23ec 2c3c 5588 103e 1b81 ef3c
00000380: 6617 3d3e 2081 7d3d 04b7 09be 6edb 153e
00000390: c0de 6a3e 38dc 593e fc8d 533c c296 693e
000003a0: 4982 b03d 7182 07be 520f 25bd be41 2abe
000003b0: 1a9e d23d 5850 f83d 329d 293e 6bf9 983c
000003c0: 4f98 16be bee9 8a3c ad89 773e de31 503e
000003d0: b18e 59be 53ed e43d 86e4 fe3d 7433 613d
000003e0: c993 f93d 220a 1abe 7de6 ddbb 80da bcbc
000003f0: 5d1d ee3d 314b b63d c9ac 66bc f461 4bbc
-0.13098945 -0.22157738 0.0913995 0.06994569 -0.15305486 0.032084953 0.14511959 -0.022626188
0.046560235 -0.10658088 0.18404612 -0.17865741 -0.2011747 -0.052025326 -0.19740044 0.20627029
-0.21782334 -0.18787654 -0.21107885 -0.16441603 -0.15347315 -0.086291716 0.018793622 -0.24320783
0.09670334 0.09728433 -0.16695167 0.16325557 -0.11147247 -0.19390127 -0.15345669 -0.013468854
0.013992672 0.14306538 -0.11811534 0.0021695113 0.048814815 0.12372095 -0.00771691 0.04144279
0.04541857 0.11481493 0.20860621 0.048517313 -0.22283825 -0.007372934 -0.08635062 -0.06979706
0.018275915 0.06319229 -0.1457117 -0.11120978 0.0029813426 0.069971524 0.08181477 -0.014290242
-0.05085271 -0.06255084 -0.05451614 0.03477423 0.19428083 0.0974033 -0.0941297 -0.073395565
-0.09609833 0.20959789 -0.039412502 -0.2277534 -0.04701948 -0.11485842 0.23146899 -0.03444294
0.25943694 -0.109998524 -0.17419341 0.17019357 0.052698564 0.07675645 -0.03643505 -0.026777696
-0.095853075 -0.091393754 -0.08865136 0.015253656 -0.14460793 0.017459918 0.09762642 0.26207694
-0.13224089 0.07922831 0.06175797 -0.045890287 0.09000563 0.07977437 0.055008672 0.0059167077
-0.21994922 -0.05756595 -0.18614894 0.10120695 0.24181359 0.15811184 0.013548142 -0.14557038
0.11600425 -0.06468985 0.110626005 0.106688105 0.08373402 -0.052115373 -0.16665798 -0.07624394
-0.06683963 0.17274548 0.12876004 0.09358694 -0.15296882 0.24555254 0.12695985 0.12522636
0.107160725 -0.23208001 0.14514175 -0.13734299 -0.21703066 -0.058388256 0.1316592 0.13611689
0.067872696 -0.1278248 -0.04141258 0.16516042 0.07599061 0.19056931 0.043521658 -0.0031602343
-0.00071230275 0.180723 0.28326395 0.07815576 -0.20254011 -0.2179671 -0.057589903 0.07917797
0.025112346 -0.17859612 -0.067874484 -0.07298644 0.15587391 -0.24093908 0.068632126 2.1022943e-05
-0.11004692 -0.20648123 0.1120531 -0.021224648 0.007896684 -0.16011314 0.08006342 0.16324817
-0.046353307 -0.07724836 0.1698079 -0.20379695 -0.08183951 -0.1842751 0.11331755 -0.12860283
0.04501281 0.07722648 0.21966556 -0.18485007 -0.11480551 -0.13058136 -0.2246671 0.06508843
0.048685186 -0.16905834 -0.070381775 0.03164263 0.11455785 -0.045865957 0.020986378 -0.15326692
-0.012774675 0.003197025 -0.17242458 -0.1409782 0.13599363 0.18764895 0.023637002 0.19360851
-0.0041195676 0.19734836 -0.18299522 -0.16279025 -0.03436869 0.010063909 0.19516876 0.15666197
0.17114124 0.09790944 -0.2559888 0.14187054 0.20013042 -0.19467431 0.24110964 -0.2198174
0.12081863 0.14155664 -0.07683227 0.013462877 -0.17574404 0.054028526 -0.09457362 0.24959987
-0.10913878 0.19910489 0.06394801 -0.19702587 0.091879465 0.010554346 0.14114507 0.029236367
0.18465957 0.06189072 -0.13448721 0.14634487 0.22936535 0.21275413 0.01291227 0.22811416
0.086186 -0.13233353 -0.040297814 -0.16626641 0.10284062 0.12124699 0.16563872 0.01867362
-0.14706539 0.01695716 0.24173613 0.20331523 -0.21245839 0.111780785 0.12445931 0.05498071
0.12186391 -0.15042928 -0.006771861 -0.023053408 0.11626694 0.089010604 -0.014079281 -0.012413491

hiden_layers.0.bias f4 [64]
00000000: a5c6 7537 575e 36bb 5d9f 90ba 1c03 45bc
00000010: aaaa 6e3b b940 bebb f910 28bc cab5 153a
00000020: d311 1fbc 7fbe 8dbc 3933 8b3c 531b 8fbc
00000030: 0f79 963b 0c8a 133c a9ad 9cb8 b185 e63b
00000040: 2d96 9d3c 52f5 733b ac77 9d3c 61c8 dfba
00000050: e1f3 a0bb 87ce 803c d7d0 ef3b 9ed7 6839
00000060: b4c6 04bb 5f05 15b8 d9a0 a2bb 1621 443b
00000070: db40 db3b 48a3 fc3b 1b21 aabb bc53 9e3a
00000080: 5ff6 243b 448a 413b a455 ea3b 6ee8 8abc
00000090: db09 f5bb cd3c 373c 6b51 a7ba 956a a6bc
000000a0: 64e5 513c fd02 87bc 1404 23bc c81a 883b
000000b0: 05a8 1eba a240 7a3b b0ef 1abc cace 923b
000000c0: fa50 813c a23e 61bc aabe 05b9 4889 f63b
000000d0: 3264 143c 09ed 65ba 30e2 7fbb 5277 efbb
000000e0: f2ba af3a 637c 3ebc c164 cab9 c139 493c
000000f0: 0dd4 283b fb03 9ebb 44c1 213c 92aa 11ba
1.46493885e-05 -0.0027827227 -0.0011033822 -0.012024667 0.0036417642 -0.0058060554 -0.010257953 0.00057109876
-0.0097088395 -0.01730275 0.016992198 -0.017469084 0.004592068 0.009005081 -7.4710064e-05 0.00703498
0.019236648 0.003722508 0.019222103 -0.0017073267 -0.004911885 0.01572348 0.007318597 0.00022205568
-0.0020260038 -3.552937e-05 -0.004963022 0.0029926947 0.006691081 0.0077098943 -0.0051919348 0.0012079398
0.0025171263 0.0029531876 0.0071513224 -0.016956534 -0.0074779815 0.01118393 -0.0012765353 -0.020314494
0.012811039 -0.016480917 -0.009949703 0.004153583 -0.00060522585 0.0038185497 -0.00945656 0.0044802176
0.015785683 -0.013747843 -0.00012754896 0.0075236894 0.009057092 -0.0008770978 -0.003904473 -0.0073079253
0.0013407154 -0.011626336 -0.0003860351 0.012281836 0.0025761158 -0.004822252 0.009872738 -0.0005556728

hiden_layers.1.weight f4 [64, 64]
00000000: 2ceb 613e 629e dc3d f695 d83d b50c 633d
00000010: b8e9 cdbc 0eea 283c 32e8 493e ddf3 2dbe
00000020: 4923 cf3d c039 0c3b 73a0 bfbd 28d1 29bd
00000030: 0378 75be c071 2d3e d59d 83bd 20b0 123e
00000040: ad13 f73d d0f3 17bd 7256 d03d beda 323e
00000050: d47b 02be 53b0 04be e27e cbbd 27ed d7bc
00000060: e4d7 85bd 1226 40be 2371 ed3c b6c8 113e
00000070: 0d03 0f3e 91b7 ecbd c259 4b3e 14b0 1dbe
00000080: 88a1 f0bd 6cd0 78be b12c c7bc 5468 9fbc
00000090: 3c97 19be 89dc f93c d4db 043e cac5 003d
000000a0: 38a9 503e 3ebc 84bc 9e2a 5f3c 251c 683d
000000b0: d65f 2b3e cd1c 1a3e e07e 82bb 0bd2 c63c
000000c0: 4c57 373d 9987 9d3b 7193 a2bc e7d5 27be
000000d0: a18b 32be 331f 393e 158f 84bd 036c 01bd
000000e0: c4ec 1f3e 9da4 40be 04b4 c4bd 9501 22bc
000000f0: 88f8 2abe 47de e53d cbd8 053e c573 82bd
00000100: 3f52 0c3e 081a a33c a628 603e b2f3 09be
00000110: d904 babc fe31 1bbe 5741 453e 89ce 2e3d
00000120: a544 f73d adae f43a 3018 933e 57c2 473d
00000130: 3918 49bd 38f5 533e 0541 e6bd d8e9 fd3d
00000140: 9755 f8bd 02ec 463e 9a75 80be 2878 413e
00000150: ea14 e23c e61f 08bc cb01 a3bd 7358 84be
00000160: b1d1 9cbc e9b0 e23d 2425 a6bd dec7 8abd
00000170: 31a9 14be 1732 03be 6247 5e3d 7b22 ce3d
00000180: 89ab 3f3e 8503 233c 735a 483e 52a7 793d
00000190: f725 43be b9bc fa3e 0177 5c3d 1ff4 a93d
000001a0: 5f1e 373e 301b 083e 2ed5 13bc aca5 2ebe
000001b0: ae30 ef3d 44f5 4a3e 62df 883d afb6 cdbd
000001c0: c49d 5e3e f9b6 05be 9393 56bd 5e9b 1a3b
000001d0: 611d 433e d044 203e 8dd7 19bd 66e9 8abe
000001e0: ac67 74bd 053c 763e f455 823e b724 4c3e
000001f0: c221 08be 4f45 213e 436d 253e cc52 0cbe
00000200: 718d b93d e60c 62bd e28b 2bbd d3a0 33bd
00000210: 5733 eb3d aee8 d4bd b113 2d3e 0868 0a3e
00000220: 5404 563e d161 353e fd44 893e fac8 bbbc
00000230: 244a 4cbe 72a8 11be b570 a7bd 3172 303e
00000240: a093 0c3d fb4a e8bd d927 513e 6b8d a7bd
00000250: 68e7 1dbe 5c8e 193e 09b4 ee3d 63d5 91bc
00000260: afc1 05bd 7804 0abd 0c3a 27bd cb63 acbd
00000270: d474 c1bd 59f9 20be 3e89 d73d 1d66 503e
00000280: 9407 633e f616 6d3c 4ccb 383d 6ce0 4ebe
00000290: b555 5b3e b29c 54be a44a 3dbe 3ef0 66be
000002a0: 8d0d 4b3e 6fbf 3c3e d9b1 2fbc 42b0 bf3d
000002b0: 1fe1 e6bb 81c5 773e 6bd0 54bd 6dce 313e
000002c0: 438d 273e 4883 643e 2110 bf3d b18d 7bbc
000002d0: f9fc e53c ecde d73d a60a 253e 9dfe 12be
000002e0: a2ba 0abe 319d 7f3d 5151 ff3c 969b 10be
000002f0: 959a fcbd 7ee9 a2bd a8c1 653e 9407 71be
00000300: b716 71be aba6 893d 55df 8dbd 9180 46be
00000310: 331e 56bd fd46 93bd 969e 0ebe 6ef7 1f3e
00000320: 04eb e3bd 31e2 073e 195c bbbd acbf 63be
00000330: 6585 543e f94d ee3d 193c f23d 5e90 fbbd
00000340: b664 7c3e 5f4b 0dbd f396 ad3d 27f5 b9bd
00000350: 28e6 b3bd d587 7b3c 953c 94bd bf0f 843e
00000360: 42ac f4bd 219b 97bd 287b a8bd 7f37 68bc
00000370: bee1 93bd 49b6 323e 39f9 13be f76f 783d
00000380: 08b3 443d 0049 163e 5b25 ca3d 6aaa 10bb
00000390: 1ae9 acbd e9b2 69be d781 ad3c 4fc8 1c3e
000003a0: 70b4 f93c 37e3 e6bd 3779 423c 0718 523d
000003b0: b959 a4bd 95a8 aabd 80ca 65bd 6ec0 d33d
000003c0: 612b 5d3e 8ef2 b5bc 4afb ff3c 1ee9 a63e
000003d0: d89c 0d3e 46c0 e4bb f7e6 20bc e7bd fc3d
000003e0: 9cce c53d 5c1e 093e 0ef2 de3d 8d42 9c3d
000003f0: 85a9 f83d 0c4d 4d3d 580a ab3c 8907 79be
0.22062367 0.107723966 0.10575478 0.05543204 -0.02513586 0.010309709 0.19717482 -0.16987558
0.10114152 0.0021396726 -0.09356775 -0.041459233 -0.23971562 0.16937923 -0.064265884 0.14324999
0.120643 -0.037097752 0.10172738 0.17466256 -0.12742549 -0.12957887 -0.0993631 -0.0263582
-0.065353185 -0.18764523 0.028984612 0.14236721 0.13966008 -0.1155845 0.19858459 -0.153992
-0.1174956 -0.24298257 -0.024313303 -0.019458927 -0.14999098 0.030500667 0.12974483 0.031438626
0.20377052 -0.016203042 0.013621001 0.056667466 0.16735777 0.15050049 -0.00398241 0.024270078
0.044760987 0.0048074243 -0.019845696 -0.16390191 -0.17436077 0.18078308 -0.06472603 -0.03159715
0.15617663 -0.18812795 -0.09604648 -0.0098880725 -0.1669637 0.11224037 0.13070981 -0.063697375
0.1370325 0.019909874 0.21890506 -0.13471869 -0.02270739 -0.1515579 0.19263206 0.042677436
0.1207364 0.001866778 0.2872939 0.04876932 -0.049095366 0.20699012 -0.1124287 0.12398118
-0.121257 0.19425967 -0.25089723 0.18893492 0.027597863 -0.008308386 -0.07959326 -0.2584873
-0.019142957 0.11068899 -0.08112553 -0.06776403 -0.14517666 -0.12812077 0.054267295 0.100651704
0.18717779 0.00994957 0.19565754 0.060950585 -0.19057451 0.4897211 0.05382443 0.082985155
0.1788268 0.13291621 -0.009022994 -0.17055386 0.11679207 0.19820124 0.06683232 -0.1004461
0.2173987 -0.1305808 -0.05238683 0.0023591141 0.19054176 0.1565125 -0.03755908 -0.27131194
-0.05966918 0.24046333 0.25456202 0.1993588 -0.13294128 0.15749095 0.16154961 -0.1370346
0.09060181 -0.055188082 -0.04188145 -0.043854546 0.11484402 -0.10395943 0.16902043 0.13516247
0.20900089 0.17713095 0.26810446 -0.022922982 -0.19950157 -0.14224413 -0.08175794 0.1723106
0.034320474 -0.113424264 0.20425357 -0.0818127 -0.15420306 0.14995712 0.11655433 -0.017801946
-0.032655414 -0.033695668 -0.040826842 -0.084174715 -0.09446111 -0.15720119 0.10524224 0.20351453
0.2217086 0.014470806 0.045115754 -0.20202798 0.21419413 -0.207629 -0.18485504 -0.22552583
0.19829388 0.18432401 -0.0107235545 0.093597904 -0.0070458795 0.24196436 -0.051956575 0.17363901
0.16362481 0.22315705 0.09329248 -0.015353606 0.028074728 0.10540566 0.16117343 -0.1435494
-0.13547757 0.06240577 0.031166704 -0.14121851 -0.12334172 -0.07954691 0.22437155 -0.23538047
-0.23543821 0.067212425 -0.06927363 -0.19384982 -0.052274894 -0.07191274 -0.13927683 0.1562173
-0.1112881 0.13269879 -0.091484256 -0.22241086 0.20754011 0.11635966 0.11827869 -0.12283395
0.24647793 -0.034495708 0.08476057 -0.09079962 -0.08784133 0.015352209 -0.072381176 0.25793263
-0.11946918 -0.07402635 -0.08226615 -0.014173388 -0.07220791 0.17452349 -0.1445054 0.060653653
0.0480223 0.14676285 0.09870406 -0.002207423 -0.08442898 -0.22822155 0.021180077 0.15310787
0.030481547 -0.112738065 0.01186972 0.051292446 -0.08024926 -0.08332936 -0.056101322 0.103394374
0.21598579 -0.022210386 0.031247754 0.3259973 0.13829362 -0.0069809286 -0.009820691 0.123409085
0.09658548 0.13390487 0.10886012 0.07629881 0.12141708 0.050122306 0.020878956 -0.2431928

hiden_layers.1.bias f4 [64]
00000000: 252a 703b 2a3e 7b3c a4aa 823c c554 e8bb
00000010: ae5f f2bb 9afd ccbb 849e 0bbc 8196 1aba
00000020: c9a7 283c 0ccd 25bc cdcc 80bc 25a4 d93b
00000030: b66e 703c 4508 043c 7e43 44bb 8cec e63c
00000040: a79b eeb8 26b9 d7bb 926e 423c 78f7 143c
00000050: c9a0 68bc 6523 14bc 52c9 c3bb 5802 593c
00000060: e9f6 a73b 16a9 153c ba99 48bb 6a38 723b
00000070: f4ac bc3b b20c e0ba 56fe 293a 8f6e 4dbd
00000080: a919 2f39 be0d 4bbc e31d 3abb e781 14bc
00000090: 6d36 1ebc d01e 6a3c 58ea 36bc 855e b03d
000000a0: e834 a03a 07a5 03bc 7a28 563b d518 8f3c
000000b0: cb36 893c 5240 69bb eeed 673c 6802 03bc
000000c0: b267 693c 66c0 da3c 688c 0abc 6382 b4bb
000000d0: 4ac4 b5bc 2311 933d a416 68bb ea98 553b
000000e0: 570e c7bb 59ac 44bb 122a e1ba 539b 8a3b
000000f0: 702a 0b3c 1f5c 883a f721 ab3c cdd7 4cbc
0.0036646214 0.015334645 0.015950508 -0.0070901834 -0.00739666 -0.0062558176 -0.00852168 -0.00058970606
0.010293909 -0.010119688 -0.015722657 0.006641882 0.014674833 0.008058612 -0.0029947455 0.028188966
-0.00011377717 -0.0065833507 0.011867182 0.009092204 -0.01419849 -0.009041642 -0.005974927 0.013245188
0.0051258695 0.0091345515 -0.0030609206 0.0036959895 0.0057579223 -0.0017093627 0.00064847374 -0.050154265
0.0001669886 -0.012393413 -0.0028399162 -0.009064174 -0.009656531 0.014289573 -0.01116427 0.08611778
0.0012222799 -0.008034951 0.0032677935 0.017467896 0.01674976 -0.0035591316 0.014155848 -0.007996179
0.014245914 0.02670307 -0.008456327 -0.0055087074 -0.022188324 0.07181003 -0.0035413885 0.0032592365
-0.0060747075 -0.0030009954 -0.0017178676 0.004229942 0.008494005 0.0010403431 0.02089022 -0.012502623

hiden_layers.2.weight f4 [64, 64]
00000000: a8e6 32be 6f55 7cbe 0d5f 31be 667d 5c3e
00000010: 9ba0 3bbe bbaa 17bc 68ee 203e 63c0 3f3e
00000020: 2dd4 7d3e 2fb4 55bd 8369 1fbd 83f9 72be
00000030: 4beb e13b 236d 7a3d 8415 f23d 68f8 36be
00000040: 9f58 3d3e 6449 3e3e 43ca a53d a2da 6cbb
00000050: 1751 4f3b 9a16 60be e088 1ebe 8aae ffbd
00000060: 6824 b6ba 3b71 313e c945 39bd 65e7 e2bc
00000070: 82e5 d6bd 3994 033e 77bc c6bd 5bad a03c
00000080: 5511 583e deb2 9b3d d869 e73d 9902 46bd
00000090: 173d 523e 4ffa 3bbe 1251 01bd ad24 a4bd
000000a0: 3beb c7bd 91e6 52be 78c6 a23d 3c55 ae3d
000000b0: 3536 16bd 7fee f33d c926 533e fecc 4fbe
000000c0: ae7e 45bc a8ac b33d 4c4a af3b feb0 db3d
000000d0: 60fe 04be 4850 403e b2eb 903c 8d54 25be
000000e0: b86c 2d3e c6a5 12be 4fe0 ab3d 40ee e63c
000000f0: 49d4 233e 3da2 f83d 8314 043d 3b6a 0dbd
00000100: 13b6 543d 2d21 92bc b71f 423e 9a4e 47bd
00000110: d514 d9bd 8717 5f3b 7a1c 0f3e c7b4 333e
00000120: 0390 033e 5c3f 383e b2dc 32be 337d 813d
00000130: ada3 703e 74b9 c53b 3893 b1bd f7d0 90ba
00000140: c0d6 06be cbc8 053e f4c4 abbd bdaa 4b3e
00000150: dec2 59be 6936 d13d 4779 73be 4d6c b33e
00000160: 6722 133e a95e 40bd 2f31 62bd aad0 3dbd
00000170: 6f15 8ebd 6b9c db3d 5607 443d 0e94 3dbe
00000180: e3bf 00bd 82a0 32be 32ae 123d 23dd 9dbe
00000190: 6465 3d3e 3855 fe3d a64e b23d 227a b53d
000001a0: 5cca 6bbd c33a 33be b545 8d3b 2d55 ee3d
000001b0: 395c 743e 838a 8d3d b24e 293d 07fd 59be
000001c0: 19fc 1cbe aca2 eb3c 2fb5 00be 2ecc 0ebe
000001d0: 1c5a 03be 6ee1 27be 401c 593e 4022 9dbd
000001e0: 19ee 9fbe 40e3 c83d e1d2 a33c 6052 dfbd
000001f0: e002 6f3e f864 0ebe 2701 0fbd 8983 eabd
00000200: d16e 53be f228 0a3e 8557 2fbd ec3f 673d
00000210: 8096 02bd 6482 893d 6d48 103e dd3f 073e
00000220: 6051 283e e3eb 1cbd e372 b3bc 118c 1b3e
00000230: 1cbc 053e 0dd1 aebb aa9b 5ebd 697a 11bd
00000240: fe9c 06be 79d9 66be 49ef f0bd 66a6 023e
00000250: 0f32 0bbe 6ba4 c93d 16e7 12be 72a3 3d3e
00000260: 7eca 483e f63c 383e 64e3 ddbd edb8 5d3e
00000270: d49f 063e 4d74 58be 2193 133e 4543 3dbd
00000280: a376 0f3e 22c9 033e 9759 bbbd 3b5f 9cbd
00000290: cce5 653d 9d74 cb3d 7f4d 963e fe41 793c
000002a0: d7fa d8bd ae44 a7bd e329 803d fdfe 523e
000002b0: 7eb1 5b3c 256a d33d 354b 0cbe c118 32be
000002c0: a6dc cebd 50c2 9a3d dfae 72be ef83 17be
000002d0: 476f 1e3d 7ea4 883c 88f3 dcbd d0cd 003d
000002e0: 939a 623d 71cb 193e 0d2c c4bd f02c 343d
000002f0: 3bb0 ec3d cb6e 3fbe 236c a93d 124d 60be
00000300: 2ace 5dbd d28e 2b3e 0d90 b7bd c285 b6bc
00000310: d47e 373e 6eca 113e c91c 33be 3279 e83c
00000320: e033 2a3e c0fa 093c 0615 3abe ea08 073e
00000330: 4b60 4abe 3f08 febd e80b 0fbe 37af e0bc
00000340: 84b4 643e 8ac3 b4bd f70b edbd c94d 243e
00000350: bbc0 50bd afa1 fdbd a89f efbc 8e35 23ba
00000360: fbc7 6fbe 0309 34be a469 60be 291b 213e
00000370: eb68 0cbe 3fcf 1abe e272 20be 7041 82bd
00000380: b488 393c 28fa 58bd 8531 53be fe4d ffbd
00000390: 9671 ca3c b5e5 773e cb8b 1c3d a4cd 15be
000003a0: 7f7b 92bd 1e25 203e eaa8 d33d ce7d 0a3e
000003b0: f1ec 3ebe 9c99 45be 446c 5cbe 1e61 ed3d
000003c0: 3ced 013e 7594 38be 3214 7e3d ceb5 26bd
000003d0: 58ca 003e 4e57 343e 9306 52be 3977 21be
000003e0: 30e4 d13d af18 4abe 68fb 46be 8607 d1bd
000003f0: ab9f 6b3d ec1d 143e 2d7a f33d b9cd 9ebd
-0.17470801 -0.24641965 -0.17321415 0.2153221 -0.18322985 -0.009257014 0.15715945 0.18725733
0.2478797 -0.05217379 -0.038918983 -0.23727994 0.006894504 0.061139237 0.1182051 -0.17868197
0.18490838 0.18582684 0.08095219 -0.0036141057 0.0031634027 -0.21883622 -0.15481901 -0.124844626
-0.0013896348 0.1732835 -0.045232568 -0.027698228 -0.10492994 0.12849511 -0.097039156 0.019613912
0.21100362 0.076024756 0.11299485 -0.04834232 0.20531116 -0.18357204 -0.031571455 -0.08014808
-0.097616635 -0.20595767 0.07948011 0.08512351 -0.03667279 0.11910724 0.20620264 -0.20293042
-0.012054129 0.08773166 0.005349433 0.10727118 -0.12987661 0.18780625 0.017690513 -0.16145535
0.16936004 -0.1432105 0.08392393 0.028189778 0.15998949 0.121403195 0.032246124 -0.034525137
0.051931452 -0.017838085 0.18957411 -0.048658945 -0.105996765 0.0034041123 0.13975707 0.1754943
0.12847905 0.1799292 -0.17467001 0.06322708 0.23499937 0.0060340706 -0.08670658 -0.0011048605
-0.13167858 0.13064878 -0.08387175 0.1988935 -0.21265742 0.10215456 -0.23776732 0.35043564
0.14368592 -0.046965275 -0.055222686 -0.046341576 -0.06937682 0.10723194 0.04785856 -0.1851351
-0.031432997 -0.17444041 0.035810657 -0.30832776 0.18495709 0.12418598 0.08706407 0.088611856
-0.05756603 -0.17502885 0.0043112882 0.1163734 0.23863305 0.06911185 0.041334815 -0.21287929
-0.15330543 0.028764091 -0.12569116 -0.13945076 -0.12827343 -0.16394588 0.21202183 -0.07672548
-0.31236342 0.098089695 0.019998016 -0.10904384 0.2334094 -0.13905704 -0.03491321 -0.114508696
-0.20647742 0.13492182 -0.042808075 0.056457445 -0.03188181 0.06714323 0.14090128 0.13207956
0.16437292 -0.038310897 -0.021905368 0.1519015 0.1306004 -0.0053349794 -0.05434767 -0.03551713
-0.13145825 -0.22543897 -0.1176439 0.12758788 -0.13593315 0.09845813 -0.14345965 0.1851938
0.19608495 0.17992005 -0.10834387 0.21652575 0.13146907 -0.21138115 0.14411594 -0.04620673
0.140101 0.12869695 -0.09147947 -0.07635351 0.056127355 0.099343516 0.29356 0.015213488
-0.10594719 -0.081673965 0.06257989 0.20605083 0.013409017 0.1032298 -0.13700564 -0.17392255
-0.10100679 0.075565934 -0.2369952 -0.14796422 0.03868034 0.016679998 -0.107886374 0.031446278
0.055323195 0.15019013 -0.095787145 0.04398817 0.11557051 -0.18694608 0.082725786 -0.219044
-0.05415169 0.167537 -0.089630224 -0.022280578 0.17919475 0.14237377 -0.1749145 0.028378103
0.16621351 0.0084216 -0.18172082 0.13186994 -0.19763295 -0.124039166 -0.13969386 -0.027427299
0.22334486 -0.088263586 -0.11574548 0.16045298 -0.050965052 -0.12384354 -0.029250935 -0.0006225937
-0.2341613 -0.17581563 -0.21915299 0.15733017 -0.13711898 -0.1511812 -0.15668824 -0.063601375
0.0113240965 -0.052972943 -0.20624359 -0.12466048 0.024712365 0.2420872 0.038219254 -0.14629227
-0.07152461 0.15639159 0.10334952 0.13524553 -0.18645073 -0.19296879 -0.21525675 0.11590789
0.12688154 -0.18025382 0.06203098 -0.040700726 0.12577188 0.17611429 -0.2051032 -0.15768136
0.102486014 -0.19735979 -0.19431841 -0.10206513 0.057525318 0.1446454 0.118885376 -0.07754082

hiden_layers.2.bias f4 [64]
00000000: 874c 20bc 8a71 bfbb 3518 843c 7b21 94bb
00000010: 0916 31ba 1287 5b3c 7711 883c e4de b9bc
00000020: dc38 5d3c 89c8 453a a853 ddbc 620f 47bb
00000030: a645 a3bc 4bf7 243c 8273 103d f1a5 343b
00000040: 2eb2 cfbb 489f 44bb e8d0 613c 63f6 4abc
00000050: 3f74 febc 7231 62bc 4c92 d0bc a062 1a3c
00000060: 928f 5b3b 468b e23b 975e 723c c227 8b3b
00000070: 09c8 1e3b 6dca c1bb 1376 a03b 4d6a 42bc
00000080: 534a 4fb8 33f0 f13a 3dc1 953b 392f e53b
00000090: abd2 8cbd d4b9 05bd 6b5f 4d3d a3e4 24bc
000000a0: 89bb 6bbb 3eb1 003c 2752 4c3c 9722 2b3b
000000b0: 6f0d 553b 00e0 283c 8c2e 0dbc e7e4 b43c
000000c0: 57d2 1bbc e80b 6cbb a518 1bbd 01ac d53c
000000d0: 0a54 ce3b 1c8e 08bb 89db 9fba 415d 40bc
000000e0: c00f 0d3c 124d e03b 9d85 a13c b3ce bb3c
000000f0: 5656 13bc cdb4 3b3c 4535 58bc ccf9 fa3b
-0.009783871 -0.0058423923 0.016124824 -0.0045205927 -0.00067552977 0.0133989025 0.01660989 -0.02268929
0.013502326 0.00075448357 -0.02701743 -0.003037416 -0.019930672 0.010068725 0.035266407 0.002756473
-0.0063383793 -0.0030002166 0.013782717 -0.012387845 -0.03106129 -0.013805734 -0.025460385 0.009422928
0.0033502323 0.0069135753 0.01479306 0.004246683 0.0024228117 -0.0059140236 0.004896888 -0.011866164
-4.9421866e-05 0.0018458426 0.004570155 0.006994155 -0.06876119 -0.032647923 0.050139826 -0.010064277
-0.0035969934 0.007854758 0.0124707585 0.0026113146 0.0032509228 0.010307312 -0.008617055 0.022081805
-0.009510598 -0.003601784 -0.0378653 0.026082994 0.0062966393 -0.0020836657 -0.0012196164 -0.011740983
0.008609712 0.006845125 0.019717032 0.02292571 -0.008992752 0.0114566805 -0.013196294 0.0076591726

hiden_layers.3.weight f4 [64, 64]
00000000: 1391 55be ff9e 48be cf0d 5bbe 0a24 c63d
00000010: 6eeb 873d d355 5ebe 63ae 18be adbd 343e
00000020: a9c8 013e 93b6 153e 71e6 9f3d 3629 08bc
00000030: 53bd 1d3c ab92 4b3e 0474 253d e248 733d
00000040: a4c2 01be f84b a8bc d46c 703d 26b0 45be
00000050: aa57 51bd cca0 acbd 806f abbd b7f4 443e
00000060: d18d dfbc e53f d5bd 794f 80bd d4d0 abba
00000070: 4fe4 92bd c208 bcbc eb85 8e3d 2d24 2fbd
00000080: ac09 84be 71f6 b13d 5e44 ac3d c5c1 153e
00000090: 8174 353e 7985 663e fe7b 0ebd 52cf 17be
000000a0: 00c0 d8bd 50d4 1cbe fe57 1a3e ff5e 353e
000000b0: 3298 633d 6a6a abbc 6be2 3d3e 2571 853d
000000c0: 8cab b93c e1f0 fcbd 265d 103d 3c62 3bbe
000000d0: 10d6 a73d d047 e6bc a573 f63c 32e9 b6bd
000000e0: 5754 de3d a1b1 23be 704d 5f3d 19a5 323e
000000f0: 3940 923c cd1c 2f3e 3134 f53d ade8 57be
00000100: 099b f5bd ac7c babd 9cf0 373e b3a1 0fbe
00000110: 2d95 3d3e 6fb1 2e3e 1bb3 13bd 50fd d53d
00000120: c4af 313e 797a 5b3e 1bc8 52be 562b 38bc
00000130: cf6a 86bc d1b2 4c3e 8df6 233e b8a6 0abe
00000140: caf5 34be c952 6cbc 12e9 40be 5ea2 25be
00000150: e658 e4bd 9ebc 8b3d 02ee 673d b52f 273e
00000160: cc53 483e 9b52 cc3d 3591 e2bd 94e7 053e
00000170: c096 6abe f3f4 0d3e df91 2dbd aaa0 18be
00000180: c730 61bc bfef 133e ec05 533e 47d8 ac3d
00000190: bf53 603e bf03 0ebc 40c0 1fbe eb5e 89bd
000001a0: b912 40be 6166 3abe d69e b33b 1702 16be
000001b0: 8a16 823c de4c c13c 5259 9a3d 7bc8 3b3e
000001c0: 6c21 203d bdc5 1f3e ef18 df3d e3f1 1b3e
000001d0: a307 6d3e 4857 b33b 1fd3 9cbd 8847 37be
000001e0: d903 6c3e 2ff8 183e 5346 bebc d17f 213e
000001f0: fdc6 183e 6bec 9c3d 981f 273e 1304 4a3e
00000200: 02b6 3fbd 42fc 0bbe d42e 1e3d 2e12 713e
00000210: 22c0 b1bc 6f1d 7cbd d55f 14bd fad2 f4bc
00000220: e9a3 5bbe bfd2 f0bd 3ff7 04bd a793 80bd
00000230: 6e90 3bbd 0755 433e d045 0dbe ccd9 d73c
00000240: b1d6 4f3b 414a cabb 731e 523d 5a11 e5bd
00000250: 2418 93be 3f76 0dbe 4cc1 1bbe 2e5b 3c3e
00000260: a7e9 9c3d 1bb3 bfbd ddf3 2d3e e4c1 073d
00000270: 181b a83d 5654 f7bd a01b 943d a001 273e
00000280: b567 b9bc e849 dc3d d0b1 ddbd 0e9d fd3c
00000290: 2e5f 423d 0357 fabd 31ab 2f3e 8309 273e
000002a0: fd5f 6ebe 22e4 443d 0a4d 883e 61f8 01be
000002b0: af86 f73d 6883 213e e75e 4d3e 6120 cdbd
000002c0: b5d1 53be 4490 3fbe ef08 2d3e c28f e03c
000002d0: 9470 363e 6e59 26be bf46 773d 5cdb 7e3d
000002e0: 6e39 35bd 7f5d 1c3e 87ac ffbc 27bc 8c3c
000002f0: 5bf0 ec3d 320b 233e 666b 65be ce98 46be
00000300: b080 dc3d 8f2e 213d 9499 053d 7b00 4cbe
00000310: 0281 34be 0743 553e 3ce7 683d a295 3b3e
00000320: d77a 143e a63e c4bd a489 713d 6cc4 7c3d
00000330: 896a bd3d 7996 ef3d 16ef ffbd a3fd 253d
00000340: d286 16be 32f6 5fbe 301b a63d be3d eebd
00000350: 2901 e6bc dd96 3c3e 4c25 d13c 327f 1e3d
00000360: ad4d 203e 0892 60be 89ce f23d 02b3 b43b
00000370: 0975 2d3d 1524 1fbd fd17 6cba e543 ed3c
00000380: af49 ae3d 50b8 d83c e9dd 88bd 73c6 513c
00000390: 50d8 593e db07 713e ed74 453e 59df f9bd
000003a0: 0b3b a03d 58f6 723e 4dc0 cebc f820 4f3c
000003b0: c5b9 8a3d f3c8 093e 2126 243d 8fd5 6ebe
000003c0: 0bbe 0abe f680 0abb eb11 34be 0539 8e3e
000003d0: 885e 1cbe 8ba4 1abe 25bb 3e3e 10d6 5f3e
000003e0: 7f86 853d d5f1 2abe 03b8 01be 3b87 393d
000003f0: e3af b13d ed11 763e 37da 2cbe d5b3 dd3d
-0.20856123 -0.19591902 -0.21391986 0.09674843 0.066367015 -0.21712427 -0.14910273 0.1765048
0.12674202 0.14620428 0.07807625 -0.008310607 0.009627658 0.19880168 0.040393844 0.05939568
-0.12671906 -0.020544037 0.058697537 -0.19305477 -0.051108994 -0.08429107 -0.08370876 0.19233976
-0.027289303 -0.104125775 -0.06265158 -0.00131085 -0.07172453 -0.022953395 0.069591366 -0.04275911
-0.2578863 0.08689583 0.084114775 0.14624698 0.17720224 0.22511853 -0.034786217 -0.1482518
-0.10583496 -0.15315366 0.15072629 0.1771202 0.055565067 -0.020924766 0.18543403 0.06515721
0.022664808 -0.123506315 0.035245083 -0.18299192 0.08195126 -0.028110415 0.03008444 -0.08931197
0.1085593 -0.15985729 0.05451721 0.17445792 0.01785289 0.1710083 0.11972845 -0.21084853
-0.11992461 -0.091058105 0.17962879 -0.14026527 0.18513937 0.17059873 -0.03605948 0.10448706
0.17352206 0.21433438 -0.20584147 -0.011240801 -0.016408352 0.19990088 0.1601202 -0.1354016
-0.17671886 -0.014424034 -0.1883891 -0.1617522 -0.111497685 0.06823085 0.056623466 0.16326793
0.19563216 0.09976693 -0.11062852 0.13076621 -0.22909069 0.13862972 -0.04237544 -0.14905038
-0.01374454 0.14446925 0.20607728 0.08439689 0.21906947 -0.008667885 -0.15600681 -0.06707557
-0.18757142 -0.18203117 0.005481581 -0.14649235 0.015879888 0.023596223 0.07536568 0.18338196
0.039094374 0.15602775 0.108934276 0.15228991 0.23147444 0.005473051 -0.07657456 -0.17898381
0.23048343 0.14938425 -0.023226893 0.15771414 0.14919658 0.07662281 0.16320646 0.19728117
-0.046804436 -0.13670447 0.038618878 0.23542091 -0.021698061 -0.061551508 -0.036224205 -0.029885758
-0.21449246 -0.117589466 -0.032462355 -0.062781624 -0.045792036 0.19075404 -0.13796163 0.02634897
0.003171366 -0.0061734025 0.05129857 -0.1118495 -0.28729355 -0.13814639 -0.15210456 0.18394157
0.07661753 -0.093603335 0.16987558 0.033143893 0.08208293 -0.12076633 0.072318316 0.16309214
-0.02263246 0.10756284 -0.10824931 0.030958679 0.04745405 -0.122236274 0.17155148 0.16312222
-0.23278804 0.048069127 0.26621276 -0.12692405 0.12086236 0.15772784 0.20055734 -0.100159414
-0.20685466 -0.18707377 0.16897939 0.027412299 0.17816383 -0.16245052 0.060370203 0.062220916
-0.044244222 0.15270041 -0.031210197 0.017179562 0.11569282 0.1592224 -0.2240425 -0.19394228
0.10766733 0.039351042 0.032617167 -0.19922058 -0.17627338 0.2082635 0.056861147 0.18318799
0.14499985 -0.09582262 0.058969155 0.06171076 0.092488356 0.11698622 -0.12496774 0.04052509
-0.14699867 -0.2187126 0.08110654 -0.1163287 -0.028076725 0.18416925 0.02553048 0.03869552
0.15654631 -0.21930707 0.118558 0.0055145035 0.04234794 -0.03885277 -0.000900626 0.028963039
0.08510148 0.026455075 -0.06682951 0.012803662 0.21273923 0.23538153 0.19282885 -0.12200803
0.078237616 0.23726785 -0.02523818 0.012642138 0.06773714 0.13455562 0.040075425 -0.23323654
-0.13549058 -0.0021133996 -0.1758496 0.27777877 -0.15270436 -0.1510183 0.18626077 0.21859002
0.06519794 -0.16693814 -0.12667851 0.04529498 0.08676126 0.24030276 -0.16880117 0.10825316

hiden_layers.3.bias f4 [64]
00000000: 6555 5ebc 5ccd 313c d395 e0b9 ca8d bdbc
00000010: d973 79bb 358d 67ba 284c e3bc 1d69 b0bb
00000020: 2cb5 c8bb a7d1 8cb9 62ff e63b 4774 b3bb
00000030: eadf e9bc 4fd4 d53b 3d1d ef3b 14e8 84ba
00000040: 0cbf bfbc 5639 9ebc 8d43 0f3d 1561 d23c
00000050: f1c9 db3b b33e e7bb 98d0 2b3d a0c3 e13a
00000060: b8e0 6a3c 5e37 123d 1823 ea3a c419 843b
00000070: f83f 2b3c 343f 443c 9b3e 273c cd50 f5bc
00000080: ccb0 f03b cb80 a03c 6b8f c6bc 4c7e b43d
00000090: 1280 563a 559e 143d 0249 853c a4ba a1bc
000000a0: 5cbc 4ebc ac6f 6abc 7cdb d1bb 9236 29bc
000000b0: 4870 5f3b 520b 27bc 29f1 d9bb 8e33 ae3b
000000c0: c88c 003d c155 143d 001f 2cbd ee68 58bb
000000d0: 9a66 8d3b ce1a a8bc 74bd 5abc 8a4c bd3c
000000e0: e834 2d3d 3341 5abc b150 bebb 7ae6 cb3c
000000f0: de53 a4bb 76e6 223c ea49 3abc 1b25 d6b9
-0.013570164 0.010852184 -0.00042836237 -0.0231389 -0.0038063435 -0.0008832992 -0.027746275 -0.005383624
-0.006125113 -0.00026859084 0.007049487 -0.005476508 -0.028549153 0.0065255533 0.0072971866 -0.0010139965
-0.023406528 -0.01931445 0.03497653 0.025681058 0.006707423 -0.007057035 0.041946977 0.0017224438
0.014335804 0.035697334 0.0017863242 0.004031392 0.010452263 0.011977959 0.010207797 -0.029945755
0.0073452946 0.019592663 -0.024238309 0.08813152 0.0008182536 0.03628381 0.016270164 -0.019742317
-0.012618151 -0.014308851 -0.0064043384 -0.010327952 0.0034094024 -0.01019557 -0.006651063 0.0053162044
0.03138426 0.036214594 -0.04202175 -0.0033021527 0.0043152096 -0.020520594 -0.013350833 0.023107786
0.042286783 -0.013321209 -0.005807959 0.024890173 -0.0050148806 0.0099426415 -0.011370162 -0.00040844906

hiden_layers.4.weight f4 [64, 64]
00000000: 3568 efbd 3136 49be 2977 0d3d 0ade 21be
00000010: 46bd 18be d672 00be 6ffe 6abe bc1f 86be
00000020: ff97 1bbe a13d eabd 3685 95bc 35ef 323e
00000030: bd1d 72bc 1ee1 33be 5c47 3c3e 9f76 aa3d
00000040: 5d88 ffbd f7f8 21be d9bd f03d d9b6 7d3e
00000050: 31a9 d53a 8942 593e 524f 253e c5f6 0d3e
00000060: b3a7 0a3e ca1b c2bc 9f65 da3d 1548 da3b
00000070: 9862 23be 3aa1 3b3e 34bc 00be bc96 643e
00000080: 9792 5fbe f238 0abe 2524 a0bd d867 d0bc
00000090: 8513 83be 73a9 af3d 3b14 85bd 307d 463e
000000a0: 8fa0 5f3e d276 38be c4cc 713e 5ea4 89bd
000000b0: df8b 113e 3347 613e c240 f43d b6be 573e
000000c0: 299b 13be bad6 50bd 1ada 413e 033f 73be
000000d0: 74db 633e 2e66 a5bd 22e4 8dbe e3e6 6fbe
000000e0: 6570 4bbd 7b2b 493d f68f b23d fca6 623e
000000f0: 5a70 303c 6b30 11be ab04 cebd 7a36 8c3e
00000100: 819f 323e e909 0cbe bde7 5e3e 8cdf a53d
00000110: a629 453d bf14 5cbe a9e1 81bd e1aa d6bd
00000120: 9bf3 253e 5790 303e b92d 023e a09c ec3c
00000130: f2c7 cd3d e022 fb3b fe8d c83d 9a4e 233d
00000140: f4bc b1bd c215 cebd c94f a23d 6eaf 0dbd
00000150: df04 37be f78a ccbd bcda 873e b7ec ecbd
00000160: 20ea a63d 3898 debd ddff 3bbe cc4a 833d
00000170: 22ee f6bd e6f5 923c 0cb3 af3d babd 2fbe
00000180: 2fbc 113e a888 20be acdc f0bd 891c e53e
00000190: 5c3c 533e 4079 f03d 0ee0 c93a 0ada 4c3d
000001a0: bef6 063d 5dab 593e 2c6f 533e 3568 423e
000001b0: e755 1fbe 4121 a53d 8091 4ebe 5430 af3d
000001c0: c418 11be f228 d6bd da17 42bd 0b29 b3bd
000001d0: f388 82be 4ff8 c4bc cde0 df3d 9b54 08be
000001e0: 4624 e5bd 49a9 39be 0f85 8e3d 92fd d1bb
000001f0: efb1 c7bd 6972 863c cb4b cabd 1de0 a53d
00000200: 18c2 40be 0907 d7bd b8e8 2bbd 13a5 cfbb
00000210: 405c 183e 8f04 813d bebd 3bbe 685b 8cbd
00000220: 9d34 103e 07d3 aa3d 4b2c 553e f9c0 5dbe
00000230: 6b0c ef3d 0992 c63d 7ff3 4bbe 89be 7a3d
00000240: 5278 6bbe 89c3 de3c 286a 43be 6100 80bd
00000250: e6c2 333e 5400 e1bd 7d19 5fbe 2e69 03bd
00000260: 3a78 6a3d 86d0 0d3e a04f f4bd 49dc 243e
00000270: 0ce1 d13c 22fa b13d 1279 c63d 3b43 04bd
00000280: ae7f 93bd d3bf af3d e4f0 e23b fc95 3a3c
00000290: 7cdb 2c3e fef3 e1bd 3392 923d 583d 923d
000002a0: 89f8 52bc cc82 873d 7f7d 80bd 98c6 9fbc
000002b0: d744 663d f188 5ebd 138c 31be a9cb 84be
000002c0: 8c9a 233e 40cb 693e 5bf6 38be 4e9c db3d
000002d0: 2181 1ebd 4981 163e 5966 503e 1ecd f73c
000002e0: aa30 483e 37d4 933c 9198 3e3e 27ca fa3b
000002f0: ca0d c2bd a4ef 3abe 653e 32be 7ea1 ecbd
00000300: 6ad2 7d3e e399 423e f9b5 afbd ad7f 0b3e
00000310: 94bf 483e 5b89 32be cf99 12be 1d24 12bc
00000320: c9d3 1dbe 8151 8ebd 861f 88be 28c4 e3bd
00000330: 3f07 813d 555b c83c 6a55 57bd 9666 273e
00000340: a25a 823e 85d6 ccbc 2e1f 9fbd c9f6 9bbd
00000350: bf15 12be 2c9e c2bd aad2 1ebe 0388 3a3d
00000360: 9023 4f3d d16d e2bd d899 4dbe c22e 39bd
00000370: 4267 9f3b 65b8 16be 343c 3bbe d9ae d8bd
00000380: 4690 13bd e3ee 75be 5ded 053e d7bc 28be
00000390: 977c 2abe 8626 363e 67b6 56be bcc6 51be
000003a0: 2fc8 f63d 5e2a 2b3d d38e 2c3e 4cf7 313e
000003b0: f0d0 873d 111e 7a3e 82f4 43be 4cbb e9bd
000003c0: b4d9 1cbe 7ca0 6ebe c673 14bc 69f6 2dbe
000003d0: 4f0a c239 417f 993c 05a4 94be 887c 293e
000003e0: 7974 6dbe 1e0a 46be 5132 edbd a2b1 4fbe
000003f0: 3c28 0bbe f6f9 8abd 1aa4 2ebd 4ac6 a2bc
-0.11689798 -0.19649579 0.034537468 -0.15807357 -0.14915952 -0.12543806 -0.22948621 -0.26196086
-0.151947 -0.11437536 -0.018251996 0.17474063 -0.014777598 -0.17566344 0.18386596 0.083234064
-0.12477181 -0.15817629 0.117549606 0.24776782 0.0016301033 0.21216787 0.1614354 0.13863666
0.13540535 -0.023694891 0.10663914 0.006661425 -0.1595558 0.18323222 -0.12571794 0.22323126
-0.21833263 -0.13498285 -0.07819394 -0.025440142 -0.2560083 0.08577242 -0.06497999 0.19383693
0.21838592 -0.18014076 0.23613268 -0.06720804 0.14213513 0.21999817 0.11926414 0.21068844
-0.14414658 -0.05098603 0.18930855 -0.23754506 0.22251683 -0.0807613 -0.27713114 -0.2342792
-0.049667735 0.04911373 0.087188646 0.22134012 0.010768974 -0.14178626 -0.10059484 0.27385312
0.17443658 -0.13675655 0.21768089 0.08099279 0.048135422 -0.21492289 -0.063418694 -0.10481811
0.1620621 0.17242561 0.12712754 0.028883278 0.10047902 0.0076640695 0.09792708 0.039869882
-0.08678618 -0.10062744 0.07925374 -0.03459113 -0.17872952 -0.09987443 0.2653407 -0.11568587
0.081501245 -0.10868877 -0.18359323 0.06410751 -0.12057139 0.01793952 0.08579072 -0.17162219
0.14231943 -0.1567713 -0.1176084 0.44748333 0.20628494 0.117418766 0.0015401857 0.050012626
0.032950155 0.21256776 0.20647877 0.18985064 -0.15560113 0.08062983 -0.20172691 0.0855414
-0.14169604 -0.104570284 -0.047386028 -0.08748063 -0.2549511 -0.024044184 0.10931549 -0.13313524
-0.11188559 -0.18130983 0.06958973 -0.0064084018 -0.09750735 0.016411977 -0.098777376 0.08099387
-0.18824041 -0.10499389 -0.041969985 -0.006336817 0.1487894 0.062996976 -0.183341 -0.06853372
0.1408257 0.083410315 0.20817678 -0.21655644 0.116722904 0.09695823 -0.19917105 0.061216865
-0.22995117 0.027192848 -0.19083464 -0.06250072 0.17554817 -0.10986391 -0.21787067 -0.03208273
0.057243563 0.13849077 -0.1192925 0.16099657 0.025620006 0.08690287 0.09691061 -0.03229068
-0.07202087 0.085815094 0.006925689 0.011388298 0.16880602 -0.11032866 0.071567915 0.07140607
-0.012876638 0.066167444 -0.062739365 -0.019503877 0.056217995 -0.054329816 -0.1733859 -0.2593663
0.15976924 0.2283144 -0.18062727 0.10723172 -0.038697366 0.14697756 0.20351543 0.030249175
0.19549814 0.018045528 0.18612887 0.007653493 -0.09475286 -0.18255478 -0.17406614 -0.1155424
0.24787298 0.19004016 -0.085796304 0.13622923 0.19604331 -0.1743521 -0.14316486 -0.008919743
-0.15412821 -0.069491394 -0.2658655 -0.11121398 0.0630021 0.024457613 -0.05257169 0.16347727
0.25459772 -0.025004635 -0.07769619 -0.0761543 -0.14266108 -0.09502825 -0.1551005 0.045539867
0.050571024 -0.11056102 -0.20078218 -0.045210607 0.004864604 -0.14718778 -0.18284684 -0.105802245
-0.03602626 -0.2401691 0.13078828 -0.16478287 -0.1664909 0.17788133 -0.20968018 -0.20485967
0.12049901 0.04178845 0.16851358 0.17379493 0.066316485 0.24425532 -0.19136241 -0.11412677
-0.15317422 -0.23303407 -0.009060806 -0.1698853 0.00037010244 0.018737437 -0.29031387 0.16551411
-0.23188962 -0.19339797 -0.11581863 -0.20282605 -0.13589567 -0.067859575 -0.04263697 -0.019869942

hiden_layers.4.bias f4 [64]
00000000: b408 56bc 2fdf 243c e59b e83c 36c6 91bc
00000010: 1242 ab3c 8225 913c 7390 aa3d d573 1bbd
00000020: cfa0 1abc a13e 04bb 762b e03a 8125 263c
00000030: 55a9 7b3c a0d4 223c a775 403b 8c87 9d3c
00000040: 10d8 d03c f9c3 7abc fcf4 92bc 0777 1d3c
00000050: 0f71 883c a91d 773c 2e70 9b3c 93ec 723c
00000060: ad1a e13a d6c6 dabb 5e79 e2bb a0a3 c2ba
00000070: 5964 143c ecb2 993d c888 94bb aabc eabb
00000080: 69c4 333c 5750 92bb 9567 193d b76b 79bc
00000090: 6e67 bc3d 3ce0 3c3d d56d 183c c6c7 6fbb
000000a0: 2251 62ba 5d9d 3fbc c65d e9bc 9f50 9f3c
000000b0: ccb7 f9bc 0977 bdbb aa6b f2bc fdff ad3c
000000c0: fa39 503d eb3d 9dbb 0947 243d 43f1 b2bc
000000d0: 0740 063d af67 d7bc f50e 2b3c 3d4e 50bc
000000e0: e47f 6abd cfb4 66bc 258a 90bb 5202 bebc
000000f0: 4c13 943c a711 1c3e b9da 203b 7a50 903c
-0.013063598 0.010062977 0.028394649 -0.01779471 0.020905528 0.01771808 0.08328333 -0.037952263
-0.009437754 -0.0020178931 0.0017102796 0.010140778 0.015360196 0.009938389 0.0029367001 0.019229673
0.025493652 -0.015305513 -0.017939083 0.009610898 0.016655473 0.015082755 0.01897439 0.0148269115
0.0017174088 -0.006676535 -0.0069114408 -0.001484979 0.009057128 0.0750483 -0.004532907 -0.007163604
0.010972121 -0.0044651437 0.0374523 -0.015223435 0.09199415 0.046112284 0.00930353 -0.003658758
-0.00086333056 -0.011695233 -0.028487097 0.019447623 -0.030483149 -0.0057820124 -0.029592354 0.021240229
0.05083654 -0.004798641 0.040106807 -0.021843558 0.032775905 -0.026294557 0.010440578 -0.012713966
-0.057250872 -0.014081194 -0.0044109994 -0.023194466 0.018075608 0.15241109 0.0024544431 0.0176165
