results/13_less_points_around/epoch570/model_weights.pth (torch, 486655 bytes, 88 tensors)

init_layer.0.weight f4 [64, 5]
00000000: e7cf 11be d2ad 483e ea28 c73e ecd9 82be
00000010: 2650 4dbe 8757 b63e 7433 8c3e 632d ae3e
00000020: 4e19 89bd 58a3 71be 3c6a 83be 3ba9 573d
00000030: ea9b 9ebe 1cdb 8ebe c1fd 34be 61c5 0bbe
00000040: 7f35 3ebe 3a24 463e f065 963e ccd9 d2bd
00000050: 9ac7 bcbe d044 01be 1190 67bc 6002 223e
00000060: d997 5b3e 3a3a 4d3e 0777 1d3e 592d b43e
00000070: ac79 373e da35 59be 2c42 ec3e e7f3 84be
00000080: 5a4c 81bd 4407 07be 97d2 8fbe 70e1 11be
00000090: 01d1 3a3e 0473 003e 0ddf 23be f1c2 823e
000000a0: 96fa 1fbe c04f ffbd e318 523e 96ca 5d3e
000000b0: 211d fcbd 2fcf 47be cba1 40be bad5 07be
000000c0: 7bd8 f23c 91f9 85be 1761 47bd 5c9a e03c
000000d0: 87f5 183e f199 6b3c 8140 8e3d 56b1 10be
000000e0: faaa 28be 3cd8 623e f8ac 9c3c 0041 0bbd
000000f0: 86fb 58be eab1 99be 580c 303d 074f c23d
00000100: 2909 823e d7b4 ffbd 52a7 33be eb87 eb3b
00000110: 409e 613d 4790 643e 04ed d23d 02bc 23be
00000120: 5804 09be b99b 99bc dc9f 8fbe 5b7e 1bbd
00000130: 0f2e 1b3e c8ca 8e3e 858b ef3d 39b8 60be
00000140: 027c 51be c03b 293d e5da 71bd 2a7a 173c
00000150: 28eb 983d 9b51 653e 9435 033e d7df d8bd
00000160: 7f86 2a3e 30c7 1fbe afbc da3c fe5a 37bc
00000170: 3e9f 84be cda8 653e c604 1a3e 9e7c 263e
00000180: 36a0 08be ea3b 9e3d c19f 553e 32f5 9f3d
00000190: 995e 07be 61be 9bbe 9ec4 a13c 12f5 be3d
000001a0: bbef 4ebe a782 e9bd e6fb 8b3e b3a2 a13d
000001b0: 2a8d ecbd ec20 6bbe 43d5 d23b 4878 6c3e
000001c0: 3cff 8f3c e73e 8abe d338 0b3e 74e6 00be
000001d0: 9bee f13d bfb9 063e 7f02 d43d edc4 75be
000001e0: f356 0e3e 4290 85bd 6ed9 9c3d d40a f13d
000001f0: 2f03 473e bd52 803e 81aa 4c3e 8c64 7e3d
00000200: be81 523e 6555 9a3d 6cd0 0bbe de88 893e
00000210: e6e7 1ebd cf29 a1bc 2d4d fe3c e23c 4b3e
00000220: 52e9 163e 3c2f 52be 8227 f63d a9a3 1f3d
00000230: 9721 eebd 37e2 3b3e c592 85be 385a 923d
00000240: 2ba2 343e b8a0 b93c b631 5cbe 1f7f 843b
00000250: b43d 34bd c943 9c3d bf9f 6fbe 37f1 e0bd
00000260: 455f 813d b651 0c3e 3386 82be f5f0 64be
00000270: 4177 9b3e 32a0 023e 90bf 6dbe f080 02bd
00000280: 3849 c03e 66dd 8abd 955e 913e 9ed1 d53d
00000290: a2bd 983b 0ef1 63ba 163b 88be 4083 ffbd
000002a0: bae2 2d3d 0ec5 a2bc 3e82 ff3d 9c25 3ebe
000002b0: b9d3 73bd 91b0 393d e8f6 cabd 2568 443e
000002c0: 91fd bc3d 169f ee3d 34e9 8dbe a0f4 ec3d
000002d0: a80f 54be 1dab 793d 5578 ba3d 3df4 5d3e
000002e0: 78b9 783e 6837 0abe eb09 27be 6f39 dabd
000002f0: 9b83 37be 8050 4bbe c7e1 63be 5243 b2bd
00000300: a799 2fbe b9db f3bc 133b 803d e1ea 4cbe
00000310: 42a4 953e 4232 df3c 4400 1fbe 2c00 b53d
00000320: ceb5 63bb 8e7b eabd 01f0 833e 150a 423e
00000330: 365d 613d bdac 343e 9c95 bf3d d27c 1ebe
00000340: 7025 9c3d b0e2 1d3e cc07 6f3e c394 d7bc
00000350: 0a44 23be e5cf 733e 2e84 87be 5f4a 13be
00000360: ffc2 ba3d 04ff 463e 5c88 663e a392 153e
00000370: cbe6 97bc a5ed 9abc 8d7e 7abe 6b05 d53c
00000380: 9e77 31be b436 723e 85ca 4abe 6c97 883e
00000390: b795 86be 6dbe 60be fa61 a83e bc87 a8be
000003a0: 22fe 66be 84d7 3e3e 6e62 f53d 045f 79be
000003b0: 2d24 28bd 7b68 c73c d113 cf3d 2277 803e
000003c0: 674b 1f3e 4b7e 7e3d a72b 2cbe eea0 2f3e
000003d0: 5917 92be ddc9 f93d e76f 9c3b b07e 95be
000003e0: f305 8fbe f9ed 483e 3296 1bbe 44a6 b73e
000003f0: de57 1fbe 6c6d 7b3e ee11 b3bd 7cce d3be
-0.14239465 0.19597557 0.38898402 -0.25556886 -0.20050105 0.35613653 0.27383006 0.34019002
-0.066942796 -0.23597467 -0.25666988 0.052651625 -0.30978328 -0.27901542 -0.17674924 -0.13649513
-0.18575095 0.19349757 0.29374647 -0.10295448 -0.36871034 -0.12623906 -0.014133469 0.15821218
0.21444644 0.20041743 0.15377437 0.35190848 0.17917508 -0.21211949 0.46144235 -0.25967333
-0.06313391 -0.13186365 -0.28090355 -0.14246154 0.18243791 0.12543875 -0.16003056 0.25539353
-0.15622935 -0.12466383 0.20517306 0.21659312 -0.123102434 -0.19512628 -0.18811719 -0.13265124
0.029644242 -0.26166967 -0.048676576 0.027417354 0.14937411 0.014379964 0.06945897 -0.14130148
-0.16471472 0.221528 0.019125447 -0.033997536 -0.21189699 -0.3001855 0.042980522 0.094877295
0.25397614 -0.12485664 -0.17544296 0.0071878335 0.05508256 0.22320662 0.102991134 -0.15989688
-0.13380563 -0.018751012 -0.2805165 -0.0379623 0.15154289 0.27889085 0.11696533 -0.21945275
-0.20457461 0.041316748 -0.059046645 0.009245435 0.074667275 0.22394411 0.12813407 -0.10589569
0.16652869 -0.15603328 0.0267013 -0.011191128 -0.25902742 0.22427674 0.15040883 0.16258475
-0.13342366 0.077262715 0.20861723 0.07810439 -0.1321968 -0.30418685 0.019747075 0.09324087
-0.20208637 -0.11401873 0.2734062 0.078923605 -0.115503624 -0.22961777 0.006434114 0.23092759
0.01757776 -0.27001116 0.13595895 -0.12587911 0.118130885 0.13156794 0.103520386 -0.24000902
0.13900356 -0.065216556 0.07658659 0.117696434 0.19434808 0.25063124 0.19986917 0.062107608
0.20557305 0.07535819 -0.13653725 0.26862234 -0.038795374 -0.019673256 0.03104266 0.19847444
0.14737442 -0.20525831 0.12019254 0.038974438 -0.116275005 0.18348013 -0.2608854 0.07146114
0.17639987 0.022659644 -0.21503338 0.0040434743 -0.044004157 0.076301165 -0.23400782 -0.10983508
0.06316999 0.13703045 -0.2549301 -0.22357543 0.3036442 0.12756422 -0.23217607 -0.031861246
0.3755586 -0.0678051 0.28392473 0.10440372 0.004661278 -0.0008695283 -0.2660758 -0.12476206
0.04245255 -0.019869354 0.124760136 -0.18569034 -0.059528086 0.045334402 -0.09910375 0.19180353
0.092280515 0.11651437 -0.27716982 0.11570096 -0.20709097 0.060954202 0.09104983 0.21675201
0.242895 -0.13497698 -0.16312377 -0.10655486 -0.17921297 -0.19854927 -0.22254096 -0.087042466
-0.17148457 -0.029767858 0.062612675 -0.20011474 0.2922688 0.027245644 -0.15527445 0.088379234
-0.0034745815 -0.114493474 0.25769046 0.18949158 0.055020534 0.1764402 0.093547076 -0.15477303
0.07624328 0.15418506 0.23342818 -0.026316052 -0.15943924 0.23809774 -0.26468033 -0.14383839
0.09119224 0.19433218 0.22512954 0.14606719 -0.018542668 -0.018912146 -0.24462338 0.02600356
-0.17330787 0.2365368 -0.19803818 0.26678026 -0.26286098 -0.21947642 0.3288725 -0.32916057
-0.22557881 0.186369 0.119816646 -0.24352652 -0.041050125 0.024341812 0.101112016 0.2509089
0.15556107 0.06213216 -0.16813527 0.17151234 -0.28533438 0.121967055 0.004774082 -0.29198217
-0.27934226 0.1962203 -0.15194014 0.35869038 -0.15560862 0.2455346 -0.08743654 -0.41368473

init_layer.0.bias f4 [64]
00000000: 5f60 833a 6b41 e33d 1d63 dfbd e740 c1bd
00000010: f285 d7bd 67b2 b73a 7faf c03a b854 ec3d
00000020: 8d10 b6bd d027 a5bd 7c0e 893d 431f 753e
00000030: b484 cb3d 25f6 a3bd f00d 953c 0799 f0bd
00000040: 4e2a d8bd 4e9f 8a3c a417 23be cde0 ce3d
00000050: 9762 adbb 807c 9cbd 488e 003e 4438 693d
00000060: 8886 6d3d 361d 953d 713c 3f3e d4bd 213e
00000070: c7d1 35bd 0e7e f93d 79d7 e73c f0f6 a8bb
00000080: d1fb 583e 08de 0bbe b280 2fbe 73d3 59bd
00000090: 1fc9 2bbd b001 0b3c bdc8 253e d150 093e
000000a0: 5a84 25be 811e 673d f823 223e 6a29 ffbd
000000b0: 838b 6b3d 1de8 c73d e3d4 813b fc49 3c3e
000000c0: 2429 c73d 8f2e 2a3e 4ef7 0abe 41a5 2c3e
000000d0: 2b5f 1d3e 098e 303e b57c bf3d c3bd 0fbc
000000e0: 8daa b0bd a01b 6b3d 26c8 9fbd 0432 a7bd
000000f0: 39ba 093d ee78 95bd 02df 1ebe 50bb ec3b
0.0010023228 0.11096462 -0.10907576 -0.09436207 -0.10523595 0.001401496 0.0014700739 0.11539596
-0.088898756 -0.08064234 0.06692216 0.23937707 0.099374205 -0.08005933 0.018195122 -0.11747938
-0.10554944 0.016921666 -0.15926987 0.10101471 -0.005291294 -0.07640934 0.12554276 0.056938425
0.057989627 0.07280962 0.186754 0.1579507 -0.044389512 0.12182246 0.028300988 -0.0051563904
0.2118981 -0.13658917 -0.17138937 -0.05318017 -0.04193985 0.008484289 0.16189857 0.13409735
-0.1616377 0.056425575 0.15834033 -0.12459071 0.057506096 0.09761069 0.0039621457 0.18387598
0.09724644 0.16619323 -0.13570902 0.16859914 0.15368335 0.17241682 0.09349958 -0.00877327
-0.0862628 0.057399392 -0.07801847 -0.081638366 0.03362486 -0.07298456 -0.15514758 0.007224478

hiden_layers.0.weight f4 [64, 64]
00000000: 6ed9 f73d ddd0 ff3d 9439 453e 0e3d d43d
00000010: ce69 33be 9336 62bd 6dbe 62be 18fe 233d
00000020: 6d57 c73d 5ca0 0f3e 69bf d43c 87b7 05bd
00000030: 00d7 d2bd b29a 093e 8241 26be ca68 88bc
00000040: 899a a33d 0c66 47be bf8f f9bd 6925 d53d
00000050: c802 403e c54b f9bd 33ff 5f3e c57a 13be
00000060: fe46 dcbd 3c9b 7ebd d71b 99bb a78b 57be
00000070: 919b 453e 0cf1 25be f322 32be e2b7 8fbc
00000080: a8eb 3bbe 3117 15bd a0f4 583d 7b37 853d
00000090: 8ca3 0abe 36e1 4b3e e5a5 0a3e c5aa 623d
000000a0: 0e96 a23d cf00 4bbe ca77 243d c028 10bd
000000b0: e9e4 a53d cf6c 35be ea81 04be c04d 813c
000000c0: 3b3c 123e 7150 113e aadf 04be 49bf bf3d
000000d0: 5835 f33d b44e a93d 3128 60be 692b 0bbe
000000e0: 149f 4ebd f8af a6bd 1be8 38be b332 f8bb
000000f0: fa7b 51be b188 48bd b6ba a43d ea4b 2d3e
00000100: b66a 97bd 33f2 65be 9b35 9fbd 64a7 c93d
00000110: 9da7 d23d 44f0 3abe ae71 38be 20c5 57bd
00000120: 7fce e8bd ee46 2bbd 7f66 533d 33a6 2cbe
00000130: ec8d 1abe b429 89bd 2223 3f3c 609c 12be
00000140: fb5e 2f3e f40a 8f3d c503 083e 6ffc eabd
00000150: 682a 953d 7177 a6bc 38a3 36be 3791 72be
00000160: 22de 673d a894 49be 892f 4bbe caa7 ccbd
00000170: 0a06 2fbe ea3e fa3d 7a43 a53d 37a0 323e
00000180: f084 393e d609 b73d af74 4f3e caf0 51be
00000190: 18fe f43d da4c 8d3e f896 0d3e 8c1a 5dbe
000001a0: 6214 27be c708 82be c563 4cbc 7867 373d
000001b0: 8a6b e5bd eddb fe3a 2c06 81be d844 7d3d
000001c0: 87f9 083c f85d 30be b5fe e23d 969e 2cbe
000001d0: 257f 63bd f1e0 2dbe b078 d2bd a3b3 b3bc
000001e0: cb1e 093e d1a7 babd a933 993e 87cd 713d
000001f0: fbd5 9bbd c99c 3abe 8a25 663e 2be8 4dbe
00000200: aa48 d93c dca0 54bd 65e4 17be 7bc9 27be
00000210: eaeb f03d 860d af3d adc6 26be b2f6 4ebe
00000220: 2acf 203e a9e3 203e eaaf f2bd a294 ff3d
00000230: c8ef 16bd b11f cf3d ae5b de3d 5024 883d
00000240: f3a7 c8bc d9a5 203e ba35 b7bc ebd3 ea3c
00000250: 5e65 b63d 3e90 37be 667b a9bd a201 02be
00000260: 5790 ed3d 9274 4b3d 16c4 db3d b09a 873d
00000270: df64 7c3b 9ebd 2a3e 0751 16be 9dc5 2fbe
00000280: 83f2 093e 5960 1e3d 86f4 613d 4037 143d
00000290: 2263 65be 2136 a13d 5ade 79bd 0df8 0c3e
000002a0: 948d e9bd 3441 0d3e e151 493d 14d0 d63d
000002b0: d03a 1e3e 342b dabd 9dee 9fbd 05d3 463d
000002c0: 2e13 413e f3f4 9b3d c3e6 1b3e 579c 53be
000002d0: 8d7b ecbd 505f 2e3e a654 b13c 2962 18be
000002e0: 361d 763c e0b3 883d 426f a2bd 668b 81bc
000002f0: 97f9 ec3d e732 893d 0166 373d 1e6b 7abe
00000300: 8eb4 66be 7fa1 b43d 8344 d43d 27cb 43be
00000310: 9d58 3fbe 21a4 25be b6f5 4a3e e342 293e
00000320: 3313 66be 85b5 793d c27d 203e b6aa f63c
00000330: a8e9 343e 0241 37be 55f9 153e f3c0 1dbe
00000340: 66c2 77bc 2785 d43d c174 eb3d a40c 153e
00000350: 82fb bcbd ff43 bfbb 3527 c73d 34f3 62be
00000360: 4a5d d03c 199d a1bd d843 193e 6d9a b63d
00000370: 1cc6 8c3d b4a0 0f3d faed 893d aa4a c03d
00000380: 6f91 433b 832c 2d3c e62f 093e 96c3 43bd
00000390: 4e63 783c 988f ee3d 1be1 883e 65b6 f53d
000003a0: 1663 3dbe f5bd 4bbc de88 7a3d ce76 15be
000003b0: 8dd2 9f3e 27ea 233e 920b 143e 8588 183c
000003c0: b49f 8ebd fdac 7abd bd15 61be 2792 2c3e
000003d0: 582b a33d f349 f0bc 4f49 563d 624e 953d
000003e0: c69a 8f3d ca95 8ebd 46d4 833e 7ed4 113e
000003f0: 2e85 0cbe d872 c9bd c8cb 2c3e 866e 05be
0.12102018 0.124910094 0.19260246 0.10363208 -0.1752083 -0.055227827 -0.22142954 0.040037245
0.09733472 0.14026016 0.025970178 -0.03264573 -0.10294914 0.13437918 -0.16235927 -0.01665153
0.079884596 -0.19472522 -0.121856205 0.10407526 0.18751061 -0.12172655 0.21874695 -0.14402302
-0.10755728 -0.06215976 -0.004672508 -0.21049367 0.19297625 -0.16205233 -0.17396145 -0.017543737
-0.18351614 -0.03639907 0.052967668 0.06504723 -0.1353895 0.1991013 0.13539846 0.05533864
0.07938777 -0.19824527 0.040153302 -0.035195112 0.08100302 -0.17717288 -0.12940183 0.015784144
0.14280789 0.14190842 -0.12975946 0.093626566 0.11875409 0.082669646 -0.21890332 -0.13590778
-0.050444677 -0.08139032 -0.18057291 -0.007574403 -0.2045745 -0.048958484 0.08043425 0.1692349
-0.073934 -0.22455673 -0.07773896 0.0984638 0.10285876 -0.18255717 -0.18012115 -0.052678227
-0.11367511 -0.04181569 0.05161142 -0.16860275 -0.15093201 -0.06697407 0.011666091 -0.14317465
0.17126076 0.06984511 0.13282688 -0.11473929 0.07283479 -0.020320626 -0.178357 -0.23688208
0.056608327 -0.19685614 -0.19842352 -0.09992941 -0.17092147 0.12219031 0.08069511 0.1744393
0.18117118 0.08937423 0.20259355 -0.2050201 0.11962527 0.27597696 0.13827121 -0.21592158
-0.16316369 -0.25397322 -0.012474959 0.04477641 -0.11202152 0.0019444205 -0.2520002 0.061833233
0.008360273 -0.17223346 0.11083738 -0.1685737 -0.055541176 -0.1698034 -0.102769256 -0.021936243
0.13390653 -0.0911404 0.29922226 0.059033897 -0.07609173 -0.18223871 0.22475258 -0.20108096
0.026523907 -0.05191122 -0.1483322 -0.16385452 0.11763747 0.08547501 -0.16286726 -0.20211294
0.15704027 0.15711845 -0.11849959 0.12479521 -0.036849767 0.101134665 0.1085733 0.06647551
-0.024494147 0.15688266 -0.022364486 0.028665503 0.08906053 -0.17926118 -0.082754895 -0.12695935
0.11599796 0.049671717 0.1073076 0.06621301 0.0038512272 0.16673896 -0.14679347 -0.17165227
0.13471417 0.038666103 0.055164836 0.036185503 -0.22401097 0.078716524 -0.061003067 0.13766499
-0.11403957 0.13794404 0.04915035 0.104889065 0.15452123 -0.106527716 -0.07809184 0.048541088
0.18854973 0.0761508 0.15224747 -0.20665108 -0.11547003 0.17028546 0.021646809 -0.14881195
0.015021613 0.066749334 -0.07931377 -0.01581354 0.11571043 0.06699162 0.044775013 -0.24454924
-0.22529814 0.088198654 0.1036463 -0.19120465 -0.18686147 -0.16175891 0.19820294 0.16529422
-0.22468261 0.060964126 0.15672973 0.030110698 0.17667258 -0.17895892 0.14645894 -0.15405636
-0.015122032 0.10376959 0.114968784 0.14555603 -0.09227659 -0.005836963 0.09724275 -0.22163087
0.025435109 -0.07891292 0.14967287 0.08916173 0.06873724 0.035065368 0.067348436 0.09389241
0.0029841324 0.010569694 0.13397178 -0.047793947 0.015160395 0.11648482 0.26734242 0.119976796
-0.1849483 -0.012435426 0.061165683 -0.14596102 0.31215325 0.16007291 0.14457539 0.009309893
-0.06964055 -0.06120013 -0.21980949 0.16852628 0.079672515 -0.029332137 0.052316006 0.07290341
0.070119426 -0.06962164 0.2574789 0.14241216 -0.13722679 -0.09836358 0.16874611 -0.13030443

hiden_layers.0.bias f4 [64]
00000000: 7b9d 2dbd 5090 90bd 8eaa dd3b ea34 9c3d
00000010: 48e9 9e3d 8a5d a03c c22b ef3d c2b4 9a3d
00000020: a08a 2f3d 9c6f a7ba 4178 0fbe cd12 26bd
00000030: 4e65 09be 135b da3c f3b8 42bd 9129 c13d
00000040: ff4c 8c3c 3dac 1a3d f2a6 43bb d207 923d
00000050: 39d1 a8bd 2dd6 50bb 85a8 23be 13f9 f23d
00000060: ccfd ca3c 9c9d 203e c16b dfbd ad66 9abd
00000070: d530 52bd e4d9 cb3c 2a04 d9bd 13cd 34bd
00000080: 83bd 39be bce4 03bc 2b65 f23d e328 e0bd
00000090: e341 183d 436b ae3c 4eba 5fbd 8eb2 60bd
000000a0: 1d40 9c3d 60c8 dd3d e5e5 a3bd c729 9b3d
000000b0: 7ffd 41bd e9a0 e4bd 06bf 353c d172 7339
000000c0: 425b 69bd 2b7c 36bd a354 d3bd 68f3 f33c
000000d0: e5b1 e13c 1b4b 54bc 90a9 14be b3e5 dabc
000000e0: fc70 e83d c69d e63d 46c7 89bd ed21 e4bd
000000f0: df0f 9dbd 0d98 13bd 5be0 383d 8fc8 efbd
-0.042386513 -0.070587754 0.0067647165 0.0762728 0.077593386 0.019575853 0.11678268 0.07554008
0.042856812 -0.0012774351 -0.14010717 -0.040545274 -0.13417551 0.026654756 -0.047539663 0.09431756
0.017126558 0.037761915 -0.0029854146 0.07130398 -0.08243031 -0.003186594 -0.15982254 0.118639134
0.024779223 0.15685123 -0.10909224 -0.07539115 -0.0513161 0.024884172 -0.10596497 -0.044140887
-0.18138699 -0.00805014 0.118357025 -0.109452985 0.03717221 0.02129138 -0.054621033 -0.054857783
0.07629416 0.10829234 -0.08002833 0.07576328 -0.047360893 -0.11163504 0.011092907 0.00023217058
-0.056971796 -0.04455201 -0.103188775 0.029779151 0.027550647 -0.01295736 -0.14517808 -0.026720857
0.11349675 0.11260562 -0.067274615 -0.11139283 -0.07669043 -0.03603368 0.045135837 -0.117081754

hiden_layers.1.weight f4 [64, 64]
00000000: 34a4 fbbd 5e40 0fbd ad3a d9bd d799 1c3c
00000010: 3298 253e ed6b 2ebe 0ecb bcbe d9d1 833b
00000020: 29af 13be 95f4 24be 0798 e03d 363c e13c
00000030: 1f5f f5bd a880 2e3d 49a7 05be 909a 81be
00000040: b099 b73e 5c57 ac3d e652 2bbe effc 12bd
00000050: ea23 df3d 7664 1e3e 0b48 d2bd e080 0fbe
00000060: ad7f 8dbe 270e 023e f465 1fbc f01f 503e
00000070: 46b1 24be 7089 c83d e850 2b3e b57c ee3d
00000080: 5f88 9dbd 6466 903e 87d9 be3d 4fc0 6f3d
00000090: 5a4f f0bd ea0b d23d 2de6 9cbe 4266 143e
000000a0: b70c 623e 7e9b 2f3e 405e 093e 600a 39be
000000b0: a59e 893e cf9b 243e 529d 2b3e 127f 5a3e
000000c0: 2516 5e3e 33f8 7abe 09c7 86be e0d2 3abe
000000d0: b6d7 503e c465 653e f7ab 403e 46fa 15be
000000e0: 63f9 063e f1fb cdbd a8a9 87be fd86 a83c
000000f0: faff ec3c 8846 4e3e cfa9 cbbc 6520 433e
00000100: 4b5c 9b3d 4e3a a63d 3efc 363e ec26 3a3e
00000110: a075 ccbd 10b0 4d3e a743 87be 3a06 dfbd
00000120: d965 1abe 99df 243e a367 273c 11b2 0d3e
00000130: c97d 053e 449e 63be 9967 9a3d 24ff 8c3d
00000140: 9e70 5bbe 2004 9abd 44a1 c13d 56e1 00be
00000150: 8bec 223e de07 4d3e bf29 47be 9f7b 5cbe
00000160: 98c1 443e c4dc edbd 5eb0 b13d e7d9 023e
00000170: 6825 2bbb 07a1 47be def2 693e d523 663e
00000180: eb78 5c3d cb50 2ebe 6062 ecbd 3498 723e
00000190: 15c2 5b3d 92db 573e f63c 4ebe e93d 143d
000001a0: 7559 c03d 8e1a 773d 2f24 b1bd 7f62 19be
000001b0: d214 113e b424 9c3c 0694 4a3d 1bf6 cd3d
000001c0: be7e 053c 0616 df3d 130c 993d d81d 4b3d
000001d0: ccdf 773e d4be 903d b024 af3c 879a 2e3e
000001e0: 8288 fcbd e226 22be 95f0 12be 5388 fa3d
000001f0: f806 0fbe 625e 46bd 9d7d c2bd dbc6 48be
00000200: 729e 20be 7651 53bd 31fe c03d e052 d6bd
00000210: 6de2 9abd 5158 16be ab02 7bbe 0165 6bbe
00000220: ca2b 80be f346 d5bc bc45 023e 2dcf 973d
00000230: 80d8 dc3d 45ca 223e f85f 79bd 6842 74be
00000240: 8d86 0fbe da71 f03d 2a84 86bd ba66 93bd
00000250: 12c8 12bd 1702 363d a0f3 d6bd e2f1 ffbd
00000260: 6de0 423e fae2 37be f6a3 6dbe 402c 22be
00000270: c522 2fbe 84cb f4bd 0ab4 b03d beef 16be
00000280: 73dc e93c 41ae 8d3e fdd2 213e b6a9 ca3d
00000290: e740 4ebd 90de df3c 9084 77be 9b63 28bd
000002a0: bf28 2ebe 7048 51be 73e6 5f3e 68fd 573c
000002b0: 4b66 10be 5ef7 b5bd 6886 603e cf4d 093e
000002c0: 5465 6d3c f2bb 4a3e 8249 933c 87b4 4f3e
000002d0: b124 17be e870 7a3d af53 8bbd e346 d43d
000002e0: 4568 cc3d d78b 773d ee0c e53c dc5a 933c
000002f0: 9b58 d6bd 4622 d23d df92 1abe c11e 3a3e
00000300: 2f41 513e eec8 293e 01c9 e9bd d7eb 0dbe
00000310: b53e e5bd cb81 633d 65cd 8a3e ad42 17be
00000320: 4692 3b3e c271 4a3e b3ca 8f3d 0714 b53c
00000330: 8bfe 5e3e 726d 033e 96a6 ad3d 3424 03bb
00000340: dc42 f9bd 11a0 abbd 8e1c 643e 83bd 9d3d
00000350: d005 19be f3e0 2f3e 98cc 7ebd bc9f 82bd
00000360: 3d1a 7fbc 5f38 a5bd 44b0 f13c 0428 ac3d
00000370: 0d9b 333e 695a 1b3e 2b57 ed3d 73c0 163e
00000380: d696 ab3d c95c 853d 1fb3 54be a2f3 733e
00000390: 89dd 08be e0ab 12be 35da 5bbd 0beb 7339
000003a0: 0b98 b73d 1b75 76be 6c82 24ba 5655 84be
000003b0: 6374 24be 3c1c b9bd 51e8 213c ac8d 0dbe
000003c0: 6550 e4bd d1ef e83c 8398 183d dc92 363e
000003d0: 3fd9 893d 5041 59be 681a d5bd 592c d33d
000003e0: 43d6 5abe 309c 2bbe ac5b 1d3e 73ee 663e
000003f0: fd5b 28be 0f26 fbbd fcd8 563e b8b2 fc3d
-0.12287179 -0.034973495 -0.10606895 0.009558163 0.16171339 -0.17033358 -0.36873668 0.0040228185
-0.14422287 -0.16108926 0.10966497 0.027494531 -0.119810335 0.042603165 -0.13052095 -0.25313234
0.35859442 0.084151 -0.16730842 -0.035885748 0.10895522 0.1546801 -0.10267647 -0.14014006
-0.2763647 0.12700711 -0.009728897 0.20324683 -0.1608325 0.09791839 0.16730082 0.1164488
-0.07692026 0.28203118 0.09318834 0.05853301 -0.11733885 0.10256179 -0.3064436 0.14492133
0.22075163 0.1714916 0.1341486 -0.18070364 0.2687885 0.16075061 0.16759232 0.21337536
0.21688135 -0.24508743 -0.26323727 -0.18244505 0.20394787 0.22402102 0.188156 -0.14646253
0.13181071 -0.1005782 -0.26496625 0.02057218 0.028930653 0.20144093 -0.024861244 0.19055326
0.07585963 0.081165895 0.1786966 0.1817891 -0.09983373 0.20086694 -0.26418802 -0.108898595
-0.15077914 0.1610092 0.01021758 0.13837458 0.13036264 -0.22228342 0.07539291 0.06884602
-0.21429679 -0.07520318 0.09454587 -0.12585959 0.15910546 0.20022532 -0.19449519 -0.21531533
0.19214475 -0.11614373 0.086762175 0.12778436 -0.0026114825 -0.19495021 0.22846553 0.22474606
0.053826254 -0.17023008 -0.11542201 0.23690873 0.053651888 0.21079853 -0.20140442 0.036191855
0.093920626 0.06032806 -0.086494796 -0.1497898 0.14168099 0.01906047 0.049457572 0.100567065
0.0081478935 0.108928725 0.07473006 0.049589008 0.24206465 0.070676476 0.021379799 0.17051135
-0.12330724 -0.15835145 -0.14349587 0.12233033 -0.13967502 -0.048429854 -0.09496615 -0.19607107
-0.15685442 -0.05159136 0.09423483 -0.10465026 -0.075627185 -0.14682128 -0.24512736 -0.22987749
-0.25033408 -0.026034808 0.12721914 0.074125625 0.107834816 0.15897472 -0.06088254 -0.23853457
-0.14016171 0.117404655 -0.06568177 -0.07197328 -0.035835333 0.044435587 -0.104956865 -0.12497307
0.19030924 -0.17957678 -0.23207077 -0.15837193 -0.17103107 -0.1195288 0.0862809 -0.14739892
0.028547501 0.27672008 0.15803142 0.09895651 -0.050354864 0.027327806 -0.24171662 -0.041110616
-0.17007731 -0.20437789 0.21865253 0.013182975 -0.14101522 -0.08885072 0.21926272 0.13408588
0.014489491 0.19798258 0.017979387 0.2028371 -0.1476009 0.061142832 -0.06803071 0.10365083
0.09980825 0.060436096 0.027960267 0.017987661 -0.10466119 0.102604434 -0.1509509 0.18175794
0.20435022 0.16580555 -0.114152916 -0.13859497 -0.11193601 0.055543702 0.2710983 -0.14771529
0.18317518 0.19769958 0.07021084 0.022104276 0.21776788 0.12834719 0.08479039 -0.0020010592
-0.121709555 -0.083801396 0.22276518 0.07702162 -0.14943624 0.17175655 -0.062206835 -0.06378123
-0.015570221 -0.080673926 0.029502995 0.0840607 0.17539616 0.15171207 0.115888916 0.14721851
0.08378379 0.06511838 -0.20771454 0.23823407 -0.13365759 -0.14323378 -0.053674895 0.00023261846
0.08964547 -0.2406811 -0.0006275538 -0.25846356 -0.16060023 -0.090385884 0.009882049 -0.13823575
-0.111481465 0.028434666 0.03725482 0.1782946 0.067308895 -0.21216321 -0.10405427 0.10311193
-0.21370797 -0.167588 0.15367001 0.22551899 -0.1644134 -0.122631185 0.2098121 0.123387754

hiden_layers.1.bias f4 [64]
00000000: 9edb 05bd 692c 03bd 30be d23d 8902 4dbd
00000010: 6fcb 9dbd 8363 d4bd 0691 e7bd ffd2 b3bd
00000020: b99f 913d 275a f1bc bdc5 653d c72f 85bd
00000030: 87a4 5a3d 768c 223d db4c b7bb 84d9 94bd
00000040: 42fe a53c 76eb 0a3e 8770 27bd f1a7 21bd
00000050: cac6 ecbd 971a 17bd 6271 e53b 60a3 1bbc
00000060: 1a8b acbd 1c23 70bd 155e 51bc ceb5 633c
00000070: e4e0 4cbd 7468 5f3d 05a2 e23d 7204 b3bc
00000080: 1e73 453d 8e98 d43c eac1 843d 7895 23bd
00000090: 2d76 06bc d294 e2bb 9109 fcbb bd47 9939
000000a0: 2d86 c53c 195f 413d 4fc9 6bbd c801 783c
000000b0: 0998 cd3c 4cb9 31bc 87c1 5abd 4d13 99bd
000000c0: 7cd8 9f3d 44e6 0cbd 4ea2 b83d 1fcd a7bd
000000d0: 0bca 2fbd eb74 f638 1c12 8e3d e91b 4fbc
000000e0: 45e4 ef3b db12 41bd bb02 103d 9129 2d3d
000000f0: c835 fb3c 3754 14bd f196 113d d728 fbbc
-0.032680146 -0.032024775 0.10290182 -0.050051246 -0.077048175 -0.10370543 -0.11306958 -0.08780479
0.07110543 -0.029461933 0.05609678 -0.065032534 0.05337956 0.039684735 -0.0055938787 -0.0726805
0.020262841 0.13566384 -0.0408788 -0.039466802 -0.115613535 -0.036890592 0.0070020417 -0.009499401
-0.08424969 -0.058627233 -0.012778779 0.013898326 -0.05001916 0.054542974 0.11066059 -0.021852706
0.048205487 0.02595165 0.06482299 -0.039937466 -0.008206886 -0.0069147134 -0.00769157 0.00029235883
0.024111832 0.047209833 -0.05756503 0.015137143 0.02509691 -0.010847401 -0.05340722 -0.074743845
0.07804963 -0.034399286 0.09015332 -0.081934206 -0.042917293 0.00011751972 0.06937048 -0.012640932
0.007320913 -0.047137123 0.035158854 0.04227597 0.030665293 -0.036213126 0.03554434 -0.030659122

hiden_layers.2.weight f4 [64, 64]
00000000: d50f f5bd f7ca 55be c9d9 0dbe 4821 41be
00000010: 839e f2bd 4cec 723d e2d6 60bd 000d bdbd
00000020: a202 583e aca5 b53d d010 96ba de94 20be
00000030: 2a1a 953d 6ae0 50be 2ed0 f93d 9d4f 2a3e
00000040: fd0e 91be cad7 7bbe 46e0 cf3d 13b6 ecbd
00000050: 396f 623d c7df 6ebe 897f d0bd b741 123e
00000060: 02a9 08be 67d4 a73d bc62 163e c225 fd39
00000070: a060 e9bd 3841 4fbd b4fe 483e 1a6c 04be
00000080: 952b f6bd d929 293c 2428 5dbe 7305 ce3d
00000090: 2c40 b33d dfa0 05be da3f 29be 45a4 563e
000000a0: 252f 16be 8b40 673d 060d 5abe 2d60 4bbe
000000b0: ae31 bfbd a7a0 03be c15f eebd 98e5 40bd
000000c0: acf9 143d 32fc 4c3e 1c03 acbc bb50 16be
000000d0: 986b 223e 6197 863d de36 03ba 2980 903e
000000e0: d588 16be 8ce6 51be ca83 58bd 97d6 803e
000000f0: 5aac 48bc 6288 883d da49 6cbe f512 8b3d
00000100: 1563 ed3d 7dca 03bb 0965 913d f75c efbd
00000110: bbae 503c 7c3f 453c 6142 113e 922c babd
00000120: a6b8 0a3e 7f36 c23d 1613 c6bd 9e41 e2bd
00000130: 9a1e 5fbd c75f 4d3e cb8f 2dbd 9708 c0bd
00000140: 544a db3d 3c72 323d 38e0 ffbd ab4f fabc
00000150: 8358 d73d 5162 32be 92fc a43d a23b 703d
00000160: ce3b a1bc 75ad dd3d d6ad c3bd 68f8 26be
00000170: 0a63 c83d e220 e73c d7d9 3bbb e78c 3a3b
00000180: 7647 08be 9aea 153d 6f1c c03d efa9 243e
00000190: 392d e5bd 25d4 d2bc 024a 683e 88a9 b33d
000001a0: ae3b 7a3d adcc d1bd 4af8 ebbd 74d6 3ebe
000001b0: 338e 8f3c 19b3 22be c6b6 8f3d 2d60 da3d
000001c0: b2c5 88be d8de c6bd 5bca 03bd 9950 643e
000001d0: 6cff 16be 98a1 b53d f813 51bd 066a 16be
000001e0: 5cbe efbd 28f5 373d 9206 153d 0d83 f23d
000001f0: f3a2 37be b361 05be 215e 373e 7ce3 243e
00000200: 2570 6fbe f521 84bc e6a2 a53d fe53 353e
00000210: f851 143e bfc8 d53d a8c3 0dbe cd67 9c3d
00000220: fedc db3c cf57 a2bc e16a 993c 1d31 c2bd
00000230: 72c5 d93d e375 85be 8124 703e ec24 5dbd
00000240: 5676 2f3e 2048 093e e4ab 80be 27cb c5bd
00000250: 8b34 2ebd 6c1c 60bd 530e 1b3e 7b4c 9bbd
00000260: 4f35 2fbe 1c5c 843d 671b 1ebe 62d7 173c
00000270: 1613 23be 0685 0f3e 3bea dfbd 3370 95be
00000280: 3512 9d3c e0b2 753e bd09 d9bd cfca ff3d
00000290: 4eb3 363c acf4 93bd b040 583d 55cd 4a3e
000002a0: f546 873e bc4f 4a3d dbea 1cbe e0a1 293e
000002b0: c00a 143e fe9e 64bd 28dc 9e3a 892d c73c
000002c0: 5ed1 723e e2cd 8ebe 44d9 323e a3b8 193d
000002d0: d80a 61be 0f2c 0abe e39c 1c3d 306a d5bd
000002e0: f4b3 933e b2df eb3d 0368 973e ee55 4d3e
000002f0: 5d21 c93d eca7 97be b68b bfbc 0996 353d
00000300: e08e be3d de85 9f3e 92b9 f33d b39e f0bd
00000310: 1d64 873c 589f 79be 43e5 a1ba 7652 dcbd
00000320: 98d9 29be 88ef 32be 9789 6cbe 4a32 533e
00000330: f314 5f3e 2628 41bd a5a2 bcbd faa5 1dbe
00000340: 3889 773e 6546 8d3e a09e c9bc 0eb8 c33d
00000350: 19ba d0bd 3751 35be 80ad 713d 209f cf3d
00000360: 2baa c0bd cccf 1fbe 1e90 05bf 5399 c1bd
00000370: 759f b3bd 61d2 983f 6b85 043e 278e 9ebc
00000380: 7c2c a53d a7d5 d63d f7a6 6cbe 3352 7bbd
00000390: 60bf 1d3e 8b51 8abd c6ac 42be 707b e43d
000003a0: 6438 47be 9f86 61bd fa49 823e 3f89 6c3d
000003b0: bbad 1b3e bfd5 263d 000b 4ebe ffc1 05be
000003c0: aaf9 1a3e fc85 6bbe 973c bc3d c5cc afbd
000003d0: e0ee 543e bd17 823e eadb ac3d e973 0cbe
000003e0: ca0b 953c 420b 07be b812 d4bd bfe4 a23e
000003f0: cc88 05be e1be ad3d a33d 8abe b0a5 d0bc
-0.1196591 -0.20878206 -0.1385261 -0.18860352 -0.1184664 0.05930738 -0.05489243 -0.09230995
0.21094754 0.0886949 -0.0011449102 -0.15681788 0.07280381 -0.20398107 0.1219791 0.16631933
-0.28331748 -0.24594036 0.10150199 -0.115581654 0.05528185 -0.23327552 -0.101805754 0.1428288
-0.13345721 0.081948094 0.14686102 0.00048284052 -0.11395383 -0.050599307 0.19628412 -0.12931862
-0.12020031 0.010324919 -0.21597344 0.10059633 0.08752474 -0.13049649 -0.16528264 0.20961101
-0.14666422 0.056458037 -0.2129403 -0.19860907 -0.093356475 -0.12854253 -0.11639357 -0.047093958
0.03637092 0.2001808 -0.020997576 -0.14679234 0.15861356 0.06571842 -0.0005005429 0.28222778
-0.14700635 -0.20498103 -0.05286006 0.2516372 -0.012248123 0.06666638 -0.23075047 0.06790725
0.11591164 -0.0020109706 0.07099349 -0.116876535 0.0127369715 0.012039062 0.14185478 -0.09090532
0.13547 0.094830506 -0.09671609 -0.11047672 -0.054472543 0.20056067 -0.04237346 -0.093766384
0.10707536 0.043565974 -0.12493938 -0.030555567 0.10514929 -0.17420317 0.080559865 0.05865062
-0.019681837 0.108241 -0.09554641 -0.16305697 0.09784515 0.028213922 -0.0028663778 0.0028465332
-0.1330851 0.036600687 0.09380423 0.1608045 -0.11190266 -0.025735924 0.22684482 0.0877257
0.06109207 -0.10244117 -0.11521967 -0.18636495 0.01752386 -0.15888633 0.07017283 0.10662875
-0.2671333 -0.09710473 -0.032175403 0.2229637 -0.14745873 0.08868712 -0.051044434 -0.14688882
-0.1170623 0.044911534 0.03638322 0.11841402 -0.17933254 -0.1302555 0.17907001 0.16102403
-0.23382623 -0.016129473 0.08087711 0.17707822 0.14484394 0.1043868 -0.13844168 0.07636986
0.026838776 -0.019817261 0.018727722 -0.09482024 0.10633363 -0.26066503 0.23451425 -0.05399029
0.17134985 0.1340642 -0.25131142 -0.09657889 -0.042530578 -0.054714605 0.15142183 -0.07582947
-0.1711018 0.06462881 -0.1544014 0.00926766 -0.1592525 0.14015588 -0.10933348 -0.29187164
0.01917372 0.23994017 -0.105975606 0.124898545 0.011151148 -0.07224402 0.052796066 0.1980489
0.26421323 0.049392447 -0.15323965 0.16565657 0.14457226 -0.05581569 0.0012120055 0.024313705
0.2371268 -0.2789145 0.17465693 0.0375296 -0.21976793 -0.1349337 0.038235556 -0.10420644
0.2884823 0.11517276 0.29571542 0.20052311 0.09820817 -0.29620302 -0.023382049 0.044332538
0.09304595 0.3115682 0.11900629 -0.117490195 0.01652723 -0.24377191 -0.001235165 -0.10757916
-0.16586912 -0.17474186 -0.23099361 0.20624653 0.21785335 -0.04715743 -0.092107095 -0.15395346
0.24173439 0.2759277 -0.024611771 0.0955659 -0.10191745 -0.17706762 0.059003353 0.101377726
-0.09407457 -0.15606612 -0.5217303 -0.094530724 -0.087706484 1.1939203 0.1294152 -0.019354893
0.08065125 0.1048997 -0.23110567 -0.06135769 0.15405035 -0.06753834 -0.1901122 0.11156356
-0.19455105 -0.055060025 0.25447065 0.057748076 0.15202992 0.040731188 -0.20121384 -0.13062285
0.15134302 -0.2300033 0.09191244 -0.085839786 0.20794249 0.25408736 0.08440383 -0.13716091
0.018194098 -0.13187888 -0.10355133 0.31815144 -0.13040465 0.08483673 -0.2700015 -0.025469631

hiden_layers.2.bias f4 [64]
00000000: 2b3a 463d fa7d a5bc ab4d 863c 025d 003e
00000010: ac0b 35bc 9468 b73d f553 a83d e76a d0bd
00000020: f86e 03be a9c3 0b3d 2d22 be3c 8b47 563d
00000030: 8350 de3d 3719 5c3c eb9c edbc 7809 b2bd
00000040: d90f 85bc cc58 823d 9cb9 aebc ef0e 973c
00000050: a03a 91bd 35dc a0bd 1755 e93d 1aa4 1fbd
00000060: 292d 03bd 47f2 a1bb 39eb 263c d73c 843d
00000070: 7dcd 5cbd 48d5 c9bd 1cd0 60bd 93fd 54bc
00000080: bb00 b93c b6be 903d 2978 fc3b ffa1 c6bd
00000090: ef65 35bd c7ef e63c 2ad8 463d 4cde 18bc
000000a0: 049b 353d 48fb 253d 72d9 9abc 0b9d 2d3d
000000b0: 96ec b53c 1c62 5dbd e7b7 043c 8250 8dbd
000000c0: a30a 0d3d a79d 2cbd 0dc2 113c 40fa 433b
000000d0: f254 7fbd efa6 b5bd 1c1e e8bd 76d4 dbbc
000000e0: 29eb a53d ea99 bb3b a172 f73b d117 903b
000000f0: cd88 4cbd cb73 a1bc 6089 eabd 5a11 97bc
0.048395317 -0.020201672 0.016394457 0.1253548 -0.011050146 0.089554936 0.082191385 -0.1017664
-0.128353 0.034122143 0.023209656 0.052314322 0.108552 0.013433746 -0.029005488 -0.08693212
-0.016242908 0.06364593 -0.02132874 0.018439738 -0.0709126 -0.07854501 0.11393183 -0.03897486
-0.03202549 -0.004942212 0.010187917 0.06456917 -0.053906906 -0.09855133 -0.05488597 -0.01299991
0.022583356 0.07067625 0.007704754 -0.09698867 -0.044286665 0.028190507 0.048545994 -0.009330343
0.044337288 0.040522844 -0.018902514 0.042386096 0.02220754 -0.054048643 0.008100486 -0.06900121
0.034433972 -0.042142536 0.008896363 0.00299038 -0.06233687 -0.08869731 -0.11333868 -0.026834708
0.08101494 0.005725135 0.0075515066 0.0043973704 -0.04993515 -0.019708535 -0.114519835 -0.018440891

hiden_layers.3.weight f4 [64, 64]
00000000: 895f 1fbd dac0 883e 41dc 31bd 9b2c 0cbe
00000010: 3ea9 963e 0b46 40be 3149 61be 4621 5f3d
00000020: ea94 553e 2027 833d 3822 143e 70f3 1fbe
00000030: a254 87bd 90d4 753e 4e03 843d 6c87 ff3c
00000040: 5758 8a3d 79f2 babc a8da 51bd 61ed 7cbe
00000050: ce51 223e 305a 5ebe 9cef 843c bc0a d63d
00000060: 2b22 26bd 4c44 73be 8e5e aabc 1a37 87be
00000070: be31 233c e0ea 90bc ff7c 2cbe 5212 91bd
00000080: dc5f 3b3c a078 a5bd 7968 283e b55c 303e
00000090: 0f96 933d ab94 4fbe 1c1c b83d f432 0ebe
000000a0: 2ebf 10be a3d5 1ebe 98ea 02be 1d56 e4bd
000000b0: b60d 1b3e f72f 71be 480e 8d3e fccd b53c
000000c0: 1b53 003e f375 8e3e d9ae 90bc ac25 94bd
000000d0: fa3e 553e 3372 ac3d 0e81 ff3d 1149 0abd
000000e0: 3e52 d9bd 0eb2 063e 1987 ecbd 5404 14be
000000f0: a4cc 433e 76de 5b3e de04 483e def9 92bd
00000100: 9b6d fb3d b40f abbd 9940 5cbe 0975 363e
00000110: ec5e 383e 27f5 493d ff73 cdbd 3946 223e
00000120: 49dd ac3e aed1 a8bd 2272 3e3e ad06 63bd
00000130: 198e 9a3d c6fa 0bbe 282e 473e 86db 333e
00000140: 2e7d 4fbc 3eb2 00be 4bcb 9e3d 027c ea3d
00000150: 918c 30bd 1a76 0d3e cc67 7bbd dbd5 c13d
00000160: ad01 4a3c 8b00 83bb b3a2 53be 40c6 b9be
00000170: 8aee 13bd 7430 39be dee4 e9bd 8ec6 e3bd
00000180: 8cd5 b53d 6e65 fcbd 3dab e63d 95d6 293e
00000190: af5b 7b3e 758f dbbd fbfb fcbd 989a 6f3e
000001a0: dc79 5cbe ad4b 70be 56c1 3a3e 6c9b 81bd
000001b0: 4226 843d 3406 98be 9535 b23d fead d0bc
000001c0: e9ca 0d3d 9400 9abc d73b b83d a58e c7bd
000001d0: 6d8e 3abe b327 c7bd 5f72 07be f982 b13c
000001e0: e5f2 863d eeb6 f63d 8395 ff3b 29e4 d7bc
000001f0: bea0 493e acf3 143e 0d73 f4bd 1662 233e
00000200: ac00 41be 188d 003e 3ab3 3c3e 7740 03be
00000210: 9042 843e 764c dbbd a798 7d3d 0668 a43d
00000220: 7d89 cf3d aceb 053e 623d 38be 9888 8c3d
00000230: 089f 9939 5c82 463e 1e25 673d cadd 37bd
00000240: 16c9 473d 3428 a4be 6aef 3cbe 8258 68be
00000250: 3bf1 62be 4d1e f43c 1dcc 04be 7933 dd3d
00000260: 7127 75be 574a dd3d 84fa 223e 29e3 643d
00000270: e6f0 48be 0eef a03c a282 f73d 7d5c 963c
00000280: 2613 babe 5b20 26be c634 413e f637 24bd
00000290: 199d dd3d 2a65 38be a596 253e 0073 fe3d
000002a0: 5363 18be 8428 7a39 8892 dfbd 3441 4e3e
000002b0: d410 a03e 41e8 83be 3f16 f2bd eab5 993d
000002c0: 16b0 9a3d 4431 1e3e 618b 30be 49c3 c23d
000002d0: cd1b d43d 3961 ebbd ed75 053e 8926 81bd
000002e0: e193 833e d4c9 91bc 5cf3 c3bd 9b0f 47be
000002f0: 2537 36be 0cda 2dbd 4995 0dbd e47d 013d
00000300: 1437 09be fd14 933c 5c6a 973b 7c24 d9bc
00000310: bbb4 75be 82c1 8cbd e4b7 e4bd 5680 3fbc
00000320: d385 463e 2b1f 413b 7e15 47bd b14f cbbd
00000330: 905d 113d 2ad6 e2bd 3f92 9bbd f66d 653d
00000340: 7e7b 953c 61fa 2e3b 4b0e 14be 7e3c 8ebd
00000350: f80f 43be 0774 523e 0248 0e3e 65ab 32be
00000360: f0d4 ffbc 695a c6bd 61d8 9bbd f0dc 4dbe
00000370: bbba 723e 99f1 743e d70e 5a3e b9fc c93c
00000380: e928 d6bd 29ce a53d c833 a7bd cfca 833d
00000390: 7e5a 5c3d 581e 57be 2423 c9bd 9ffe 053e
000003a0: 9f58 983b 2866 56be dc08 11be 68d7 0abe
000003b0: 7191 3f3e 8e78 d53d a389 283e 3cd6 0b3e
000003c0: 8db8 333e 416f fc3d dffc 803e e278 36be
000003d0: 9b31 5abd 5af5 0d3d cb69 813e 34f8 483e
000003e0: 47c9 773d b845 f7bd e466 143c 63ca 173e
000003f0: b002 123d cdfb 03be 0284 ecbd ef4a 803d
-0.03890947 0.26709634 -0.04342294 -0.1368889 0.29425997 -0.1877672 -0.22000577 0.05447509
0.20857587 0.06403947 0.14466178 -0.15620208 -0.06607939 0.24006867 0.06445943 0.031192504
0.06755131 -0.022820698 -0.051233917 -0.24699928 0.15851519 -0.21714091 0.016227536 0.10451266
-0.04055993 -0.23756522 -0.02079704 -0.26409227 0.00996059 -0.017690122 -0.16844557 -0.070835724
0.011436429 -0.08079648 0.16446103 0.17222865 0.07206356 -0.20271556 0.089897364 -0.13886625
-0.1413543 -0.15511183 -0.12784803 -0.11149237 0.15141949 -0.23553453 0.27549958 0.022192948
0.12531702 0.27824363 -0.017661499 -0.07233748 0.20824805 0.08420219 0.12475787 -0.033761088
-0.106113896 0.1315386 -0.11549205 -0.14454776 0.19121033 0.21471581 0.19533107 -0.07176565
0.12276765 -0.083526045 -0.21509017 0.17818083 0.1800496 0.04930606 -0.1003189 0.158471
0.33762577 -0.08243118 0.18598226 -0.05542629 0.07546634 -0.13669881 0.19451201 0.1756421
-0.0126641225 -0.12567994 0.07753619 0.11449434 -0.043102805 0.13814583 -0.061378285 0.09464618
0.012329501 -0.0039978675 -0.20667534 -0.36284065 -0.03611616 -0.1808489 -0.11420606 -0.11121856
0.088786215 -0.12324034 0.1126313 0.16585763 0.24546693 -0.10720722 -0.12352749 0.23398817
-0.2153086 -0.23466368 0.18237814 -0.063284725 0.064526096 -0.29692233 0.08701626 -0.025473591
0.03461734 -0.018799104 0.089957885 -0.09744004 -0.18218394 -0.09724369 -0.13227223 0.021668898
0.06589297 0.1204661 0.0077998056 -0.026353912 0.19690225 0.14546078 -0.11936007 0.15955386
-0.18847913 0.12553823 0.18427745 -0.1281756 0.25832033 -0.10707943 0.06191316 0.080276534
0.10133646 0.13078183 -0.17992166 0.06861991 0.00029300922 0.19385666 0.056431882 -0.04488925
0.048775755 -0.32061923 -0.18450704 -0.22690013 -0.22162335 0.029799605 -0.12968488 0.10800833
-0.23940827 0.10805195 0.15915877 0.0558807 -0.19623145 0.01964524 0.12085463 0.018354649
-0.36342734 -0.1622328 0.18867788 -0.04009243 0.108209796 -0.18007341 0.16170748 0.12424278
-0.14881639 0.00023856951 -0.109166205 0.2014206 0.3126284 -0.25763133 -0.11820649 0.075054005
0.07553117 0.15448481 -0.17240669 0.09509904 0.10356865 -0.11493153 0.13033266 -0.06306178
0.2569876 -0.017796434 -0.095679015 -0.19439547 -0.17794473 -0.042444274 -0.034566198 0.0316142
-0.13399917 0.017954344 0.0046208333 -0.026506655 -0.23994724 -0.06872846 -0.11167887 -0.0116883125
0.19386987 0.002946804 -0.04860448 -0.09927309 0.03548962 -0.11076005 -0.075962536 0.05601307
0.018247362 0.002669953 -0.14458577 -0.06945132 -0.1904906 0.20552073 0.13894656 -0.17448194
-0.031229466 -0.09685213 -0.076096304 -0.20103812 0.23704045 0.23920287 0.21294723 0.02465664
-0.10457022 0.080959626 -0.08164173 0.06435167 0.053797238 -0.21007669 -0.09821156 0.13085411
0.0046492363 -0.20937407 -0.14163536 -0.13558733 0.18707825 0.104233846 0.16458754 0.13655943
0.1755087 0.123259075 0.25192925 -0.1781955 -0.053269964 0.034657814 0.25276026 0.19625932
0.060494687 -0.12073845 0.009057734 0.14823298 0.035647094 -0.12889023 -0.11548616 0.062642924

hiden_layers.3.bias f4 [64]
00000000: 4804 a0bd f684 44bd b5f8 b1bc f9c8 95bd
00000010: c331 6fbd 8a78 c03d 21cb 82bc a66f 6cba
00000020: acef 8ebd 265c 46be d722 a63d 1c55 92bd
00000030: 819e 86bd 07f9 123c 7fc0 863d 54eb 76bd
00000040: b00a ab3b cd64 a13d ee0d b53d b9cf f93c
00000050: f6cd 98bd e8f5 96bd 99c0 1a3b 778f 58bd
00000060: 878c 133d 7a52 0e3d 2cb7 4ebc 2c48 08bc
00000070: a9b8 b7bd 0822 6abb 1673 e33d 7981 fbbc
00000080: 1f29 cd3d e7a0 6abd f1eb 143d f215 37bd
00000090: 98d5 413d 0683 933c 2954 3d3d add7 413d
000000a0: a08a 29bd c587 c7bd e667 053e 062c 523c
000000b0: 2d53 4abd d02b 103d ff6c 2fba e8f7 273e
000000c0: 7f04 ed3a 9221 55bd 093a 8d3d 1e64 e23d
000000d0: e5cc 04ba 4fea 8cbd 4f0c 9b3c 59e2 75bc
000000e0: 6ed6 953d b6ff dc3d 9e1b d33c b864 11bb
000000f0: ac6b 583c 7e32 1cbe adff fabc 02d2 a8bd
-0.078133166 -0.047978364 -0.021725038 -0.07313723 -0.058397066 0.09397991 -0.015966 -0.00090193225
-0.069793075 -0.1937109 0.08112114 -0.071451396 -0.06573201 0.008970506 0.065796845 -0.06028302
0.00521978 0.07880554 0.088405475 0.030494558 -0.07461159 -0.07371122 0.0023613332 -0.052871194
0.03602269 0.034746625 -0.012616914 -0.008317988 -0.08970768 -0.003572585 0.11105935 -0.030701386
0.10017609 -0.057282355 0.036357824 -0.044698663 0.04732284 0.018006813 0.04622284 0.047324825
-0.04139197 -0.09742693 0.13027915 0.012827879 -0.04939573 0.035198033 -0.0006691962 0.16403162
0.0018083005 -0.05203397 0.06895835 0.11054252 -0.0005065932 -0.06880628 0.018926768 -0.015007579
0.0731629 0.107909605 0.025770005 -0.0022185277 0.013209265 -0.15253636 -0.030639494 -0.08243181

hiden_layers.4.weight f4 [64, 64]
00000000: 721b 47be 6934 e7bd 140e 643d 9c21 6cbd
00000010: 0b3b bebe aa55 213d 2cef 073c 9b0f bbbc
00000020: 0174 ef3d 3979 95be 6ddf afbd 8a73 a43d
00000030: 79aa 16be 237d e4bd 06f9 893e af28 8f3c
00000040: 69e1 5db9 0bf3 43bc fba4 3bbd 38f3 17bd
00000050: d2bc 35be 8604 64bd 95c8 15be 098c 55be
00000060: 8db2 5dbd 17f3 37be 40f6 7d3e 3efd 67bd
00000070: 23d9 5ebe 925f 58bc 4edb 11be af01 66be
00000080: 5df1 aebd ee97 fa3d b0e7 263e f31a 8dbd
00000090: 7227 31be 90c7 78bd 7260 293e b123 d1bd
000000a0: 7a5b bebd 70d7 52bd f0e9 0a3e a533 5d3e
000000b0: 892f 263e 299a 2abe f998 6cbe 5d43 0f3e
000000c0: 7397 53be f454 4abe de44 093d 87a9 32be
000000d0: c877 27be 1a41 26be 06ea 3b3d 4542 493e
000000e0: 6144 11bb 120c 723e fba0 f63d 0e0f a2bd
000000f0: 2814 913b 8caf 46be cef2 3ebe 9870 653d
00000100: 6695 193e d26b 71be 4689 f23d 4bea 17be
00000110: 6774 133e 000f e93d 66d9 72be 7890 333d
00000120: 7329 463e 61bb 25bd ac8f babd 7e51 6abe
00000130: b14c 853e 24d0 823e f7b8 4c3d 329d 44bd
00000140: aed4 753e ca8e 94bd b140 63bd 1f2b 64be
00000150: 2a39 fdbd 432c 45be f1a9 58be 0356 34be
00000160: 7920 f63d bf6f 233d 4943 36be 7e4e 813d
00000170: 1c6a 1dbe d62e 8d3d 8098 38be 3ba4 09be
00000180: ebfd 74be 37a0 8c3d 1e40 4a3e 1442 05be
00000190: 786a 563e b7af f7bd 8dff 8dbd f5fb e4bc
000001a0: 106e dd3d 968a 3f3e c0d7 59bd b01d 8e3d
000001b0: f81c 89bd fb06 ea3c 078b e4bc 96d3 063d
000001c0: 655a 383e 720f 963c 2c09 45be 0938 14bd
000001d0: f49e 983c f54f 95bd 4bb9 eabd d963 39bd
000001e0: afba b43d 310d d43d 0f6f c03d 917e 9abd
000001f0: 5ff1 5abe f5be 4e3e 4b38 973c 6f03 dc3d
00000200: b59e 7d3c f00d 503e 35a2 643e 4abb 8f3e
00000210: 2fbf 043e c28e 55bc 3c0a 4d3d e2e4 48be
00000220: 5eed 123d eaea 91bd 051b 50be 74a7 37bd
00000230: 7fd9 863c 6993 a13d e9d2 88bd edd5 de3d
00000240: 51f4 703e 8ea6 f93c 3de2 8b3d e5a1 d73d
00000250: e899 97bd 65c8 8b3e 0ffb 1c3e fbef 03be
00000260: d21f 133e 8077 15be 28f5 ad3d b03c 51bd
00000270: f204 4b3e 3fda 20be 0641 323d 6f9b 603e
00000280: 4ec6 8cbd df1e 163e 168d eabc 1168 973e
00000290: 271c a73d f6fb 06be 1ae1 e1bd 839a 373e
000002a0: 05b0 1b3e 01b3 69bc 25fd 27be 9380 d63d
000002b0: aaab 1dbd a82a 283c 1379 6dbd ad49 2b3e
000002c0: 28c1 ed3d bd21 0c3e 19ce cfbd adc4 78be
000002d0: 3ce3 1dbe 0afe 353e 7b44 0ebc 2f42 a0bd
000002e0: 764e 353e 72af 03be 7a64 4d3e d46c f03d
000002f0: 2a94 0e3d 6325 8e3e 0366 25be 7b21 803e
00000300: 210e 5bbe 900d 77be a308 d33d 391b 803e
00000310: db4b 853e cdea 503e d5ba 0cbe 9f66 8e3e
00000320: 1ea9 063e 7745 1bbd bb10 1abe 94a2 42be
00000330: c52d 933e 2118 6dbc e53f 8fbe 0da8 4dbd
00000340: 8153 0e3e 2a28 6cbd f86b 6dbe 8993 cb3d
00000350: 60a1 b33b 5b42 1cbe f47b 9fbd ab33 90bd
00000360: 5068 323c 7dc7 0abd 75d7 3e3e ed29 873e
00000370: b10c 89bd e0a0 c5bd 351b 3bbe 0f21 60be
00000380: a34a 78bd 1df9 783e 5955 823a 3164 5ebd
00000390: 4383 8bbd 1162 a2bd 0704 3dbe 1f76 3a3e
000003a0: 84b7 28be eedf a43e d389 55be 073f c8bd
000003b0: 895e 95bd 4395 26bd b970 a43d 18d9 1d3d
000003c0: bc56 50bd d436 53be b34a 083e 2cea 8b3d
000003d0: e553 f13c 81d6 5a3e bbc7 0bbe de66 1dbe
000003e0: da37 7e3d 5919 a23d 8913 19be c469 673e
000003f0: d4af 153e 7115 8fbc 6665 02be 72d8 133e
-0.19444063 -0.11289293 0.05567749 -0.05764924 -0.3715442 0.039388336 0.008296769 -0.02283459
0.11692048 -0.29194048 -0.08587537 0.0802985 -0.14713468 -0.111566804 0.26947802 0.017475454
-0.00021160174 -0.011959801 -0.045811635 -0.037097186 -0.1774781 -0.055668376 -0.14627297 -0.208542
-0.054125357 -0.17963825 0.24800968 -0.056637995 -0.21762519 -0.0132063795 -0.14243814 -0.2246158
-0.0854213 0.122360095 0.1629932 -0.06889906 -0.17300203 -0.060737193 0.16540697 -0.10211886
-0.092947915 -0.05147499 0.13565803 0.21601732 0.1622907 -0.1666037 -0.2310523 0.13990541
-0.20663242 -0.1975897 0.033512942 -0.17447482 -0.16354287 -0.16235772 0.04587748 0.19654186
-0.0022166 0.23637417 0.12042423 -0.07913028 0.0044274516 -0.19402903 -0.1864731 0.05601558
0.14998397 -0.23576286 0.11842589 -0.1483547 0.14399873 0.11379814 -0.23715743 0.043838948
0.19351749 -0.0404619 -0.091094345 -0.2288265 0.26035073 0.25549424 0.049981084 -0.048001476
0.24006912 -0.07253797 -0.055481616 -0.22282074 -0.12364419 -0.19255166 -0.21158578 -0.17610936
0.120179124 0.03990149 -0.17799105 0.06313799 -0.15372509 0.06893699 -0.18026924 -0.13441555
-0.23924987 0.06866496 0.19751021 -0.13013488 0.20939052 -0.12094062 -0.06933508 -0.027952174
0.108120084 0.1870521 -0.05318427 0.06939256 -0.066949785 0.028567782 -0.027898325 0.032916628
0.18003233 0.018317912 -0.1924178 -0.03618625 0.018630482 -0.07290641 -0.11461123 -0.045261238
0.088246696 0.103540786 0.09396183 -0.07543672 -0.21381138 0.20190032 0.01845946 0.107428424
0.015479733 0.20317817 0.22327502 0.28072578 0.12963556 -0.013034524 0.05005859 -0.19618562
0.035870902 -0.071248844 -0.20322807 -0.04483743 0.016461132 0.078894444 -0.06680853 0.10880647
0.235307 0.030474927 0.06830261 0.10528926 -0.07402402 0.27301326 0.15330146 -0.12884514
0.14367607 -0.14596367 0.084940255 -0.051083267 0.19826105 -0.15708254 0.043519042 0.21934293
-0.06873761 0.14660214 -0.028631728 0.29571584 0.081596665 -0.13182053 -0.11029263 0.17930035
0.15203865 -0.014263869 -0.1640516 0.10473742 -0.03849379 0.010264076 -0.057976793 0.16727324
0.11609107 0.13684745 -0.10146732 -0.24293776 -0.15418714 0.1777269 -0.008683319 -0.078251235
0.17705712 -0.12859896 0.2005786 0.11739507 0.03480927 0.277629 -0.16152196 0.25025544
-0.21392109 -0.24126267 0.10304382 0.2502077 0.26034436 0.2040207 -0.13743146 0.2781267
0.1315045 -0.037908044 -0.15045445 -0.19007331 0.28745857 -0.014471085 -0.27978435 -0.050209094
0.13899042 -0.05765549 -0.23185718 0.099402495 0.005481884 -0.15259688 -0.07787314 -0.07041105
0.010889128 -0.033881653 0.18636878 0.26399174 -0.06691874 -0.09649825 -0.18272097 -0.21887611
-0.060618054 0.24313779 0.0009943648 -0.05429477 -0.068121456 -0.07928861 -0.18458568 0.18209122
-0.16476256 0.32202095 -0.20853357 -0.097776465 -0.07293422 -0.04066969 0.08029313 0.038537115
-0.050863966 -0.20626384 0.13309745 0.06831774 0.02945895 0.21370889 -0.1365041 -0.15371272
0.062064983 0.07914991 -0.14948858 0.2259894 0.14617854 -0.017466279 -0.12733993 0.14438036

hiden_layers.4.bias f4 [64]
00000000: fbae 9d3d 385b 27bd 2f27 98bd 7df0 44bd
00000010: 5d2a bcbd f026 7e3c eb63 ba3d fae5 d6bc
00000020: 991a e4bd 51af 563d 1411 223d 3b4e 44bc
00000030: 6ac5 8dbc 5717 86bd 4c86 513d b60c a33d
00000040: 7679 e13d 31c9 d83c 55e0 283d 3db5 58bd
00000050: bc41 3ebd 6534 843d d5ca e93c 8a0a 56bd
00000060: 5865 92bd 686d 2dbe f538 61bc 1058 433d
00000070: b0a0 3c3d c002 b2bd eb18 abbd 5d2a e53d
00000080: 2400 01bd 4e7a ecbd a63c e4bd 41ac 6fbd
00000090: 7c96 573d e031 613d 9e3f 95bc db56 32bd
000000a0: 0a1e e73d 2c2a ab3c 0e0b 43bd 846b c4bd
000000b0: 36eb 423b 65f7 aa3d 26be 003e cd8f 21be
000000c0: 878c db3d aee1 023d d65f 84bd 66c2 723d
000000d0: 3ab8 23bd deb2 a73c bec6 893c 93ab 9fbc
000000e0: 74ae ff3d 39eb 203d 9cf0 0d3c 7d48 54bd
000000f0: 0af4 613d 3781 9bbb 5bdb 1bbd b41b fdbc
0.076993905 -0.040858477 -0.07429349 -0.04808091 -0.09187768 0.015512213 0.09101089 -0.026232708
-0.111378856 0.05241329 0.03956707 -0.011981542 -0.017306048 -0.065474205 0.051153466 0.07961409
0.11009495 0.026463123 0.041229565 -0.052907217 -0.046449408 0.06455306 0.0285391 -0.052256145
-0.07148236 -0.16936266 -0.01374649 0.047691405 0.04605168 -0.08691931 -0.08354362 0.11189721
-0.031494275 -0.11546765 -0.1114438 -0.058513884 0.052633747 0.054979205 -0.018218812 -0.043539863
0.11285026 0.020894133 -0.047617964 -0.095908195 0.0029742247 0.08347968 0.12572536 -0.15777512
0.10720163 0.031953506 -0.06463592 0.059267424 -0.039970614 0.020471033 0.0168184 -0.019490993
0.12484446 0.039286826 0.008663323 -0.051826943 0.055164374 -0.004745628 -0.03805099 -0.030896999
