results/8_with_inertia/epoch180/model_weights.pth (torch, 749334 bytes, 128 tensors)

init_layer.0.weight f4 [64, 5]
000000 c2 5f a5 be 63 bf ac be 98 14 2b 3e f0 6b 2e bd
       -0.3229962 -0.33739766 0.16707075 -0.042583406
000010 21 4c 69 3e f3 55 91 bd 79 df 38 3d 33 fc a4 be
       0.22782947 -0.07096472 0.045134995 -0.32223663
000020 26 b1 12 3d 12 d3 14 3e e6 fd af 3e 0d 37 ae bd
       0.035813473 0.14533642 0.34373397 -0.08506594
000030 6e 70 ef 3d bf ba dd 3d ce 40 91 3e e7 5d d3 bd
       0.11691366 0.108266346 0.28369755 -0.10320645
000040 29 b8 64 be 5a 8c 90 3e 04 36 66 be 29 f3 27 3e
       -0.22335877 0.2823208 -0.22481543 0.16401352
000050 78 16 79 3e b2 0c 2e 3e f8 76 13 be b8 ca 79 3d
       0.24324977 0.1699703 -0.14400852 0.060984343
000060 1d a2 1c 3e 4f fb a7 3e 96 65 85 3e 63 7f 72 bd
       0.15296216 0.3280892 0.26054066 -0.059203517
000070 8a 45 3e 3e d5 5e 93 3d 6f 53 5c 3d 24 83 85 be
       0.18581215 0.07195822 0.053790506 -0.26076615
000080 d8 ff 81 3e 3c 2b c5 3c 06 4e 90 3e 71 5f 96 be
       0.25390506 0.024068467 0.28184527 -0.2936969
000090 9c 99 18 be e7 aa 71 3d 46 e7 91 3e 6e 28 98 be
       -0.14902347 0.059000876 0.2849676 -0.29718345
0000a0 05 c5 16 3e b0 41 9c be f4 52 11 3e 3e 50 14 bd
       0.14723594 -0.30518866 0.141918 -0.036209337
0000b0 f6 38 c6 3d bf 14 84 be 20 4b a0 3e 4b a9 8f be
       0.09678833 -0.25797078 0.31307316 -0.28058848
0000c0 e1 3c 80 be 79 a2 00 bd 4a e9 80 3e 0f f5 fb 3d
       -0.25046447 -0.031404946 0.25177985 0.123026006
0000d0 3a ac d2 bd cf 31 96 be a1 e8 a8 3d fe 2a 8a be
       -0.10286756 -0.29334876 0.082474954 -0.26985925
0000e0 1d ac 85 3e 02 8e 08 be de c1 a7 3c 31 25 c3 3b
       0.26107875 -0.13335422 0.020478185 0.0059553613
0000f0 4e f1 94 3d 35 53 83 be 59 f6 85 be 7f 0d 28 3e
       0.07272588 -0.2564942 -0.2616451 0.16411398
000100 e3 cb 8d 3e e6 3b 47 be 78 9c 19 3e d9 dc 33 bd
       0.27694616 -0.19456443 0.15001094 -0.04391179
000110 3b d1 32 3e a0 dd 86 be 54 04 9a bd e1 ab bb bd
       0.17462628 -0.2634096 -0.07520357 -0.09163643
000120 8a e4 4b bd 7c 4a a8 3d 94 a2 89 3c f9 3b 4f 3e
       -0.0497785 0.08217332 0.016801156 0.20237722
000130 72 2d 1b bd e2 ce 9c be ad 8e 93 3e 09 03 5a 3e
       -0.037885137 -0.3062659 0.2881979 0.2129022
000140 74 4f c7 3d 90 3f dd bd 27 94 65 3e 83 30 7f be
       0.09731951 -0.10803139 0.22419797 -0.2492085
000150 42 a6 61 3e cd 49 3e bc 39 8d 8b 3e de 65 5e be
       0.22036079 -0.011614275 0.27256182 -0.21718547
000160 b7 34 ee 3d d8 8a 91 3d bb 22 1b be 6e 44 89 3e
       0.11631148 0.071065605 -0.15149967 0.2681002
000170 f5 12 13 be a2 99 4d be 7c 00 97 be 5d 63 51 be
       -0.143627 -0.20078138 -0.29492557 -0.2044806
000180 b9 0d 4f 3e 9b f6 f1 3d f2 d7 6b be 8a be 09 3d
       0.20220079 0.118146144 -0.23031595 0.033628978
000190 ac 5e 7f be 4f d7 61 3c 16 e1 3f 3e 03 d0 43 be
       -0.24938458 0.013784244 0.18738207 -0.19122319
0001a0 f2 f3 83 be 5f d0 94 be 7a 31 93 be 7b 41 9e 3d
       -0.25772053 -0.29065225 -0.28748685 0.07727333
0001b0 1c 0d 76 3e 77 e1 79 be 84 22 e8 bd e3 38 48 bd
       0.24028438 -0.24402414 -0.11334708 -0.048882376
0001c0 c5 0f 4b be 71 36 14 3e a9 a5 39 be d3 10 6a 3e
       -0.19830234 0.14473893 -0.181296 0.2285798
0001d0 48 a7 2d be 5a 67 96 3d 43 b6 cc 3c 81 a7 dc bd
       -0.16958344 0.073439315 0.024989253 -0.10774136
0001e0 cb 1b 30 3d a6 30 18 3e d6 75 61 3e ef 2a e5 bd
       0.042995255 0.14862308 0.22017607 -0.111898296
0001f0 f0 28 f0 3d a9 08 8f 3e 04 2c a7 3e bb 94 3c 3e
       0.11726558 0.27936295 0.3265077 0.18416111
000200 e2 ff 17 be be 12 30 3e f3 6f 90 be 0d 39 75 3e
       -0.14843705 0.1719465 -0.2821041 0.23947544
000210 fe 42 39 bc 4a d9 95 3d eb 2b 95 3e 28 76 03 be
       -0.011307476 0.07316835 0.2913507 -0.12838042
000220 29 38 96 3e eb 40 62 3e 1a 16 49 3e 9a eb 5a 3e
       0.29339722 0.22095077 0.19637337 0.21378937
000230 c6 76 b2 bd d2 00 21 be da 2c 82 be 48 2a 1c bc
       -0.087140605 -0.15722969 -0.25424844 -0.009531565
000240 28 f5 82 3e 95 f2 10 3e c9 5e 25 3e e3 6a 27 3d
       0.25577664 0.14155038 0.16149439 0.04087342
000250 7b 80 a7 bd 01 dc 2a 3e 76 03 38 3e cf a3 11 3d
       -0.081788026 0.16685487 0.1797007 0.03555661
000260 f4 87 68 3e 45 55 7a 3e bf 76 67 3e 68 2c 62 be
       0.22708112 0.2444659 0.22603892 -0.22087252
000270 0f 8f 98 be 3b 76 fe 3d e6 f6 ea bd 0b 76 2d be
       -0.29796645 0.124248944 -0.114728734 -0.16939561
000280 10 e0 73 be fd 71 f4 3d 16 0f 78 bd 74 12 83 3e
       -0.23815942 0.11935804 -0.060561262 0.25600016
000290 fa 0c 1e be ee 9b 47 3e f8 90 9b be 75 7b 3a be
       -0.15434638 0.19493076 -0.3038404 -0.18211158
0002a0 d5 e0 02 3e b9 24 f0 3d 19 66 56 bd f7 8b 0d 3e
       0.12781079 0.11725754 -0.05234346 0.13822924
0002b0 3c 3d 8a bd e1 5b 39 3e aa 06 55 be 56 15 ba 3d
       -0.06749961 0.18101455 -0.20803323 0.09086101
0002c0 72 97 4f be 77 13 65 3e 5c ef 95 3e 70 22 66 3e
       -0.20272616 0.22370706 0.2928418 0.22474074
0002d0 09 35 6c 3e ad d2 25 be c2 25 ad 3e 87 32 47 3e
       0.23067106 -0.16193648 0.3381787 0.19452868
0002e0 bc 35 85 3c c8 bf a9 bd be ae 91 bd 2a 27 7c 3e
       0.016260974 -0.082885325 -0.071134076 0.24624315
0002f0 2c 45 8a 3d 32 18 3c 3e 5d 4f 06 be 58 bc 29 be
       0.06751475 0.18368605 -0.13116212 -0.16575754
000300 e7 0d 61 3e 22 ba ab 3d cc 7e fe bd 4f dd 57 be
       0.2197796 0.083851114 -0.12426528 -0.21080516
000310 70 33 36 be 6b cf fb 3d ca 45 43 be 20 60 9f 3e
       -0.1779306 0.12295421 -0.19069591 0.31128025
000320 93 78 84 3e b5 84 67 be 63 50 25 3e ab 17 a7 3e
       0.2587324 -0.22609217 0.16143946 0.32635245
000330 14 af 25 be 89 bf 47 3e 0f fb 1c 3e 57 93 f7 bd
       -0.16180068 0.19506659 0.15330146 -0.1208865
000340 d1 20 02 be a1 12 8b 3e 80 89 62 bd 3c 83 20 be
       -0.12707831 0.2716265 -0.05530691 -0.15675062
000350 67 aa 1b 3e 0c c2 77 3b 86 ec 2d 3d 9d 1c 26 3e
       0.15201722 0.003780487 0.042461894 0.16221853
000360 a6 55 d5 3d af 66 ac bc 3b dd 13 3e 91 15 70 3d
       0.10416727 -0.021045057 0.14439861 0.058614317
000370 4c ad d5 bd 9b 35 a7 be d7 14 f0 bd 08 a0 7e be
       -0.104334444 -0.32658085 -0.11722725 -0.24865735
000380 ed 7f 3e 3e 23 b9 10 be 8d c0 66 3d d1 8d 7c 3e
       0.18603487 -0.14133124 0.056335974 0.24663474
000390 45 e2 42 3e a0 a0 5e 3e 4a 68 84 be b9 ca fa bd
       0.19031627 0.21740961 -0.25860816 -0.122456975
0003a0 37 66 94 be 77 1c fe 3d 44 90 35 be a9 70 52 be
       -0.28984234 0.12407773 -0.17730814 -0.20550789
0003b0 3f f8 8c 3e a5 71 3f 3e c5 0a 97 be 10 ce 85 3e
       0.27533147 0.18695696 -0.29500404 0.26133776
0003c0 92 fb 30 3e bd fa 27 be 86 16 3a bd 7e 69 53 bd
       0.17283466 -0.16404243 -0.045431636 -0.051614277
0003d0 44 24 48 be 90 42 6f be dc 09 ec bd 02 bd 3a be
       -0.19545084 -0.23365235 -0.11525318 -0.18236163
0003e0 bc 29 4a bd 76 18 88 be ef 45 16 3b 5b f9 97 3e
       -0.049356207 -0.26581162 0.0022929867 0.2968243
0003f0 66 d7 7c 3e b2 c2 75 be b5 17 3e 3e 17 1e ea bd
       0.24691543 -0.24000052 0.18563731 -0.114315204

init_layer.0.bias f4 [64]
000000 38 6d 2e bc 42 66 b3 3c ea f1 52 3b d2 cf 1a bc
       -0.010646157 0.021899346 0.003218765 -0.009448962
000010 52 6f 90 bc 44 1b 9c b9 b9 27 78 3b 95 cf 0b bc
       -0.017631207 -0.00029774953 0.0037865473 -0.008533378
000020 72 3e 15 bc 7b 17 12 3c be bc 96 3a bf 95 33 3c
       -0.009109126 0.008916731 0.0011500341 0.010960995
000030 92 d0 87 3a df 1f 54 3c e8 32 40 3c e7 0f 22 3b
       0.0010361841 0.012947052 0.011730887 0.0024728717
000040 eb a2 7c ba dc 0a 4a bb 39 c0 5b bc 89 08 44 bc
       -0.0009637314 -0.0030829227 -0.013412529 -0.011964926
000050 66 67 a4 bb d0 12 2d 3c 39 df 87 3b e3 a4 65 3c
       -0.005017209 0.010563567 0.0041464833 0.014016363
000060 76 b5 83 bc 28 db 1e bc 11 25 9b ba 12 8a a3 3b
       -0.016077738 -0.009695806 -0.0011836608 0.0049908245
000070 e4 f3 0e bb 46 3b 16 bb 0a 03 dc 3a a8 3f 1b ba
       -0.002181285 -0.0022923513 0.0016785574 -0.0005922266
000080 7c 17 d7 b9 0b d6 b7 3c 20 ad 63 3b 70 f1 d6 bb
       -0.00041025493 0.02244093 0.0034740642 -0.0065595433
000090 f2 e8 7a bd 6a c3 91 bc a3 2d a8 bb 32 d0 9a 3c
       -0.06125731 -0.017793376 -0.0051323934 0.018898103
0000a0 6e ad 14 bd ae 9b 11 bc d9 bf 31 bc 70 66 97 3b
       -0.036298208 -0.008887215 -0.010848963 0.004620366
0000b0 06 be d1 3b 47 3b 62 bc db 7a 29 bc 1d 42 ee 3b
       0.0064008264 -0.013808078 -0.010344232 0.007271065
0000c0 6a fa 00 3b 5a f4 aa 3c 22 f8 bc bc 5d f0 1b 3c
       0.0019680508 0.020868469 -0.023067538 0.009517756
0000d0 13 bc eb bb a4 b8 12 3d 84 42 81 3a c8 f6 9b 3b
       -0.007194051 0.03582062 0.0009861742 0.004759643
0000e0 c9 26 b1 3a 71 15 77 3c 52 84 d6 3b e7 0b 6c bc
       0.0013515587 0.015080796 0.0065465355 -0.014407135
0000f0 8b 7f 8b bc 10 2f cb 3b e0 79 8a 3a 70 02 21 bc
       -0.01702859 0.0062006786 0.0010564886 -0.009827241

hiden_layers.0.weight f4 [64, 64]
000000 ca c9 23 3e 19 82 0c 3d a0 f0 a2 3d 14 e0 79 3d
       0.15994945 0.03430376 0.07956052 0.061004713
000010 76 2e 2d be 22 a4 1b 3e 8c 43 24 be 18 0b 21 be
       -0.16912255 0.1519933 -0.16041392 -0.15726888
000020 2f 4d bc 3d 3f 9a 2a 3e 7d 00 a0 bc d1 e5 54 3e
       0.09194409 0.16660403 -0.019531483 0.20790793
000030 4a 56 c0 bd d3 e6 12 3e 45 ee 07 3b 59 05 17 bd
       -0.09391458 0.14345865 0.0020741385 -0.036870334
000040 b7 6d f3 bc a9 ed 90 3d c2 ae 93 bd bb cb 04 3e
       -0.029715402 0.0707658 -0.07211067 0.12968342
000050 d9 52 4c be da 55 13 be 43 fc 52 3e 8a eb 13 be
       -0.19953479 -0.14388219 0.20604043 -0.1444532
000060 30 99 3b 3b 3b da 68 3d 22 b7 f9 bb 3d 02 2f be
       0.0028625242 0.056848746 -0.007620708 -0.17090698
000070 ce ae dd 3d c2 a5 c9 bc 20 a6 32 be a4 ac 8c 3d
       0.10824357 -0.024615172 -0.17446184 0.06868866
000080 27 48 a5 3d d3 03 ac 3d 3e 42 db 3d 85 8a 64 be
       0.080704026 0.08399167 0.10705994 -0.22318466
000090 6a e3 7d be 6a ad 44 bd 15 b0 3d be 90 4c 46 3e
       -0.24793783 -0.048016943 -0.18524201 0.19365144
0000a0 76 58 2d 3d 7a 46 16 be b8 aa 7a be 4e f2 c9 bd
       0.04232069 -0.14675322 -0.24479187 -0.09860669
0000b0 6e 9d 2f be 94 d3 ec bd c5 00 40 bd e1 39 ee bd
       -0.17149898 -0.11563793 -0.046875734 -0.11632133
0000c0 dd d5 0f 3d cb 77 49 3c 42 04 25 3e e8 9b d5 3d
       0.035116065 0.012296627 0.16114905 0.104301274
0000d0 0e 25 00 3e 44 87 91 bd e5 c5 b1 3d 2c 12 3d be
       0.12514135 -0.07105878 0.086803235 -0.18463963
0000e0 fa 4a 26 3c 6d 94 0c be 33 24 27 be a1 a3 e9 3c
       0.010149712 -0.13728495 -0.16322403 0.028520407
0000f0 9b c9 ba bd 96 37 5f 3e d5 22 33 be de 0a 08 be
       -0.091204844 0.21798548 -0.17493756 -0.13285396
000100 54 3c 7d bd d4 99 5f bd fa b8 bf bd 88 60 a7 3d
       -0.06182511 -0.05459006 -0.09361453 0.08172709
000110 f7 f3 ab bd d6 a0 06 3e 62 31 89 3d 7e 30 da 3d
       -0.08396142 0.13147292 0.06698872 0.106537804
000120 1e 4a 92 3e 6d 03 e2 bd 48 0a 49 3e c8 da 45 bd
       0.28572172 -0.1103581 0.19632828 -0.04830435
000130 ed 78 09 3d 13 6a 2f 3e a1 16 a6 bc 52 44 86 bc
       0.03356259 0.17130308 -0.020274462 -0.01639
000140 89 89 bd 3d ea 56 a7 bd 8a fc 19 bc 4c 15 13 3e
       0.092547484 -0.081708744 -0.009398589 0.14363593
000150 96 cc 12 bd da 29 13 bd 58 af b6 bd ad 93 01 3e
       -0.03583964 -0.035928585 -0.08920163 0.1265399
000160 42 88 61 bc b5 24 67 bd 36 9c 17 be 2b 65 bd bd
       -0.013765397 -0.05643149 -0.14805683 -0.09247812
000170 e7 0e 1f 3e ca 8c af bd 0b c1 fb 3d af d7 1a bd
       0.15533029 -0.08571775 0.122926794 -0.03780335
000180 69 2a f0 bd c5 d9 34 3c 93 57 5e be 73 09 db 3d
       -0.11726839 0.011038248 -0.21713094 0.10695162
000190 b5 95 2e be 25 a3 09 be 0b 0e 96 bd a3 81 5c 3e
       -0.17049296 -0.13441141 -0.07326897 0.21533827
0001a0 6c e0 d4 bd bb 0a 80 3b 69 2a 59 3c 4b ef 52 be
       -0.103943676 0.003907529 0.01325474 -0.20599096
0001b0 8f 11 6e 3e 36 1e 84 3d 57 58 5b 3e 38 aa 00 3e
       0.23248886 0.06451075 0.21420418 0.12564933
0001c0 ca b6 39 be 41 54 7d 3d 79 cd 52 be 1f 2b 1a be
       -0.18136135 0.06184793 -0.20586194 -0.15055512
0001d0 b5 02 c7 bd a2 f7 68 be b4 0b 27 3e 95 6e d1 3c
       -0.09717313 -0.22750714 0.16313058 0.025565425
0001e0 fe 0c 13 3e ce e4 30 be c9 a2 4a 3e 08 cc 5e bd
       0.14360425 -0.17274782 0.1978866 -0.054393798
0001f0 13 84 ef bd fc 38 0f be 20 4e 30 3e 88 0e d4 3c
       -0.11695113 -0.13986582 0.17217302 0.025885835
000200 90 2a 67 bd 28 38 6b be 92 68 2e ba 14 89 d4 3d
       -0.056437075 -0.2297064 -0.00066531554 0.10377708
000210 01 87 3d be 8e c2 f0 bc f7 8b 05 3c e9 b1 41 3e
       -0.18508531 -0.029389646 0.008151046 0.18915524
000220 45 48 ad 3d 15 e1 35 be b8 e0 83 3d 54 eb 8e bd
       0.0846105 -0.17761643 0.06439346 -0.06978479
000230 d0 e3 2f 3e 44 30 4c 3e fa 6d 45 3d 2c ae 50 be
       0.17176747 0.19940287 0.048200585 -0.20378941
000240 0a f9 d2 3c 94 8d 4f 3e 75 5e 89 bd 72 3d c9 3d
       0.025753517 0.20268852 -0.067074694 0.09826173
000250 52 ee f1 bd b0 33 00 3e cb 26 c8 3d 07 27 6a be
       -0.11813034 0.12519717 0.09773024 -0.2286645
000260 de 26 2d 3e 75 d8 2b 3e 9e 22 07 bd b3 48 76 3d
       0.16909358 0.1678179 -0.032991998 0.060127925
000270 2f 46 25 3e ba 00 2e be 99 80 08 3e 93 7f 1c 3d
       0.16140054 -0.16992465 0.13330306 0.0382076
000280 46 b5 64 3e ef a0 1d bd f7 4c c2 bd fe 98 b4 3d
       0.22334775 -0.038483556 -0.09487336 0.088182434
000290 ff d9 ab 3d d7 e0 36 3e 88 0b 00 b8 57 76 b4 3d
       0.08391189 0.17859207 -3.0528317e-05 0.08811634
0002a0 72 59 9f bc 20 1c 3b 3e ec 86 02 3e ca a3 2b bd
       -0.01945183 0.18272448 0.12746781 -0.04190425
0002b0 2f 86 3b 3e 8a d5 81 3e c9 25 59 3d e9 48 0d be
       0.18312906 0.2535823 0.05301455 -0.13797344
0002c0 df 75 c2 3d dd 54 1e be 7d 8e 98 bd d1 5d 5b 3c
       0.094951384 -0.1546206 -0.074490525 0.013389067
0002d0 c3 8d 77 bd 5c 83 df 3d ed 05 40 3c 94 38 1c be
       -0.06043793 0.10913727 0.011720163 -0.15255958
0002e0 ef e5 5f be a9 cb 40 3d 93 44 3b be cb e2 2c 3e
       -0.21865056 0.047069225 -0.18287878 0.1688339
0002f0 d5 c8 95 3d cb e8 b8 3c 56 c2 0f be bf 1f 06 3e
       0.07313696 0.022571942 -0.14038977 0.13098048
000300 5a c5 38 be 6f e9 fd bc 97 56 2d 3d ab 96 2d be
       -0.18044034 -0.030995099 0.042318907 -0.16952007
000310 86 45 a8 3d e0 cf 1a bb 5b 6f 5b 3d 42 5d 48 be
       0.082163855 -0.0023622438 0.053572994 -0.19566825
000320 99 c3 0f 3e cc 9d eb 3d 56 69 5c 3e b2 9a e9 3d
       0.14039458 0.11504707 0.21524557 0.11406459
000330 3e e6 4d bd 68 44 44 3e 77 b9 9a bd 13 80 d3 3d
       -0.050268404 0.1916672 -0.07554906 0.103271626
000340 fe af 4c be 39 f3 2a be d5 90 11 3e 95 5a 18 3e
       -0.1998901 -0.16694345 0.14215405 0.14878304
000350 2a 2a 28 3e 89 2f 6d be e1 b2 15 be 72 c8 62 be
       0.16422334 -0.23162664 -0.14619018 -0.22146776
000360 a2 d8 3e be 34 2f 5b 3e 4e 92 4e 3d 88 ef f8 bd
       -0.18637326 0.21404725 0.050432496 -0.12155062
000370 ae fe 54 3e 14 df b7 3b 7a 0b ba bd 80 b8 ea 3d
       0.20800278 0.00561131 -0.0908422 0.11460972
000380 ad 7f 32 be dc 45 50 be 20 0d 41 3c 52 56 06 3e
       -0.17431517 -0.20339149 0.011782914 0.13118866
000390 89 dd 7f bd 58 fe 2d be 6e 7f 20 be 5f 63 aa 3c
       -0.06246713 -0.16991556 -0.1567361 0.020799337
0003a0 5d eb f3 bd d6 76 da bc 98 77 03 be b4 2d 49 3e
       -0.11910126 -0.026667994 -0.1283859 0.1964634
0003b0 c5 73 28 be 8b 6d 5c 3d 35 51 28 3d 75 51 df 3d
       -0.16450413 0.053815406 0.04109307 0.109042086
0003c0 ea b5 18 be 3b 4c 3a 3e 11 e3 62 bd 83 c7 01 3e
       -0.14913145 0.18193142 -0.05539233 0.12673764
0003d0 86 3f 05 be 0d f1 27 bd 2e 36 cf bd ab 6d 37 be
       -0.13012514 -0.04100137 -0.10117756 -0.17912929
0003e0 ec c7 05 be 30 a1 3f be 51 ad 1f 3e 12 e2 1c 3e
       -0.13064545 -0.18713832 0.15593459 0.15320614
0003f0 9f 55 3a be ef 14 26 3d 94 87 1c 3b 2e 82 1d 3e
       -0.18196724 0.040547308 0.0023884522 0.15381691

hiden_layers.0.bias f4 [64]
000000 28 41 9a 3b 0b e4 09 3c ef d1 15 bc 28 ca e1 ba
       0.0047074743 0.008416186 -0.00914429 -0.0017226385
000010 dd 5e f8 3c ae dd 00 bc e1 dc de 3c 34 a6 33 bb
       0.030318672 -0.007865353 0.027204933 -0.0027412297
000020 bc 9c cb bc 21 aa 1b 3c 27 91 be bc 7f a3 89 bc
       -0.02485501 0.009501011 -0.023262573 -0.016801594
000030 7f 97 ed bb ab 32 4d 39 bc 68 f7 38 df d4 4c ba
       -0.0072507258 0.00019569199 0.00011797386 -0.00078137027
000040 f3 43 21 ba 0c 58 34 bc 1a 0c d0 bb 19 c1 01 bb
       -0.0006151788 -0.01100732 -0.006349099 -0.0019798933
000050 5b 28 02 bc c1 4b 6e bc 5b 3c 5d 3b db 09 9f 3b
       -0.007944192 -0.014544428 0.0033757898 0.00485347
000060 14 5d 4d bb 25 a1 15 bc da 32 81 bb d5 49 b6 bc
       -0.0031335996 -0.009132658 -0.0039428296 -0.022252003
000070 5c 06 aa ba d3 a2 da bb 6d 4f 52 b8 8a 4f 78 bb
       -0.0012971866 -0.006672242 -5.0141873e-05 -0.0037889206
000080 b9 13 0b 3b a3 02 a0 bb 5b a5 8f bc 6a 37 17 bb
       0.0021221472 -0.004883127 -0.017534902 -0.00230738
000090 9e 34 73 bb aa 20 f9 bc 07 ef f7 bb 8c ad 8d b9
       -0.003711022 -0.030411083 -0.007566336 -0.00027022918
0000a0 04 a6 22 3c d3 e4 d4 bb cb d1 b8 bb 16 04 4d bc
       0.0099272765 -0.0064970045 -0.0056402436 -0.012513181
0000b0 2c 3a 8b 3b de 1a 1f bc 68 89 0f bb 2f 8f 56 3c
       0.004248878 -0.0097109955 -0.002190197 0.013095661
0000c0 4a 64 9e bb f3 6d 54 3b e3 7e 91 bb 1a 20 47 bc
       -0.0048337327 0.0032414168 -0.004440175 -0.01215365
0000d0 37 59 ab bb 9a 8b b2 b6 80 02 f4 b7 17 6d 96 3b
       -0.005229141 -5.321065e-06 -2.908823e-05 0.0045906412
0000e0 b3 f3 a0 3c 55 19 c0 bb 5e b4 bf 3c 93 fa 50 3c
       0.019647455 -0.005862395 0.023401435 0.012755054
0000f0 e6 1d a8 3b 12 38 31 bc ca 66 68 3c 7c 67 7a bc
       0.0051305173 -0.010816591 0.014184663 -0.015283462

hiden_layers.1.weight f4 [64, 64]
000000 7d 52 19 3d 38 90 20 be c1 fb 48 3e 0f b7 2e be
       0.037432183 -0.15680015 0.19627286 -0.17062019
000010 d1 ff 11 3d 35 0b 21 be 9a 2e 3b bd 03 c0 3a 3e
       0.035644356 -0.15726931 -0.04569874 0.18237309
000020 ab bc 2c 3e c7 e7 2b 3e b7 32 a8 bd 4d fd b9 bd
       0.16868846 0.16787635 -0.08212798 -0.090815164
000030 13 82 39 3d 77 47 35 be e9 4b 0d bd 47 68 f9 3d
       0.045290064 -0.17703043 -0.03449622 0.121780924
000040 a2 91 ea 3d 15 2a 9f 3d 3c 33 2e 3e 7d 91 e5 bd
       0.114535585 0.077716984 0.17011732 -0.1120939
000050 17 fa 0f 3e 86 13 52 3c 58 b2 d8 bd bb 13 bb 3d
       0.14060245 0.012822038 -0.10580891 0.09134623
000060 6e 52 1c be 86 cd 05 be 83 b4 3b 3e d5 4c 8f 3d
       -0.1526582 -0.13066682 0.18330579 0.069970764
000070 5a da e8 bd 2a 0b c7 3c eb b5 07 be dc 38 95 3c
       -0.11369772 0.024297316 -0.1325299 0.01821559
000080 27 e4 b9 3d 2f 75 44 3e 7a ce 5f be 65 76 06 3d
       0.0907672 0.19185327 -0.21856108 0.032827754
000090 dc d0 92 bd 01 d0 2b be 2d 03 53 3e 1a ed d3 bd
       -0.07168743 -0.16778566 0.2060668 -0.10347958
0000a0 02 49 33 be d1 4f 47 be 24 7a e4 bd 4f 84 4d bd
       -0.17508319 -0.19464041 -0.11156109 -0.050175007
0000b0 be c0 38 be b8 00 00 bd 85 fd 90 bc b0 9f 31 3d
       -0.18042275 -0.031250685 -0.017699013 0.04336518
0000c0 72 30 5f be ea 3b 93 3c 4a 0f c0 bd 7c 0f 0d 3e
       -0.21795824 0.017972905 -0.09377916 0.13775438
0000d0 b4 be 05 3e 5d 1d 03 bb 5b a2 b9 3a 45 1f 60 3d
       0.13061029 -0.0020006516 0.0014162766 0.05471732
0000e0 cd 64 09 be c0 f4 b4 3d cc 13 19 be 35 fa 21 3e
       -0.13417359 0.08835745 -0.14948958 0.15818103
0000f0 21 47 c8 bd f4 fc 71 be d5 ab 0d be 6a 8c c6 3d
       -0.09779192 -0.2363165 -0.1383508 0.096947506
000100 1e 9a 30 be b1 fa 44 be d4 76 08 bc f9 ec 66 be
       -0.17246291 -0.19236256 -0.008329112 -0.22551335
000110 e2 4a df 3c 68 82 e0 bd a3 9b 7a be 9b 4d 86 be
       0.027257387 -0.10962373 -0.24473433 -0.26231083
000120 4c 43 2b bd 2d fb dd bd 81 93 1a 3d 07 b4 b8 3d
       -0.041812226 -0.108389236 0.037738327 0.090187125
000130 d8 78 3f be 99 f4 68 3d 04 d5 59 3e a3 aa bf 3d
       -0.18698442 0.05687389 0.21272665 0.09358718
000140 d7 6e 41 be 79 7a 25 be 48 11 60 bd f8 7f 47 3e
       -0.18889938 -0.16160001 -0.05470398 0.1948241
000150 83 66 fd 3d 50 c3 05 bc 36 aa cf bd ca 92 91 3b
       0.12373068 -0.008164242 -0.10139887 0.0044425474
000160 23 92 fc 3d 3e b3 6d be 95 63 73 3c ba 41 00 3e
       0.12332561 -0.23212907 0.014855285 0.12525073
000170 7a 98 a1 3d cf e5 75 be 72 56 05 3e ea 89 41 be
       0.07890411 -0.24013446 0.13021258 -0.18900266
000180 82 4d 1a 3e ba a8 37 3e 45 f4 c4 3d c0 a9 54 3c
       0.1506863 0.17935458 0.09616903 0.012979925
000190 0c 05 57 be 0a d5 55 3e b1 73 02 3d 4d ef 42 3c
       -0.20998019 0.20882049 0.031848613 0.011897874
0001a0 3d cd 44 bc 03 ef 0e 3e 5b 3f 76 be 96 b6 8a bd
       -0.012011823 0.13958363 -0.24047606 -0.06773107
0001b0 f4 c7 6a 3c 0b 11 2b 3e 88 da 51 3d 54 79 5d bc
       0.014329899 0.1670572 0.0512338 -0.013517696
0001c0 3c 71 bc 3c 06 7e 17 be 13 e9 56 3e a5 64 19 3d
       0.023003213 -0.14794168 0.20987348 0.037449498
0001d0 38 99 c0 3d 41 f6 13 be e1 46 27 3d 13 0b e2 bd
       0.09404224 -0.14449407 0.04083908 -0.110372685
0001e0 ad f3 1c be 3b 2d 83 bd 59 79 1f be 5b 61 9e 3d
       -0.1532733 -0.064051114 -0.15573634 0.07733413
0001f0 72 da 03 be 12 a1 5f be f5 0a 2f 3c fa de b1 3b
       -0.12876299 -0.21838787 0.010683765 0.005428192
000200 a3 44 d4 3d 4e fe dc bd a5 b0 bd bd 66 64 38 be
       0.10364654 -0.10790692 -0.09262208 -0.18007049
000210 91 d6 18 3e bb 38 54 3e c5 70 58 bd 4d fe 91 3d
       0.149256 0.20724766 -0.05284192 0.07128582
000220 e0 11 cf bd dd d0 35 bd eb d2 d7 3d c0 bb df 3d
       -0.10110831 -0.04438864 0.10538276 0.10924482
000230 8f 61 9e 3c ed 30 79 3c d9 e7 60 3e c7 5a 71 3d
       0.019333629 0.015209419 0.21963443 0.058924463
000240 b1 3d 2a be 18 b9 e3 bd 30 70 85 bd be a7 2b 3e
       -0.16625096 -0.11119288 -0.06515539 0.16763207
000250 b9 7a 07 be fe 39 42 3d 9e 55 40 be 2d fa 49 bd
       -0.13230409 0.047418587 -0.1878266 -0.04931085
000260 9c d1 0c be 11 31 fb bd 85 12 d5 3c db 52 4e 3e
       -0.13751835 -0.12265218 0.026009807 0.20148794
000270 92 2f 2f 3e f1 58 c3 3d e2 db d3 3d ed 08 90 3d
       0.1710799 0.095384486 0.10344674 0.070329525
000280 e6 b1 1f 3d e1 61 b5 bd ac f8 c0 bd 6b 9c 1c 3c
       0.038988017 -0.088565595 -0.094224304 0.009558777
000290 ce 29 bf 3d aa a9 03 3c 57 32 4e 3c 30 6d c1 bd
       0.093341455 0.0080360565 0.012585244 -0.09444654
0002a0 40 14 19 3e ea fa 65 bc 01 bc cd bd a4 67 2b 3e
       0.14949131 -0.014036873 -0.100456245 0.16738755
0002b0 84 68 93 bd 04 87 30 3d 93 ab 61 bd 2b 94 3a bc
       -0.07197669 0.04309751 -0.055095267 -0.011387865
0002c0 d3 89 46 bd 2e d4 26 be f6 be fd bc a5 3d 1d be
       -0.048471283 -0.16291878 -0.030974846 -0.15355547
0002d0 f1 f2 29 bb aa 9c 98 bd 1d 7c b9 bc c9 78 fb bd
       -0.0025932158 -0.07451756 -0.02264219 -0.12278897
0002e0 95 25 b6 3c 70 9e 58 be f5 04 16 be 01 ba 4c 3d
       0.022234717 -0.21154189 -0.14650328 0.049982075
0002f0 99 8f e6 bd 73 6a 2a be 5c 2e 89 3d c9 30 35 3e
       -0.11257858 -0.1664217 0.066982955 0.17694391
000300 62 69 59 3e df 94 ee bb e8 a2 2b bc b5 31 56 3e
       0.21231607 -0.0072809304 -0.010475852 0.20917399
000310 de bf 50 3e 98 35 0f be c3 9d 2b be 96 0e 2a 3d
       0.20385692 -0.13985288 -0.167594 0.041517816
000320 0c 02 70 3d b2 1f 4f 3e a7 5f fd 3d b3 42 77 bd
       0.058595702 0.20226935 0.1237176 -0.060366344
000330 00 f1 f4 3d 70 74 45 be 76 8d 40 3c 05 17 88 3c
       0.119600296 -0.19282699 0.011752477 0.016612539
000340 68 92 c2 bd 71 1f c1 3c 81 e7 02 3d f2 b4 0b be
       -0.09500581 0.023574563 0.03195906 -0.13643244
000350 e4 30 54 be 79 c0 d7 bd 9c 25 03 be e0 bc 45 be
       -0.20721775 -0.10534758 -0.12807316 -0.19310331
000360 b5 24 06 3e 4d 95 31 3e e6 43 f2 3d 19 03 0f 3e
       0.1309994 0.1734211 0.11829357 0.13966025
000370 4f e0 6a 3e 8f 80 59 be e8 fd 13 be 38 d6 da 3d
       0.2293713 -0.21240447 -0.14452326 0.1068539
000380 3f 29 2b 3d 36 a5 2b be 7e 49 ca bd c1 b0 3c bc
       0.041787382 -0.16762242 -0.09877299 -0.011516751
000390 15 74 40 bc 61 cc 44 3e c3 e1 b3 3d 85 30 af 3c
       -0.011746426 0.1921859 0.08783295 0.02138544
0003a0 92 36 0b 3e 13 a8 12 bd 99 24 c4 3d a2 a4 91 3c
       0.13595036 -0.03580482 0.09577293 0.017778698
0003b0 32 78 4f be 10 aa f7 bd ed 16 4e bd ff 15 40 3e
       -0.20260695 -0.12092984 -0.050314832 0.18758391
0003c0 a0 b1 45 3e 1b b7 35 bd 25 5c 38 bc bd df a3 3d
       0.1930604 -0.044364076 -0.011252438 0.08001659
0003d0 f8 bb cd 3d fc 2d 2a 3c d5 4c 73 bd 6d 74 83 3d
       0.10045618 0.01038694 -0.059399445 0.06418691
0003e0 82 b1 3b be c2 85 ce bd c4 bb 78 3d ad b1 5d 3e
       -0.18329433 -0.10084106 0.060725942 0.21649809
0003f0 b2 b3 39 3e 41 e7 d9 bc c1 3a 4b bc 58 62 8a bd
       0.18134955 -0.026599528 -0.012404145 -0.06757039

hiden_layers.1.bias f4 [64]
000000 21 b6 6e b8 c2 ff d6 bb 9c 64 e2 bb 34 48 83 3c
       -5.6913243e-05 -0.0065612504 -0.006908966 0.01602564
000010 b3 81 cf 3b b7 9d 1b bc 06 73 0c bd 70 1b 28 b9
       0.0063326 -0.009498051 -0.034289382 -0.0001603195
000020 e5 71 80 ba a9 a9 23 3c 66 95 d3 3b bc 6b 82 3b
       -0.0009799568 0.009989181 0.0064570187 0.003980128
000030 ec 81 bf 3c 4a 9e 5d bc de a4 a3 bc 82 a9 a7 bc
       0.023377381 -0.013526509 -0.019976076 -0.02046657
000040 d6 6d 02 bc 64 46 19 3c 99 df 96 3c 30 0f f3 ba
       -0.007960757 0.009355161 0.018417167 -0.0018543955
000050 a1 d7 0e bc 97 55 7a bc e1 28 ca 3c 16 51 b6 bb
       -0.008718402 -0.015279195 0.024677696 -0.0055638654
000060 60 08 bb ba 45 e8 7d bc e6 2b a3 bc d8 c3 54 bc
       -0.0014269464 -0.015497272 -0.019918393 -0.012986146
000070 ff 4e 43 3c cb 4b 3f bb 92 8a 37 3b 28 3c d2 bb
       0.01192069 -0.0029189463 0.0028006178 -0.0064158626
000080 a7 ff b1 3b ab 9a 03 3c 4b 71 4c 3b 72 78 b7 bc
       0.0054320875 0.008032481 0.0031195458 -0.0223963
000090 02 74 5b 3c 66 31 2e 3b fa 9f be bb 6d 72 39 3c
       0.013394358 0.0026579737 -0.0058174105 0.011318785
0000a0 d9 a1 11 bc ed 4e b9 bb f4 3b e8 bb 18 e6 b2 ba
       -0.008888685 -0.0056551606 -0.007087225 -0.0013648896
0000b0 e0 92 3d bc 20 c9 90 3d 27 70 87 3c b4 7b 32 3a
       -0.011570662 0.070696115 0.01653297 0.00068085943
0000c0 5e 85 a3 bb be 7c 7f bc 4e e9 b9 bc b9 e4 b9 bb
       -0.004990264 -0.015593706 -0.022694256 -0.005673018
0000d0 a3 8b b4 3b 03 89 2c bb 12 7a a3 3c 40 09 8f 3b
       0.00550981 -0.0026326783 0.019955669 0.0043651164
0000e0 62 6c 47 bc 1c 9f ed bb 6d 97 d7 3c c6 6a 88 bc
       -0.012171837 -0.0072516333 0.026317323 -0.016652476
0000f0 32 7c e5 3b d1 f7 b8 3b 01 32 01 bd 45 7f 0c 3b
       0.0070033306 0.0056447764 -0.031541828 0.0021438163

hiden_layers.2.weight f4 [64, 64]
000000 44 af f0 bd 10 16 5e be e1 54 13 bd b2 ea 45 3e
       -0.11752179 -0.21688104 -0.03596962 0.1932781
000010 ac 2d 49 3e 9e 19 f9 3b 22 79 53 3e 10 75 80 3d
       0.19646329 0.0076019308 0.20651677 0.06272328
000020 60 57 75 3d 8f 24 92 bd 05 27 2f 3e 6c 74 27 be
       0.05989778 -0.07135879 0.17104729 -0.16353005
000030 21 d1 0e be 3f 95 8e ba ce 60 45 3e e4 b5 c7 bd
       -0.13946964 -0.0010878219 0.1927521 -0.0975149
000040 72 a6 34 bd c3 2a 5d bd 31 2f 37 3e 47 a0 13 be
       -0.044104047 -0.05399586 0.17889096 -0.1441661
000050 11 9a d1 bd 19 51 57 be 4f db 08 be ff bd 98 bc
       -0.10234464 -0.2102703 -0.1336491 -0.018645285
000060 b0 c7 df bc 71 04 97 3d c0 ae c2 bd fa 73 c1 bd
       -0.027316898 0.07373894 -0.09505987 -0.09445949
000070 ad c7 51 3e 28 2e 42 bd 98 04 3c 3e 39 74 7f be
       0.20486327 -0.0474073 0.18361127 -0.24946679
000080 89 4f 09 be 44 bc 5d 3e e2 e5 76 be b7 8b 12 3d
       -0.13409247 0.21653849 -0.24111131 0.035777774
000090 4e 92 de 3c 1a 00 7e bb 9a 9d 3f be 7e 6a bf 3d
       0.027169373 -0.0038757385 -0.18712464 0.09346484
0000a0 a8 3e 03 3e db 84 3d be d5 26 16 bd 78 e0 a8 3d
       0.1281687 -0.18507712 -0.036658127 0.08245939
0000b0 7c 1d b9 3c 68 e5 89 3d e1 c7 9b 3d d8 67 59 bd
       0.022597067 0.06733209 0.07606483 -0.05307755
0000c0 28 64 0f 3e fe 07 38 3e ab a0 66 bd f6 c2 2d bc
       0.1400305 0.17971799 -0.05630557 -0.010605564
0000d0 e8 17 57 be ff 28 27 bd be 0b d6 3d 9d 98 3c 3e
       -0.21005213 -0.04081058 0.104514584 0.18417592
0000e0 8d 0f 15 3e fc 53 d5 bd 6d df dc 3b aa ce a7 bc
       0.14556713 -0.104164094 0.0067405016 -0.020484287
0000f0 4e ce 63 3d 1e 0c 3f 3e 7f 0e 4e be f1 d1 89 bc
       0.05561667 0.18656966 -0.20122717 -0.01682374
000100 7d e8 cd 3c 00 c7 22 bd b7 a9 c3 3d 1d 2b c1 3c
       0.025135273 -0.039740562 0.09553855 0.023580128
000110 e7 bd 00 be 05 83 90 3c 81 4d f6 bd 5c 5f 1c be
       -0.12572442 0.0176406 -0.120265014 -0.15270752
000120 6c bf 22 3e 82 a6 d4 bd 49 15 e9 bd ea 7c ad 3d
       0.15893334 -0.10383321 -0.11381013 0.08471091
000130 a7 f6 90 3c 59 00 93 bd 88 f2 40 3e b1 5f e1 bd
       0.017695738 -0.07177801 0.18842518 -0.1100458
000140 db a8 fc bd 33 dd 17 3e de e4 0d be ea b6 30 3e
       -0.12336894 0.14830475 -0.13856837 0.17257276
000150 a8 1f 56 3e af 30 f5 bd 3a e9 d6 bd de 74 18 be
       0.20910513 -0.11972176 -0.10493703 -0.14888331
000160 eb 74 1e be cb 8d 03 be 44 bd 9a 3d 1d f1 4d 3e
       -0.15474288 -0.12847058 0.07555631 0.20111509
000170 21 ef 25 be e5 6c aa 3d aa cb 50 3e 65 0d 3b 3c
       -0.16204502 0.08321551 0.20390192 0.011416768
000180 ab 63 ef bd 5c c1 f2 3b 8d d1 fb bb e9 1b a5 bd
       -0.11688932 0.007408304 -0.0076848925 -0.08061964
000190 be c6 78 bd 54 2c 10 3e 4c b4 58 3e da 27 37 be
       -0.06073641 0.1407941 0.21162528 -0.17886296
0001a0 2c de de 3d fb 15 80 bd c6 12 62 3e 24 e7 c3 3d
       0.1088222 -0.062541924 0.22077474 0.09565571
0001b0 6e 77 37 bd fc 98 7f bd df 4c a0 3d f1 a4 b4 3d
       -0.04479163 -0.062401757 0.07827162 0.088205226
0001c0 1e b4 c6 3d bf 39 31 3e a8 96 d9 bd 9f a2 32 3e
       0.097023234 0.17307185 -0.106244385 0.17444848
0001d0 83 06 74 be 9f 38 5f 3e ed 9b 94 bd 2f e7 48 3e
       -0.23830609 0.21798943 -0.07256303 0.1961944
0001e0 a4 3c 78 3d 01 20 00 3e 0e 4f 8f bd 1c e5 35 3d
       0.060604706 0.12512209 -0.069975 0.04440795
0001f0 c6 32 3a bd 76 b9 58 3e 39 03 09 3e a9 c2 19 be
       -0.045458578 0.21164498 0.13380136 -0.15015663
000200 26 60 21 be 26 aa d6 bd fd fd 25 3e 2c ee 3a be
       -0.15759334 -0.10481672 0.1621017 -0.18254918
000210 46 15 13 3e 8e fa b4 3d 87 dc 52 be 26 19 3f bd
       0.14363584 0.08836852 -0.20591937 -0.046654843
000220 5c c2 ef 3d 47 37 f2 3d e9 32 1e 3e cc 89 18 bd
       0.11706993 0.118269496 0.15449108 -0.03724079
000230 02 48 58 be 78 ba a6 bd c9 67 a1 3c 8b 54 c8 3d
       -0.21121219 -0.08141035 0.019702809 0.0978175
000240 fe 0f ae 3d c7 1f 91 3c 14 4e 21 3e 9a d5 1f 3e
       0.08499144 0.017715348 0.1575244 0.15608826
000250 73 62 bb 3c 0c 40 9b bd cd d5 34 bd 39 d3 be bd
       0.022874093 -0.07580575 -0.04414921 -0.09317631
000260 4f c3 0b 3e 42 82 3a 3e 46 c4 c5 bd a8 a8 68 be
       0.13648723 0.18213752 -0.09656577 -0.22720587
000270 85 01 ff bd 81 46 fa bd c6 39 13 be f1 90 8d 3d
       -0.12451462 -0.12220479 -0.14377508 0.06912411
000280 39 74 32 3e e0 32 21 3e 1a ea e7 3d 07 ff c0 3d
       0.17427148 0.15742064 0.11323948 0.094236426
000290 68 18 49 be ba 3f 57 be 0b fe 26 be f9 98 3e be
       -0.19638216 -0.21020404 -0.16307847 -0.18613042
0002a0 16 da 9d bd 9d 90 d5 3d 44 04 76 be 06 e8 b8 3d
       -0.07707612 0.104279734 -0.24025065 0.0902863
0002b0 e4 52 a0 3d ae e1 3d 3e 65 63 21 3c d9 31 0d 3e
       0.0782831 0.18543121 0.009850358 0.13788547
0002c0 a8 fc 58 3e 03 7f 71 3e 15 9f 28 3d 45 91 01 3e
       0.2119013 0.23583607 0.041167337 0.12653072
0002d0 c6 1f 72 3e a5 7a 4f 3e 9b a9 14 3e ba f1 c6 3d
       0.23644933 0.20261629 0.14517824 0.097140744
0002e0 54 a4 ca bd a5 a8 8d bd e2 5c 41 3e 64 9f 7f be
       -0.09894624 -0.06916932 0.18883088 -0.24963146
0002f0 9a 75 32 be 72 5c ea 3d 85 86 57 3e af 72 41 3d
       -0.17427674 0.11443414 0.21047409 0.04722851
000300 18 e2 d7 3d e9 87 43 3e c5 a3 ee 3b 35 eb 8f 3d
       0.10541171 0.19094814 0.0072827064 0.07027284
000310 aa 86 84 3c c6 81 9f 3d ea a6 68 3d 81 5f 5e be
       0.016177494 0.07788424 0.056799807 -0.2171612
000320 b2 5f 92 bd c4 c1 2e be a4 78 67 be b6 15 9e 3d
       -0.07147159 -0.17066103 -0.22604614 0.07718985
000330 3a 6a 56 3d 00 ec d4 3d 02 5d e1 bd aa 69 ad bd
       0.0523474 0.10396576 -0.11004068 -0.084674194
000340 b8 f0 37 3e cc 26 6f 3e a1 3e 32 3e 31 7e db bd
       0.1796292 0.23354644 0.17406704 -0.107174285
000350 a3 a5 8d 3b a2 28 58 3d b4 e6 50 3e 55 f7 4b be
       0.004322724 0.052773125 0.20400506 -0.19918568
000360 4a 3d 1e be aa db 98 bd de 21 4b be 07 2f 11 3e
       -0.15453067 -0.074637726 -0.19837138 0.14178096
000370 38 06 5f be a9 46 98 3d f3 80 b1 bd 4d 6e cb 3d
       -0.21779716 0.07435352 -0.08667173 0.099331476
000380 2b fb 2c 3c 2a af 07 3d 9b 3c 34 be f2 e2 98 3c
       0.01055793 0.033126034 -0.17601244 0.018662903
000390 55 b7 09 be 1d eb 4d bd 38 cf 28 be b4 24 8e 3d
       -0.13448842 -0.05027305 -0.16485298 0.06940594
0003a0 c0 e7 16 be 08 57 80 bd cc 56 46 3e 48 7b 63 3e
       -0.14736843 -0.062666 0.19369048 0.22214997
0003b0 77 30 2e be b0 55 3f 3e fc 52 26 be 91 92 a0 3d
       -0.17010675 0.18685031 -0.16242594 0.07840455
0003c0 50 58 bb 3d 3e 5b f0 3d d4 80 70 bb fc 5f 01 3e
       0.09147704 0.11736153 -0.0036697881 0.12634271
0003d0 63 dd a5 bd ea 96 33 be 73 2a 2c 3c 7a ac 44 be
       -0.08098867 -0.17538038 0.010508168 -0.1920642
0003e0 8e f1 0b 3d 1e bb b6 bb da c4 8c 3d 04 cc 1c 3e
       0.03416591 -0.0055765053 0.06873484 0.15312201
0003f0 f9 9d 44 be f5 b8 02 be 87 02 d1 3d 12 df 6a bd
       -0.19200887 -0.12765868 0.1020556 -0.057341643

hiden_layers.2.bias f4 [64]
000000 a5 47 92 bc 79 ed d1 b9 93 4e 57 bc 0e 45 ce 3b
       -0.017856428 -0.00040040517 -0.013141292 0.006294853
000010 2f 50 b7 ba fd e8 85 3c 10 75 12 3c ba 1a 9e bc
       -0.0013985689 0.016346449 0.008939043 -0.019299854
000020 a3 f5 29 bc 12 c7 54 bb 1f 00 a5 3b 18 69 07 bc
       -0.010373506 -0.0032467288 0.005035415 -0.008264802
000030 21 b3 e2 3a bc da 95 bc 77 42 d9 bb 93 3c 13 bc
       0.0017295816 -0.018292777 -0.0066302377 -0.00898661
000040 3e ea 68 bc 98 98 bd 3b 13 0b cf bc c5 28 5e bb
       -0.014216004 0.005786013 -0.025273835 -0.0033898812
000050 7e 30 24 bc 7e 84 cd bc d1 a5 4a 3b 1d 0a 9d 3c
       -0.010021327 -0.025087591 0.0030921588 0.019169861
000060 cd 21 c1 3b 88 85 94 3c b8 e1 11 bc f1 b4 f1 ba
       0.005893922 0.018130079 -0.008903913 -0.0018440766
000070 83 b0 9b bc f5 4a ea bb 62 d8 7f 3a 1b 89 87 ba
       -0.019005066 -0.007150049 0.00097597216 -0.0010340543
000080 b2 ba 43 3b e7 26 e7 3a 75 8b 44 3c e5 02 c4 3b
       0.0029865918 0.0017635495 0.01199614 0.0059817904
000090 7f 80 80 bd d5 93 32 bb 89 df 09 bc 2d 8b 44 3c
       -0.06274509 -0.002724876 -0.008415111 0.011996073
0000a0 d4 a9 02 bb fd 2d 0b bd b4 3b 39 3c 24 22 1d bc
       -0.0019937651 -0.033979405 0.011305738 -0.009590659
0000b0 31 29 c4 3b fc 93 bc 3c f5 8a 7c 3c 86 12 e3 3b
       0.0059863557 0.023019783 0.015413989 0.0069296984
0000c0 f5 b2 36 3d 00 8a 0f 3c 7b 72 7e bc 64 c4 7b 3b
       0.04460426 0.008760929 -0.015530224 0.0038416618
0000d0 ce 85 f6 bb 8f 4d 94 3c 5d 4a c5 3b db 54 ec 3b
       -0.007523275 0.01810339 0.0060208277 0.007212264
0000e0 17 da dc 3b eb df 3c bc dc b3 bd 3c ba 11 9b bb
       0.0067398655 -0.011527996 0.023157053 -0.004732338
0000f0 17 88 7f bc 99 47 26 bd b4 18 96 bb 42 f0 49 3c
       -0.015596411 -0.040595625 -0.0045805816 0.012325348

hiden_layers.3.weight f4 [64, 64]
000000 a0 dd a6 3e c6 2b cb 3d fd 5f db 3d 32 e5 00 be
       0.3259096 0.099204585 0.10711668 -0.12587431
000010 e0 a3 b6 bc 78 7f 79 3c 00 6e 9a bd 94 d1 2b bd
       -0.022294939 0.015228145 -0.07540512 -0.041947916
000020 41 f4 4d be c8 19 ca 3d 5f 9b a9 3d 6a ac 1b 3e
       -0.20112707 0.09868199 0.08281588 0.1520249
000030 bc 3e 3b 3e 3a 7d f0 3d 13 97 a3 3d a0 a9 0c be
       0.1828565 0.11742635 0.079877995 -0.13736582
000040 68 12 62 be aa 1f 60 be 42 69 c2 b9 52 49 43 be
       -0.22077334 -0.21887079 -0.00037080987 -0.19070938
000050 91 ff f1 ba 87 cd 5e 3d e8 64 2b 3d e1 89 80 bc
       -0.0018463006 0.054395225 0.04184428 -0.015690746
000060 a6 46 4d 3e 73 c3 d7 3d 6f ae ad 3e 35 6e 81 be
       0.20046481 0.10535326 0.33922145 -0.25279394
000070 3f 9d cc bd f7 90 fe bd f3 87 28 be d3 f8 54 36
       -0.0999093 -0.124299936 -0.1645811 3.1735296e-06
000080 b1 60 4a 3e fb eb c4 bd 91 2b 48 be 51 2c 4e be
       0.19763447 -0.09615322 -0.1954787 -0.20134093
000090 bb 02 1b 3e ae 33 0a 3d f8 00 55 be 05 4d fc 3d
       0.1513776 0.03374069 -0.20801151 0.12319378
0000a0 17 86 70 be a2 ee 91 3c 87 d9 a4 3d 1d 85 0d 3e
       -0.23488651 0.017813984 0.080493025 0.1382031
0000b0 6f c9 d2 bd 79 7b 49 3e ac 4f d1 bd 44 81 66 3e
       -0.10292327 0.19676007 -0.10220274 0.22510248
0000c0 c6 49 95 be 5c 82 db bb 9e cc bd 3d e5 6f d4 bd
       -0.29157847 -0.0066988897 0.09267543 -0.10372905
0000d0 24 87 20 be 0f 6c 57 be 67 03 45 3d 02 33 30 3e
       -0.15676552 -0.21037315 0.048098948 0.17206958
0000e0 b3 ce a0 bd 99 6a b2 3e 7e dc 8b 3d b6 fd e2 bd
       -0.07851925 0.34846953 0.06829165 -0.11083548
0000f0 78 1f 56 3e 30 e5 33 3e 07 65 28 be 2e 58 8a 3d
       0.20910442 0.17567897 -0.16444789 0.067551
000100 96 be b8 3d ef 94 9b bc 98 3a 16 bd c0 03 93 bd
       0.090207264 -0.018991916 -0.036676973 -0.0717845
000110 bd ea cb bd 9e cf 4f 3e bd b1 2f be 20 33 46 bd
       -0.09956882 0.20294043 -0.17157646 -0.0483886
000120 de 5a 52 be ad 5d 20 be a6 dc d5 bc f1 5c b5 3b
       -0.20542476 -0.15660734 -0.02610619 0.005534761
000130 11 9e d5 3d dd 53 18 3e ce b6 40 3d 9e 03 5b 3e
       0.104305394 0.14875741 0.047049336 0.21388099
000140 41 66 04 bd 9b d7 90 bd 8c d3 20 be d4 a0 2d be
       -0.03232408 -0.070723735 -0.15705699 -0.16955882
000150 a0 ae 20 3e 18 23 77 be 35 71 25 3c 7c 19 3a be
       0.15691614 -0.24134481 0.010097791 -0.18173784
000160 5b 4f 0e 3e c1 41 d9 bd fe 5a 68 bc b5 47 cf bd
       0.13897459 -0.10608245 -0.0141818505 -0.10121099
000170 b5 6b ee 3c 75 cc 1d 3e 33 79 0c bc 2f dd 43 3e
       0.029104093 0.15410025 -0.008573818 0.19127344
000180 81 e8 29 3e 0b 24 21 3e f6 c6 86 39 25 b6 05 3e
       0.165926 0.15736406 0.0002570671 0.13057764
000190 87 e1 1b 3d 00 4c 51 3e d4 db dd 3d 40 24 3a 3d
       0.038056877 0.20439148 0.108329445 0.045444727
0001a0 54 0f 87 bd 7b 88 4d be f7 d4 b7 bd bf ec 0d 3e
       -0.065947205 -0.20071594 -0.08976167 0.13859843
0001b0 80 75 50 bc 25 88 c0 bd 72 cd ef 3c 65 34 af 3d
       -0.012723327 -0.094009675 0.029272769 0.08554915
0001c0 99 b7 19 3e bf c4 23 3d 8a a5 49 3e ab b2 54 be
       0.15011443 0.039982554 0.19692054 -0.20771281
0001d0 e0 2a a0 3c ac 26 96 3d b8 aa 35 be 1c fc 99 bd
       0.019551694 0.07331595 -0.17740905 -0.07518789
0001e0 c7 14 39 be f7 a2 ec 3d 69 a7 d3 bd 36 4c 26 be
       -0.18074332 0.115545206 -0.10334665 -0.1624001
0001f0 ff 33 01 bd 22 59 5c 3e 61 f6 77 3c af a3 32 be
       -0.031543728 0.21518376 0.015134425 -0.17445253
000200 8e e1 fd bc 9b 4a 55 bd 78 71 1b 3e f6 41 54 3e
       -0.030991342 -0.052073102 0.15180004 0.20728287
000210 71 b8 0a be c0 f5 85 3c 92 bb 1a be 0e a1 45 3e
       -0.13546921 0.016352534 -0.15110615 0.19299719
000220 f9 ff 27 3e b6 d8 c5 bd f8 a2 48 be 8b 59 d8 bd
       0.1640624 -0.09660475 -0.19593418 -0.10563954
000230 65 6d 1e be 1a fb 96 3d 2a ed f8 3d 9f 85 10 3c
       -0.15471418 0.073721126 0.121546105 0.00882092
000240 85 4b 33 3e 69 14 0a be a7 4d 16 be d3 5a 8a 3d
       0.17509277 -0.13484348 -0.1467806 0.067556046
000250 8d 05 70 bd 77 7a 82 3d 6e ea 41 3e 10 2c 70 be
       -0.058599044 0.063710146 0.18937084 -0.23454309
000260 c9 5a 15 be b7 67 29 3e 53 e1 6d 3d b5 b7 74 3d
       -0.14585413 0.1654347 0.058076214 0.05974551
000270 93 be 57 bd d4 8f d4 3d 86 32 3c be f0 7c 02 bd
       -0.05267198 0.103789955 -0.18378648 -0.03185743
000280 3d 2f 19 3e 6b a2 17 be b8 97 d2 3c 3a 84 0b be
       0.14959426 -0.14808051 0.02570711 -0.13624659
000290 fe bd 89 3d d8 ce b2 bd 8a df 6d bd 13 d9 7f be
       0.06725691 -0.087308586 -0.05807451 -0.24985151
0002a0 a6 4d 9f 3d 7b 27 ac bc b4 d6 d2 bd b5 2e 24 3e
       0.07778482 -0.02101492 -0.102948576 0.16033442
0002b0 c3 72 2c be 09 c8 04 3e d4 a2 05 be 30 b9 58 be
       -0.16840653 0.12966932 -0.13050395 -0.21164393
0002c0 5e 16 c2 bc 57 2a 85 bd 7e 63 05 3e c8 cc 29 be
       -0.023692306 -0.06502216 0.13026235 -0.16582024
0002d0 eb 8b 46 be 4a 6a 59 be bf 44 4e 3e 69 03 02 bb
       -0.19389312 -0.21231952 0.20143412 -0.0019838458
0002e0 d2 a5 01 be 3d ff 16 be 76 29 d4 3d 79 46 3a 3e
       -0.12660912 -0.14745803 0.103594705 0.18190946
0002f0 16 31 11 bc bf 5b 79 3d 7f ce b3 bd 48 65 6f bd
       -0.008861801 0.06087851 -0.087796204 -0.0584462
000300 73 ba 01 3e 4a 49 01 3e a0 70 1e 3e f2 bd 5a be
       0.12668781 0.12625614 0.1547265 -0.21361521
000310 42 1c ce bd fc fd d2 3d e0 d5 89 3d b8 f7 87 3d
       -0.100639835 0.1030235 0.067302465 0.066390455
000320 a6 22 67 bd df 37 2a be 24 d2 41 bd 8b 10 53 bd
       -0.056429528 -0.16622876 -0.047319546 -0.05152945
000330 dc 0a ae bd 8b 86 3d be 26 24 44 3d 2d dc 49 be
       -0.08498165 -0.18508355 0.047886036 -0.19712897
000340 fe 89 3f 3d 0f 97 a4 bd 6b 23 6a bd 5b 64 89 3d
       0.04676246 -0.08036625 -0.057162683 0.067085944
000350 74 91 68 3d 2a 9e 0c bc 9e 24 e5 bd 8d bb 26 3e
       0.05677934 -0.008582631 -0.11188625 0.16282482
000360 ca de 31 3e 39 d8 06 3d bf 6e eb bd 5d cb 5b be
       0.17370144 0.03292105 -0.114957325 -0.21464296
000370 3b e2 b9 3c 8e c5 64 3e b8 b9 52 3e 20 15 4d 3e
       0.022690883 0.22340986 0.20578659 0.2002759
000380 55 53 25 3d f8 18 0c 3e 09 6f ec bc fc 91 5b be
       0.040362675 0.136814 -0.02886154 -0.21442407
000390 cc 38 8a 3e c6 7d 14 be 9a e4 46 bb 91 40 53 be
       0.26996458 -0.14501104 -0.003034866 -0.20630099
0003a0 2a ab eb 3d 10 c9 48 3d 0a b9 2b 3e fc be 20 3e
       0.11507256 0.049019873 0.16769806 0.15697855
0003b0 01 d2 cd bd b6 f7 0c bd 59 28 21 bd ea 17 62 bd
       -0.10049821 -0.034415923 -0.03934512 -0.055198587
0003c0 e4 8e c0 3d 62 56 59 be 8c fa a1 bd 6f 0d 0b be
       0.09402254 -0.21224359 -0.07909116 -0.13579343
0003d0 09 89 26 3d 44 38 dc bb 58 73 1f be f0 18 91 bd
       0.04065803 -0.0067205746 -0.15571344 -0.070848346
0003e0 c1 3c 87 be 39 84 43 3e a1 bf 75 3d 54 da cb 3d
       -0.2641354 0.19093408 0.059997205 0.09953752
0003f0 dd 41 a2 bd ea fe f9 bd 10 ce 58 be 32 a6 0d 3d
       -0.07922719 -0.12206824 -0.21172357 0.034582324

hiden_layers.3.bias f4 [64]
000000 1f 63 0a bc 8b 06 94 39 d9 cc f3 bc 45 aa e2 39
       -0.008446484 0.00028233635 -0.029760765 0.0004323294
000010 1a 48 b3 b7 78 65 78 bc 60 d5 ca 3b 88 b2 21 bd
       -2.1372038e-05 -0.015160911 0.006189987 -0.0394769
000020 a9 a1 6d 3c a0 fa 36 bc 48 5b 1b 3c fa 4b ba 3b
       0.014503875 -0.011168152 0.009482212 0.0056853266
000030 ff 8f 3d bc 8d 4a bd bb 02 08 0e 3b a6 82 e2 b9
       -0.011569976 -0.0057767094 0.0021672253 -0.0004320342
000040 b3 b5 46 bb da 82 d1 bc 7b c9 d9 3b 24 ea b9 39
       -0.0030320704 -0.02557509 0.006646333 0.00035460398
000050 22 5e 58 3c 87 59 31 bb 90 04 0a bd 3e 3d ca b9
       0.013206037 -0.002706142 -0.033695757 -0.0003857407
000060 ca 62 a6 3c ab 44 c0 3a 31 a5 1f bd 13 62 a3 bc
       0.020310778 0.0014668902 -0.0389759 -0.019944226
000070 0b 00 9f 3b 89 33 e8 bb eb 32 bd bb 36 e8 63 3b
       0.0048523 -0.0070862216 -0.005773892 0.003477586
000080 e2 42 15 3c 9f 23 94 3c 5c 48 36 bc 6d 81 37 bd
       0.009110184 0.018083392 -0.01112565 -0.044801164
000090 0d fc 91 3a e3 14 cc bc 10 a2 fd 3a 22 84 ba bc
       0.0011137739 -0.024912303 0.0019350667 -0.022768084
0000a0 e0 eb 85 bb 12 07 5c 3d 46 08 36 bc 0c 23 b0 3b
       -0.0040869564 0.05371768 -0.011110371 0.0053752717
0000b0 e5 8e ec bc e8 14 80 3b 43 76 37 bc a4 b3 89 3b
       -0.028876731 0.003908742 -0.011197629 0.004202323
0000c0 07 e2 88 3c 8e 70 47 bc a2 79 d5 bb 03 14 7d ba
       0.01670934 -0.012172831 -0.006514744 -0.0009654166
0000d0 5c 02 5a bc 00 0f c8 3b a4 7c c0 bc 25 f8 6c 3c
       -0.013306227 0.0061053038 -0.023496933 0.014463459
0000e0 23 ca 9a bc fd 24 73 3b af 9b 0d bc 08 5d b9 3c
       -0.018895214 0.0037100904 -0.008643075 0.022627369
0000f0 2b 1a 1d 3d 18 e6 bf bc b7 33 42 bd 9e 42 9a bc
       0.038355034 -0.023425147 -0.0474126 -0.018830594
