results/13_less_points_around/epoch420/model_weights.pth (torch, 486655 bytes, 88 tensors)

init_layer.0.weight f4 [64, 5]
000000 35 f8 2f be 79 25 4a 3e ad f3 b9 3e bc da 82 be
       -0.17184527 0.19740857 0.36318722 -0.25557506
000010 1b 2e 4d be 79 ad ae 3e 3c 83 86 3e b1 31 a9 3e
       -0.20037119 0.34116724 0.26272 0.33045724
000020 17 0a 89 bd 4e df 71 be ae 63 8c be d5 b9 74 3d
       -0.066913776 -0.2362034 -0.274198 0.059747536
000030 c1 59 9d be 8b dc 8e be 8b e6 34 be af 7b 05 be
       -0.3073254 -0.27902636 -0.1766607 -0.13035463
000040 10 66 39 be 3e 54 45 3e 47 64 96 3e 87 bc d2 bd
       -0.1810534 0.19270417 0.2937338 -0.10289865
000050 14 44 bb be 5e af fc bd 26 c2 97 bc 9b fa 21 3e
       -0.36575377 -0.12338136 -0.018525194 0.15818255
000060 d7 d4 5b 3e 7f d0 4c 3e a4 85 28 3e d8 c7 b0 3e
       0.2146791 0.2000141 0.1645723 0.3452747
000070 94 7b 37 3e a3 46 59 be 3b 0b e7 3e 51 49 82 be
       0.17918235 -0.21218352 0.45125756 -0.2544656
000080 5b 68 6e bd 1e 09 07 be b8 cc 8f be 45 80 12 be
       -0.05820499 -0.13187072 -0.28085876 -0.14306743
000090 fa 19 3a 3e cf cc 01 3e 4a d8 23 be bd a7 82 3e
       0.18173972 0.12675785 -0.16000476 0.255186
0000a0 49 db 1e be e0 d0 03 be d5 3d 51 3e 3f cb 5d 3e
       -0.15513338 -0.12872648 0.20433743 0.21659563
0000b0 54 2e fc bd fa fc 41 be 3b a3 49 be 13 8b 06 be
       -0.12313524 -0.18944159 -0.19691174 -0.1313899
0000c0 53 f3 f2 3c 92 06 86 be 18 89 3a bd ea fa 05 3d
       0.029657042 -0.26176888 -0.0455409 0.032709993
0000d0 9e 88 11 3e 4c 81 6b 3c 8f 58 8e 3d 14 75 11 be
       0.14212272 0.0143740885 0.06950485 -0.14204818
0000e0 6b 9f 32 be 3f 65 60 3e 22 f2 9c 3c 6e 4f 0c bd
       -0.17443626 0.21913622 0.019158427 -0.034255438
0000f0 c0 4f 5d be 7d 0a 9b be 1f 8a 37 3d 2e 4f c2 3d
       -0.21612453 -0.3028144 0.044809457 0.094877586
000100 6e 08 82 3e 2c f7 02 be eb 17 2e be ee f7 7d 3b
       0.25397056 -0.12789601 -0.17001311 0.0038752514
000110 f1 9b 61 3d c4 94 64 3e 71 2b ce 3d 86 ae 24 be
       0.055080358 0.22322375 0.100668795 -0.160822
000120 23 31 08 be 56 88 99 bc 37 a9 8f be c3 2a 63 bd
       -0.13299994 -0.018741768 -0.28058788 -0.055460703
000130 53 28 1e 3e ac 60 8e 3e 17 76 ef 3d 57 65 60 be
       0.1544507 0.2780813 0.11692446 -0.21913658
000140 63 1b 58 be 40 7c 31 3d e8 94 6f bd 01 1e 17 3c
       -0.21104197 0.043331385 -0.058491617 0.009223462
000150 27 44 99 3d 3a bb 5d 3e 7d 0e 19 3e d2 8d de bd
       0.07483702 0.21653453 0.14946933 -0.10866894
000160 55 88 2a 3e 16 d0 1f be 08 2b c9 3c dd 0a 59 bc
       0.16653569 -0.15606722 0.024556652 -0.013247219
000170 15 6d 80 be 8c a4 65 3e 56 27 1a 3e 3c cc 2b 3e
       -0.25083223 0.22426051 0.15054068 0.16777128
000180 b3 9e 10 be 0f 7c 9e 3d cd a5 55 3e e4 94 9f 3d
       -0.14123039 0.07738506 0.20864029 0.077920705
000190 e6 d3 04 be d0 90 9a be db 48 b6 3c cd f8 be 3d
       -0.12971458 -0.30188608 0.022251537 0.09324799
0001a0 02 fe 4e be 1f b1 f7 bd 7c 3d 8b 3e 29 5e aa 3d
       -0.20214084 -0.1209433 0.27195346 0.08318741
0001b0 92 94 ec bd c9 03 6b be a7 de 23 3c 7b 38 68 3e
       -0.11551775 -0.22950663 0.010001815 0.22677796
0001c0 7d 4f 88 3c 0f 3d 8a be 13 14 0b 3e 2a 2a 06 be
       0.016639465 -0.2699971 0.13581876 -0.13102022
0001d0 13 fe 04 3e 43 56 07 3e e1 0d d4 3d 13 f1 75 be
       0.12987547 0.132165 0.1035421 -0.24017744
0001e0 74 fe 09 3e e0 90 8c bd a7 73 9c 3d 8f 10 f1 3d
       0.13475972 -0.0686357 0.076392464 0.117707364
0001f0 bc eb 46 3e 9e cf 80 3e 15 dc 4c 3e 6a 8b 7e 3d
       0.19425863 0.251584 0.2000583 0.062144674
000200 6b 83 52 3e 2b 3e 9a 3d a6 cf 00 be 09 ce 8b 3e
       0.20557944 0.07531389 -0.12579212 0.2730563
000210 02 61 10 bd 74 c2 a0 bc cf 33 fb 3c 9a c0 3d 3e
       -0.035248764 -0.019623972 0.030664353 0.18530503
000220 53 69 1c 3e 80 1b 5e be e3 29 f6 3d 08 7e 1f 3d
       0.15274553 -0.21690178 0.12019708 0.038938552
000230 a3 44 00 be b7 bb 3b 3e 04 d9 84 be fe 45 92 3d
       -0.12526183 0.18333326 -0.2594682 0.07142256
000240 36 ee 34 3e d5 eb d1 3c cc 6c 58 be f6 6d ca 39
       0.17668995 0.025625149 -0.21135253 0.0003861037
000250 08 13 34 bd ab 9e 9b 3d 29 8c 78 be a9 66 f4 bd
       -0.043963462 0.07598623 -0.24272217 -0.11933643
000260 fa 5f 7d 3d ed 53 0c 3e 65 8f 82 be 20 9f 6e be
       0.06185911 0.1370389 -0.25500026 -0.23302889
000270 c6 e3 99 3e 80 82 01 3e 99 b9 6d be 1c 4a 03 bd
       0.3005659 0.12647438 -0.23215331 -0.032053098
000280 d4 fb bd 3e 4a e0 85 bd 79 34 93 3e 73 eb d5 3d
       0.37106192 -0.0653692 0.2875097 0.10445299
000290 64 1d 8c 3b 7a f0 8c bb 8d 8a 87 be 4f dd fb bd
       0.0042759646 -0.004301128 -0.26472893 -0.12298071
0002a0 89 c7 2d 3d ee 2b a1 bc a7 dd eb 3d 8b 71 42 be
       0.04242662 -0.019674268 0.11516886 -0.18988626
0002b0 07 b6 7d bd a6 91 39 3d 5c 7f ca bd 5d 09 45 3e
       -0.061941173 0.045304917 -0.09887573 0.19241853
0002c0 b3 89 bd 3d e7 b3 dd 3d 60 ea 8d be c0 26 ed 3d
       0.0925478 0.10825329 -0.27717876 0.115796566
0002d0 60 14 5c be 5e 22 82 3d 0c 4f bc 3d b4 f4 5d 3e
       -0.21492147 0.06354211 0.091947645 0.21675378
0002e0 08 b7 78 3e 1b c9 07 be e7 11 29 be de 64 dd bd
       0.24288571 -0.1326031 -0.16510735 -0.108102545
0002f0 04 85 37 be 67 48 4b be 26 dc 66 be fe ae bb bd
       -0.17921835 -0.19851838 -0.22544917 -0.091642365
000300 75 3f 24 be e9 70 f3 bc 54 d6 7e 3d ce 67 4b be
       -0.16039832 -0.029716926 0.062216118 -0.19863817
000310 f5 73 90 3e 27 0e b9 3c ce f8 1e be 6f 8c b4 3d
       0.28213468 0.022589756 -0.15524599 0.08815848
000320 ec e5 87 bc cf 94 fd bd 39 c9 80 3e 13 08 42 3e
       -0.016589127 -0.123818986 0.2515352 0.18948393
000330 ae 9b 61 3d 48 8b 33 3e d2 96 bd 3d 99 6c 1d be
       0.05508011 0.175336 0.09257282 -0.15373458
000340 ec 2a 9c 3d cf cb 1d 3e c9 6e 66 3e 0f 25 94 bc
       0.07625374 0.15409778 0.22503199 -0.018084077
000350 90 0d 24 be cc d8 73 3e 22 a7 87 be dc d6 0d be
       -0.16020799 0.2381317 -0.264947 -0.13851494
000360 62 89 ac 3d f7 ba 47 3e 40 81 66 3e 88 cd 15 3e
       0.08424641 0.19504915 0.22510242 0.14629185
000370 2a fc 80 bb 01 f2 40 bb 15 4f 71 be 58 17 d5 3c
       -0.0039363103 -0.002944112 -0.23565324 0.026012108
000380 6e 89 31 be 15 07 74 3e fc 8b 47 be 3b b3 89 3e
       -0.17337582 0.23830827 -0.19486994 0.26894554
000390 e2 91 86 be d0 f4 60 be a6 7c a4 3e 77 2e a6 be
       -0.26283175 -0.21968389 0.3212635 -0.32457325
0003a0 06 5a 66 be c2 da 3e 3e 03 35 f5 3d 99 c0 7d be
       -0.22495279 0.18638137 0.11973002 -0.24780501
0003b0 d0 2b 1f bd b3 47 c6 3c 82 26 cf 3d 9f 52 80 3e
       -0.038860142 0.02420411 0.10114767 0.25063035
0003c0 d8 77 1e 3e 13 88 89 3d f3 25 2f be e7 a4 2f 3e
       0.15475404 0.06715407 -0.1710432 0.17152749
0003d0 5d 26 92 be 20 a2 03 3e 85 5f 81 3c c3 d1 94 be
       -0.28544894 0.12854815 0.015792618 -0.29066285
0003e0 5f 02 8f be e1 af 48 3e 46 7b 19 be 04 2e b7 3e
       -0.27931497 0.19598342 -0.14988431 0.35777295
0003f0 84 ff 1d be 78 5d 7b 3e fa 1d b2 bd c9 95 de be
       -0.15429503 0.24547374 -0.08697124 -0.43473652

init_layer.0.bias f4 [64]
000000 6b cc 4b 3c b5 1d d5 3d 09 7a d9 bd d0 ad bd bd
       0.012438874 0.10406057 -0.106189795 -0.09261668
000010 a5 5e cb bd 71 d9 95 ba 74 9b 3c 3b 8c 40 de 3d
       -0.099301614 -0.00114326 0.002877918 0.10852155
000020 c8 e9 b8 bd c4 38 aa bd 8b 06 8e 3d 7f c4 6b 3e
       -0.09028965 -0.083116084 0.06934842 0.23024176
000030 a3 32 cb 3d be f7 a2 bd a2 6e 88 3c 62 fc db bd
       0.099217676 -0.07957409 0.016654316 -0.107414976
000040 7e 5e ce bd 58 ba 6e 3c fd 62 1d be bd 90 c5 3d
       -0.10076617 0.014570795 -0.15369792 0.09646747
000050 7c 56 d1 bb c7 d3 96 bd d6 46 fb 3d cd 9b 4c 3d
       -0.0063884836 -0.07364612 0.1226937 0.04995327
000060 94 5d 56 3d b2 e3 92 3d aa 32 37 3e 4e d6 1f 3e
       0.052335337 0.07172336 0.1789042 0.15609095
000070 d3 04 1b bd a0 69 ea 3d a6 b7 d4 3c 6a 36 30 bc
       -0.037846398 0.114459276 0.025966477 -0.010755161
000080 46 ad 41 3e 2c 43 08 be 13 ca 29 be 4f f9 42 bd
       0.18913755 -0.13306874 -0.16580991 -0.04760104
000090 81 d1 2c bd df df 17 3c b8 f4 18 3e 88 67 03 3e
       -0.042191986 0.009269684 0.14937103 0.12832463
0000a0 ab e2 22 be 6b 04 5d 3d fd f6 18 3e 4a d2 eb bd
       -0.1590678 0.05395929 0.14937969 -0.11514719
0000b0 dc 9e 58 3d fd 6b bb 3d f4 b8 fe 3a f5 6d 32 3e
       0.052885875 0.091514565 0.0019433782 0.17424758
0000c0 9a d9 be 3d 46 17 20 3e 2e 92 01 be 96 4c 2d 3e
       0.09318848 0.15633878 -0.1265342 0.16923746
0000d0 4d 38 12 3e 36 c7 26 3e eb d1 aa 3d a3 ee 36 bc
       0.1427929 0.1628693 0.0834082 -0.011165294
0000e0 e0 f0 b1 bd 5f bf 63 3d 9e d4 92 bd c9 8b b0 bd
       -0.086885214 0.055602428 -0.0716946 -0.08620412
0000f0 53 39 f6 3c 26 c7 8f bd 05 ac 0f be 0a 44 9e bb
       0.030056631 -0.070204064 -0.14030464 -0.004829888

hiden_layers.0.weight f4 [64, 64]
000000 50 95 f1 3d a6 48 fa 3d 15 67 47 3e ae b2 db 3d
       0.11796057 0.12220888 0.19472916 0.1072744
000010 37 e0 2e be ef 1c 68 bd 93 61 5a be 8a 98 0c 3d
       -0.17077719 -0.05666822 -0.21326284 0.03432516
000020 55 b9 cd 3d da b8 12 3e a0 80 c0 3c eb 92 0f bd
       0.10045115 0.14328328 0.023498833 -0.03505222
000030 f2 be d6 bd fc d4 0e 3e 61 a6 22 be 4f a4 88 bc
       -0.10485639 0.13948435 -0.15883781 -0.016679911
000040 00 b2 a8 3d cc 09 47 be d2 52 f5 bd 3c c7 d2 3d
       0.08237076 -0.19437331 -0.11978687 0.10291907
000050 f5 df 43 3e 7c 2a 02 be 35 be 5a 3e 50 24 18 be
       0.19128402 -0.12711519 0.2136162 -0.14857602
000060 13 32 de bd 89 6f 85 bd c7 e8 24 bc 26 23 5c be
       -0.10849395 -0.06515414 -0.010065264 -0.21497783
000070 92 5b 46 3e 74 60 26 be 41 38 33 be 3f d9 c8 bc
       0.19370869 -0.16247731 -0.17501928 -0.024517654
000080 d1 d1 3f be 7f 47 00 bd 05 c3 70 3d 48 c2 89 3d
       -0.18732382 -0.031318184 0.058779735 0.06726509
000090 85 73 0d be d7 2b 4e 3e a7 12 08 3e 0c f4 48 3d
       -0.13813598 0.20133911 0.13288365 0.049060866
0000a0 7d b2 aa 3d 1a e0 4c be f2 4b 1e 3d a6 70 0f bd
       0.08334825 -0.20007363 0.038646646 -0.03501954
0000b0 98 fd a2 3d b6 cb 37 be ea 13 fa bd 2e ee 36 3c
       0.079585254 -0.17948803 -0.122108296 0.011165185
0000c0 67 bd 0f 3e c8 65 0e 3e 4b 48 03 be 04 7a ba 3d
       0.14037095 0.13906014 -0.12820546 0.09105304
0000d0 e2 7c ef 3d 20 70 a4 3d ff d9 61 be 4b b9 0a be
       0.116937414 0.08029199 -0.22055815 -0.13547246
0000e0 c6 08 3a bd 73 9e a0 bd fb e1 36 be 79 e2 c0 bb
       -0.045418523 -0.07842722 -0.17859642 -0.0058863726
0000f0 b9 eb 52 be 83 f9 2e bd 82 8c a7 3d 80 ac 2d 3e
       -0.20597734 -0.04271842 0.081810966 0.16960335
000100 58 51 9b bd ee 41 5a be 65 40 b3 bd 7a 75 c7 3d
       -0.075838745 -0.21314213 -0.08752517 0.09739204
000110 01 ba ae 3d bc 43 35 be 90 e0 22 be d0 e0 63 bd
       0.08531571 -0.1770162 -0.15905976 -0.05563432
000120 b3 00 ea bd 80 06 4d bd ed a9 62 3d c0 81 2a be
       -0.114259146 -0.050055027 0.055337835 -0.16651058
000130 d3 db 1c be 90 7f 9b bd 01 a9 83 3c 31 20 13 be
       -0.15318231 -0.0759269 0.016071798 -0.14367749
000140 e4 a6 23 3e d8 54 96 3d f1 e9 02 3e 7b 6e d6 bd
       0.15981632 0.073404014 0.12784554 -0.10470291
000150 d8 58 92 3d e9 02 08 bd d6 99 35 be c6 f2 74 be
       0.07145852 -0.0332059 -0.17734465 -0.23920736
000160 2d 6c 88 3d 4a 54 3c be 1a b2 4c be ec 81 c7 bd
       0.06661258 -0.18391529 -0.19989815 -0.097415775
000170 35 0f 35 be 06 d7 03 3e 20 8a 9d 3d 31 b7 22 3e
       -0.17681582 0.12874994 0.07692361 0.15890194
000180 df ba 43 3e 48 2a ba 3d 09 ff 4f 3e 86 8f 4b be
       0.19114254 0.09090096 0.20312132 -0.19878969
000190 ab 75 e6 3d 0e 92 8b 3e bb d3 0a 3e 5f f1 64 be
       0.11252912 0.27259868 0.13557331 -0.22357701
0001a0 6f cd 25 be 19 51 81 be 09 7e 01 bc f7 f3 2d 3d
       -0.16191648 -0.25257185 -0.007903584 0.04246899
0001b0 0c 6c ec bd 8c c1 23 3c 2e 0a 73 be c4 f5 7b 3d
       -0.11544046 0.009994876 -0.23734352 0.061513677
0001c0 b9 c3 17 3c 26 d4 30 be 09 e1 d3 3d b7 9b 32 be
       0.0092629725 -0.17268428 0.103456564 -0.17442213
0001d0 e3 25 7d bd a7 49 2c be 1a f9 c8 bd fe c7 44 bc
       -0.06180371 -0.16824971 -0.09813137 -0.0120105725
0001e0 4d 75 ff 3d e8 9e b5 bd d3 6b 96 3e 9c f8 80 3d
       0.12473545 -0.088681996 0.29379138 0.062974185
0001f0 d6 30 99 bd 63 a6 2f be 96 bc 5f 3e 55 bc 44 be
       -0.07480018 -0.17153315 0.21849284 -0.19212468
000200 79 03 c4 3c c6 30 2c bd 50 1d 25 be 36 c9 30 be
       0.023927437 -0.0420387 -0.16124463 -0.17264256
000210 08 0b e3 3d 92 6c b8 3d ce d8 1f be ef 90 43 be
       0.110860884 0.09005083 -0.15610048 -0.19098257
000220 44 ec 18 3e da cb 17 3e 1d 1b e8 bd 18 41 f3 3d
       0.14933878 0.14823857 -0.113332964 0.1187765
000230 ca 9c 12 bd ee cb b7 3d 29 54 d4 3d a8 e1 88 3d
       -0.035794057 0.089744434 0.10367615 0.066836655
000240 c9 a3 05 bd 5e b4 26 3e a2 cc c5 bc 02 4a 05 3d
       -0.0326269 0.16279742 -0.024145428 0.032541282
000250 99 38 b2 3d 56 82 39 be 3a 8a 8c bd 18 1a f4 bd
       0.087022014 -0.18116125 -0.06862302 -0.119190395
000260 60 d1 f2 3d f0 4a 67 3d 18 6d fc 3d 27 e2 96 3d
       0.11856341 0.05646795 0.123254955 0.07367354
000270 19 2c bb 3b 53 d6 27 3e cf 97 19 be 7c 12 33 be
       0.005712044 0.16390352 -0.14999317 -0.1748752
000280 48 36 1a 3e d3 b9 f0 3c 5c 00 1e 3d e6 c4 1d 3d
       0.15059769 0.029385483 0.03857456 0.038517855
000290 47 b5 67 be 3e 8b 92 3d 9e 78 64 bd bc df 17 3e
       -0.22627746 0.071554646 -0.055779092 0.14831442
0002a0 62 7f fa bd b1 3f 14 3e de 2a 61 3d 0d 3b d3 3d
       -0.122313276 0.14477421 0.054972522 0.103139974
0002b0 af d9 1f 3e 47 5b c5 bd 0e 29 91 bd 53 16 69 3d
       0.15610383 -0.096365504 -0.07087909 0.056906056
0002c0 83 5f 47 3e 49 ec a3 3d fb a0 14 3e 22 7e 48 be
       0.19470029 0.08004052 0.14514534 -0.19579366
0002d0 a2 47 dd bd e2 db 28 3e bd 99 80 3c 30 b1 19 be
       -0.108046785 0.16490129 0.015698308 -0.15008998
0002e0 19 28 e9 3b 84 4b 8d 3d 34 d6 b5 bd 77 3c c2 bc
       0.0071153757 0.06899169 -0.08878747 -0.023710473
0002f0 59 7c fb 3d 8e 16 76 3d f8 f4 33 3d 65 db 75 be
       0.12279577 0.060080104 0.043934792 -0.24009474
000300 20 61 66 be ff 8b ca 3d 5f eb b7 3d d5 d7 40 be
       -0.22497988 0.098899834 0.0898044 -0.18832333
000310 4c 43 52 be d2 51 16 be f3 30 58 3e 84 72 25 3e
       -0.20533484 -0.1467965 0.21112423 0.16156965
000320 93 ff 65 be 4c 78 4d 3d a2 05 25 3e 96 7f f0 3c
       -0.22460775 0.050163552 0.1611543 0.029357713
000330 6f c3 30 3e 7b 14 3b be ec 10 1b 3e fe ea 16 be
       0.17262052 -0.18269531 0.15143174 -0.1473808
000340 f4 00 13 bd a3 f2 e6 3d a8 1d e0 3d 05 20 28 3e
       -0.03588958 0.11276748 0.109431565 0.16418464
000350 c3 34 b5 bd c0 04 b0 bc af 9d bd 3d a2 ce 66 be
       -0.08847954 -0.02148664 0.092585914 -0.22539762
000360 5c 17 43 3d 87 63 88 bd cb 37 12 3e 48 d8 b8 3d
       0.0476297 -0.06659608 0.14279096 0.090256274
000370 92 9e 6e 3d 97 16 39 3d 81 2e 54 3d 94 76 a9 3d
       0.058256693 0.04518756 0.051802162 0.0827457
000380 f0 93 87 3c 5d 99 51 3c 0a 64 0d 3e 30 f5 c1 bc
       0.016550034 0.012792912 0.13807693 -0.023676485
000390 8c 7d 75 bb f9 51 d1 3d 70 a2 7e 3e 83 43 e6 3d
       -0.0037458865 0.10220713 0.24866652 0.112433456
0003a0 76 7d 33 be ca 2f f8 bb d8 0a 93 3d 2b c1 18 be
       -0.17528328 -0.0075740563 0.07179803 -0.14917438
0003b0 f5 6f 99 3e 01 40 30 3e 94 9e 1d 3e a6 be 9e 3a
       0.2996823 0.17211916 0.15392524 0.0012111261
0003c0 b4 49 8a bd b4 45 84 bd a6 76 6b be ec 41 22 3e
       -0.06752339 -0.06458607 -0.2299448 0.1584546
0003d0 be 13 86 3d 37 ee f2 bc c8 39 75 3d 6f 27 bc 3d
       0.06546734 -0.029654605 0.059869558 0.09187209
0003e0 f0 d7 88 3d 39 28 8d bd a9 e0 7d 3e 4d fa 1b 3e
       0.06681812 -0.068924375 0.24792732 0.15232201
0003f0 76 aa 06 be 45 98 b5 bd ff 99 24 3e 76 7d ee bd
       -0.13150963 -0.08866934 0.1607437 -0.116450235

hiden_layers.0.bias f4 [64]
000000 f0 12 3e bd e2 37 87 bd f2 ba 4f 3c f6 3b 9c 3d
       -0.04640478 -0.06602456 0.012678849 0.07628624
000010 af cc a3 3d ee cf 87 3c 1c a2 d4 3d a8 a8 a9 3d
       0.07998025 0.01657864 0.103824824 0.08284122
000020 d1 68 24 3d a5 a8 54 bb f4 a3 f8 bd bc be 27 bd
       0.040139023 -0.0032449153 -0.121406466 -0.040953383
000030 5e 0e f4 bd 05 fd e3 3c 7c db 39 bd 0e 1b c0 3d
       -0.11916803 0.02783061 -0.045375332 0.0938016
000040 31 91 80 3c 77 55 0b 3d 30 9f 05 bc c7 60 97 3d
       0.015694233 0.034017053 -0.008155629 0.07391506
000050 e0 66 9f bd b4 9a 38 3b d6 dc 15 be 9b 49 ed 3d
       -0.07783294 0.0028168382 -0.14635023 0.11586305
000060 b6 29 09 3d ce 91 11 3e c4 d6 c8 bd 59 10 89 bd
       0.033487044 0.14215776 -0.09806588 -0.06692571
000070 a9 b3 46 bd ab ab e5 3c 64 d6 c1 bd db d3 3e bd
       -0.04851118 0.02803596 -0.0946472 -0.04658876
000080 30 91 31 be 17 71 9b bc 7a 16 02 3e 10 0b ab bd
       -0.17340541 -0.018974824 0.12703887 -0.083517194
000090 4a 26 11 3d fe 1e e2 3c aa 98 25 bd 1d d2 52 bd
       0.035436906 0.027602669 -0.040428795 -0.05146991
0000a0 26 92 95 3d 43 36 ce 3d 08 19 ab bd f8 15 98 3d
       0.07303266 0.10068943 -0.08354384 0.07426065
0000b0 96 8e 3c bd 41 bd df bd d5 cc 67 3c 8c 93 ae 39
       -0.046034418 -0.10924769 0.014147957 0.00033297797
0000c0 2c 2a 2a bd 5b 00 37 bd 64 ab bd bd dc 91 07 3d
       -0.041544124 -0.044678073 -0.09261206 0.033098087
0000d0 28 b3 cc 3c 59 f1 00 bc d5 cc 10 be 3c 7a 14 bd
       0.024987772 -0.007870042 -0.14140637 -0.036249384
0000e0 9d 89 b4 3d ba af da 3d 22 cd 8d bd cd 0c c2 bd
       0.0881531 0.106780484 -0.069238916 -0.09475098
0000f0 ce 81 86 bd 58 f4 11 bd 8a a4 17 3d bc 69 f6 bd
       -0.06567727 -0.035633415 0.03702215 -0.12031886

hiden_layers.1.weight f4 [64, 64]
000000 34 e6 f1 bd 6d 0f ed bc 6b bd e5 bd fd 1c 95 3c
       -0.11811486 -0.02893802 -0.11217769 0.0182023
000010 6b 84 1b 3e 77 68 22 be f7 95 b6 be 7a 0a be bb
       0.15187232 -0.15860163 -0.3566129 -0.0057995887
000020 52 af 10 be 2c c1 23 be 03 43 e1 3d ff 0a 3d 3d
       -0.1412938 -0.15991658 0.109991096 0.046153065
000030 0f fe d7 bd fd 61 30 3d 55 5b 02 be a8 8b 81 be
       -0.10546505 0.0430622 -0.12730153 -0.25301862
000040 b5 94 ab 3e 8d fc c3 3d 11 02 30 be 4c 64 21 bd
       0.33511892 0.095696546 -0.17188288 -0.03940229
000050 07 3f e2 3d 32 4e 24 3e 9b 51 dd bd f5 87 15 be
       0.11047178 0.16045454 -0.10806581 -0.14602645
000060 87 28 87 be d1 42 03 3e 19 b4 61 bc 79 11 4d 3e
       -0.26398107 0.12818457 -0.013775849 0.20026197
000070 3b 35 30 be 2b ab e6 3d 70 d1 23 3e 9b ff ed 3d
       -0.17207806 0.112631164 0.15997863 0.116210185
000080 0d ca 99 bd 11 5a 89 3e b3 a5 af 3d 3a 5c 91 3d
       -0.07509241 0.26826528 0.085765265 0.07097669
000090 80 ae e3 bd dc 66 e8 3d 25 98 9e be 4a 76 13 3e
       -0.111172676 0.11347744 -0.30975452 0.14400592
0000a0 e7 a4 6a 3e 71 92 33 3e 93 af 12 3e 5c fb 3d be
       0.22914468 0.17536332 0.14324789 -0.18552917
0000b0 eb f6 8a 3e df d4 21 3e 26 01 32 3e ce 15 5b 3e
       0.27141508 0.1580386 0.1738325 0.21395037
0000c0 8f 6a 5e 3e 9c 99 7e be b8 3c 85 be df 55 42 be
       0.21720336 -0.24863285 -0.26022887 -0.1897807
0000d0 dd 1c 57 3e ae 77 6e 3e 9c 01 3a 3e 8f 73 15 be
       0.21007104 0.23287842 0.18164676 -0.14594863
0000e0 f6 1c 18 3e 01 ba c6 bd 09 e5 88 be b5 d2 13 3c
       0.14854798 -0.09703446 -0.2673724 0.009022404
0000f0 b9 37 ee 3c 32 da 54 3e e8 c4 9c bc 98 76 3d 3e
       0.029079305 0.2078636 -0.019136861 0.18502271
000100 8f bc 93 3d a2 72 9a 3d b4 bb 2c 3e 28 02 3b 3e
       0.07213699 0.07541396 0.16868478 0.18262541
000110 ec 7b d4 bd 7b 31 44 3e 0a d7 81 be 02 24 01 be
       -0.10375199 0.191595 -0.25359374 -0.12611392
000120 d3 d3 18 be 74 85 1e 3e c3 3b 10 3c 8c 61 07 3e
       -0.14924555 0.15480596 0.008803311 0.13220805
000130 2b 23 f8 3d c6 fc 64 be fe 3e 9d 3d 7b 68 85 3d
       0.12116083 -0.2236205 0.076780304 0.06514069
000140 3f 18 56 be 43 2f 88 bd 6a 0c bf 3d 40 75 05 be
       -0.20907687 -0.066496395 0.0932854 -0.13033009
000150 8c 91 1b 3e d3 eb 4d 3e 66 fe 42 be 1c ae 5a be
       0.1519224 0.20109491 -0.19042358 -0.2135548
000160 e2 8c 42 3e 64 3a f9 bd 7e b9 c0 3d 61 be fe 3d
       0.18999055 -0.1216934 0.0941038 0.12438656
000170 2b 38 b5 b9 04 fa 3f be a0 af 5b 3e 86 8e 66 3e
       -0.0003456486 -0.18747717 0.21453714 0.22515306
000180 43 1d 60 3d 6b e4 29 be ff 77 e8 bd da 37 65 3e
       0.054715406 -0.16591041 -0.113510124 0.22384587
000190 3d 3b 68 3d 94 32 5f 3e 9f c5 44 be 80 77 27 3d
       0.05669712 0.21796638 -0.19216011 0.04088545
0001a0 12 65 bc 3d 90 42 5e 3d 96 16 a9 bd 1a dd 1b be
       0.09198965 0.054262698 -0.08256261 -0.15221062
0001b0 93 d8 0d 3e 37 1a ac 3c 18 04 43 3d 55 fa cf 3d
       0.13852148 0.021008594 0.047611326 0.10155169
0001c0 19 27 1b 3c 91 28 c5 3d 39 b5 a8 3d 91 c5 51 3d
       0.009469771 0.09626878 0.082376905 0.051213805
0001d0 4a e1 74 3e 6c ea 70 3d ef d9 89 3c e6 8d 2f 3e
       0.23914066 0.058817312 0.016827552 0.17143974
0001e0 71 8c 04 be 86 bf 1b be d3 fa 1b be 4e 0a 00 3e
       -0.12944199 -0.15209779 -0.152324 0.12503931
0001f0 ed a1 11 be 7e 56 21 bd 0d 2c d2 bd 61 8d 43 be
       -0.14221926 -0.039389126 -0.10262308 -0.190969
000200 78 fc 20 be 4d 95 3f bd 55 ba ce 3d 20 1d ce bd
       -0.15721309 -0.046773244 0.10094134 -0.10064149
000210 40 9e ba bd ee 2e fe bd 70 3d 7a be 72 8a 63 be
       -0.09112215 -0.12411295 -0.24437499 -0.22220781
000220 32 82 74 be 9e 10 8e bc f7 84 08 3e a8 44 bb 3d
       -0.2387779 -0.017341908 0.13331972 0.091439545
000230 b2 19 ca 3d 30 df 0f 3e f0 a3 73 bd 5f e4 6e be
       0.09868182 0.14049983 -0.059482515 -0.23329304
000240 ce 2a 0b be 2f 0b fc 3d 30 f2 82 bd ae 4e 96 bd
       -0.13590547 0.123068206 -0.0639385 -0.07339226
000250 a9 13 ef bc c2 fd 39 3d b4 f2 d4 bd 68 a8 0a be
       -0.02918418 0.045408018 -0.103978544 -0.13540804
000260 70 d5 42 3e ed 9d 35 be 16 df 6e be 2e 76 15 be
       0.19026732 -0.17736025 -0.23327288 -0.14595863
000270 d1 25 32 be 07 36 ea bd 5b 9a aa 3d ec f0 00 be
       -0.17397238 -0.11436086 0.08330222 -0.12591904
000280 2e 03 14 3d 03 78 8b 3e ae 4e 17 3e 7f 6f ce 3d
       0.036135845 0.2724 0.14776108 0.1007986
000290 da e2 44 bd 0b 54 eb 3c 5a cf 74 be 80 60 87 bd
       -0.048067905 0.028726598 -0.23907223 -0.06610203
0002a0 37 7d 24 be 0c 01 48 be b6 9f 6e 3e 11 1b 62 3b
       -0.1606339 -0.1953165 0.23303112 0.0034500996
0002b0 8e ae fb bd 17 96 cb bd c1 f9 66 3e 05 1c f7 3d
       -0.12289153 -0.09940737 0.22556211 0.12065891
0002c0 87 86 c8 3c 64 9f 4e 3e e4 3f 85 3c 2b da 41 3e
       0.02447821 0.2017799 0.016265817 0.1893088
0002d0 c4 52 0e be d8 f5 8a 3d 59 b5 91 bd 8a 66 dd 3d
       -0.1389876 0.06785172 -0.071146674 0.108105734
0002e0 e0 42 d3 3d ee b7 87 3d 39 ab d2 3c fc 6e b2 3c
       0.1031549 0.06626879 0.025716411 0.021781437
0002f0 af b2 d3 bd 49 e9 fc 3d d1 02 1e be 24 df 2b 3e
       -0.103368156 0.12349183 -0.15430762 0.1678434
000300 c8 16 5e 3e 9d 16 39 3e df 11 c7 bd 7a f3 0e be
       0.21688378 0.18075033 -0.097202055 -0.13960066
000310 f1 b9 00 be 95 9b 80 3d 40 b0 88 3e c7 27 2c be
       -0.12570931 0.06279675 0.26696968 -0.16812049
000320 cf e6 3d 3e 6e 9c 4e 3e dc 12 ab 3d 29 66 47 3c
       0.18545078 0.2017686 0.083532065 0.012170353
000330 93 b0 63 3e c9 c5 01 3e 8c 3c be 3d d6 73 f4 bb
       0.22235326 0.12673105 0.09288892 -0.007460098
000340 2f 5d 00 be fe d0 b9 bd 66 95 5d 3e 2e bb a2 3d
       -0.12535547 -0.09073065 0.21639022 0.07945858
000350 29 ef 12 be bf ce 37 3e 1f 89 74 bd 4a f4 94 bd
       -0.14349045 0.17949961 -0.05970108 -0.07273157
000360 81 fe 73 bc 61 45 b9 bd 4a ee fb 3c 39 3b c0 3d
       -0.014892221 -0.09046436 0.030753274 0.09386296
000370 bd dc 2a 3e f2 9e 13 3e 42 77 f9 3d d1 07 27 3e
       0.16685767 0.14416102 0.1218095 0.16311575
000380 a7 dc be 3d 21 12 8e 3d 82 ed 59 be 45 1c 80 3e
       0.0931943 0.069370516 -0.21282008 0.25021568
000390 b2 e4 09 be 0f f6 09 be ca 2e 6d bd ff 3d bf bb
       -0.13466147 -0.1347277 -0.05790595 -0.005836248
0003a0 c4 84 b5 3d 6d 06 79 be f6 22 28 3c 5f 04 89 be
       0.08863214 -0.24318857 0.010262242 -0.26761147
0003b0 0e dc 15 be 0f 0b b7 bd a4 9e 5e 3c 51 73 1e be
       -0.14634725 -0.08937656 0.013587628 -0.15473677
0003c0 01 9d e4 bd 66 40 25 3d 07 12 0f 3d a3 30 33 3e
       -0.111627586 0.04034462 0.0349293 0.17499022
0003d0 3c b4 7b 3d 20 61 4f be f2 fb c0 bd af ca da 3d
       0.06145118 -0.20251894 -0.09423055 0.1068319
0003e0 b1 9b 57 be fe 53 32 be 14 f2 23 3e b8 10 5b 3e
       -0.21055485 -0.17414853 0.16010314 0.21393096
0003f0 95 98 21 be c8 0b eb bd 50 b3 50 3e c2 be fa 3d
       -0.15780862 -0.114768565 0.20380902 0.122434154

hiden_layers.1.bias f4 [64]
000000 ca 87 e6 bc 72 8a 11 bd e6 4b b9 3d c3 3a 5a bd
       -0.028140921 -0.035532422 0.090476796 -0.053278696
000010 cd ad ad bd ea 93 c3 bd b0 c3 cc bd 55 18 a5 bd
       -0.084804155 -0.09549697 -0.09998262 -0.080612816
000020 4a e3 89 3d 4f 1a bf bc 28 5f 6c 3d ed 25 86 bd
       0.06732805 -0.023327975 0.057707936 -0.065502025
000030 ee 46 4e 3d 18 39 17 3d 28 7a 97 bb fb 85 99 bd
       0.050360613 0.036919683 -0.0046227165 -0.07496258
000040 c4 1e 8a 3c af 06 1b 3e 63 eb 29 bd 33 b7 a8 bc
       0.016860373 0.15139268 -0.041484248 -0.020595169
000050 26 ce dc bd 87 4e f1 bc f2 77 00 3c a9 ea 2c bc
       -0.10781507 -0.02945639 0.007841097 -0.010553994
000060 ef 5d 95 bd 1f 68 66 bd bb ae 89 bb 5d b4 6e 3c
       -0.07293307 -0.05625164 -0.0042017377 0.014569369
000070 4f 5c 30 bd aa 5b 60 3c 97 b7 a4 3d c1 33 97 bc
       -0.043056782 0.013693729 0.080428295 -0.018457295
000080 c0 c3 f5 3c b4 82 b1 3c 59 1e 76 3d 2e 5f e6 bc
       0.030000567 0.02166877 0.060087536 -0.028121557
000090 b8 01 40 b9 43 86 9d bb 31 26 06 bc 3d c0 b1 3a
       -0.00018311187 -0.004807265 -0.0081878165 0.001356132
0000a0 a9 ab f0 3c 7f 56 93 3d e4 d9 2d bd f4 a2 b8 3c
       0.029378729 0.07194232 -0.042444125 0.02253864
0000b0 de a1 9f 3c ec a6 29 bc 23 89 19 bd 85 8c 80 bd
       0.019486364 -0.010354739 -0.0374843 -0.06276802
0000c0 d0 7b 93 3d 9c 7f 07 bd c2 b7 b4 3d 31 43 8c bd
       0.0720135 -0.033080682 0.088241115 -0.06848753
0000d0 ed d7 27 bd bf 36 a6 3b cb ba 85 3d d3 00 a5 bc
       -0.040977407 0.005072444 0.065297686 -0.020141995
0000e0 29 57 5f 3c 01 d9 29 bd 3c 79 06 3d 5d 66 45 3d
       0.01363162 -0.041466717 0.03283046 0.048193324
0000f0 b2 8c ed 3c fe 36 0b bd 64 10 d8 3c 4b 0e 2d bc
       0.028997753 -0.03398799 0.026375003 -0.01056249

hiden_layers.2.weight f4 [64, 64]
000000 ec fa e6 bd 7e d0 52 be dc 40 ff bd 4e a9 53 be
       -0.11278328 -0.20587346 -0.12463543 -0.20670053
000010 72 3d 02 be 3c de 4a 3d 5b 6c 86 bd cb 8f d7 bd
       -0.12718752 0.049528345 -0.06563636 -0.10525473
000020 9e 3e 4a 3e ea ca 8f 3d 74 f6 14 bc 72 fd 1c be
       0.19750449 0.07021125 -0.009091962 -0.15331057
000030 43 7d 96 3d 16 64 4f be 9a e6 f4 3d 21 e0 26 3e
       0.073481105 -0.20253024 0.11958046 0.16296436
000040 a1 13 88 be 5e f3 6e be e0 b6 c4 3d a2 f1 e7 bd
       -0.26577476 -0.23335025 0.09605193 -0.11325385
000050 a8 66 62 3d 4d 29 6f be 0a e0 d9 bd 84 bc 35 3e
       0.055273682 -0.23355599 -0.10638435 0.17747694
000060 96 11 fe bd 6f 48 9f 3d b3 b9 05 3e 0c 05 55 3b
       -0.12405698 0.077774875 0.1305912 0.003250423
000070 cf 3d e2 bd df 48 63 bd 26 5a 42 3e 97 34 07 be
       -0.11046945 -0.055489417 0.18979701 -0.13203655
000080 5f 74 dd bd ce ac 09 3c 96 ae 60 be 4b 42 d4 3d
       -0.10813212 0.008403016 -0.21941599 0.10364207
000090 db d3 b2 3d e2 85 08 be ab c5 23 be a5 d6 50 3e
       0.087318145 -0.13332322 -0.15993373 0.2039438
0000a0 72 07 14 be 79 11 ba 3d 9c 90 52 be 11 f6 55 be
       -0.14455965 0.09085364 -0.20562977 -0.20894648
0000b0 0e 82 b8 bd 9d 2b fb bd 08 52 de bd d6 ed 75 bd
       -0.09009181 -0.12264178 -0.1085549 -0.06004127
0000c0 d9 4d 1c 3d 8a 69 4d 3e 76 ed 44 bc 58 65 24 be
       0.03816018 0.20059791 -0.012019506 -0.16054285
0000d0 9a 08 2b 3e a5 4f 8f 3d 1c b8 f8 bb 36 93 87 3e
       0.167025 0.06997613 -0.007590307 0.264795
0000e0 fd 63 13 be 08 fa 57 be 0a bf 5e bd f2 ea 80 3e
       -0.14393611 -0.21091473 -0.054381408 0.2517925
0000f0 3e c2 84 bc c8 27 95 3d dc da 6d be 54 0e 9d 3d
       -0.016205903 0.07282978 -0.2322802 0.076687485
000100 5e 5f dd 3d 23 96 79 bb 98 80 7e 3d 34 85 e9 bd
       0.108092055 -0.0038083873 0.062134355 -0.114023596
000110 d9 75 96 3c 6e 47 6f 3c 5b 20 12 3e a8 97 ae bd
       0.018366741 0.0146044325 0.14270155 -0.0852502
000120 4f 7b 03 3e b6 f6 b3 3d 3d 5e c7 bd b2 e2 ed bd
       0.12840007 0.08787291 -0.097347714 -0.11615504
000130 30 bc 3f bd 22 31 4a 3e 6a 9b 1a bd 44 44 ce bd
       -0.04681033 0.19745305 -0.03774587 -0.100716144
000140 71 64 dc 3d 57 49 ff 3c 74 4b fc bd 34 2d f3 bc
       0.10761345 0.0311629 -0.12319079 -0.02968464
000150 7b 2b d9 3d 37 3a 34 be 1c ea ae 3d cb 6e 6e 3d
       0.10603996 -0.17600332 0.085407466 0.05821113
000160 87 84 86 bc 49 95 cd 3d 8f 86 f7 bd 88 b2 30 be
       -0.016420616 0.100382395 -0.12086212 -0.17255604
000170 3b f5 be 3d 29 ca 19 3d aa 3b c4 bb 2c 70 11 3b
       0.09324118 0.03754631 -0.005988558 0.0022192104
000180 15 1f 09 be f9 18 10 3d 25 d8 c2 3d 4d 9c 30 3e
       -0.13390763 0.035180066 0.095138825 0.17247124
000190 1f d4 e2 bd 89 0a bf bc 6b 98 6b 3e 9b 66 ca 3d
       -0.11075615 -0.023320453 0.23007362 0.09882852
0001a0 f7 3e 83 3d 16 c4 b7 bd ae 70 f9 bd 9b 4b 3e be
       0.06408494 -0.08972947 -0.12179695 -0.18583529
0001b0 bf 54 f2 3c 1e 4e 1f be fd d3 90 3d 6f 31 e4 3d
       0.029581426 -0.15557143 0.070716836 0.11142241
0001c0 ce 6b 86 be fe 68 d1 bd 2a 28 d2 bc 96 83 59 3e
       -0.26254123 -0.10225104 -0.025653917 0.21241602
0001d0 32 5e 1c be 73 99 aa 3d 0d 61 56 bd 12 76 0f be
       -0.15270308 0.08330049 -0.05233865 -0.14009884
0001e0 09 a8 d1 bd 50 22 25 3d 3b f8 21 3d e8 60 f6 3d
       -0.10237128 0.040315926 0.03954337 0.12030202
0001f0 6f fc 2e be f9 24 0a be e1 e9 3e 3e 1d 4c 22 3e
       -0.17088483 -0.13490666 0.18643905 0.15849347
000200 bc 40 68 be 70 f5 7e bc 14 01 a1 3d 2d 9c 40 3e
       -0.22680944 -0.015561447 0.07861534 0.18809576
000210 7d cc 11 3e 0a a1 d8 3d 24 60 0e be 99 81 86 3d
       0.14238162 0.10577591 -0.13903862 0.065676875
000220 58 f9 33 3c 80 f8 50 bd 7e c7 b0 3c b1 5b c0 bd
       0.010984741 -0.051018238 0.0215795 -0.09392489
000230 f1 cf a9 3d b5 00 86 be 2c a3 72 3e 66 2f 67 bd
       0.08291615 -0.26172414 0.23695058 -0.056441687
000240 aa dc 30 3e c6 b3 13 3e 61 0a 6d be 83 a6 b7 bd
       0.17271677 0.14424047 -0.2314849 -0.089673065
000250 b4 f1 59 bd 5f 2b 80 bd 89 65 20 3e 24 37 72 bd
       -0.05320902 -0.062582724 0.15663733 -0.059134617
000260 a2 bb 31 be b7 27 68 3d e4 41 31 be b4 52 c0 3c
       -0.17356732 0.0566785 -0.17310292 0.023476936
000270 94 35 16 be ac 5f 26 3e 96 db bf bd a7 8d 91 be
       -0.14668876 0.16247433 -0.093680546 -0.28428385
000280 37 ca db 3c d6 1c 6c 3e 04 b4 e2 bd 9f 67 fa 3d
       0.026829822 0.23057875 -0.110694915 0.122267954
000290 bf 07 3c 3c f0 e3 82 bd 79 56 73 3d 42 64 3f 3e
       0.011476456 -0.06391132 0.05940864 0.18690589
0002a0 3d 6e 7a 3e cf cf 85 3d a6 ca 0e be 35 2d 2e 3e
       0.24456115 0.06533777 -0.13944492 0.17009433
0002b0 54 a3 0b 3e 8c 72 69 bd f4 bf b3 3b 75 cc 85 3c
       0.13636523 -0.056994006 0.005485529 0.016332844
0002c0 7e 9d 68 3e 8d 41 8c be 7a de 2e 3e 74 75 ad 3c
       0.22716329 -0.2739376 0.17077056 0.02117417
0002d0 b5 c1 63 be f4 25 01 be 43 ff 15 3d 30 9e d4 bd
       -0.22241862 -0.12612134 0.03662039 -0.10381734
0002e0 71 19 8f 3e 72 ef d7 3d 89 ad 89 3e 7f 9d 49 3e
       0.27949098 0.105437174 0.2689021 0.19688986
0002f0 5d f3 98 3d 34 a5 8e be d6 36 8a bc 18 77 1d 3d
       0.07468293 -0.27860415 -0.016871851 0.038443655
000300 43 22 3d 3e 0a 44 97 3e 1e 7a 89 3d ac e5 18 be
       0.18470101 0.29544097 0.06712745 -0.14931363
000310 94 ce a6 3c 07 84 4d be 04 aa 2f 3d 27 4e 8b bd
       0.020362176 -0.20069896 0.04288675 -0.06802016
000320 09 21 94 bc 48 06 ab bd 14 a8 48 be c7 5b 44 3e
       -0.018082159 -0.083508074 -0.19595367 0.19175635
000330 7c fb 58 3e 1c 2b 89 bd 28 1f 08 be 81 8a 9c bd
       0.21189684 -0.066976756 -0.13293135 -0.07643605
000340 55 3c 77 3e dd c6 9a 3e b9 8c 63 3d 60 29 e9 bc
       0.24144109 0.30229846 0.055554125 -0.028462112
000350 9b c3 8c bd 40 bc 33 be a4 62 15 3e 92 3c 3b 3e
       -0.06873246 -0.1755228 0.1458841 0.18284824
000360 40 f8 bf bd 5e d7 28 be 7d b5 ac be 64 4b 00 be
       -0.09373522 -0.16488406 -0.33732215 -0.12528759
000370 0c 4f 9f bd 89 64 09 3f 6c fa a1 3d 7d 29 8e bd
       -0.07778749 0.5366903 0.07909092 -0.06941507
000380 0a f5 d8 3d 3a bd a5 3d a1 ea 77 be f6 1c e1 bd
       0.105936125 0.08092733 -0.24210598 -0.10991852
000390 64 04 1e 3e 28 7e 91 bd 8c ec 62 be b0 93 10 3e
       0.15431362 -0.071041405 -0.22160548 0.14118838
0003a0 48 f2 89 bd ea 82 9b bd 17 d3 4a 3e da cf 92 3d
       -0.067356646 -0.07593329 0.19807087 0.07168551
0003b0 40 69 58 3e 66 44 84 3d a1 56 59 be 47 e2 f3 bd
       0.211339 0.064583585 -0.21224453 -0.11908393
0003c0 68 35 d3 3d b1 33 63 be 07 43 f0 3d c7 4b e7 bc
       0.10312921 -0.22187687 0.117315345 -0.028234376
0003d0 ca ca 25 3e 4d eb 68 3e c3 d5 d3 3d bc cc 10 be
       0.16190639 0.2274601 0.10343506 -0.141406
0003e0 45 e3 47 3c cf c4 1d be 63 8d 4f be 90 c6 a6 3e
       0.012200181 -0.15407108 -0.20268779 0.32573366
0003f0 79 a0 18 be 4e 3c 36 3b 4b 23 81 be 4f e7 35 bd
       -0.14904965 0.002780694 -0.2522224 -0.044410046

hiden_layers.2.bias f4 [64]
000000 68 b3 3a 3d 9b 44 c0 bc 5f 13 98 3c fc 27 a5 3d
       0.04558125 -0.023470214 0.018563924 0.08064267
000010 71 c3 c9 bb 91 aa dd 3d b4 ec 9b 3d 7d b8 ca bd
       -0.0061573316 0.108235486 0.07613507 -0.098984696
000020 d4 9f d2 bd 1a df ec 3c d1 c8 bc 3c 99 fd 42 3d
       -0.10284391 0.028914977 0.023044975 0.04760513
000030 e7 b8 c9 3d ad c9 5b 3c c4 29 b3 bc 4a 30 b0 bd
       0.098497204 0.0134147825 -0.021870501 -0.086029604
000040 26 43 6d bc 70 90 4f 3d fe d4 e5 bc cb 9b bb 3c
       -0.0144813415 0.050674856 -0.028055664 0.022901436
000050 46 61 9b bd 2c 28 74 bd f4 8b e6 3d 87 8a 22 bd
       -0.07586913 -0.059608623 0.11257163 -0.03968289
000060 c8 53 0f bd 2d c4 68 3b 42 d8 dc 3b c9 ed 57 3d
       -0.03499201 0.003551732 0.006739647 0.052717004
000070 01 4b 3b bd 7d 78 c2 bd 39 6c 36 bd e6 81 85 bc
       -0.045725826 -0.094956376 -0.044536803 -0.016297292
000080 5e e7 93 3c 68 4d 91 3d 6e 45 69 3c b2 7d ed bd
       0.01805466 0.07094842 0.014237745 -0.1159624
000090 05 79 cc bc fd 1e dc 3c dc 92 41 3d a9 fb 9f 3b
       -0.02496005 0.026870245 0.047259197 0.004882295
0000a0 9b 4b 49 3d 5d 48 0e 3d 34 a8 62 bc 2d e7 51 3d
       0.04914437 0.03473698 -0.013834048 0.051245857
0000b0 18 fa b4 3c cb 29 72 bd c6 84 e2 3a d3 e7 84 bd
       0.02209191 -0.059121888 0.0017282001 -0.064895295
0000c0 bf f9 ce 3c 1b 5e 2e bd 11 92 93 3c cf e7 16 ba
       0.025265573 -0.042570215 0.018013986 -0.0005756588
0000d0 c4 10 6d bd 4f 61 78 bd b4 40 ae bd 7f 1c 68 bc
       -0.057877317 -0.060639676 -0.08508435 -0.01416695
0000e0 60 12 be 3d cc 04 ac 3b e1 af 52 3c ca 5d 98 3a
       0.092808485 0.0052495953 0.012859316 0.0011624631
0000f0 0c 87 b9 bc 93 38 b4 bc ca f2 d0 bd 94 45 99 3a
       -0.022647403 -0.021999633 -0.10202558 0.001169371

hiden_layers.3.weight f4 [64, 64]
000000 05 83 20 bd 8f d9 85 3e a4 3c 39 bd f4 6b a8 bd
       -0.03918745 0.26142547 -0.045223847 -0.082237154
000010 6a 3a 8f 3e 29 63 24 be a2 8d 60 be a1 94 65 3d
       0.27974254 -0.16053452 -0.21929029 0.056049947
000020 9b 3d 4b 3e 93 86 8a 3d dc 12 13 3e 3e 4f 1f be
       0.1984772 0.06763949 0.14362663 -0.15557572
000030 a1 e1 c3 bd 4c 36 63 3e 64 c0 7f 3d ce 39 f5 3c
       -0.0956452 0.22188681 0.062439337 0.02993479
000040 89 76 8f 3d dd 04 0d bd 18 1e 5f bd 52 ed 85 be
       0.07005031 -0.034428466 -0.05447206 -0.26157624
000050 e9 4d 2f 3e 5b f7 4a be dd 84 5d ba 17 13 f6 3d
       0.17119564 -0.19820921 -0.0008450279 0.1201536
000060 6b 07 01 bd d0 f3 6f be ee 55 a0 bc e7 fb 88 be
       -0.031501215 -0.23432851 -0.019572224 -0.26754686
000070 3a a8 50 ba 94 13 8e bc e3 a3 0b be 16 cf 9f bd
       -0.0007959638 -0.01734332 -0.13636737 -0.078031704
000080 e6 7b 1e 3c 4f 6b 62 bd 70 32 28 3e bc 7d 41 3e
       0.009673094 -0.05527812 0.1642549 0.1889562
000090 6c 5d 8e 3d b9 59 51 be 19 77 b5 3d 44 87 19 be
       0.069514126 -0.20444383 0.08860607 -0.14993006
0000a0 45 72 0c be 83 44 21 be ed 7c f1 bd e4 d3 d6 bd
       -0.13715465 -0.15748791 -0.11791406 -0.10489634
0000b0 7d e4 1c 3e 6e d7 64 be 19 38 8c 3e ad ba 03 3d
       0.15321536 -0.22347805 0.2738655 0.03216045
0000c0 04 3f 0a 3e 0c 8f 83 3e 98 7a 8e bc 4a e0 b6 bd
       0.13500601 0.25695074 -0.017392442 -0.089294985
0000d0 0b fc 49 3e 73 5e 9c 3d 8f 9c 10 3e 16 02 e2 bc
       0.19725053 0.07635202 0.14122222 -0.027588885
0000e0 82 9a d7 bd 84 94 f2 3d be c4 db bd 55 23 17 be
       -0.10527517 0.11844733 -0.10730885 -0.14759572
0000f0 99 4c 37 3e ed e3 65 3e 33 64 44 3e 64 35 ad bd
       0.17900313 0.22450228 0.19178848 -0.08457449
000100 27 62 d2 3d 8a 1f b6 bd 32 ea 5d be 75 46 1a 3e
       0.10272627 -0.08892734 -0.2167137 0.1506594
000110 a7 10 2b 3e 14 96 52 3d da e0 cc bd 09 0e 23 3e
       0.16705571 0.051412657 -0.100038245 0.15923323
000120 7a ba 9e 3e fd bd a3 bd 84 69 33 3e 52 fe 54 bd
       0.31001645 -0.07995222 0.1752072 -0.05200035
000130 58 fd c4 3d d6 a1 16 be 1b c4 57 3e bf 54 37 3e
       0.09618634 -0.14710173 0.21070902 0.17903422
000140 ce db 96 bc 0c 9f 00 be fa 75 ab 3d fa 10 b7 3d
       -0.018415358 -0.12560672 0.083721116 0.08938785
000150 76 6a 5c bd 69 0f 19 3e d1 23 a4 bd f6 8e c6 3d
       -0.053812467 0.14947285 -0.08014644 0.096952364
000160 20 a3 d0 3c 90 65 3b bc b4 05 48 be 47 d4 a3 be
       0.025468409 -0.011437789 -0.19533426 -0.31997892
000170 b3 6f 70 bd 40 1b 51 be 75 55 11 be 90 86 e0 bd
       -0.058700275 -0.20420551 -0.14192756 -0.10963166
000180 75 50 c2 3d df 80 fd bd c2 6a d6 3d 4c 9b 1a 3e
       0.09488002 -0.12378096 0.10469581 0.15098304
000190 82 c2 7b 3e 18 11 e7 bd a5 2e da bd 0e ad 51 3e
       0.24585918 -0.11282557 -0.10653428 0.20476171
0001a0 d0 65 56 be a6 c2 5d be 29 85 2e 3e 3a c0 5c bd
       -0.20937276 -0.21656284 0.17042984 -0.05389426
0001b0 15 ec 85 3d f6 2d 8b be 1a a7 a0 3d f6 36 a6 bd
       0.0653917 -0.27183503 0.07844372 -0.08115952
0001c0 88 ca c8 3c d8 4f af bc 5e a2 74 3d c8 6a 91 bd
       0.024510637 -0.021400377 0.059725158 -0.07100445
0001d0 91 0e 2e be ef a3 bd bd de 30 ee bd 63 09 2b 3d
       -0.16997744 -0.092597835 -0.116304144 0.041757
0001e0 d8 64 84 3d ce a0 06 3e 92 46 94 3c 9c 91 be bc
       0.06464547 0.1314728 0.018100057 -0.023262791
0001f0 c2 de 50 3e 84 dc 1a 3e 07 10 f9 bd 60 a3 04 3e
       0.20397475 0.15123183 -0.1216126 0.12952948
000200 38 02 42 be 56 c6 d9 3d 4a 92 37 3e 27 0b 23 be
       -0.18946159 0.10633533 0.17926899 -0.15922223
000210 a2 bb 87 3e 05 a7 a8 bd 76 4d ad 3d 90 e2 95 3d
       0.2651034 -0.082349814 0.0846204 0.07318604
000220 c4 7c ef 3d a7 fe 0a 3e 99 d1 2e be c0 28 83 3d
       0.11693719 0.13573705 -0.17072143 0.06404257
000230 6f ed fd bb 6f b4 44 3e 2e 87 7d 3d 0a 61 42 bd
       -0.0077492516 0.19209455 0.061896496 -0.047455825
000240 28 84 3a 3d 04 28 a3 be a5 cd 4a be 2f 3c 63 be
       0.04553619 -0.31866467 -0.1980501 -0.22190927
000250 18 7f 5f be 25 96 b7 3c 0b 63 03 be 27 10 de 3d
       -0.21825826 0.022410462 -0.1283075 0.108429246
000260 54 b3 76 be 9e cb ec 3d 1f d7 18 3e 4f 02 48 3d
       -0.24091846 0.115622744 0.14925812 0.048830327
000270 13 85 4a be e3 e6 b5 3c d5 63 07 3e a8 9a e8 3c
       -0.19777326 0.022204822 0.13221677 0.028394058
000280 e8 32 b8 be ae 39 1f be c4 e1 39 3e 12 2f fe bc
       -0.35976338 -0.15549347 0.18152529 -0.031028304
000290 c5 56 cd 3d 38 90 42 be 78 4d 24 3e 57 2e e5 3d
       0.100263156 -0.19000328 0.16045177 0.11190479
0002a0 e7 15 18 be b8 1c 3c 3b 42 50 d4 bd 95 32 4c 3e
       -0.14852105 0.002870364 -0.103668705 0.1994117
0002b0 a7 40 9f 3e 23 24 82 be 4e 75 e6 bd 2a 38 b0 3d
       0.31104013 -0.25418195 -0.11252843 0.086044624
0002c0 d7 db 8c 3d 2a 72 13 3e 55 b1 34 be 8d d3 02 3e
       0.068778686 0.14399019 -0.17645772 0.12776013
0002d0 a1 7b ca 3d a2 09 f5 bd f1 35 08 3e ed 9f 5b bd
       0.098868616 -0.11964728 0.13301827 -0.053619314
0002e0 b6 fa 82 3e 6a ae 6d bc 3c 38 bc bd 71 5c 47 be
       0.25581902 -0.014506916 -0.09190413 -0.19468857
0002f0 f2 1d 3a be 54 b5 1f bd 8a 58 d9 bc 5e af 32 3c
       -0.18175486 -0.038991287 -0.026531477 0.010906069
000300 54 bf 0d be 5c c0 4c ba b5 af 5c 3c c6 58 ad 3d
       -0.13842517 -0.0007810646 0.013469626 0.08464198
000310 fd 21 6e be d0 e8 89 bd be 39 de bd 1c 53 82 bb
       -0.23255153 -0.067338586 -0.10850857 -0.0039771926
000320 43 ef 26 3e 69 c1 34 bc 7d 2c 7f bd 88 0b b2 bd
       0.16302209 -0.011032441 -0.062298287 -0.08693606
000330 41 79 3a 3d 8b 22 da bd b6 e4 92 bd 9e 0a 8e 3d
       0.045525793 -0.1065112 -0.071725294 0.06935619
000340 da e9 cf 3c ef e8 e0 38 f3 12 eb bd a8 53 bc bd
       0.025380064 0.000107245396 -0.11478224 -0.09195644
000350 1c 54 3b be 1f 80 65 3e 46 d9 fd 3d 59 d3 0a be
       -0.18293804 0.22412156 0.12394957 -0.13557185
000360 9e 35 ea bc b5 2d 00 be 9c 99 68 bd 6f d9 2d be
       -0.02859002 -0.12517436 -0.05678712 -0.16977476
000370 a1 3d 61 3e 69 f9 66 3e 76 95 2b 3e 06 d6 cc 3c
       0.21996166 0.2255608 0.16756234 0.025004398
000380 ec 4e ed bd 36 48 b9 3d 84 ef a4 bd e3 fe 19 3d
       -0.11587319 0.09046976 -0.080534965 0.037596595
000390 b0 f6 34 3d c9 d2 53 be 9c fd ee bd d5 4e e4 3d
       0.044180572 -0.20685877 -0.11669466 0.111478485
0003a0 06 6f 90 3c 5b 78 52 be 6c 0f 13 be f0 fe 03 be
       0.017631065 -0.20553724 -0.14361352 -0.1289022
0003b0 89 fd 55 3e 56 a9 e6 3d a7 92 3c 3e a6 c2 f0 3d
       0.20897497 0.11262767 0.18415318 0.11755876
0003c0 14 20 3e 3e a6 01 ec 3d 6a 17 74 3e 98 f8 38 be
       0.18566924 0.11523752 0.23837057 -0.18063581
0003d0 d3 7d 80 bd e7 84 bc 3c 77 82 81 3e f8 ec 3b 3e
       -0.06273999 0.023012592 0.2529485 0.18352115
0003e0 60 ac 8a 3d 03 d5 0d be 71 4f d3 3c 3c 81 14 3e
       0.06771159 -0.13850789 0.025794717 0.14502424
0003f0 62 4f 27 3d de b7 0a be 18 9d c4 bd 14 79 08 3d
       0.04084719 -0.13546702 -0.09600276 0.033318594

hiden_layers.3.bias f4 [64]
000000 8e 55 94 bd f9 f8 40 bd 88 68 b9 bc 6b a6 79 bd
       -0.07242881 -0.04711244 -0.022632852 -0.060949724
000010 63 60 90 bd 03 c7 a5 3d 84 5e d8 bc 56 e6 20 bb
       -0.07049634 0.08094599 -0.026412256 -0.0024551353
000020 e2 7d a0 bd d4 b8 2c be 3f e3 bb 3d 29 23 63 bd
       -0.0783651 -0.16867381 0.09174203 -0.055453453
000030 79 68 7b bd f2 26 3f 3c a2 20 47 3d d9 1a 45 bd
       -0.06137893 0.011667 0.048615105 -0.048121307
000040 a4 ec 55 bb 6e 6c 6f 3d dd 42 a0 3d e2 2c 04 3d
       -0.003264227 0.058453016 0.07825253 0.032269366
000050 50 4e 9b bd 6a 0f 8f bd 7a ed 47 3c 72 cf 40 bd
       -0.07583296 -0.06985362 0.012202615 -0.047072835
000060 fb 56 22 3d 6c ec 16 3d 02 bb cd b9 98 af a3 bc
       0.039633732 0.036846563 -0.0003923998 -0.01998119
000070 2e c7 ad bd 68 24 36 bb 8e b8 eb 3d 4d 17 09 bd
       -0.08485256 -0.0027792696 0.115098104 -0.033469487
000080 c4 61 d9 3d 5d e3 6c bd 2c 95 3c 3d 73 22 1c bd
       0.106143504 -0.057834018 0.0460407 -0.03811879
000090 1d af 21 3d 8c d1 cd 3c 07 5d 31 3d de 8b 43 3d
       0.03947364 0.025124334 0.04330161 0.04774081
0000a0 42 73 37 bd 7a 83 b0 bd 58 12 e7 3d 15 41 cb 3b
       -0.044787653 -0.08618827 0.11282796 0.0062028267
0000b0 c2 6a 3d bd 09 5b 16 3d 03 f4 24 3c e2 ac 0a 3e
       -0.04624439 0.03670791 0.010067943 0.13542512
0000c0 82 f0 43 3b a2 53 57 bd b8 7e 85 3d 2f 9c e5 3d
       0.0029897992 -0.052569993 0.0651831 0.1121143
0000d0 df 1e ba bb 48 bf 80 bd 7c 05 b2 3c 06 e3 8b bc
       -0.0056799497 -0.06286484 0.02173113 -0.017076027
0000e0 f9 e9 8e 3d 38 cd df 3d 4e 73 f7 3c af ef e3 bb
       0.069782205 0.10927814 0.030206349 -0.0069560627
0000f0 69 14 ad 3c b9 54 19 be 9a db e3 bc 9d 11 5f bd
       0.021127896 -0.14973725 -0.027814675 -0.054460157
