results/13_less_points_around/epoch215/model_weights.pth (torch, 486655 bytes, 88 tensors)

init_layer.0.weight f4 [64, 5]
0	0xbe1e5d4b	-0.15465276
1	0x3e2874f2	0.16450861
2	0x3eab6683	0.33476648
3	0xbe82dc5e	-0.25558752
4	0xbe4d1713	-0.20028333
5	0x3ea5f551	0.32413724
6	0x3e87ac8a	0.26498824
7	0x3e9ca027	0.30590937
8	0xbd88fbc0	-0.066886425
9	0xbe72175b	-0.23641722
10	0xbe90712e	-0.2821135
11	0x3d874f0a	0.066068724
12	0xbe95d1bc	-0.29261577
13	0xbe8ee6da	-0.279105
14	0xbe3446c6	-0.17605123
15	0xbe042ed4	-0.12908489
16	0xbe32bc5d	-0.17454667
17	0x3e42a43f	0.19007967
18	0x3e9660fc	0.29370868
19	0xbdd24550	-0.102671266
20	0xbeb59926	-0.35468405
21	0xbe01852e	-0.1264846
22	0xbca87522	-0.020563666
23	0x3e21e3a0	0.15809488
24	0x3e5c808e	0.21533415
25	0x3e4d7f2f	0.20068048
26	0x3e252d09	0.16130461
27	0x3ea5f079	0.3241003
28	0x3e377b21	0.17918064
29	0xbe5945a1	-0.21217968
30	0x3ed841ac	0.42237604
31	0xbe7d2147	-0.24719726
32	0xbd6737c1	-0.056449655
33	0xbe07066d	-0.13186045
34	0xbe8fd61c	-0.2809304
35	0xbe11d9b5	-0.14243205
36	0x3e294d64	0.16533428
37	0x3e06db4c	0.13169593
38	0xbe23c9a8	-0.15994895
39	0x3e826ff8	0.2547605
40	0xbe1b2a51	-0.15152861
41	0xbdf3a316	-0.118963405
42	0x3e4d1e93	0.20031194
43	0x3e5dc3d8	0.2165674
44	0xbdfbb6c3	-0.122907184
45	0xbe2b4e09	-0.16728987
46	0xbe4bf010	-0.19915795
47	0xbdffa065	-0.12481765
48	0x3cf2dff8	0.029647812
49	0xbe85fd6f	-0.26169917
50	0xbd2fb8aa	-0.04290072
51	0x3d2eba16	0.042657934
52	0x3df551d3	0.11978497
53	0x3c6ba4e6	0.014382577
54	0x3d8e35bd	0.069438435
55	0xbe189ca8	-0.1490351
56	0xbe2e9f03	-0.17052846
57	0x3e60fa7f	0.21970557
58	0x3c9df841	0.019283416
59	0xbd104534	-0.035222247
60	0xbe5ecb2f	-0.21757196
61	0xbe90a80b	-0.28253207
62	0x3d24d08b	0.040237945
63	0x3dc266b5	0.09492246
64	0x3e81db85	0.25362793
65	0xbe05a9b9	-0.13053025
66	0xbe27d3c2	-0.16389373
67	0x3b883339	0.004156497
68	0x3d61968c	0.055075213
69	0x3e649ee3	0.22326235
70	0x3dcb381a	0.0992281
71	0xbe181c76	-0.14854607
72	0xbe02a6c5	-0.1275893
73	0xbc995849	-0.018718855
74	0xbe8fbfe9	-0.28076103
75	0xbd72beb8	-0.059263915
76	0x3e1a98ce	0.15097353
77	0x3e8e1ebb	0.2775782
78	0x3def4d4f	0.11684667
79	0xbe5fc8d2	-0.2185395
80	0xbe5a065f	-0.21291493
81	0x3d1e62ca	0.03866843
82	0xbd47197c	-0.04860829
83	0x3c169111	0.00918986
84	0x3d99cbd7	0.075095825
85	0x3e6a2ec1	0.22869398
86	0x3e2562a5	0.16150911
87	0xbdcb697e	-0.099322304
88	0x3e2a8890	0.16653657
89	0xbe1fd256	-0.1560758
90	0x3cf7272e	0.03017005
91	0xbc98a7cd	-0.018634701
92	0xbe7ac30b	-0.24488465
93	0x3e65929b	0.22419207
94	0x3e1ab577	0.15108286
95	0x3e336839	0.17520227
96	0xbe0c7c67	-0.1371933
97	0x3d936ea0	0.071988344
98	0x3e55b507	0.20869838
99	0x3d9eb0f9	0.077485986
100	0xbdf8ec4c	-0.12154445
101	0xbe96da91	-0.29463628
102	0x3cd72d59	0.02626674
103	0x3dbefef8	0.09325975
104	0xbe4f14ee	-0.20222828
105	0xbdeb6f18	-0.11495799
106	0x3e8a834c	0.27053297
107	0x3db4360c	0.08799371
108	0xbdeca766	-0.11555366
109	0xbe6abd5c	-0.22923797
110	0x3c939ad6	0.018018167
111	0x3e609f7b	0.21935837
112	0x3c669e25	0.0140757905
113	0xbe8a33d4	-0.26992667
114	0x3e0a83f8	0.13526905
115	0xbe0fda32	-0.14048079
116	0x3dfc2db1	0.123134024
117	0x3e097008	0.13421643
118	0x3dd42679	0.103589006
119	0xbe765064	-0.24054104
120	0x3e1a1fd8	0.1505121
121	0xbd98bdc1	-0.07458068
122	0x3d95641d	0.07294486
123	0x3df11a27	0.11772566
124	0x3e46c724	0.19411904
125	0x3e81772d	0.25286236
126	0x3e4c18df	0.19931363
127	0x3d83f841	0.06443835
128	0x3e528fa8	0.20562613
129	0x3d998633	0.074962996
130	0xbded8031	-0.11596716
131	0x3e8b22f0	0.27175093
132	0xbd27abf5	-0.040935475
133	0xbc9fbe0f	-0.019499807
134	0x3cf37b9b	0.029722026
135	0x3e3f6b93	0.1869338
136	0x3e1636c6	0.14669332
137	0xbe5d6e9e	-0.21624228
138	0x3df64145	0.12024168
139	0x3d1e0dca	0.03858737
140	0xbe06d48f	-0.13167022
141	0x3e31bee0	0.1735797
142	0xbe847a08	-0.25874352
143	0x3d922300	0.07135582
144	0x3e3572a9	0.1771952
145	0x3d0aae4d	0.033857632
146	0xbe586099	-0.21130599
147	0xbbbe822a	-0.0058138566
148	0xbd33cb5b	-0.043895107
149	0x3d9a8de6	0.07546596
150	0xbe872b78	-0.26400352
151	0xbe021da8	-0.12706625
152	0x3d6f310a	0.058396377
153	0x3e0c5692	0.13704899
154	0xbe829836	-0.25506753
155	0xbe70ab76	-0.23502907
156	0x3e9365ac	0.28788507
157	0x3dfd7c82	0.123772636
158	0xbe6dbe33	-0.23217086
159	0xbd02b80b	-0.0319138
160	0x3ea77edf	0.32713982
161	0xbd1e6f90	-0.038680613
162	0x3e96bfd5	0.2944323
163	0x3dd6188e	0.10453902
164	0x3b6c462b	0.0036052566
165	0xbc55cbf5	-0.013049115
166	0xbe86486f	-0.26227137
167	0xbdeff041	-0.11715747
168	0x3d2d89f0	0.042367876
169	0xbc9d8cc6	-0.019232165
170	0x3ddf04bd	0.10889576
171	0xbe35242d	-0.17689581
172	0xbd6b0073	-0.057373475
173	0x3d3946ab	0.04523341
174	0xbdc9618c	-0.09833059
175	0x3e4ba40f	0.19886802
176	0x3d9f9743	0.07792523
177	0x3dc4cd91	0.09609521
178	0xbe8dedc8	-0.27720475
179	0x3ded7b6a	0.11595805
180	0xbe69323f	-0.22773074
181	0x3d4b0830	0.049568355
182	0x3dc47f4a	0.09594591
183	0x3e5def15	0.21673234
184	0x3e78df47	0.24303924
185	0xbe06d5c8	-0.13167489
186	0xbe273d6a	-0.16332021
187	0xbdd1244a	-0.10212
188	0xbe378122	-0.17920354
189	0xbe4b65d1	-0.19863059
190	0xbe59a321	-0.21253635
191	0xbdcb6b39	-0.099325605
192	0xbe187d69	-0.1489159
193	0xbcf291fd	-0.029610628
194	0x3d7b7b9c	0.06139718
195	0xbe4c7935	-0.19968112
196	0x3e86c417	0.2632148
197	0x3c9ee0b0	0.019394249
198	0xbe1ef154	-0.15521747
199	0x3db41a80	0.08794117
200	0xbcc7cd86	-0.024389993
201	0xbe16dacf	-0.14731906
202	0x3e806914	0.25080168
203	0x3e41f67a	0.1894168
204	0x3d63b85d	0.055595744
205	0x3e3b484a	0.18289295
206	0x3dcb2b50	0.099203706
207	0xbe1c3b04	-0.15256888
208	0x3d9c3e4c	0.0762907
209	0x3e1d8096	0.15381083
210	0x3e59a5fb	0.21254723
211	0xbb6e8c48	-0.0036399532
212	0xbe1c9904	-0.15292746
213	0x3e73edd4	0.23821193
214	0xbe87fa24	-0.2655803
215	0xbde58031	-0.11206091
216	0x3d9dd2ae	0.077061996
217	0x3e4723d9	0.19447269
218	0x3e667650	0.2250607
219	0x3e16282f	0.14663766
220	0xbc261ecc	-0.0101391785
221	0xbc42e788	-0.011896022
222	0xbe6c6496	-0.23085245
223	0x3cd551ce	0.026039984
224	0xbe31c311	-0.17359568
225	0x3e74c13d	0.2390184
226	0xbe400c81	-0.1875477
227	0x3e86ddd4	0.26341116
228	0xbe86857f	-0.26273724
229	0xbe61b498	-0.22041547
230	0x3ea0cfd6	0.31408566
231	0xbe9c350d	-0.30509225
232	0xbe61aec5	-0.22039326
233	0x3e3eddd1	0.18639304
234	0x3df5097f	0.11964702
235	0xbe7e03d7	-0.24806152
236	0xbd5ea07e	-0.054352276
237	0x3d02737d	0.03184842
238	0x3dcf5b5a	0.10124846
239	0x3e7fd93a	0.24985209
240	0x3e233213	0.1593707
241	0x3d9040f4	0.07043639
242	0xbe2d501f	-0.16925095
243	0x3e2fb156	0.17157492
244	0xbe92546c	-0.28580034
245	0x3e119432	0.14216688
246	0x3cbe241a	0.023210574
247	0xbe925157	-0.28577682
248	0xbe8ef8c0	-0.27924156
249	0x3e48106a	0.19537511
250	0xbe12adb2	-0.14324072
251	0x3eab6ee0	0.33483028
252	0xbe11d16f	-0.14240049
253	0x3e7b349d	0.24531789
254	0xbdafbb99	-0.08580703
255	0xbeca2ce2	-0.39487368

init_layer.0.bias f4 [64]
0	0x3ca060fa	0.019577492
1	0x3dc9de64	0.09856871
2	0xbdbc5963	-0.09196737
3	0xbdb1ea76	-0.08687298
4	0xbdb2d6d7	-0.08732384
5	0xba58fb10	-0.00082771573
6	0x3aba7c1c	0.0014227661
7	0x3dc6c065	0.09704665
8	0xbdab1120	-0.08352876
9	0xbda77a97	-0.08177679
10	0x3d8834b3	0.066506766
11	0x3e514c7b	0.20439331
12	0x3dbdb51d	0.0926306
13	0xbda1743c	-0.07883498
14	0x3c606195	0.01369514
15	0xbdc048e7	-0.09388905
16	0xbdc3059d	-0.09522555
17	0x3c6b183e	0.0143490415
18	0xbe0b8cce	-0.13627931
19	0x3db48b16	0.08815591
20	0xbc020474	-0.007935632
21	0xbd8cdbff	-0.068778984
22	0x3de9b762	0.114119306
23	0x3d1a11f5	0.03761478
24	0x3d390382	0.04516936
25	0x3d86068b	0.06544217
26	0x3e26e4ef	0.16298269
27	0x3e113297	0.14179455
28	0xbcefb940	-0.029263139
29	0x3dd7bc43	0.10533955
30	0x3cc3a862	0.023884002
31	0xbbfa6dde	-0.0076424917
32	0x3e22373f	0.15841387
33	0xbe01ae22	-0.12664083
34	0xbe1ed70f	-0.15511726
35	0xbd204434	-0.039127544
36	0xbd1f19e8	-0.038843066
37	0x3be82bb0	0.007085286
38	0x3e04bad0	0.12961888
39	0x3dfcb1e0	0.123386145
40	0xbe117a12	-0.14206722
41	0x3d42c434	0.047550395
42	0x3e083dee	0.13304874
43	0xbdd53a01	-0.10411454
44	0x3d2c462e	0.042059116
45	0x3d9d03d2	0.07666744
46	0x39fa9843	0.0004779716
47	0x3e1c76c7	0.15279685
48	0x3da9300c	0.08261117
49	0x3e0f19e0	0.13974714
50	0xbde188d9	-0.1101243
51	0x3e0b5303	0.13605885
52	0x3dee9ddc	0.11651203
53	0x3e1790ab	0.1480128
54	0x3d936ab3	0.07198086
55	0xbc1ff311	-0.009762541
56	0xbda55fbd	-0.08074901
57	0x3d3221d4	0.043489292
58	0xbd7b34b2	-0.06132955
59	0xbdacc989	-0.08436877
60	0x3cc10674	0.023562647
61	0xbd89ae41	-0.067226894
62	0xbdeda60c	-0.116039366
63	0xbc6a1677	-0.014287583

hiden_layers.0.weight f4 [64, 64]
0	0x3decafaa	0.11556943
1	0x3df92036	0.12164347
2	0x3e4cc56d	0.19997187
3	0x3ddcc750	0.10780203
4	0xbe2b8ea2	-0.16753629
5	0xbd6df4d7	-0.058094826
6	0xbe5673c8	-0.20942605
7	0x3d02be7e	0.03191995
8	0x3dd136f3	0.10215559
9	0x3e138abe	0.14408395
10	0x3cbed2e2	0.023293916
11	0xbd1701a5	-0.036866803
12	0xbdd92713	-0.10603156
13	0x3e0edd03	0.13951497
14	0xbe23b0b8	-0.15985382
15	0xbc77bd28	-0.015120782
16	0x3dba5b52	0.09099449
17	0xbe43c9e2	-0.19119981
18	0xbdf4c236	-0.11951105
19	0x3dc0f9ea	0.09422667
20	0x3e439089	0.19098105
21	0xbe04088d	-0.12893887
22	0x3e5afd31	0.21385647
23	0xbe196575	-0.14980109
24	0xbdec4df2	-0.115383044
25	0xbd83a11a	-0.06427212
26	0xbc231003	-0.009952548
27	0xbe5d59fb	-0.21616356
28	0x3e4a3f3b	0.19750683
29	0xbe29dd6c	-0.16588372
30	0xbe32e4d2	-0.174701
31	0xbce2ba9f	-0.027676878
32	0xbe467a7c	-0.19382662
33	0xbcf10a09	-0.02942373
34	0x3d784a28	0.060617596
35	0x3d8cd2e2	0.0687616
36	0xbe0b7dbb	-0.13622181
37	0x3e4fe75d	0.20303102
38	0x3e08cdf7	0.1335982
39	0x3d44c2b8	0.04803726
40	0x3dae4570	0.08509338
41	0xbe4e8a20	-0.20169878
42	0x3d137fad	0.036010433
43	0xbd024744	-0.031806245
44	0x3d9c2eff	0.07626151
45	0xbe3e9815	-0.18612702
46	0xbdf1101e	-0.11770652
47	0x3c16b099	0.009197378
48	0x3e0d7bec	0.13816804
49	0x3e0b969e	0.13631675
50	0xbdfa3c97	-0.12218588
51	0x3dbf6e99	0.09347267
52	0x3df6cbac	0.12050566
53	0x3da12162	0.078676954
54	0xbe638df1	-0.22222115
55	0xbe0f9062	-0.14019921
56	0xbd3eeb12	-0.0466109
57	0xbd98fd37	-0.07470172
58	0xbe36ef56	-0.17864737
59	0xbc0d7ce9	-0.008635738
60	0xbe51bde9	-0.20482601
61	0xbd29948d	-0.041401435
62	0x3da85d5b	0.08220931
63	0x3e27fc5f	0.16404866
64	0xbd97da04	-0.0741463
65	0xbe58772e	-0.21139213
66	0xbdbb0fc9	-0.0913387
67	0x3dc57758	0.09641904
68	0x3dad84e1	0.0847261
69	0xbe354c4c	-0.17704886
70	0xbe190369	-0.14942707
71	0xbd464b30	-0.04841155
72	0xbde86f0a	-0.11349304
73	0xbd715d9d	-0.058927167
74	0x3d8a8af3	0.06764784
75	0xbe1fae23	-0.15593772
76	0xbe10a6fd	-0.14126201
77	0xbdb5f96c	-0.08885464
78	0x3c1a31cf	0.009411289
79	0xbe0f12b2	-0.13971975
80	0x3e1f2339	0.1554078
81	0x3d8e1e08	0.06939322
82	0x3def6684	0.11689475
83	0xbdd209d0	-0.10255778
84	0x3da15bcf	0.07878839
85	0xbd1c9130	-0.0382244
86	0xbe2491b5	-0.16071208
87	0xbe6d7d72	-0.23192385
88	0x3d8f5807	0.06999212
89	0xbe380902	-0.17972186
90	0xbe3da6f3	-0.18520717
91	0xbdc0477c	-0.093886346
92	0xbe35d0d5	-0.17755444
93	0x3e0881a0	0.13330698
94	0x3dacd6d3	0.08439412
95	0x3e1c76a9	0.1527964
96	0x3e482d9c	0.19548649
97	0x3dab57c9	0.08366353
98	0x3e43b832	0.19113234
99	0xbe4ba790	-0.19888139
100	0x3def7f9d	0.11694262
101	0x3e8a6117	0.270272
102	0x3e12d123	0.14337592
103	0xbe5c85b5	-0.2153538
104	0xbe2b82e7	-0.16749154
105	0xbe82b502	-0.25528723
106	0xbc013b8f	-0.007887735
107	0x3d3d812a	0.04626576
108	0xbdf62009	-0.12017829
109	0x3c3d91e9	0.011570432
110	0xbe68adc5	-0.22722538
111	0x3d90d881	0.07072545
112	0x3bfbca96	0.0076840622
113	0xbe31854a	-0.17336002
114	0x3dce1c5b	0.10064002
115	0xbe25e609	-0.16201033
116	0xbd5d7a57	-0.05407175
117	0xbe236086	-0.1595479
118	0xbdb9ef42	-0.09078838
119	0xbcd6a075	-0.026199559
120	0x3df639fa	0.12022777
121	0xbda45293	-0.08023562
122	0x3e8fa23c	0.28053463
123	0x3d6be6bd	0.057593096
124	0xbda2225b	-0.07916709
125	0xbe33d14e	-0.17560312
126	0x3e55f173	0.20892887
127	0xbe494418	-0.19654882
128	0x3cc3728c	0.023858331
129	0xbd448c4b	-0.047985356
130	0xbe258610	-0.16164422
131	0xbe320712	-0.1738551
132	0x3ddb8618	0.10718936
133	0x3daaf5cb	0.083476625
134	0xbe056523	-0.13026862
135	0xbe37f0eb	-0.17962997
136	0x3e19d0ae	0.15021011
137	0x3e1bdc72	0.15220812
138	0xbdc59f96	-0.09649579
139	0x3df9ae64	0.121914655
140	0xbd1c7075	-0.038193185
141	0x3dbc85a4	0.092051774
142	0x3dbe1ef2	0.09283246
143	0x3d916e72	0.07101144
144	0xbcd614de	-0.026132997
145	0x3e251465	0.16121061
146	0xbcfbdfb9	-0.030746328
147	0x3cdc6e16	0.026907962
148	0x3db25527	0.08707648
149	0xbe3c8197	-0.1840881
150	0xbd8283f6	-0.06372826
151	0xbdd75816	-0.10514848
152	0x3ddc8219	0.10767002
153	0x3d5b4d2e	0.0535404
154	0x3e0425fb	0.12905113
155	0x3d9bef28	0.07613975
156	0x3c734e44	0.014850203
157	0x3e23f724	0.16012245
158	0xbe172336	-0.14759526
159	0xbe422724	-0.18960243
160	0x3e1ebe37	0.15502249
161	0x3cf1c330	0.029512018
162	0x3ccacce9	0.024755912
163	0x3d037eb6	0.032103263
164	0xbe6170bf	-0.22015665
165	0x3d962c51	0.073326714
166	0xbd51318e	-0.05107265
167	0x3e1807ea	0.14846769
168	0xbe0313ce	-0.12800524
169	0x3e0fec28	0.1405493
170	0x3d5667c7	0.052345064
171	0x3ddfc983	0.10927107
172	0x3e1f2170	0.15540099
173	0xbdc7d4f3	-0.09757414
174	0xbd357c07	-0.044307735
175	0x3d850082	0.064942375
176	0x3e42bd1b	0.1901745
177	0x3da2528e	0.07925902
178	0x3e14c893	0.14529638
179	0xbe4dad97	-0.2008575
180	0xbdd4c8f6	-0.10389893
181	0x3e2a569c	0.16634601
182	0x3c83d805	0.016094217
183	0xbe11d068	-0.14239657
184	0x3c16ca91	0.009203569
185	0x3d8df387	0.06931215
186	0xbdc81888	-0.09770304
187	0xbd0947d8	-0.03351578
188	0x3e04455a	0.1291708
189	0x3d7bd8b9	0.06148598
190	0x3d3e9641	0.046530012
191	0xbe70bfeb	-0.23510711
192	0xbe5fe843	-0.21865945
193	0x3dbede0e	0.09319697
194	0x3dc1782d	0.0944675
195	0xbe3a8707	-0.18215571
196	0xbe587c7c	-0.21141237
197	0xbe133026	-0.14373836
198	0x3e5505d1	0.20803
199	0x3e27b677	0.16378199
200	0xbe5f5bba	-0.21812335
201	0x3d334b4c	0.04377298
202	0x3e2f56f9	0.17123021
203	0x3cfd1c82	0.030897383
204	0x3e2e517a	0.17023268
205	0xbe3d9ba7	-0.18516408
206	0x3e157ba9	0.14597954
207	0xbe0aeacd	-0.13566132
208	0xbd3f43e4	-0.046695605
209	0x3de91a4a	0.11381967
210	0x3dce062b	0.1005977
211	0x3e2c8781	0.16848566
212	0xbdafb2b5	-0.085790075
213	0xbc83dbb3	-0.016095972
214	0x3dbbcab4	0.09169522
215	0xbe63fe27	-0.2226492
216	0x3d8138be	0.06309651
217	0xbd79838d	-0.060916472
218	0x3e11721c	0.14203686
219	0x3daefa48	0.08543831
220	0x3d7a08a1	0.061043385
221	0x3d3a6df7	0.045515027
222	0x3d2a059a	0.04150925
223	0x3db860c0	0.090028286
224	0x3c0d2c88	0.008616574
225	0x3c4508f3	0.012026059
226	0x3e0d87da	0.13821355
227	0xbb2149ce	-0.0024610641
228	0xbc187499	-0.009305143
229	0x3db0d86f	0.086350314
230	0x3e6ec456	0.23317084
231	0x3de72491	0.11286271
232	0xbe2b8a46	-0.16751966
233	0xbc25de2b	-0.01012377
234	0x3d8e103a	0.06936689
235	0xbe0e69c7	-0.13907538
236	0x3e91f2e1	0.28505614
237	0x3e296d9e	0.16545722
238	0x3e1675ee	0.14693424
239	0xbbeaa8d2	-0.007161238
240	0xbd97dbae	-0.074149475
241	0xbd98dc46	-0.07463889
242	0xbe5b0dcf	-0.21391986
243	0x3e1bdf21	0.15221836
244	0x3d83484c	0.06410274
245	0xbcea155c	-0.028574638
246	0x3d8deda3	0.06930091
247	0x3dbf2e0f	0.09334957
248	0x3d8a8217	0.06763094
249	0xbd8ebf6e	-0.06970106
250	0x3e706b64	0.23478466
251	0x3e191ab8	0.14951599
252	0xbe07d2eb	-0.13264053
253	0xbdb8c478	-0.090218484
254	0x3e1ddf2d	0.15417166
255	0xbdf74d86	-0.12075333

hiden_layers.0.bias f4 [64]
0	0xbd461852	-0.048363037
1	0xbd612017	-0.054962244
2	0x3c987bcb	0.018613717
3	0x3d9ba6bd	0.07600162
4	0x3d9f6f92	0.07784952
5	0x3c8eabdd	0.017415935
6	0x3dcef663	0.10105588
7	0x3db1ed9f	0.08687901
8	0x3d2e1de9	0.042508993
9	0xbbb540a2	-0.0055313865
10	0xbdc9bc43	-0.09850361
11	0xbd0cfbab	-0.034419697
12	0xbdc60f85	-0.09670929
13	0x3d0016d1	0.03127176
14	0xbd19702f	-0.037460502
15	0x3db827c6	0.08991961
16	0x3c49a0c5	0.012306397
17	0x3cee0807	0.029056562
18	0xbbf358d2	-0.0074263597
19	0x3d97517f	0.07388591
20	0xbd9709ba	-0.07374902
21	0x3c03cd57	0.008044562
22	0xbe0ca597	-0.13735043
23	0x3dd8ccdb	0.10585948
24	0x3cc3ec69	0.02391644
25	0x3e00096f	0.12503599
26	0xbdb13ad9	-0.086538024
27	0xbd858cc4	-0.065209895
28	0xbd2745d2	-0.04083807
29	0x3c82f366	0.015985202
30	0xbdaa0235	-0.08301202
31	0xbd33d864	-0.043907538
32	0xbe28f4ee	-0.16499683
33	0xbcd9fb2b	-0.026609024
34	0x3df2e1f7	0.118595056
35	0xbd85b3da	-0.065284446
36	0x3d1f2486	0.03885319
37	0x3d375509	0.04475883
38	0xbccf1ca9	-0.02528222
39	0xbd47f77b	-0.04882
40	0x3d87dec6	0.066342875
41	0x3dbc7985	0.092028655
42	0xbda5eda0	-0.08101964
43	0x3d8cd956	0.06877391
44	0xbd3d23f5	-0.04617687
45	0xbdd3c00d	-0.10339365
46	0x3c4b4d83	0.012408617
47	0x3a2cb948	0.00065888884
48	0xbcbfcfe5	-0.023414562
49	0xbd1abbc1	-0.037776712
50	0xbdabd45a	-0.08390112
51	0x3cfa8020	0.030578673
52	0x3cde6985	0.027149925
53	0xbb8e8bd7	-0.0043501663
54	0xbe0a47fc	-0.13504022
55	0xbd137e62	-0.0360092
56	0x3d9c260d	0.07624445
57	0x3dbdcbd7	0.09267395
58	0xbd829485	-0.06375984
59	0xbda7555f	-0.0817058
60	0xbd582221	-0.052766923
61	0xbd4860c0	-0.048920393
62	0x3d307548	0.043080598
63	0xbdec3ea6	-0.11535387

hiden_layers.1.weight f4 [64, 64]
0	0xbdf1f8ce	-0.11815034
1	0xbcd4562e	-0.02592
2	0xbdefef4a	-0.11715563
3	0x3c81d5e0	0.015849054
4	0x3e26e153	0.16296892
5	0xbe2ca046	-0.16858014
6	0xbeb67674	-0.35637248
7	0x3cb57250	0.022149235
8	0xbe1c3474	-0.15254384
9	0xbe3386a4	-0.1753183
10	0x3df52bbe	0.11971234
11	0x3d1c1733	0.038108062
12	0xbdc407d0	-0.095718026
13	0x3d4d58b0	0.050133407
14	0xbdf58fcd	-0.119903184
15	0xbe83b859	-0.25726584
16	0x3e9feca7	0.3123524
17	0x3dcc4693	0.099743985
18	0xbe32c251	-0.17456938
19	0xbd22f354	-0.039782837
20	0x3dd17468	0.10227281
21	0x3e1f02da	0.15528432
22	0xbde738cb	-0.11290129
23	0xbe0f4472	-0.13990954
24	0xbe84f008	-0.2596438
25	0x3e06d3f1	0.13166787
26	0xbc4e4c27	-0.012591398
27	0x3e4d93b9	0.20075883
28	0xbe369f60	-0.17834234
29	0x3df5050b	0.119638525
30	0x3e1d1cc7	0.15343009
31	0x3dc4c864	0.09608534
32	0xbd9bcf9c	-0.07607958
33	0x3e8475c4	0.25871098
34	0x3dba67e8	0.0910185
35	0x3db394c3	0.087686084
36	0xbde48704	-0.11158565
37	0x3dfdbba6	0.12389307
38	0xbea04a2d	-0.31306592
39	0x3e16d01d	0.14727826
40	0x3e68bbc3	0.22727875
41	0x3e314be8	0.17314112
42	0x3df68b55	0.12038294
43	0xbe360e32	-0.17778853
44	0x3e8e1be3	0.2775565
45	0x3e250835	0.16116412
46	0x3e2ebd14	0.17064315
47	0x3e6d014b	0.23145024
48	0x3e6619d1	0.22470786
49	0xbe840910	-0.25788164
50	0xbe860a14	-0.26179564
51	0xbe3e866b	-0.18605964
52	0x3e512647	0.20424758
53	0x3e653195	0.22382195
54	0x3e3e624e	0.18592188
55	0xbe1a6901	-0.15079118
56	0x3e1ceda2	0.15325025
57	0xbdc638a7	-0.09678774
58	0xbe8b13fe	-0.2716369
59	0x3c8e67c5	0.017383466
60	0x3d0db291	0.034594122
61	0x3e554917	0.20828663
62	0xbc667c82	-0.014067771
63	0x3e3e648c	0.18593043
64	0x3d93720f	0.07199489
65	0x3d97ecfd	0.07418249
66	0x3e1a2b25	0.15055521
67	0x3e3da965	0.1852165
68	0xbde3b9c1	-0.11119414
69	0x3e3bfb8b	0.18357675
70	0xbe7440bc	-0.23852819
71	0xbe184ed3	-0.14873819
72	0xbe136fd2	-0.14398125
73	0x3e1f810d	0.15576573
74	0x3ba4287c	0.005009709
75	0x3defd7a1	0.1171105
76	0x3dd297ce	0.10282861
77	0xbe745d41	-0.23863699
78	0x3d81e5b1	0.06342638
79	0x3d90bc13	0.07067122
80	0xbe58cda1	-0.21172191
81	0xbd690362	-0.05688799
82	0x3dd4b8f3	0.10386839
83	0xbe0465b5	-0.12929423
84	0x3e091d44	0.1339007
85	0x3e566e05	0.20940407
86	0xbe38c2e6	-0.18043098
87	0xbe4a963a	-0.1978387
88	0x3e40e38f	0.18836807
89	0xbdfd2562	-0.12360646
90	0x3dd481e3	0.103763364
91	0x3dd86145	0.10565428
92	0x3bd2ec7f	0.006436884
93	0xbe415eee	-0.18883869
94	0x3e4e6a6a	0.20157781
95	0x3e61e7eb	0.22061126
96	0x3d4f8fd1	0.050674263
97	0xbe17ed5e	-0.14836642
98	0xbde9290c	-0.11384782
99	0x3e519db2	0.20470312
100	0x3d8597ee	0.06523119
101	0x3e5be21a	0.2147297
102	0xbe2ce185	-0.16882904
103	0x3d35478e	0.044257693
104	0x3db3ef9f	0.087859385
105	0x3d6e3247	0.058153417
106	0xbd5c2132	-0.053742595
107	0xbe22593b	-0.15854351
108	0x3df9005e	0.12158273
109	0x3cbd972e	0.023143377
110	0x3d32557a	0.043538548
111	0x3dcd9cbe	0.10039662
112	0x3c9ca3a8	0.019121006
113	0x3dba091f	0.09083771
114	0x3dc108b3	0.09425487
115	0x3d4837c7	0.04888132
116	0x3e73ff7a	0.23827925
117	0x3cd69d76	0.02619813
118	0x3b6d6596	0.003622388
119	0x3e304782	0.17214778
120	0xbe0ad603	-0.13558201
121	0xbe174b6b	-0.14774863
122	0xbe203176	-0.15643868
123	0x3e062950	0.13101697
124	0xbe1ca2c7	-0.1529647
125	0xbd19373f	-0.037406202
126	0xbdf115f7	-0.117717676
127	0xbe40bcd4	-0.18822032
128	0xbe2ae902	-0.16690448
129	0xbd48006c	-0.048828527
130	0x3dcc9f56	0.099913284
131	0xbdc1e536	-0.09467547
132	0xbdc2adfe	-0.095058426
133	0xbdefefbe	-0.11715649
134	0xbe77c232	-0.24195173
135	0xbe561be3	-0.20909075
136	0xbe7296df	-0.23690365
137	0xbc1e198b	-0.009649645
138	0x3e0a9276	0.13532433
139	0x3dc68bb5	0.09694616
140	0x3d91ac6f	0.07112967
141	0x3e00940f	0.1255648
142	0xbd89439a	-0.06702347
143	0xbe660aa1	-0.22464992
144	0xbdf52e7d	-0.119717576
145	0x3e0d245f	0.13783406
146	0xbd5e3cc7	-0.05425718
147	0xbda334b0	-0.07969034
148	0xbd0fea17	-0.035135355
149	0x3d1926ba	0.03739045
150	0xbdce9b0f	-0.10088169
151	0xbe06f638	-0.13179862
152	0x3e3879e8	0.18015254
153	0xbe30c19c	-0.17261356
154	0xbe70a887	-0.23501788
155	0xbe13e236	-0.14441761
156	0xbe3740d8	-0.1789583
157	0xbdd951cf	-0.10611307
158	0x3da4fc5d	0.08055947
159	0xbdfc7ff4	-0.123290926
160	0x3d248201	0.040163044
161	0x3e76da61	0.24106742
162	0x3e0b72b0	0.13617969
163	0x3dac0faa	0.08401425
164	0xbd39745e	-0.045276992
165	0x3ca56648	0.020190373
166	0xbe6ed729	-0.23324265
167	0xbd9b0b6c	-0.07570538
168	0xbe2dfdaa	-0.16991296
169	0xbe3d82e6	-0.18506965
170	0x3e6af05d	0.22943254
171	0xbbda29c8	-0.0066578127
172	0xbdea4bcd	-0.11440239
173	0xbdd1709e	-0.10226558
174	0x3e645bda	0.22300664
175	0x3de6a672	0.11262216
176	0x3cd12e17	0.025534673
177	0x3e4b8fd6	0.19879088
178	0x3c8e0073	0.017334199
179	0x3e3859bc	0.18002981
180	0xbe02fddd	-0.12792154
181	0x3d817f1c	0.06323072
182	0xbda05ae6	-0.078298375
183	0x3deafed8	0.11474389
184	0x3ddf42a7	0.10901385
185	0x3d96fe4e	0.073727235
186	0x3ca89d3a	0.020582784
187	0x3c82877c	0.015933745
188	0xbdf0dec6	-0.11761241
189	0x3e067ed4	0.13134319
190	0xbe1b6c03	-0.15177922
191	0x3e22eaf2	0.15909937
192	0x3e60bdd7	0.21947418
193	0x3e3838ac	0.17990369
194	0xbd9d8621	-0.07691599
195	0xbe08c36f	-0.13355802
196	0xbe0537fc	-0.13009638
197	0x3da3b689	0.079938
198	0x3e8d77e0	0.2763052
199	0xbe2eae7f	-0.17058752
200	0x3e512e48	0.20427811
201	0x3e5023b9	0.20326127
202	0x3da02b13	0.07820716
203	0x3c377366	0.011196947
204	0x3e534b37	0.20634161
205	0x3dfef583	0.124491714
206	0x3db122d6	0.086492226
207	0x3bf6f7ee	0.0075368797
208	0xbdf6331b	-0.12021466
209	0xbda88ba4	-0.08229759
210	0x3e5d0ae3	0.21586184
211	0x3da54189	0.080691405
212	0xbe17eff5	-0.1483763
213	0x3e449204	0.19196326
214	0xbd85b5b9	-0.065288015
215	0xbd90c560	-0.07068896
216	0xbc250ac0	-0.010073364
217	0xbdae0fd1	-0.084991105
218	0x3cf67dfe	0.030089375
219	0x3db3156e	0.08744322
220	0x3e2fd4b2	0.1717098
221	0x3e1c22fc	0.1524772
222	0x3de410f0	0.11136043
223	0x3e3da71c	0.18520778
224	0x3db461ca	0.08807714
225	0x3d8bb584	0.06821731
226	0xbe51c633	-0.20485763
227	0x3e7b5dd6	0.24547514
228	0xbdee911a	-0.1164877
229	0xbe05493b	-0.13016216
230	0xbd722e1f	-0.059126016
231	0xbd1a9080	-0.037735462
232	0x3dec3e62	0.11535336
233	0xbe65f609	-0.22457136
234	0x3cb1c5e1	0.021700801
235	0xbe860a5c	-0.2617978
236	0xbe1afe5b	-0.15136091
237	0xbde29da9	-0.110652275
238	0x3cbc5763	0.022990888
239	0xbe3cb65e	-0.18428943
240	0xbdeea213	-0.11652007
241	0x3d212681	0.03934336
242	0x3ccc38b0	0.024929374
243	0x3e32a7ad	0.17446776
244	0x3d8174ba	0.06321092
245	0xbe4c7a0f	-0.19968437
246	0xbdd0da07	-0.101978354
247	0x3dde4d68	0.10854608
248	0xbe60aff3	-0.2194212
249	0xbe221a87	-0.15830432
250	0x3e066076	0.13122734
251	0x3e6036a3	0.21895842
252	0xbe26f689	-0.16304983
253	0xbde6e5e8	-0.1127432
254	0x3e4db984	0.200903
255	0x3dcda0f2	0.100404635

hiden_layers.1.bias f4 [64]
0	0xbcddfef7	-0.027099116
1	0xbd036427	-0.032077935
2	0x3d7e6f03	0.062117588
3	0xbd2deb5e	-0.04246079
4	0xbda523d9	-0.08063478
5	0xbda57a21	-0.08079935
6	0xbd9ec6b5	-0.07752744
7	0xbd99d71d	-0.07511733
8	0x3d7372f9	0.05943582
9	0xbc14a4ab	-0.009072463
10	0x3d5acf30	0.053420246
11	0xbd60553e	-0.054768793
12	0x3d34f83e	0.044182055
13	0x3d128dae	0.035779648
14	0x3c0357e7	0.008016563
15	0xbd93cf10	-0.072172284
16	0x3c1ac560	0.009446472
17	0x3e287635	0.16451342
18	0xbd1973ba	-0.03746388
19	0xbca4337c	-0.02004408
20	0xbdc08001	-0.09399415
21	0xbc819692	-0.015818868
22	0x3c82f732	0.015987013
23	0x3b91e2ab	0.0044520698
24	0xbd852fcd	-0.06503258
25	0xbd65ccb0	-0.05610341
26	0xbbbf8da7	-0.0058457437
27	0x3b1cfe23	0.0023955188
28	0xbd08f9b2	-0.033441253
29	0x3c95991f	0.01826149
30	0x3d435ad0	0.047694027
31	0xbc643ef9	-0.0139310295
32	0xbb2af2e0	-0.0026084706
33	0x3cb7011b	0.022339394
34	0x3cacdc57	0.02110116
35	0x3bc6fafd	0.0060724006
36	0x3c8891b2	0.016671035
37	0xbbeab2e7	-0.00716244
38	0xbc0cd88b	-0.00859655
39	0xbb9d3ac8	-0.004798267
40	0x3cd1cdf2	0.025610898
41	0x3d916aa3	0.071004175
42	0xbd13abb4	-0.03605242
43	0x3ceb86a4	0.028750725
44	0x3cad4d69	0.021155076
45	0xbc84918d	-0.016182685
46	0xbbda7ab5	-0.00666746
47	0xbd6965f2	-0.05698199
48	0x3d787203	0.060655605
49	0xbd0cbdd9	-0.03436074
50	0x3db5c785	0.08875946
51	0xbd4167a0	-0.047217965
52	0xbd278d08	-0.040905982
53	0x3c9afcfe	0.018919464
54	0x3d87c4a3	0.06629302
55	0xbcca21b7	-0.02467428
56	0x3caa0932	0.020756338
57	0xbd0a4c22	-0.033764012
58	0x3d0845cc	0.03326969
59	0x3d6a31e6	0.057176493
60	0x3cf38678	0.029727206
61	0xbd0e4d9d	-0.034741987
62	0x3c99e929	0.018787937
63	0x3cd4983f	0.025951503

hiden_layers.2.weight f4 [64, 64]
0	0xbdff7084	-0.124726325
1	0xbe439b2d	-0.19102164
2	0xbe046f7f	-0.12933157
3	0xbe60fc51	-0.21971251
4	0xbe00684c	-0.12539786
5	0x3c650935	0.013979246
6	0xbda9afc8	-0.08285481
7	0xbddbb511	-0.10727895
8	0x3e3acf2e	0.18243095
9	0x3d8164e2	0.0631807
10	0xbc4dcc2f	-0.012560888
11	0xbe203e57	-0.15648781
12	0x3da41bd3	0.080131195
13	0xbe48ffa8	-0.19628775
14	0x3dfca25d	0.12335656
15	0x3e192080	0.14953804
16	0xbe8129c4	-0.25227177
17	0xbe5aca88	-0.21366322
18	0x3db995cd	0.09061775
19	0xbdf95872	-0.12175073
20	0x3d62e308	0.055392295
21	0xbe63eb2c	-0.2225768
22	0xbdd3ffad	-0.10351501
23	0x3e4d8941	0.2007189
24	0xbdee7455	-0.11643282
25	0x3d817dbb	0.06322809
26	0x3dc87b7a	0.09789176
27	0x3bdf4844	0.0068140347
28	0xbdd2baf0	-0.10289562
29	0xbd07d3f1	-0.033161107
30	0x3e5bb951	0.21457411
31	0xbe0b1bfd	-0.13584895
32	0xbdcf79b9	-0.10130639
33	0xbaf4e147	-0.001868286
34	0xbe6b4f4f	-0.22979473
35	0x3dda8b02	0.10671045
36	0x3d984d66	0.074366376
37	0xbe0ca72b	-0.13735645
38	0xbe1ae45b	-0.15126173
39	0x3e3dbab7	0.18528257
40	0xbe0a3a03	-0.13498692
41	0x3dcab5c3	0.098979495
42	0xbe49b3d3	-0.19697504
43	0xbe5313e3	-0.20613055
44	0xbdb468b6	-0.088090345
45	0xbdeee5e5	-0.11664943
46	0xbdab85f0	-0.08375156
47	0xbd9c5d48	-0.076349795
48	0x3d2335e1	0.039846305
49	0x3e495659	0.19661845
50	0xbb8cebd5	-0.0043005743
51	0xbe2db9cb	-0.16965406
52	0x3e2264c3	0.1585875
53	0x3da92e86	0.08260827
54	0xbca41325	-0.02002866
55	0x3e74a0c3	0.2388945
56	0xbe0a5317	-0.13508259
57	0xbe4fbc01	-0.20286562
58	0xbd7795ba	-0.060445525
59	0x3e6538a8	0.22384894
60	0xbcab8efd	-0.020942206
61	0x3da77839	0.081772275
62	0xbe755607	-0.23958598
63	0x3dcf4d71	0.10122193
64	0x3de6d8a8	0.11271793
65	0xbc153109	-0.009105929
66	0x3d8c47c0	0.06849623
67	0xbddadbf1	-0.10686482
68	0x3c98bd21	0.018644871
69	0xbc7185be	-0.014741359
70	0x3e106685	0.14101608
71	0xbd9eca66	-0.07753448
72	0x3e018986	0.12650117
73	0x3da002d9	0.07813043
74	0xbde72885	-0.11287025
75	0xbdd9b945	-0.106310405
76	0xbd22b22c	-0.0397207
77	0x3e46bd01	0.19408037
78	0xbcfe18c2	-0.031017665
79	0xbdc40538	-0.09571308
80	0x3dc30dae	0.095240936
81	0x3cfa39a1	0.030545058
82	0xbdf6f096	-0.12057607
83	0xbce44948	-0.027866974
84	0x3dea4faa	0.11440976
85	0xbe3fefea	-0.18743864
86	0x3da5885e	0.080826506
87	0x3d4cd145	0.050004262
88	0xbc44f001	-0.012020112
89	0x3dc866aa	0.097852066
90	0xbe0524d5	-0.13002332
91	0xbe345702	-0.17611316
92	0x3dbd3e63	0.09240415
93	0x3d8955a6	0.06705789
94	0x3cc80ce6	0.024420213
95	0x3be037ce	0.00684259
96	0xbe0305ad	-0.12795134
97	0x3d178a42	0.036997087
98	0x3d9f68a3	0.0778363
99	0x3e2d73df	0.16938733
100	0xbdf86d69	-0.12130243
101	0xbca332ee	-0.019921746
102	0x3e64e9c8	0.22354805
103	0x3dc7cca0	0.09755826
104	0x3d9af8fe	0.07567023
105	0xbda037a5	-0.07823113
106	0xbdfbc7a9	-0.122939415
107	0xbe4439e3	-0.19162707
108	0x3d1aad05	0.03776266
109	0xbe2def11	-0.16985728
110	0x3d897c70	0.06713188
111	0x3ddd84e5	0.10816363
112	0xbe83e6fa	-0.2576216
113	0xbdd4ccb4	-0.103906065
114	0xbc89f6fa	-0.0168414
115	0x3e4d2064	0.20031887
116	0xbe0dcb08	-0.13846982
117	0x3db6986e	0.089157924
118	0xbd3a7017	-0.045517053
119	0xbe068526	-0.1313673
120	0xbdc321bd	-0.095279194
121	0x3d0013cf	0.03126889
122	0x3cfcee6f	0.030875413
123	0x3dc3e4b7	0.09565108
124	0xbe2b6967	-0.16739427
125	0xbe064f8f	-0.13116287
126	0x3e373833	0.17892532
127	0x3e255ded	0.16149111
128	0xbe65d0d6	-0.22442946
129	0xbc9d40a5	-0.019195864
130	0x3db319f8	0.087451875
131	0x3e3ed6f6	0.18636689
132	0x3e0d4bbb	0.1379842
133	0x3ddf01c9	0.10889012
134	0xbe12056d	-0.14259882
135	0x3d4eb880	0.05046892
136	0xbbafff1b	-0.005370987
137	0xbdb7358d	-0.08945761
138	0x3b811453	0.0039391904
139	0xbdbd4a37	-0.09242671
140	0x3d87d1fd	0.06631849
141	0xbe8419f0	-0.2580104
142	0x3e6e0317	0.23243366
143	0xbd7c65ef	-0.06162065
144	0x3e2f62e2	0.17127565
145	0x3e2a6921	0.16641666
146	0xbe6468bb	-0.22305577
147	0xbda12673	-0.07868662
148	0xbd7c3157	-0.06157049
149	0xbd9a180e	-0.07524119
150	0x3e24866f	0.16066907
151	0xbd1730db	-0.036911827
152	0xbe3587e7	-0.17727624
153	0x3d8ba157	0.068178825
154	0xbe4115b1	-0.18855931
155	0x3d05931e	0.032611005
156	0xbe099d81	-0.13438989
157	0x3e22d932	0.15903166
158	0xbe02db96	-0.12779078
159	0xbe76ee3c	-0.24114317
160	0x3d249a13	0.040186
161	0x3e615785	0.22006042
162	0xbde6754e	-0.11252843
163	0x3df17446	0.117897555
164	0x3c583243	0.013195577
165	0xbd6b56d3	-0.05745585
166	0x3d61f886	0.05516865
167	0x3e3089fc	0.17240137
168	0x3e6c0c4b	0.23051564
169	0x3da0e8e2	0.07856919
170	0xbe00cf18	-0.12579
171	0x3e372964	0.17886883
172	0x3df7e5ce	0.12104379
173	0xbd735e0f	-0.059415873
174	0x3c0de159	0.008659684
175	0x39e41d84	0.0004350954
176	0x3e599c3c	0.21251005
177	0xbe761236	-0.24030384
178	0x3e29accd	0.16569825
179	0x3c2f2fe6	0.010692572
180	0xbe64dfd6	-0.22351012
181	0xbe01c8ad	-0.12674208
182	0x3d2169af	0.03940743
183	0xbdcef0fa	-0.101045564
184	0x3e8302fd	0.25588217
185	0x3dbde326	0.09271841
186	0x3e7637b8	0.24044693
187	0x3e43cbe5	0.19120748
188	0x3d65aacb	0.056071084
189	0xbe8a677d	-0.2703208
190	0xbc8f224a	-0.017472405
191	0x3d38540f	0.04500204
192	0x3e4b2824	0.19839531
193	0x3e7da813	0.24771146
194	0x3daf5720	0.0856154
195	0xbe14b7c7	-0.1452323
196	0x3d204b10	0.039134085
197	0xbe53c79d	-0.20681615
198	0x3d20ab0c	0.039225623
199	0xbd767104	-0.060166374
200	0x3d2e05aa	0.04248587
201	0xbdf4db89	-0.119559355
202	0xbe4ec682	-0.20192912
203	0x3e17e707	0.14834224
204	0x3e4d6386	0.20057496
205	0xbd85b6a5	-0.06528977
206	0xbde38e24	-0.111110955
207	0xbdab74b9	-0.083718725
208	0x3e7674d7	0.24068008
209	0x3e91692c	0.28400552
210	0x3da76cb5	0.08175031
211	0x3c3c9e43	0.011512342
212	0xbdc3dacf	-0.09563219
213	0xbe1be195	-0.15222771
214	0x3de3549c	0.11100122
215	0x3df9f810	0.12205517
216	0xbdf94b5e	-0.12172578
217	0xbe033cdb	-0.12816183
218	0xbe43d9ba	-0.19126025
219	0xbdbdd150	-0.09268439
220	0xbdf16996	-0.11787717
221	0x3e8bc0bd	0.27295485
222	0x3ca704ca	0.020388026
223	0xbd718c14	-0.05897148
224	0x3d3a0b43	0.045420896
225	0x3dcd4864	0.10023573
226	0xbe4fa11f	-0.20276307
227	0xbdad4caf	-0.08461892
228	0x3e05d184	0.13068205
229	0xbe11ee8e	-0.14251158
230	0xbe4e0cfe	-0.20122144
231	0x3e09eb85	0.1346875
232	0xbdd37f9c	-0.10327074
233	0xbdb0f18e	-0.08639823
234	0x3e4a52b4	0.19758111
235	0x3d71b7ff	0.059013363
236	0x3e5d0693	0.21584539
237	0x3d8e88eb	0.06959709
238	0xbe46b71c	-0.19405788
239	0xbe1e02c4	-0.15430743
240	0x3dbde18a	0.09271534
241	0xbe3cdc2c	-0.18443364
242	0x3e15dea6	0.14635715
243	0x3cecaf7a	0.028892267
244	0x3e044b16	0.12919268
245	0x3e46cdcd	0.19414444
246	0x3dcb6c4d	0.09932766
247	0xbe412a9b	-0.18863909
248	0x3c3edddd	0.011649576
249	0xbe1731e8	-0.14765131
250	0xbe440e71	-0.19146134
251	0x3e96ff18	0.29491496
252	0xbdd0609a	-0.10174675
253	0xbca77bc9	-0.020444768
254	0xbe179d25	-0.1480604
255	0xbcba21b7	-0.022721155

hiden_layers.2.bias f4 [64]
0	0x3cd584bc	0.02606427
1	0xbc8cf48e	-0.017206457
2	0x3c9cdbb9	0.01914774
3	0x3dd6b693	0.10484042
4	0x3c9534ab	0.01821359
5	0x3d8fe48d	0.070260145
6	0x3d41226c	0.047151968
7	0xbdbb2afe	-0.091390595
8	0xbd74cd0f	-0.05976587
9	0x3c86fd2e	0.016478147
10	0x3d02f6e2	0.031973727
11	0x3cdeef3f	0.02721369
12	0x3d8c502c	0.06851229
13	0x3ca49388	0.02008988
14	0xbc7675f1	-0.015042768
15	0xbd7aad44	-0.061200395
16	0xbc2be57e	-0.010491727
17	0x3cd7830d	0.026307607
18	0xbd13d793	-0.03609426
19	0x3caf6fc9	0.021415608
20	0xbd889da8	-0.066706955
21	0xbcdf57cf	-0.02726355
22	0x3db0f181	0.08639813
23	0xbcef7374	-0.029229857
24	0xbcc90c50	-0.024542004
25	0xb9ee269a	-0.00045423658
26	0x3b19c89d	0.0023465522
27	0x3d2bc017	0.041931238
28	0xbd183b1d	-0.03716575
29	0xbd8800b9	-0.06640763
30	0xbcd8adbf	-0.026450036
31	0xbce469ba	-0.027882446
32	0x3c72a85f	0.014810651
33	0x3d712e13	0.05888183
34	0x3ca1c2cf	0.019746212
35	0xbd930f88	-0.07180697
36	0x3bb6ba0f	0.005576379
37	0x3d2dc89e	0.04242765
38	0x3d5f2d14	0.05448635
39	0x3c0589ff	0.008150577
40	0x3d20d88e	0.039269023
41	0x3d230aa7	0.03980508
42	0xbcf5c50d	-0.030001188
43	0x3d7bbdac	0.061460182
44	0x3c99b2d0	0.018762022
45	0xbd611da2	-0.0549599
46	0x3b20031a	0.0024415911
47	0xbd36f045	-0.044662733
48	0x3cca8746	0.024722707
49	0xbd0f8fe6	-0.03504934
50	0x3cc9c304	0.024629124
51	0xbb9933cf	-0.0046753655
52	0xbd4cf2e0	-0.05003631
53	0xbd1b306a	-0.037887968
54	0xbd2f5bf1	-0.04281229
55	0xbbf56f9a	-0.0074901106
56	0x3d92d8e5	0.071702756
57	0x3b8d6b7d	0.004315792
58	0x3c31a72f	0.010843082
59	0xbbab36e0	-0.0052250475
60	0xbc8a342e	-0.016870584
61	0xbc7d1104	-0.015445951
62	0xbdc35d5f	-0.095392935
63	0x3c9a7cb5	0.018858293

hiden_layers.3.weight f4 [64, 64]
0	0xbccf6e57	-0.025321169
1	0x3e785384	0.24250609
2	0xbd509996	-0.05092772
3	0xbd4f3cc8	-0.050595075
4	0x3e814660	0.25249004
5	0xbe1da51e	-0.15395018
6	0xbe60d6ec	-0.21956986
7	0x3d72b2e6	0.059252642
8	0x3e3d0453	0.18458681
9	0x3d76f6da	0.06029401
10	0x3e124c8a	0.1428701
11	0xbe156c57	-0.1459211
12	0xbde125c4	-0.10993531
13	0x3e62954b	0.22127263
14	0x3d8f802e	0.0700687
15	0x3d246300	0.040133476
16	0x3d97fc37	0.07421153
17	0xbcc2a31b	-0.023759415
18	0xbcb46e4e	-0.022025254
19	0xbe881705	-0.26580063
20	0x3e38c564	0.18044049
21	0xbe436b8a	-0.19083992
22	0xbc49f3bc	-0.012326177
23	0x3e149d34	0.14513093
24	0xbcf44aaf	-0.029820768
25	0xbe478b93	-0.19486837
26	0xbcd62d87	-0.026144756
27	0xbe8789f4	-0.26472437
28	0xbaef668b	-0.0018264813
29	0xbcaf4a4c	-0.021397732
30	0xbe0996d9	-0.1343645
31	0xbd9b5d5d	-0.07586167
32	0x3cb907e1	0.022586765
33	0xbd3b86e1	-0.045782927
34	0x3e1be865	0.1522537
35	0x3e36a2a1	0.17835476
36	0x3d96ae78	0.07357496
37	0xbe52aa6d	-0.20572825
38	0x3db787e0	0.08961463
39	0xbe177b25	-0.1479307
40	0xbdf9f8c9	-0.12205655
41	0xbe2525dc	-0.16127723
42	0xbd96d166	-0.07364158
43	0xbddfd927	-0.109300904
44	0x3e16f30c	0.14741153
45	0xbe5dcc3d	-0.21659942
46	0x3e81c03f	0.25341985
47	0x3da48a80	0.08034229
48	0x3e0fceb7	0.14043699
49	0x3e65ddcb	0.22447889
50	0xbcb519d1	-0.022107037
51	0xbdf424e2	-0.11921097
52	0x3e3badec	0.18328065
53	0x3d6c1120	0.05763352
54	0x3e1a4cfa	0.15068427
55	0xbcc7b436	-0.024377923
56	0xbdcb5447	-0.09928184
57	0x3dcadf4f	0.09905874
58	0xbde113a9	-0.10990078
59	0xbe1b3bff	-0.15159605
60	0x3e2d29f8	0.16910541
61	0x3e65724a	0.22406879
62	0x3e3c503e	0.18389985
63	0xbdd178d7	-0.102281265
64	0x3db07d39	0.08617634
65	0xbdea4af3	-0.11440077
66	0xbe662781	-0.22476007
67	0x3dfa8150	0.12231696
68	0x3e223e77	0.15844141
69	0x3d6ca5a8	0.05777517
70	0xbdd5d7ca	-0.10441549
71	0x3e197da2	0.14989331
72	0x3e924d23	0.28574476
73	0xbdbebf93	-0.09313884
74	0x3e329843	0.17440896
75	0xbd48003d	-0.048828352
76	0x3dc8b78c	0.09800634
77	0xbe114933	-0.1418808
78	0x3e5c0d9f	0.21489571
79	0x3e459817	0.19296299
80	0xbc9dada2	-0.019247834
81	0xbe1c1066	-0.1524063
82	0x3dac7d2f	0.084223144
83	0x3d72377b	0.05913494
84	0xbd97ce69	-0.074124165
85	0x3e0cb786	0.13741884
86	0xbdbc1894	-0.091843754
87	0x3dc4eaa8	0.0961507
88	0x3c32bbc3	0.010909024
89	0x3b570b8d	0.0032813281
90	0xbe5feb3d	-0.2186708
91	0xbe8ee27a	-0.27907163
92	0xbd938826	-0.07203703
93	0xbe675642	-0.22591498
94	0xbe4690c3	-0.1939116
95	0xbddd7d00	-0.108148575
96	0x3dce58a4	0.100755006
97	0xbe09221e	-0.13391921
98	0x3dcef5d9	0.101054855
99	0x3e091bff	0.13389586
100	0x3e65577f	0.22396658
101	0xbde54d12	-0.111963406
102	0xbdc87d1d	-0.097894885
103	0x3e192a71	0.14957596
104	0xbe4610a7	-0.1934229
105	0xbe47fa33	-0.19529037
106	0x3e2d8e9c	0.16948932
107	0xbd3c5a41	-0.04598451
108	0x3d74eeb3	0.059797954
109	0xbe7f24e3	-0.24916415
110	0x3d5e70d9	0.05430684
111	0xbe25578e	-0.1614668
112	0x3c4926f2	0.012277352
113	0x3c0b6963	0.008509013
114	0x3d01e46e	0.03171199
115	0xbda19e2f	-0.07891499
116	0xbe2720c5	-0.16321094
117	0xbdb1399b	-0.086535655
118	0xbdf12cdb	-0.117761336
119	0x3d43a960	0.04776895
120	0x3d90d289	0.070714064
121	0x3e1a380d	0.15060444
122	0x3cf37a3f	0.029721377
123	0xbceafcb4	-0.028684951
124	0x3e4d4e44	0.20049387
125	0x3e223859	0.15841807
126	0xbe023ca9	-0.12718453
127	0x3dd2715a	0.10275526
128	0xbe416536	-0.18886265
129	0x3d94fec9	0.07275159
130	0x3e2b0f83	0.16705136
131	0xbe3ab89a	-0.18234482
132	0x3e76268e	0.24038145
133	0xbd3491fa	-0.044084527
134	0x3ddc8547	0.10767608
135	0x3d70eb9b	0.05881844
136	0x3e2057b5	0.15658458
137	0x3e155451	0.14582945
138	0xbe268ce8	-0.16264689
139	0x3d7266c1	0.059180025
140	0x3a485231	0.0007641642
141	0x3e42ec75	0.19035514
142	0x3d8d2492	0.06891741
143	0xbd31331c	-0.043261632
144	0x3d3294ed	0.043599058
145	0xbe999232	-0.2999435
146	0xbe47449f	-0.1945977
147	0xbe580ddb	-0.21099035
148	0xbe4631b2	-0.19354895
149	0x3c116c56	0.008875927
150	0xbe029809	-0.1275331
151	0x3e0d0cfc	0.13774484
152	0xbe74cadb	-0.23905508
153	0x3dce1056	0.100617096
154	0x3dfe2357	0.12409084
155	0x3ca9b123	0.020714348
156	0xbe48da9d	-0.19614644
157	0xbc24bb4b	-0.01005442
158	0x3e0eb906	0.13937768
159	0x3d1d7a71	0.038446847
160	0xbeb627c0	-0.35577202
161	0xbe00a297	-0.12562023
162	0x3e2978eb	0.16550033
163	0xbd2884cd	-0.041142274
164	0x3dcd31e0	0.100192785
165	0xbe46af7d	-0.19402881
166	0x3e34d34c	0.17658728
167	0x3ddfad5d	0.10921738
168	0xbe0dcda1	-0.13847972
169	0xbc808326	-0.015687536
170	0xbdd4ed43	-0.103968166
171	0x3e4bc87f	0.19900702
172	0x3ea0079c	0.31255805
173	0xbe4412e1	-0.19147827
174	0xbdf36827	-0.118851
175	0x3dff96bc	0.12479922
176	0x3d70d2f2	0.058794923
177	0x3de0e804	0.109817535
178	0xbe2f0df6	-0.1709517
179	0x3e0e9f7d	0.13928027
180	0x3dc5579a	0.09635849
181	0xbe02e7db	-0.12783758
182	0x3e227ca4	0.15867859
183	0xbd545adb	-0.05184446
184	0x3e6b1075	0.22955497
185	0xbc809caf	-0.015699713
186	0xbdcb65c2	-0.09931518
187	0xbe4f96ff	-0.20272444
188	0xbe316ad5	-0.1732591
189	0xbd4b0cf1	-0.04957289
190	0xbd07d1a4	-0.033158913
191	0xbcbf0e37	-0.023322208
192	0xbe1266c9	-0.14297022
193	0xbc1d72c8	-0.0096098855
194	0x3cfa84f5	0.030580977
195	0x3dfcc22a	0.12341721
196	0xbe55af1a	-0.20867577
197	0xbd7f3f6f	-0.062316354
198	0xbde51316	-0.11185281
199	0xbc583f9e	-0.013198761
200	0x3e16ab2c	0.14713734
201	0xbc5ed6dd	-0.013601032
202	0xbdb0bc68	-0.08629686
203	0xbda757ca	-0.08171041
204	0x3d24006f	0.040039476
205	0xbdd05597	-0.10172575
206	0xbd8f120c	-0.06985864
207	0x3dcba85e	0.09944223
208	0x3d32473f	0.043524977
209	0x3bc47b8c	0.0059961732
210	0xbd703ed3	-0.058653664
211	0xbdb929e4	-0.09041193
212	0xbe41d96c	-0.18930596
213	0x3e65c508	0.22438443
214	0x3de9de89	0.11419398
215	0xbdf1356b	-0.11777767
216	0xbd24bff8	-0.04022214
217	0xbe081679	-0.13289823
218	0xbd267eec	-0.040648386
219	0xbe18ee62	-0.14934686
220	0x3e5921e9	0.21204342
221	0x3e5959e7	0.21225701
222	0x3e11fe6a	0.14257208
223	0x3ccab35f	0.024743734
224	0xbe03baa9	-0.12864174
225	0x3d895f54	0.067076355
226	0xbd910312	-0.07080664
227	0x3a6b8c6d	0.00089854636
228	0x3d356807	0.04428866
229	0xbe507b54	-0.20359546
230	0xbe09a0f7	-0.1344031
231	0x3dbc0dad	0.09182296
232	0x3d237464	0.03990592
233	0xbe54b990	-0.20773911
234	0xbe213318	-0.15742147
235	0xbe050f55	-0.1299413
236	0x3e5267cd	0.2054741
237	0x3dccfaf1	0.10008801
238	0x3e579b8d	0.21055432
239	0x3ded984b	0.11601313
240	0x3e46697a	0.19376174
241	0x3e032770	0.12808013
242	0x3e674a73	0.22586994
243	0xbe4fba79	-0.20285977
244	0xbd8461e2	-0.06463982
245	0x3cac930d	0.021066213
246	0x3e6338b3	0.22189598
247	0x3e21ca53	0.15799837
248	0x3d9f6f9e	0.07784961
249	0xbe146c14	-0.14494354
250	0x3c957391	0.018243583
251	0x3e0b7505	0.13618858
252	0x3cf39b35	0.029737094
253	0xbe08ddbb	-0.13365833
254	0xbdafcf89	-0.08584506
255	0x3d1d93ce	0.038471036

hiden_layers.3.bias f4 [64]
0	0xbd4db489	-0.050221
1	0xbcfd9a59	-0.030957388
2	0xbcaac2ae	-0.020844784
3	0xbd0dde68	-0.03463593
4	0xbd5c003e	-0.05371117
5	0x3da4b531	0.08042372
6	0xbcee73f2	-0.029108021
7	0xbb8a2df9	-0.004216906
8	0xbd5ab51a	-0.05339537
9	0xbe070f11	-0.13189341
10	0x3dd0b8c9	0.10191495
11	0xbd1d5fb4	-0.038421348
12	0xbd504f08	-0.05085662
13	0x3c5c0754	0.013429482
14	0x3d1332b1	0.035937015
15	0xbd309e63	-0.0431198
16	0x3c85fab5	0.016354898
17	0x3c919591	0.017771514
18	0x3d2c0924	0.042000905
19	0x3cdc1a76	0.026868086
20	0xbd4686dc	-0.048468456
21	0xbd8c9f9a	-0.06866379
22	0x3cf1f4a9	0.029535608
23	0xbd1177ef	-0.03551477
24	0x3ccdf75a	0.02514236
25	0x3ce9e631	0.028552147
26	0x3cacaf44	0.021079667
27	0xbc5c9eeb	-0.013465623
28	0xbd9d68e4	-0.07686022
29	0xb99b1a1d	-0.0002958336
30	0x3dafd526	0.08585577
31	0xbcd5ece6	-0.026113939
32	0x3d8b1a3d	0.06792114
33	0xbd450adf	-0.04810607
34	0x3d71ba04	0.05901529
35	0xbcc31d4e	-0.023817685
36	0x3d12a1e5	0.035798926
37	0x3c91dba7	0.017804934
38	0x3d07e325	0.033175606
39	0x3d738193	0.059449743
40	0xbd35c9e8	-0.044382006
41	0xbd9b195c	-0.07573196
42	0x3dd1756b	0.10227474
43	0x3bced167	0.006311584
44	0xbd191b4f	-0.03737956
45	0x3ccef78b	0.025264522
46	0x3d1a27db	0.037635665
47	0x3ddc18cc	0.10746917
48	0x3c0a3cd6	0.008437356
49	0xbd652053	-0.05593903
50	0x3d582c07	0.052776363
51	0x3da8b1f2	0.082370654
52	0xbc4632cc	-0.012097072
53	0xbd5bc6c0	-0.05365634
54	0x3d04764e	0.032339387
55	0xbb4ab07d	-0.003092795
56	0x3d8290d2	0.063752785
57	0x3dab54d5	0.0836579
58	0x3cb7cf8d	0.022437835
59	0xbc16a62b	-0.009194891
60	0x3d0801dc	0.0332049
61	0xbdf4b1c2	-0.11947967
62	0xbc861be9	-0.01637073
63	0xbc93b7a4	-0.018031903

hiden_layers.4.weight f4 [64, 64]
0	0xbe32c8ad	-0.17459364
1	0xbdf1160a	-0.11771782
2	0x3d99c544	0.075083286
3	0xbd42d205	-0.04756357
4	0xbe8d4ebe	-0.27599138
5	0x3d7625f6	0.060094796
6	0x3b723610	0.0036958493
7	0xbc0c38f5	-0.0085585015
8	0x3df138d7	0.117784195
9	0xbe936430	-0.28787374
10	0xbda1f86b	-0.0790871
11	0x3d3c6c15	0.046001513
12	0xbe2e5cf4	-0.17027646
13	0xbdf76ffe	-0.12081908
14	0x3e8380f8	0.25684333
15	0x3c6d9414	0.014500637
16	0xbc834ac3	-0.01602686
17	0xbc7857b7	-0.015157632
18	0xbd5d37e3	-0.054008376
19	0xbd2fbbf0	-0.04290384
20	0xbe45596b	-0.19272391
21	0xbdd24c1b	-0.10268422
22	0xbe18e291	-0.14930178
23	0xbe3ebe7b	-0.1862735
24	0xbd58ac69	-0.0528988
25	0xbe24648b	-0.16053979
26	0x3e7706a5	0.24123628
27	0xbd2d6d1d	-0.042340387
28	0xbe56acfd	-0.20964427
29	0xbccd0103	-0.025024896
30	0xbe1d523d	-0.15363403
31	0xbe511a26	-0.20420131
32	0xbd69954a	-0.05702714
33	0x3decfe4f	0.11571943
34	0x3e3d0210	0.18457818
35	0xbd59829d	-0.05310308
36	0xbe4091d9	-0.18805636
37	0xbd803381	-0.062598236
38	0x3dfc6dc5	0.123256244
39	0xbd90a6c0	-0.07063055
40	0xbda05816	-0.07829301
41	0xbca271d9	-0.019829677
42	0x3e0300c6	0.12793264
43	0x3e5a507c	0.21319765
44	0x3e2e64b3	0.17030601
45	0xbe29bd52	-0.16576126
46	0xbe60a234	-0.21936876
47	0x3e1dbcdd	0.15404077
48	0xbe45fe26	-0.19335231
49	0xbe4c9ace	-0.19980928
50	0x3d33b713	0.043875765
51	0xbe28b2e0	-0.16474485
52	0xbdd10ba7	-0.10207301
53	0xbe3e1da1	-0.1856599
54	0x3ce43ff7	0.027862532
55	0x3e58551c	0.21126217
56	0x3ad16aa5	0.0015977217
57	0x3e64deb6	0.22350582
58	0x3e0a0dae	0.13481781
59	0xbd8ec085	-0.06970314
60	0xbc38c01a	-0.011276269
61	0xbe2f6a85	-0.17130478
62	0xbe34df51	-0.17663313
63	0x3da5a3f1	0.0808791
64	0x3df883a3	0.12134483
65	0xbe7354ea	-0.23762861
66	0x3de18351	0.11011375
67	0xbe26b57d	-0.1628017
68	0x3ddd52c7	0.10806804
69	0x3db4c72b	0.08827051
70	0xbe7ca7de	-0.24673411
71	0x3d2c65f4	0.042089418
72	0x3e5c15c3	0.21492676
73	0xbc9bc95e	-0.019016918
74	0xbdb4e304	-0.08832362
75	0xbe58f2b5	-0.21186335
76	0x3e6e7571	0.23286988
77	0x3e7d105e	0.24713275
78	0x3d270f35	0.040785987
79	0xbd6b9250	-0.05751258
80	0x3e7182b1	0.23585011
81	0xbd60da1c	-0.054895505
82	0xbd56727c	-0.052355275
83	0xbe783479	-0.24238767
84	0xbdf6a89d	-0.12043879
85	0xbe3a0fd4	-0.181701
86	0xbe679d13	-0.22618513
87	0xbe20391e	-0.15646788
88	0x3e01b677	0.12667261
89	0x3cd957ca	0.026531119
90	0xbe4d2f4c	-0.20037574
91	0x3d69a8a3	0.05704559
92	0xbe1849c7	-0.14871894
93	0x3db159a2	0.08659674
94	0xbe43ba8b	-0.19114129
95	0xbe1564ec	-0.1458928
96	0xbe6aae57	-0.22918068
97	0x3d9aca22	0.07558085
98	0x3e57ff31	0.21093442
99	0xbe1ab675	-0.15108664
100	0x3e7e6c5f	0.24846028
101	0xbdf4b723	-0.11948993
102	0xbd2ee4c9	-0.042698655
103	0xbc5eb5d4	-0.013593156
104	0x3dce0bee	0.10060869
105	0x3e45b0ef	0.19305776
106	0xbd2abbcf	-0.041683014
107	0x3d8d3646	0.068951175
108	0xbd994b47	-0.07485061
109	0x3cd1c7a1	0.025607886
110	0xbd187f03	-0.037230503
111	0x3b84583e	0.0040388396
112	0x3e40ff56	0.18847403
113	0xbb9824f6	-0.004643078
114	0xbe5589ee	-0.20853397
115	0xbce180a2	-0.027527157
116	0x3cf45feb	0.029830894
117	0xbda29d35	-0.07940141
118	0xbdfac948	-0.122454226
119	0xbc0d4b32	-0.008623885
120	0x3da6a1b0	0.08136308
121	0x3dc26dc9	0.09493596
122	0x3dbbe6a0	0.091748476
123	0xbd98dba1	-0.07463766
124	0xbe3483fe	-0.17628476
125	0x3e35fb31	0.17771603
126	0x3cbb0843	0.022831088
127	0x3dd42220	0.10358071
128	0xbbe50b86	-0.006989899
129	0x3e35195c	0.17685455
130	0x3e4ddef4	0.20104581
131	0x3e33a6a4	0.17544037
132	0x3d81b353	0.063330315
133	0xbd07ad90	-0.033124506
134	0x3d4f702e	0.050644092
135	0xbe470184	-0.19434172
136	0x3d431ba6	0.04763379
137	0xbdb01915	-0.08598534
138	0xbe5824ae	-0.21107742
139	0xbc5537fe	-0.013013838
140	0xbcf8e839	-0.03038417
141	0x3d8394e8	0.06424886
142	0xbccab3bc	-0.024743907
143	0x3de49599	0.11161346
144	0x3e610381	0.21973993
145	0x3d823683	0.063580535
146	0x3d932e3c	0.07186553
147	0x3dddad39	0.10824055
148	0xbdb62d72	-0.08895387
149	0x3e76b03a	0.24090663
150	0x3e1c4445	0.15260418
151	0xbe006156	-0.1253713
152	0x3e3220f2	0.1739538
153	0xbe27b5ba	-0.16377917
154	0x3db352f8	0.087560594
155	0xbd6dd9a2	-0.05806888
156	0x3e520cd1	0.20512702
157	0xbe305424	-0.17219597
158	0x3d123b77	0.03570124
159	0x3e5ca1c5	0.21546085
160	0xbdd2e9c3	-0.10298493
161	0x3e0d14b3	0.13777427
162	0xbd135f12	-0.035979338
163	0x3e84ca27	0.2593548
164	0x3da71dec	0.08160004
165	0xbe12494b	-0.14285772
166	0xbd810456	-0.06299655
167	0x3e0bd0ae	0.13653824
168	0x3e0bdbb0	0.13658023
169	0xbd098330	-0.033572376
170	0xbe229b89	-0.15879644
171	0x3de9b414	0.114113
172	0xbc883ab5	-0.016629556
173	0x3caace80	0.02085042
174	0xbcc0a9eb	-0.023518523
175	0x3dcf8d23	0.101343416
176	0x3dcf93d0	0.10135615
177	0x3de7d911	0.11320699
178	0xbe02e70f	-0.12783454
179	0xbe64bf82	-0.2233868
180	0xbe39ae16	-0.18132815
181	0x3e3aec25	0.18254144
182	0xbb4474d5	-0.0029976864
183	0xbd97a7db	-0.07405063
184	0x3e46b3a5	0.19404466
185	0xbe09cbbb	-0.13456623
186	0x3e4c2e86	0.19939622
187	0x3deed3d4	0.11661497
188	0x3d3669b8	0.044534415
189	0x3e72b231	0.23700787
190	0xbe346d99	-0.17619933
191	0x3e5e8055	0.21728642
192	0xbe5ffc19	-0.21873511
193	0xbe82ab4e	-0.2552132
194	0x3dc02edd	0.093839385
195	0x3e7a03e9	0.24415554
196	0x3e070cd5	0.13188489
197	0x3e082241	0.13294317
198	0xbe1f1c57	-0.15538155
199	0x3e8700e4	0.26367867
200	0x3e004c67	0.12529145
201	0xbcae92b2	-0.021310184
202	0xbe227376	-0.15864357
203	0xbe3b7eb3	-0.1831005
204	0x3e79770d	0.2436182
205	0xbd94baa6	-0.07262163
206	0xbe678309	-0.2260858
207	0xbd853c02	-0.06505586
208	0x3da0504c	0.078278154
209	0xbd3d723a	-0.046251513
210	0xbe3ac957	-0.18240868
211	0x3da457d4	0.080245644
212	0xbcee0638	-0.0290557
213	0xbe04f496	-0.12983927
214	0xbe127952	-0.14304093
215	0xbdbf341c	-0.09336111
216	0xbacebe82	-0.0015773328
217	0xbd28ae71	-0.041181985
218	0x3e3f1b08	0.18662655
219	0x3e220994	0.15823966
220	0xbdc70fef	-0.09719836
221	0xbdd81608	-0.10551077
222	0xbe547fcb	-0.20751874
223	0xbe459eb4	-0.19298822
224	0xbd7d8c84	-0.061901584
225	0x3e623e78	0.22094142
226	0xbcef5d93	-0.029219424
227	0xbde3492f	-0.11097943
228	0xbd0c4c37	-0.03425237
229	0xbd85e165	-0.06537131
230	0xbe25aded	-0.16179629
231	0x3e020e0d	0.12700672
232	0xbe2f2163	-0.1710258
233	0x3e8dacb7	0.27670833
234	0xbe5c28dd	-0.21499963
235	0xbdea58a7	-0.1144269
236	0xbd535e93	-0.051603865
237	0xbc4f0a68	-0.012636758
238	0x3d900d5e	0.070337996
239	0x3cebaa1d	0.02876764
240	0xbdc2e311	-0.09515966
241	0xbdb46292	-0.08807863
242	0x3e0b3b2a	0.13596788
243	0x3d5545fd	0.0520687
244	0x3d2bc47f	0.04193544
245	0x3e601c9c	0.21885914
246	0xbe013409	-0.12617506
247	0xbe1cbc6b	-0.15306251
248	0x3d93c963	0.07216146
249	0x3dc0cbd0	0.09413874
250	0xbe1592d8	-0.14606798
251	0x3e84d063	0.25940236
252	0x3de99d8c	0.11407003
253	0x3d2ba7ef	0.0419082
254	0xbe1272ea	-0.14301649
255	0x3e1cf51e	0.1532788
