results/20_new_lr/epoch320/model_weights.pth (torch, 749334 bytes, 128 tensors)

init_layer.0.weight f4 [64, 5]
0.029109308 -0.17240854 -0.2073685 0.10437223 0.26219615 -0.9935805 -0.01776716 -0.02509434
0.08719919 0.036855422 0.15071543 0.1495694 0.15338582 0.21015418 -0.025262477 -0.23185429
-0.20678534 -0.06978448 0.07263745 0.13050385 -0.6025744 -0.07348101 0.04662308 -0.0015548237
0.05813023 -0.07152986 -0.0787924 0.23366512 -0.052391116 -0.22951931 -0.037444603 -0.022641413
0.17350389 -0.06085044 -0.15034887 -0.16678894 -0.39213163 -0.15203065 -0.10872365 -0.095777996
-0.8241787 0.083019055 0.08186131 -0.033682864 -0.032110404 0.16081777 0.011244093 0.008946982
0.00017602097 -0.01392214 0.10680696 0.022499742 -0.0020245707 -0.0034871825 -0.0019520323 0.026050402
-0.03472429 -0.12500997 -0.2567792 -0.0033182637 -0.25984776 0.10991377 0.014778985 -0.0358242
0.13648008 0.16876198 -0.5767311 0.0023697112 0.08195738 -0.17920738 -0.3245654 0.0614521
-0.02353544 -0.024935963 0.032045487 -0.27917638 0.4557447 0.11001203 -0.012517093 -0.12581582
0.11150744 -0.5321525 0.09753551 -0.040154077 0.044696286 0.47802427 -0.32354102 0.011605701
0.11069713 -0.05159835 -0.115524024 0.09139882 0.18628357 0.05537763 0.16621605 0.18462704
0.06836003 0.121778265 -0.07160404 -0.09527896 0.20272331 0.4617283 -0.03598043 -0.07381778
-0.010929957 -0.25024015 0.44789472 -0.19439761 -0.09336332 -0.0020103487 -0.86310035 -0.07919307
-0.016868757 0.03830404 -0.03819886 0.24979448 0.12520985 -0.028608458 0.09282864 -0.07680386
-0.27269 -0.3673277 0.071063064 -0.060225375 -0.05814886 0.13215455 -0.44999868 -0.0075317635
-0.0943525 -0.006479482 0.27499813 0.5102599 -0.0005594739 0.08654695 0.065369196 -0.16042282
0.6579081 0.05017421 0.060945112 -0.056745052 0.21158434 -0.059575927 0.004814648 0.013078712
-0.019398581 0.35784948 0.39328837 -0.19951682 -0.14819653 0.13931976 -0.121150024 0.0098955
0.13508807 -0.09319961 -0.15936883 0.0632336 -0.57623863 0.03083593 -0.07106477 -0.10464162
0.52229106 -0.48409602 -0.047735486 -0.009304658 -0.04722199 -0.4805351 0.5752987 -0.032947995
0.039695576 -0.12129122 -0.41723007 0.13116145 0.034446534 -0.1437359 0.1604697 0.21964203
-0.068707116 -0.14047307 0.007527916 0.114220046 -1.1023747 0.05771878 -0.038360886 -0.006769628
0.038481656 0.23394771 -0.05815984 0.0222158 -0.047379617 0.0476025 -0.6335089 -0.044197906
-0.16508515 -0.09922842 -0.11875251 -0.047513656 0.44236234 -0.12694722 -0.13975336 -0.18958159
-0.11931012 0.068750076 0.18274422 0.08011323 0.07201181 -0.16754776 -0.47525692 -0.07881652
0.030205635 0.009735663 0.056422792 0.46062976 -0.016446507 -0.12449782 0.124687634 -0.021460034
0.28862825 -0.025914757 0.15766098 -0.21392642 -0.21997324 0.39225453 -0.06362995 -0.085432276
0.059305523 -0.14306006 0.3547497 0.032865915 0.05427008 -0.044905838 -0.09381446 -0.033756863
-0.112564325 0.007867942 0.1187956 -0.36651582 0.47478184 0.11104662 -0.045334954 0.034746993
-0.013688597 -0.5152016 -0.13344787 0.033054605 0.18079773 -0.6066307 -0.10646656 0.11481903
-0.0931669 -0.1943972 -0.51839143 0.23602143 0.10555554 0.07965428 -0.1714795 0.11279224
00000000: a576 ee3c dd8b 30be 6858 54be 1cc1 d53d
00000010: 933e 863e 4b5b 7ebf 6f8c 91bc a592 cdbc
00000020: 7d95 b23d b6f5 163d 2555 1a3e b928 193e
00000030: 2c11 1d3e a832 573e 41f3 cebc 366b 6dbe
00000040: 89bf 53be 2aeb 8ebd f2c2 943d cda2 053e
00000050: 5142 1abf 367d 96bd d8f7 3e3d 3acb cbba
00000060: f719 6e3d 3f7e 92bd e95d a1bd e945 6f3e
00000070: 1198 56bd 1c07 6bbe 835f 19bd 7c7a b9bc
00000080: 01ab 313e 503e 79bd 0ef5 19be b8ca 2abe
00000090: 7ac5 c8be ecad 1bbe 81aa debd 4127 c4bd
000000a0: 60fd 52bf e505 aa3d e7a6 a73d 0bf7 09bd
000000b0: 3386 03bd 6aad 243e 2539 383c 5d96 123c
000000c0: 4592 3839 b019 64bc 9cbd da3d 6151 b83c
000000d0: a9ae 04bb 3789 64bb 56db ffba a767 d53c
000000e0: 0f3b 0ebd 9d02 00be 9078 83be 3a77 59bb
000000f0: c40a 85be 781a e13d 8e23 723c 65bc 12bd
00000100: 6fc1 0b3e f1cf 2c3e a6a4 13bf 284d 1b3b
00000110: 45d9 a73d 2482 37be 702d a6be 32b5 7b3d
00000120: 65cd c0bc 8146 ccbc 2142 033d 35f0 8ebe
00000130: 5f57 e93e fd4d e13d 7e14 4dbc ddd5 00be
00000140: 035e e43d 253b 08bf b3c0 c73d 9a78 24bd
00000150: 7413 373d 99bf f43e 2ba7 a5be d725 3e3c
00000160: 2db5 e23d cb58 53bd dc97 ecbd 4e2f bb3d
00000170: 1fc1 3e3e a7d3 623d 8a34 2a3e df0e 3d3e
00000180: 5800 8c3d e266 f93d 24a5 92bd 9e21 c3bd
00000190: b396 4f3e a767 ec3e 3760 13bd c72d 97bd
000001a0: 9013 33bc 7a1f 80be 7552 e53e 2b10 47be
000001b0: 4535 bfbd 0ec0 03bb 25f4 5cbf fa2f a2bd
000001c0: 5930 8abc b2e4 1c3d 6876 1cbd 20ca 7f3e
000001d0: 0337 003e 495c eabc f11c be3d 584b 9dbd
000001e0: 069e 8bbe 6012 bcbe 8389 913d e2ae 76bd
000001f0: 802d 6ebd 8653 073e 3a66 e6be 03cd f6bb
00000200: e23b c1bd d651 d4bb 8ecc 8c3e 65a0 023f
00000210: a8a9 12ba 873f b13d 49e0 853d e145 24be
00000220: aa6c 283f 7983 4d3d 95a1 793d 806d 68bd
00000230: 91a9 583e e305 74bd 32c4 9d3b 1848 563c
00000240: c6e9 9ebc 0c38 b73e 185d c93e 234e 4cbe
00000250: d5c0 17be d7a9 0e3e 811d f8bd bc20 223c
00000260: 8754 0a3e 70df bebd 9531 23be 9e80 813d
00000270: 6084 13bf a29b fc3c 688a 91bd 584e d6bd
00000280: deb4 053f 6fdb f7be 4986 43bd 9072 18bc
00000290: d86b 41bd b208 f6be c746 133f 7af4 06bd
000002a0: d497 223d 8867 f8bd 2e9f d5be 304f 063e
000002b0: cf17 0d3d 812f 13be 2b52 243e d7e9 603e
000002c0: 51b6 8cbd 2cd8 0fbe bdac f63b 33ec e93d
000002d0: 9d1a 8dbf 876a 6c3d 4e20 1dbd c1d3 ddbb
000002e0: f19e 1d3d fd8f 6f3e 0339 6ebd e9fd b53c
000002f0: 2111 42bd d7fa 423d a42d 22bf dd08 35bd
00000300: 150c 29be 4538 cbbd 8434 f3bd ae9d 42bd
00000310: 517d e23e 74fe 01be 811b 0fbe ad21 42be
00000320: dd58 f4bd d7cc 8c3d 4d21 3b3e 6812 a43d
00000330: ee7a 933d a491 2bbe e054 f3be 8e6a a1bd
00000340: cf71 f73c 5582 1f3c 961b 673d aad7 eb3e
00000350: d3ba 86bc b7f8 febd 3b5c ff3d f4cc afbc
00000360: 15c7 933e 2f4b d4bc e171 213e 870f 5bbe
00000370: aa40 61be 96d5 c83e 6b50 82bd 1ef7 aebd
00000380: 59ea 723d 567e 12be c1a1 b53e 699e 063d
00000390: 4e4a 5e3d 2fef 37bd cc21 c0bd a344 0abd
000003a0: 2088 e6bd 8ae8 003c 1c4b f33d f6a7 bbbe
000003b0: 9b16 f33e 696c e33d 25b1 39bd dd52 0e3d
000003c0: 2346 60bc 41e4 03bf 8fa6 08be 4464 073d
000003d0: 0a23 393e 264c 1bbf 240b dabd 3d26 eb3d
000003e0: 4ace bebd 0f10 47be 4db5 04bf 9aaf 713e
000003f0: 812d d83d c821 a33d 5298 2fbe 9eff e63d

init_layer.0.bias f4 [64]
0.15483367 -0.1552528 0.28069767 0.021651503 -0.13811705 0.04058779 0.21682517 0.118185736
-0.11895387 -0.035607424 0.017593527 0.31529462 0.23775665 -0.1432369 0.031299848 0.009001503
0.11985036 0.09403739 -0.102807745 0.25903246 -0.11903672 -0.19747955 -0.1515295 -0.14791982
-0.026392179 -0.15578885 -0.03814324 0.059655998 0.0043272087 0.053936474 0.097632 0.11774545
0.17781837 0.055097293 -0.2168165 -0.14285477 -0.12563667 0.051306907 -0.14047284 0.11091535
-0.23172474 -0.111902505 -0.13217343 -0.047009863 0.040596224 -0.115755305 -0.1310946 0.040574223
0.06633975 -0.1818607 -0.16956243 -0.13562854 0.14712383 -0.26217395 0.08853467 -0.0316714
0.1429326 -0.045470107 -0.14752746 -0.124595895 -0.21850602 -0.15957995 0.04109063 0.02950699
00000000: b88c 1e3e 97fa 1ebe 9bb7 8f3e 7e5e b13c
00000010: 8e6e 0dbe 623f 263d 6b07 5e3e 5d0b f23d
00000020: 169e f3bd 17d9 11bd 4d20 903c 4c6e a13e
00000030: 7b76 733e b2ac 12be 4534 003d 0a7b 133c
00000040: 1b74 f53d ad96 c03d de8c d2bd e79f 843e
00000050: 86c9 f3bd 1438 4abe 8d2a 1bbe 4b78 17be
00000060: 6934 d8bc 1d87 1fbe 163c 1cbd d959 743d
00000070: 42cb 8d3b 7eec 5c3d 49f3 c73d 8724 f13d
00000080: 0516 363e b3ad 613d 2505 5ebe 8548 12be
00000090: e6a6 00be 3127 523d 1dd8 0fbe 9627 e33d
000000a0: 4049 6dbe 242d e5bd 7958 07be 6a8d 40bd
000000b0: 3a48 263d 1e11 edbd aa3d 06be 2831 263d
000000c0: 23dd 873d b139 3abe c6a1 2dbe 35e2 0abe
000000d0: a1a7 163e aa3b 86be aa51 b53d dfb9 01bd
000000e0: ec5c 123e dd3e 3abd 7011 17be 222c ffbd
000000f0: 0bc0 5fbe ed68 23be a64e 283d a5b8 f13c

hiden_layers.0.weight f4 [64, 64]
0.11904865 0.50963366 -0.18148491 -0.08579508 0.29801393 0.026372759 0.09581299 -0.12748048
0.30594876 -0.0014392808 -0.09012295 -0.14134309 0.013500571 -0.17352903 0.19933578 0.2420525
-0.34668672 -0.025072219 0.118292354 0.15199082 0.18586685 0.3175492 0.33326364 0.042521026
-0.057533897 0.09670349 -0.07807586 0.391653 0.06379062 0.08788559 -0.14441504 -0.20462823
-0.7383408 0.14316185 0.23940915 -0.057609 0.41838673 -0.19452171 0.23466997 -0.10680924
0.010312687 0.022290647 0.04487241 -0.048225258 0.08726652 0.048951082 0.030061275 0.28502914
-0.30647552 0.32655665 0.40251818 -0.15722132 -0.20473106 0.3175156 0.15226269 0.06086545
-0.2181149 -0.3386866 0.29203597 0.07109979 0.08214729 0.20108855 -0.03236444 -0.33815655
0.3219421 0.040545024 0.110774994 0.18916032 -0.1392372 -0.43925294 -0.24957645 0.12902282
-0.0576521 0.057634093 -0.12487888 0.2570247 0.06789766 -0.2793333 0.27754468 -0.32748157
-0.06548693 -0.20435113 -0.16327178 -0.010001346 0.112439826 0.00061120803 0.11093871 -0.19777183
0.20686327 -0.12803078 0.16002005 -0.20298126 0.13556921 0.091533 -0.25094882 0.0671977
-0.0108202025 -0.04603964 -0.1670746 0.17050755 -0.15971926 0.16385637 -0.05267707 -0.03210187
-0.18913099 0.027669804 -0.11896755 -0.065489486 0.08186461 -0.13183947 0.12075517 -0.08356767
-0.023075262 0.0005571666 -0.07311747 -0.1913389 -0.015280631 0.17545307 0.052174456 -0.16558482
-0.09980402 0.13960284 0.08506121 -0.12743446 -0.096339524 0.016665358 -0.12629074 -0.061364733
0.17401738 -0.0841717 0.11113379 0.17971437 -0.031340986 0.26984176 0.4441651 -0.14109601
0.1470085 0.014739868 0.19059414 -0.15208034 -0.043962166 -0.042193662 0.13412657 0.06838206
0.2907574 0.07904867 0.6350769 0.34943923 0.017421894 -0.1535851 -0.19093162 -0.25950903
0.16945295 -0.08722614 -0.021117056 0.15427189 0.15156765 -0.06335344 -0.08885236 -0.10767861
-0.15941921 -0.03524518 0.11579703 -0.20578906 0.12820607 0.28440598 -0.06102097 -0.020383516
0.36793873 -0.24930698 0.052360985 -0.15821563 0.0015066749 -0.10958138 0.010198997 0.24869756
0.07045802 -0.08669405 -0.18289317 0.20166266 0.08452386 -0.080752395 0.0041048788 -0.14554767
0.0026825427 -0.097055495 0.17923242 -0.0718297 0.36247438 -0.29411542 -0.62728834 -0.05656615
-0.2970374 -0.024289936 -0.6707595 -0.23974752 0.19183096 0.30193982 0.2512233 -0.09453489
0.03489947 0.021616394 0.19801095 -0.4807072 -0.23043065 0.099620506 -0.101815164 0.29344273
-0.02107561 0.21891327 -0.20380548 -0.09010587 0.03515072 0.1833695 -0.022908447 -0.053947292
0.09323085 0.16679883 0.0416197 -0.10364787 0.13561068 0.08545063 0.22397442 -0.01675895
-0.13493215 -0.101847686 0.19528882 -0.07832602 -0.1000974 0.44497007 0.0064953924 -0.15764025
-0.07607683 -0.10000544 0.15922378 0.029873123 0.13354635 0.17474437 0.12267027 -0.010383539
-0.15766504 0.1753273 0.13622472 0.25519785 0.17193991 0.0034269306 -0.048604462 -0.3148686
0.039430723 -0.08008789 0.1522709 0.29344243 0.23664074 0.25782597 -0.45342493 -0.09146655
00000000: c7cf f33d 5a77 023f 2ed7 39be 55b5 afbd
00000010: 4895 983e af0b d83c 9a39 c43d 3e8a 02be
00000020: 51a5 9c3e 40a6 bcba 6292 b8bd 3ebc 10be
00000030: 8031 5d3c 98b1 31be ae1e 4c3e 9cdc 773e
00000040: ec80 b1be 4164 cdbc 4343 f23d 7ba3 1b3e
00000050: e153 3e3e cf95 a23e 88a1 aa3e 872a 2e3d
00000060: aaa8 6bbd 7b0c c63d 3de6 9fbd be86 c83e
00000070: a8a4 823d 5cfd b33d 89e1 13be 108a 51be
00000080: e703 3dbf 0599 123e ac27 753e 6af7 6bbd
00000090: c936 d63e b330 47be 534d 703e cebe dabd
000000a0: 8bf6 283c e09a b63c 22cc 373d d987 45bd
000000b0: cab8 b23d ee80 483d 1043 f63c 57ef 913e
000000c0: 5cea 9cbe 6f32 a73e dd16 ce3e a0fe 20be
000000d0: 05a5 51be 6891 a23e c0ea 1b3e 0d4e 793d
000000e0: 8359 5fbe 5468 adbe bd85 953e c49c 913d
000000f0: d73c a83d 28ea 4d3e 9390 04bd db22 adbe
00000100: 98d5 a43e 8a12 263d 00de e23d 3eb3 413e
00000110: 3294 0ebe c3e5 e0be f890 7fbe 8f1e 043e
00000120: 9c24 6cbd ba11 6c3d 80c0 ffbd be98 833e
00000130: ee0d 8b3d c604 8fbe 561a 8e3e aaab a7be
00000140: 031e 86bd 6c41 51be b830 27be afdc 23bc
00000150: da46 e63d 7a39 203a d633 e33d b384 4abe
00000160: f7d3 533e 801a 03be 4cdc 233e 52da 4fbe
00000170: a8d2 0a3e a775 bb3d 5d7c 80be f39e 893d
00000180: 3847 31bc 1094 3cbd 9b15 2bbe 8899 2e3e
00000190: 728d 23be f7c9 273e e9c3 57bd 407d 03bd
000001a0: 8eab 41be c9ab e23c 42a5 f3bd 5a1f 86bd
000001b0: a2a8 a73d ed00 07be 7d4e f73d 8725 abbd
000001c0: 5508 bdbc d10e 123a 9dbe 95bd 58ee 43be
000001d0: 9d5b 7abc f8a9 333e e2b4 553d 118f 29be
000001e0: 0d66 ccbd 0cf4 0e3e 9234 ae3d 2e7e 02be
000001f0: a84d c5bd ca85 883c 5c52 01be 9659 7bbd
00000200: 9d31 323e 3662 acbd 1d9a e33d 0b07 383e
00000210: 685f 00bd b328 8a3e 9c69 e33e 797b 10be
00000220: 6589 163e 7d7f 713c 1c2b 433e f3ba 1bbe
00000230: ac11 34bd 43d3 2cbd 7a58 093e e50b 8c3d
00000240: 27de 943e 45e4 a13d 6694 223f b3e9 b23e
00000250: 5cb8 8e3c 6a45 1dbe 9483 43be 5ede 84be
00000260: 1385 2d3e 9ea3 b2bd adfd acbc 73f9 1d3e
00000270: 8d34 1b3e 73bf 81bd 3af8 b5bd 9a86 dcbd
00000280: ca3e 23be 405d 10bd fe26 ed3d 5eba 52be
00000290: 7448 033e a99d 913e 20f1 79bd 55fb a6bc
000002a0: 7762 bc3e 544a 7fbe 7978 563d 4703 22be
000002b0: 9f7b c53a 346c e0bd b219 273c 93aa 7e3e
000002c0: 4b4c 903d a68c b1bd 5948 3bbe a880 4e3e
000002d0: d81a ad3d 8361 a5bd 3882 863b 730a 15be
000002e0: 99cd 2f3b 08c5 c6bd b488 373e 731b 93bd
000002f0: 3e96 b93e 4c96 96be f895 20bf e8b1 67bd
00000300: 4915 98be b0fb c6bc e5b6 2bbf 6080 75be
00000310: 566f 443e db97 9a3e 57a0 803e 829b c1bd
00000320: bff2 0e3d dd14 b13c 62c3 4a3e 411f f6be
00000330: 03f6 6bbe d605 cc3d 7884 d0bd 203e 963e
00000340: c2a6 acbc cd2a 603e 62b2 50be 6d89 b8bd
00000350: 34fa 0f3d 37c5 3b3e 7faa bbbc d6f7 5cbd
00000360: d1ef be3d 50cd 2a3e 6b79 2a3d 5645 d4bd
00000370: 87dd 0a3e bd00 af3d 8d59 653e 114a 89bc
00000380: a72b 0abe 8595 d0bd cbf9 473e 6469 a0bd
00000390: deff ccbd 1ed3 e33e 4dd7 d43b 726c 21be
000003a0: 2bce 9bbd a7cf ccbd 8f0b 233e 7bb8 f43c
000003b0: 60c0 083e 30f0 323e 8d3a fb3d b81f 2abc
000003c0: f272 21be 0089 333e 7e7e 0b3e 4ba9 823e
000003d0: 0411 303e 5b96 603b 7915 47bd 7536 a1be
000003e0: 1c82 213d 1f05 a4bd e7ec 1b3e 163e 963e
000003f0: f351 723e c401 843e 5027 e8be d152 bbbd

hiden_layers.0.bias f4 [64]
-0.19344488 0.1695207 0.090170816 -0.16916646 -0.099592246 -0.039626095 -0.1316326 0.14341243
0.15292805 0.015351268 0.15338281 -0.1828511 -0.07080879 0.06266905 0.15180059 0.011376244
0.12104551 0.25468683 0.26277876 -0.1331517 -0.021641485 0.15677997 -0.018492661 -1.0644339
-0.10238637 0.041747484 0.136363 0.054169852 0.013712832 0.099868685 -0.12048012 -0.15249947
0.08026226 -0.15840074 -0.1691808 0.10647763 -0.24091558 0.034705427 -0.0023235327 -0.0062744296
0.10075466 -0.08612294 -0.010087444 0.07331723 -0.047245238 -0.16633725 0.055963613 -0.055021286
0.08967348 0.1553988 0.15781112 0.09228712 0.114780545 0.11253387 0.15458879 -0.21893291
0.077994205 -0.0920754 0.0013095469 0.14757234 0.14031988 -0.05559527 -0.00889391 -0.14153267
00000000: 6a16 46be d696 2d3e 7aab b83d f939 2dbe
00000010: 05f7 cbbd f94e 22bd b2ca 06be b5da 123e
00000020: 2c99 1c3e e383 7b3c 6210 1d3e 523d 3bbe
00000030: 3304 91bd a258 803d 9d71 1b3e 6d63 3a3c
00000040: b5e6 f73d 5066 823e f08a 863e eb58 08be
00000050: 7c49 b1bc ee8a 203e ec7d 97bc 5f3f 88bf
00000060: f2af d1bd 69ff 2a3d bea2 0b3e 35e1 5d3d
00000070: c9ab 603c f487 cc3d 48be f6bd d228 1cbe
00000080: 8a60 a43d ce33 22be bb3d 2dbe f210 da3d
00000090: 93b2 76be 4727 0e3d 6946 18bb bb99 cdbb
000000a0: 7658 ce3d 3961 b0bd cf45 25bc 5827 963d
000000b0: 3984 41bd 5054 2abe 1a3a 653d 005e 61bd
000000c0: bba6 b73d dd20 1f3e 3d99 213e 0801 bd3d
000000d0: 1012 eb3d 2878 e63d 864c 1e3e f32f 60be
000000e0: 6dbb 9f3d 0792 bcbd 1aa5 ab3a 341d 173e
000000f0: 04b0 0f3e deb7 63bd c3b7 11bc f1ed 10be

hiden_layers.1.weight f4 [64, 64]
-0.17402935 0.058081213 0.08802554 -0.026523855 0.10149622 -0.08914694 -0.07693171 -0.057430808
-0.029112045 -0.19844787 0.11440794 0.25138107 -0.015397761 -0.048634615 0.1598548 0.07703027
0.12040692 0.10394947 0.21974628 -0.25867453 0.23565365 0.12541711 -0.0638488 0.22663602
0.16908355 -0.12594332 0.1154972 -0.14535245 0.031388015 0.057130035 -0.1769891 -0.044454418
-0.06366199 -0.019025464 -0.14507483 0.085187554 -0.19953221 -0.12612192 -0.053294834 -0.025540544
-0.10070017 -0.22852555 -0.021659516 0.19662191 -0.03582492 -0.103043295 0.18807238 0.18064395
-0.16935492 0.1265465 -0.111475825 -0.2208726 -0.23627837 -0.11711318 -0.27466875 -0.067803524
-0.2643227 -0.036683638 0.1270756 0.13006705 -0.121315725 -0.0718617 -0.08244335 -0.039611228
0.1469142 0.11533571 0.02983883 -0.043101884 0.23661253 0.11855527 -0.2693798 0.43709078
0.026497899 0.14891689 0.13323508 -0.066064954 0.11821382 -0.08828548 0.23452237 0.12358294
-0.09444603 0.17976935 0.02821435 0.1917774 -0.2681442 -0.12135616 -0.13246636 0.1425912
-0.065591805 -0.048143737 0.17426428 -0.12576821 -0.15092428 -0.11647508 -0.1686681 0.19361037
0.04252019 -0.20097366 -0.010642572 -0.012320737 -0.11290278 -0.03085594 0.18663754 0.0301553
0.09800014 -0.168322 0.0116508715 0.12973873 -0.27476767 -0.10582293 -0.19326077 -0.085957
-0.15556267 -0.006545083 -0.03587779 0.35157958 0.050519824 0.22326349 0.31350917 -0.12039773
-0.13138567 -0.23240064 -0.11767083 0.1484448 0.2295744 -0.23463628 -0.051561613 -0.05684497
-0.16411535 -0.31691685 0.010839283 0.064804256 -0.17869222 -0.114624 -0.13476105 -0.095647626
-0.20744008 0.08264258 0.005372883 0.051046837 0.020303087 0.31230128 0.1257276 -0.09417687
0.0054279473 0.12165418 0.045808107 -0.024780381 -0.03935992 -0.115618706 -0.07902298 0.048277494
0.05839727 0.11526221 0.091234244 -0.088418305 0.16003177 0.013854685 -0.109437466 0.1848191
0.19021308 -0.019046381 0.2291888 -0.0843882 -0.10824369 0.20573239 0.11187537 -0.18893054
0.27926353 0.21523243 0.0041726725 -0.017895885 -0.15305755 0.07717226 -0.1184754 -0.026350867
-0.02572717 -0.10636736 -0.058178425 -0.07317336 -0.08605226 -0.21386826 0.0020029664 -0.30555558
-0.07895455 -0.09367625 0.09210877 0.10100104 0.22432043 -0.18964064 -0.16809183 0.111187026
-0.19311635 0.10760775 -0.08326078 0.087986335 -0.15664253 0.082027994 0.13026772 -0.02517719
-0.19068576 -0.1589953 -0.025392547 -0.03298953 0.091797486 -0.3124373 0.12501717 -0.17738679
0.25693515 0.14120287 -0.22754729 0.040061202 0.13374773 0.03645788 -0.0131996665 0.14145763
-0.16178197 0.19179656 0.028303677 -0.12423141 0.09978553 0.15759711 -0.12826788 0.2243254
0.0961644 0.21730152 0.08069524 -0.0037530907 -0.10304009 -0.024054676 0.20866959 -0.37238157
0.008507025 0.050545108 -0.032088738 -0.1025192 -0.0549252 0.075589955 0.05217263 0.21817745
0.036838453 -0.06774962 0.115501635 0.0971977 0.09670829 0.12036994 -0.18603253 0.21519184
-0.11676923 0.18778512 -0.014476613 -0.010382859 0.048547767 -0.08512473 -0.33173826 0.042556465
00000000: c034 32be 91e6 6d3d bc46 b43d 8e48 d9bc
00000010: 40dd cf3d ac92 b6bd 5f8e 9dbd 913c 6bbd
00000020: 627c eebc eb35 4bbe b64e ea3d 05b5 803e
00000030: e446 7cbc 1735 47bd fab0 233e 0cc2 9d3d
00000040: e797 f63d 76e3 d43d 2b05 613e fd70 84be
00000050: 314f 713e 586d 003e 29c3 82bd 4613 683e
00000060: 3d24 2d3e 49f7 00be cc89 ec3d 46d7 14be
00000070: b890 003d 2f01 6a3d a13c 35be d615 36bd
00000080: 3861 82bd 4adb 9bbc 7f8e 14be d076 ae3d
00000090: 2c52 4cbe 1b26 01be af4b 5abd 673a d1bc
000000a0: e43b cebd 9a02 6abe 4c6f b1bc 4157 493e
000000b0: 27bd 12bd 5d08 d3bd 0c96 403e bafa 383e
000000c0: 606b 2dbe 6895 013e 704d e4bd 6d2c 62be
000000d0: f5f2 71be 09d9 efbd 62a1 8cbe 93dc 8abd
000000e0: 4e55 87be 9541 16bd 1b20 023e 4c30 053e
000000f0: 6174 f8bd 3a2c 93bd 0fd8 a8bd 623f 22bd
00000100: ad70 163e 2135 ec3d 9070 f43c 9a8b 30bd
00000110: 8e4a 723e 1bcd f23d 26ec 89be 5dca df3e
00000120: 1f12 d93c ab7d 183e c76e 083e 104d 87bd
00000130: 161a f23d 05cf b4bd a226 703e 0d19 fd3d
00000140: ec6c c1bd 7515 383e c821 e73c 4b61 443e
00000150: 324a 89be 9489 f8bd 43a5 07be 6d03 123e
00000160: ff54 86bd 5e32 45bd 5672 323e 62c9 00be
00000170: e58b 1abe 7d8a eebd 55b7 2cbe cc41 463e
00000180: a729 2e3d 0acc 4dbe 2f5e 2ebc ebdc 49bc
00000190: 9339 e7bd 99c5 fcbc e91d 3f3e 3f08 f73c
000001a0: 4cb4 c83d 9a5c 2cbe 4ce3 3e3c 3bda 043e
000001b0: 59ae 8cbe b1b9 d8bd 27e6 45be 390a b0bd
000001c0: d24b 1fbe 2378 d6bb 97f4 12bd 3d02 b43e
000001d0: e0ed 4e3d 2f9f 643e 4684 a03e 1693 f6bd
000001e0: f789 06be 6ffa 6dbe 67fd f0bd ea01 183e
000001f0: 8d15 6b3e 7e44 70be 4532 53bd 45d6 68bd
00000200: db0d 28be ed42 a2be 3f97 313c 18b8 843d
00000210: 18fb 36be fdbf eabd cdfe 09be e7e2 c3bd
00000220: 2c6b 54be 8340 a93d 020f b03b 7d16 513d
00000230: a952 a63c f4e5 9f3e bcbe 003e cedf c0bd
00000240: ecdc b13b d425 f93d 48a1 3b3d 3a00 cbbc
00000250: de37 21bd 80c9 ecbd cdd6 a1bd 9fbe 453d
00000260: fa31 6f3d 980e ec3d 05d9 ba3d a814 b5bd
00000270: 5edf 233e c3fe 623c c020 e0bd 3841 3d3e
00000280: 38c7 423e 2807 9cbc 78b0 6a3e b8d3 acbd
00000290: deae ddbd 83ab 523e ea1e e53d 0277 41be
000002a0: a1fb 8e3e e465 5c3e eaba 883b 649a 92bc
000002b0: 1ebb 1cbe 7d0c 9e3d 3ba3 f2bd c6dd d7bc
000002c0: c9c1 d2bc 21d7 d9bd 804c 6ebd eadb 95bd
000002d0: 2b3c b0bd 4800 5bbe 3344 033b c871 9cbe
000002e0: ecb2 a1bd 55d9 bfbd 86a3 bc3d a2d9 ce3d
000002f0: 41b4 653e 2831 42be 4420 2cbe 06b6 e33d
00000300: 4bc0 45be 7461 dc3d a184 aabd 2e32 b43d
00000310: e666 20be 4bfe a73d e764 053e 6540 cebc
00000320: 2143 43be aacf 22be 0804 d0bc 0820 07bd
00000330: 5200 bc3d c8f7 9fbe 8004 003e e2a4 35be
00000340: 018d 833e 7c97 103e 2802 69be 3717 243d
00000350: 2af5 083e dc54 153d 6a43 58bc 45da 103e
00000360: 2caa 25be 5166 443e 1ddd e73c 0a6d febd
00000370: 5b5c cc3d 2361 213e a858 03be 8fb5 653e
00000380: d7f1 c43d 4a84 5e3e 8c43 a53d 6af6 75bb
00000390: af06 d3bd 500e c5bc 7bad 553e cca8 bebe
000003a0: 0d61 0b3c 6308 4f3d 7b6f 03bd 96f5 d1bd
000003b0: 3ff9 60bd e8ce 9a3d f8b2 553d e969 5f3e
000003c0: ebe3 163d 50c0 8abd 1f8c ec3d 960f c73d
000003d0: ff0e c63d 8484 f63d 507f 3ebe 405b 5c3e
000003e0: b524 efbd be4a 403e 512f 6dbc de1c 2abc
000003f0: 06da 463d e055 aebd 99d9 a9be b04f 2e3d

hiden_layers.1.bias f4 [64]
-0.050425064 0.021895234 -0.06720941 0.09196655 -0.1256145 0.105324864 0.059861623 -0.064394295
0.08920914 -0.1039555 0.057585523 0.15639083 0.00077891286 -0.050112247 -0.31508508 -0.050986223
-0.13002492 -0.07274711 -0.056467 0.16867097 0.009717534 -0.22291781 -0.11167056 0.08006071
-0.011170416 -0.11789496 0.049900245 0.045587678 -0.067217104 0.08701639 -0.024309054 0.03199782
-0.026875189 0.11502494 -0.07188632 -0.13016066 0.10606511 -0.0036286484 0.12238595 0.1567324
-0.11507277 0.1624798 -0.05143423 0.13290267 -0.37143174 0.12786458 0.108160995 0.0011862954
-0.20462576 -0.021247573 -0.025151525 0.062440395 -0.04227133 0.0893857 -0.1068219 -0.12734872
0.08048796 0.044579837 -0.14526792 -0.008255591 -0.073467456 0.1190236 0.059394952 0.03403365
00000000: 838a 4ebd a25d b33c 16a5 89bd f558 bc3d
00000010: 16a1 00be 90b4 d73d 7631 753d 28e1 83bd
00000020: 48b3 b63d 9fe6 d4bd ccde 6b3d eb24 203e
00000030: f52f 4c3a 8042 4dbd d552 a1be eed6 50bd
00000040: 4125 05be 70fc 94bd f149 67bd 15b8 2c3e
00000050: 4b36 1f3c 9144 64be 89b3 e4bd dff6 a33d
00000060: 1f04 37bc ea72 f1bd 3364 4c3d 25ba 3a3d
00000070: 1fa9 89bd a635 b23d c823 c7bc 2510 033d
00000080: 5b29 dcbc 3292 eb3d 2339 93bd d648 05be
00000090: aa38 d93d 9ece 6dbb 7ca5 fa3d 757e 203e
000000a0: 46ab ebbd 1b61 263e b3ac 52bd a317 083e
000000b0: 4d2c bebe efee 023e 8383 dd3d 787d 9b3a
000000c0: 6a89 51be 640f aebc 920a cebc 80c1 7f3d
000000d0: b424 2dbd da0f b73d 71c5 dabd b467 02be
000000e0: dfd6 a43d 5999 363d 1dc1 14be 7542 07bc
000000f0: 1b76 96bd a5c2 f33d 1f48 733d de66 0b3d

hiden_layers.2.weight f4 [64, 64]
0.17350265 0.102823004 0.039094377 -0.009987386 -0.07363201 -0.054783102 -0.12080341 -0.11817113
0.10078868 0.09281307 0.09108061 0.1418059 0.13423464 0.22247311 -0.03962469 -0.13843502
-0.007687792 -0.061965298 -0.014949404 0.6251173 0.31783065 0.024170673 0.043260228 0.06418737
-0.15076157 0.05796852 0.37999707 -0.15221305 -0.15355259 0.15105069 0.23239194 0.25010943
0.12594604 0.5191899 0.18212053 0.09897689 0.102846056 0.0114432825 -0.103733726 -0.042195935
-0.1258972 0.10891244 -0.17329699 0.064863905 0.026864216 0.016273467 0.1781625 0.041988
0.09235812 -0.14250624 0.23444076 0.039315067 -0.015263778 0.08201959 0.109934546 -0.4447053
-0.031939887 0.044362992 -0.16884817 -0.014550847 -0.06255224 0.084304094 -0.004283373 0.09132344
0.2234676 0.03773013 -0.07913293 -0.06482521 0.5379775 0.24742019 -0.0251005 -0.026199449
-0.07839902 -0.11391404 -0.13288817 -0.30340093 -0.31158143 -0.27540544 -0.19747202 -0.061097324
-0.16375053 -0.018268684 -0.028821172 0.084073104 0.24297272 0.43702078 0.23425403 0.023035174
-0.101651415 0.7363647 0.08916356 -0.19373363 0.12090216 0.13204592 -0.07195868 -0.0050747963
0.23162784 -0.06308596 0.11734557 0.07846861 -0.048369054 -0.02919669 -0.28278184 0.03217495
0.2909988 -0.1340692 0.15900762 -0.28412047 0.1436965 0.0030985645 -0.19875555 -0.22929026
0.37248382 0.038776025 -0.06335618 0.3397348 -0.062173642 0.2990907 -0.012664147 0.03961279
0.07794978 -0.12527248 0.10469021 -0.22130662 -0.21359448 0.018921457 0.29613015 0.12401884
0.019369068 -0.09244725 -0.052226778 -0.2299016 -0.16314906 -0.0230532 -0.20327812 0.051173955
0.030991761 0.0650439 -0.12877984 -0.18592086 -0.03606981 0.20967147 0.03102316 0.08606585
-0.2628093 -0.047692686 0.11819221 0.3269752 0.11400057 -0.112528645 0.10489612 -0.14826675
-0.39054352 0.11180638 0.52637064 0.10904903 -0.21127562 -0.1925824 0.15111722 0.12071585
-0.22424823 0.073595904 0.02946364 0.061833024 0.015742507 0.022231188 -0.0012746789 -0.013179609
-0.05989816 0.007811624 -0.07803091 -0.19867729 -0.01126103 0.043538034 -0.082214236 0.058567695
0.13177839 -0.31051907 -0.10415549 0.03365335 -0.024933059 -0.071907505 0.15368113 -0.41265923
0.13284819 -0.17524706 -0.024208724 0.037453223 0.020197004 0.011156505 0.026973514 0.015677715
-0.22264396 -0.07818806 -0.19778332 -0.06757585 -0.12219026 0.18576886 -0.089799166 0.11337369
0.00803417 -0.12226125 0.040124867 0.11010931 -0.15685461 0.0534477 0.039488524 -0.020082194
0.119054094 -0.011285604 0.15708613 -0.09946771 0.09579174 0.097433954 0.10011047 -0.27386418
0.08938409 -0.13612893 -0.19326359 0.033272214 0.16420855 0.05519527 0.10148958 -0.2685219
0.098585665 -0.038556527 -0.31857497 0.1886221 0.22077104 0.15424864 0.053250514 0.025371797
0.112169474 0.10033473 -0.043852024 0.25378442 -0.01731374 -0.029176762 0.04614873 -0.22005889
0.022239128 0.25664014 -0.06613332 -0.18330164 0.013864122 0.20015033 -0.22234547 0.09659601
0.21208793 -0.14693397 -0.1469393 -0.09489993 -0.09975163 -0.25253868 -0.15336601 0.24183175
00000000: aeaa 313e de94 d23d 6d21 203d 22a2 23bc
00000010: 61cc 96bd 3f64 60bd c767 f7bd b503 f2bd
00000020: 4c6a ce3d c714 be3d 7988 ba3d 9135 113e
00000030: ce74 093e fecf 633e 804d 22bd e9c1 0dbe
00000040: e0e9 fbbb 53cf 7dbd 58ee 74bc b007 203f
00000050: b3ba a23e 9301 c63c a331 313d ab74 833d
00000060: 3e61 1abe 6670 6d3d fa8e c23e bddd 1bbe
00000070: e43c 1dbe 08ad 1a3e 27f8 6d3e 580e 803e
00000080: 00f8 003e a1e9 043f ce7d 3a3e 65b4 ca3d
00000090: f4a0 d23d 9b7c 3b3c 5972 d4bd a5d5 2cbd
000000a0: 32eb 00be 7c0d df3d c474 31be 5ed7 843d
000000b0: 5812 dc3c ef4f 853c 3b70 363e 9cfb 2b3d
000000c0: 4126 bd3d 28ed 11be 3d11 703e d608 213d
000000d0: ed14 7abc e3f9 a73d 5d25 e13d 6ab0 e3be
000000e0: 66d3 02bd f8b5 353d 89e6 2cbe ad66 6ebc
000000f0: 641b 80bd a0a7 ac3d 895b 8cbb c907 bb3d
00000100: b1d4 643e e98a 1a3d 7210 a2bd 14c3 84bd
00000110: e5b8 093f b85b 7d3e 909f cdbc 3aa0 d6bc
00000120: aa8f a0bd c44b e9bd d613 08be 5e57 9bbe
00000130: 9a87 9fbe f101 8dbe 1b36 4abe 3041 7abd
00000140: 38ae 27be 35a8 95bc 611a ecbc 852e ac3d
00000150: d7cd 783e 30c1 df3e 4ae0 6f3e 43b4 bc3c
00000160: 9e2e d0bd 6682 3c3f 629b b63d 1c62 46be
00000170: 8d9b f73d 0c37 073e 135f 93bd 7a4a a6bb
00000180: d92f 6d3e 3633 81bd e052 f03d 27b4 a03d
00000190: a11e 46bd e62d efbc c8c8 90be e1c9 033d
000001a0: cbfd 943e 7049 09be e5d2 223e 3d78 91be
000001b0: 2d25 133e 4911 4b3b 9386 4bbe 11cb 6abe
000001c0: 33b6 be3e 9cd3 1e3d e3c0 81bd b8f1 ad3e
000001d0: caa9 7ebd 6b22 993e 487d 4fbc 0541 223d
000001e0: 22a4 9f3d 6e47 00be d267 d63d 349e 62be
000001f0: 83b8 5abe 2c01 9b3c 5f9e 973e 97fd fd3d
00000200: e1ab 9e3c fc54 bdbd bfeb 55bd 536b 6bbe
00000210: 8c10 27be 11da bcbc 2428 50be c89b 513d
00000220: 6fe2 fd3c bc35 853d ddde 03be 0a62 3ebe
00000230: f0bd 13bd 1eb4 563e 4824 fe3c 4b43 b03d
00000240: f18e 86be 6859 43bd c20e f23d 4b69 a73e
00000250: 2179 e93d 6b75 e6bd c7d3 d63d 3dd3 17be
00000260: 52f5 c7be befa e43d 3ac0 063f 1955 df3d
00000270: a358 58be 5234 45be 79be 1a3e df39 f73d
00000280: 54a1 65be 73b9 963d bb5d f13c a044 7d3d
00000290: 6ef6 803c 2e1e b63c 2013 a7ba 49ef 57bc
000002a0: c657 75bd a7f8 ff3b abce 9fbd 0f72 4bbe
000002b0: 2f80 38bc f054 323d f05f a8bd aee4 6f3d
000002c0: eaf0 063e 5bfc 9ebe 794f d5bd 18d8 093d
000002d0: 6a40 ccbc 3e44 93bd 965e 1d3e 1248 d3be
000002e0: 5b09 083e f773 33be 6051 c6bc 8d68 193d
000002f0: 3074 a53c c6c9 363c 8ff7 dc3c 8d6e 803c
00000300: c7fc 63be 1021 a0bd b687 4abe 3565 8abd
00000310: e33e fabd 313a 3e3e a0e8 b7bd 7730 e83d
00000320: c0a1 033c 1b64 fabd f959 243d fd80 e13d
00000330: 7f9e 20be faeb 5a3d b8be 213d 6a83 a4bc
00000340: a2d2 f33d 41e7 38bc 30db 203e bab5 cbbd
00000350: 762e c43d 748b c73d b806 cd3d ed37 8cbe
00000360: 010f b73d 6265 0bbe e4e6 45be 7248 083d
00000370: 4926 283e 6f14 623d c5d9 cf3d b47b 89be
00000380: 48e7 c93d 73ed 1dbd 421c a3be 2726 413e
00000390: ce11 623e 5bf3 1d3e 361d 5a3d 84d8 cf3c
000003a0: 1cb9 e53d 4c7c cd3d 2e9e 33bd 08f0 813e
000003b0: 8bd5 8dbc 1b04 efbc 7306 3d3d 1e57 61be
000003c0: d52e b63c 5666 833e e870 87bd 6db3 3bbe
000003d0: 5826 633c 35f4 4c3e 88ae 63be 21d4 c53d
000003e0: 942d 593e dc75 16be 4177 16be e55a c2bd
000003f0: 954a ccbd c04c 81be fb0b 1dbe bea2 773e

hiden_layers.2.bias f4 [64]
0.015764415 -0.2768842 -0.06624663 0.08679703 0.0013312134 -0.12771648 0.09335084 0.026182069
0.008455365 -0.06982989 0.08709574 -0.018441807 -0.0021081236 0.16665994 -0.036612395 -0.15486662
0.0752656 -0.060876265 0.016590124 0.10654251 -0.051629998 0.026794547 -0.18321112 0.014742883
0.250735 -0.13769728 -0.022344053 0.05620907 0.99274856 -0.028579598 -0.1746206 0.07391104
-0.069394335 0.13285379 0.10371504 0.07062145 0.08583371 0.1927679 -0.10356358 0.09315908
-0.031026762 -0.12874031 -0.100206874 -0.03648099 -0.079727314 0.1100966 0.1530606 -0.053148028
-0.003976494 -0.03699845 0.010391931 -0.016385201 -0.03025962 -0.088170856 -0.084615946 0.076796755
-0.11608971 -0.109183766 0.067677304 -0.22789203 1.214695 -0.0004935299 0.04677321 0.054626003
00000000: 6024 813c c4c3 8dbe 50ac 87bd a4c2 b13d
00000010: 1c7c ae3a 1cc8 02be ba2e bf3d c77b d63c
00000020: 5f88 0a3c f902 8fbd 405f b23d 4613 97bc
00000030: 7228 0abb e7a8 2a3e e1f6 15bd 5b95 1ebe
00000040: da24 9a3d 6459 79bd 03e8 873c f632 da3d
00000050: fa79 53bd 3d80 db3c b29b 3bbe 228c 713c
00000060: 5760 803e 8400 0dbe e00a b7bc 7b3b 663d
00000070: c524 7e3f c31f eabc becf 32be ac5e 973d
00000080: 9e1e 8ebd d30a 083e 8d68 d43d fba1 903d
00000090: 96c9 af3d f364 453e 2419 d4bd 30ca be3d
000000a0: d62b febc 80d4 03be 4339 cdbd 176d 15bd
000000b0: 1348 a3bd 547a e13d ebbb 1c3e bfb1 59bd
000000c0: 404d 82bb b08b 17bd eb42 2a3c 423a 86bc
000000d0: 06e3 f7bc ec92 b4bd 204b adbd 9e47 9d3d
000000e0: 71c0 edbd bd9b dfbd 669a 8a3d 875c 69be
000000f0: 207b 9b3f 3b60 01ba 4495 3f3d 84bf 5f3d

hiden_layers.3.weight f4 [64, 64]
0.011387149 0.1079003 0.06401742 0.068023056 0.11818677 -0.07405825 -0.041489873 0.15575708
-0.0924342 -0.06189677 0.087962076 0.00028972543 0.2694226 0.08339392 0.31043097 -0.13280691
0.005259489 -0.058191545 -0.052000195 0.11989796 -0.056988668 0.09553919 0.22236128 0.21838534
0.01818813 -0.09982466 0.17151847 -0.10463252 -0.101314135 0.11778324 -0.10593082 0.04009349
0.17009288 0.15310134 -0.040262237 -0.13945477 -0.15206222 -0.10093508 -0.00990564 0.0033947555
0.0009799369 0.084614545 0.21183503 -0.024752723 0.19989616 -0.09163652 0.080759555 0.091299444
0.03377651 -0.024921333 -0.0068678353 0.07936373 0.1675849 -0.045446064 0.038284916 0.20552453
0.11086262 0.1649559 -0.17736971 -0.1574637 0.029920824 0.05815712 0.16681644 0.19071043
0.07749936 0.021575266 0.11900476 0.19894613 -0.07775551 -0.18378268 0.24044988 0.038944077
-0.20232211 0.30707246 0.34963182 -0.077867456 -0.02425728 0.1246999 -0.16275586 0.12042961
0.3587396 -0.05134168 -0.30658585 -0.22075248 0.09942788 -0.24893333 -0.14595918 0.09218844
0.13102598 0.19697101 -0.27541256 -0.085998684 -0.10991535 -0.10375843 -0.03004853 -0.008798782
0.0048952512 -0.08211734 0.2041699 0.041528307 0.0067753317 -0.2503823 -0.10942283 -0.0001642274
-0.23127034 0.18918593 0.019889316 -0.09178744 -0.066093765 0.36111465 0.13760163 0.08011476
0.037109222 -0.11489964 0.18255992 0.10262509 -0.19362475 0.16623017 -0.14679854 -0.17294487
0.12920775 0.029434182 -0.16086693 0.052254915 -0.049800552 0.20308164 -0.36574984 0.060832758
0.23906858 0.24167931 -0.06410582 -0.050695255 -0.12894717 -0.16851415 0.2288223 0.18810844
-0.1104458 0.034917206 -0.17298923 0.2379604 -0.37901682 0.17822698 -0.083101965 0.041410696
0.05985979 -0.11742479 0.06486515 0.19609275 0.0062523223 -0.03639322 -0.03195955 -0.32103464
0.16604874 0.17245123 -0.20774779 0.15704772 -0.02343612 -0.034858435 0.06420545 -0.05499181
-0.1409875 -0.24697827 0.09536504 0.20033874 0.048606664 -0.08122303 -0.09774732 -0.046962354
-0.18877888 -0.016667949 -0.09246784 0.012117491 0.11591566 -0.08811409 -0.11208458 -0.1450363
-0.026450712 0.1681895 0.1047424 0.020327577 -0.044931237 0.043127835 -0.14398356 0.097449936
0.057198703 0.08349661 -0.052995972 0.16556333 0.020472793 0.016196597 -0.22640124 0.09046209
-0.47932193 -0.023439901 -0.20438194 -0.05181302 0.10832299 0.074021265 0.06041897 -0.14452098
0.040370293 -0.066788465 -0.3015558 0.24976413 0.08515989 -0.05189112 -0.15898782 -0.07115025
-0.0020717538 0.062100485 -0.117092915 -0.2180156 -0.31687284 -0.13586837 -0.13225518 0.14193468
0.109264314 -0.385334 -0.2412634 0.2407329 0.07261593 -0.17830592 0.110013396 -0.07283222
-0.0399002 -0.016861513 0.10781578 -0.0018336436 0.31383157 -0.20785192 0.150045 0.10354181
-0.13061307 0.27190733 0.30820277 -0.10674693 0.093765125 0.024357261 -0.13882293 -0.13155392
0.23736635 -0.14203419 -0.2675721 -0.035190504 0.082002416 0.019198835 -0.07578832 -0.0028919915
0.035157908 -0.17775427 -0.022110537 0.1975745 0.03199782 -0.06742395 0.040215783 -0.17042395
00000000: 2a91 3a3c d5fa dc3d 911b 833d ac4f 8b3d
00000010: e80b f23d daab 97bd 49f1 29bd c97e 1f3e
00000020: 244e bdbd 7887 7dbd 7625 b43d 4ae6 9739
00000030: c2f1 893e 6eca aa3d cff0 9e3e 89fe 07be
00000040: cb57 ac3b 425a 6ebd 28fe 54bd 108d f53d
00000050: f36c 69bd 0daa c33d adb2 633e 68a0 5f3e
00000060: 46ff 943c df70 ccbd 8aa2 2f3e 9349 d6bd
00000070: c97d cfbd 5738 f13d 42f2 d8bd 1239 243d
00000080: d42c 2e3e 99c6 1c3e 04ea 24bd 3bcd 0ebe
00000090: 33b6 1bbe 0db7 cebd 444b 22bc 8c7a 5e3b
000000a0: 3a71 803a 644a ad3d 48eb 583e 39c6 cabc
000000b0: 94b1 4c3e eeab bbbd 4465 a53d 34fb ba3d
000000c0: 3d59 0a3d d327 ccbc 940b e1bb 7489 a23d
000000d0: 609b 2b3e a725 3abd a5d0 1c3d 0675 523e
000000e0: f10b e33d 33ea 283e 68a0 35be 2a3e 21be
000000f0: 841c f53c 2936 6e3d eed1 2a3e 9849 433e
00000100: fcb7 9e3d 9dbe b03c c5b8 f33d 89b8 4b3e
00000110: 483e 9fbd 8731 3cbe 7e38 763e d383 1f3d
00000120: 872d 4fbe 9a38 9d3e f102 b33e f978 9fbd
00000130: 34b7 c6bc a962 ff3d 79a9 26be cda3 f63d
00000140: b8ac b73e a74b 52bd d2f8 9cbe f00c 62be
00000150: d8a0 cb3d 61e8 7ebe 5376 15be 4bcd bc3d
00000160: ad2b 063e c5b2 493e e002 8dbe 1420 b0bd
00000170: 4d1b e1bd 4d7f d4bd 5628 f6bc c428 10bc
00000180: 5868 a03b 232d a8bd ea11 513e 9619 2a3d
00000190: 9a03 de3b 1c32 80be 1419 e0bd 7534 2cb9
000001a0: 22d2 6cbe f5b9 413e ebee a23c 0efb bbbd
000001b0: 2b5c 87bd 05e4 b83e 71e7 0c3e 3513 a43d
000001c0: d7ff 173d 8150 ebbd fdf0 3a3e 1a2d d23d
000001d0: 9145 46be 3e38 2a3e 5b52 16be 7618 31be
000001e0: 094f 043e f41f f13c 4dba 24be 4009 563d
000001f0: aafb 4bbd a2f4 4f3e 9043 bbbe c52b 793d
00000200: 65ce 743e c87a 773e ea49 83bd d4a5 4fbd
00000210: ba0a 04be f98e 2cbe 6550 6a3e 809f 403e
00000220: 6831 e2bd 5805 0f3d 1724 31be e4ab 733e
00000230: 7e0e c2be 2281 363e 5d31 aabd 439e 293d
00000240: 8a2f 753d 697c f0bd 05d8 843d 8acc 483e
00000250: 48e0 cc3b 0f11 15bd 04e8 02bd a75e a4be
00000260: ae08 2a3e 0e97 303e d6bb 54be 1ed1 203e
00000270: 1bfd bfbc b8c7 0ebd 267e 833d 183f 61bd
00000280: 075f 10be dfe7 7cbe bf4e c33d 9925 4d3e
00000290: c817 473d 4358 a6bd bf2f c8bd 995b 40bd
000002a0: 404f 41be 398b 88bc c75f bdbd 7188 463c
000002b0: 3165 ed3d 2975 b4bd 9a8c e5bd 6584 14be
000002c0: 2aaf d8bc de39 2c3e 2f83 d63d 0586 a63c
000002d0: d109 38bd d0a6 303d 6d70 13be d593 c73d
000002e0: 3049 6a3d 4500 ab3d 4e12 59bd 6f89 293e
000002f0: 8fb6 a73c baae 843c bad5 67be 3044 b93d
00000300: af69 f5be 0905 c0bc 8049 51be e439 54bd
00000310: 72d8 dd3d 7698 973d e279 773d 4ffd 13be
00000320: 525b 253d 64c8 88bd 8665 9abe 2bc2 7f3e
00000330: 4f68 ae3d c88b 54bd b4cd 22be 39b7 91bd
00000340: 43c6 07bb 145d 7e3d 69ce efbd 7b3f 5fbe
00000350: 283d a2be 1421 0bbe e76d 07be 5357 113e
00000360: f8c5 df3d 804a c5be c10d 77be af82 763e
00000370: a9b7 943d d495 36be b44e e13d 0f29 95bd
00000380: 646e 23bd 2821 8abc 85ce dc3d df56 f0ba
00000390: 88ae a03e 22d7 54be 65a5 193e ba0d d43d
000003a0: 6fbf 05be 7037 8b3e c1cc 9d3e 229e dabd
000003b0: ee07 c03d e188 c73c 9927 0ebe 12b6 06be
000003c0: 2a10 733e 6971 11be 36ff 88be eb23 10bd
000003d0: e2f0 a73d e046 9d3c e836 9bbd 9187 3dbb
000003e0: bd01 103d 3705 36be 2821 b5bc f850 4a3e
000003f0: 2510 033d 9115 8abd 4eb9 243d 9e83 2ebe

hiden_layers.3.bias f4 [64]
0.03384323 -0.06713419 -0.03462251 0.0636767 0.013032751 -0.12659416 -0.3632416 -0.087346956
-0.12761764 0.032952156 -0.027213395 -0.04866162 -0.15181929 -0.20204398 -0.058518063 0.036799777
0.037321102 0.14880252 -0.047195185 -0.22047305 0.022888599 0.22375426 -0.049012456 0.08107308
-0.11480789 0.05704312 0.11934275 -0.017001316 0.057034016 0.021830749 0.10957158 -0.30031005
0.078941055 -0.01847984 0.056991883 -0.03516233 -0.12324864 0.11606726 0.12065866 0.03690331
0.22683872 0.12596044 -0.19171923 0.6099989 0.26391068 0.25263488 0.1200158 0.07404595
-0.033924248 -0.041216157 -0.08048555 -0.05016746 0.07180245 0.14859684 -0.029242814 0.02873836
-0.03773235 0.007554872 -0.26288489 0.07230062 -0.023108566 0.028785642 -0.20003965 0.13764706
00000000: 339f 0a3d a67d 89bd 55d0 0dbd ee68 823d
00000010: 5287 553c e6a1 01be cefa b9be f6e2 b2bd
00000020: 33ae 02be d7f8 063d a0ee debc 6851 47bd
00000030: 8476 1bbe 9ee4 4ebe a3b0 6fbd 5dbb 163d
00000040: 03de 183d b05f 183e bd4f 41bd b0c3 61be
00000050: df80 bb3c d61f 653e 49c1 48bd a509 a63d
00000060: 6620 ebbd 0ca6 693d f969 f43d 5846 8bbc
00000070: 809c 693d 66d6 b23c 1167 e03d 3dc2 99be
00000080: d9ab a13d 0963 97bc 5270 693d 6006 10bd
00000090: c869 fcbd acb4 ed3d e31b f73d ed27 173d
000000a0: 6948 683e c6fb 003e 0c52 44be e328 1c3f
000000b0: 4d1f 873e 5c59 813e d8ca f53d 67a5 973d
000000c0: 27f4 0abd 46d2 28bd 9cd5 a4bd 657c 4dbd
000000d0: 2a0d 933d c529 183e a08e efbc b66c eb3c
000000e0: 3d8d 1abd dc8e f73b d998 86be 5912 943d
000000f0: 2d4e bdbc decf eb3c 32d7 4cbe 5af3 0c3e

hiden_layers.4.weight f4 [64, 64]
-0.19891748 -0.111706816 0.12791397 -0.017383048 -0.11984009 0.27390534 -0.02886836 0.06293974
0.052624706 0.060386978 0.33742395 0.016195659 -0.059433665 0.0024861798 0.1760016 -0.06342617
-0.184843 0.07047823 0.09377051 -0.1780425 0.15149748 0.23440216 -0.013265012 -0.05980534
-0.16806805 -0.032620788 -0.04709372 -0.006541971 0.19987802 -0.017337454 -0.035503868 -0.014250698
-0.09302309 0.12947969 0.0042388793 -0.0042378833 0.06675256 0.14642453 0.16184588 -0.011494561
0.0053626015 0.19365203 -0.21024975 0.22800441 -0.118702896 -0.009335294 0.19298062 0.18478459
0.022722043 -0.034300674 -0.24463826 -0.114909425 -0.050072312 -0.022923194 0.028782828 0.0040420205
0.27413222 -0.18758647 -0.012756981 0.17901723 -0.094756246 -0.16532412 -0.037283212 0.031566143
0.011044245 0.10953116 0.092652895 -0.053013872 -0.06306921 0.09649413 0.13588849 0.15487868
0.12672997 0.07358386 0.10095876 0.061614856 0.32200253 -0.007130555 -0.0085039595 0.11645601
-0.20786878 0.058728117 0.023093494 0.058104508 -0.23433216 -0.27368626 -0.22420554 -0.07083475
0.2516638 -0.038658787 -0.13950652 -0.043917805 -0.19674897 -0.13232887 -0.15136766 -0.23744453
0.02298627 0.026966244 -0.32203653 0.10703969 -0.0026298945 0.019791685 -0.0460015 0.15419646
0.058784835 -0.20724271 0.09139813 -0.143577 -0.11641033 -0.13167033 0.021784615 0.071855985
0.3091818 0.03306582 -0.107335426 0.03489364 0.09192132 -0.19141206 -0.031067211 0.07866567
0.11688505 0.023535792 0.04718265 -0.109401524 -0.058712665 -0.045061212 -0.050259512 -0.059256144
-0.29494002 0.114794865 0.10350073 -0.24521291 0.05740309 0.05859106 0.023395713 0.004660574
-0.012256413 -0.16753201 0.38785556 -0.039198767 0.11768723 0.13652574 0.008333516 -0.058522176
-0.16838743 -0.048455816 0.043123826 0.18669342 -0.08570378 0.05817589 0.093254186 -0.23111431
0.06093013 0.0110069765 -0.1228108 0.050603475 -0.18760578 0.12867321 0.02080912 0.0012054363
0.11312201 0.035038732 0.253361 -0.25004175 -0.08153313 0.13217926 -0.021999525 -0.23321322
-0.091002636 0.35317957 0.030898787 -0.08740495 0.045693908 0.038081393 -0.045027602 0.04781912
-0.053104635 0.14625354 0.25491813 0.16206774 0.22969188 -0.1183481 -0.16883147 0.041182123
0.22724816 -0.06890924 0.12497161 -0.16282624 0.14523318 0.25952575 0.16277047 0.14250149
-0.15131386 0.3919337 0.17892845 0.1478165 -0.19085282 0.0049087056 -0.027619796 -0.18643716
-0.04280117 -0.21575288 -0.108047485 0.06960857 -0.14651233 0.2079951 -0.032187108 0.16731629
0.0771675 -0.2597455 -0.2967954 -0.14504708 -0.05852225 -0.1888261 0.135166 0.085204005
-0.2524661 0.26040208 0.08457433 0.17638154 -0.11932935 -0.055865087 0.00044021662 -0.15302505
0.075370416 -0.1627838 -0.09047963 0.04091779 0.061705828 0.026890207 -0.043205578 0.11203728
-0.17712715 0.027092893 -0.041923072 -0.04603922 -0.17028809 0.18196075 0.009682945 -0.028221132
0.016401116 -0.014356818 -0.07928167 0.094850875 -0.013513468 -0.20036384 -0.049870867 -0.24187112
0.004772559 0.16950352 -0.14028215 -0.07412918 -0.021590682 0.054211255 0.06263752 0.037493173
00000000: 06b1 4bbe 8bc6 e4bd e1fb 023e e566 8ebc
00000010: b96e f5bd 523d 8c3e 577d ecbc 8de6 803d
00000020: 018d 573d 5658 773d d5c2 ac3e c2ac 843c
00000030: b770 73bd 2def 223b c339 343e 94e5 81bd
00000040: 7c47 3dbe e456 903d c10a c03d c650 36be
00000050: 2822 1b3e 1f07 703e 7e55 59bc 72f6 74bd
00000060: 081a 2cbe 609d 05bd 58e5 40bd 085e d6bb
00000070: d3ac 4c3e 4707 8ebc 816c 11bd c27b 69bc
00000080: e482 bebd 5396 043e 4ce6 8a3b f1dd 8abb
00000090: 91b5 883d 50f0 153e edba 253e af53 3cbc
000000a0: c3b8 af3b b84c 463e b64b 57be fd79 693e
000000b0: 811a f3bd 10f3 18bc b69c 453e 2c38 3d3e
000000c0: 9423 ba3c dd7e 0cbd 7482 7abe a255 ebbd
000000d0: a018 4dbd 6cc9 bbbc f7c9 eb3c ed72 843b
000000e0: 0f5b 8c3e ab16 40be a802 51bc 4b50 373e
000000f0: 900f c2bd ba4a 29be 48b6 18bd 804b 013d
00000100: ecf2 343c df51 e03d cdc0 bd3d 1325 59bd
00000110: 6e2a 81bd b79e c53d 5a26 0b3e 8498 1e3e
00000120: 80c5 013e 23b3 963d 77c3 ce3d dc5f 7c3d
00000130: 84dd a43e 6ea7 e9bb 3154 0bbc 7d80 ee3d
00000140: 8edb 54be e58c 703d 912e bd3c fefe 6d3d
00000150: c5f4 6fbe 9b20 8cbe 2396 65be cf11 91bd
00000160: 14da 803e ad58 1ebd ccda 0ebe 28e3 33bd
00000170: 9078 49be 3881 07be 2000 1bbe a924 73be
00000180: b44d bc3c 50e8 dc3c f9e1 a4be a037 db3d
00000190: 4f5a 2cbb 2c22 a23c 126c 3cbd ade5 1d3e
000001a0: 5ec8 703d 6f37 54be f12e bb3d d905 13be
000001b0: 8a68 eebd 96d4 06be a675 b23c 3b29 933d
000001c0: 144d 9e3e 0670 073d add2 dbbd a2ec 0e3d
000001d0: 3f41 bc3d 8601 44be aa80 febc 771b a13d
000001e0: 6e61 ef3d 22ce c03c 9842 413d e80d e0bd
000001f0: b17c 70bd 1b92 38bd ebdc 4dbd 92b6 72bd
00000200: 6102 97be 9219 eb3d 31f8 d33d 1819 7bbe
00000210: 811f 6b3d 2efd 6f3d 5ea8 bf3c bab7 983b
00000220: 1fcf 48bc 838d 2bbe 0195 c63e e38e 20bd
00000230: 0106 f13d 67cd 0b3e 4d89 083c f3b4 6fbd
00000240: c16d 2cbe 9b79 46bd 9ca2 303d 8f2c 3f3e
00000250: 7785 afbd d849 6e3d 0dfc be3d 3ba9 6cbe
00000260: df91 793d 9b56 343c 3b84 fbbd 9745 4f3d
00000270: bb1b 40be e9c2 033e e377 aa3c bbff 9d3a
00000280: 83ac e73d c684 0f3d 88b8 813e 7905 80be
00000290: d7fa a6bd 005a 073e 5938 b4bc 72cf 6ebe
000002a0: 975f babd f4d3 b43e 741f fd3c 5e01 b3bd
000002b0: 8929 3b3d 3cfb 1b3d dd6e 38bd fbdd 433d
000002c0: 3f84 59bd 7dc3 153e a184 823e 16f5 253e
000002d0: 5934 6b3e 7d60 f2bd 28e2 2cbe 96ae 283d
000002e0: beb3 683e 4a20 8dbd 1ef1 ff3d ecbb 26be
000002f0: 02b8 143e 8fe0 843e 4dad 263e e9eb 113e
00000300: 05f2 1abe 89ab c83e 0539 373e 355d 173e
00000310: ec6e 43be 35d9 a03b e942 e2bc 62e9 3ebe
00000320: 4850 2fbd 53ee 5cbe 0048 ddbd f08e 8e3d
00000330: 5407 16be abfc 543e a1d6 03bd f654 2b3e
00000340: ff09 9e3d 5dfd 84be 91f5 97be 3987 14be
00000350: 07b5 6fbd a15b 41be f568 0a3e 707f ae3d
00000360: 3d43 81be 6c53 853e 4e35 ad3d 5d9d 343e
00000370: f262 f4bd cad2 64bd e0cc e639 99b2 1cbe
00000380: ce5b 9a3d ccb0 26be 624d b9bd 6a99 273d
00000390: 40bf 7c3d da48 dc3c 55f8 30bd cd73 e53d
000003a0: d260 35be eaf1 dd3c 87b7 2bbd 9f93 3cbd
000003b0: 0060 2ebe eb53 3a3e 37a5 1e3c 0130 e7bc
000003c0: a25b 863c dc38 6bbc 6e5e a2bd 2d41 c23d
000003d0: 9867 5dbc 2e2c 4dbe 6545 4cbd 10ad 77be
000003e0: 2063 9c3b 5592 2d3e 20a6 0fbe 0ad1 97bd
000003f0: f1de b0bc 9f0c 5e3d 1a48 803d 7192 193d

hiden_layers.4.bias f4 [64]
0.017845862 -0.10955556 -0.043954827 0.12552997 -0.1322278 0.21144646 0.062832475 0.09627695
-0.089747325 0.08633018 -0.12895142 -0.026653627 0.16462459 -0.12049852 0.049795076 0.24388748
-0.2007859 0.07213995 -0.1026577 0.10948717 -0.04990873 -0.07024644 -0.049534142 0.055239987
0.029835032 -0.1558102 0.07450022 -0.0685769 -0.12278991 0.057930835 -0.13261904 -0.16252606
0.060673837 0.05171493 0.11517677 0.16512692 -0.05872876 -0.0013726247 -0.17493917 -0.0059241503
-0.08202502 -0.13592479 0.013760107 -0.14807549 -0.16399123 0.013026843 -0.19997852 0.057732463
-0.075421825 -0.035581227 -0.11764757 -0.19224657 -0.061171375 0.14036554 0.08135629 0.14702587
0.14837362 -0.29924986 0.05875179 -0.019330842 -0.11871553 0.13869776 -0.04307451 0.003615238
00000000: 7c31 923c aa5e e0bd fa09 34bd ee8a 003e
00000010: b966 07be 6c85 583e 50ae 803d d92c c53d
00000020: 72cd b7bd e1cd b03d d70b 04be b558 dabc
00000030: 5993 283e eec7 f6bd ecf5 4b3d a4bd 793e
00000040: d29a 4dbe 1cbe 933d 333e d2bd cf3a e03d
00000050: 196d 4cbd 5edd 8fbd 50e4 4abd 5343 623d
00000060: 9968 f43c b68c 1fbe 9293 983d 0c72 8cbd
00000070: 4779 fbbd e248 6d3d 49cd 07be 3b6d 26be
00000080: 2185 783d 09d3 533d cce1 eb3d 0817 293e
00000090: 918d 70bd a4e9 b3ba 4123 33be 601f c2bb
000000a0: bcfc a7bd de2f 0bbe 1272 613c 1aa1 17be
000000b0: 51ed 27be 8a6e 553c 2bc7 4cbe e078 6c3d
000000c0: c276 9abd 9fbd 11bd 36f1 f0bd 49dc 44be
000000d0: d68e 7abd fcbb 0f3e 209e a63d f38d 163e
000000e0: 41ef 173e 4737 99be b8a5 703d b75b 9ebc
000000f0: 2121 f3bd c906 0e3e e66e 30bd a1ed 6c3b
