results/13_less_points_around/epoch10/model_weights.pth (torch, 486655 bytes, 88 tensors)

init_layer.0.weight f4 [64, 5]
00000000: f0ab b7bd a5ed 363e e625 a13e 51d7 82be
00000010: e767 4dbe 61c8 a73e cf0f 903e bd84 9e3e
00000020: 2fa9 88bd 7252 73be 9c65 b0be b66a e23d
00000030: 38b7 90be 180a 8fbe 122e 32be 4377 10be
00000040: 00cc 71be 8163 423e 9944 963e 2ceb cebd
00000050: a079 a3be b246 fbbd 7d6f 12bd 1fa5 213e
00000060: ab55 5e3e 0476 803e be5c 393e 701c a93e
00000070: afa1 373e 826c 5abe 91f4 a23e 2df2 41be
00000080: 32a8 54bd 5314 07be f9a0 8fbe 49d5 17be
00000090: aeda 143e 177e 133e 179e 23be d3ca 813e
000000a0: 3c46 1cbe c96f ddbd acf8 4c3e 2f99 5d3e
000000b0: d632 f9bd 3222 15be 8dba 60be 8e67 f3bd
000000c0: 0b0b f13c 8721 85be 5f19 d6bc 875d 293d
000000d0: 14f7 de3d d390 6c3c 6e50 8d3d 62f6 3cbe
000000e0: b78e 2fbe 877a 8e3e 6973 a33c 1725 25bd
000000f0: daaf 89be 8cc4 62be f91b 813d c1d2 c23d
00000100: 6d12 813e 2084 12be 8c19 16be 0c2c 95bc
00000110: 7f17 613d 0793 653e 5bd4 d83d dfc5 08be
00000120: f71c 0abe e07b 99bc b4af 8fbe 89b8 3cbd
00000130: d25d 483e 1283 973e 08c9 ee3d bbdb 5dbe
00000140: 28ee 6abe dc04 563d 9295 3dbd 1531 113c
00000150: 38de 9e3d a553 803e 4725 2f3e 95d3 e7bd
00000160: d5a7 2a3e 04bc 20be ccda f73c 4aa1 acbc
00000170: 7a9e 89be f646 653e 40fb 1c3e abf6 423e
00000180: 0120 fcbd 1eb9 af3d b7fd 553e 5a71 9a3d
00000190: c687 14be 1f4a a7be e1d4 233d e6ff be3d
000001a0: 1b17 4fbe f089 fdbd b39c 923e 8bf5 d73d
000001b0: 0208 edbd e755 69be 1ab4 523c 1e75 573e
000001c0: 8122 383c 4a02 8abe 5da9 073e cea3 19be
000001d0: ac8e 043e d04f 093e 235d d43d 4722 77be
000001e0: 4b6a 583e d269 63bd 24fd 9c3d 3d53 f13d
000001f0: 27ea 453e ec59 823e 13cb 583e f7d3 8d3d
00000200: 4fc8 523e ca47 963d 6f40 fabd 0709 913e
00000210: aa17 22bd 89b0 99bc d9a1 c63c 0cd3 473e
00000220: a53b e83d d422 32be 9ff3 f63d 7645 133d
00000230: 722b 07be 1354 4f3e 87ed 81be 92bf 913d
00000240: 19ea 363e 0feb 7a3d b4ee 33be b96f c0bc
00000250: 8863 32bd 403c 953d e3f8 9dbe d662 a4bd
00000260: 39e2 6f3d 6d7a 0c3e a621 83be 946d 7abe
00000270: 7671 863e 03bb f73d 69ec 6dbe fc8b fabc
00000280: cc32 8f3e 1605 3cbd 8d17 833e 7caa d63d
00000290: dc97 bb3a 9b12 5ebd 4897 a1be 96a5 f0bd
000002a0: ebc2 2b3d a210 83bc 774d f63d 1210 33be
000002b0: 1113 6fbd ddca 373d e8cb c3bd 9c14 553e
000002c0: 61ba 1a3d 3306 e23d 27f3 8dbe 2121 ee3d
000002d0: 6f65 96be 0b5a b03c 08eb af3d 58de 5d3e
000002e0: bc5c 793e 2d9a 05be 8f89 28be 2fe8 d2bd
000002f0: b94b 37be 5cf6 4cbe 79d2 21be 0160 15be
00000300: ea4b 27be d906 f0bc 3fd8 713d a411 32be
00000310: 1952 6f3e 63e1 db3c 44b9 1ebe 37c3 b03d
00000320: ee9e 913c ae00 2dbe 3867 593e 1185 413e
00000330: 9b32 713d 3517 5a3e 6df6 cb3d 16a1 03be
00000340: a9ad 9c3d dcdb 1b3e ace5 5f3e c92c 243c
00000350: 8673 13be 5448 743e 6c54 89be 4be6 92bd
00000360: 07c4 a13d e6d4 493e 1034 663e 1b1b 183e
00000370: 0338 f0bc 23a6 43bd 6e8f 6bbe bfaf d63c
00000380: 890d 33be 8727 873e 12e4 4ebe cb63 863e
00000390: 5970 86be 8fea 62be 90af 863e 6727 91be
000003a0: 1a98 5dbe 91db 3e3e 2f2d f53d 9345 87be
000003b0: d33b 89bd cd6a 533d c165 d03d 1bdf 7b3e
000003c0: 3252 4d3e 5bb7 fa3d c89f 20be d1e4 2f3e
000003d0: 7d19 93be 9986 063e 48b0 3b39 2a37 8abe
000003e0: b9c1 8ebe 61cc 443e 537f 23be c3c5 a13e
000003f0: 49d8 f6bd bd94 7a3e 6698 a6bd b5ac 87be
-0.08968341 0.17864092 0.31474227 -0.25554898 -0.20059167 0.32770064 0.2813706 0.30960646
-0.06672894 -0.23761919 -0.34452522 0.1105551 -0.28264785 -0.27937388 -0.17400387 -0.14107995
-0.23612976 0.1898327 0.2934921 -0.10103449 -0.3192873 -0.122693434 -0.035750855 0.15785645
0.21712367 0.2509004 0.18101785 0.3302951 0.17932771 -0.21330455 0.31827214 -0.18940039
-0.051918216 -0.13191347 -0.280525 -0.14827456 0.14536545 0.14403568 -0.15978275 0.25350055
-0.15261167 -0.10812337 0.20016736 0.21640466 -0.12167899 -0.14563826 -0.21946163 -0.11884986
0.029424211 -0.26002142 -0.026135145 0.04134896 0.1088697 0.014438826 0.06900106 -0.18453363
-0.17144285 0.27827856 0.019952493 -0.040318575 -0.26891977 -0.22145289 0.063041635 0.09512854
0.2520937 -0.14308214 -0.14658183 -0.01820948 0.05495405 0.22419368 0.105873786 -0.13356732
-0.13487612 -0.018735826 -0.28063738 -0.046074424 0.1956704 0.29592186 0.116594374 -0.21665852
-0.22942412 0.052250728 -0.04628522 0.0088618 0.077572286 0.25063816 0.17104064 -0.11319653
0.16665585 -0.15696722 0.030255698 -0.021073002 -0.2687872 0.2239035 0.1533022 0.19039409
-0.12310792 0.0858023 0.20897566 0.07541151 -0.14504918 -0.32673737 0.03999794 0.093261525
-0.20223658 -0.12379825 0.28635177 0.105448805 -0.11573793 -0.22786675 0.012860322 0.2104077
0.011238695 -0.2695487 0.132482 -0.15003893 0.1294505 0.13409352 0.10369327 -0.2413417
0.21134298 -0.05552084 0.0766547 0.117834546 0.19327603 0.2545923 0.21171217 0.06925195
0.20584224 0.073379114 -0.12219321 0.283272 -0.03957335 -0.018760936 0.024247097 0.19514102
0.11339501 -0.17396098 0.12058186 0.035954915 -0.13200167 0.20246916 -0.2537653 0.07116617
0.17862739 0.061259326 -0.17571527 -0.023490774 -0.04355195 0.072868824 -0.30853948 -0.08026664
0.058565352 0.13718577 -0.2561161 -0.24455863 0.2625844 0.120962165 -0.23234715 -0.030584328
0.27968442 -0.045903288 0.25603905 0.10481736 0.0014312225 -0.054216962 -0.3156073 -0.11750333
0.041933935 -0.015999142 0.12026494 -0.17486599 -0.058367793 0.0448712 -0.095603764 0.20808643
0.0377754 0.11036339 -0.27724573 0.116274126 -0.29374263 0.02152731 0.085897505 0.21666849
0.24351782 -0.13047095 -0.16458724 -0.10298192 -0.1789998 -0.20015854 -0.15802945 -0.14587404
-0.16337553 -0.02930014 0.05904412 -0.17389542 0.23371162 0.026840871 -0.1550036 0.08630984
0.017775979 -0.1689479 0.21230781 0.18898417 0.05888615 0.21297915 0.09959111 -0.12854418
0.076503105 0.15220588 0.21864957 0.010020443 -0.14399537 0.23855716 -0.2682222 -0.07172831
0.078987174 0.1971012 0.22480798 0.1485409 -0.029323583 -0.047765862 -0.23003933 0.02620685
-0.17485632 0.26397344 -0.2020419 0.2624801 -0.2625759 -0.2215979 0.2630582 -0.28350374
-0.21640053 0.18638445 0.11971509 -0.26420268 -0.06700864 0.051615525 0.10175658 0.24596827
0.20050886 0.122420035 -0.15685952 0.1717713 -0.28730384 0.13137282 0.0001789938 -0.26995212
-0.27882174 0.1921859 -0.15966539 0.31596193 -0.12052972 0.24470802 -0.081345364 -0.26498953

init_layer.0.bias f4 [64]
00000000: 1e30 ad3b 47a5 9c3d 04e8 6abd e716 75bd
00000010: 0bee 81bd 9d9d d3bc 02be 083c 64b6 9b3d
00000020: 4dd2 80bd 711b 6fbd c9b2 543d 094f dd3d
00000030: af66 953d def7 6dbd be4a 733c 5896 8cbd
00000040: 4daa 68bd 9f5e dc3a 46aa b4bd 7b47 723d
00000050: 527e 02bc b833 50bd e75b a83d 3c16 b03c
00000060: 2b46 ad3c bd6c 463d 10a6 c73d 4e5d 903d
00000070: b2ed fbbb 4d06 803d 4cfe 3038 a293 623c
00000080: 3b3a af3d ca4f aebd 5e08 eabd c92f e2bc
00000090: b047 03bd 9263 75bc e163 b83d fd96 bd3d
000000a0: 5464 a3bd dd09 ac3c 0457 a13d 7cdf 92bd
000000b0: 1144 a73c 5874 6d3d 6a5d 9f3a 9b03 9c3d
000000c0: aaa8 353d b186 a83d be30 83bd 0c77 8f3d
000000d0: ae5c 833d c760 c03d ef01 083d 98cf 7b39
000000e0: ff90 6cbd d7d5 e33b c19e 3abd 1269 40bd
000000f0: 7d84 14bb 800f 74bd eef9 74bd fd3e aa3c
0.005285277 0.07648712 -0.057350174 -0.059836295 -0.06344231 -0.025831992 0.008346083 0.076031476
-0.06290112 -0.05837578 0.051928315 0.108060904 0.07294976 -0.058097713 0.014849363 -0.06864613
-0.056803036 0.0016812867 -0.088215396 0.0591502 -0.007964687 -0.050830573 0.08220654 0.021494977
0.021151623 0.048443545 0.09748471 0.070490465 -0.0076882476 0.06251202 4.2198502e-05 0.013829144
0.085560285 -0.08511312 -0.11427377 -0.027610676 -0.03205079 -0.014977353 0.090034254 0.09257314
-0.079781204 0.021000797 0.07877925 -0.071715325 0.020418199 0.057972282 0.0012158577 0.07617875
0.044350304 0.08228815 -0.06405781 0.07005128 0.064141616 0.09393459 0.03320497 0.0002401456
-0.057755467 0.006952982 -0.045561556 -0.046975203 -0.0022661977 -0.059585094 -0.059808664 0.020781988

hiden_layers.0.weight f4 [64, 64]
00000000: 39eb e83d 50a1 063e 7586 4f3e 9b16 df3d
00000010: 5f88 30be 2b2d 59bd 0118 53be d67f 203d
00000020: ee36 dc3d 2571 093e c13f 1e3d 99c0 14bd
00000030: 78e9 cdbd f99f 013e df96 29be e642 87bc
00000040: 6d25 b33d 6739 43be 2c87 05be 73f2 c13d
00000050: 69e8 4b3e 3a0a 0ebe d73d 6a3e 8023 14be
00000060: c2b3 efbd 37d8 62bd 94c6 f639 24d7 60be
00000070: 054b 4e3e 684b 26be 6998 2dbe 5f57 0ebd
00000080: 808a 3fbe 282b 06bd 45e7 3c3d 96dd 8d3d
00000090: 1cbf 07be e62a 4b3e 2b08 0f3e c800 683d
000000a0: e52b ad3d fae9 53be 9e58 073d a148 dfbc
000000b0: 57d5 873d 08cf 46be 085c d7bd a30b 963c
000000c0: 7913 083e ca03 063e 64c1 f2bd 0d7e d53d
000000d0: 86c7 063e 04fe af3d ef03 5cbe ccce 14be
000000e0: ee30 4abd 6d7c 7bbd ddb7 45be fae6 68bc
000000f0: 50e6 50be 9395 31bd 5080 913d 2c12 203e
00000100: 56a3 6fbd 5cc7 6abe bee9 39bd 0e18 9a3d
00000110: a3e1 b43d d745 44be 09ff 15be deb9 3abb
00000120: 8e91 fbbd dfe4 bebd 81bf e03d 76c2 21be
00000130: 0ee1 0ebe 56bd 0abe 341c fbbc 54df 02be
00000140: 09ee 3e3e 5fd5 993d a94a ce3d 97ea 12be
00000150: f0a7 963d 1805 23bd dcdd bcbd 8ac0 42be
00000160: 72e3 c13c e375 29be 82a2 17be d067 a1bd
00000170: 0f84 0ebe da66 df3d 1b42 c63d fa88 153e
00000180: 9e61 243e 0257 653d b649 023e 2760 5abe
00000190: 1d55 153e d1d6 7b3e 2492 223e 4c7b 36be
000001a0: b241 4bbe c384 81be 39bb 86bc 173a 7d3d
000001b0: 9a67 fbbd 3598 02bd 4999 51be 19e5 bd3d
000001c0: 39e0 4b3c ba0c 32be eb85 e13d 9712 04be
000001d0: 5bd5 fcbb 8287 2abe 1633 debd 87c0 85bd
000001e0: d735 c03d 9fff 9ebd ee89 723e 1c8a cd3c
000001f0: b740 9abd c23b 4abe 7d98 603e 8c67 6cbe
00000200: 5dfb eb3c 77e2 a2bd 8f5a 1bbe 9da3 2cbe
00000210: 9836 f53d 4193 603d d8da bdbd 32eb 2bbe
00000220: 579e 2c3e d4ee 303e 50bd a1bd 4576 dd3d
00000230: b233 f4bc 7fcc d93d f480 673d db23 af3d
00000240: b46a 1bba fe3b 1e3e 33fb d6bc ff5b cf3a
00000250: e869 ca3d 55b1 33be b533 8dbd ca69 9cbd
00000260: a469 a93d 7b46 0d3d 7180 f43d 495a 803d
00000270: 18f3 9e3c a3de 053e 9df4 0fbe bc4b 4abe
00000280: 82c0 063e 2a56 443d 04be ca3c 0478 cb3c
00000290: 778c 4dbe dcfd af3d a1d7 4cbd bf80 0c3e
000002a0: b6d5 d7bd e58a 023e ff9d 863c f7e4 233e
000002b0: 4865 0e3e 8869 c7bd ac1d e2bc cabb 833d
000002c0: b123 303e 918d 133d 851f 203e a75a 51be
000002d0: dbca 0cbe 7d7f 1f3e 2407 ad3b 144c 14be
000002e0: 063d ba3c f93c a93d c728 c8bd 2171 c8bc
000002f0: 1b9d 0a3e 7220 893d 14b7 843d 7970 57be
00000300: 3719 51be 35cd 823d 24ed ca3d 9408 16be
00000310: 65b4 4bbe a3a4 15be a51f 5d3e 831f 333e
00000320: 4052 39be 0c78 5e3d 9a87 4b3e 060a 363d
00000330: 0b9a 563e 6d0c 25be 1a93 ea3d 74c5 e5bd
00000340: 7b06 50bd f387 9a3d de9d a83d f8ba 283e
00000350: 522e 39bd 3b05 033c 9ce9 9d3d 2d10 4cbe
00000360: 72a5 a83d bb95 a9bd 188b 023e d9a6 423d
00000370: 8d8f 6d3d 577c 0b3c 86d0 773d e7a0 ce3d
00000380: 7aa6 2dbb 1598 093d 99d6 103e 1995 043d
00000390: 2d12 8d3c fe11 9c3d d704 533e ae8c d23d
000003a0: 7095 10be 6443 42bd 1658 f03c 5d49 cebd
000003b0: 3a40 833e 0dd8 233e 1c42 123e 34ef 6fbb
000003c0: d57d e9bd 1cca e1bd 9c7c 3ebe 59d1 023e
000003d0: ef73 243d 6919 6cbc 6a0b b53d 8d60 d93d
000003e0: d535 d33d fa34 38bd 80f3 583e 5665 293e
000003f0: 4e2d 27be 96c9 a5bd fb7d 123e 20a3 dcbd
0.1137299 0.13147473 0.20266135 0.108929835 -0.17239521 -0.05302159 -0.20614626 0.039184414
0.107526645 0.13422067 0.03863502 -0.036316488 -0.10054296 0.12658681 -0.16561459 -0.016511392
0.08747373 -0.19064866 -0.13039845 0.09470072 0.19912876 -0.13871089 0.22875153 -0.14466667
-0.11704208 -0.05538198 0.0004706873 -0.2195707 0.20145805 -0.16239703 -0.16952671 -0.034751292
-0.18705177 -0.032756 0.046118993 0.0692703 -0.13256496 0.19840583 0.1396796 0.05664137
0.08455638 -0.20694724 0.033043496 -0.027256312 0.06632488 -0.19414914 -0.105156004 0.018316096
0.13288678 0.13087383 -0.118532926 0.10424433 0.1316205 0.085933715 -0.21485876 -0.14532012
-0.04936307 -0.06139796 -0.1930842 -0.014215225 -0.20400357 -0.043355536 0.07104552 0.15631932
-0.05850538 -0.22927612 -0.04538893 0.07524119 0.08832099 -0.19167267 -0.1464807 -0.0028492133
-0.12283622 -0.093209974 0.109740265 -0.15796837 -0.13953039 -0.13548788 -0.030653097 -0.12780505
0.1864549 0.075114004 0.10072834 -0.14347301 0.0735625 -0.03979978 -0.09222004 -0.1901876
0.023668025 -0.16548876 -0.14808086 -0.07881129 -0.13917564 0.10908289 0.09680577 0.14603034
0.16052863 0.05599118 0.12723431 -0.21325742 0.1458325 0.24593665 0.1587606 -0.17820472
-0.1984928 -0.25296602 -0.016446697 0.061822977 -0.1227562 -0.031883437 -0.2046863 0.092722125
0.012443596 -0.17387667 0.11011871 -0.12897716 -0.0077158636 -0.16653255 -0.108495876 -0.06530862
0.09385269 -0.077635996 0.23685429 0.02509027 -0.075318746 -0.19749358 0.2193317 -0.23086375
0.028806383 -0.07953351 -0.15171264 -0.16859289 0.119733036 0.054827932 -0.09270257 -0.16788939
0.16857277 0.17278606 -0.078974366 0.10813574 -0.029809806 0.10634708 0.056519464 0.08551761
-0.0005928681 0.15452573 -0.026242828 0.0015820264 0.09883481 -0.17548116 -0.06894628 -0.07637365
0.082721025 0.034491044 0.11938561 0.062672205 0.019403026 0.1307321 -0.14058156 -0.19755453
0.13159373 0.047933735 0.02474881 0.024837501 -0.20073114 0.08593342 -0.050010327 0.13720988
-0.10538809 0.12748297 0.01643276 0.16005312 0.13905823 -0.09736925 -0.02760204 0.06432302
0.17201115 0.03602368 0.15637024 -0.20444737 -0.13749258 0.15575977 0.0052803922 -0.14482147
0.022734176 0.08263583 -0.09773403 -0.024468007 0.13536493 0.066956416 0.06480232 -0.21038999
-0.20419775 0.063867964 0.09908512 -0.1465171 -0.19893034 -0.14613585 0.21594103 0.1749249
-0.18097782 0.054313704 0.19875947 0.044443153 0.209572 -0.16118021 0.11453839 -0.11219302
-0.05078743 0.075454615 0.08233236 0.16477573 -0.04521019 0.0079968525 0.07710573 -0.19928046
0.08234681 -0.08280512 0.12748373 0.0475224 0.05799823 0.008513532 0.060501598 0.100892834
-0.0026496933 0.033592302 0.14144363 0.032368753 0.017220581 0.07620619 0.20607315 0.10280739
-0.14119506 -0.04742755 0.029338878 -0.10072587 0.25634938 0.16000386 0.14283031 -0.0036611082
-0.11400954 -0.110248774 -0.18602222 0.12775172 0.040149625 -0.014410355 0.08840068 0.10614119
0.10313002 -0.044972397 0.21186638 0.16542563 -0.16325876 -0.0809509 0.1430587 -0.10773301

hiden_layers.0.bias f4 [64]
00000000: 0b1e dcbc 62e3 ebbc abc2 1abc a961 893d
00000010: c850 783d 3f74 463c d558 dc3d 6060 8b3d
00000020: 8304 9a3c d07d 8f3c ccc6 3dbd 88ba 65bc
00000030: c886 83bd c521 af3c c936 39bd 5edd 573d
00000040: 83bf 973c d3ef 2f3d e203 a7bc 3eee 8d3d
00000050: 2200 4cbd a120 e73c 5994 7cbd 30b3 873d
00000060: 8e49 01bc 1419 853d ce36 a8bd 26a5 85bd
00000070: bbff 78bd c452 1ebb 4fa2 66bd 1d54 b7bc
00000080: 5ce2 d0bd aeb1 18bd 32dd b73d 298d 80bc
00000090: e5b9 bf3c 0baa a33d b498 8a3c 0ca7 42bd
000000a0: fb2c 513d 6708 813d a69d 94bd c460 633d
000000b0: 9d18 04bc ff9d c0bd 81aa af3c 1cc2 15bb
000000c0: 3961 433c e873 18bd 5f82 38bd 6fdd 873c
000000d0: e486 a33c 2a78 043c 34d1 f1bd 34bb 87bc
000000e0: 8a01 6d3d 96c8 893d f5ea 37bd 4f77 66bd
000000f0: e138 3cbd e207 44bd 8688 223c 52c4 86bd
-0.026869794 -0.028794948 -0.0094458265 0.0670808 0.060623914 0.012112676 0.10759131 0.068054914
0.01880098 0.017516047 -0.046332166 -0.014021523 -0.06422192 0.021378407 -0.045218263 0.052701347
0.018523937 0.042953324 -0.020387594 0.06930207 -0.049804814 0.0282138 -0.061664913 0.06625974
-0.007891072 0.06498924 -0.08213578 -0.0652564 -0.06079076 -0.002415822 -0.056307133 -0.022378976
-0.101994246 -0.037278824 0.089777365 -0.01569231 0.023404071 0.079914175 0.016918518 -0.04752259
0.051068287 0.06300431 -0.072566316 0.055512205 -0.008062509 -0.09405135 0.021443607 -0.0022851294
0.011925035 -0.03721991 -0.045046207 0.01658508 0.019961782 0.00808529 -0.118074805 -0.016568758
0.057862796 0.06727712 -0.044901807 -0.056266125 -0.04595268 -0.04785908 0.009920245 -0.06580414

hiden_layers.1.weight f4 [64, 64]
00000000: 9a5d d2bd 894d 24bd 96c9 1bbe db32 be39
00000010: 6450 1e3e c57a 3dbe ccf7 9cbe 5e55 853b
00000020: 0d56 12be 159e 24be 7f38 c43d a624 9f3d
00000030: 983a 9dbd 1374 873d 74e9 1fbe 15d2 75be
00000040: d4b5 863e e174 c73d 51a7 ecbd eb74 0ebd
00000050: b459 763d 383e 303e 4d57 d5bd aaea a7bd
00000060: e75c 67be 2b4a 013e 04c7 febb c84b 293e
00000070: 3d84 34be da1d 123e db44 0d3e 3ca6 be3d
00000080: dbff 87bd 9954 6d3e 1e3c d33d 34eb f63d
00000090: 0adb c8bd 60cd c23d 3095 8cbe 43dc 1d3e
000000a0: 2768 493e 5f68 373e 7c42 1a3e 7b6d 29be
000000b0: 3bda 6b3e 148e 2f3e 48a1 123e 5541 6f3e
000000c0: c71d 543e 4091 63be f92a 81be 1d59 2ebe
000000d0: eb17 383e d8b2 283e dd90 0a3e 553d 16be
000000e0: c8f8 103e 43d8 febd 44ef 7dbe 6698 103d
000000f0: 47bd 433d e4f6 2d3e 4fae a03a 9392 2e3e
00000100: d017 8d3d e70e b33d c674 d63d 526a 2b3e
00000110: 2e86 99bd 1018 243e c725 59be c0f8 26be
00000120: 4e61 21be 13c2 193e 9109 a13c d7ff 053e
00000130: 2eff 983d f989 74be 4b12 573d 305c 903d
00000140: 9e51 4ebe 29bb 52bd 0eae 063e 988a ffbd
00000150: 575e e03d 3d8a 533e 2dd0 19be 7759 24be
00000160: 09e3 3a3e d957 04be 1c83 063e a125 9c3d
00000170: f350 233c 2b5d 46be 4eac 3b3e f425 463e
00000180: 15d8 553d 303c 09be 697a f3bd d027 3e3e
00000190: 7372 a13d 9c33 4b3e f5f9 fbbd c835 913d
000001a0: 38bb 753d feea 703d e051 cdbd bbf8 2abe
000001b0: b659 b13d 87a6 153d 96f1 8c3c cce5 033e
000001c0: 23f8 003d 94e3 dc3d 8e60 f03d 6fa1 cd3d
000001d0: 6905 653e 4bb3 c3bc b479 9fbb 9cf3 283e
000001e0: 2a45 1abe fe29 2bbe b236 12be b5e5 1f3e
000001f0: a1ce 22be 50ff 8abd 1ac2 f9bd f9f5 38be
00000200: 89a4 37be b58c 36bd a2be cd3d 2f01 d1bd
00000210: e5ce b9bd 5c3c 08be 041c 80be 47c8 47be
00000220: 9364 6fbe 3905 5bbc d29e e63d dda7 b73d
00000230: 15be eb3c a64e dd3d 2c64 9ebd 6def 70be
00000240: 28cb c6bd 10a9 243e 1051 3fbd 6528 b7bd
00000250: f2db eabc cb21 df3c 607e a6bd e93e f2bd
00000260: 5d91 263e 4a97 30be 2fa0 59be 55ef 10be
00000270: d070 2abe 33ac fbbd f6b3 c73d 81e2 0cbe
00000280: 46cc 2b3d 8f73 623e 88f7 f83d 3af9 603d
00000290: 2418 53bd a015 1abc e90c 65be b930 abbd
000002a0: 4ea5 31be d2e8 4ebe 40b8 5d3e 7403 85bc
000002b0: af5d fdbd 9849 d1bd 24f4 543e b5d9 de3d
000002c0: 0954 c03c 001f 493e 007b 553c 6777 373e
000002d0: 5a10 05be d5e9 573d c329 8ebd d7d1 f53d
000002e0: 6b9e bd3d a790 943d 19b8 8a3c 71bf 0a3d
000002f0: 581d f9bd bc77 173e 412f 1bbe c54b 2c3e
00000300: 9c6f 893e c983 4a3e a7d9 aabd 7faa 0dbe
00000310: 314d 12be a340 bf3d 6bf1 943e 00db 27be
00000320: dadc 673e dcd0 483e e84c a43d 93dd 67bc
00000330: fc9c 403e de85 093e 8f98 913d d250 e53b
00000340: 58aa f1bd d7fe 83bd dc4e 623e 3ca8 d63d
00000350: 8fa3 2fbe 3410 453e 64cf 76bd b660 63bd
00000360: c8e6 dc3b 272e aebd 976d 4f3d 5362 933d
00000370: f91b 433e 71be 313e 0b80 c33d f053 523e
00000380: 5a06 a93d 1c16 9b3d 075f 43be c05f 793e
00000390: c58c b0bd 1a5b 08be d356 3fbd ff5b 8bbd
000003a0: cf3e 0c3e 7e03 61be f11a 3a3d d56f 7dbe
000003b0: f063 32be cfd7 08be f19a 323d 7959 38be
000003c0: 5da8 09be fb24 8c3d 9af3 3f3c a33f 363e
000003d0: 973e 013d 39a8 5dbe 5399 02be 03d5 e63d
000003e0: 6a82 79be e3e9 32be b768 203e b52c 813e
000003f0: b6b6 18be 3ce6 d6bd c207 5c3e 56f7 be3d
-0.10271759 -0.040113006 -0.15213618 0.00036277514 0.15460354 -0.18503864 -0.30657804 0.0040690145
-0.14290638 -0.16075929 0.09581088 0.07770662 -0.076771915 0.06613936 -0.15616399 -0.24005921
0.263106 0.0973909 -0.115553506 -0.03477947 0.06014414 0.17211235 -0.10417042 -0.081990555
-0.22594033 0.12625949 -0.0077751894 0.16532815 -0.1762857 0.142692 0.13795798 0.093090504
-0.066405974 0.23176803 0.10314201 0.1205658 -0.098074034 0.095118284 -0.2745757 0.15416054
0.19668637 0.17910908 0.15064424 -0.1654567 0.23032467 0.17144042 0.14319336 0.23364766
0.20714484 -0.22223377 -0.25228098 -0.17026182 0.17977874 0.16474473 0.13531823 -0.14671834
0.14157403 -0.124435924 -0.24798304 0.03530159 0.04778793 0.16988713 0.0012258979 0.17048101
0.068893075 0.08743077 0.104714915 0.16739777 -0.07496296 0.16024804 -0.21205817 -0.16305828
-0.15759775 0.1501544 0.019657882 0.13085876 0.07470547 -0.23880757 0.05250768 0.07048833
-0.20148322 -0.05144802 0.13152334 -0.124776065 0.10955494 0.20658202 -0.15020819 -0.16049753
0.1825067 -0.12924136 0.13135952 0.07624365 0.00996803 -0.19371478 0.18327448 0.19350415
0.052208025 -0.13401866 -0.11888582 0.18569875 0.078831576 0.19843906 -0.12303535 0.07090336
0.059993 0.058817856 -0.10025382 -0.16696446 0.08659689 0.036535766 0.01720504 0.1288063
0.03148664 0.107855946 0.11737166 0.10040557 0.22365345 -0.023889204 -0.004866803 0.1649918
-0.15065446 -0.16715237 -0.14278677 0.1561497 -0.15899135 -0.06786978 -0.12195225 -0.18062581
-0.17933859 -0.044567782 0.10046126 -0.10205304 -0.09072665 -0.13304275 -0.25021374 -0.19509993
-0.2337821 -0.013367944 0.11260761 0.08967564 0.028777162 0.108060166 -0.0773395 -0.23528834
-0.09706718 0.16080117 -0.046708167 -0.089432515 -0.028669331 0.027237793 -0.08129573 -0.118284054
0.16266389 -0.17245212 -0.21252511 -0.14153798 -0.16644597 -0.12288704 0.09751122 -0.1375828
0.041942857 0.22114395 0.12156588 0.05492518 -0.051536694 -0.00940457 -0.22368206 -0.083589025
-0.17348215 -0.20206001 0.21652317 -0.016236998 -0.12371384 -0.10219115 0.20796257 0.10881368
0.023477571 0.19640732 0.013029814 0.17916642 -0.12994519 0.052713234 -0.06941559 0.120029144
0.092587315 0.07254153 0.016933488 0.03387398 -0.121638 0.14791769 -0.15154745 0.16825779
0.26842964 0.19776835 -0.08342295 -0.1383457 -0.14287259 0.093385 0.29090437 -0.16392136
0.22642842 0.19610924 0.08022481 -0.0141519485 0.18809885 0.13429973 0.07109176 0.00699816
-0.118000686 -0.06445091 0.22100395 0.10481307 -0.17152236 0.19244462 -0.060256377 -0.055512153
0.0067413785 -0.085048966 0.050641622 0.07196488 0.1905364 0.17357804 0.09545907 0.20539832
0.082531646 0.075725764 -0.19079219 0.24352932 -0.086206 -0.13316002 -0.04671366 -0.06804656
0.13695835 -0.21973988 0.04543585 -0.24749692 -0.17420936 -0.13363574 0.043604795 -0.18002881
-0.13443132 0.06842991 0.011715794 0.17797713 0.03155383 -0.21646203 -0.12753801 0.112710975
-0.24366155 -0.17472033 0.15664946 0.2522942 -0.14913449 -0.104931325 0.21487334 0.09324519

hiden_layers.1.bias f4 [64]
00000000: d5da d0bc 3460 0dbd 3e5a ce3b 3a57 18bd
00000010: 0cfc 29bd cc2e 41bd 665b 31bd 44e6 21bd
00000020: 9ae7 883d e777 e03c 7485 373d 9d39 29bd
00000030: b1c0 473d 375f 013d a72a 58bc 4c50 4ebd
00000040: 29bb a0bb c94c 033e e5a3 2dbd 25d7 4e3c
00000050: ec4b 92bd 94d0 e6bc 606f a23c 6bf5 53bc
00000060: 41b2 67bd 1d66 3dbd e93e 70bd e146 333c
00000070: 6a6d 09bd 07f3 c83c 8276 473c 2219 393b
00000080: 05eb 30bd 1c1d bb3c f6d3 123b 9b42 a53c
00000090: 2a64 af3c f1ca 8fbb 5cf6 29bd 9288 d0bb
000000a0: acaf fb3c 5789 133d c5ea 82bc a242 223d
000000b0: 37f1 e53c df3c 1ebd 0a64 f83c 79e8 18bd
000000c0: b1b4 603d 857c 33bd b83d 8c3d 4781 21bd
000000d0: 347c 0fbd ca0d e23c 31f3 673d 66c2 9cbc
000000e0: cb1a cf3c cf3c 31bd dbc5 2d3d 0334 d83c
000000f0: a2b1 f83c 4dea 2ebd ad3f 71bc 2480 3d3d
-0.025494972 -0.034515575 0.006297379 -0.03719256 -0.041500136 -0.04716377 -0.043300055 -0.03952624
0.066847995 0.027400924 0.044805005 -0.04131471 0.04876775 0.031584945 -0.013193763 -0.050369546
-0.0049051237 0.1282226 -0.04239263 0.012624537 -0.07143387 -0.02817563 0.019828498 -0.01293693
-0.05656648 -0.04623996 -0.058653746 0.010942192 -0.03355161 0.024529947 0.012174251 0.002824374
-0.043192882 0.022841029 0.002240417 0.020173362 0.021410067 -0.004388206 -0.041494712 -0.0063639367
0.030723415 0.03601965 -0.015981087 0.039614327 0.028069122 -0.03863227 0.03032114 -0.03733108
0.05485982 -0.043819923 0.068477094 -0.03942993 -0.03503056 0.027594466 0.05662841 -0.019135665
0.02528133 -0.043270882 0.042425018 0.026391989 0.03035814 -0.042703915 -0.014724654 0.046264783

hiden_layers.2.weight f4 [64, 64]
00000000: 2b62 0dbe c289 36be e18f 1dbe d83f 59be
00000010: fb7b dcbd 09f6 48bd 4be0 a8bd 7c2a a1bd
00000020: 5291 0d3e 234c b03d d7a7 96bb a78d 21be
00000030: 46c8 bd3d f169 56be 45b0 323e efb1 203e
00000040: ed5d 8bbe 970f 41be eb45 dd3d 9446 c2bd
00000050: 93e3 393d 3022 69be 301c 8cbd 6959 483e
00000060: 8648 0cbe 1b7d ea3c 23d7 a53d ecd4 f1bc
00000070: 7a6a 9dbd 1479 b93c 10f6 5d3e 697b 12be
00000080: 00b5 06be 7d8f 75bc 9981 6dbe d11d 0a3e
00000090: 1bfe a53c a195 e1bd fd35 dbbd 103c 3e3e
000000a0: d247 efbd 9dae 9d3d 97fb 5dbe 778f 34be
000000b0: 94d5 80bd 67e4 04be fa83 37bd c4c5 87bd
000000c0: 974b 483d 2827 343e 81b7 dcbc 10a8 34be
000000d0: c610 2f3e 4749 953d 9695 e93a a692 673e
000000e0: e3db e7bd 03c5 61be 5b29 4bbd 5f91 433e
000000f0: 5aa5 fdbc e3c5 cb3d ee92 53be cc1b 2c3e
00000100: 6d0a 143e f158 58bc 4803 863d c1a0 a5bd
00000110: 3f5d 853c ebdb 173a 2f38 0c3e 2871 9cbd
00000120: c445 1a3e bf32 863d ecd4 d8bd b194 dfbc
00000130: 43fd 9bbc 6600 453e 17b5 0dbd edda bebd
00000140: 77d8 9b3d 0eaf dc3b 367b c5bd 85e4 7cbd
00000150: 5ecf 0c3e 7854 69be 5b81 ad3d 4ec4 3d3d
00000160: 68a2 96bb 1373 ba3d 4860 0ebe 2302 2cbe
00000170: 6d6e c23d 97c5 b03d fd69 82bb 80a4 1a3c
00000180: c9a9 e7bd 2012 d53c 7974 403d ff51 183e
00000190: b0ea f5bd 2075 a03b 4b05 583e 7a0e b43d
000001a0: cebc c13d c1e7 96bd 72cc dfbd acb7 49be
000001b0: 2ee9 253d 72c1 49be 862d 253d d638 ba3d
000001c0: 8b19 76be 0fb4 e2bd 961a 9f3b 9fc8 3b3e
000001d0: 974f f3bd c649 003e ad1b cfbc 2882 4ebd
000001e0: 84a4 aebd adf7 3a3d a7f8 5d3b 879d 673d
000001f0: 7b07 2cbe 1ccd 0bbe ebb8 233e 2a1b 033e
00000200: 6f01 5dbe 5245 e0bc 6078 b23d 408a 293e
00000210: 2009 e73d 47a2 b93d 6add 3bbe 5d6e ab3c
00000220: 5992 00bc ccfe c6bd c1fa a43c bb6b 91bd
00000230: 65bc c43d 3c96 6fbe 2151 6a3e c2d1 75bd
00000240: b2d8 313e 7bfd 363e 1413 68be 3dfe 01be
00000250: f2b6 b2bd b5e1 bfbd 6238 153e 41a5 1fbd
00000260: 7f56 53be 7e7a a83d d0c8 4dbe 8a69 283d
00000270: edf7 debd 1d70 0d3e 1c69 dabd 7bb1 5fbe
00000280: 1ed2 fb3c ae1d 463e 7b51 c6bd 7f48 e43d
00000290: 2ca7 773c 75b9 43bd 398f 6a3d 6a79 133e
000002a0: f8d4 4c3e 98d8 d53d 3f29 bebd 0889 493e
000002b0: 969e df3d 2481 93bd b694 ff3c aa2e bfbc
000002c0: 2546 613e 7aff 69be 92a3 273e a723 57bd
000002d0: 70a0 57be a263 d0bd 9325 333d 5b3c babd
000002e0: b9ff 723e 4859 873d f86b 553e a140 023e
000002f0: be00 a9ba 86ff 86be 8b64 86bc 6071 513d
00000300: 5e9e 3d3e dafa 463e 3eb1 d83d 5117 0bbe
00000310: b1b7 3a3d cf7c 43be 88bb eb3c 2ea2 94bd
00000320: 0a6f 033d 841c 94bd e079 66be 96f5 153e
00000330: 0d64 523e 979b b0bd 94a6 04be 8299 d7bd
00000340: e8ff 4f3e 7f2e 733e 0584 593d 7200 7dbd
00000350: fa91 a9bd 2612 25be 7d47 c33d 5676 383e
00000360: 22ab 02be 3888 c1bd 33d4 2cbe 8e20 7dbd
00000370: 6927 21be 194c 603e 84a3 3b3b 9e45 11bd
00000380: e17b 543d 100f 153e 2f23 56be 1de4 4dbd
00000390: 51c2 573d f130 14be 42da 4bbe cfb8 1c3e
000003a0: c64b 34be bcef 03be ca97 193e 95c7 753d
000003b0: 016d 353e 3b0f 6c3d cd31 34be fa16 17be
000003c0: aaf5 ae3d fb0c 28be 6dc0 073e 8539 df3d
000003d0: f8cd 093e 9dd6 2c3e 21a1 043e b8e0 19be
000003e0: 7379 643c 4619 3abe 287d 1cbe 1dac 693e
000003f0: 840f 6abd e9d3 083d 3d1a fabd 9b9c 5e3b
-0.1380698 -0.17825988 -0.15386917 -0.2121576 -0.10765835 -0.049062762 -0.082459055 -0.078694314
0.13824967 0.08608272 -0.004597645 -0.15776692 0.09266715 -0.20938851 0.17450054 0.15692876
-0.27220097 -0.18853603 0.108043514 -0.09486118 0.045383047 -0.22766948 -0.06841314 0.19565357
-0.1369954 0.028624108 0.08097675 -0.029520474 -0.076863244 0.022640742 0.21675897 -0.1430489
-0.13154984 -0.014987824 -0.23193969 0.13487937 0.020262768 -0.110148676 -0.10703657 0.185776
-0.116836205 0.076993205 -0.21678005 -0.17632852 -0.06290737 -0.12977754 -0.044803597 -0.06629518
0.048900213 0.17593062 -0.02694297 -0.17642236 0.17096242 0.07289367 0.0017821069 0.22614536
-0.11321237 -0.2204781 -0.049599987 0.19098423 -0.030962635 0.09949853 -0.20661518 0.16807479
0.14457102 -0.013204799 0.065435946 -0.08087302 0.016279815 0.0005792963 0.13693307 -0.0763877
0.15065676 0.06552648 -0.105874866 -0.027292581 -0.019041663 0.19238433 -0.03459653 -0.093191005
0.07609647 0.0067347353 -0.09642641 -0.06174137 0.1375098 -0.22786129 0.08471938 0.04632979
-0.004596997 0.0910398 -0.13903916 -0.1679769 0.09493718 0.08631437 -0.00397992 0.009438634
-0.11311681 0.02600962 0.046986077 0.14875029 -0.12007654 0.004896775 0.21095769 0.08791824
0.0945984 -0.07368422 -0.10927667 -0.19698972 0.04050558 -0.197027 0.040326618 0.09092872
-0.24033181 -0.110695 0.004855464 0.1833825 -0.11880415 0.12528142 -0.025281752 -0.050417095
-0.085274726 0.04564636 0.0033870132 0.056546714 -0.16799729 -0.13652462 0.1598851 0.12803331
-0.21582578 -0.027376805 0.08714366 0.16556644 0.11281037 0.09064155 -0.18346182 0.020926649
-0.007847392 -0.097165674 0.0201391 -0.07100626 0.09606246 -0.23397154 0.2288251 -0.060014494
0.17367819 0.17870133 -0.22663528 -0.1269464 -0.087263 -0.09369222 0.1457229 -0.038975958
-0.20638464 0.082264885 -0.20096135 0.041116275 -0.10887132 0.13812299 -0.10664579 -0.21845047
0.03073984 0.1934726 -0.0968351 0.1114664 0.0151155405 -0.047784287 0.057265494 0.14401785
0.20003116 0.104417026 -0.09285211 0.1968118 0.1091892 -0.07202366 0.03119884 -0.02333768
0.21999414 -0.22851363 0.16370991 -0.052524235 -0.21057296 -0.101752535 0.043737005 -0.09093543
0.23730363 0.06608826 0.20841968 0.12719966 -0.0012893898 -0.26366824 -0.016405364 0.051133513
0.18517444 0.1943163 0.10580681 -0.13583113 0.045585338 -0.1909058 0.028775945 -0.07257496
0.032088317 -0.072320014 -0.22507429 0.14644465 0.20545979 -0.086234264 -0.1295417 -0.10527326
0.20312464 0.23748206 0.05310442 -0.061768003 -0.08279796 -0.16120204 0.0953512 0.18013892
-0.12760594 -0.0944981 -0.16877823 -0.061798625 -0.1573769 0.21904029 0.0028631398 -0.035466783
0.051875953 0.14556527 -0.20911859 -0.050266374 0.05267555 -0.14471795 -0.19907477 0.15304874
-0.1760703 -0.1288442 0.14999309 0.06000479 0.17717363 0.057631712 -0.17597122 -0.14754859
0.085429505 -0.16411202 0.13256998 0.10899643 0.13457477 0.16878743 0.12952091 -0.1502713
0.013944971 -0.18173704 -0.15282118 0.22819562 -0.057143703 0.03340522 -0.12212036 0.0033967856

hiden_layers.2.bias f4 [64]
00000000: d0b5 da3c 91ae f9bc 42e8 143d 4be3 9d3d
00000010: eed9 123d 5624 283d 6c5b 8dbc 728e 8fbd
00000020: 4ffa 883c 6007 cc3c 63e2 303d edf4 5dbb
00000030: fa44 1a3d 01c1 c23c 32f5 2cbd 9731 3cbd
00000040: 7607 9b3c ecd7 ba3c 9618 93bc 52a1 833b
00000050: be05 7fbb 7234 a0bb 3827 fbbc 725f 1abc
00000060: 2100 4fbc 5f36 d2bc 7f0b d2bc 05cd 263d
00000070: 1b08 9f3c 6065 51bd 39cd 5bbc 8c15 5ebc
00000080: 2048 e23b 92ab 863d 5585 c63c 14e4 1abd
00000090: adac 103d 107e 393d 6e6c 563d 235d d73c
000000a0: dd8c e13c b91f 213d b82e 3ebd 7485 7f3d
000000b0: d29d 883c 5f9d 0fbd 8827 01bc 1391 09bc
000000c0: 03f7 2e3d c96a ebbc ac5e cb3c 9884 45bb
000000d0: 3b57 6bbc 1457 1fbd 19c8 adbc 49e6 7dbc
000000e0: 6251 503d 2792 b93c 4bef 92bc b0d0 10bd
000000f0: 04cc 123c 324d 673c 4d2d 4abd bd6d d33c
0.026698023 -0.030478748 0.03635431 0.07709368 0.035852365 0.041050278 -0.017255507 -0.07009591
0.016720919 0.02490586 0.04318465 -0.003386791 0.037663437 0.023773672 -0.042226024 -0.04594573
0.018924456 0.022808038 -0.01795606 0.0040170336 -0.0038913335 -0.0048890645 -0.03065835 -0.00942217
-0.012634308 -0.025660692 -0.025640247 0.040722866 0.019413045 -0.05112207 -0.013415628 -0.013554942
0.0069055706 0.06575693 0.0242335 -0.03781517 0.035320926 0.04528624 0.0523495 0.026289528
0.02753299 0.039336894 -0.046431273 0.06238313 0.016676817 -0.03506219 -0.00788296 -0.008396405
0.042716037 -0.028737443 0.024825417 -0.0030138846 -0.014364059 -0.038901404 -0.021213578 -0.015496799
0.050858863 0.022652699 -0.01793637 -0.03535527 0.008959774 0.014117526 -0.04935961 0.025809163

hiden_layers.3.weight f4 [64, 64]
00000000: 6f6b 66bc 2463 433e 0a6e 19bd 92b9 76bc
00000010: 9423 503e 5e81 c2bd f74a 6cbe 5328 7c3d
00000020: e94c 053e d03b 313d 131c 0c3e bf1e c5bd
00000030: 4d3d 1bbe 57d0 563e 3085 863d c42b 863d
00000040: 40f5 9b3d 22c1 a23c 602b a2bd adbf 75be
00000050: a3c0 2e3e aeff 27be 2fba 313c 1989 f33d
00000060: 02fb 86bc dfb1 38be e7f5 06bd 85d3 85be
00000070: 5e95 8d3c 49b2 b1bc 5662 b7bd 2ace b0bd
00000080: 0fd8 b73c 9194 23bd dc50 133e e7b8 333e
00000090: 37e0 a53d 2fb5 48be c78b b53d f6d2 3bbe
000000a0: 3141 f6bd 48d6 18be bd2d bcbb deaf babd
000000b0: 3056 1a3e 9971 4bbe 942c 623e 6936 7c3d
000000c0: 813b 113e 7d90 5f3e 0bda adbc b53b ccbd
000000d0: a40f 213e aac2 093d d29e 293e ebeb 04bd
000000e0: 92b9 a0bd 8aa5 643d 5a8f d9bd 0e2b 2cbe
000000f0: 5426 293e 43ce 613e 2df2 403e c749 bebd
00000100: e45b 6e3d 37af 0fbe 46a2 60be 849b 1b3e
00000110: ea69 ce3d 2963 e13d c155 f4bd 33c8 133e
00000120: 5e6d 5f3e fe19 bebd b7aa 3b3e a8c1 6cbc
00000130: 76b5 a43d f567 23be 1d7d 6c3e 29ac 383e
00000140: c41c fdbc 195b 57be 582f 0c3d 8d82 e73d
00000150: e7f1 00be 443f 223e c753 95bd 59b2 7c3d
00000160: 588a 2e3d 48cc d73c 9fe5 4cbe 7d65 58be
00000170: 9b7a 7dbd c9a1 3fbe 0b04 5dbe 4733 0bbe
00000180: fa2f bc3d 0bcb 11be e8bc c03d 90bc fd3d
00000190: 9547 543e 329c e9bd 97f6 e6bd 5a3f a63d
000001a0: 584c 3abe f971 12be da37 303e de5e c7bc
000001b0: b3bd 653d 3e64 4fbe 6475 583d 0383 44be
000001c0: ab90 ef3c 80dc 333d ca2e dabc 1b85 8cbd
000001d0: 449a 18be 2009 a5bd 395f 05be b047 403d
000001e0: e737 903d d701 223e ff19 533d 7cdc 76bc
000001f0: fcfa 4b3e 39b7 2d3e eef6 cdbd a155 cc3d
00000200: 2c0d 1cbe 5f37 143d c7d3 073e 6cf3 3abe
00000210: 2c1c 3b3e f704 a2bc 1bab 003e 448d 333d
00000220: 1fb0 ee3d 199b 483e 94f7 39be 3051 5c3d
00000230: f9e0 133d 99fc 3f3e 4624 b33d 08bd 12bd
00000240: d6db 253d 2af8 66be 8f89 4bbe e6e9 33be
00000250: 014f 21be c0e5 0cbc d858 efbd 2f87 f53d
00000260: eb8e 4ebe ae72 8b3d 613d 013e fa8e ba3b
00000270: 4c4b 42be 9cd4 8abd 5a53 da3d fee0 513d
00000280: efe0 97be c69a cebd cf2a 013e ba6a b0bd
00000290: be5a 043e 13fc 46be 9c84 1a3e c1c8 ce3d
000002a0: 016e 03be d6c2 41bd cef5 bfbd 7f0b 353e
000002b0: b64c 823e e2b1 20be 6aee eabd 614f f83d
000002c0: 3576 0c3d 28e0 c13d eaf9 17be 9dfe 2a3e
000002d0: 93db c73d aa6b 1dbe 720d 433e 0b38 1ebd
000002e0: a133 403e d743 d8bc 49de ebbd 31bf 4ebe
000002f0: d51d 1dbe b12f 85bd 5a62 83bc c347 4abd
00000300: f0cf 14be c3ab 1ebc 423c 383d 2f33 f93d
00000310: f7cf 50be 17f9 8dbd 90a6 dcbd 8d6a f9bc
00000320: 6f92 d33d 36b4 21bc 29f5 bbbd e3d9 a3bd
00000330: 1c6c 253d c0c1 cfbd 7ebc 72bd de05 ca3d
00000340: cd00 273d 02c0 6b3c 5ea4 74bd f498 9ebd
00000350: 9ea1 40be b5a8 663e 0f35 023e 446c 06be
00000360: c0fc 12bd d6fb 09be 7214 09bd 36d7 0cbe
00000370: 252a 5d3e b3aa 423e bf97 ed3d 888c c73c
00000380: e00f 04be 3549 503d 8aed 91bd 4c16 84bb
00000390: e181 833d 9d3e 52be c52f fcbd 6d5e a83d
000003a0: efad 853d fd8f 53be 4091 26be d0f6 fdbd
000003b0: 2f67 433e ac31 ce3d 2911 5b3e e338 b83d
000003c0: 0668 413e 4bc3 1a3e 2ab6 5d3e 7e88 55be
000003d0: 1a1e 57bd 6f47 093d 10f3 4a3e ca0d 183e
000003e0: 8be8 b23d d5dd 15be 0fb1 943c db86 013e
000003f0: bda6 8f3c e4b4 0cbe 40cc adbd 01d0 1c3d
-0.0140637 0.19080788 -0.037458457 -0.015058892 0.20326072 -0.09497331 -0.23075472 0.061561894
0.1301762 0.043269932 0.13682584 -0.09625005 -0.15160103 0.20977913 0.06568372 0.065513164
0.07615137 0.019867484 -0.079184294 -0.239989 0.17065673 -0.16406128 0.010847612 0.11891384
-0.016477112 -0.18036602 -0.032949354 -0.2613794 0.017283138 -0.021691458 -0.08954303 -0.08633073
0.022441892 -0.039936606 0.14386314 0.17551003 0.08099406 -0.19600366 0.08864551 -0.18342194
-0.12024153 -0.14925492 -0.005742757 -0.09115575 0.1507194 -0.19867553 0.22087318 0.061575327
0.14182855 0.21832462 -0.021222135 -0.09972326 0.15728623 0.03363291 0.16564491 -0.03245155
-0.07847895 0.055821933 -0.10623045 -0.16813299 0.16518527 0.22051339 0.18842383 -0.09291416
0.058193102 -0.14031683 -0.21936902 0.15196043 0.10078795 0.110052414 -0.11930419 0.14431839
0.21819064 -0.09282301 0.18326841 -0.014450468 0.080424234 -0.15957625 0.23094602 0.18034424
-0.030897506 -0.21030845 0.034224838 0.113041975 -0.12592278 0.15844446 -0.0729137 0.061693523
0.042612404 0.026342526 -0.20009468 -0.21132465 -0.061884504 -0.1871406 -0.21583574 -0.1359378
0.09188838 -0.14237611 0.09411031 0.12389481 0.20730431 -0.11406745 -0.11277502 0.08117552
-0.18193185 -0.1430129 0.17208806 -0.024337228 0.056089114 -0.20253083 0.052846327 -0.19190602
0.029243788 0.043911457 -0.026633639 -0.06861325 -0.14902598 -0.08058381 -0.13024606 0.046943367
0.070419125 0.15821014 0.051538464 -0.015067216 0.19919962 0.16964425 -0.10056864 0.0997727
-0.152394 0.03618562 0.1326438 -0.1825692 0.18272465 -0.019777758 0.12565272 0.043835893
0.11654686 0.19590415 -0.1816085 0.053788364 0.036103223 0.18748702 0.08747153 -0.035824805
0.040492855 -0.22555605 -0.19876693 -0.17569694 -0.15752794 -0.008599699 -0.116868675 0.11988675
-0.20171706 0.06808983 0.1262107 0.0056933137 -0.18974036 -0.06778833 0.10660429 0.05123996
-0.29663798 -0.100881144 0.12613986 -0.086141065 0.1292524 -0.19432096 0.15089649 0.100968845
-0.12834932 -0.04730495 -0.093730554 0.17680167 0.2544915 -0.15692857 -0.11471255 0.12124515
0.03429242 0.094665825 -0.14841428 0.1669869 0.09758677 -0.15373102 0.19048098 -0.038627665
0.18769695 -0.026399536 -0.11517007 -0.20190121 -0.15343411 -0.06503237 -0.016038109 -0.049384844
-0.14532447 -0.009684506 0.04497934 0.121679656 -0.20391832 -0.06932276 -0.10773957 -0.030446315
0.10330664 -0.009869626 -0.0917762 -0.08000543 0.040386304 -0.10144377 -0.05926179 0.098644
0.040772248 0.01438904 -0.059727065 -0.07744017 -0.18811652 0.22525294 0.12715553 -0.13127238
-0.035885572 -0.13474974 -0.033466764 -0.13753971 0.21598108 0.19010429 0.11601209 0.024359003
-0.12896681 0.050851066 -0.07125385 -0.0040309783 0.06421257 -0.20531698 -0.12313799 0.08221135
0.06527316 -0.20660396 -0.16266346 -0.124005914 0.1908233 0.10068068 0.21393265 0.08995225
0.18887338 0.15113561 0.21651521 -0.20852849 -0.05251894 0.03351539 0.19819283 0.1484901
0.0873576 -0.14635403 0.018150834 0.126491 0.017535562 -0.1374088 -0.08486223 0.038284305

hiden_layers.3.bias f4 [64]
00000000: cebe 22bc 4d5a c5ba e580 393b 30c2 54bc
00000010: 9b96 c4bc 12aa 843d d9c9 23bd 9873 89bc
00000020: 971e 10bc 450d 36bc 3cb3 3a3d da0b b1bc
00000030: d106 d3bc 742c 683c 2eac 0f3d 19b1 40bd
00000040: 17da e2bb 1dbf 0dbc da18 303d 283f 603c
00000050: 2f06 c1bc 07c5 47bd ad4b e33c 660e cc3b
00000060: 74e9 693c b48c 4fbc 69dc be3c 6f7b 723c
00000070: 1544 79bd c9b4 843c 5196 7a3d b098 15bc
00000080: 8a04 ec3c fe9b babc e0fd 6e3d 5e3d 1dbd
00000090: d0ba 3d3c 62eb 073d 1c1c 1a3d 2cab db3c
000000a0: c3a9 a0bc 981b 22bd ea12 a03d 3c85 f9bb
000000b0: d42c 5bba 8a86 b53b e107 403c 8450 b33d
000000c0: 6803 5e3d fc90 fabb 5d7e 203d eb59 283d
000000d0: 529f b5bc d0d9 06bd 0e3e a53c a9a7 653c
000000e0: 72dc 143d 1c19 803d 2c7d 8f3c e81b 1fb8
000000f0: efb4 903c 90fa 95bd 8874 a43c 0229 fc3b
-0.009933187 -0.0015056819 0.0028305587 -0.012985751 -0.023997596 0.06477751 -0.03998742 -0.016778752
-0.008796356 -0.011111562 0.045581087 -0.021612097 -0.025760086 0.014170755 0.035076313 -0.047043893
-0.006922971 -0.008651522 0.04299245 0.013686933 -0.023562519 -0.048771884 0.027746046 0.0062273024
0.014276851 -0.012667824 0.02329846 0.014799937 -0.060855944 0.016199486 0.06117851 -0.009130642
0.028810758 -0.022779461 0.058347583 -0.038388602 0.011580184 0.033183463 0.037624463 0.02681502
-0.019612199 -0.039577097 0.078161076 -0.0076147597 -0.0008360867 0.00553972 0.0117206285 0.087555915
0.054202467 -0.007646678 0.03918301 0.041101377 -0.022170696 -0.032922566 0.020171192 0.014017024
0.036343046 0.06254789 0.017515741 -3.7934544e-05 0.0176644 -0.07323182 0.020075098 0.007695318

hiden_layers.4.weight f4 [64, 64]
00000000: 2c9b 29be 8796 00be ebc1 d23d 872f 1cbd
00000010: b57f 89be 59c7 ac3d b20b 8dbc f1b4 853c
00000020: 86ea 043e 9e49 7dbe 6eba a2bd 1ad5 643c
00000030: 4679 2abe ea96 00be 4a19 543e e960 d23c
00000040: 3f1d b8bc e47b d5bb ab86 32bd 1ef6 47bd
00000050: ec94 41be 16ea ebbd 89ad 19be 986e 47be
00000060: 9f70 41bd 66f3 2ebe 008b 5f3e 242e 60bd
00000070: eb87 53be 3203 72bc 3b54 2fbe 25b7 2ebe
00000080: c2cd 85bd 1663 d53d 17c4 553e d6e4 50bd
00000090: cd4c 2dbe ac6b 86bd b2ce ce3d c99e cabd
000000a0: c5ea a5bd 2f9b a9bc 733e f63d 54ca 553e
000000b0: 0b9c 333e 0371 16be 038d 3cbe 2a0b dc3d
000000c0: 70af 41be 9046 38be b265 393d 637a 2ebe
000000d0: 2db3 97bd 8548 36be a17f 113d 7e0c 543e
000000e0: 3501 bc3c 1d0c 613e ed90 023e f28f 74bd
000000f0: 7240 f6bc bca0 16be 8df2 33be 0cd0 b63d
00000100: ea41 963d 11cc 80be fac1 ca3d c501 3bbe
00000110: 5b3f b63d ac0b a43d 8372 7abe a5e8 703d
00000120: 7987 543e 4dc0 513c ce9c c3bd 19b0 5dbe
00000130: 54d5 2c3e 80ea 6b3e 825f 193d 80f3 74bd
00000140: f2ce 6a3e 7df5 23bd c43f 7fbd 144c 74be
00000150: f483 04be 1cac 59be 9ac5 61be 628d 10be
00000160: 5c52 1f3e 2584 4e3d 4de7 7ebe da01 c63d
00000170: 5e92 28be ff2e bb3d 6407 3dbe 5dac 09be
00000180: 0336 61be e6e6 873d e00e 483e df92 1abe
00000190: e151 853e 7951 0ebe efb8 96ba 4da6 d5bc
000001a0: 2b02 a53d 3f04 403e eb3c 33bc f045 983d
000001b0: b078 52bd fafb a83c eead f6bc db8c 503d
000001c0: 0082 3a3e cf73 c23b 3f77 63be a8a8 3dbc
000001d0: 3c6a 943d fc04 90bd 6dcf ebbd 41e3 12bc
000001e0: 1bee b43d 0b98 b73d 77e0 aa3d 6d7a 8abd
000001f0: c214 55be 5342 223e e3a3 033d 35e6 863d
00000200: 8390 08bc 9cdf 373e 856d 3f3e 1617 2a3e
00000210: 8661 c13d 9079 32bd 7deb b73d df18 4cbe
00000220: f73f 213d 5de7 9bbd b4f9 4abe 9b50 9cbc
00000230: 7b11 febc 1368 203d ab8e d7bc 2840 ea3d
00000240: 963b 633e 9f96 573d 7c1d 5d3d dfae da3d
00000250: 80e2 a8bd 8a46 6f3e 4729 383e 9cf9 f8bd
00000260: b2d6 3c3e 4309 1cbe b872 873d 14c6 78ba
00000270: 007c 4b3e e865 2fbe b9ad 893c 937d 5d3e
00000280: 54d4 b5bd 5aed 1a3e e80a a9bc b169 773e
00000290: fd25 d23d 0a7f 10be 00f7 65bd 66c1 0f3e
000002a0: c663 e73d 18ff f2bc f830 04be fd06 ef3d
000002b0: c351 b1bc 1001 f53c bda2 1abd 5509 1d3e
000002c0: 8f17 c23d 0191 023e 2a9e 16be b793 53be
000002d0: 5a0c 3fbe 8a85 3b3e db22 febb 431c a9bd
000002e0: 7083 473e b15d 06be b496 4f3e af81 f43d
000002f0: 6286 2e3d c822 3e3e 4e8f 35be 4910 393e
00000300: 0f30 5fbe 2e4f 81be e14e e33d d22a 5e3e
00000310: d87f ba3d 9f1a fc3d b791 17be 5778 8b3e
00000320: 8139 dd3d 02c7 cb3c 082b 2dbe 3408 f3bd
00000330: 9170 653e 655b 3cbd 9c49 4ebe 28d3 f7bd
00000340: f588 8e3d cf0a ebbc 53ff 2bbe 41c2 c73d
00000350: 0643 4fbc 7117 eabd 8934 24be 92da 5dbd
00000360: 4954 b4bc 30dd adbd e36e 4b3e cf5f 133e
00000370: d39b 9abd f770 f4bd 071e 5bbe 0673 3ebe
00000380: e4db 16bd 78e9 4c3e fea7 17bd 62f7 7fbd
00000390: bfde 04bd 516a a3bd e87e 4bbe a141 223e
000003a0: 8d8d 48be dbab 583e 2c2a 26be 464d 07be
000003b0: 64d4 ccbc f797 42bc 6b7a c63d 737c 343b
000003c0: 9eac e1bd 850e 9abd a797 163e 9200 233d
000003d0: 6876 eebc deef 5b3e 7049 09be 255b 10be
000003e0: 6146 6d3d ecec a63d 75ec 17be 4e47 6d3e
000003f0: e2b3 363e a48d a53c 5884 1ebe 981e 2a3e
-0.165631 -0.12557422 0.10290893 -0.038131263 -0.26855245 0.0843646 -0.01721749 0.016321631
0.12980089 -0.24735114 -0.07945715 0.013966823 -0.16647825 -0.12557569 0.20712772 0.025680976
-0.022474883 -0.006515013 -0.04358546 -0.0488187 -0.18904465 -0.11519258 -0.15007605 -0.19475782
-0.047226544 -0.17085037 0.21830368 -0.054731503 -0.20657317 -0.01477127 -0.17121975 -0.17062052
-0.06533386 0.1041929 0.20875584 -0.050999485 -0.16923828 -0.065635055 0.10098018 -0.09893567
-0.08101419 -0.02070388 0.1202363 0.20877963 0.17539994 -0.14691548 -0.18413167 0.10744317
-0.1891458 -0.17995667 0.045263 -0.17038874 -0.07407222 -0.17801102 0.035522107 0.2070789
0.022949794 0.21977277 0.12750597 -0.05970759 -0.030060027 -0.14709753 -0.17572995 0.089264005
0.07336791 -0.2515569 0.09900279 -0.18262394 0.08898803 0.08010039 -0.24457745 0.058815617
0.20754804 0.012802196 -0.095513925 -0.21649207 0.16878253 0.23038673 0.0374446 -0.059802532
0.22930506 -0.040029038 -0.06231667 -0.23857147 -0.12940961 -0.21257061 -0.22048035 -0.14116433
0.15558761 0.05041899 -0.24892922 0.09668322 -0.16462085 0.09139823 -0.1845985 -0.13444658
-0.2199326 0.06635837 0.19536924 -0.1509509 0.2603903 -0.13898267 -0.0011499206 -0.026080275
0.08057054 0.1875162 -0.010939817 0.074352145 -0.051384628 0.020627964 -0.030112233 0.05091558
0.18213654 0.0059342156 -0.22213458 -0.011575855 0.07246825 -0.07032201 -0.11514173 -0.008965314
0.088344775 0.08964547 0.083435945 -0.06761632 -0.208087 0.15845613 0.032138716 0.06586877
-0.0083352355 0.17956394 0.18694122 0.16610369 0.09442429 -0.043572962 0.08980463 -0.19931363
0.039367642 -0.076124884 -0.19821817 -0.019081404 -0.031014195 0.039161753 -0.026313147 0.11438018
0.22190699 0.052633878 0.053983197 0.10677885 -0.082463264 0.23366752 0.17984496 -0.12156984
0.18441275 -0.15237908 0.06613678 -0.0009489965 0.19871521 -0.17128718 0.01680647 0.21629934
-0.08878389 0.15129605 -0.020635083 0.24161412 0.10261152 -0.14110962 -0.05614376 0.1403862
0.11298327 -0.029662654 -0.12909305 0.11671255 -0.021645432 0.029907733 -0.037752856 0.15335591
0.0947715 0.12750627 -0.14708772 -0.20661817 -0.18657055 0.1831266 -0.00775562 -0.082573436
0.19483733 -0.13121678 0.20272332 0.11938798 0.042608626 0.18567955 -0.17730448 0.18072619
-0.21795677 -0.25255722 0.11099029 0.21696022 0.091064155 0.12309765 -0.1480168 0.2724025
0.108019836 0.024875168 -0.16910946 -0.11866799 0.22406222 -0.045985598 -0.20145267 -0.12100822
0.06959716 -0.028691677 -0.16796617 0.09753848 -0.012650257 -0.11430252 -0.16035666 -0.054163523
-0.022012847 -0.08489454 0.19866519 0.14392017 -0.07549252 -0.11935609 -0.21398173 -0.18598565
-0.036830798 0.20010936 -0.037025444 -0.062491782 -0.03243899 -0.079792626 -0.1987263 0.15845348
-0.19585247 0.21159308 -0.16227025 -0.13213071 -0.02500362 -0.011877052 0.09691318 0.0027539998
-0.11019252 -0.07522301 0.14706288 0.039795466 -0.029109195 0.21478221 -0.1340692 -0.14097269
0.057928447 0.08150658 -0.14836295 0.23171732 0.17842057 0.020209141 -0.15480173 0.16613233

hiden_layers.4.bias f4 [64]
00000000: 122f 053d 8205 b5bb 7b23 77bd e586 09bd
00000010: bb30 33bd e961 9f3c 07d7 f93c b69b f6bb
00000020: 3114 43bd 86fa 103d 269f 3dbc b749 35bd
00000030: a454 1dbc fab4 08bc 38e8 edbb 3dee 403d
00000040: c001 99bc e796 1fbc 5568 96bb 7d71 2abd
00000050: 1841 f4bc d15a 72bb 4557 ab3c 18e9 98bc
00000060: 62c0 8ebc 6250 7dbb 1c30 cebc 0279 25bb
00000070: 364e a23b c61d 53bd c13f a5bc 99f6 293d
00000080: 2d1b cb3c 3550 79bd 85a0 36bd 6d42 6cbd
00000090: 2e9f 023d 9446 873c f3eb 2338 ce87 323c
000000a0: afaf 4f3d ffb1 44bd 9054 c1bc 7747 32bd
000000b0: c9a7 8dbc 61f6 7d3c f009 6f3d d18d 22bd
000000c0: 06d1 4e3d 0eb1 153d 169d 61bc deb1 c03c
000000d0: bba2 0ebd 94d2 06bc cc7d f4ba 728a 32bc
000000e0: b517 563d 7bc3 fa3c 8351 83bc 1bba 813b
000000f0: 3dbe b63c f0b2 ddb9 04f4 00bd 5e75 9bbc
0.032515593 -0.005524338 -0.06033657 -0.03357591 -0.043747645 0.019455867 0.03049804 -0.0075258864
-0.047626678 0.035395168 -0.0115735885 -0.044259753 -0.009602699 -0.008343929 -0.0072603486 0.0471022
-0.018677592 -0.009740568 -0.004590074 -0.041612137 -0.029816195 -0.00369804 0.020915637 -0.018665835
-0.01742572 -0.0038652648 -0.025169425 -0.0025249128 0.004953171 -0.051542066 -0.020172002 0.04149494
0.024793232 -0.060867507 -0.044586677 -0.057680536 0.031890087 0.016513146 3.9081973e-05 0.010896636
0.050704654 -0.048021313 -0.023599893 -0.043525185 -0.01729192 0.015500636 0.058359087 -0.039686028
0.05049231 0.036545806 -0.013770362 0.023522314 -0.03482316 -0.008228917 -0.0018653213 -0.010897266
0.052268703 0.03061079 -0.016030079 0.003958953 0.02230751 -0.00042285724 -0.03148271 -0.018976863
