results/13_less_points_around/epoch710/model_weights.pth (torch, 486655 bytes, 88 tensors)

init_layer.0.weight f4 [64, 5]
00000000: 6817 ffbd a8ac 453e db77 d03e 92d9 82be
00000010: 8949 4dbe c7d2 b53e 1a0a 903e 911a b23e
00000020: 1522 89bd 8983 71be cdd0 77be fbaa 383d
00000030: 4dc0 9fbe 1bdb 8ebe 2702 35be 81ed 06be
00000040: e599 3cbe caef 453e f064 963e 0fe1 d2bd
00000050: 4838 bebe 0851 fdbd f0ba 40bc ec0b 223e
00000060: a64f 5b3e 9d31 463e f876 1b3e dca0 b83e
00000070: f477 373e 112b 59be 2599 f13e 9f00 87be
00000080: b6c7 89bd 2e07 07be 39d5 8fbe 8c69 14be
00000090: 180e 363e 6473 003e cce4 23be 1cda 823e
000000a0: 4e71 18be ea17 f2bd 6c57 533e 78cb 5d3e
000000b0: e22a fcbd 98bf 48be 8ec7 3bbe af58 08be
000000c0: 66f1 f23c b005 86be 7a30 5abd c9b1 c63c
000000d0: 13ac 1c3e 3d91 6b3c 6149 8e3d 53c3 10be
000000e0: c2d3 22be 696f 663e 186d 9c3c 4547 0abd
000000f0: 0a16 57be 9951 99be 670f 303d e84c c23d
00000100: 620d 823e 1524 f8bd dd9c 36be 69f0 033c
00000110: a8a8 613d d27b 643e 3bb3 d43d e85e 20be
00000120: 6aa1 0abe 8a95 99bc fda2 8fbe 3073 f8bc
00000130: 790e 133e bada 8e3e 9f94 ef3d 6adc 60be
00000140: 62b0 4dbe 4c2d 303d a9cb 79bd fdb8 173c
00000150: e1ad 983d e091 6d3e 51f7 f03d 638d cdbd
00000160: ee86 2a3e 0dc5 1fbe c338 cf3c 4c56 f0bb
00000170: f8dd 87be b5ac 653e 60e6 193e b493 223e
00000180: 5938 05be 9826 a03d 8f9b 553e fb31 a03d
00000190: f198 07be 171a 9bbe 4ebb 9b3c e9f6 be3d
000001a0: abf8 4ebe efc4 d4bd 5d88 8c3e cfc7 9c3d
000001b0: a887 ecbd 4a35 6bbe dcd1 083a 91d4 6e3e
000001c0: 1edd 983c 7841 8abe 5267 0b3e 374f fcbd
000001d0: 1452 dd3d 3e70 093e 0a00 d43d f0bb 75be
000001e0: aaf6 123e 97fe 81bd d473 a53d af09 f13d
000001f0: 6c09 473e f2c8 7d3e 50fe 503e 6f4a 803d
00000200: f87e 523e a082 9a3d 47fc 13be 95dd 883e
00000210: 8f7c 20bd e27c a1bc 6b66 003d 3a28 493e
00000220: 9119 0b3e 3ec1 4dbe 0824 f63d d8d7 1f3d
00000230: d2c9 f2bd d7fd 343e 636f 86be fc65 923d
00000240: 1474 343e 34c5 a93c 2603 63be 0f79 c33b
00000250: 404b 34bd 8278 9c3d c45c 6bbe fa2c d4bd
00000260: 4098 813d cd52 0c3e b588 82be 77ee 5dbe
00000270: de96 9c3e 6a7e 033e 2ac2 6dbe 7c31 02bd
00000280: 6104 be3e 6f86 8ebd dd75 913e f6c3 d53d
00000290: 5065 9f3b f6fe 613b 99ea 88be 3c27 01be
000002a0: 8ef6 2d3d 8ef1 a3bc 4d82 043e a367 3abe
000002b0: 23bf 76bd 08c8 393d a852 cbbd bb31 3f3e
000002c0: 4e8b b13d 95c0 f83d d9e9 8dbe 9ce5 ec3d
000002d0: efdd 4ebe fb5b 6c3d 77cc ba3d d6f4 5d3e
000002e0: 9eb5 783e 22f7 09be e33a 26be 8e66 dabd
000002f0: ae82 37be 9d55 4bbe 8185 5fbe 000e abbd
00000300: 5c9b 34be 1818 f4bc cab1 803d 19e9 4dbe
00000310: d540 993e be6c ff3c 5f06 1fbe 8755 b53d
00000320: 368b 943b bf0d ddbd b80b 853e 5d0c 423e
00000330: 7c0b 613d 1032 333e 74ab bc3d 5d6a 1fbe
00000340: 7122 9c3d 65ed 1d3e d433 743e a934 f1bc
00000350: 0ba8 23be 8fcb 733e d570 87be a94e 12be
00000360: 279f b83d c5bf 483e 288c 663e cc76 153e
00000370: 58a3 f3bc c22f c1bc f853 82be 30f6 d43c
00000380: 7768 31be 6283 723e c77a 47be 7aca 893e
00000390: ac97 86be 29a8 60be 2fc7 ac3e 1910 a7be
000003a0: f4bb 66be f9d6 3e3e f96a f53d c670 78be
000003b0: 2bfe 27bd ca1f cf3c e108 cf3d ca8c 803e
000003c0: 952a 1c3e 2678 7f3d c3d6 2bbe 4aa0 2f3e
000003d0: a915 92be 6183 e23d 9f04 0fbb 4849 95be
000003e0: 3208 8fbe 7620 493e 3c26 1ebe 31ec b43e
000003f0: f397 20be ff76 7b3e efa9 b3bd b948 d2be
-0.12455636 0.19304144 0.40716442 -0.25556618 -0.20047583 0.35512373 0.28132707 0.34785894
-0.06695954 -0.23585333 -0.24200745 0.045084935 -0.312014 -0.2790154 -0.17676602 -0.13176538
-0.18418081 0.19329754 0.29373884 -0.10296833 -0.37152314 -0.12368971 -0.011763319 0.1582486
0.21417102 0.19354863 0.15182102 0.36060226 0.17916852 -0.21207835 0.47187153 -0.2636766
-0.06727545 -0.13186333 -0.28092363 -0.14493388 0.17778814 0.12544018 -0.16005248 0.2555703
-0.14886972 -0.118209675 0.20638818 0.21659648 -0.12312867 -0.19604337 -0.18337843 -0.1331508
0.029656123 -0.26176214 -0.053268887 0.024254696 0.15300016 0.014377889 0.0694759 -0.1413701
-0.15901092 0.22503437 0.019094989 -0.033759374 -0.21004501 -0.29945067 0.04298344 0.09487325
0.25400835 -0.12116257 -0.17833276 0.008052924 0.055092484 0.22312859 0.10385748 -0.15661204
-0.13538137 -0.018748064 -0.28054038 -0.030328363 0.1436099 0.2790125 0.11698269 -0.21959081
-0.20086816 0.04301195 -0.06098524 0.009260413 0.0745504 0.23200178 0.11765922 -0.10036733
0.16653034 -0.15602513 0.02529562 -0.007334506 -0.26536536 0.22429164 0.15029287 0.15876657
-0.13009776 0.07819861 0.20860122 0.07822033 -0.13241936 -0.30293342 0.019010212 0.09324438
-0.20212047 -0.103891246 0.27447787 0.07655298 -0.11549312 -0.22969547 0.000521926 0.23323275
0.018660124 -0.27003074 0.13613632 -0.123197965 0.10806671 0.13421723 0.1035157 -0.23997474
0.14351907 -0.06347387 0.08078733 0.11769425 0.19437188 0.24783686 0.20409513 0.06264197
0.20556247 0.07544446 -0.14451705 0.26731554 -0.03918129 -0.01971287 0.031347673 0.19644251
0.13583972 -0.20093247 0.12018591 0.039024204 -0.118549004 0.17674957 -0.26256856 0.07148358
0.17622405 0.020723917 -0.2216917 0.005965359 -0.044017076 0.076401725 -0.22984606 -0.10360141
0.063278675 0.13703461 -0.25494924 -0.21672998 0.30583853 0.12841192 -0.23218599 -0.031785473
0.37112716 -0.06959235 0.28410235 0.10437767 0.0048643723 0.0034484244 -0.26741484 -0.12612623
0.04247146 -0.020012643 0.12940331 -0.18203597 -0.060240876 0.04535678 -0.09927875 0.18671314
0.086691484 0.12146107 -0.27717474 0.11567232 -0.20201848 0.057704907 0.0912103 0.21675429
0.24288031 -0.1347318 -0.16233401 -0.10664092 -0.17920944 -0.19856878 -0.21828271 -0.0835228
-0.1763739 -0.029796645 0.062839106 -0.20108451 0.29932275 0.031179782 -0.15529774 0.08854204
0.004533197 -0.107936375 0.25985503 0.18950029 0.054942593 0.17499566 0.092123896 -0.15567918
0.07623757 0.1542259 0.23847896 -0.029444056 -0.15982072 0.2380812 -0.26453272 -0.14287819
0.09014731 0.19604404 0.22514403 0.14596099 -0.029740974 -0.023582343 -0.25454688 0.025996298
-0.17325006 0.23682931 -0.1948043 0.2691229 -0.2628759 -0.21939148 0.33745715 -0.3262947
-0.22532636 0.18636693 0.11983294 -0.2426177 -0.041013878 0.025283713 0.101091154 0.25107414
0.15250619 0.06237044 -0.16781144 0.17150989 -0.2853215 0.11060215 -0.0021822823 -0.29157472
-0.2793594 0.19641289 -0.15444273 0.3533645 -0.15682964 0.24557112 -0.08772647 -0.41071108

init_layer.0.bias f4 [64]
00000000: f885 683b dd6d eb3d b7b7 e0bd 4835 c2bd
00000010: 231b e7bd 44c5 543b 55d9 683a 657e fa3d
00000020: e793 b8bd 6883 aabd c513 8b3d 368c 7f3e
00000030: 1201 cd3d d751 a8bd 73f3 903c 86d5 fabd
00000040: d187 dfbd 7c4e 8f3c ff9d 28be 1378 d53d
00000050: 85b0 c6bb ecd3 a0bd 9ed2 043e ba25 703d
00000060: dc17 753d cf97 993d accb 463e 77a6 243e
00000070: 7e92 47bd 2afa fe3d c2f1 e13c bf60 31bb
00000080: dc53 663e cee5 0ebe 7296 34be 2408 61bd
00000090: b1f2 2dbd bc79 023c a6b8 2e3e d234 0e3e
000000a0: 1e95 29be ac78 6c3d 04a6 273e a5d8 04be
000000b0: 4a63 7d3d 609b cd3d fa50 913b a961 433e
000000c0: 6275 c83d a2a6 333e 0a64 11be c55e 323e
000000d0: 76e1 233e 490c 3b3e 8892 cb3d c1dc d1bb
000000e0: 870b b3bd 971e 6b3d fbf2 a3bd 8170 a4bd
000000f0: eeb2 123d c2b2 9abd e05f 29be db0c 573c
0.0035480242 0.11495564 -0.10972541 -0.09482819 -0.11284473 0.0032466212 0.00088824827 0.12231139
-0.09012585 -0.08325845 0.0679088 0.2495583 0.1000997 -0.08218735 0.01769421 -0.122477576
-0.10914577 0.017493479 -0.1646652 0.10423293 -0.0060635232 -0.07852921 0.12970969 0.05862973
0.059837207 0.07499658 0.19413632 0.16079126 -0.04872369 0.12450059 0.0275811 -0.0027065722
0.22492927 -0.13954851 -0.17635515 -0.054939404 -0.042467777 0.007963594 0.17062625 0.13887337
-0.1656079 0.05773227 0.16371924 -0.12973268 0.061862268 0.10039401 0.004434702 0.19080223
0.09788014 0.17544034 -0.14198318 0.17418964 0.16003975 0.18266405 0.09940058 -0.0064044897
-0.08742433 0.05740222 -0.08005329 -0.08029271 0.035815172 -0.075536266 -0.1654048 0.013125624

hiden_layers.0.weight f4 [64, 64]
00000000: c9fe fa3d deae 003e e294 463e ce44 d03d
00000010: a49e 34be 5cb2 64bd e982 6abe d256 313d
00000020: d0e0 c43d e29f 0e3e 7ae4 db3c cddd 03bd
00000030: 3dac d6bd 703c 063e 04f0 28be c452 89bc
00000040: d217 a83d 5ac9 47be 1929 fabd dc07 cf3d
00000050: 5a1b 3b3e 290b efbd a51b 633e c7ca 10be
00000060: 72c2 e1bd b32e 78bd 6107 ccba 8cf6 55be
00000070: 9bc1 463e 3a47 29be 728e 31be 4b99 51bc
00000080: 0732 3dbe 99e1 1fbd a5d7 4b3d 2d36 803d
00000090: dd3d 07be 0fa0 4a3e c8e0 0c3e 2e8c 723d
000000a0: 73dc 9e3d 7f59 4abe d012 1f3d 1aa4 0bbd
000000b0: c957 a83d 47bb 36be b8b5 09be ec62 953c
000000c0: cad7 123e 18fc 113e 16ca 02be 3a8f c53d
000000d0: 3e10 f83d 715e a93d 217b 60be 6355 0ebe
000000e0: 9514 5dbd 5707 aebd e9f4 38be 7891 18bc
000000f0: 6b58 51be 1b55 59bd f0c2 a53d 87e7 283e
00000100: 0a14 9fbd d9bd 69be ad67 99bd 0e65 c43d
00000110: a309 bb3d 6a41 3fbe 6d20 36be 1b0a 72bd
00000120: 2a3b f1bd 17ed 1fbd f0b8 323d 3a0f 33be
00000130: 9ecf 1ebe 6cda 8abd ce3f 853c 7d47 16be
00000140: 5123 2e3e 6a43 a03d 5aa9 0f3e 02ae edbd
00000150: 7a84 913d 94cd 9abc baa9 3cbe 16d6 79be
00000160: f6d1 633d 0f9f 47be 3908 52be 4cb5 c7bd
00000170: 09d3 2cbe a5d5 f23d 0319 903d 37d3 313e
00000180: 9805 3a3e 4b09 c13d b7f3 563e 6ed3 50be
00000190: 3eae e43d c877 8d3e 5e6e 0b3e 9f06 63be
000001a0: fd9b 28be e0ae 7dbe 1404 06bc b82c 273d
000001b0: 83e0 dbbd 397b bd3a c51f 81be cea1 5c3d
000001c0: a80e 5f3c 4ac5 2cbe d528 e43d 3f37 31be
000001d0: c254 66bd 200e 34be 2488 dfbd 2027 24bc
000001e0: d35a 063e 9121 bebd 84c3 9c3e e892 743d
000001f0: 00b8 92bd 0d12 37be b4d5 6c3e 2e93 48be
00000200: 9a67 e63c 7b58 57bd 0e8e 17be 5fe6 22be
00000210: 19f9 eb3d 42c9 af3d 4341 2dbe 3e73 54be
00000220: 8344 243e cd7d 203e 8c0a f7bd 92ab ff3d
00000230: 985d 2fbd cef3 d43d 5197 e63d c06e 873d
00000240: e7a7 d6bc 9bcd 223e 7392 c4bc 13af fe3c
00000250: bba1 b43d 5dbf 37be 1825 babd c143 07be
00000260: d16f f53d fc18 533d baf5 ce3d d34b 803d
00000270: f48e 1f3a 6352 2c3e c674 1bbe 087b 2dbe
00000280: 9484 093e 97d4 383d 3739 813d aa9d 2e3d
00000290: d20b 68be 00d1 9c3d ffdb 8ebd ed07 0b3e
000002a0: e9d6 e0bd 2e54 0c3e 6983 493d fe5f d43d
000002b0: 44a1 1c3e 0aac dbbd e381 aebd aa9f 1b3d
000002c0: 70ee 3f3e 0e12 993d 7f63 1e3e d32c 60be
000002d0: 6515 f8bd d56b 2d3e 465f dc3c ea9d 11be
000002e0: 4713 853c 6de9 7f3d 528e 9ebd e407 4bbc
000002f0: 056e e83d 7a0d 8f3d e359 2b3d 3b00 7bbe
00000300: 8e8a 66be 9150 b13d 8599 d73d ca60 49be
00000310: 3dde 3ebe d8c5 2dbe 454b 463e 2c95 2e3e
00000320: 94a2 6abe 3e75 873d c4d4 1d3e d7ad fb3c
00000330: 51e3 343e 7915 37be ef28 133e 4c9a 26be
00000340: ccb3 1fbc 0c01 cf3d af28 f03d cc36 0f3e
00000350: 9edd c3bd 25b3 703b 7b8a d13d 08b9 5fbe
00000360: 8dfc 823c d1ff a9bd 57d4 223e 479c bc3d
00000370: 9bcc 953d 1f2a fe3c 51e9 953d 0e0b d63d
00000380: a820 bb3b 4fe7 fd3b 38da 023e 9c01 7dbd
00000390: ecef af3c 4b50 003e aeab 8e3e 5123 053e
000003a0: 9bd8 4abe 1474 38bc 6a8d 793d 4376 18be
000003b0: d13a a63e 2676 243e 61a9 083e 6dc6 6d3c
000003c0: bc27 86bd f8c2 56bd 0c75 5dbe b702 2a3e
000003d0: 6a03 af3d df84 edbc 4dc0 453d 7122 a03d
000003e0: b158 913d 6947 92bd 9ed6 863e 7765 093e
000003f0: 713c 0ebe 9e07 debd e1fc 2f3e 796e ffbd
0.12255628 0.12566707 0.19392732 0.101693735 -0.17638642 -0.05583416 -0.22901501 0.04329569
0.09613192 0.13928178 0.026842345 -0.032193948 -0.104820706 0.13108993 -0.16497809 -0.016763099
0.08207668 -0.19510403 -0.1221487 0.10108921 0.18272153 -0.116720505 0.22178514 -0.14139853
-0.110234156 -0.06059141 -0.0015566164 -0.20894831 0.19409792 -0.16531077 -0.17339495 -0.012792896
-0.18476115 -0.039033506 0.0497662 0.06260333 -0.13207193 0.1978762 0.13757622 0.059215717
0.07756891 -0.19760703 0.0388363 -0.034092046 0.08219869 -0.17844878 -0.13448226 0.018235646
0.1434013 0.14256322 -0.12772402 0.09646459 0.12112473 0.082699664 -0.2192197 -0.1389976
-0.053974707 -0.08497494 -0.18062176 -0.009312026 -0.20443885 -0.05305968 0.08093822 0.1649457
-0.07767494 -0.22826327 -0.07490478 0.09589587 0.091326974 -0.18677297 -0.17785807 -0.05909167
-0.11778863 -0.039044466 0.0436334 -0.17486277 -0.15508887 -0.06779942 0.016265776 -0.14675708
0.1700566 0.07825358 0.14029446 -0.11605455 0.07105346 -0.018896855 -0.1842412 -0.24398074
0.055620156 -0.1949427 -0.20510949 -0.097513765 -0.16877379 0.11857156 0.070360206 0.17365728
0.18166196 0.094256006 0.20991407 -0.20393154 0.111660466 0.27630448 0.1361632 -0.22170494
-0.16465755 -0.24773741 -0.008179683 0.04081413 -0.107361816 0.0014456279 -0.2521955 0.053865246
0.013614334 -0.16872135 0.111406006 -0.17306231 -0.056233175 -0.17583513 -0.10914639 -0.010019094
0.13120584 -0.09283746 0.30617917 0.059710413 -0.071640015 -0.1787798 0.23128396 -0.19587395
0.028125573 -0.052574616 -0.14800283 -0.15908192 0.11522121 0.08583309 -0.16919427 -0.20747086
0.1604176 0.15672989 -0.120625585 0.12483896 -0.042813867 0.103980646 0.1125933 0.06612921
-0.026203109 0.15898745 -0.023995614 0.031089341 0.0881991 -0.17944093 -0.09089106 -0.1320944
0.11984218 0.0515375 0.10105462 0.06264462 0.00060866703 0.16828303 -0.15181264 -0.16941464
0.13429481 0.045124616 0.06309741 0.04263083 -0.22660759 0.07657051 -0.06975555 0.13577242
-0.10978491 0.13703987 0.049197588 0.103698716 0.15295893 -0.10726173 -0.08520868 0.037994064
0.187433 0.07474147 0.15467642 -0.21892099 -0.12113456 0.16935666 0.026900899 -0.14220396
0.016244544 0.06247847 -0.07741989 -0.012392018 0.113491096 0.06984992 0.04183377 -0.24511807
-0.22513792 0.08657945 0.105273284 -0.19665828 -0.18639465 -0.16970003 0.1936465 0.17049092
-0.22913581 0.06614159 0.15413195 0.030722542 0.1766484 -0.17879285 0.14371084 -0.16269797
-0.009747457 0.101076216 0.1172651 0.13985747 -0.095637545 0.0036727872 0.10231491 -0.21847928
0.015989566 -0.08300746 0.15901314 0.09209495 0.07314416 0.031025944 0.07319892 0.10451327
0.00571068 0.0077485214 0.12778556 -0.061769113 0.021476708 0.1253063 0.27865356 0.13001753
-0.19809191 -0.011258144 0.06092588 -0.14888863 0.32466748 0.16060695 0.13345863 0.01451264
-0.065505475 -0.05243203 -0.21626681 0.16602598 0.08545573 -0.028994022 0.048279095 0.07819069
0.07096995 -0.07142527 0.26335615 0.13417612 -0.13890244 -0.108412966 0.1718631 -0.12472243

hiden_layers.0.bias f4 [64]
00000000: 1f5b 2abd 43ed 9bbd f72e ac3b 77af a33d
00000010: 1d07 9f3d 67a8 ab3c 6ba6 023e 4056 9d3d
00000020: 7641 363d a0fa 41b8 2515 15be 4153 15bd
00000030: a4d7 10be 2144 e13c e77f 50bd b117 c13d
00000040: 8eb4 9a3c abbc 233d d779 afb8 7bf1 8e3d
00000050: a79c afbd 8a10 9cbb 8e6b 2abe d996 fe3d
00000060: 09e4 8e3c 0fca 2c3e dfe3 e7bd 2f00 9abd
00000070: ea37 3bbd c7ce bd3c 8aab e6bd f5be 36bd
00000080: e4ea 3dbe b9c9 45bc 5240 ec3d ae32 02be
00000090: dc24 2a3d 7e6f 8a3c 0403 7cbd 17df 68bd
000000a0: 4dcf 983d be40 eb3d 6ccf a6bd 6ace 9c3d
000000b0: eea1 3bbd 7268 e7bd c48e 253c b7d1 9b3a
000000c0: 6c48 65bd 4d4b 2dbd 7e82 f0bd 19a6 d13c
000000d0: 93b4 e93c fa4f 8abc 69fd 16be f2cc ecbc
000000e0: f932 ec3d 3703 ec3d 9081 88bd c682 e4bd
000000f0: c7c1 a9bd 2a28 17bd dfd4 643d 1799 f3bd
-0.041590806 -0.076136135 0.005254622 0.07992452 0.077650286 0.020954324 0.12758796 0.076824665
0.044496022 -4.62482e-05 -0.14558847 -0.03645635 -0.1414476 0.027498307 -0.050903227 0.09428347
0.018884923 0.03997485 -8.367345e-05 0.069796525 -0.08574801 -0.004762714 -0.16642591 0.12431116
0.01744272 0.16873954 -0.1132276 -0.07519566 -0.04570762 0.023169888 -0.11263187 -0.044615705
-0.18546635 -0.01207202 0.115357056 -0.12714645 0.041539058 0.016898867 -0.061526313 -0.05685338
0.074614145 0.11486958 -0.08145031 0.07656558 -0.045808725 -0.11299218 0.010104839 0.0011888061
-0.05597727 -0.04230814 -0.117436394 0.025591897 0.028528487 -0.016883839 -0.14745106 -0.02890632
0.1153316 0.11524051 -0.06665337 -0.111577556 -0.08288913 -0.036903538 0.055867072 -0.11894434

hiden_layers.1.weight f4 [64, 64]
00000000: d090 0abe ce26 29bd 556c d0bd 8681 003c
00000010: 5ffe 2f3e 7b54 34be 05e3 c3be adaa 7a3c
00000020: 7e65 10be 5f48 23be 9bc0 db3d b1dd 0a3c
00000030: fa47 07be 23fb 263d 732d 03be 785e 81be
00000040: 7304 c33e 9d62 a43d 8582 31be ff1c 2ebd
00000050: 2276 ed3d 7b85 193e 5caf c2bd 2dae 12be
00000060: ee6b 96be e946 003e 7231 02bc 1277 553e
00000070: d5bd 27be afb9 b73d fe05 313e 2723 043e
00000080: 3673 98bd 6fa6 943e 495d c63d 9837 533d
00000090: efd6 ecbd 6a06 cd3d abe0 9abe 6b46 0f3e
000000a0: 5250 5d3e 64e6 2a3e ee29 fc3d bb48 36be
000000b0: f134 8a3e c0d9 243e 5d83 2d3e 05f5 533e
000000c0: 115f 633e dd52 81be 9512 86be 221d 3abe
000000d0: 3cb8 4d3e 2cae 693e d944 4f3e b691 15be
000000e0: e445 043e 42da d1bd fd43 88be 1249 9b3c
000000f0: d3ed db3c 9d1b 4f3e e518 02bd 0d25 463e
00000100: d4fc a43d 287b af3d d563 3a3e 15e7 373e
00000110: c919 cfbd 6669 523e e833 89be f302 ecbd
00000120: 1f3c 19be 0cb4 273e 8830 443c 4c84 123e
00000130: 12e1 063e 4d0d 67be 7be1 983d 06de 8c3d
00000140: 6f92 63be bfd4 9fbd 38d9 c53d 587d fcbd
00000150: 2b2c 263e 9419 4e3e 7579 47be 927b 5abe
00000160: ec7b 4a3e 9c8f e9bd 18cc b03d 1c83 043e
00000170: 43c2 e9ba a7df 48be 9cd5 6f3e 88d7 6c3e
00000180: 77be 5d3d 3adc 2fbe 48e7 f6bd b451 773e
00000190: 693a 5b3d 3b28 543e a64a 51be 73c1 033d
000001a0: e908 c53d 6760 7f3d c053 88bd 6be2 19be
000001b0: aa15 133e 9ac7 913c 6167 5f3d 6185 c53d
000001c0: 1170 033c 7ed6 ec3d 1b47 913d a283 433d
000001d0: 530a 793e 71c9 963d ad2c bf3c 9172 2d3e
000001e0: 09fa f6bd bea7 25be 98bf 10be a2db 033e
000001f0: a35b 0cbe 5710 51bd 8bbd bcbd f638 4bbe
00000200: 584c 23be c512 5dbd dfe3 a83d 4f25 dfbd
00000210: ef04 92bd 4f04 25be 2f11 80be 8f4b 7ebe
00000220: 7461 87be ce2f 05bd 7143 ff3d 8602 893d
00000230: 40f3 e03d 7303 273e 5f5b 5abd c6b3 7fbe
00000240: dd37 17be 634e e33d 042d 98bd ebe8 96bd
00000250: 8f95 09bd b4cd 4f3d 3efe cfbd 8da7 f4bd
00000260: a042 413e de07 3ebe e448 69be 27b2 23be
00000270: e80a 2dbe 17f2 0bbe dafa cf3d eb0f 27be
00000280: 9eb3 d73c 45e0 923e 2a09 233e d9ea d33d
00000290: 4a07 89bd e949 033d 01a7 76be c9aa febb
000002a0: 309b 3ebe 8b43 67be 30f0 5c3e 44fa 5a3c
000002b0: cd79 15be 2cc1 9abd bb5c 603e 8881 0f3e
000002c0: 759b 683c bc31 463e 0c1d b63c 5044 543e
000002d0: 579a 17be a73c 763d 3626 78bd 7e07 d33d
000002e0: e450 c13d 2950 693d 9755 d73c 86b8 183c
000002f0: 55e0 d2bd 209b b53d 95cd 15be 9047 583e
00000300: 1693 573e c343 283e 473e fdbd 9043 10be
00000310: b564 f3bd f52d 6a3d 1f2c 8b3e 060c 22be
00000320: 280f 3f3e 2421 4c3e b7c1 863d 9efb 023d
00000330: adba 603e aa3a 063e d833 a83d a995 39ba
00000340: 3dc4 05be f5f1 acbd aedc 643e 4cec a23d
00000350: b0ea 17be 6478 323e 0686 63bd d849 87bd
00000360: b358 b1bb f895 aabd 0f8d 0f3d 6346 a93d
00000370: 52df 383e c558 213e 669b eb3d 7282 1a3e
00000380: 8a0d ac3d a8a2 6d3d 2ba6 54be c810 723e
00000390: 1528 08be 6ace 15be ae2e 4fbd 430f 353a
000003a0: 156a ac3d 3c0b 75be ed6b 073c 6871 87be
000003b0: e800 27be 81c5 aebd f8d1 243c 7e9b 12be
000003c0: 09cd eebd b3fa 0e3d cab8 2e3d 95e3 383e
000003d0: 39c8 8e3d c38c 58be d442 d7bd bc96 d43d
000003e0: e84d 5cbe 0d38 2dbe 4cfe 1f3e 5032 703e
000003f0: a3d2 28be fca9 fcbd e73d 5f3e 7085 fa3d
-0.13531804 -0.041296773 -0.10176913 0.007843381 0.17186879 -0.17610352 -0.3825914 0.015299481
-0.14101216 -0.15945576 0.10730096 0.008475707 -0.1321105 0.040766846 -0.12810306 -0.25267386
0.38089332 0.080266215 -0.17334945 -0.04250812 0.11594798 0.14992325 -0.095061034 -0.14324255
-0.2937922 0.1252705 -0.007946359 0.20846203 -0.16381009 0.08970963 0.17287442 0.12904035
-0.0744385 0.2903323 0.096857615 0.05156669 -0.11564433 0.10010989 -0.30249533 0.13991706
0.21612671 0.1668945 0.12312685 -0.17801182 0.26993516 0.1609869 0.16944642 0.20698936
0.22204234 -0.25258532 -0.26186052 -0.18175176 0.20089811 0.22820348 0.20241107 -0.14606366
0.12917286 -0.102467075 -0.2661437 0.018955741 0.026846802 0.20225377 -0.031762023 0.19350071
0.08056036 0.08568412 0.18202145 0.17959245 -0.1011234 0.20548019 -0.26797414 -0.11524
-0.1496434 0.16377276 0.011974461 0.1430828 0.13171795 -0.22563668 0.07464882 0.06878285
-0.22223829 -0.0780425 0.09660572 -0.12328595 0.16227786 0.20126945 -0.19479926 -0.21336201
0.19773835 -0.114043444 0.08632678 0.1294064 -0.0017834384 -0.19616567 0.2342133 0.23129094
0.05413672 -0.17173854 -0.12055832 0.24152261 0.0535225 0.20718472 -0.20438632 0.03216691
0.0962084 0.062347796 -0.06656599 -0.15027778 0.14363733 0.017795373 0.05454195 0.09644581
0.008022324 0.11564349 0.070936404 0.047732957 0.24320345 0.07362641 0.023336733 0.16938235
-0.12059409 -0.1617727 -0.14135587 0.12876752 -0.13706832 -0.051040974 -0.0921584 -0.19845948
-0.15947092 -0.05397298 0.08246588 -0.10895788 -0.07129847 -0.16114925 -0.2501311 -0.24833511
-0.26441538 -0.032516293 0.12464035 0.066899344 0.10983896 0.1630991 -0.053309795 -0.24970922
-0.14767404 0.110989355 -0.07430461 -0.07368644 -0.033589896 0.050733283 -0.10155915 -0.1194602
0.18873072 -0.18557689 -0.22781712 -0.15985928 -0.16898692 -0.13666569 0.10155268 -0.16314666
0.026330765 0.2868673 0.15921465 0.10347528 -0.066908434 0.032052908 -0.24087144 -0.007771824
-0.18613887 -0.2258436 0.21576 0.013365332 -0.14597245 -0.07556376 0.21910374 0.14014256
0.01419722 0.1935491 0.022230648 0.20729184 -0.1480497 0.060116436 -0.060583316 0.103041634
0.09439257 0.056961212 0.02628593 0.009321338 -0.10296694 0.08867478 -0.14629205 0.21121049
0.21052203 0.16432099 -0.12365394 -0.14088273 -0.11884443 0.057172734 0.271821 -0.15824899
0.18658125 0.19934517 0.06579917 0.031978242 0.21946211 0.13108316 0.082130134 -0.0007079491
-0.1306314 -0.08444587 0.22349808 0.07955226 -0.1483562 0.17428738 -0.055547737 -0.066058815
-0.005412185 -0.083293855 0.035046633 0.08265378 0.1805394 0.15756519 0.11504249 0.15088823
0.0840102 0.05801645 -0.20766513 0.23639214 -0.1329654 -0.14629522 -0.050581627 0.0006906876
0.08418671 -0.23930067 0.008265478 -0.2645371 -0.1630894 -0.08533765 0.010059826 -0.14317128
-0.11660201 0.034907054 0.042656697 0.18055566 0.06971783 -0.21147446 -0.10510793 0.10380313
-0.21514094 -0.16915913 0.1562435 0.23456693 -0.16486602 -0.123371094 0.21800958 0.122324824

hiden_layers.1.bias f4 [64]
00000000: 0a3d 28bd f2a0 05bd b873 d13d b6e0 5abd
00000010: 7085 93bd d5f0 dabd 1813 f9bd 36ee bdbd
00000020: 5143 903d d10d 06bd e4d1 653d 463c 87bd
00000030: 629c 5f3d 742a 223d 6942 5838 5efc 97bd
00000040: 412e c03c e0b6 f63d c3f1 22bd 5cad 51bd
00000050: a4f5 f9bd 59f2 16bd 1824 9a3b 2dc4 2dbc
00000060: a4ae c3bd 892c 5abd 1f2e e6bc f8fb 453c
00000070: 59e7 52bd 15db bf3d 0077 043e b6ea c8bc
00000080: 7bec 773d 2c0b f73c d9e3 893d 3786 4cbd
00000090: 222d 80bc de5c 34bc 8a2c 22bc 2920 3fbb
000000a0: b6ee a83c 0553 eb3c 4b91 8dbd 8ea8 103c
000000b0: b119 c23c 40b8 11bc ee59 81bd 5da5 9ebd
000000c0: acdb a93d 6729 08bd f669 ba3d db3a b9bd
000000d0: d138 46bd ac22 1a3b 0e34 963d 0f2e a4bb
000000e0: 4cf0 a33b 84e2 49bd d3c0 0f3d 6e21 283d
000000f0: d419 0d3d 0dfa 27bd 813a 2c3d f9a6 3ebd
-0.041073836 -0.032624193 0.1022715 -0.053436957 -0.072031856 -0.10690466 -0.12161845 -0.09273951
0.070440896 -0.03272802 0.05610837 -0.06603293 0.054592498 0.039591268 5.1560262e-05 -0.07421182
0.023459556 0.120465994 -0.039781343 -0.05119072 -0.12205055 -0.036852214 0.0047040097 -0.010605854
-0.095547944 -0.05326513 -0.028098164 0.012084 -0.05149016 0.093679585 0.1293602 -0.024525981
0.06052826 0.030156694 0.067329116 -0.049932685 -0.015646521 -0.011008469 -0.009898314 -0.0029163456
0.020621639 0.02872611 -0.06912478 0.008829249 0.023693891 -0.008894026 -0.06315981 -0.07746384
0.08293852 -0.03324261 0.09102242 -0.09044429 -0.048394028 0.0023519201 0.073341474 -0.0050103734
0.005003011 -0.049288288 0.035096 0.041047506 0.03444846 -0.04100995 0.04204798 -0.046545956

hiden_layers.2.weight f4 [64, 64]
00000000: ecae 08be bbef 54be 3cfb 16be 70c9 3ebe
00000010: 961d eebd 3dc2 723d 5997 5cbd a234 b8bd
00000020: b5c1 553e e17d 9d3d be53 a33b 6653 27be
00000030: ab6d 993d abfb 51be bc48 f13d 995b 2f3e
00000040: 9f85 96be 2034 75be 4dd2 cc3d f6a3 e7bd
00000050: fc93 583d a53c 73be b90d cabd 5fad 0c3e
00000060: c941 14be 35f6 ab3d 0bd3 143e d8fc 0bba
00000070: 36e8 e6bd d139 35bd b378 4a3e 4d67 febd
00000080: db84 eabd da58 173c 3535 61be a32b c63d
00000090: a186 ac3d c2a1 f5bd 39aa 30be 54c1 5b3e
000000a0: 6f7e 15be 08de 4c3d 0819 5cbe 2d62 41be
000000b0: 1b5e c6bd b740 09be ab2d ecbd 4a2d 30bd
000000c0: c348 183d 037e 493e 1a54 b1bc bba6 12be
000000d0: 9e7d 1e3e b881 873d 63e0 f93b e0c7 8e3e
000000e0: fa6b 17be 00fe 55be 911f 47bd f857 783e
000000f0: 8696 1abc d64b 853d 06e6 6fbe 1ad1 903d
00000100: 572e e63d d587 46bb 15af 9b3d e7a0 f6bd
00000110: 6f86 023c 1e40 723c 5f77 193e 21b3 bfbd
00000120: 1b98 123e 5572 ca3d 7783 acbd f010 ddbd
00000130: 8f34 6dbd 6927 503e 6906 33bd e525 bdbd
00000140: 0674 d33d 4260 303d 2b14 ffbd ed26 efbc
00000150: 4f06 d53d 9657 33be e895 a63d 2ef5 723d
00000160: 1ef3 a0bc 05ea dd3d 3f7f abbd 03ef 2bbe
00000170: e401 ce3d 24fe 103d 926b dd3b b549 133c
00000180: f7ec 06be 5b68 0f3d 2ffd c23d cf36 243e
00000190: 017f e7bd 0832 cebc 04c5 5c3e 34c2 aa3d
000001a0: 4eb5 7d3d 88a1 e6bd 1512 edbd 0925 3bbe
000001b0: 15a5 103c 6177 26be 6826 8a3d 9a80 d13d
000001c0: 4988 8abe b574 c3bd 13ad 17bd 5f8f 6e3e
000001d0: b486 13be 7a82 ac3d 4005 43bd c75d 0cbe
000001e0: 7aa8 04be cf46 4b3d e361 f63c c1c0 ec3d
000001f0: 8a02 40be 192c 03be 49f4 333e 5e46 263e
00000200: 9a99 79be 9197 8fbc 6b5d a63d dd36 293e
00000210: 9aa2 0f3e 046d e43d 2b33 10be 54f5 993d
00000220: f44a 1c3d 9ec5 64bb 0774 e63c 70c0 b3bd
00000230: 0581 023e c8b9 85be 6221 6e3e 2dbc 53bd
00000240: 0c46 2e3e 80b1 0c3e 9bd5 88be 8060 d6bd
00000250: 5ee9 00bd daaf 66bd 437c 1d3e 7e84 b4bd
00000260: 3a4f 31be d8be 873d 249f 0ebe 7747 bdbb
00000270: e8e0 2bbe 1aa0 ee3d 3241 ebbd 281e 98be
00000280: d75d 733c 4ac4 783e 7f66 d0bd 4eaf 053e
00000290: d534 1d3c d22a 94bd d2d6 2f3d f607 553e
000002a0: dc8c 933e e1a4 1a3d aaf2 2bbe d718 2c3e
000002b0: 90a3 1a3e 0730 5fbd 67ef 7fbb 3e28 c23c
000002c0: 9f95 7b3e 0ec2 8fbe a1cb 323e 1014 213d
000002d0: 2926 57be 1c9e 12be 370c 223d 8a29 c5bd
000002e0: 52b5 943e 17c5 f13d 3c20 9e3e 21b8 463e
000002f0: 828e f23d 18e9 9fbe 856b bbbc df39 3d3d
00000300: b1ed b33d e4f0 973e c011 223e 2546 6fbd
00000310: 209c 6a3c 686c 85be e152 253a 53f4 b5bd
00000320: f6ea 46be 1c68 67be 0843 69be 5ce0 823e
00000330: 95ea 533e 3f6d b2bd 9810 4abd 14ce 56be
00000340: 9e52 803e 587b 9c3e 18de 1ebd ae92 b83d
00000350: bf39 0abe 0751 4bbe 846d 16bc 14b2 c43c
00000360: 7683 11be c017 2abe 6b57 c0be 6635 adbd
00000370: 3142 9abd fc78 a93f 0078 0d3e 2a3c a03c
00000380: ee81 4f3d 6e3d ac3d 5a74 6dbe 9272 73bd
00000390: e3b0 283e 8882 9dbd ca2e 3cbe b00b ee3d
000003a0: d726 60be a7e6 66bd 4e08 963e 0d81 5f3d
000003b0: 84b3 0b3e 175b 2a3d dac4 45be d53f 32be
000003c0: 618b 393e 65bd 86be 10e5 a13d c0a3 d0bc
000003d0: 73fe 763e 98b5 823e 5a9c 933d f2b5 37be
000003e0: bade 133d 051c 05be fc4f d4bd fe67 a73e
000003f0: 3114 12be d57a f93d 2dfb 77be 59b6 adbb
-0.13347977 -0.20794575 -0.14744276 -0.1863153 -0.11626737 0.05926727 -0.053855274 -0.08994414
0.20874675 0.07690025 0.004984348 -0.16340408 0.07491621 -0.2050616 0.11781451 0.17124785
-0.2939882 -0.23945665 0.10001049 -0.1131057 0.052875504 -0.23753603 -0.09865899 0.13738011
-0.1447822 0.0839657 0.14533632 -0.0005340106 -0.112747595 -0.04424459 0.19772606 -0.12422047
-0.114511214 0.009237492 -0.21992953 0.09676292 0.08424116 -0.119937435 -0.17252435 0.21460468
-0.14599012 0.050016433 -0.21493924 -0.18885107 -0.09685918 -0.13403593 -0.11532148 -0.04301194
0.037178766 0.19676976 -0.021646548 -0.14321415 0.15477607 0.06616539 0.007625626 0.27886868
-0.14787284 -0.20897675 -0.04861409 0.24252307 -0.009435302 0.06508605 -0.2342759 0.07071133
0.112393074 -0.0030293365 0.076017536 -0.120424084 0.007966622 0.014785795 0.14986943 -0.09360338
0.14315836 0.09885088 -0.084235124 -0.10794246 -0.057911452 0.20327534 -0.043707285 -0.092357434
0.10324864 0.04306055 -0.124550186 -0.029193366 0.10401594 -0.1751388 0.08134061 0.059315853
-0.019647177 0.10835651 -0.0837388 -0.16790394 0.10058954 0.035398617 0.006757208 0.008989741
-0.13176332 0.03501163 0.09520947 0.16036533 -0.11303521 -0.025170341 0.2155953 0.083378226
0.061940484 -0.112612784 -0.115757145 -0.18275847 0.008828421 -0.16256477 0.06745607 0.10229607
-0.27057102 -0.095437445 -0.03703029 0.23296879 -0.14406854 0.08423324 -0.04761243 -0.13707648
-0.12954894 0.049628075 0.030075973 0.115602024 -0.18750969 -0.1280979 0.17573656 0.1623778
-0.24375 -0.017528327 0.08123287 0.16524835 0.14026871 0.111536056 -0.14082019 0.07517496
0.03815742 -0.0034907828 0.028131498 -0.08776939 0.1274453 -0.26118302 0.23254922 -0.05169313
0.17018908 0.13739586 -0.26725468 -0.10467625 -0.031472556 -0.05632005 0.15379433 -0.088143334
-0.17315379 0.066281974 -0.13927895 -0.0057763415 -0.16785014 0.11651631 -0.114870444 -0.29710507
0.014853916 0.24293628 -0.101757996 0.13055155 0.009595116 -0.0723473 0.042929478 0.20803818
0.28818405 0.037754897 -0.16791788 0.1680635 0.15101457 -0.05448916 -0.0039052607 0.02370083
0.24568795 -0.2807774 0.17460491 0.039325774 -0.2101065 -0.14318126 0.03956243 -0.096270636
0.29044586 0.1180517 0.30883968 0.19406177 0.118435875 -0.31232524 -0.022878418 0.04619777
0.087855704 0.29675972 0.15827084 -0.058416504 0.01431945 -0.2605927 0.00063066004 -0.08884492
-0.19425568 -0.22598308 -0.22779477 0.25561798 0.20694955 -0.08712243 -0.04933223 -0.2097705
0.25063032 0.30562854 -0.038786024 0.09012352 -0.13498591 -0.19855128 -0.009181384 0.024010696
-0.14210305 -0.16610622 -0.37566695 -0.084574506 -0.07532156 1.3240047 0.13815308 0.019559938
0.05066102 0.08410154 -0.23188916 -0.059435435 0.16473727 -0.076909125 -0.18377224 0.11623323
-0.21889816 -0.05637231 0.2930321 0.05456643 0.13642699 0.041590776 -0.19313374 -0.17407162
0.18119575 -0.26316372 0.07905018 -0.025468707 0.24120502 0.2552917 0.07207556 -0.179405
0.03610108 -0.1299897 -0.10366818 0.32696527 -0.14265515 0.121816315 -0.2421691 -0.0053012786

hiden_layers.2.bias f4 [64]
00000000: ed2d 623d 6d37 9abc ae31 903c fbb7 123e
00000010: 8059 64bc b2fe 8f3d 6312 993d 5f5c c8bd
00000020: 75a6 0dbe b434 043d f9c7 c33c ec8a 523d
00000030: 4d02 e43d 2844 833c f9ac f9bc 7faa b1bd
00000040: cf75 a9bc fb09 943d 9750 81bc bc16 143c
00000050: 4e0a 89bd b7a8 b1bd 1dc3 fe3d b57a 1abd
00000060: e878 d2bc 16ae 0cbb 2bde 793c 8832 953d
00000070: 3c34 5dbd d015 d0bd 7f5c 7fbd 7149 4dbc
00000080: 3a57 cd3c a1eb 8a3d 6fd7 813b eb0d a0bd
00000090: 6673 4fbd 2f4f b73c cb77 363d 9a2c d1bc
000000a0: c8ce 2f3d ece1 413d 05ad a2bc b0cc 183d
000000b0: b122 9a3c 1a30 65bd c2cb 643c 027b 95bd
000000c0: 12b0 223d b19a 3fbd 38a8 9f3a 54f6 6a3c
000000d0: 46b5 77bd 2a66 cdbd 1f88 01be 731a 0fbd
000000e0: 91cd 943d 1c0c f43b 8a22 433c 6893 133b
000000f0: 02c1 67bd 9742 94bc ab67 efbd 4273 06bd
0.05521958 -0.018825257 0.017601814 0.14327995 -0.013937354 0.07031001 0.0747421 -0.097832434
-0.1383303 0.032276824 0.023899065 0.051402017 0.11133251 0.01602371 -0.030477988 -0.08675098
-0.020686058 0.07228466 -0.015785499 0.009038623 -0.066914186 -0.08674758 0.12439559 -0.03771468
-0.025692418 -0.0021466068 0.015250723 0.07285029 -0.054004893 -0.101604104 -0.06234407 -0.012529717
0.025066007 0.06783224 0.0039624493 -0.07815155 -0.050647162 0.022376625 0.044547837 -0.025533963
0.04292181 0.047334597 -0.019857893 0.03730458 0.01881537 -0.055954076 0.013964595 -0.072988525
0.039718695 -0.046778385 0.001218087 0.014340956 -0.06047561 -0.10029252 -0.12649582 -0.034937333
0.07265771 0.0074477326 0.01191009 0.002251828 -0.05658055 -0.018098159 -0.11689695 -0.032824762

hiden_layers.3.weight f4 [64, 64]
00000000: d7f0 20bd cdb3 8d3e 4f5a 2bbd b39e 1fbe
00000010: 16c3 9d3e f66e 52be e019 67be c065 5b3d
00000020: b815 5c3e 8db4 7d3d 99b1 183e 2459 21be
00000030: 31bf 6dbd d167 873e 549f 7a3d 4eb3 0f3d
00000040: 5101 913d 31a6 a2bc 0bef 36bd c15e 7fbe
00000050: 969b 1d3e 31f6 69be f82a b83c 2947 c03d
00000060: a35a 43bd 6232 7abe faa3 dabc 0d22 88be
00000070: 57ac b73c 47a4 a3bc ab7e 45be 4f7c 8abd
00000080: 63c0 433c 24ed d5bd 1bee 2e3e b873 203e
00000090: 1b02 9e3d e727 4cbe 8c68 c43d ce71 05be
000000a0: 29b8 08be 5f5b 23be 2871 fcbd fe68 e5bd
000000b0: 4f3c 1c3e 555a 73be b243 873e 0e07 193d
000000c0: aa13 043e a358 933e 7110 91bc fee2 a7bd
000000d0: f324 583e b659 ad3d 7052 e23d 8f9c 2dbd
000000e0: e5bd dfbd 855d 073e 77a9 eabd d526 0ebe
000000f0: 9e40 4b3e ef14 593e 0446 473e d3e1 6bbd
00000100: f416 053e bd27 bcbd eca8 59be 5471 2a3e
00000110: b424 373e 54ce 663d 2496 d0bd d9a7 233e
00000120: 72fb b83e 1d47 bcbd be57 433e e20a 6dbd
00000130: e0c7 413d cdb5 f7bd 3fde 3c3e df6a 423e
00000140: 7e64 9fbb d631 11be 2a61 a13d 8e0a 023e
00000150: c018 16bd 5c13 f23d 0484 67bd 362a d93d
00000160: 1bcb 043c 393e ef3b 0fda 6bbe 137e cdbe
00000170: d232 afbc d473 24be 2977 edbd 50a4 cbbd
00000180: 4373 c03d de82 02be e733 d53d c5aa 233e
00000190: 3f7f 793e d5de dfbd b1ce 13be 7da5 743e
000001a0: 4ae8 6bbe 4d83 7fbe 4521 493e 6c52 a6bd
000001b0: ea83 7a3d ea1e 9dbe bc72 b03d f983 b9ba
000001c0: 6183 303d f88b 583b f4bb d43d 4a68 f8bd
000001d0: 9b6a 33be e75b bdbd 2988 14be 7827 a43b
000001e0: a013 913d e983 ff3d dfde 453b b9b8 abbc
000001f0: 57a0 373e 6aa8 1b3e f7ab f1bd 7482 313e
00000200: 87b6 3cbe 68e7 fb3d 317e 333e 4222 c0bd
00000210: 8ebc 813e c4c5 e1bd 505f 5f3d f945 aa3d
00000220: d54e af3d a0cd 073e ee3b 37be 41d6 933d
00000230: a09d 7938 e9ca 4d3e 0d34 513d c0a3 0ebd
00000240: 7417 7a3d e186 a8be e3f9 31be ce85 62be
00000250: 1fa4 65be c165 103d ee21 0bbe fef3 e73d
00000260: 1188 6ebe 9b39 bd3d dddb 183e acf3 4f3d
00000270: 3b3f 50be 71d9 9d3c 0416 c53d cc6d 303c
00000280: 94c4 b8be ed09 2cbe a39f 463e b584 37bd
00000290: 728b f73d 358b 30be 99b9 293e 4316 0a3e
000002a0: c9b0 11be b251 efbb 3325 d7bd 8606 4b3e
000002b0: 99a6 9c3e 96fc 75be 4452 02be f9ce 9c3d
000002c0: 6c56 a63d b5d6 273e 0938 2ebe 5e26 da3d
000002d0: 037e d33d dbbe f4bd b028 0e3e 6cdc 97bd
000002e0: 9781 893e d10f 7fbc 7f9d bcbd 7f9c 49be
000002f0: b959 3abe a472 16bd b01e 29bd 35f5 fd3c
00000300: 58a9 febd 3d44 8c3c 84fe 003c 7cc3 47bd
00000310: 7cf1 79be 2f2f 6bbd befb ecbd c09c 72bc
00000320: ee03 523e 9979 043b 4581 42bd fbbf e7bd
00000330: 34e0 2f3d fc8d d8bd 8ceb 8abd a3ff 5a3d
00000340: 2124 8a3c 559f b43b 97ba 27be d5f0 72bd
00000350: 8aec 40be e208 4a3e abdb 103e 7667 3ebe
00000360: c05f 18bd 060b cebd 2ce8 b0bd d95a 4cbe
00000370: 69a8 7a3e 41e6 6a3e 8f70 603e ce2c d33c
00000380: 70e6 e1bd 7a1e af3d cfb7 abbd e8a2 a63d
00000390: 1cde 643d 642d 5dbe e93e c1bd 5e80 0b3e
000003a0: 634d 003c 2f0f 50be afbc 12be e7eb 13be
000003b0: 16a7 393e 3442 c03d d3fe 1f3e 3986 043e
000003c0: dd18 3a3e 5acf 0f3e cecf 883e 0bb4 31be
000003d0: fb0a 5ebd 6a5e ed3c dee0 813e 81d5 4a3e
000003e0: 077c 663d 98aa e3bd 6f9b 9fbb a984 183e
000003f0: 5d7c 073d 48cb 03be 4cc9 05be 6452 993d
-0.039292183 0.2767624 -0.04183417 -0.15587883 0.308129 -0.2055014 -0.22568464 0.053563833
0.2149266 0.061939765 0.14911498 -0.1575666 -0.058043662 0.26446393 0.061187103 0.035083108
0.07080329 -0.019854637 -0.044661563 -0.2493849 0.15391383 -0.22847821 0.022481427 0.09388573
-0.04769386 -0.24433282 -0.026689518 -0.2658848 0.022421045 -0.019975794 -0.19286601 -0.06761991
0.011947724 -0.104456216 0.17083018 0.15669143 0.07715245 -0.19937097 0.09590253 -0.13031694
-0.13351502 -0.15952824 -0.1232627 -0.11201666 0.15257381 -0.23764928 0.26418835 0.037360243
0.12898126 0.28778562 -0.017708035 -0.08197592 0.21107845 0.08464377 0.1105088 -0.042385634
-0.109248914 0.13219269 -0.11458104 -0.13882 0.19848868 0.21199392 0.19460303 -0.05758841
0.12997037 -0.09187267 -0.21255845 0.16644794 0.17885095 0.056349114 -0.10184887 0.15981998
0.36129338 -0.09193251 0.1907644 -0.057871707 0.047309756 -0.120952226 0.18444155 0.1898608
-0.0048642745 -0.14179167 0.07879861 0.12699339 -0.036644697 0.11820099 -0.056522384 0.10603754
0.008105065 0.0073011187 -0.23032402 -0.4013525 -0.021386538 -0.1605981 -0.115949936 -0.099434495
0.093969844 -0.12745234 0.1041029 0.15983112 0.24364947 -0.10931174 -0.14434315 0.23891254
-0.2303783 -0.24952431 0.19641598 -0.081211895 0.06116096 -0.30687648 0.08615634 -0.0014153711
0.043094043 0.0033042412 0.10387412 -0.121292666 -0.17521136 -0.092460446 -0.14505066 0.005009588
0.07083821 0.12476332 0.0030192656 -0.020962106 0.17932259 0.15200964 -0.11800378 0.1733492
-0.18429004 0.122999966 0.17528607 -0.09381534 0.25339168 -0.11024049 0.054534256 0.083141275
0.08559958 0.13262033 -0.17893955 0.072186 5.9513026e-05 0.20096935 0.05107503 -0.034824133
0.061057523 -0.32915404 -0.1738048 -0.22121355 -0.22425888 0.03525329 -0.13587162 0.11325835
-0.23294093 0.09239503 0.14927621 0.050769493 -0.2033662 0.019268723 0.0962334 0.010768365
-0.36087477 -0.16800661 0.19396834 -0.044804294 0.12087144 -0.17240603 0.16574706 0.13485055
-0.14227594 -0.00730344 -0.10505142 0.19826707 0.30595854 -0.24022135 -0.12726694 0.076566644
0.081219524 0.16390498 -0.17013563 0.10651849 0.10326769 -0.11950465 0.13882709 -0.07415089
0.26856682 -0.015567736 -0.092097275 -0.19688605 -0.18198289 -0.036730424 -0.04128903 0.031000713
-0.124346435 0.017122382 0.007873181 -0.048770413 -0.24408525 -0.057418045 -0.115714535 -0.01480788
0.20509312 0.002021408 -0.047486562 -0.11315914 0.042938426 -0.10573956 -0.06783208 0.05346645
0.01686293 0.005512158 -0.16379772 -0.059311707 -0.18840232 0.19729951 0.14146297 -0.18594155
-0.03720069 -0.10060696 -0.08638033 -0.1995653 0.24478306 0.22939397 0.21917938 0.0257782
-0.110302806 0.08550735 -0.08384668 0.08136541 0.055875883 -0.21599346 -0.09435827 0.13623187
0.00783095 -0.20318292 -0.1432979 -0.14445458 0.18130144 0.09387627 0.15624551 0.12941827
0.18173547 0.14043942 0.26721042 -0.17353837 -0.05420969 0.028975684 0.25366873 0.19808008
0.056270625 -0.111165226 -0.004870824 0.14894356 0.033077586 -0.12870514 -0.1306507 0.07486418

hiden_layers.3.bias f4 [64]
00000000: 5f7b a8bd 1230 3fbd 34d7 8ebc 44b7 a1bd
00000010: 92d0 7ebd c555 cc3d 72ef 4bbc 2ca8 c43a
00000020: 3bf4 8bbd 7caf 55be ba2f 883d f5f9 9bbd
00000030: 2a94 8ebd 8f6e aa3b 9342 9e3d 2c49 90bd
00000040: 85e2 5f3c 7821 a93d d0de b33d 43b6 0e3d
00000050: 6318 96bd 9524 91bd b268 0cba c853 66bd
00000060: 7485 093d e6eb ff3c ed7c 82bc 2c97 90bb
00000070: 6028 b7bd f148 beb8 aa3e da3d 9b2a 05bd
00000080: 8d97 b73d 6d31 57bd 6c56 0a3d fd2b 51bd
00000090: aeb7 5f3d db73 4d3c e762 463d 590e 283d
000000a0: 6c88 2ebd 4488 c9bd 0dfb 133e b2b2 a63c
000000b0: ee0a 6bbd 5569 1c3d bfc4 55bb 6c82 373e
000000c0: 15eb fdb9 d193 40bd 2a2d 953d 9b91 dd3d
000000d0: c3d1 ffba 27b0 93bd 4213 8a3c 5d6d 35bc
000000e0: fd03 a43d cf41 e23d acbb dc3c bcd9 233c
000000f0: 2ba5 a73b b7e3 1ebe 80a3 edbc 6681 b4bd
-0.08226656 -0.046676703 -0.017436601 -0.07896283 -0.062210627 0.09977297 -0.012447225 0.0015003732
-0.06833693 -0.20867723 0.06649728 -0.07616035 -0.06961854 0.005201168 0.07727542 -0.070452064
0.013664846 0.08258337 0.087827325 0.034841787 -0.0732887 -0.070870556 -0.0005356177 -0.056232244
0.033574536 0.031240415 -0.01592871 -0.0044125523 -0.08943248 -9.0734924e-05 0.106564835 -0.032511335
0.08964453 -0.05253737 0.033773825 -0.05106734 0.05461853 0.012539829 0.048434164 0.041029308
-0.04261057 -0.09840444 0.14451237 0.02034888 -0.05738347 0.03818639 -0.003261849 0.17920846
-0.0004843107 -0.04701597 0.07284005 0.10818788 -0.001951747 -0.07211333 0.016854886 -0.0110734375
0.08008573 0.11047708 0.026944958 0.010000642 0.005116125 -0.15516554 -0.029008627 -0.08813743

hiden_layers.4.weight f4 [64, 64]
00000000: 7358 4dbe 3185 e6bd 318c 6b3d b5f6 a0bd
00000010: eba1 c3be bfe6 383d 9473 283c c3b9 01bd
00000020: 2d06 fa3d f47f 96be 0a38 aebd 7ae0 a53d
00000030: abd8 0cbe cbf7 d1bd 75d8 8b3e 40de c73c
00000040: 6969 edbb 09c0 71bc ffb9 36bd 8068 30bd
00000050: 06b3 44be 5433 2abd 50ce 0abe 6027 55be
00000060: e85e 4ebd d212 44be af3d 853e f64b 97bd
00000070: d946 5bbe dc27 16bc afae 10be 5812 6ebe
00000080: 6da0 b6bd fb14 013e e61e 253e 263d a1bd
00000090: b280 3abe 72e7 71bd a81b 333e b038 cbbd
000000a0: 781a dbbd d576 68bd b469 143e 580d 613e
000000b0: e232 283e 9eb1 2abe 81fe 71be 87fa 083e
000000c0: db4f 53be 1833 4ebe 9b7f 193d 8b0c 32be
000000d0: 6d6e 2fbe 9e49 24be b113 3d3d c9d4 413e
000000e0: f520 993b fb62 733e 95a9 f83d 26b3 9ebd
000000f0: 8d99 c63c b525 31be 770b 43be d0a8 6a3d
00000100: 826f 1a3e f885 79be f816 f63d 911d 25be
00000110: 3531 0d3e a39c ed3d bbfb 72be 93c3 473d
00000120: 077f 453e 1626 33bd e33a bbbd 9e63 6bbe
00000130: 94b1 893e d691 843e 96d1 093d 31c5 3dbd
00000140: 5f95 753e ed26 9fbd d564 6cbd 6f38 56be
00000150: 56a5 f9bd 78c5 51be f39d 4ebe 70c7 2bbe
00000160: 6a13 013e bc04 2b3d 9058 38be 21d4 753d
00000170: 1a93 16be eeb1 8c3d f64e 3abe 2edb 09be
00000180: 10ad 76be 89d0 983d c9ac 4a3e 7acd 05be
00000190: ba9c 493e be65 03be 84ae a1bd 6150 03bd
000001a0: eb23 d83d a76c 393e cde5 4cbd 155a 923d
000001b0: 2828 5dbd e4ee 1e3d 71d9 cabc ed69 343d
000001c0: 68e6 373e 64e2 b83b cf07 47be acc6 14bd
000001d0: 0002 be3c 0680 84bd 88c9 e7bd a3c4 46bd
000001e0: e4ce bd3d 94e4 d53d 550c d33d 1b67 91bd
000001f0: 59e6 62be 435f 4f3e 18d5 ac3c b2bf d13d
00000200: 6f1e 933c 0273 4d3e d98b 653e 2d84 993e
00000210: 22fb 223e 510d 62bc 5eb2 4a3d b2d3 47be
00000220: 3b91 0f3d 9dbf 96bd 4102 53be 8827 3abd
00000230: bd9b 1b3d 03cd a03d b639 8abd 813c de3d
00000240: 7260 713e 3e97 d33c dcc8 823d ecf7 d33d
00000250: 88cf 8dbd 589c 8e3e 8cf0 1f3e b323 04be
00000260: b69a 0f3e a353 11be d367 9d3d 0cbc 69bd
00000270: 78d3 493e 47bf 20be d423 2f3d 98ad 603e
00000280: 1a22 87bd 6f16 1a3e d9aa b4bc 11fa 963e
00000290: c466 a83d ffa7 09be 9649 efbd 9f9a 393e
000002a0: 7bc8 1d3e 6c50 15bc c519 27be 905f d43d
000002b0: c0e6 1dbd 49d5 b23b 4543 80bd 9f68 343e
000002c0: c964 fb3d 34e9 113e 6a80 cbbd 5fce 78be
000002d0: 259e 1fbe 03de 303e 42a5 08bc 42d2 a6bd
000002e0: 9d86 333e c080 03be 2bb0 483e bf94 e93d
000002f0: 96cc ea3c 0a8e 8d3e d3fa 21be 5645 813e
00000300: 554c 4dbe 69a8 72be 1f1f d83d b4e2 863e
00000310: 3d39 833e 7402 5b3e bcc0 07be 8e04 913e
00000320: 4803 033e 7340 b3bc f843 1abe 6ebd 4bbe
00000330: 44dd 923e 64af 9bbc bf7e 9cbe 1cbc 5dbd
00000340: 6649 2a3e d541 80bd 21c9 77be 1410 f63d
00000350: f73b 463a 941b 06be f425 68bd b6a7 5dbd
00000360: 6b39 843c aca5 d0bc 8d10 3e3e d0b5 913e
00000370: c695 71bd 5d08 afbd 8470 2dbe a326 64be
00000380: 496c 75bd 1376 6c3e 32c1 79bb 895d 16bd
00000390: 4eb6 aebd 4294 c8bd 798b 38be 3749 483e
000003a0: 3e98 20be 1765 a53e 5894 5cbe dbbf bebd
000003b0: fbca a1bd 9213 49bd 233b a63d 19fd 223d
000003c0: afdb 4ebd ab21 72be 7375 143e 7b89 943d
000003d0: 3f36 c03c b1bd 5d3e c584 12be cdde 18be
000003e0: a634 5c3d 42d0 a13d 4b26 1abe edc0 6d3e
000003f0: 9032 283e 0691 79ba 6dee 04be 5dc8 0b3e
-0.20053272 -0.11255873 0.057506744 -0.07859556 -0.3820947 0.04514193 0.010281462 -0.031671297
0.12208209 -0.29394495 -0.08506782 0.08099456 -0.13754527 -0.10252341 0.2731358 0.02439797
-0.007245232 -0.014755257 -0.044610973 -0.04306841 -0.19208917 -0.041552857 -0.13555264 -0.20815802
-0.05038348 -0.19147804 0.26023623 -0.07387535 -0.21413745 -0.009164777 -0.14129137 -0.23249185
-0.089173175 0.1260566 0.16125068 -0.07872991 -0.18213156 -0.059058614 0.17491019 -0.09922922
-0.10698408 -0.056753952 0.14493448 0.21977746 0.1642566 -0.16669318 -0.23632242 0.13376819
-0.20635931 -0.20136678 0.03747521 -0.17387597 -0.17131968 -0.16043708 0.046161357 0.18928827
0.0046731182 0.23768227 0.1214172 -0.077490136 0.02424314 -0.1729954 -0.19047342 0.0572899
0.150816 -0.24367511 0.120161 -0.1612456 0.13788302 0.11602142 -0.2372884 0.0487705
0.19286738 -0.043737493 -0.09142091 -0.2298722 0.26893294 0.25892514 0.033647142 -0.046330635
0.23982762 -0.077710964 -0.05771335 -0.20919965 -0.121897385 -0.20485485 -0.2017744 -0.16775298
0.12605062 0.041752562 -0.18002534 0.060016755 -0.14704552 0.06869875 -0.18194184 -0.13462517
-0.24089456 0.0746165 0.19792475 -0.13066664 0.19688693 -0.1283178 -0.07894614 -0.032059077
0.10553726 0.18107854 -0.050023843 0.07146088 -0.053993374 0.038802043 -0.024761887 0.04404633
0.17958987 0.0056422222 -0.19436572 -0.03632228 0.023194313 -0.06469731 -0.11317736 -0.04852737
0.09267977 0.104439884 0.103050865 -0.07099744 -0.22158183 0.20251183 0.021097705 0.10241641
0.017958848 0.20063403 0.22416629 0.29983655 0.15916112 -0.01379712 0.04948651 -0.19514349
0.035050612 -0.07360766 -0.20606329 -0.045447856 0.03799032 0.07851603 -0.06749289 0.10851384
0.23571947 0.025828954 0.06385967 0.10350022 -0.06924349 0.27853656 0.15619105 -0.12904243
0.14023861 -0.14192061 0.076858185 -0.0570641 0.19709575 -0.15697967 0.042758778 0.21941221
-0.06598301 0.1504762 -0.022054123 0.2948766 0.08222726 -0.13442992 -0.11683957 0.1812539
0.15408508 -0.009113412 -0.16318424 0.103697896 -0.03855014 0.0054575545 -0.06262831 0.17618035
0.122750826 0.14249116 -0.099366024 -0.24297474 -0.15587671 0.17272191 -0.008340182 -0.08145572
0.1753182 -0.12842083 0.19598453 0.11405324 0.028662007 0.2764743 -0.15818338 0.25248212
-0.2004865 -0.23697056 0.10552811 0.26344836 0.25629607 0.21387655 -0.13257116 0.28323787
0.1279422 -0.021881318 -0.1506499 -0.1989648 0.28684437 -0.019004531 -0.3056545 -0.054134473
0.16629562 -0.062625565 -0.24197818 0.120147854 0.0007562036 -0.13096458 -0.05667682 -0.05411502
0.01614066 -0.025469624 0.18561001 0.28459024 -0.058980726 -0.08546517 -0.16937453 -0.22280364
-0.059917722 0.23091917 -0.0038109538 -0.036710296 -0.085308656 -0.09793903 -0.18021955 0.19559179
-0.15683076 0.32303688 -0.21540964 -0.09313937 -0.079000436 -0.04909093 0.08116748 0.039792154
-0.050502475 -0.23645656 0.14497928 0.07252785 0.023463367 0.21654393 -0.1430846 -0.14928742
0.053761147 0.0790105 -0.1505367 0.23218127 0.16425538 -0.00095202064 -0.12981577 0.13650651

hiden_layers.4.bias f4 [64]
00000000: f861 ab3d 055d 33bd 79aa 9ebd c2a6 4cbd
00000010: fa5d bbbd a276 463c 426c bc3d 8ebc 24bd
00000020: 0b07 e3bd 64db 5f3d b3e3 273d 0b35 02bb
00000030: 2526 f3bb 9046 89bd 7d42 723d ac6a aa3d
00000040: b629 fd3d f429 073d 5006 483d bdec 43bd
00000050: 5270 62bd 2937 a03d a5ed 093d 8a7f 72bd
00000060: b0fe 9ebd 21b5 26be 3d44 92bc bbdf 6d3d
00000070: 4941 5f3d 4503 bfbd cf92 9fbd 1f62 e93d
00000080: 5b2d 14bd f7a0 febd 0dff e0bd 6c9c 73bd
00000090: 7d99 6b3d 904e 613d 63f0 7cbc 6bdc 4abd
000000a0: 3384 063e 1669 f93c ec08 55bd 2c16 ddbd
000000b0: 86b4 86b7 f14e a63d c5b4 123e 9664 29be
000000c0: 5b93 d93d 0229 093d 95c6 8bbd d096 913d
000000d0: fe2e 3abd c333 c33c df6e b83c 0ea9 92bc
000000e0: 416d 063e bef0 1c3d c2ab 923b 0dcd 88bd
000000f0: 2fe9 473d a9b8 823a a415 10bd 686a 09bd
0.083682954 -0.043789882 -0.07747359 -0.04996372 -0.09148784 0.012113245 0.09200336 -0.040218882
-0.11085328 0.054652587 0.040988635 -0.0019868042 -0.0074203187 -0.06702912 0.05914544 0.08321127
0.12361471 0.032998994 0.048834145 -0.047833193 -0.0552829 0.07823021 0.0336739 -0.059203662
-0.077634215 -0.16280033 -0.017854804 0.058074694 0.05450562 -0.093267955 -0.077916734 0.11395668
-0.036176067 -0.12433045 -0.10986147 -0.059475347 0.057519425 0.055006564 -0.015438172 -0.049526613
0.13136367 0.030445617 -0.05201046 -0.107952446 -1.6058108e-05 0.08120526 0.1432677 -0.16542277
0.10623809 0.033486374 -0.06824986 0.07108843 -0.04545497 0.023828393 0.022513805 -0.017902877
0.13127615 0.038315527 0.0044760415 -0.06679735 0.048806366 0.0009973246 -0.035176888 -0.033548743
