results/8_with_inertia/epoch1180/model_weights.pth (torch, 749334 bytes, 128 tensors)

init_layer.0.weight f4 [64, 5]
-0.32663602 -0.3486791 0.1719613 -0.041764565 0.2270074 -0.06574243 -0.016356105 -0.3423896
0.04308601 0.1380631 0.42674989 -0.08361523 0.10761622 0.10959514 0.2823711 -0.13443172
-0.24320325 0.2663061 -0.22296412 0.16216221 0.2722753 0.18828817 -0.13497563 0.06548144
0.14846686 0.37596524 0.25025147 -0.06188738 0.17935193 0.07841838 0.03387196 -0.3014142
0.2486197 0.0199337 0.2859788 -0.33018312 -0.16792873 0.054159377 0.28352126 -0.29573712
0.20040226 -0.33292162 0.12857556 -0.030676307 0.0912555 -0.28094974 0.29547435 -0.27505273
-0.24166165 -0.040206555 0.33099163 0.117016755 -0.10430712 -0.29425213 0.08337716 -0.31768635
0.2536819 -0.12885767 0.024120409 0.0023132376 0.08685697 -0.2700084 -0.26235047 0.16077302
0.28028858 -0.19210878 0.15514946 -0.027201792 0.16431119 -0.25309163 -0.0960621 -0.07444715
-0.02674875 0.06921979 0.029755166 0.20986761 -0.045575343 -0.29536155 0.2822604 0.2188376
0.14592785 -0.14003818 0.22877337 -0.24371806 0.21487035 0.028395548 0.2923433 -0.20907445
0.113666035 0.07371105 -0.17840615 0.29900575 -0.13069357 -0.20143776 -0.2942625 -0.2518424
0.20070568 0.12440208 -0.21923423 0.022547893 -0.28426138 0.024725614 0.18251863 -0.19304015
-0.25590593 -0.36263058 -0.3041977 0.07946067 0.230423 -0.23416276 -0.17408432 -0.06415246
-0.2095784 0.1435585 -0.18011558 0.25969544 -0.18281658 0.073052704 0.017751774 -0.10050351
0.022373665 0.17775843 0.22630316 -0.10615256 0.11151984 0.32510346 0.35831764 0.18427712
-0.1513892 0.17489864 -0.30966058 0.25524843 -0.006183142 0.07667425 0.28784347 -0.13212454
0.3257194 0.20901193 0.19082935 0.2193334 -0.10501671 -0.18516262 -0.26495743 -0.0069783237
0.2532264 0.13248129 0.18640073 0.043716487 -0.075213104 0.16027808 0.19575188 0.0573236
0.22906609 0.23996946 0.23053536 -0.2828479 -0.32836217 0.11963544 -0.11330584 -0.17081915
-0.29524466 0.14806184 -0.055892643 0.25480455 -0.15315247 0.2285946 -0.31875536 -0.18304458
0.12138722 0.123681605 -0.06889235 0.16478395 -0.05744503 0.17605908 -0.20307776 0.1212073
-0.19808023 0.22196501 0.2872098 0.23037314 0.19391115 -0.122417055 0.33433625 0.18595965
0.024831459 -0.08097451 -0.056850754 0.24264756 0.0781304 0.17306998 -0.12931947 -0.17705043
0.21783948 0.08186668 -0.12228085 -0.24888913 -0.188581 0.13088004 -0.19602408 0.31660953
0.33923298 -0.14805661 0.19040462 0.3340973 -0.16954695 0.25985324 0.18097225 -0.1174216
-0.11930944 0.2638587 -0.11066412 -0.19367401 0.14270464 0.0029635178 0.04327827 0.19040571
0.101854116 -0.028247187 0.13647123 0.06654294 -0.14511286 -0.34944916 -0.11688889 -0.24196702
0.17934455 -0.13939232 0.10194037 0.24677917 0.20067865 0.20704724 -0.29100218 -0.1497943
-0.3099864 0.1303451 -0.18357563 -0.23583853 0.30832142 0.1952176 -0.2893427 0.25567642
0.18430139 -0.19847462 -0.058707256 -0.055061307 -0.1920047 -0.2802129 -0.11293362 -0.18774171
-0.06129798 -0.25387347 0.044256523 0.34416565 0.25050908 -0.22821756 0.17385435 -0.1446945
00000000: d63c a7be 1186 b2be 9f16 303e 5211 2bbd
00000010: a174 683e f8a3 86bd 3dfd 85bc b14d afbe
00000020: f57a 303d 6a60 0d3e f67e da3e 763e abbd
00000030: e565 dc3d 6b73 e03d f292 903e 78a8 09be
00000040: 460a 79be 4659 883e b550 64be da0d 263e
00000050: ab67 8b3e 9dce 403e 0d37 0abe 221b 863d
00000060: b207 183e 847e c03e f620 803e 9f7d 7dbd
00000070: 08a8 373e d199 a03d 53bd 0a3d f652 9abe
00000080: 2a96 7e3e 004c a33c d06b 923e c30d a9be
00000090: 82f5 2bbe 39d6 5d3d b329 913e db6a 97be
000000a0: 4036 4d3e b474 aabe 50a9 033e e14c fbbc
000000b0: 2ae4 ba3d a5d8 8fbe 6a48 973e b6d3 8cbe
000000c0: 2776 77be a1af 24bd bc77 a93e 7ba6 ef3d
000000d0: f99e d5bd 37a8 96be a5c1 aa3d c9a7 a2be
000000e0: 98e2 813e 44f3 03be 2a98 c53c b099 173b
000000f0: 11e2 b13d 8a3e 8abe cd52 86be afa1 243e
00000100: fc81 8f3e 2ab8 44be 80df 1e3e 4bd6 debc
00000110: 3141 283e 3a95 81be 35bc c4bd bf77 98bd
00000120: 3220 dbbc 1bc3 8d3d 1bc1 f33c 89e7 563e
00000130: 36ad 3abd a139 97be 6f84 903e f716 603e
00000140: 1c6e 153e 2b66 0fbe 9143 6a3e 3a91 79be
00000150: f906 5c3e c89d e83c 05ae 953e 9d17 56be
00000160: bdc9 e83d d2f5 963d 1ab0 36be 4817 993e
00000170: 89d4 05be b345 4ebe 93a9 96be 7df1 80be
00000180: ca85 4d3e 85c6 fe3d f07e 60be 5cb6 b83c
00000190: b58a 91be 5f8d ca3c 2ae6 3a3e 51ac 45be
000001a0: 1a06 83be b7aa b9be cdbf 9bbe 47bc a23d
000001b0: 02f4 6b3e 5dc8 6fbe 2943 32be 5d62 83bd
000001c0: b89b 56be 0001 133e 3870 38be cdf6 843e
000001d0: 4534 3bbe a89c 953d 2b6c 913c c9d4 cdbd
000001e0: fa48 b73c 4e06 363e 04bc 673e 8366 d9bd
000001f0: 8464 e43d f673 a63e 6975 b73e 24b3 3c3e
00000200: c505 1bbe a118 333e d58b 9ebe ecaf 823e
00000210: f49b cabb 6407 9d3d 3860 933e a84b 07be
00000220: b1c4 a63e 3907 563e c568 433e ef98 603e
00000230: 0013 d7bd 459b 3dbe 80a8 87be 6caa e4bb
00000240: e4a6 813e 2da9 073e d5df 3e3e 0f10 333d
00000250: 5409 9abd f01f 243e 2e73 483e 27cc 6a3d
00000260: 4d90 6a3e 8eba 753e 7611 6c3e 71d1 90be
00000270: 161f a8be 6d03 f53d e40c e8bd 37eb 2ebe
00000280: 4f2a 97be 869d 173e afef 64bd be75 823e
00000290: 00d4 1cbe b414 6a3e e733 a3be 0a70 3bbe
000002a0: dd99 f83d c84c fd3d 6f17 8dbd 20bd 283e
000002b0: 7b4b 6bbd d548 343e 9ef3 4fbe 883b f83d
000002c0: 8bd5 4abe cc4a 633e 2a0d 933e f0e6 6b3e
000002d0: a590 463e cbb5 fabd 1f2e ab3e 356c 3e3e
000002e0: 586b cb3c f7d5 a5bd 56dc 68bd 9a78 783e
000002f0: d502 a03d 4239 313e 536c 04be b54c 35be
00000300: 5011 5f3e b8a9 a73d 626e fabd cbdc 7ebe
00000310: 611b 41be 6b05 063e 89ba 48be a51a a23e
00000320: f2af ad3e 279c 17be 6ef9 423e cd0e ab3e
00000330: b79d 2dbe 7c0b 853e ca50 393e bc7a f0bd
00000340: 8258 f4bd 7d18 873e dfa3 e2bd 7b52 46be
00000350: 2a21 123e 9437 423b 8e44 313d b7f9 423e
00000360: e498 d03d a566 e7bc 1dbf 0b3e aa47 883d
00000370: 7798 14be 00eb b2be 7163 efbd 34c6 77be
00000380: 19a6 373e dcbc 0ebe 1dc6 d03d aeb3 7c3e
00000390: b47e 4d3e 3104 543e 3dfe 94be ad63 19be
000003a0: 8ab6 9ebe 3079 053e 40fb 3bbe a87f 71be
000003b0: 4edc 9d3e 1fe7 473e ba24 94be 05e8 823e
000003c0: 81b9 3c3e ee3c 4bbe 0577 70bd f787 61bd
000003d0: e19c 44be 1178 8fbe be49 e7bd 5d3f 40be
000003e0: 9713 7bbd b4fb 81be 5446 353d 7b36 b03e
000003f0: ba42 803e ddb1 69be e006 323e cc2a 14be

init_layer.0.bias f4 [64]
-0.011465308 0.01462733 0.0018897203 -0.011299056 -0.022127127 0.0061614574 0.007921538 -0.00708259
-0.014642359 0.0001155592 0.002053476 0.0073187505 0.0043790904 0.023263298 0.02468488 0.008407656
-0.006454012 -0.00043832036 -0.012755722 -0.02304621 -0.0031991757 0.020425083 0.005325644 0.021253973
-0.021822557 -0.0067425524 -0.004689191 0.010534725 -0.004734495 -0.008868444 0.0061765844 -0.002014827
0.0007840669 0.028864274 0.008428406 -0.00092751597 -0.052687436 -0.028409135 -0.0031489227 0.024225602
-0.04404435 -0.016654966 -0.010031862 0.012549331 -0.00028894047 -0.024169939 -0.016613781 0.0016086564
0.0054147574 0.03281054 -0.03484751 0.0009008572 -0.005246812 0.06592622 -0.002668051 0.004828051
0.0077104433 0.017525395 0.006441619 -0.031519167 -0.022508396 -0.009030213 -0.02158748 -0.009555614
00000000: fdd8 3bbc 78a7 6f3c 7eb0 f73a ad1f 39bc
00000010: f343 b5bc 0de6 c93b 57c9 013c 1215 e8bb
00000020: 81e6 6fbc 6058 f238 9c93 063b 21d2 ef3b
00000030: 797e 8f3b ac92 be3c f237 ca3c 44c0 093c
00000040: 2d7c d3bb 5dce e5b9 60fd 50bc 68cb bcbc
00000050: 43a9 51bb 8152 a73c bd82 ae3b d01c ae3c
00000060: 38c5 b2bc a1f0 dcbb c9a7 99bb d799 2c3c
00000070: d323 9bbb f34c 11bc f264 ca3b 300b 04bb
00000080: d789 4d3a c574 ec3c 4c17 0a3c 8b24 73ba
00000090: c8ce 57bd 46ba e8bc 285e 4ebb c574 c63c
000000a0: d967 34bd ff6f 88bc ae5c 24bc b69b 4d3c
000000b0: ef7c 97b9 0900 c6bc a019 88bc 8dd9 d23a
000000c0: 476e b13b 5864 063d 43bc 0ebd 8127 6c3a
000000d0: 73ed abbb 5304 873d 78da 2ebb a134 9e3b
000000e0: e3a7 fc3b 6b91 8f3c 3714 d33b 3e1a 01bd
000000f0: 8763 b8bc 75f3 13bc 3ad8 b0bc 268f 1cbc

hiden_layers.0.weight f4 [64, 64]
0.12616955 0.045950536 0.09003114 0.03143986 -0.15485191 0.19051406 -0.1890154 -0.1409324
0.080793306 0.15693864 -0.029970026 0.19948475 -0.089317404 0.15857771 0.0023079412 -0.0130975135
-0.050294388 0.09050048 -0.057204824 0.1144061 -0.2286536 -0.12648393 0.21953472 -0.13259421
-0.0094552655 0.043025464 -0.02268873 -0.18176667 0.093378186 -0.03648635 -0.17207894 0.060275532
0.094736464 0.10320098 0.12581943 -0.22882032 -0.24799384 -0.067098245 -0.1814718 0.16757177
0.052704223 -0.15921791 -0.2667641 -0.060989268 -0.20782867 -0.13760085 -0.03968694 -0.12718171
0.047287352 0.015532709 0.14882028 0.12660348 0.14065814 -0.042141415 0.058257755 -0.17539306
0.019041091 -0.11596192 -0.13469653 0.019128026 -0.06891611 0.21090879 -0.19284438 -0.13567208
-0.057915255 -0.06548763 -0.06335201 0.09281125 -0.0802774 0.13133349 0.089638546 0.10228032
0.33836383 -0.12128731 0.20163298 -0.07365652 0.045471355 0.16266587 -0.01391185 -0.01233255
0.09758199 -0.11351168 -0.056988057 0.13684645 -0.053308472 -0.037456527 -0.08872038 0.13769092
-0.016275734 -0.06335371 -0.15519196 -0.10973092 0.15351054 -0.09198132 0.12246971 -0.028574707
-0.1289112 0.03991573 -0.2203475 0.12524268 -0.16234687 -0.12687403 -0.067112476 0.22053802
-0.10135728 0.004159397 0.03387384 -0.21815893 0.23820142 0.064953886 0.21643108 0.12538393
-0.17061077 0.06539456 -0.21311057 -0.15882753 -0.08662769 -0.23574984 0.19202983 0.0549345
0.17300008 -0.17379873 0.20457397 -0.04554787 -0.12220815 -0.14746688 0.17380612 0.025662513
-0.0020721226 -0.2907211 0.04885651 0.14281659 -0.25961187 -0.08442276 0.05464379 0.18844259
0.09652174 -0.18273139 0.05705836 -0.075662516 0.17097294 0.16524364 0.06441057 -0.23735142
0.067028366 0.14445066 -0.09358009 0.11992487 -0.084746756 0.15085319 0.07317634 -0.22471257
0.16479096 0.15730084 -0.0040119337 0.06935775 0.15980291 -0.1871909 0.16595908 0.11670319
0.181293 -0.07082222 -0.12152118 0.14329448 0.12743936 0.23000054 0.06037296 0.11544342
-0.031815607 0.16050652 0.21333157 -0.0834794 0.20388018 0.27283704 0.031923518 -0.12776664
0.085568465 -0.16808528 -0.088189594 -0.043530975 -0.05900918 0.071527705 0.08750583 -0.14637509
-0.21801265 0.040615983 -0.22187698 0.19628498 0.08716718 0.0046226624 -0.10269728 0.17550777
-0.1750033 -0.030421048 0.04938303 -0.1636525 0.08468847 -0.0050862087 0.05668775 -0.20479238
0.1398318 0.11470218 0.22603883 0.11404693 -0.06421416 0.18753612 -0.074831724 0.09631094
-0.19577561 -0.16636147 0.14208691 0.16007361 0.16496985 -0.24424505 -0.15121053 -0.23181474
-0.17839271 0.21975274 0.061447587 -0.10112187 0.20924474 0.012540316 -0.09392709 0.11120475
-0.17976892 -0.22252664 0.009412743 0.1321882 -0.060459476 -0.16283529 -0.16177492 0.027195865
-0.12613265 -0.016965043 -0.12712349 0.19143006 -0.16399673 0.06273 0.03481703 0.11675006
-0.1597043 0.17536978 -0.047281988 0.122032344 -0.13831529 -0.045006257 -0.10134767 -0.18611397
-0.14951752 -0.19162191 0.15210976 0.16158026 -0.18810588 0.047473893 0.007853154 0.15217546
00000000: 9732 013e a136 3c3d 3f62 b83d 15c7 003d
00000010: 8091 1ebe 1e16 433e 418d 41be 9550 10be
00000020: f676 a53d 86b4 203e b383 f5bc bb45 4c3e
00000030: 0bec b6bd 3262 223e d440 173b f496 56bc
00000040: 7d01 4ebd 5158 b93d 9b4f 6abd bf4d ea3d
00000050: 2b24 6abe 0185 01be b6cd 603e c7c6 07be
00000060: 42ea 1abc 783b 303d b7dd b9bc 0b21 3abe
00000070: 103d bf3d b672 15bd 7635 30be 7ae3 763d
00000080: 3105 c23d 095b d33d cfd6 003e e04f 6abe
00000090: 19f2 7dbe ce6a 89bd bed3 39be ef97 2b3e
000000a0: 62e0 573d 050a 23be 4e95 88be e2cf 79bd
000000b0: 0ad1 54be 3de7 0cbe c68e 22bd ec3b 02be
000000c0: 62b0 413d e77c 7e3c 5864 183e 58a4 013e
000000d0: b008 103e 7a9c 2cbd af9f 6e3d 3d9a 33be
000000e0: 10fc 9b3c 717d edbd e3ed 09be 61b2 9c3c
000000f0: e423 8dbd 79f8 573e ff78 45be 9fed 0abe
00000100: 8c38 6dbd 611e 86bd b3be 81bd d313 be3d
00000110: 7a68 a4bd 497c 063e 6a94 b73d 5878 d13d
00000120: 063e ad3e 7b65 f8bd e078 4e3e 3bd9 96bd
00000130: 2c40 3a3d e291 263e 87ee 63bc 770e 4abc
00000140: 11d9 c73d d078 e8bd 4f6c 69bd 7a21 0c3e
00000150: fc59 5abd 046c 19bd 08b3 b5bd d9fe 0c3e
00000160: b054 85bc 97bf 81bd a4ea 1ebe 9bba e0bd
00000170: de31 1d3e b460 bcbd 66d1 fa3d 8115 eabc
00000180: 4c01 04be ad7e 233d c6a2 61be 9e3f 003e
00000190: 423e 26be 44eb 01be 4472 89bd b8d4 613e
000001a0: 6894 cfbd 8d4b 883b 4cbf 0a3d 0e65 5fbe
000001b0: 13eb 733e 8b06 853d 1ca0 5d3e a564 003e
000001c0: 97b4 2ebe 95ed 853d a839 5abe afa3 22be
000001d0: dc69 b1bd 6868 71be 78a3 443e 0003 613d
000001e0: ef26 313e 4bf8 31be d77b 513e 6790 3abd
000001f0: 4448 fabd 8f01 17be 3bfa 313e 313a d23c
00000200: 73cc 07bb 65d9 94be c41d 483d 833e 123e
00000210: d9eb 84be d7e5 acbd 2bd2 5f3d 18f7 403e
00000220: 31ad c53d f01d 3bbe 07b6 693d f3f4 9abd
00000230: 8813 2f3e a135 293e b0e9 833d 400c 73be
00000240: 2b46 893d e0ea 133e eba6 bfbd 2c9b f53d
00000250: b58f adbd 4279 1a3e 7add 953d 0d1b 66be
00000260: f6be 283e 7913 213e 8a76 83bb 700b 8e3d
00000270: 60a3 233e f9ae 3fbe 2df1 293e 1502 ef3d
00000280: dfa4 393e 3d0b 91bd 19e0 f8bd cabb 123e
00000290: 777f 023e 4385 6b3e a349 773d 9a6d ec3d
000002a0: 1551 02bd d25b 243e 9773 5a3e 3ff7 aabd
000002b0: f7c5 503e 4cb1 8b3e 3cc2 023d 42d5 02be
000002c0: 853e af3d 8c1e 2cbe bf9c b4bd 894d 32bd
000002d0: 9cb3 71bd 1e7d 923d 4236 b33d 5ae3 15be
000002e0: b53e 5fbe f25c 263d b833 63be eefe 483e
000002f0: b584 b23d b479 973b f452 d2bd 4fb8 333e
00000300: 1134 33be 9035 f9bc dc45 4a3d 8594 27be
00000310: 2671 ad3d 36aa a6bb 6a31 683d 18b5 51be
00000320: 1130 0f3e fae8 ea3d b976 673e 7091 e93d
00000330: b782 83bd 7809 403e 6041 99bd ac3e c53d
00000340: 6779 48be a95a 2abe 3b7f 113e 56ea 233e
00000350: dbed 283e 601b 7abe efd6 1abe d860 6dbe
00000360: 94ac 36be dd06 613e 77b0 7b3d fc18 cfbd
00000370: 4144 563e e675 4d3c d95c c0bd 51bf e33d
00000380: 5815 38be 06de 63be e837 1a3c 585c 073e
00000390: 5ba4 77bd 4bbe 26be 53a8 25be ddc9 de3c
000003a0: eb28 01be 46fa 8abc a92c 02be 3e06 443e
000003b0: c2ee 27be 9678 803d 4d9c 0e3d a81a ef3d
000003c0: 8689 23be 2394 333e c2aa 41bd 18ec f93d
000003d0: 86a2 0dbe 7b58 38bd 5e8f cfbd a994 3ebe
000003e0: 1f1b 19be 8938 44be a9c2 1b3e 4c75 253e
000003f0: d49e 40be fc73 423d 84aa 003c e2d3 1b3e

hiden_layers.0.bias f4 [64]
-0.006421849 0.005036089 -0.0066858875 0.0017244881 0.045891803 -0.0043202103 0.039209824 0.0064321477
-0.030829933 0.018915452 -0.026968723 -0.06385776 -0.012409786 -0.0011228799 0.0056558233 -6.3887645e-05
0.0013944 -0.014245009 0.022930192 -0.013580375 -0.01088544 -0.031697832 -0.00020534942 0.014544248
-0.00083795964 -0.007316466 -0.034455474 -0.031698793 0.00099185 -0.0044045807 0.0026175454 0.009981116
0.0032328605 -0.0076066377 -0.025830463 -0.0051058223 0.0016454422 -0.087866336 -0.008891249 0.0015418555
0.0156286 -0.015055133 -0.015508686 -0.011618918 0.006042202 -0.010642097 -0.0027512081 0.016224237
-0.009974693 5.5310255e-05 -0.0031017407 -0.018238904 -0.013593607 0.0055809165 -0.010712061 0.006509937
0.020846447 -0.005722689 0.020961376 0.016580008 -0.0056450814 -0.020456862 0.0132400375 -0.018618552
00000000: 606e d2bb c705 a53b 4a15 dbbb 3808 e23a
00000010: 0bf9 3b3d 8d90 8dbb 7b9a 203d c4c4 d23b
00000020: 0e8f fcbc 94f4 9a3c 83ed dcbc dbc7 82bd
00000030: 6a52 4bbc 992d 93ba 7c54 b93b 6bfb 85b8
00000040: 4dc4 b63a e663 69bc 19d8 bb3c 3980 5ebc
00000050: d858 32bc 96d5 01bd 1153 57b9 ff4a 6e3c
00000060: 85aa 5bba f7be efbb 2f21 0dbd 98d6 01bd
00000070: f700 823a 4d54 90bb 208b 2b3b d687 233c
00000080: 66de 533b 1a41 f9bb 689a d3bc be4e a7bb
00000090: e1ab d73a 44f3 b3bd 9aac 11bc 1618 ca3a
000000a0: 8d07 803c cea9 76bc 2518 7ebc 465d 3ebc
000000b0: aafd c53b 315c 2ebc 9d4d 34bb b1e8 843c
000000c0: e56c 23bc effc 6738 9346 4bbb c169 95bc
000000d0: b8b7 5ebc 1fe0 b63b a481 2fbc 4f51 d53b
000000e0: 2bc6 aa3c 6585 bbbb 31b7 ab3c ccd2 873c
000000f0: 60fa b8bb 2695 a7bc beec 583c ef85 98bc

hiden_layers.1.weight f4 [64, 64]
0.0346305 -0.16943641 0.1832578 -0.17174685 0.013743642 -0.1476478 -0.049047906 0.20739861
0.14432012 0.17038383 -0.099730425 -0.10549453 0.059764087 -0.169073 -0.027197318 0.12387198
0.1275808 0.060843285 0.14297716 -0.12107507 0.12925582 -0.009070805 -0.09959971 0.095356986
-0.16192104 -0.12409868 0.15341352 0.05533075 -0.110807486 0.025955766 -0.13105161 0.036520112
0.10796758 0.18187413 -0.23665464 0.012971968 -0.071961164 -0.1907648 0.19459249 -0.1024468
-0.21079649 -0.20380408 -0.10909318 -0.06922873 -0.18349814 -0.03871864 -0.0019146258 0.038778495
-0.24870323 0.07188014 -0.08310653 0.13965274 0.14183769 -0.02715473 -0.0010180093 0.052050877
-0.14597596 0.0916437 -0.17359056 0.16851227 -0.083628595 -0.24376296 -0.1252455 0.12349202
-0.21124883 -0.2460899 -0.013124921 -0.31613305 -0.05591198 -0.19282866 -0.32829428 -0.3637475
0.02774844 -0.19976535 0.026445905 0.18559372 -0.1926533 0.08533094 0.2280044 0.03631076
-0.15281495 -0.16788787 -0.11170093 0.2585903 0.15591681 0.15276314 -0.10164053 -0.039620537
0.076477855 -0.24728847 0.11573492 0.10704112 0.07077633 -0.29374185 0.12850927 -0.18769248
0.21820723 0.18364039 0.2602481 -0.029727906 -0.2826595 0.22440372 0.023107069 -0.013754828
-0.08057627 0.09503947 -0.29528812 -0.029538695 0.06339932 0.18015458 0.069318265 -0.038822304
-0.011808909 -0.057231 0.29316744 0.081949376 0.11580023 -0.1529355 0.118249156 -0.14003558
-0.24062034 -0.11757286 -0.2058337 -0.045948707 -0.21685092 -0.23552711 0.01563323 0.011132229
0.092505164 -0.09320231 -0.103648014 -0.17110649 0.15791947 0.20677115 -0.037211787 0.08428817
-0.108942926 -0.03281816 0.090202175 0.11584601 0.027219487 0.006241123 0.22176453 0.060850374
-0.18899137 -0.145124 -0.053920913 0.16367202 -0.13951325 0.033872485 -0.17999302 -0.03678873
-0.11776903 -0.11446655 0.01952611 0.1944623 0.19071552 0.1001656 0.08603926 0.06369197
0.029069116 -0.079557054 -0.11459339 0.0023120667 0.104084045 0.008628554 -0.010077633 -0.1093759
0.16316429 -0.025847815 -0.069500335 0.15720983 -0.06472585 0.017332785 -0.050230235 -0.0010694073
-0.04800131 -0.16454272 -0.021738647 -0.16892718 -0.015574188 -0.07201169 -0.03700066 -0.099161156
0.03557074 -0.19303067 -0.14073367 0.059951525 -0.09376918 -0.17694902 0.05470407 0.16870902
0.24784784 0.01093699 -0.011808837 0.2117295 0.21513622 -0.121440046 -0.16568647 0.068964034
0.060457267 0.23018882 0.14298975 -0.076689534 0.092309155 -0.18815188 -0.015117385 0.037222113
-0.12159734 0.0039290884 0.032865826 -0.15873483 -0.21893029 -0.11659642 -0.12913486 -0.19643028
0.15123148 0.16248026 0.10457262 0.14126457 0.21681166 -0.19434392 -0.15675758 0.10796319
0.030181263 -0.17515442 -0.10487209 -0.013765192 -0.0020314916 0.16124909 0.06553182 0.031164203
0.14074631 -0.013385593 0.096350014 0.011717337 -0.21143812 -0.12097619 -0.05682496 0.19679739
0.20054708 -0.06531765 -0.044160645 0.08439644 0.12101686 -0.011269188 -0.097983696 0.093842365
-0.1609559 -0.09187704 0.06434807 0.22279716 0.18776521 -0.018413482 0.010337703 -0.050838884
00000000: b6d8 0d3d bd80 2dbe efa7 3b3e 68de 2fbe
00000010: 032d 613c fc30 17be 75e6 48bd 4d60 543e
00000020: a7c8 133e 1979 2e3e 773f ccbd 840d d8bd
00000030: 30cb 743d 7921 2dbe e9cc debc 98b0 fd3d
00000040: 8ba4 023e cf36 793d 9b68 123e 35f6 f7bd
00000050: a35b 043e b79d 14bc effa cbbd 864a c33d
00000060: a1ce 25be 7327 febd 6f18 1d3e 7fa2 623d
00000070: 09ef e2bd 30a1 d43c 6532 06be 1d96 153d
00000080: 1b1e dd3d 363d 3a3e 9855 72be 6188 543c
00000090: 6060 93bd d957 43be 4143 473e a1cf d1bd
000000a0: 09db 57be 04b2 50be 3f6c dfbd cbc7 8dbd
000000b0: f0e6 3bbe 7097 1ebd 2ef4 faba 33d6 1e3d
000000c0: 0fac 7ebe e535 933d c233 aabd 2101 0f3e
000000d0: e63d 113e 9973 debc b96e 85ba 4d33 553d
000000e0: b97a 15be b1af bb3d b9c1 31be 7b8e 2c3e
000000f0: 7845 abbd ff9c 79be 5b40 00be 62e9 fc3d
00000100: 9d51 58be fefe 7bbe e909 57bc 31dc a1be
00000110: f603 65bd e074 45be 3016 a8be 1d3d babe
00000120: b250 e33c 4a8f 4cbe 15a5 d83c 480c 3e3e
00000130: e846 45be fdc1 ae3d fc79 693e 97ba 143d
00000140: 867b 1cbe ccea 2bbe 75c3 e4bd f365 843e
00000150: a8a8 1f3e f16d 1c3e e928 d0bd 2549 22bd
00000160: 6ca0 9c3d 3039 7dbe 6e06 ed3d 6038 db3d
00000170: 2ef3 903d 5565 96be ef97 033e 7532 40be
00000180: b771 5f3e 3a0c 3c3e 3d3f 853e f087 f3bc
00000190: bfb8 90be 17ca 653e 094b bd3c ee5b 61bc
000001a0: 2c05 a5bd 0ea4 c23d 0130 97be 22fb f1bc
000001b0: 81d7 813d 717a 383e bcf6 8d3d 2304 1fbd
000001c0: 277a 41bc 0e6b 6abd 0b1a 963e 13d5 a73d
000001d0: ac28 ed3d 209b 1cbe 9d2c f23d 7d65 0fbe
000001e0: 2e65 76be 0aca f0bd 12c6 52be b634 3cbd
000001f0: 2b0e 5ebe 052e 71be 4211 803c f463 363c
00000200: 5973 bd3d dae0 bebd 6945 d4bd 8a36 2fbe
00000210: a4b5 213e d1bb 533e 636b 18bd 479f ac3d
00000220: 781d dfbd 566c 06bd ebbb b83d ac40 ed3d
00000230: 67fb de3c 5682 cc3b 3e16 633e 3e3e 793d
00000240: f486 41be 639b 14be 2ddc 5cbd a399 273e
00000250: 90dc 0ebe e0bd 0a3d 1750 38be c8af 16bd
00000260: e430 f1bd 706d eabd 38f5 9f3c 2021 473e
00000270: ee4a 433e 9f23 cd3d 5a35 b03d f070 823d
00000280: 5b22 ee3c cfee a2bd f0af eabd 0b86 173b
00000290: 042a d53d c75e 0d3c a81c 25bc 7900 e0bd
000002a0: 8a14 273e ccbe d3bc 3156 8ebd 9dfb 203e
000002b0: fd8e 84bd 7cfd 8d3c 38be 4dbd 5b2b 8cba
000002c0: 069d 44bd e37d 28be 3f15 b2bc 3ffb 2cbe
000002d0: e12a 7fbc dd7a 93bd 018e 17bd 0115 cbbd
000002e0: a0b2 113d d5a9 45be 7d1c 10be bb8f 753d
000002f0: 0e0a c0bd 2032 35be 6011 603d 0fc2 2c3e
00000300: d3cb 7d3e 1031 333c da79 41bc 9ecf 583e
00000310: ab4c 5c3e 8fb5 f8bd b7a9 29be 043d 8d3d
00000320: 0aa2 773d 9eb6 6b3e e86b 123e 670f 9dbd
00000330: 950c bd3d e3aa 40be e9ae 77bc 3776 183d
00000340: 0708 f9bd 95bf 803b 519e 063d 628b 22be
00000350: 432f 60be 1bca eebd ee3b 04be 0525 49be
00000360: 6ddc 1a3e 3a61 263e 2b2a d63d a9a7 103e
00000370: e003 5e3e 1802 47be 0f85 20be ce1b dd3d
00000380: b23e f73c ae5b 33be 2ec7 d6bd 6687 61bc
00000390: c622 05bb 7b1e 253e 8c35 863d 124c ff3c
000003a0: cd1f 103e 3f4f 5bbc 2853 c53d 13fa 3f3c
000003b0: 3c83 58be 5dc2 f7bd 4ac1 68bd 4185 493e
000003c0: 375c 4d3e 43c5 85bd cbe1 34bd 0ad8 ac3d
000003d0: b0d7 f73d 66a2 38bc adab c8bd 6d30 c03d
000003e0: a0d1 24be 082a bcbd ecc8 833d f024 643e
000003f0: 8645 403e dfd7 96bc 785f 293c 6f3c 50bd

hiden_layers.1.bias f4 [64]
0.028489718 -0.039349116 0.0021409756 0.0005754581 0.009678462 -0.0076794573 -0.04803958 -0.010299109
-0.004504732 0.029301332 0.008316656 -0.0023427058 0.10565807 -0.004427921 -0.018422242 -0.030574612
-0.03958265 -0.0006538381 -0.0030908599 -0.009474046 -0.0047147735 0.08298786 0.017144531 -0.018912025
-0.01830557 -0.053489503 -0.014080479 -0.017071826 0.008754266 0.00067763723 -0.034489803 -0.031916946
0.015973862 0.0005048083 -0.002794071 -0.04240117 0.017176602 -0.009768796 0.015178539 0.007402714
-0.016275242 0.0014062376 -0.008171029 -0.006721538 -0.06135452 0.07664936 -0.0070866104 0.007407499
-0.007427208 -0.030760631 -0.020614931 -0.011213414 0.0023864612 -0.005881733 0.026010117 0.024363456
-0.031801537 -0.011259982 0.02289258 -0.043607805 0.034905024 0.0067888065 -0.091667734 0.015568421
00000000: 4563 e93c 8a2c 21bd 9c4f 0c3b 57da 163a
00000010: 6992 1e3c f5a3 fbbb 27c5 44bd 98bd 28bc
00000020: 6e9c 93bb 5909 f03c 9542 083c 1588 19bb
00000030: 4263 d83d 1818 91bb 3eea 96bc 9c77 fabc
00000040: 6b21 22bd 5566 2bba 0690 4abb 0739 1bbc
00000050: 637e 9abb 8af5 a93d b072 8c3c 64ed 9abc
00000060: 90f5 95bc cf17 5bbd cfb1 66bc 37da 8bbc
00000070: 0e6e 0f3c 77a3 313a 2e45 0dbd 58bb 02bd
00000080: 9edb 823c 1d55 043a bc1c 37bb d9ac 2dbd
00000090: f2b5 8c3c 4d0d 20bc 68af 783c 7792 f23b
000000a0: a853 85bc 8151 b83a c8df 05bc 5940 dcbb
000000b0: e14e 7bbd 57fa 9c3d cc36 e8bb 9bba f23b
000000c0: f05f f3bb b8fd fbbc a5e0 a8bc 78b8 37bc
000000d0: 2d66 1c3b 8dbb c0bb 2b13 d53c df95 c73c
000000e0: 5442 02bd ca7b 38bc 3889 bb3c 199e 32bd
000000f0: 92f8 0e3d a374 de3b 4bbc bbbd b112 7f3c

hiden_layers.2.weight f4 [64, 64]
-0.1346157 -0.21036969 -0.01889742 0.21773157 0.21302584 -0.027080234 0.23005466 0.061643146
0.07694289 -0.10193872 0.2462752 -0.14434595 -0.119835846 -0.041914407 0.19462581 -0.09112396
-0.013542188 -0.07984402 0.2130505 -0.04597429 -0.137891 -0.24197128 -0.15085955 0.06004173
-0.023683049 0.084350236 -0.05810655 -0.09829969 0.35012552 -0.10021132 0.20670658 -0.2682025
-0.16470382 0.23828356 -0.2805896 0.08508756 0.08194985 0.020023264 -0.21336593 0.1172729
0.13885684 -0.20385374 -0.03884898 0.09529845 0.08741851 0.054483905 0.09081265 -0.02102484
0.09405149 0.19855618 -0.19112425 -0.018438729 -0.17476286 0.0043894453 0.07563121 0.21528007
0.23458686 -0.12310383 0.018889004 0.025527002 0.06257728 0.21751724 -0.24507381 0.026623746
0.017695177 -0.03364313 0.11047918 0.0033334116 -0.12156946 -0.0007549923 -0.114148185 -0.14357893
0.18151921 -0.10711333 -0.13700917 0.081883565 0.00093586475 -0.08115224 0.18376338 -0.11948304
-0.12977004 0.16593136 -0.1390269 0.21300428 0.23228985 -0.1190005 -0.10409314 -0.14225496
-0.15914932 -0.118236735 0.08655359 0.19625333 -0.17177218 0.14735611 0.20064558 0.007596285
-0.0731512 0.017619038 -0.016723955 -0.08562436 -0.07166625 0.14355351 0.20957512 -0.19784316
0.11550746 -0.06690208 0.22927219 0.09327607 -0.040484034 -0.049431562 0.073952384 0.0668173
0.10915309 0.16413602 -0.115608536 0.17928024 -0.2712635 0.25147095 -0.07403418 0.21915308
0.071635485 0.116962135 -0.07003942 0.049745873 -0.04686913 0.20434725 0.1331514 -0.14208977
-0.1394447 -0.103994384 0.16573419 -0.20355126 0.13105021 0.09236033 -0.21999384 -0.033557165
0.1272858 0.13232994 0.13139273 -0.03295656 -0.20320238 -0.042508498 0.026032295 0.10072338
0.064781606 -0.014680771 0.1805915 0.16337727 -0.00022266625 -0.17618904 -0.018492686 -0.08256586
0.15695749 0.22676435 -0.11928516 -0.24208999 -0.14400963 -0.10515351 -0.16701312 0.095099
0.18314523 0.1629826 0.105094045 0.08194158 -0.1769502 -0.24736331 -0.16080515 -0.18241452
-0.055279333 0.12015415 -0.24899027 0.07593009 0.073622234 0.24080214 0.005439842 0.13902508
0.19887143 0.23350476 0.061130647 0.11135688 0.24364474 0.20272264 0.15474685 0.099300735
-0.09827055 -0.037538733 0.16735849 -0.28421572 -0.1652859 0.07661202 0.21927318 0.028660227
0.101488896 0.1900389 0.010115582 0.054072674 0.01961736 0.07506362 0.055621054 -0.21247989
-0.07747928 -0.19561225 -0.23236765 0.08831466 0.06981015 0.09754381 -0.11757538 -0.094148524
0.17640893 0.2570794 0.1691542 -0.11615291 0.003585262 0.0920123 0.20852812 -0.19852068
-0.16335657 -0.062113125 -0.17081133 0.14105298 -0.22047994 0.083960734 -0.06376905 0.09214164
0.025467081 0.037586525 -0.17172398 0.019358918 -0.14478907 -0.04519211 -0.17111069 0.059970304
-0.15266691 -0.057822533 0.20039745 0.23896195 -0.16977753 0.1785956 -0.1527057 0.07953587
0.100750595 0.12853329 -0.013985631 0.15074146 -0.08646427 -0.18306118 0.01250825 -0.18119639
0.030557828 -0.00935793 0.068706356 0.15699558 -0.1942599 -0.12674943 0.10667747 -0.059734862
00000000: b3d8 09be 276b 57be c3ce 9abc 06f5 5e3e
00000010: 7223 5a3e 5ed7 ddbc 7393 6b3e 867d 7c3d
00000020: 3c94 9d3d 3fc5 d0bd 912f 7c3e 6dcf 13be
00000030: 7f6c f5bd 71ae 2bbd fd4b 473e 339f babd
00000040: 0ee0 5dbc 4385 a3bd e929 5a3e 8a4f 3cbd
00000050: 4c33 0dbe 52c7 77be ed7a 1abe 51ee 753d
00000060: f402 c2bc d1bf ac3d 2201 6ebd 5951 c9bd
00000070: a743 b33e 983b cdbd e4aa 533e d751 89be
00000080: 1ea8 28be 9b00 743e 71a9 8fbe 6342 ae3d
00000090: 53d5 a73d d407 a43c 997c 5abe c62c f03d
000000a0: 7d30 0e3e 09bf 50be 1c20 1fbd d52b c33d
000000b0: 7a08 b33d 842a 5f3d fcfb b93d 493c acbc
000000c0: 119e c03d 5052 4b3e 13b6 43be d10c 97bc
000000d0: 09f5 32be 56d5 8f3b 89e4 9a3d 6172 5c3e
000000e0: 8a37 703e dc1d fcbd 1dbd 9a3c 011e d13c
000000f0: 8428 803d d7bc 5e3e a1f4 7abe 0b1a da3c
00000100: 7af5 903c 61cd 09bd e942 e23d 5e75 5a3b
00000110: 69f9 f8bd adea 45ba 86c6 e9bd 5b06 13be
00000120: 2ce0 393e 3c5e dbbd 224c 0cbe 92b2 a73d
00000130: d254 753a 2533 a6bd 782c 3c3e 86b3 f4bd
00000140: 70e2 04be e9e9 293e 115d 0ebe cb1d 5a3e
00000150: 64dd 6d3e 89b6 f3bd c92e d5bd 49ab 11be
00000160: 0af8 22be 1a26 f2bd 0243 b13d a2f6 483e
00000170: 0ce5 2fbe 85e4 163e 0976 4d3e 42ea f83b
00000180: 4cd0 95bd cd55 903c ad00 89bc d35b afbd
00000190: c1c5 92bd b1ff 123e dc9a 563e 6697 4abe
000001a0: 2d8f ec3d f503 89bd 54c6 6a3e 8607 bf3d
000001b0: 96d2 25bd c078 4abd 5974 973d 82d7 883d
000001c0: a88b df3d 4613 283e 2bc4 ecbd 3d95 373e
000001d0: 0de3 8abe cdc0 803e 3b9f 97bd aa69 603e
000001e0: a0b5 923d d889 ef3d d470 8fbd 54c2 4b3d
000001f0: d8f9 3fbd 6840 513e d758 083e fb7f 11be
00000200: 97ca 0ebe 02fb d4bd 39b6 293e be6f 50be
00000210: 0732 063e 6a27 bd3d 1146 61be 3d73 09bd
00000220: 3557 023e 8081 073e d18b 063e 75fd 06bd
00000230: 4914 50be 641d 2ebd ae41 d53c 0f48 ce3d
00000240: 38ac 843d 9e87 70bc faec 383e 5f4c 273e
00000250: 847b 69b9 e66a 34be f97d 97bc 4a18 a9bd
00000260: 77b9 203e ea34 683e c74b f4bd 70e6 77be
00000270: 4377 13be b95a d7bd 7d05 2bbe 44c3 c23d
00000280: 6c8a 3b3e e9e4 263e 8c3b d73d fdd0 a73d
00000290: 6f32 35be cf4c 7dbe 1baa 24be dfca 3abe
000002a0: 956c 62bd 6113 f63d 4ef7 7ebe 3c81 9b3d
000002b0: 41c7 963d d694 763e b440 b23b 975c 0e3e
000002c0: f4a4 4b3e df1b 6f3e 2164 7a3d 130f e43d
000002d0: 027e 793e 8696 4f3e f575 1e3e 2f5e cb3d
000002e0: 1242 c9bd 37c2 19bd 0660 2b3e b984 91be
000002f0: b540 29be c3e6 9c3d 2689 603e dac8 ea3c
00000300: 69d9 cf3d 8f99 423e d3bb 253c 4f7b 5d3d
00000310: 96b4 a03c f5ba 993d e7d2 633d 5494 59be
00000320: 75ad 9ebd 944e 48be c9f1 6dbe 51de b43d
00000330: a0f8 8e3d 0dc5 c73d 5ccb f0bd f1d0 c0bd
00000340: 8ba4 343e e99f 833e c236 2d3e 94e1 edbd
00000350: b7f6 6a3b f270 bc3d 6588 553e 0149 4bbe
00000360: f246 27be 556a 7ebd 2ae9 2ebe 3170 103e
00000370: 7ec5 61be 9bf3 ab3d 5999 82bd c2b4 bc3d
00000380: 57a0 d03c 54f4 193d 69d8 2fbe 9896 9e3c
00000390: 9643 14be 5d1b 39bd a437 2fbe 6ca3 753d
000003a0: b754 1cbe 52d7 6cbd fd34 4d3e 71b2 743e
000003b0: 29da 2dbe c4e1 363e e25e 1cbe b4e3 a23d
000003c0: 5456 ce3d 3b9e 033e fd23 65bc f85b 1a3e
000003d0: 2e14 b1bd 6474 3bbe 67ef 4c3c 8c8b 39be
000003e0: 6954 fa3c 0152 19bc ebb5 8c3d 73c3 203e
000003f0: 11ec 46be 9aca 01be b879 da3d 8bac 74bd

hiden_layers.2.bias f4 [64]
-0.048368808 0.0067803967 -0.035324734 0.001632883 -0.010975221 0.012613606 0.0030327318 -0.02332249
0.04384362 0.004435524 0.012769696 -0.004754092 -0.049947657 -0.007503694 -0.022899695 -0.014358563
0.003862859 0.02953117 -0.07735571 0.15652184 -0.009152577 -0.06451852 0.005939067 0.040974736
-0.0073787114 0.019230459 -0.020414915 0.044423245 -0.036299217 -0.019642593 0.01685479 0.0058672684
0.004706936 0.061607767 -0.01873813 0.011136158 -0.35134006 -0.006377731 -0.0070981383 0.011612629
-0.00076542003 -0.064340875 0.023566548 -0.03043234 -0.009542455 0.010446932 0.001974547 0.009734414
0.06118467 0.021941282 -0.005433649 0.005057228 -0.00152097 0.043046523 0.07862368 0.01222519
0.023550056 -0.06508225 0.032745432 -0.0042128167 -0.0029518844 -0.046721693 0.0042307503 0.034459926
00000000: 5f1e 46bd 172e de3b abb0 10bd 7606 d63a
00000010: 6ad1 33bc 4ca9 4e3c ccc0 463b ce0e bfbc
00000020: 5e95 333d df57 913b fd37 513c 37c8 9bbb
00000030: ea95 4cbd 8ce1 f5bb 2498 bbbc 2e40 6bbc
00000040: 0528 7d3b 5aeb f13c ac6c 9ebd 4347 203e
00000050: b1f4 15bc 4922 84bd 819c c23b 20d5 273d
00000060: 1ec9 f1bb 3289 9d3c 2e3d a7bc 26f5 353d
00000070: 7dae 14bd 81e9 a0bc 0e13 8a3c 3742 c03b
00000080: a43c 9a3b 6d58 7c3d b580 99bc 6f74 363c
00000090: d8e2 b3be 49fc d0bb 8097 e8bb e542 3e3c
000000a0: 78a6 48ba 26c5 83bd a20e c13c 3e4d f9bc
000000b0: f557 1cbc 9c29 2b3c 6767 013b 177d 1f3c
000000c0: c79c 7a3d 34be b33c c00c b2bb 1ab7 a53b
000000d0: 495b c7ba 8d51 303d 7405 a13d 2a4c 483c
000000e0: 0cec c03c d849 85bd 1320 063d ab0b 8abb
000000f0: 6774 41bb 3f5f 3fbd 1ba2 8a3b da25 0d3d

hiden_layers.3.weight f4 [64, 64]
0.4009038 0.05601491 0.095279455 -0.124181435 -0.03083693 0.006716845 -0.053398784 -0.054852173
-0.19553436 0.12162275 0.088402316 0.11517651 0.2164328 0.11252876 0.092360616 -0.14544645
-0.24201573 -0.18635282 0.04240779 -0.1986848 -0.024615748 0.08247382 0.06674997 -0.04418094
0.23081425 0.1082322 0.39731702 -0.2402127 -0.0781206 -0.06706301 -0.1840837 -0.012377724
0.12214028 -0.13429193 -0.10038982 -0.18648899 0.18424748 0.05057469 -0.18548982 0.10270689
-0.2032167 0.02135969 0.13059309 0.11185562 -0.099985726 0.3272179 -0.071615495 0.2053092
-0.30375338 0.03404525 0.044489775 -0.18784015 -0.1533669 -0.2060791 -0.23684892 0.1581177
-0.16430353 0.31858587 0.059567284 -0.07019285 0.22722678 0.13334665 -0.16567968 0.041165836
0.08597321 0.008156496 0.07142233 -0.03502851 -0.12184439 0.20664081 -0.20043094 -0.068165675
-0.20688292 -0.18024051 -0.039699856 0.045361686 0.090204805 0.12703986 0.053647783 0.199456
-0.017771963 -0.09965439 -0.16337885 -0.14637417 0.17726806 -0.28764594 0.015318184 -0.18373698
0.10147821 -0.124300264 -0.05594505 -0.12137448 0.0135251125 0.13612713 -0.0022885825 0.17261696
0.12931731 0.19454174 0.0054347105 0.17567301 -0.08079327 0.19832595 0.08014763 0.041792978
-0.094544396 -0.24858028 -0.116314694 0.12760699 0.0020515139 -0.11470256 0.06720496 0.10640621
0.17210194 0.028037466 0.2687519 -0.23271103 0.006402753 0.063975975 -0.2538048 -0.06944523
-0.18808468 0.14782505 -0.16490489 -0.17822802 -0.01652869 0.26212397 -0.03534549 -0.1475382
-0.036207784 -0.060734957 0.14631967 0.20083414 -0.17662576 -0.012148607 -0.12414432 0.21547498
0.17345601 -0.036747016 -0.19873779 -0.090915896 -0.1622115 0.07289971 0.14016554 0.019694738
0.16257286 -0.1832354 -0.12622224 0.0614699 -0.0029382303 0.054400634 0.23231074 -0.2468758
-0.10425821 0.19482389 0.07821844 0.0575171 -0.051613864 0.111891635 -0.18495688 -0.02224377
0.16458489 -0.15073116 0.039467096 -0.14479186 0.022222595 -0.075446546 -0.08376208 -0.29860556
0.08780845 -0.014381514 -0.1065013 0.1915714 -0.12116474 0.10928578 -0.1129003 -0.18082719
-0.045056555 -0.064284116 0.111596026 -0.16086304 -0.19523144 -0.22055595 0.22461706 0.011619327
-0.14395803 -0.108368635 0.11405903 0.27113566 0.017738327 0.084465794 -0.16340603 -0.058964923
0.119334385 0.1138585 0.077702455 -0.25446105 -0.06078595 0.17254858 0.10673392 -0.0037437333
-0.07027851 -0.13664405 -0.07411769 -0.06287119 -0.12561281 -0.15571634 0.0012483275 -0.13140962
0.03287878 -0.09099174 -0.06081741 0.08920267 0.044352386 -0.053342763 0.006254093 0.07082919
0.17794564 0.041123096 -0.096802294 -0.24174729 0.07427076 0.25562721 0.16919489 0.18968408
0.056205764 0.13834046 -0.046601094 -0.22899456 0.12331869 -0.116548166 -0.0053754216 -0.21772839
0.13098757 0.035275374 0.18854688 0.15747908 -0.1440883 0.029200815 0.0009347366 -0.00799115
0.009021416 -0.24666002 -0.10833835 -0.13461359 0.0021016854 0.026141658 -0.23516276 -0.06556906
-0.25772756 0.19575898 0.07131923 0.13920991 -0.080288276 -0.12573293 -0.2536563 0.036279783
00000000: 4343 cd3e e46f 653d e021 c33d d652 febd
00000010: bb9d fcbc fb18 dc3b afb8 5abd acac 60bd
00000020: 293a 48be 5915 f93d 460c b53d a9e1 eb3d
00000030: 8fa0 5d3e 7b75 e63d 9027 bd3d eaef 14be
00000040: f9d2 77be 46d3 3ebe cab3 2d3d 0774 4bbe
00000050: f7a6 c9bc 09e8 a83d 35b4 883d 13f7 34bd
00000060: 925a 6c3e d8a8 dd3d 236d cb3e 51fa 75be
00000070: b1fd 9fbd 5558 89bd 7080 3cbe f0cb 4abc
00000080: af24 fa3d d383 09be 2e99 cdbd f8f6 3ebe
00000090: 5fab 3c3e 6827 4f3d 0bf1 3dbe fd57 d23d
000000a0: 0a18 50be 84fa ae3c 32ba 053e 8f14 e53d
000000b0: 51c5 ccbd 1b89 a73e 25ab 92bd 933c 523e
000000c0: 9085 9bbe 0873 0b3d e93a 363d 2b59 40be
000000d0: 360c 1dbe 6606 53be 8688 72be 9be9 213e
000000e0: 2f3f 28be b01d a33e d3fc 733d 45c1 8fbd
000000f0: 23ae 683e 068c 083e efa7 29be 829d 283d
00000100: b912 b03d d3a2 053c df45 923d 0e7a 0fbd
00000110: 8d89 f9bd a699 533e c53d 4dbe 729a 8bbd
00000120: 1ed9 53be f890 38be 519c 22bd 2dcd 393d
00000130: 4cbd b83d bd16 023e c7bd 5b3d 323e 4c3e
00000140: 8296 91bc 9a17 ccbd c94c 27be 1ce3 15be
00000150: c285 353e 5446 93be 1ff9 7a3c 8c25 3cbe
00000160: cfd3 cf3d 2391 febd a326 65bd 2f93 f8bd
00000170: 6f98 5d3c e964 0b3e 0bfc 15bb 80c2 303e
00000180: c26b 043e f335 473e a815 b23b a0e3 333e
00000190: f176 a5bd f515 4b3e 7124 a43d 1d2f 2b3d
000001a0: 7ea0 c1bd d48b 7ebe 6636 eebd 68ab 023e
000001b0: b172 063b 2de9 eabd c1a2 893d 80eb d93d
000001c0: 7e3b 303e d4ae e53c d999 893e cd4b 6ebe
000001d0: 2fce d13b d605 833d b4f2 81be 4d39 8ebd
000001e0: 4599 40be 735f 173e d4dc 28be 6881 36be
000001f0: 2d67 87bc 1d35 863e 6fc6 10bd 4114 17be
00000200: 9d4e 14bd 38c5 78bd d3d4 153e 77a7 4d3e
00000210: 62dd 34be f30a 47bc 613f febd 79a5 5c3e
00000220: 749e 313e 0a84 16bd eb81 4bbe 1d32 babd
00000230: c51a 26be 714c 953d 8e87 0f3e dc56 a13c
00000240: 8079 263e 10a2 3bbe 6740 01be ddc7 7b3d
00000250: 538f 40bb 33d3 5e3d dee2 6d3e 02cd 7cbe
00000260: 5485 d5bd ea7f 473e fd30 a03d 0d97 6b3d
00000270: 0f69 53bd 7127 e53d 5665 3dbe 9138 b6bc
00000280: f188 283e 4559 1abe 40a8 213d 5144 14be
00000290: 290c b63c b883 9abd 748b abbd d4e2 98be
000002a0: ebd4 b33d 71a0 6bbc 5b1d dabd 4b2b 443e
000002b0: 3825 f8bd 39d1 df3d 4638 e7bd c32a 39be
000002c0: 398d 38bd 64a7 83bd 758c e43d 48b9 24be
000002d0: c0ea 47be 6bd9 61be 0402 663e fd5e 3e3c
000002e0: bc69 13be 60f0 ddbd c897 e93d 4bd2 8a3e
000002f0: f84f 913c 67fc ac3d e953 27be 3485 71bd
00000300: 9665 f43d a52e e93d 7722 9f3d b848 82be
00000310: b0fa 78bd 93b0 303e 5097 da3d 6c59 75bb
00000320: 2eee 8fbd 6bec 0bbe 04cb 97bd 9cc2 80bd
00000330: a5a0 00be 1b74 1fbe ec9e a33a 3e90 06be
00000340: e6ab 063d e159 babd ad1b 79bd e4af b63d
00000350: d9aa 353d f17d 5abd 22ef cc3b e50e 913d
00000360: 6237 363e b170 283d 4840 c6bd 9a8c 77be
00000370: 451b 983d 92e1 823e 6d41 2d3e 8b3c 423e
00000380: 0438 663d 1fa9 0d3e cae0 3ebd 8d7d 6abe
00000390: 828e fc3d ceb0 eebd 4e24 b0bb 31f4 5ebe
000003a0: 9b21 063e e97c 103d 6f12 413e 3242 213e
000003b0: e28b 13be 8c36 ef3c 1d09 753a 50ed 02bc
000003c0: 90ce 133c 7294 7cbe 7fe0 ddbd 25d8 09be
000003d0: 6ebc 093b 0827 d63c 82ce 70be 1249 86bd
000003e0: def4 83be 0b75 483e d10f 923d 0b8d 0e3e
000003f0: 2e6e a4bd 22c0 00be 3ddf 81be 1c9a 143d

hiden_layers.3.bias f4 [64]
-0.04190761 0.009079227 -0.071414866 0.020451542 0.019893082 -0.019937517 0.03300729 -0.08881175
-0.0146821635 -0.0044319793 0.019291246 0.048627235 0.0050310595 -0.012238753 -0.026578726 0.012678051
0.012730516 -0.076882556 0.021672433 -0.002754949 0.004419779 0.01418476 -0.057378124 0.060585026
0.021961842 -0.014429953 -0.072487265 0.003336503 0.010464638 -0.0005077537 -0.030789789 0.01163756
0.016193176 -0.110337876 -0.010262879 -0.04573817 -6.456066e-05 -0.03948953 -0.01168146 -0.021565778
-0.0055769533 0.08654478 -0.023340955 0.0029371632 -0.06943985 -0.009091973 -0.04192214 -0.03134015
0.019217076 -0.010859815 0.011003772 -0.0012211378 -0.028155707 0.010786378 -0.053218007 0.015249555
0.015425964 0.008812821 -0.020145504 0.033120267 0.01983932 -0.04414594 -0.07498656 -0.036379676
00000000: 50a7 2bbd 0ac1 143c f541 92bd fe89 a73c
00000010: d1f6 a23c 0154 a3bc a732 073d efe2 b5bd
00000020: 758d 70bc 233a 91bb ad08 9e3c 5a2d 473d
00000030: 96db a43b 0d85 48bc a1bb d9bc 9ab7 4f3c
00000040: a793 503c 9a74 9dbd 638a b13c 608c 34bb
00000050: cbd3 903b 3267 683c 5305 6bbd 0128 783d
00000060: 52e9 b33c 9c6b 6cbc 3474 94bd 3ba9 5a3b
00000070: df73 2b3c c61a 05ba de3a fcbc 77ab 3e3c
00000080: 8da7 843c d3f8 e1bd a225 28bc f357 3bbd
00000090: be64 87b8 c6bf 21bd 9863 3fbc b7aa b0bc
000000a0: e0be b6bb 643e b13d 8835 bfbc 6c7d 403b
000000b0: 7b36 8ebd 80f6 14bc 8db6 2bbd 875e 00bd
000000c0: 216d 9d3c 5eed 31bc 2a49 343c 960e a0ba
000000d0: cca6 e6bc 59b9 303c 20fb 59bd 45d9 793c
000000e0: 2fbd 7c3c a663 103c 2f08 a5bc 1ea9 073d
000000f0: 1286 a23c 60d2 34bd 8e92 99bd db02 15bd

hiden_layers.4.weight f4 [64, 64]
-0.013924449 -0.20680462 0.1152417 -0.17082036 0.163701 0.20577833 -0.120703734 -0.108821146
-0.27359784 0.017037634 -0.07662022 0.19005919 -0.05156004 -0.29593602 0.023866484 -0.17269436
0.047049977 -0.14597592 0.063857175 0.17791198 0.029742826 0.007331564 -0.11202383 -0.09290791
-0.06768533 -0.13468532 -0.00042278474 -0.15677159 -0.32349756 0.11265971 0.22836845 0.111169726
0.21264619 0.035963383 -0.33931732 -0.21527451 0.091493875 0.008609348 0.10105789 0.18553747
-0.035111904 0.19652921 0.19850503 -0.08919309 0.19705126 0.030183516 -0.15726705 0.15929511
-0.108004466 0.07099931 0.066390365 0.2834711 0.061825946 0.18815528 -0.21888673 0.31267056
-0.28126442 -0.06762392 0.02955386 0.056532856 -0.07758106 0.026148867 -0.10242083 -0.04583659
0.009029907 -0.14241602 -0.15709105 0.07835227 0.005287774 -0.009038193 0.11660198 0.11564722
0.09619742 0.13930757 0.04041582 -0.10991993 -0.058581945 0.22339852 0.08249256 -0.11233043
0.12313201 -0.21406777 -0.06035185 0.15221287 0.022541441 0.24297348 -0.2603059 -0.14858866
0.10620403 0.03213927 0.018510623 -0.3074018 0.058772556 0.19246013 0.0132665 -0.14398848
0.04591137 0.15023401 0.059124477 0.08795223 -0.016250199 0.07408708 -0.21468411 -0.12271596
-0.17310603 -0.21143499 0.10049202 -0.075281374 -0.3184945 0.16831659 -0.21797904 0.13416274
0.1331722 0.23236729 0.04937535 0.18359752 -0.100614525 0.0015520494 -0.049580976 -0.16625448
0.24114248 0.11523646 -0.09859147 0.055436656 -0.18912135 -0.25704974 -0.01584818 -0.11959575
-0.102866195 0.22003381 0.024467507 0.23698959 -0.06746046 -0.04357569 -0.08308886 -0.08785262
0.13326259 0.25336447 -0.027194073 -0.051969863 -0.21227625 0.08725697 0.20506383 0.009073757
-0.039540414 -0.07503015 0.11759822 -0.23351808 0.22932345 -0.08990633 -0.13507004 0.037392244
-0.0020063065 -0.062067926 0.11655819 0.21109322 0.11527124 -0.19562657 -0.11586479 -0.1347092
-0.12833467 -0.13019107 -0.057468433 -0.023720546 0.09428325 -0.1451005 -0.17049596 0.17737757
-0.039838366 0.16318016 0.04648712 0.28120366 -0.058046974 -0.22708604 -0.019531816 -0.07794684
0.26846033 0.038639955 -0.14810632 -0.2195058 -0.046043616 0.22178715 0.076903574 -0.1036474
0.31679642 0.155236 -0.03157764 0.07338486 -0.03931525 0.06477642 -0.20794278 0.031511355
-0.11701405 -0.013776747 -0.1626079 -0.09357562 0.10219628 -0.10529764 -0.04935569 -0.04273825
0.1098952 -0.1204453 0.049924217 -0.09860092 0.16815406 0.0049001267 -0.14583685 -0.016343556
0.14609486 -0.05198131 -0.16114853 -0.014654288 0.049589977 -0.18398416 -0.010392934 0.08380381
-0.08947796 -0.20185786 -0.14814913 0.044841584 -0.068254694 -0.08596794 0.042835213 0.050858125
-0.15593328 -0.025890598 -0.3217042 0.06833682 0.076400846 -0.23159662 -0.021557197 -0.23065192
-0.046735268 -0.008620222 0.03962839 0.08398541 0.31842473 -0.11149538 0.100536324 -0.11150274
0.050658986 -0.19637088 0.06436412 0.27628314 0.11873402 0.06287116 0.032324314 0.19129498
0.14238274 0.15703842 -0.073235065 -0.049839605 -0.012828918 0.22736296 0.111235596 -0.01760351
00000000: 5f23 64bc 97c4 53be d703 ec3d 88eb 2ebe
00000010: 3ca1 273e 8eb7 523e 8533 f7bd 9fdd debd
00000020: 0415 8cbe 8292 8b3c 10eb 9cbd e09e 423e
00000030: 9f30 53bd ed84 97be a583 c33c cad6 30be
00000040: 7ab7 403d b67a 15be 8dc7 823d 8f2e 363e
00000050: 3aa7 f33c 9e3d f03b c06c e5bd 8146 bebd
00000060: 9b9e 8abd f3ea 09be 35a9 ddb9 bb88 20be
00000070: 79a1 a5be 22ba e63d 6bd9 693e f4ac e33d
00000080: ecbf 593e 574e 133d 00bb adbe ec70 5cbe
00000090: 2461 bb3d 390e 0d3c 70f7 ce3d 89fd 3d3e
000000a0: 80d1 0fbd f43e 493e e744 4b3e deaa b6bd
000000b0: cec7 493e 6c43 f73c 9d0a 21be 421e 233e
000000c0: 7231 ddbd 1668 913d acf7 873d 2023 913e
000000d0: 343d 7d3d c7ab 403e d823 60be 5b16 a03e
000000e0: e401 90be 697e 8abd f01a f23c ff8e 673d
000000f0: d2e2 9ebd 2636 d63c 03c2 d1bd 26bf 3bbd
00000100: 2df2 133c 81d5 11be 7adc 20be 2877 a03d
00000110: 1045 ad3b ee14 14bc 05cd ee3d 73d8 ec3d
00000120: 2703 c53d a5a6 0e3e 0f8b 253d b31d e1bd
00000130: 9ff3 6fbd 95c2 643e dcf1 a83d 7f0d e6bd
00000140: a32c fc3d 9534 5bbe 8033 77bd b1dd 1b3e
00000150: d4a8 b83c 0ace 783e d146 85be a027 18be
00000160: 8081 d93d 78a4 033d 97a3 973c c563 9dbe
00000170: 7ebb 703d 4514 453e bc5b 593c b771 13be
00000180: 900d 3c3d f2d6 193e 822c 723d 4c20 b43d
00000190: 231f 85bc f8ba 973d 27d6 5bbe 8152 fbbd
000001a0: b542 31be 6a82 58be c3ce cd3d 1f2d 9abd
000001b0: b611 a3be 2f5b 2c3e e635 5fbe f561 093e
000001c0: 4b5e 083e b1f1 6d3e cf3d 4a3d fd00 3c3e
000001d0: fd0e cebd 236e cb3a 6c15 4bbd 9d3e 2abe
000001e0: 0eee 763e 1801 ec3d 53ea c9bd 8c11 633d
000001f0: 07a9 41be 069c 83be 0bd4 81bc 9eee f4bd
00000200: 83ab d2bd 8b50 613e 1570 c83c 66ad 723e
00000210: b628 8abd 6c7c 32bd 7e2a aabd 13ec b3bd
00000220: fd75 083e fdb8 813e 1bc6 debc 5ade 54bd
00000230: f25e 59be c8b3 b23d 41fc 513e 18aa 143c
00000240: 21f5 21bd 68a9 99bd 56d7 f03d 5d1f 6fbe
00000250: c4d3 6a3e cf20 b8bd cd4f 0abe 9c28 193d
00000260: 3d7c 03bb f03a 7ebd 0fb6 ee3d d228 583e
00000270: 5413 ec3d 5552 48be 854a edbd 35f1 09be
00000280: 2a6a 03be cf50 05be 0564 6bbd 9751 c2bc
00000290: 9417 c13d 3a95 14be 7e96 2ebe 77a2 353e
000002a0: 8e2d 23bd b318 273e 4769 3e3d edf9 8f3e
000002b0: aac2 6dbd 3e89 68be 3001 a0bc 98a2 9fbd
000002c0: a273 893e ee44 1e3d 2fa9 17be 21c6 60be
000002d0: 3b98 3cbd 2c1c 633e 9f7f 9d3d 1745 d4bd
000002e0: 2433 a23e 30f6 1e3e 8e57 01bd cd4a 963d
000002f0: 0709 21bd 80a9 843d f4ee 54be 0d12 013d
00000300: 10a5 efbd ddb7 61bc af82 26be 93a4 bfbd
00000310: 494c d13d 4aa6 d7bd 3129 4abd 4e0e 2fbd
00000320: bc10 e13d 07ac f6bd 567d 4c3d 47ef c9bd
00000330: 9430 2c3e 3e91 a03b 4156 15be ece2 85bc
00000340: e499 153e 5bea 54bd 1f04 25be 8a18 70bc
00000350: dc1e 4b3d 5866 3cbe 2047 2abc 55a1 ab3d
00000360: 3840 b7bd d4b3 4ebe 68b4 17be cfab 373d
00000370: 1ec9 8bbd f60f b0bd fa73 2f3d 9c50 503d
00000380: f9ac 1fbe 8518 d4bc 6ab6 a4be 2df4 8b3d
00000390: 0c78 9c3d aa27 6dbe b898 b0bc 0430 6cbe
000003a0: 7b6d 3fbd d53b 0dbc 6151 223d 8b00 ac3d
000003b0: 9108 a33e b157 e4bd fde5 cd3d 8c5b e4bd
000003c0: cc7f 4f3d 7315 49be 56d1 833d fc74 8d3e
000003d0: d22a f33d 98c2 803d 8066 043d d5e2 433e
000003e0: c8cc 113e aece 203e 44fc 95bd 9d24 4cbd
000003f0: 6230 52bc d6d1 683e 7dcf e33d 3c35 90bc

hiden_layers.4.bias f4 [64]
0.0060329484 0.08036803 -0.019956464 0.028407773 -0.020986939 -0.037830852 0.010917321 0.027303334
-0.0032499877 0.018961592 0.0552061 0.0437874 0.04680138 0.0153818885 -0.0016687339 0.01203877
0.009760918 -0.002900228 0.012806919 0.0027498389 -0.010881778 -0.011561599 -0.023316998 0.0091205295
0.0020485455 -0.03506851 -0.051974088 0.13338384 0.025683753 0.090157054 -0.026292307 -0.03257492
0.094614044 -0.051394757 -0.07162188 -0.031786554 -0.054783065 0.048576124 -0.0030511988 -0.036849108
0.04889457 0.021450587 -0.025640264 0.077687584 0.062441304 0.010881033 -0.04994936 0.14686742
0.04563211 -0.018923154 -0.057995148 -0.083085775 -0.040253602 0.014035366 0.13321216 -0.0043730666
0.008167212 0.07677248 -0.038233977 0.061457224 -0.029743478 -0.010625347 0.02181631 -0.041331977
00000000: 0ab0 c53b fe97 a43d bd7b a3bc 6bb7 e83c
00000010: cdec abbc 86f4 1abd 90de 323c 3eab df3c
00000020: bffd 54bb 5755 9b3c cb1f 623d 6b5a 333d
00000030: ceb2 3f3d 5104 7c3c 6bb9 daba 433e 453c
00000040: 42ec 1f3c c011 3ebb 1dd4 513c a436 343b
00000050: 7c49 32bc dc6c 3dbc 4a03 bfbc 466e 153c
00000060: e440 063b ffa3 0fbd c8e2 54bd c695 083e
00000070: bc66 d23c 43a4 b83d f762 d7bc 486d 05bd
00000080: 02c5 c13d 4f83 52bd 7eae 92bd 9e32 02bd
00000090: 3564 60bd c2f7 463d 9ff6 47bb 17ef 16bd
000000a0: ac45 483d 24b9 af3c 880b d2bc ab1a 9f3d
000000b0: 74c2 7f3d 5c46 323c b397 4cbd 6a64 163e
000000c0: bce8 3a3d bb04 9bbc 528c 6dbd e028 aabd
000000d0: f6e0 24bd 97f4 653c c568 083e f14b 8fbb
000000e0: c5cf 053c e43a 9d3d 3b9b 1cbd 92ba 7b3d
000000f0: 98a8 f3bc ef15 2ebc 1eb8 b23c b84b 29bd
