results/8_with_inertia/epoch880/model_weights.pth (torch, 749334 bytes, 128 tensors)

init_layer.0.weight f4 [64, 5]
000000 dd b0 a4 be 7f f9 b4 be 10 98 2e 3e 99 8d 28 bd
       -0.32166186 -0.353466 0.17050195 -0.041150663
000010 53 d4 67 3e 4f 8b 8e bd 9e 1a f6 ba 9d d9 ad be
       0.22639589 -0.06960165 -0.0018776243 -0.33955088
000020 a1 bc 41 3d 62 10 09 3e 61 db d3 3e a3 4b ab bd
       0.04729903 0.13385156 0.4137831 -0.08364036
000030 d7 9e df 3d 4e d7 e1 3d d9 39 90 3e 9d b3 04 be
       0.10918968 0.11027394 0.28169134 -0.12959142
000040 13 6c 73 be 44 44 89 3e 50 1d 64 be 75 da 25 3e
       -0.23771696 0.26809895 -0.22276807 0.16196616
000050 da 2c 8a 3e 49 61 3c 3e 8c 63 0b be 64 7b 83 3d
       0.26987344 0.18396486 -0.13612193 0.06420019
000060 2d 57 19 3e 01 42 bd 3e e8 75 82 3e e7 6b 79 bd
       0.14974661 0.3696442 0.2548058 -0.06089392
000070 7a 41 38 3e 59 67 9f 3d ae 81 2f 3d db e1 97 be
       0.17993727 0.07783384 0.04284828 -0.29664502
000080 e3 ec 7e 3e 61 3c a9 3c 01 0d 92 3e 3f 7d a7 be
       0.24895053 0.020658674 0.28525546 -0.32712743
000090 e4 76 2b be 50 cf 66 3d e9 07 91 3e 11 49 97 be
       -0.16744572 0.056350052 0.28326347 -0.29547933
0000a0 2e 16 43 3e fe d6 a9 be 9d 87 05 3e b5 8c ff bc
       0.1905143 -0.3317184 0.13040014 -0.031195024
0000b0 0b f4 bb 3d 9d dc 8d be 03 51 9d 3e 24 9d 8c be
       0.09177407 -0.27707377 0.3072587 -0.2746364
0000c0 f0 d6 76 be 42 2c 27 bd de c6 a3 3e d0 1d f2 3d
       -0.2410543 -0.040813692 0.3198766 0.118220925
0000d0 9e 8c d5 bd 88 9c 96 be fd 93 aa 3d 7d 37 9f be
       -0.10427211 -0.294163 0.08329008 -0.31097022
0000e0 55 39 85 3e 6b a6 04 be b4 92 c2 3c 55 c5 2f 3b
       0.26020303 -0.12954108 0.023751594 0.00268205
0000f0 eb 54 b2 3d f4 f0 87 be 0d a0 85 be e0 28 26 3e
       0.08707603 -0.2655102 -0.26098672 0.1622653
000100 32 be 8e 3e 07 0a 47 be 27 81 22 3e 38 d5 eb bc
       0.27879483 -0.19437419 0.1586958 -0.028788194
000110 6d 6d 29 3e 43 2b 82 be fd bf c2 bd 16 58 a1 bd
       0.16545649 -0.2542363 -0.09509275 -0.07878129
000120 60 02 f7 bc 38 2b 91 3d b2 1f e6 3c b5 53 58 3e
       -0.0301525 0.070883214 0.028091285 0.21125682
000130 8c b8 2c bd 5c 04 97 be 69 dc 8f 3e 57 67 61 3e
       -0.042168185 -0.29495513 0.28097847 0.22012077
000140 c3 13 0c 3e af 2a 07 be fe 7d 68 3e 53 4e 7a be
       0.13679413 -0.13199876 0.22704312 -0.24443941
000150 12 c4 5c 3e 88 31 c0 3c 59 43 97 3e 0b fa 54 be
       0.2155917 0.023461118 0.2954357 -0.20798509
000160 f2 0e e9 3d 9d b0 96 3d 6d 6f 34 be 2d 30 98 3e
       0.11379804 0.07357905 -0.1762063 0.29724255
000170 36 ae 07 be e7 9b 4e be 13 7f 96 be 94 79 77 be
       -0.1325005 -0.2017666 -0.29393825 -0.24167472
000180 55 ca 4f 3e 04 cf fc 3d a9 d3 61 be f4 5d c3 3c
       0.20292027 0.123441726 -0.22053398 0.023848511
000190 68 2a 8e be 35 4a bd 3c cb cc 3b 3e 3d 79 45 be
       -0.27766728 0.023106674 0.18339841 -0.1928453
0001a0 b5 1f 83 be 9b 0d b2 be d6 0a 98 be 40 88 a0 3d
       -0.25610128 -0.34776005 -0.29695767 0.078384876
0001b0 44 e6 6c 3e 9f ba 70 be 79 e4 27 be 7b 8b 7b bd
       0.23134714 -0.2350869 -0.16395749 -0.061412316
0001c0 51 f7 54 be 0a 3c 13 3e 42 ab 38 be 47 58 80 3e
       -0.20797469 0.14378372 -0.1803408 0.2506735
0001d0 d8 31 3a be 2c 33 93 3d af 9b 94 3c bd a0 ce bd
       -0.18183076 0.07187495 0.018140642 -0.10089252
0001e0 6a 79 ef 3c cf 7b 2d 3e 62 86 67 3e 1a 24 da bd
       0.0292327 0.1694176 0.22609857 -0.10651417
0001f0 1b 22 e5 3d 9b 82 a3 3e 0e 41 b6 3e 20 05 3e 3e
       0.11188146 0.31935582 0.35596508 0.18556643
000200 03 42 19 be df 54 31 3e b3 53 9a be 38 3d 81 3e
       -0.14966588 0.17317532 -0.30141982 0.2524202
000210 6c 41 c3 bb b4 97 9e 3d 3c fc 92 3e 25 47 01 be
       -0.0059587266 0.07743779 0.28708065 -0.12624796
000220 9c 13 a4 3e 05 2d 56 3e 4c f0 43 3e 68 11 60 3e
       0.3204621 0.20915611 0.19134635 0.2188164
000230 a7 3c da bd 2e 29 3e be f3 b2 86 be 0a b6 cb bb
       -0.106561 -0.18570396 -0.26308402 -0.006216769
000240 fe 42 81 3e f3 74 0f 3e 58 d3 3b 3e fa 6f 32 3d
       0.25246423 0.14009456 0.1834234 0.04356382
000250 70 da 9c bd 84 88 25 3e 75 7f 46 3e 12 5e 6a 3d
       -0.07658851 0.16165358 0.19384558 0.05721862
000260 7d 2c 6a 3e dc 71 75 3e 28 5a 6c 3e 38 8d 87 be
       0.22868533 0.23969215 0.23081267 -0.2647493
000270 81 3f a7 be 45 18 f6 3d d0 ac e9 bd cb 1b 2e be
       -0.32665637 0.12016348 -0.114099145 -0.1700279
000280 b4 ce 91 be ff 6b 10 3e ee 91 5a bd d5 b0 82 3e
       -0.28478014 0.14103697 -0.053361826 0.25525537
000290 d3 49 1d be 7b ae 69 3e bb d4 a2 be 17 ed 3a be
       -0.15360193 0.22820465 -0.31802925 -0.18254505
0002a0 03 3a fa 3d a2 ac fb 3d e0 5e 8b bd 45 ea 27 3e
       0.12218096 0.122887865 -0.06805205 0.1639796
0002b0 dc c7 74 bd 86 64 34 3e 4f 0f 50 be 04 c8 f3 3d
       -0.059760913 0.17616472 -0.2031834 0.11903384
0002c0 26 16 51 be 27 5c 63 3e 27 c1 93 3e e3 7e 6a 3e
       -0.20418605 0.22203122 0.288583 0.22899966
0002d0 92 d6 45 3e c1 bb 02 be db e9 ab 3e 84 98 3c 3e
       0.19320133 -0.12766935 0.33576855 0.18417555
0002e0 fc 07 da 3c 37 30 ab bd 8d f3 65 bd 30 36 78 3e
       0.026615135 -0.083588056 -0.05614047 0.24239421
0002f0 15 3c a1 3d e1 9c 30 3e 47 8c 02 be ad b7 33 be
       0.07872788 0.17247345 -0.12748824 -0.17550536
000300 11 cf 5e 3e 88 37 a9 3d 32 fc fb bd 24 17 7b be
       0.21758677 0.08262545 -0.12303962 -0.24520546
000310 a4 4d 3f be 33 51 03 3e 11 be 45 be b0 9c a0 3e
       -0.18681961 0.12823944 -0.19310786 0.31369543
000320 63 a5 9b 3e 52 94 1e be 76 6b 3e 3e 9b 66 a8 3e
       0.30399618 -0.15486267 0.1859568 0.32890782
000330 5f 4c 28 be 91 7c 7a 3e bb c1 35 3e 90 ec f1 bd
       -0.16435383 0.24461581 0.17749684 -0.11812699
000340 b2 bc f7 bd 48 f1 87 3e f1 0b cb bd 23 b0 42 be
       -0.12096538 0.2655127 -0.09914387 -0.19012503
000350 e1 3c 13 3e 73 fb 71 3b 9c 48 2e 3d 0d 24 40 3e
       0.14378692 0.0036923557 0.042549714 0.18763752
000360 9e da cd 3d 14 a3 d6 bc 7e 32 0d 3e e5 60 85 3d
       0.100514635 -0.026200809 0.13788792 0.06512622
000370 04 f8 14 be b0 25 b3 be 16 56 ec bd 10 6f 78 be
       -0.14547735 -0.3498969 -0.11539857 -0.24261117
000380 f5 4e 38 3e 90 e1 0c be 82 28 c4 3d 7b 4b 7d 3e
       0.1799887 -0.1375792 0.09578039 0.24735825
000390 a0 b7 4b 3e 45 cb 55 3e 1b d6 93 be f0 3b 13 be
       0.19894266 0.20878322 -0.28874287 -0.14378333
0003a0 f1 9d 9c be 1c 28 04 3e 2c aa 3a be c2 bc 68 be
       -0.3058925 0.12905926 -0.18228978 -0.22728255
0003b0 9e c5 99 3e 41 35 46 3e 4e e7 94 be 99 aa 83 3e
       0.30033582 0.19356252 -0.2908272 0.25716093
0003c0 b4 53 35 3e 8e 0d 46 be 9f 14 64 bd 85 8a 62 bd
       0.17707711 -0.19341108 -0.05568373 -0.055307884
0003d0 5d 5c 44 be 14 17 8e be e7 58 f6 bd 9c cd 40 be
       -0.19175859 -0.27751982 -0.120286755 -0.18828434
0003e0 fa d4 70 bd 47 43 83 be e6 68 35 3d f3 72 ac 3e
       -0.05879686 -0.25637266 0.044289492 0.3368145
0003f0 3e a6 80 3e 90 7f 6b be 93 d4 33 3e 04 dc 1c be
       0.25126833 -0.2299788 0.1756156 -0.15318304

init_layer.0.bias f4 [64]
000000 e2 e6 45 bc 1b a1 2a 3c 16 b7 9e 3a 04 58 3c bc
       -0.0120789725 0.010414387 0.0012109007 -0.011495594
000010 f7 c6 aa bc 75 bd b6 3b a4 d0 eb 3b d7 b1 df bb
       -0.020846827 0.0055767843 0.0071965028 -0.00682662
000020 32 67 67 bc 8c e5 00 ba 5e d2 00 3b 1c e8 fb 3b
       -0.014123725 -0.00049170176 0.0019656639 0.0076875817
000030 97 26 3d 3b d0 30 b5 3c 8f 96 bc 3c 21 c8 1e 3c
       0.0028862113 0.022118002 0.02302101 0.009691269
000040 f8 dc bb bb 29 6c 15 ba 47 9e 4b bc d2 23 b2 bc
       -0.0057331286 -0.0005700016 -0.012427873 -0.021745596
000050 9e 75 5e bb 70 be 9f 3c 7b 25 a7 3b 54 ed aa 3c
       -0.0033944617 0.019499987 0.0051009036 0.02086512
000060 b5 d0 af bc 45 b3 0a bc 50 ab b2 bb 5b 21 24 3c
       -0.021461824 -0.008465593 -0.005452551 0.010017718
000070 4c 18 b4 bb f9 84 f5 bb e8 80 d3 3b 87 35 a0 ba
       -0.0054960605 -0.007492658 0.006454576 -0.0012222984
000080 c8 38 af 39 be f4 e5 3c a0 5b 08 3c 99 ca 16 bb
       0.00033420906 0.028070804 0.008322626 -0.0023008941
000090 5b 80 50 bd 2d 9e ed bc 58 0a 80 bb dc 90 ae 3c
       -0.05090366 -0.029006088 -0.003907483 0.021309309
0000a0 1c 23 1f bd b8 c0 75 bc b5 4d 30 bc ca 65 36 3c
       -0.038851842 -0.014999561 -0.010760714 0.011132667
0000b0 f7 2f ba 39 74 c6 b7 bc f1 1c 7b bc 90 bb 4a 3b
       0.0003551242 -0.022433497 -0.015326724 0.003093455
0000c0 04 83 b9 3b 62 4b f8 3c b6 86 07 bd 59 89 38 3b
       0.00566137 0.030309383 -0.033087455 0.0028158037
0000d0 00 72 94 bb d1 13 85 3d 75 aa 10 bb 66 98 99 3b
       -0.0045301914 0.0649792 -0.0022074257 0.0046873568
0000e0 0a 81 d5 3b 7c 83 94 3c 3c 71 ee 3b 5c 5b f6 bc
       0.006515627 0.018129103 0.007276682 -0.03007286
0000f0 8a e3 a9 bc 30 cb 02 bc ad f2 8a bc f5 16 17 bc
       -0.020738382 -0.007983014 -0.01696142 -0.009221782

hiden_layers.0.weight f4 [64, 64]
000000 2e 23 0a 3e 77 c2 31 3d 22 54 a7 3d f9 57 26 3d
       0.13489982 0.043398347 0.08170344 0.04061124
000010 7d f7 25 be ee 4c 37 3e 59 d3 39 be 3b fd 13 be
       -0.1620769 0.1790044 -0.18147029 -0.14452069
000020 52 4a 9f 3d 16 8e 22 3e 61 80 e7 bc 80 2c 52 3e
       0.07777847 0.15874514 -0.028259458 0.20524788
000030 e1 2e bf bd ee b0 20 3e 37 29 12 3c 7a cd a4 bc
       -0.09335113 0.15692493 0.008920959 -0.02011751
000040 98 e9 3f bd 39 7e ad 3d 1e 62 68 bd a1 61 f3 3d
       -0.04685363 0.08471341 -0.056734197 0.118838556
000050 51 77 60 be 08 94 04 be 46 fd 5e 3e bf 03 0b be
       -0.21920516 -0.12947094 0.21776304 -0.13575648
000060 fe e7 f0 bb fe 46 3b 3d 29 67 94 bc e4 d1 33 be
       -0.0073518744 0.045722 -0.018115597 -0.17560536
000070 22 b0 c5 3d 84 c2 0e bd cd 49 31 be 2e 5e 83 3d
       0.09652735 -0.034853473 -0.17313309 0.06414448
000080 3f f0 bf 3d 30 5b be 3d f0 b2 fa 3d 83 a2 67 be
       0.09371995 0.092947364 0.12241161 -0.22620587
000090 dc ef 7b be 2f 3c 7c bd 49 39 39 be 3c b9 33 3e
       -0.24603218 -0.061580833 -0.18088259 0.1755113
0000a0 97 fd 52 3d 66 c4 20 be e5 40 84 be 9f 23 96 bd
       0.051511373 -0.1569992 -0.2583076 -0.07331013
0000b0 78 a5 4c be 09 85 07 be e2 0e 27 bd 1d 57 ff bd
       -0.19984996 -0.13234343 -0.040785678 -0.124677874
0000c0 ea 82 34 3d 50 1f 88 3c 45 8e 1b 3e 89 af fa 3d
       0.044070162 0.016616493 0.1519099 0.12240512
0000d0 b4 27 0d 3e ad 9e 50 bd 6f bd 89 3d e9 40 39 be
       0.13784677 -0.050932575 0.06725585 -0.18091168
0000e0 bf cc 4f 3c a2 31 f7 bd 37 5c 12 be 59 a7 9f 3c
       0.012683093 -0.120700136 -0.1429299 0.019488977
0000f0 92 1c 97 bd 6d ef 57 3e 5f 93 42 be 5f ef 08 be
       -0.07378496 0.21087427 -0.1900153 -0.13372563
000100 4d a6 5e bd 04 9e 81 bd 7c 61 92 bd e9 3c bf 3d
       -0.054357816 -0.06328967 -0.071475 0.093377896
000110 36 22 ae bd d5 3f fd 3d 48 ba b2 3d be a7 d5 3d
       -0.08502619 0.123656906 0.087269366 0.10432385
000120 e2 bd a8 3e e7 84 f2 bd 62 99 4b 3e 76 60 8a bd
       0.3295737 -0.11841755 0.1988273 -0.0675668
000130 1a b2 35 3d db bc 28 3e 5a d0 ef bb cf ee 70 bc
       0.044359304 0.16478293 -0.0073185386 -0.014705374
000140 9c 3d c4 3d 9d 68 e3 bd 9e 46 47 bd 24 fe 0e 3e
       0.095820636 -0.11103938 -0.04865133 0.13964134
000150 7d 49 41 bd d4 7e 10 bd 4a c0 b1 bd f0 dc 08 3e
       -0.047189225 -0.035277203 -0.08679254 0.13365531
000160 cb c6 8a bc 09 b4 85 bd 28 1f 1c be d8 4d da bd
       -0.016940495 -0.065284796 -0.1524626 -0.10659379
000170 45 f8 1e 3e 0f 9c be bd ea 86 f2 3d 30 3d d2 bc
       0.15524395 -0.093071096 0.11842139 -0.025663942
000180 16 91 00 be 0e 03 0c 3d 1b 28 61 be fe 57 f9 3d
       -0.12555346 0.0341826 -0.21987955 0.12174986
000190 a8 ae 28 be 06 62 01 be 59 8d 89 bd ef 12 63 3e
       -0.16472876 -0.12635049 -0.06716413 0.22175191
0001a0 74 c5 d1 bd 8c c2 29 3b 59 08 0f 3d d2 9d 68 be
       -0.10242739 0.0025903312 0.03492007 -0.22716454
0001b0 a0 27 75 3e 52 ef 87 3d 8d f1 5f 3e ab d1 01 3e
       0.23940897 0.066374436 0.21869488 0.12677638
0001c0 08 71 32 be 73 9f 8c 3d cf 54 5a be 7e 15 20 be
       -0.1742593 0.0686635 -0.21321414 -0.15633199
0001d0 07 94 b5 bd d7 bf 73 be f9 ea 44 3e 68 e0 45 3d
       -0.088661246 -0.2380365 0.1923026 0.048309714
0001e0 13 fe 2b 3e 69 bf 33 be c1 38 4d 3e 8e 43 49 bd
       0.1679614 -0.17553486 0.20041181 -0.04913669
0001f0 08 aa fe bd 35 96 14 be 48 a5 2f 3e 00 b8 de 3c
       -0.12434775 -0.14510424 0.17152894 0.027187347
000200 62 67 f1 bb 69 22 99 be f4 e8 24 3d e5 91 06 3e
       -0.0073670605 -0.29909065 0.040261224 0.13141592
000210 12 a5 82 be a1 75 9f bd 69 dc 34 3d 58 01 49 3e
       -0.25516564 -0.07786108 0.044155512 0.19629419
000220 dd 96 c6 3d 49 c5 48 be 4c e7 42 3d fa c9 a7 bd
       0.09696744 -0.19606508 0.047583863 -0.08192821
000230 5d 8d 27 3e 5b d3 35 3e 6d c5 6d 3d 5f f8 77 be
       0.1636252 0.17756407 0.058049608 -0.2421584
000240 f1 65 60 3d f9 a3 1b 3e 13 27 ba bd 15 98 ec 3d
       0.05478472 0.1519927 -0.09089484 0.11552445
000250 a9 26 99 bd 0b c6 1d 3e 6a cb a0 3d 88 f0 60 be
       -0.07478077 0.15407579 0.07851298 -0.21966755
000260 ae 30 2d 3e 07 7f 21 3e ba d4 61 bc 0e 1d 92 3d
       0.16913101 0.15771113 -0.013783628 0.07134448
000270 69 38 1a 3e ed fb 3e be 65 17 30 3e 00 30 e2 3d
       0.15060581 -0.1865079 0.17196424 0.110443115
000280 c4 a8 46 3e 5c 15 8e bd a7 96 e1 bd 22 8f 15 3e
       0.19400316 -0.06937668 -0.11015063 0.14605382
000290 4f 87 0c 3e 97 cc 68 3e 76 52 81 3d 40 a4 d6 3d
       0.13723491 0.22734295 0.06314556 0.10480547
0002a0 c1 b2 b0 bc b6 da 1e 3e 9c e2 4c 3e 5e dc 97 bd
       -0.021569612 0.15513119 0.2000832 -0.074150786
0002b0 b8 88 4a 3e 73 ae 90 3e 35 ad 07 3d d5 11 07 be
       0.19778717 0.28258094 0.033124167 -0.13190396
0002c0 14 41 b2 3d 05 59 2c be 60 c5 ac bd ac 4a 0e bd
       0.08703819 -0.16830833 -0.08436084 -0.03473918
0002d0 ce f1 51 bd c8 ef a8 3d e3 91 9a 3d d8 e1 1f be
       -0.051255994 0.0824886 0.07547357 -0.15613496
0002e0 79 41 5f be a8 77 4d 3d 3c 11 6c be dc e8 3c 3e
       -0.2180232 0.05016294 -0.2305345 0.18448204
0002f0 6c 94 c5 3d 7a a0 2f ba 9f d5 e4 bd bf d5 3c 3e
       0.0964745 -0.0006699633 -0.111735575 0.18440913
000300 9d df 33 be 86 4e ff bc c0 50 46 3d 33 a1 28 be
       -0.1756577 -0.031165373 0.048416853 -0.16467743
000310 b5 14 a8 3d e8 45 c8 bb 10 5f 68 3d 79 0c 4f be
       0.082070746 -0.006111849 0.056731284 -0.20219602
000320 c1 3c 10 3e 0d 8c e3 3d a5 12 64 3e 3e af e5 3d
       0.14085676 0.11110697 0.22272737 0.112150654
000330 1b ec 80 bd 7a 2c 41 3e b5 49 9b bd de 5d c6 3d
       -0.062950335 0.18864623 -0.07582418 0.096858725
000340 87 6b 49 be f0 3a 2c be f8 60 10 3e 77 8b 20 3e
       -0.19669925 -0.16819358 0.1409949 0.15678202
000350 7b 97 29 3e b9 4a 75 be 7c 9f 19 be 3c de 67 be
       0.16561691 -0.23954286 -0.15002245 -0.2264337
000360 21 a9 38 be 83 fd 5d 3e 88 23 68 3d 48 d4 d5 bd
       -0.18033268 0.21678738 0.05667451 -0.1044088
000370 46 6c 55 3e bd 7d 28 3c 5c 44 be bd 68 2e eb 3d
       0.20842084 0.010283885 -0.09290382 0.11483461
000380 29 af 36 be eb 52 61 be 51 e9 24 3c 50 0b 0a 3e
       -0.17840256 -0.22004287 0.010065393 0.13480878
000390 3f 4c 6f bd b1 2e 27 be e2 5d 22 be 7a e8 cf 3c
       -0.058422323 -0.16326405 -0.15856126 0.025379408
0003a0 36 44 fb bd 4d 03 a7 bc 19 4e 01 be 4e 4f 45 3e
       -0.122688696 -0.020387316 -0.12627448 0.19268534
0003b0 52 94 28 be 4d 5e 7d 3d df bd 14 3d d3 d8 e8 3d
       -0.1646283 0.06185751 0.036313888 0.11369481
0003c0 1a 5e 1f be 4e 16 35 3e e6 8d 4c bd 2f b2 fb 3d
       -0.1556324 0.1768429 -0.049940012 0.12289845
0003d0 76 29 09 be 0d 84 34 bd fa 34 cd bd 4b 65 3d be
       -0.13394722 -0.044071246 -0.1001987 -0.18495671
0003e0 e4 1f 14 be de ca 42 be b3 a0 1b 3e e6 5f 23 3e
       -0.1446529 -0.190227 0.1519802 0.15954551
0003f0 3e 66 3f be 6d 13 32 3d 6c 9c e8 3b 5e d7 1d 3e
       -0.18691346 0.043475557 0.007098725 0.15414187

hiden_layers.0.bias f4 [64]
000000 0a fc b3 bb d4 50 be 3b 11 a1 59 bc 1b c3 db 39
       -0.005492692 0.0058079753 -0.01328303 0.000419163
000010 fb 44 37 3d ad cc 96 bb 2c 13 18 3d 10 8f fb 3a
       0.04474352 -0.004602036 0.03712766 0.0019192416
000020 7c c6 e7 bc 79 25 85 3c 1f 6c cf bc 50 a4 3e bd
       -0.028292887 0.01625322 -0.02532011 -0.04654342
000030 9f 01 39 bc 76 56 01 bb b4 67 b3 3b 0f ea 54 ba
       -0.01129189 -0.0019735373 0.005475009 -0.00081220357
000040 8d d7 88 3a a4 65 63 bc 09 ae 6e 3c eb f3 1c bc
       0.0010440216 -0.0138792135 0.01456786 -0.009579639
000050 83 f7 10 bc a8 9a d4 bc 5c ae b7 39 8d 71 61 3c
       -0.008848074 -0.025952652 0.00035034388 0.013759983
000060 9e a0 0b bb fb e7 0d bc ea c6 dd bc 56 b9 f4 bc
       -0.0021305452 -0.0086612655 -0.027072389 -0.029873531
000070 fd bf 16 38 da 1f 93 bb 68 6d 1a 3a c5 f6 ff 3b
       3.594159e-05 -0.004489881 0.00058909366 0.0078113996
000080 1a fb 41 3b af 5d b6 bb 4e 89 a6 bc 53 7d c3 bb
       0.002959913 -0.005565367 -0.020329144 -0.0059658675
000090 a3 cd bf ba c9 d1 93 bd ff a0 fc bb 0e 27 6b ba
       -0.0014633428 -0.07217748 -0.007709622 -0.0008970358
0000a0 79 9f 57 3c 14 a8 50 bc c6 4f 6e bc 94 d7 4d bc
       0.01316058 -0.012735385 -0.014545387 -0.012563605
0000b0 41 e5 d2 3b a2 a8 2c bc 19 0d 46 bb d3 69 89 3c
       0.0064360206 -0.010538252 -0.003022021 0.016774094
0000c0 1b 02 11 bc 27 5b 00 3b 78 ef e9 ba 1c 16 9d bc
       -0.0088506 0.001958558 -0.0017847857 -0.019175582
0000d0 0b 3a 62 bc 57 05 a1 3b 0d 92 bd bb e3 b9 a0 3b
       -0.013807784 0.0049139666 -0.005785233 0.004904972
0000e0 5d 95 94 3c e6 7e cc bb f1 66 ba 3c 3a 25 7c 3c
       0.018137628 -0.0062407134 0.022754164 0.015389735
0000f0 10 ab 23 bc fe 60 8d bc 62 55 4f 3c f7 af 7c bc
       -0.009989515 -0.017258164 0.012654634 -0.015422813

hiden_layers.1.weight f4 [64, 64]
000000 8e e0 01 3d 28 dc 2c be 8a a5 3b 3e 55 62 2b be
       0.031708293 -0.16880858 0.18324867 -0.1673673
000010 65 f3 8c 3c 6c 6f 20 be f4 0b 44 bd 55 d4 4f 3e
       0.017205903 -0.15667504 -0.047862962 0.20295842
000020 d1 2b 17 3e 26 d3 26 3e 50 7c c1 bd af 58 cf bd
       0.14762808 0.16291484 -0.09447539 -0.10124337
000030 dd 0b 5d 3d ab 69 29 be 3c 4d bb bc 4b 86 03 3e
       0.05396639 -0.16544215 -0.022863977 0.12844197
000040 f3 d3 04 3e 26 09 8b 3d 73 f9 17 3e aa 18 f1 bd
       0.12971477 0.06788854 0.14841251 -0.117722824
000050 5d d8 03 3e e7 85 a4 bb fe 95 ce bd f4 75 c5 3d
       0.12875505 -0.005020845 -0.100872025 0.096416384
000060 a9 50 25 be 11 3f fc bd 6d 5d 21 3e 75 fd 55 3d
       -0.1614405 -0.123167165 0.15758295 0.05224367
000070 36 24 ea bd b3 52 f3 3c 7b 70 02 be 57 69 0f 3d
       -0.11432688 0.02970252 -0.1273822 0.03501257
000080 3a 39 df 3d a1 1a 3a 3e 86 ca 6f be c0 8b 98 3c
       0.10899587 0.1817422 -0.234171 0.018621325
000090 a9 55 91 bd 7e 88 3f be 26 c5 4e 3e 47 8f d4 bd
       -0.070964165 -0.18704411 0.20192394 -0.103788905
0000a0 18 be 52 be c7 b8 4a be 90 01 e2 bd 83 d9 88 bd
       -0.20580328 -0.1979705 -0.11035454 -0.06682112
0000b0 db 9f 3d be 7e e4 0c bd 65 b5 12 bb c8 2a 13 3d
       -0.18518011 -0.034397595 -0.0022385952 0.03592947
0000c0 89 f4 75 be 7c 0e 55 3d 82 ad a4 bd 13 b8 0d 3e
       -0.24019064 0.052015767 -0.080409065 0.1383975
0000d0 de 7b 0c 3e 08 1a 8f bc f7 fd 15 3a 09 21 3f 3d
       0.13719127 -0.017468467 0.00057217426 0.046662364
0000e0 34 a9 14 be de 83 b6 3d a6 a4 2b be ce 75 2a 3e
       -0.14517671 0.089118704 -0.16762027 0.16646501
0000f0 36 cc b1 bd 8d 0f 7b be 90 f6 02 be f5 73 ee 3d
       -0.08681528 -0.24517651 -0.12789369 0.11643211
000100 ed 65 52 be 1e 8a 71 be 95 88 82 3b 91 cb 9c be
       -0.20546694 -0.23587844 0.003983567 -0.3062406
000110 5c 1f 10 bd 81 b1 3f be fa 51 a2 be de 71 af be
       -0.035186157 -0.18720056 -0.31703168 -0.3426656
000120 b9 41 1a 3c e2 ac 33 be f9 45 3a 3c 9d a7 23 3e
       0.009415084 -0.17546418 0.011369222 0.15981908
000130 04 4f 42 be 4d ff b9 3d 0d 90 62 3e d7 72 34 3d
       -0.18975455 0.09081898 0.22125264 0.044054832
000140 17 2f 2e be d4 77 34 be 94 70 d0 bd b3 57 75 3e
       -0.17010151 -0.17623836 -0.101777226 0.23959236
000150 ee 16 2c 3e ab fa fc 3d 2c cd d7 bd 67 e8 07 bd
       0.16805622 0.123524986 -0.1053718 -0.03318062
000160 77 eb ac 3d 86 80 80 be f4 b5 b7 3d dd 84 fc 3d
       0.08443349 -0.25098056 0.08970252 0.12330029
000170 be 84 81 3d 3a 6e 93 be 02 e4 f6 3d a7 d6 41 be
       0.06324147 -0.28795034 0.12055208 -0.1892954
000180 86 5b 51 3e 8d e5 3c 3e 6b 14 73 3e 8f 78 0f bd
       0.2044507 0.18446942 0.23738258 -0.035027083
000190 d2 78 89 be 02 5c 60 3e 9c e9 c1 3c cb b5 2d bc
       -0.2684999 0.21910098 0.023670964 -0.010602425
0001a0 58 29 8b bd 2e c9 df 3d 90 5e 8f be ce 08 00 bd
       -0.06794995 0.10927044 -0.28001833 -0.031258397
0001b0 eb 28 73 3d a3 80 32 3e 05 83 80 3d f3 c2 05 bd
       0.059365194 0.17431884 0.0627499 -0.03265662
0001c0 36 08 67 bc 08 60 69 bd 3a 77 91 3e 5d 14 b7 3d
       -0.014101079 -0.05697635 0.28411275 0.08939431
0001d0 20 3a f1 3d 92 f4 23 be 40 d1 be 3d 47 c6 00 be
       0.117786646 -0.16011265 0.09317255 -0.12575637
0001e0 da 1d 5c be 27 1d d7 bd 2c 81 50 be 82 76 03 bd
       -0.21495762 -0.10503607 -0.20361775 -0.03209544
0001f0 a6 90 63 be 77 7b 74 be d8 11 4b 3c 79 c8 82 3c
       -0.22223148 -0.23875223 0.012394391 0.015964733
000200 c7 12 c3 3d 69 0f ce bd 5f 01 c5 bd f7 5d 35 be
       0.09525066 -0.10061533 -0.09619402 -0.17711626
000210 68 69 1c 3e b8 fd 55 3e 77 c8 3c bd 39 dc a4 3d
       0.15274584 0.20897567 -0.046089616 0.08049817
000220 0e fd d5 bd db 04 0b bd 08 87 ba 3d f1 91 ea 3d
       -0.10448657 -0.033940177 0.091077864 0.11453617
000230 bf 41 02 3d 90 25 8f 3b 07 fa 60 3e b8 c1 64 3d
       0.03180098 0.0043684915 0.21970378 0.055848807
000240 81 ce 41 be 39 cb 0d be 53 a6 69 bd 14 d7 29 3e
       -0.18926431 -0.13847055 -0.057043385 0.16585952
000250 df d2 07 be 8a 01 23 3d b4 df 3c be 97 1f 2c bd
       -0.13264035 0.03979639 -0.18444711 -0.042022314
000260 a4 4f fe bd 1a bc fb bd 7c c8 d5 3c fa a9 4d 3e
       -0.12417534 -0.12291737 0.026096575 0.20084372
000270 72 4a 41 3e f9 3b c1 3d 45 5a b0 3d c0 e4 80 3d
       0.18876055 0.09435267 0.086109675 0.062936306
000280 49 ff 01 3d 99 7e a5 bd 76 58 db bd dd 9e 01 3c
       0.0317376 -0.08080787 -0.10710232 0.007911411
000290 cb e2 ca 3d ca 80 fb 3b 6f 5a a4 bb f9 c3 d5 bd
       0.099065386 0.007675265 -0.0050156633 -0.104377694
0002a0 62 b8 22 3e 4d 5a ad bc 76 a6 8d bd be df 28 3e
       0.15890649 -0.021161223 -0.069165155 0.16491601
0002b0 17 10 81 bd 50 8f c6 3c 1d 97 6a bd 54 6e 81 38
       -0.06301897 0.024238259 -0.05727302 6.1717496e-05
0002c0 15 e8 47 bd 40 d4 28 be de 46 c2 bc 8f 8b 21 be
       -0.048805315 -0.16487217 -0.023715433 -0.15775894
0002d0 5e ac 5e bc ca 00 96 bd df 47 e7 bc ec 01 d2 bd
       -0.0135909 -0.07324369 -0.028232513 -0.10254273
0002e0 85 49 f9 3c 0f dd 48 be 0b 8b 11 be c3 79 5f 3d
       0.030430565 -0.19615577 -0.14213197 0.05455948
0002f0 8b 93 d1 bd 46 ea 2c be 41 49 68 3d 3c 4a 30 3e
       -0.1023322 -0.16886243 0.056710485 0.17215818
000300 84 d1 7f 3e 33 a2 52 3c eb 5d 93 bc c9 70 5d 3e
       0.24982268 0.012856054 -0.01798912 0.21625055
000310 55 ca 5c 3e 51 7a f8 bd 7e c3 27 be 24 68 9c 3d
       0.21561559 -0.12132705 -0.16383168 0.07637051
000320 76 d9 59 3d f2 87 71 3e 71 62 0b 3e c8 64 a7 bd
       0.053185903 0.23587015 0.13611771 -0.081735194
000330 bd d9 c6 3d 4e ac 43 be e2 c9 92 bc 79 8f 19 3d
       0.09709499 -0.19108698 -0.01791853 0.03749034
000340 6c de ea bd 6a 95 be 3b 35 80 03 3d 62 61 2b be
       -0.11468205 0.0058161514 0.03210469 -0.16736367
000350 6c ab 64 be 2d a9 fa bd ca 50 02 be 0d 95 4a be
       -0.22331017 -0.12239299 -0.12726131 -0.19783421
000360 7e 99 1a 3e ec f2 28 3e a9 5d c6 3d 9f 62 08 3e
       0.15097615 0.16498917 0.09685833 0.13318871
000370 cd 25 62 3e 14 6e 46 be 77 0c 1d be cd fe e0 3d
       0.22084732 -0.19377929 -0.15336786 0.109860994
000380 db 56 01 3d a8 61 37 be 42 75 dc bd 62 1c 8c bc
       0.031576972 -0.17908347 -0.10764553 -0.017103378
000390 a6 92 0a 3b 03 49 24 3e 93 6d 8b 3d bc 1e 09 3d
       0.0021144538 0.16043477 0.06808009 0.033476576
0003a0 2f 70 10 3e 40 fe 3f bc 13 c6 c2 3d f9 63 04 3c
       0.14105295 -0.011718333 0.09510436 0.008080476
0003b0 27 72 57 be 82 db 00 be e6 19 56 bd 74 c2 4e 3e
       -0.2103964 -0.12583736 -0.052270792 0.20191365
0003c0 c2 b6 4e 3e b0 fb 82 bd 7b 94 35 bd 48 8d 9c 3d
       0.20186904 -0.06395662 -0.044331055 0.07644135
0003d0 0d 4e fc 3d 83 98 98 bc aa 6a d3 bd 7c ed b5 3d
       0.123195745 -0.01862741 -0.10323079 0.08883187
0003e0 39 f5 27 be 02 6c ac bd 90 93 86 3d e1 99 68 3e
       -0.16402139 -0.08419038 0.06571114 0.2271495
0003f0 6d f2 45 3e 2a 8e ac bc 67 b9 2a 3c 24 60 5a bd
       0.1933076 -0.021063883 0.01042018 -0.053314343

hiden_layers.1.bias f4 [64]
000000 0c df b3 3c f6 cb 09 bd 3c 7d dd ba cd 1c c0 3a
       0.021956943 -0.033641778 -0.0016898285 0.0014657021
000010 df 7c 9f 3b 05 6f 67 bc b5 f4 43 bd 13 06 12 bb
       0.0048671807 -0.01412559 -0.047840793 -0.0022281453
000020 27 f3 73 bb 82 c7 ce 3c 81 b9 9a 3b f1 6a a0 ba
       -0.0037223788 0.025241617 0.004721821 -0.0012238902
000030 f5 8b ee 3d 42 55 0f bc 7e 43 af bc 3c 0f e9 bc
       0.116477884 -0.008748354 -0.021394487 -0.028449647
000040 10 c9 0b bd 39 9c 43 bb a9 2f d0 3a ae 2e 03 bc
       -0.034127295 -0.0029847755 0.0015883344 -0.008006735
000050 81 75 af bb 6e ba 27 3d cc 77 5c 3c de d4 7d bc
       -0.0053545837 0.040949278 0.013456296 -0.015492646
000060 6f 5a 05 bc 27 af ac bc 81 3e 4a bc 1d 37 6a bc
       -0.008139237 -0.021079613 -0.012344004 -0.014295367
000070 bd 63 34 3c ae bf 60 ba 5c 34 af bc 53 1d af bc
       0.011010108 -0.00085734844 -0.021387272 -0.021376288
000080 55 d3 6f 3c fa a8 49 3b a4 6a a3 ba 4e 01 0a bd
       0.014637788 0.0030770884 -0.0012467694 -0.03369265
000090 fe 8b 82 3c c1 cb f6 bb c2 88 26 3c aa 6f fd 3b
       0.015935894 -0.0075316136 0.010164442 0.0077342587
0000a0 dd d7 56 bc ac 54 20 bb 55 60 16 bc bd ab b0 bb
       -0.013112989 -0.002446453 -0.009178241 -0.0053915665
0000b0 77 a1 3d bd 99 a6 9d 3d 2d fe 9d bb b1 97 e1 3b
       -0.046296563 0.076977916 -0.00482156 0.006884538
0000c0 d2 3f 0c bc b0 22 ec bc dc 9e b4 bc dd 92 37 bc
       -0.008560138 -0.028825134 -0.022048406 -0.0112044485
0000d0 83 93 0a 3b 8e 50 e3 bb 1a 82 e7 3c 7f 9c 8b 3c
       0.0021145053 -0.006937093 0.02826028 0.017042397
0000e0 6a 55 d0 bc 77 1f 19 bc 39 9c 6b 3c b4 5e 00 bd
       -0.025431354 -0.009345881 0.014380508 -0.031340316
0000f0 2a 60 e4 3c 47 35 fd 3b 0a dc a0 bd 9d f3 48 3c
       0.027877886 0.0077272984 -0.07854469 0.012265113

hiden_layers.2.weight f4 [64, 64]
000000 a8 be fd bd ee d1 53 be 7d 25 d1 bc cc 88 52 3e
       -0.123898804 -0.2068555 -0.025530571 0.20559996
000010 e7 c0 54 3e 48 61 d6 bc fb a7 69 3e 31 b1 79 3d
       0.20776711 -0.026169434 0.22817986 0.06096
000020 1e b9 a3 3d c3 88 dd bd 19 04 80 3e b2 ca 18 be
       0.07994293 -0.10817101 0.25003126 -0.14921072
000030 01 75 e1 bd cb 62 ef bc 27 25 48 3e 5a 88 cf bd
       -0.11008645 -0.029221913 0.19545422 -0.10133429
000040 77 f5 b9 bc 9f 77 b1 bd c1 66 51 3e 09 2c 85 bd
       -0.022700055 -0.08665394 0.20449354 -0.0650254
000050 c5 17 09 be ae fc 6f be 7d 28 09 be 6b 69 54 3d
       -0.13387974 -0.23436233 -0.13394351 0.051858347
000060 f6 66 c6 bc 28 d2 9c 3d 2a 40 ad bd 2f 38 bf bd
       -0.024219017 0.076572716 -0.08459504 -0.09336888
000070 1c cc ad 3e c6 c3 c9 bd 17 eb 53 3e f6 c0 89 be
       0.33944786 -0.09851794 0.20695148 -0.2690503
000080 79 28 26 be 67 86 78 3e 24 43 8c be 3c 10 aa 3d
       -0.16226377 0.2427002 -0.27394974 0.08303878
000090 98 79 a1 3d 4e 2e 3f 3c 4c 41 61 be c9 fc ea 3d
       0.0788452 0.011668755 -0.21997565 0.11473996
0000a0 a1 d4 fb 3d 1d 72 4a be 90 25 0d bd 13 f8 c9 3d
       0.12296415 -0.19770093 -0.03445965 0.098617695
0000b0 a3 7f b0 3d 02 fe 68 3d 92 82 ab 3d 78 52 6a bc
       0.08618095 0.056882866 0.08374514 -0.014301889
0000c0 d0 af c5 3d 72 ef 51 3e 1c 4e 2b be 59 4c f7 bb
       0.09652674 0.20501497 -0.16729015 -0.007546943
0000d0 58 82 34 be 3c 1f 90 bb 62 89 ab 3d e6 3d 4c 3e
       -0.17627847 -0.0043982547 0.08375813 0.19945487
0000e0 bc cd 6e 3e df 08 fa bd 8d d6 89 3c b6 6c bc 3c
       0.23320669 -0.12208723 0.016825939 0.023001056
0000f0 61 7d 7c 3d a1 f3 59 3e 78 c3 73 be 48 17 52 3c
       0.06164301 0.21284343 -0.23805034 0.0128229335
000100 85 30 9e 3c 5d ad 16 bd 6b 2b d8 3d c7 37 0a 3c
       0.019310245 -0.036786426 0.10555156 0.00843615
000110 41 aa f6 bd d5 20 a1 3a 32 15 f0 bd 09 77 17 be
       -0.12044192 0.001229311 -0.11722793 -0.14791502
000120 d0 5c 35 3e 2d 07 db bd 94 e1 08 be 49 6b ad 3d
       0.17711186 -0.10694728 -0.13367301 0.08467729
000130 fe d8 a7 3b 5e 30 a1 bd b9 07 3e 3e 22 7e ef bd
       0.005122303 -0.078705534 0.18557633 -0.1169398
000140 f8 f0 02 be 4e 83 27 3e 42 70 0d be 11 0c 50 3e
       -0.12787235 0.16358683 -0.13812354 0.20317103
000150 a5 49 6f 3e b3 bc ed bd ae 98 d5 bd 8f 59 12 be
       0.23367937 -0.11608257 -0.10429512 -0.14291976
000160 bb 86 20 be 0e 86 f9 bd 76 98 af 3d f0 8c 49 3e
       -0.15676396 -0.12183772 0.085740015 0.1968267
000170 d4 cf 2f be 6e b1 0d 3e 34 a7 4e 3e bb 51 03 3c
       -0.17169124 0.13837215 0.2018097 0.0080150915
000180 b4 c1 a2 bd 66 bd 86 3c 13 d9 8e bc 52 d2 ac bd
       -0.07947102 0.016447734 -0.017437493 -0.08438553
000190 ec b0 96 bd e7 c2 10 3e 03 12 58 3e 12 e4 44 be
       -0.07357964 0.1413685 0.21100621 -0.19227627
0001a0 2d 38 eb 3d 8e 1f 8a bd 38 13 6e 3e b8 51 c5 3d
       0.11485324 -0.067443 0.23249519 0.09634727
0001b0 1c d8 2c bd ee 3b 5a bd de f7 99 3d d5 09 8d 3d
       -0.042198285 -0.05327981 0.0751798 0.06886641
0001c0 8c 0a e4 3d 84 ae 25 3e 4e bd e7 bd af 7a 38 3e
       0.11134824 0.16179854 -0.11315404 0.1801555
0001d0 02 37 8a be 0b 30 7a 3e 78 a9 95 bd 2b f7 5a 3e
       -0.26995093 0.2443239 -0.07307714 0.2138335
0001e0 1e 08 8a 3d 06 a1 f6 3d 54 40 8a bd 36 e1 3f 3d
       0.067398295 0.120424315 -0.06750551 0.046845637
0001f0 c9 72 40 bd e9 89 55 3e 37 08 08 3e aa 4e 11 be
       -0.046984468 0.2085339 0.13284384 -0.14190164
000200 70 df 0c be e9 2d e1 bd 8f 07 2a 3e 80 af 51 be
       -0.1375711 -0.10995085 0.16604446 -0.20477104
000210 1e 5a 07 3e 64 1b bc 3d 84 e3 56 be 12 5d ac bc
       0.1321797 0.09184912 -0.20985228 -0.021040473
000220 4e 15 0e 3e 82 99 0c 3e aa 34 0e 3e 86 0f d7 bc
       0.13875315 0.13730434 0.13887277 -0.02625252
000230 38 9e 5c be 53 86 4c bd c2 4c cf 3c ff a4 cc 3d
       -0.2154473 -0.04993279 0.025305156 0.09992408
000240 18 96 6d 3d e8 8c 86 bc 38 a3 34 3e db 6d 29 3e
       0.05800447 -0.016424611 0.17640388 0.16545813
000250 ad 3c 5a bb 05 47 29 be 67 5c 83 bc d0 e8 b0 bd
       -0.0033300326 -0.16530998 -0.016035272 -0.086381555
000260 0a aa 1c 3e 69 35 64 3e f2 d4 eb bd d0 f2 70 be
       0.1529924 0.22286 -0.115152255 -0.23530126
000270 b7 a0 0d be 1d b2 dc bd cd 2f 29 be d8 5d be 3d
       -0.13830839 -0.1077616 -0.16522141 0.09295243
000280 76 b0 38 3e 2d 4b 23 3e f3 17 d9 3d 67 d2 aa 3d
       0.18036065 0.15946646 0.10600271 0.08340912
000290 b5 a3 42 be a4 1e 76 be 04 a6 2e be d4 94 38 be
       -0.19007762 -0.24035126 -0.17055517 -0.18025523
0002a0 c3 66 81 bd 16 2c ef 3d 1f 3f 7b be a8 c6 a3 3d
       -0.06318428 0.116783306 -0.24535798 0.07996875
0002b0 ee be 90 3d f2 18 76 3e 65 f4 d1 3b 41 9b 09 3e
       0.07067667 0.24032953 0.006407308 0.13438131
0002c0 64 7f 54 3e a0 f6 67 3e ac 7e 7f 3d 2a 8d f9 3d
       0.2075172 0.22652674 0.062376663 0.12185128
0002d0 ca a9 7b 3e 75 38 4c 3e d6 d5 1d 3e a6 33 b6 3d
       0.24576488 0.19943412 0.15413603 0.0889657
0002e0 1d 3f ce bd fe 93 1f bd fb 19 29 3e 15 f5 8b be
       -0.10070632 -0.038959496 0.16513817 -0.2733542
0002f0 d6 4c 28 be 29 03 a8 3d e2 9c 5d 3e 0e 06 db 3c
       -0.1643556 0.08203728 0.21641877 0.026736286
000300 74 32 d6 3d 49 ff 45 3e d8 02 87 3b e4 a1 6d 3d
       0.10458842 0.19335665 0.004120212 0.05801572
000310 0e c6 90 3c 6b cc 9a 3d 2f a5 58 3d 21 bb 5a be
       0.017672565 0.07558521 0.052891906 -0.21360447
000320 bb 36 9a bd 80 b1 40 be bc 1d 6f be f5 9a ab 3d
       -0.0752997 -0.18817711 -0.23351187 0.08379165
000330 07 a2 98 3d ab e1 d4 3d 2f e8 f8 bd dd a9 b9 bd
       0.07452779 0.10394605 -0.121536605 -0.09065602
000340 36 53 36 3e bf 02 83 3e c1 38 2b 3e 2b d5 e5 bd
       0.1780518 0.25588033 0.16720869 -0.11222299
000350 6f 28 dd 3b 17 98 a9 3d 66 cf 5a 3e 92 08 4c be
       0.006749205 0.08280962 0.21368179 -0.19925144
000360 5b 4d 27 be 2b 01 8e bd 44 dd 30 be ab dd 10 3e
       -0.16338103 -0.069338165 -0.17271906 0.1414706
000370 54 8a 64 be 0e 63 9d 3d 30 a0 99 bd 60 53 c4 3d
       -0.22318393 0.07684909 -0.075012565 0.09586215
000380 76 21 c8 3c a0 15 14 3d 1e bf 30 be ea 6e ac 3c
       0.024430018 0.036153436 -0.17260405 0.021048982
000390 6c 3e 10 be a5 26 46 bd e6 df 2d be 90 2d 88 3d
       -0.14086312 -0.048376698 -0.16979942 0.06649315
0003a0 50 5b 16 be d4 de 64 bd d8 08 4f 3e b2 48 71 3e
       -0.1468327 -0.055876568 0.20218217 0.23562887
0003b0 54 35 33 be fd b5 36 3e 7d 13 1e be 55 df a3 3d
       -0.17500812 0.1784286 -0.15437122 0.080015816
0003c0 73 33 ca 3d 1a ba 02 3e fd f0 d8 bb 7d 35 18 3e
       0.098730944 0.12766305 -0.006620525 0.14864154
0003d0 ac f8 b5 bd 28 79 38 be ac 28 84 3c 39 db 3b be
       -0.08885321 -0.18014967 0.016132675 -0.18345346
0003e0 0f fc e9 3c 1e 99 23 bc d0 bf 8c 3d 65 c0 1e 3e
       0.028562574 -0.009985236 0.06872523 0.1550308
0003f0 48 e8 47 be 7d 0c 02 be 9b fb e1 3d 20 cd 7e bd
       -0.19522202 -0.12700076 0.11034318 -0.06220734

hiden_layers.2.bias f4 [64]
000000 b0 e1 34 bd e6 3b c7 3b e1 fd f7 bc 43 3b 8a ba
       -0.044160545 0.0060801385 -0.030272426 -0.0010546226
000010 ed c8 f3 bb 1d 0d 16 3c 87 2c 9e 3b 39 4c 9b bc
       -0.0074397237 0.0091584 0.0048270854 -0.018957244
000020 0c d0 28 3d b9 37 34 3b e3 a4 2d 3c 75 fd af bb
       0.041214034 0.0027499034 0.010598394 -0.0053707906
000030 f2 93 20 bd 34 70 2e bc b2 7b 82 bc da 32 5d bc
       -0.03920359 -0.0106468685 -0.015928123 -0.0135008935
000040 3b f6 4e 39 db 73 a0 3c 8e f3 a0 bd d2 8e e0 3d
       0.00019737419 0.019586494 -0.07858954 0.10964741
000050 07 bb 2a bc 53 e9 79 bd 9d f2 65 3c bd 8b 20 3d
       -0.010420567 -0.06101353 0.014034894 0.039195765
000060 e3 ef 41 bb 55 55 bc 3c 62 6b 6e bc 1f b8 12 3d
       -0.0029592447 0.022989908 -0.014551969 0.035820123
000070 67 78 03 bd de fa 7a bc 26 b4 4c 3c b6 1d 8f 3b
       -0.032097246 -0.0153186 0.012494123 0.0043675555
000080 e6 c9 df 3b 0b b7 5b 3d ad f0 54 bc 57 2b 1e 3c
       0.006829488 0.05364136 -0.012996835 0.009653888
000090 a1 65 8b be 08 51 af bb 55 9f da bb 43 cb 5b 3c
       -0.27225974 -0.005350236 -0.006671826 0.013415161
0000a0 23 d3 ca ba 04 a1 7b bd b7 e1 b2 3c df 88 e5 bc
       -0.0015474301 -0.061432853 0.021836145 -0.028019367
0000b0 fb a2 32 bb a5 05 71 3c b9 99 73 3b 4b ca 1f 3c
       -0.0027257788 0.014710818 0.0037170483 0.00975282
0000c0 9c b4 69 3d be e8 81 3c c6 2e 1c bc 7f fa d5 3b
       0.05705701 0.01585805 -0.009532636 0.0065301056
0000d0 bc 7e 8c bb 7c bc 12 3d 05 6a 5e 3d bd a8 7f 3c
       -0.004287569 0.035824284 0.054300327 0.015604195
0000e0 71 12 5c 3c dd 86 37 bd cf 08 b7 3b dd 69 0e bb
       0.013432131 -0.04480635 0.005585767 -0.002173058
0000f0 35 7b e9 bb 5f 3a 3b bd de 1b 7c 3b 98 aa 0e 3d
       -0.007125283 -0.045709964 0.0038468759 0.03483066

hiden_layers.3.weight f4 [64, 64]
000000 e7 dc c3 3e ec 92 81 3d 66 48 d0 3d 6f 94 00 be
       0.38254473 0.06326851 0.10170059 -0.12556623
000010 e1 88 0d bd a0 47 ee 3b 67 7d 72 bd 9f b9 64 bd
       -0.034554366 0.007271722 -0.059201624 -0.055841085
000020 8f cf 4f be bf 0a ec 3d 57 a7 ab 3d 42 bb 01 3e
       -0.20294021 0.11525487 0.08381527 0.1266909
000030 63 41 58 3e 1c d0 e2 3d 64 8d ba 3d a4 0c 17 be
       0.21118693 0.1107485 0.09108999 -0.14750916
000040 9e 76 7f be ef be 46 be 19 87 ff 3c 42 cd 45 be
       -0.24947593 -0.19408773 0.03119235 -0.19316581
000050 4b 9d b4 bc 3f 23 9e 3d 76 fc 6d 3d d5 fc 38 bd
       -0.02204766 0.077215664 0.058102094 -0.045162994
000060 fa 00 62 3e 16 7b e9 3d 87 06 c9 3e 7b 69 79 be
       0.22070685 0.1140043 0.39262792 -0.24356644
000070 0c e2 98 bd 1b c1 9a bd 57 42 3b be 4e 09 7f bc
       -0.0746499 -0.07556363 -0.18287025 -0.015566183
000080 83 7b 10 3e 8e 00 01 be 04 94 03 be c8 94 42 be
       0.14109616 -0.12597868 -0.12849432 -0.19002068
000090 82 de 2e 3e b6 5e 38 3d 4f 15 33 be e0 58 ca 3d
       0.17077067 0.0450122 -0.17488597 0.09880233
0000a0 78 16 57 be 50 7b 14 3b 8f bf c7 3d 6c b1 f5 3d
       -0.21004665 0.0022656508 0.09753334 0.11996731
0000b0 9c 26 c9 bd 0b fa 99 3e c5 2f a0 bd 86 64 5e 3e
       -0.09821817 0.3007358 -0.07821611 0.21718034
0000c0 a6 a1 9f be e0 0c a3 3c 31 ec 63 3d a2 80 3d be
       -0.31178015 0.0199036 0.05564517 -0.18506101
0000d0 ad ca 24 be 07 c2 59 be 17 d9 50 be 27 de 1f 3e
       -0.1609294 -0.21265422 -0.20395313 0.15612088
0000e0 5a e0 21 be 3d 66 a9 3e 77 7f 5c 3d 7e ed b5 bd
       -0.1580824 0.33085814 0.053832497 -0.08883189
0000f0 3a 49 67 3e 58 66 1d 3e 5b e2 31 be d0 2d 2a 3d
       0.22586527 0.15371072 -0.17371504 0.041547596
000100 5e 93 ad 3d d1 9c c1 3b ba c9 1c 3d d4 b9 18 bd
       0.08475374 0.0059085866 0.03827832 -0.037286595
000110 c4 9e f5 bd d5 2e 4d 3e 66 fd 41 be 64 22 86 bd
       -0.11993173 0.20037396 -0.1894432 -0.06549528
000120 8b c8 4d be b7 43 33 be a9 f3 20 bd cc 29 2c 3d
       -0.20096032 -0.175063 -0.039294872 0.042032048
000130 d0 1a ca 3d f4 93 04 3e 11 2f 5c 3d 38 8f 52 3e
       0.09868395 0.12947065 0.053755824 0.20562446
000140 7f 03 e0 bc 2f de b1 bd 3e 9a 22 be ee c3 22 be
       -0.027345417 -0.08684956 -0.15879151 -0.15895054
000150 00 ec 2a 3e d4 40 8a be 77 71 9c 3c f8 75 37 be
       0.1669159 -0.27002585 0.019097073 -0.17916095
000160 6c 47 f8 3d c6 bb 00 be 03 2e 46 bd 37 7a e6 bd
       0.12122998 -0.1257163 -0.048383724 -0.112537794
000170 70 94 8d 3c 3a 87 1a 3e 27 aa ee bb cf 2b 36 3e
       0.017282695 0.15090647 -0.0072834673 0.17790149
000180 44 6c 04 3e 85 b8 33 3e 93 0d 8e 3b 44 4c 2b 3e
       0.12931925 0.17550857 0.0043351143 0.16728312
000190 65 5f 9b bd fd 6f 4b 3e 2b 6d 9d 3d 5d 05 21 3d
       -0.075865544 0.19866939 0.07686838 0.039311755
0001a0 31 04 9c bd 26 03 68 be e3 ba e0 bd 87 b0 04 3e
       -0.07617987 -0.22657451 -0.10973146 0.12957965
0001b0 27 28 4a bb 78 a2 f0 bd f7 55 69 3d 6d e4 c8 3d
       -0.0030846687 -0.117497385 0.056966748 0.09809194
0001c0 0f 71 31 3e b8 c4 de 3c 32 d0 82 3e da e9 65 be
       0.17328285 0.027193412 0.25549465 -0.22452489
0001d0 7c 41 9a 3c 3d 8f 83 3d 87 08 66 be 5e a5 89 bd
       0.018830054 0.06423805 -0.2246419 -0.067209944
0001e0 51 dd 3f be 6e 13 07 3e ba 70 04 be af a7 33 be
       -0.1873677 0.13191006 -0.12933627 -0.17544435
0001f0 61 6b 99 bc 54 48 73 3e 00 be cb bc c8 63 22 be
       -0.01872796 0.2375806 -0.024870872 -0.15858376
000200 9a 09 18 bd 9c 57 76 bd 88 f6 0d 3e 35 a9 50 3e
       -0.03711853 -0.060142145 0.13863575 0.20377047
000210 de ff 2b be 48 b9 a4 bb 99 ef f0 bd bf 5d 58 3e
       -0.16796824 -0.00502697 -0.117644496 0.21129511
000220 91 e4 2b 3e 59 5b 28 bd 7f 2a 54 be 62 61 ba bd
       0.1678641 -0.04110274 -0.20719336 -0.091006055
000230 1e be 1f be c4 64 8a 3d 42 39 16 3e 5b a9 ee 3c
       -0.15599868 0.06757501 0.1467028 0.02913349
000240 8d 82 22 3e 99 7a 18 be d7 d6 0b be 3e b2 6b 3d
       0.15870114 -0.14890517 -0.13656174 0.057543032
000250 ba e4 08 bc c6 42 6e 3d 75 42 79 3e 56 d3 80 be
       -0.008355314 0.05816915 0.24341758 -0.25161237
000260 9f 1a d2 bd 84 bf 46 3e ce ac 93 3d 2e a2 61 3d
       -0.10258984 0.19408995 0.07210694 0.055086307
000270 a4 9e 39 bd ac 11 e0 3d 77 63 43 be 04 41 c7 bc
       -0.045317307 0.10940871 -0.19080912 -0.024322994
000280 79 02 22 3e 36 a3 1b be fb 3b b1 3c 86 3a 11 be
       0.15821256 -0.15198979 0.021635046 -0.14182481
000290 37 1b 0b 3d 5f 08 a0 bd 99 7f 95 bd aa 24 95 be
       0.0339615 -0.07814097 -0.07299728 -0.29129535
0002a0 31 6b b4 3d 1c 80 7d bc 5e 45 f6 bd 3d 12 3c 3e
       0.08809508 -0.015472438 -0.120249495 0.18366332
0002b0 1d a1 0b be e4 6d eb 3d 5b 47 dc bd 9d ac 45 be
       -0.13635679 0.11495569 -0.107557975 -0.19304128
0002c0 44 86 3f bd 3c 18 92 bd 81 bc eb 3d db 65 1b be
       -0.046758905 -0.071335286 0.11510564 -0.15175574
0002d0 69 d8 47 be f5 2d 6a be 0f e7 5f 3e c5 5b 13 3c
       -0.19516148 -0.22869094 0.21865486 0.0089940475
0002e0 f5 1f 07 be c5 46 e3 bd 2d 01 e9 3d b2 1d 84 3e
       -0.13195784 -0.110974826 0.113771774 0.25803906
0002f0 b8 59 8f 3c 70 5f 98 3d 2f b1 19 be d6 3f 7e bd
       0.017498836 0.07440078 -0.15008996 -0.062072597
000300 a1 f3 fe 3d 29 39 ea 3d df be 90 3d e8 c1 7e be
       0.12448812 0.11436684 0.07067656 -0.24878657
000310 01 95 6f bd f5 53 22 3e 34 2c cd 3d d6 99 e6 3b
       -0.05849171 0.1585234 0.10018197 0.0070373816
000320 7e 98 85 bd 98 c7 11 be f5 d0 8f bd ec 57 86 bd
       -0.06523226 -0.14236295 -0.07022277 -0.065597385
000330 2b ce e1 bd 1b 99 21 be 0d 77 66 bb d9 09 11 be
       -0.110256515 -0.15781061 -0.0035166175 -0.14163913
000340 8d d2 38 3d 51 32 95 bd 0f 0c 81 bd 65 0b b2 3d
       0.045122672 -0.07284988 -0.06301128 0.086935796
000350 69 ba 31 3d d7 18 30 bd bd 23 a3 bc cc 47 66 3d
       0.043390665 -0.04299244 -0.019914502 0.056220815
000360 10 15 3c 3e 35 d7 22 3d b8 ea e0 bd 69 f1 7d be
       0.1836741 0.03975602 -0.10982269 -0.24799122
000370 9f c3 8a 3d 65 33 78 3e 7c e5 2f 3e 44 86 3f 3e
       0.06775593 0.24238355 0.17177385 0.18703562
000380 89 a2 4f 3d 62 03 12 3e 05 05 27 bd 9e 3b 68 be
       0.050692115 0.14259103 -0.04077627 -0.22678992
000390 03 21 13 3e 6e cd f9 bd 88 39 67 39 e1 19 5b be
       0.14368062 -0.12197386 0.00022051309 -0.21396591
0003a0 c4 06 03 3e 75 73 3e 3d ff 4b 37 3e a4 d4 1e 3e
       0.1279555 0.046496827 0.17900084 0.15510803
0003b0 6c 96 10 be 81 7f 95 3c f0 c9 e5 bb d5 0f 5a bc
       -0.14119881 0.018249275 -0.007012598 -0.013309439
0003c0 fd a7 ad 3c cf c8 74 be 81 86 de bd 62 77 04 be
       0.021198267 -0.23904727 -0.10865498 -0.12936166
0003d0 f5 49 81 bb a8 2c ea 3c 25 12 64 be d7 e1 89 bd
       -0.003945584 0.028585747 -0.22272547 -0.06732529
0003e0 27 ef 83 be 18 29 51 3e 7d 77 79 3d 66 20 0b 3e
       -0.25768396 0.20425832 0.06090497 0.13586578
0003f0 37 ff a2 bd d6 e2 04 be f7 8e 7b be 04 20 02 3d
       -0.079588346 -0.12977156 -0.24566256 0.031768814

hiden_layers.3.bias f4 [64]
000000 f3 1e 0d bd b0 0f b7 3b ee 4d 6a bd d3 40 35 3c
       -0.034453344 0.005586587 -0.057203226 0.011062819
000010 d9 5b 65 3c 12 03 92 bc 30 88 9f 3c 30 b7 b8 bd
       0.013998949 -0.01782373 0.019474119 -0.09019315
000020 87 be a7 bb 59 9c 69 bb a8 83 90 3c 32 13 3d 3d
       -0.005119148 -0.003564617 0.017640904 0.046160884
000030 44 a7 87 3b bb 56 30 bc cf ed 97 bc 09 5c 13 3c
       0.0041398127 -0.010762866 -0.018546013 0.008994111
000040 c8 0f 27 3c 6a dd 90 bd 5f cf 8c 3c b5 d0 ea ba
       0.010196634 -0.070734814 0.017188726 -0.0017914983
000050 43 9b 08 3c 78 9c 0f 3c 84 5d 54 bd 79 c0 5d 3d
       0.0083377985 0.008765332 -0.051846996 0.054138634
000060 e8 5c af 3c b2 05 0c bc 9d b8 87 bd 39 da 73 bb
       0.021406606 -0.00854628 -0.06627009 -0.0037208928
000070 c5 3c 34 3c 0c 00 36 bb 1b 37 c5 bc b5 8a 42 3c
       0.011000817 -0.0027771024 -0.024074128 0.011873891
000080 87 5a 96 3c 41 24 da bd 98 6d 14 bc 83 f9 23 bd
       0.018353714 -0.10651446 -0.009059332 -0.040032875
000090 5b 3c 86 bb 4d 82 0e bd 24 54 14 bc 85 20 a5 bc
       -0.0040965504 -0.034792233 -0.009053264 -0.020157108
0000a0 eb 1a a2 bb 93 a1 91 3d 03 c2 ad bc ee 4c ba 3a
       -0.0049470565 0.07110896 -0.021210676 0.0014213601
0000b0 2f e4 73 bd 22 b7 0b 3a 7a d7 22 bd 30 3e 04 bd
       -0.059543785 0.0005329718 -0.039756276 -0.03228587
0000c0 b3 5c a9 3c 8c f6 2b bc 02 56 38 3b 19 7e f2 ba
       0.020674085 -0.010495793 0.0028127437 -0.0018500715
0000d0 f7 04 da bc 26 00 19 3c 58 c9 47 bd 4c c5 80 3c
       -0.026613696 0.009338414 -0.048776 0.015719078
0000e0 99 c7 e8 3b 3e 48 ed 3b 4a 12 84 bc de 41 f7 3c
       0.007103872 0.007241278 -0.016122002 0.030182775
0000f0 ca cb c1 3c 45 fd 10 bd 34 56 91 bd 7b de 07 bd
       0.023656745 -0.035397787 -0.0709652 -0.03317116
