results/5_huge/epoch80/model_weights.pth (torch, 749398 bytes, 128 tensors)

init_layer.0.weight f4 [64, 5]
0.53627807 -0.04310185 0.09466223 -0.057812545 0.10334338 0.07683672 -0.3676936 0.010634702
0.104234695 0.0027090837 -0.581067 -0.4771078 -0.21590295 0.11322279 0.18168323 0.109550826
0.4338366 0.09686555 0.13630702 -0.13520232 -0.19965652 -0.4323687 0.13562772 0.046494946
-0.087941326 0.16265815 0.26724902 -0.0007557651 0.028648427 -0.11087068 0.14914973 -0.06798611
0.08853386 0.052969184 -0.18721561 0.23934595 -0.21851984 -0.008022384 -0.030990317 0.118911706
-0.6460241 -0.27138105 0.114498824 -0.091488905 0.021692961 0.24853604 -0.042650886 -0.018409373
0.009411881 -0.1660534 0.5927687 0.4627066 0.017611023 0.011849859 -0.17913483 0.026163874
0.5809929 0.12793194 0.13661528 0.09179115 -0.2618639 -0.12953411 -0.0001535055 0.03677572
-0.13510619 -0.454733 0.32933688 0.021743728 0.11677562 0.030460771 -0.07614122 0.0915259
-0.26860094 0.23600264 -0.28293633 -0.5089446 -0.18263389 0.119092256 -0.023832308 0.15974925
0.072027594 0.38971025 -0.0011981013 -0.007790228 -0.010126039 -0.37230182 -0.32095176 0.07574537
0.13513601 0.27624643 -0.49962047 0.25441313 0.06158111 -0.022291621 -0.08740814 0.09033435
0.111995354 -0.22169538 -0.14287353 -0.30010942 0.1068348 -0.37950718 0.025781404 -0.0066798483
-0.25569555 0.36422405 0.18890093 0.022164002 -0.004641139 -0.12860079 -0.10974101 0.018200371
0.05018109 -0.03547357 0.17206351 -0.05257694 -0.3621207 -0.20171683 0.10326387 -0.109552495
-0.15122384 0.55230105 -0.065657616 -0.022633435 -0.067770295 0.3247532 -0.37955475 -0.10727653
0.041844312 -0.023507513 0.20034975 0.3906944 -0.101861484 0.064650975 0.2247381 0.19610253
0.03487107 -0.08769209 0.03874634 -0.15523459 -0.3907669 -0.0855552 0.04085095 0.08168638
-0.11579346 0.22460824 0.48583815 0.00023540342 -0.025120664 -0.09739691 0.54640687 0.31985617
-0.014952933 -0.02378462 0.110784024 0.424233 0.18480945 0.23829775 0.07900374 -0.25035855
0.42129216 -0.30427644 0.1536402 0.13724816 0.18501233 0.18197168 -0.51874864 -0.06436308
0.04864773 -0.07484681 0.053989008 -0.16585785 -0.022804925 0.029933717 0.18137404 0.1755912
-0.29152802 -0.06538144 -0.16430302 -0.19179651 0.0129269585 -0.38795608 -0.010269059 0.12406265
-0.20012984 0.38371506 -0.41725546 0.18859918 -0.11049681 -0.18002878 0.3262674 0.061325334
0.070976384 0.11674245 0.06419164 0.016487665 0.49845868 0.033692345 0.021002121 0.15976046
-0.18318103 -0.09997693 0.06668199 -0.1414522 0.21832335 0.16695337 -0.102629036 0.07890262
-0.06202834 -0.17725831 -0.21818508 0.17486821 -0.010605711 -0.032530565 -0.1416992 -0.28261006
-0.26627007 0.025511088 -0.09380018 -0.08303981 0.18945651 0.07982889 -0.015191983 0.0054706573
-0.08829116 -0.33405533 -0.054935914 0.15825184 -0.12215515 0.09014633 0.1879182 0.1445728
-0.015323131 -0.083547845 -0.12930912 0.39083907 0.3808819 0.015291877 0.034143142 0.13903508
0.3157489 -0.13925901 -0.0015342487 -0.045154747 -0.22660233 -0.6104998 -0.32529742 0.04934405
-0.06186659 0.18598458 0.5234249 -0.28607926 0.022413818 0.053231675 0.12676084 0.50680345
00000000: 8549 093f 918b 30bd 45de c13d d9cc 6cbd
00000010: b2a5 d33d 925c 9d3d 5642 bcbe 2c3d 2e3c
00000020: 0079 d53d e28a 313b cfc0 14bf 7947 f4be
00000030: aa15 5dbe 5ae1 e73d 2b0b 3a3e 2f5c e03d
00000040: d51f de3e 7261 c63d 1194 0b3e 7a72 0abe
00000050: c272 4cbe 6e5f ddbe fee1 0a3e 7c71 3e3d
00000060: 951a b4bd dc8f 263e ddd4 883e 8a1e 46ba
00000070: 1bb0 ea3c 2b10 e3bd b5ba 183e 4d3c 8bbd
00000080: 3e51 b53d 37f6 583d 73b5 3fbe 1b17 753e
00000090: aac3 5fbe 5170 03bc 68df fdbc fb87 f33d
000000a0: d661 25bf 75f2 8abe 5c7e ea3d 895e bbbd
000000b0: 70b5 b13c 3b80 7e3e b2b2 2ebd 41cf 96bc
000000c0: 4a34 1a3c e709 2abe b1bf 173f e1e7 ec3e
000000d0: fe44 903c e925 423c 1f6f 37be 9f55 d63c
000000e0: f3bb 143f 9700 033e e0e4 0b3e 00fd bb3d
000000f0: 0613 86be 97a4 04be 52f6 20b9 23a2 163d
00000100: 4759 0abe c4d2 e8be d89e a83e e71f b23c
00000110: 0e28 ef3d de88 f93c eeef 9bbd ee71 bb3d
00000120: 1086 89be adaa 713e 08dd 90be 314a 02bf
00000130: 6104 3bbe a4e6 f33d f93b c3bc 4f95 233e
00000140: 3483 933d 1a88 c73e 9c09 9dba 2b45 ffbb
00000150: b0e7 25bc 589e bebe ca53 a4be 6320 9b3d
00000160: 1861 0a3e 2c70 8d3e 41ce ffbe 7042 823e
00000170: 793c 7c3d eb9c b6bc 0a03 b3bd 3701 b93d
00000180: d25d e53d 1d04 63be 704d 12be f1a7 99be
00000190: 34cc da3d c44e c2be 8633 d33c a1e2 dabb
000001a0: 87ea 82be 937b ba3e 3f6f 413e 4891 b53c
000001b0: b214 98bb edaf 03be e5bf e0bd f218 953c
000001c0: b08a 4d3d bc4c 11bd 6b31 303e eb5a 57bd
000001d0: e267 b9be db8e 4ebe 027c d33d 0f5d e0bd
000001e0: 6cda 1abe 9a63 0d3f 8077 86bd c169 b9bc
000001f0: 27cb 8abd 0d46 a63e 0055 c2be ccb3 dbbd
00000200: f164 2b3d d492 c0bc 7c28 4d3e 1909 c83e
00000210: c19c d0bd bb67 843d bf21 663e 1acf 483e
00000220: f8d4 0e3d e997 b3bd 7bb4 1e3d d1f5 1ebe
00000230: 9912 c8be 9137 afbd 5353 273d 304b a73d
00000240: 1f25 edbd b4ff 653e c7bf f83e a0d6 7639
00000250: dac9 cdbc 0878 c7bd 52e1 0b3f 30c4 a33e
00000260: 26fd 74bc f7d7 c2bc bce2 e23d 1135 d93e
00000270: b03e 3d3e 5304 743e b6cc a13d ff2e 80be
00000280: 9bb3 d73e 1fca 9bbe db53 1d3e c88a 0c3e
00000290: df73 3d3e c956 3a3e b6cc 04bf cad0 83bd
000002a0: d842 473d 4949 99bd 9423 5d3d a4d6 29be
000002b0: 65d1 babc 8e37 f53c 1eba 393e 2ece 333e
000002c0: 2943 95be b4e6 85bd 0d3f 28be 4e66 44be
000002d0: 98cb 533c 2ea2 c6be 8e3f 28bc 8f14 fe3d
000002e0: d6ee 4cbe 4d76 c43e 82a2 d5be 2520 413e
000002f0: 274c e2bd 7759 38be 850c a73e 4630 7b3d
00000300: 115c 913d aa16 ef3d e876 833d 2411 873c
00000310: fa35 ff3e fc00 0a3d a40c ac3c 3f98 233e
00000320: cf93 3bbe b4c0 ccbd 9190 883d d8d8 10be
00000330: 2890 5f3e d3f5 2a3e 2c2f d2bd b297 a13d
00000340: 6e11 7ebd 3483 35be e96b 5fbe a710 333e
00000350: 93c3 2dbc c53e 05bd 9819 11be 44b2 90be
00000360: 8d54 88be a1fc d03c 4f1a c0bd c710 aabd
00000370: e300 423e 547d a33d cce7 78bc 3343 b33b
00000380: ffd1 b4bd 4d09 abbe 7b04 61bd c50c 223e
00000390: 7b2c fabd a49e b83d a16d 403e e40a 143e
000003a0: df0d 7bbc 221b abbd 9c69 04be 0f1c c83e
000003b0: f402 c33e c88a 7a3c aed9 0b3d 365f 0e3e
000003c0: d7a9 a13e ea99 0ebe d818 c9ba 2ff4 38bd
000003d0: 710a 68be b749 1cbf 628d a6be fd1c 4a3d
000003e0: d267 7dbd be72 3e3e 2dff 053f fb78 92be
000003f0: 2f9d b73c 7509 5a3d 98cd 013e dfbd 013f

init_layer.0.bias f4 [64]
0.22722347 0.1295062 0.07826755 -0.1571183 -0.046635002 -0.18741792 -0.20181823 0.20629826
-0.19757451 -0.07266032 0.02389395 0.011937873 -0.21919744 -0.08642605 0.1698742 -0.11060825
0.07665348 -0.17241178 -0.16565594 0.26039252 -0.13532656 -0.088163294 0.041399166 -0.18248133
-0.013984772 -0.08131996 0.17520227 -0.20307682 -0.14067018 0.07580654 0.22597824 0.09564301
0.16713749 0.1056178 0.12657401 -0.08084696 -0.06572001 0.18760958 0.18010667 -0.08349406
-0.14788559 -0.0075109014 -0.16958156 -0.024593314 -0.07920184 -0.18794475 -0.13640875 -0.0011796667
-0.12951957 -0.11644227 0.21866633 0.06482825 -0.11571439 -0.17289767 -0.0026413116 0.14947425
-0.015654143 0.03831831 -0.1487713 0.14186253 -0.16352348 -0.18007445 0.004764125 -0.1282305
00000000: 45ad 683e 469d 043e bd4a a03d 9fe3 20be
00000010: 5804 3fbd 7cea 3fbe 70a9 4ebe da3f 533e
00000020: f950 4abe efce 94bd 3fbd c33c 1297 433c
00000030: 4b75 60be 2400 b1bd 81f3 2d3e 9486 e2bd
00000040: 80fc 9c3d b78c 30be b6a1 29be 2b52 853e
00000050: 0c93 0abe f58e b4bd 2c92 293d 63dc 3abe
00000060: 6320 65bc 148b a6bd 3968 333e 5ff3 4fbe
00000070: d80b 10be 7640 9b3d d766 673e 7ce0 c33d
00000080: 1726 2b3e 254e d83d 9e9c 013e 1793 a5bd
00000090: 3698 86bd ba1c 403e e26d 383e effe aabd
000000a0: 526f 17be 021e f6bb caa6 2dbe eb77 c9bc
000000b0: 9334 a2bd 9774 40be bcae 0bbe 0c9f 9aba
000000c0: c7a0 04be 4979 eebd 11ea 5f3e acc4 843d
000000d0: abfb ecbd 160c 31be db19 2dbb c70f 193e
000000e0: 1e3d 80bc a9f3 1c3d 8157 18be 6944 113e
000000f0: b372 27be 7065 38be 611c 9c3b db4e 03be

hiden_layers.0.weight f4 [64, 64]
0.3634026 0.07825491 0.08310823 0.15469049 0.1545409 -0.07524252 0.043938223 0.12944914
0.1274333 0.24708124 -0.0984639 0.2060159 -0.175287 0.013300347 0.264302 0.02911638
0.18573345 0.1547199 -0.29095468 -0.21503384 -0.07915543 0.12591182 0.17578322 0.24282368
0.22616291 0.21161443 -0.22178982 -0.06673775 -0.34066135 0.11321159 0.17903168 -0.17968673
0.22218315 0.14491111 0.047757927 0.14282635 -0.14243604 0.16057196 -0.2041551 0.12690087
-0.07310077 -0.02430544 -0.1481281 -0.070872925 -0.118135124 -0.12220303 0.10744214 -0.18125735
0.0491843 0.0055993935 -0.0021208655 -0.20366175 -0.05165792 -0.15557273 -0.078835435 0.14850196
-0.08040423 -0.19927067 0.06609175 0.15930194 -0.0150015075 0.013855186 -0.047619615 -0.348379
-0.057210937 0.014953025 -0.066071205 0.2177894 -0.07701438 0.24242297 -0.1496518 -0.14921
-0.12707669 0.12668796 0.25204062 0.21106742 -0.060973424 -0.034018565 -0.1083653 0.111819796
0.2651962 -0.14971256 0.03998461 0.15896845 -0.17879455 0.10884675 0.0025071087 -0.22035608
0.18414493 0.2042473 0.30604187 0.18680787 0.006378802 0.06009246 0.14605033 0.05758402
-0.062289443 -0.18426505 0.18851137 -0.08431821 -0.042321395 -0.30510965 -0.06552141 0.3138365
0.1577832 -0.2243176 -0.18112452 -0.2514281 -0.2423837 -0.037161883 0.14630659 0.18958409
-0.07576583 -0.15748663 -0.16110556 -0.014720446 -0.14734733 0.009919751 0.12484235 0.07162844
-0.24467628 -0.12443335 0.03407918 0.19272915 0.08240317 -0.07482812 -0.12052399 -0.055977777
0.025089497 0.07132015 0.25733042 -0.12140036 -0.19614445 0.09481685 -0.10621682 -0.156451
0.048561208 -0.27289 -0.4375199 -0.25267255 0.23124488 -0.010546144 0.1633401 -0.036612082
-0.09308009 0.13302404 0.22446048 -0.1963884 0.07163397 0.0043547438 0.17127165 -0.10896089
0.05456659 -0.20252223 -0.20268117 -0.027884373 0.1921669 -0.21179186 -0.13124606 0.057602167
0.04380019 -0.17871325 0.09358024 -0.060518704 -0.08230683 -0.13053055 -0.12872633 -0.17674677
-0.085194066 -0.24980643 -0.1377339 0.20828293 0.02661322 0.0026508886 0.085807905 -0.11361854
-0.110736035 0.31006104 -0.19299695 0.01327883 0.071732305 0.06659266 0.05351026 0.016403189
0.243804 -0.28131825 -0.15896872 -0.15211138 0.32028294 0.007863926 0.09419661 -0.03868365
0.18979503 0.06821053 0.07057989 -0.2980838 -0.083830826 -0.23879345 -0.19507734 0.042486727
-0.002289859 -0.036169916 0.180299 0.20268942 0.16548294 0.16795288 -0.30888867 -0.085696496
0.1048106 0.18876052 0.11493243 0.04113141 -0.2477928 -0.054046478 0.08681788 -0.006134528
0.059615366 0.011987729 0.08286972 -0.3021238 0.06923375 -0.06338266 0.09641632 -0.06284396
-0.15001222 0.027879136 -0.100908436 -0.11430245 0.152313 -0.02380209 0.120433696 -0.063478
-0.05794203 -0.17202203 0.23031592 0.15156859 -0.15419766 0.23953485 -0.11465301 -0.11151658
-0.06856816 0.19430453 0.01393151 -0.15340328 -0.08662441 -0.19190928 0.14996324 0.09089969
-0.088665225 -0.00082419073 0.015067227 0.1466119 0.05363612 -0.0050140023 0.023582304 0.111009486
00000000: e80f ba3e 1c44 a03d a634 aa3d 2f67 1e3e
00000010: f83f 1e3e c018 9abd 91f8 333d 518e 043e
00000020: e07d 023e dd02 7d3e 71a7 c9bd d5f5 523e
00000030: 6f7e 33be b3e9 593c 9752 873e 7985 ee3c
00000040: e930 3e3e e56e 1e3e 03f8 94be d531 5cbe
00000050: 3e1c a2bd 07ef 003e 8400 343e c5a6 783e
00000060: 4097 673e 74b1 583e df1c 63be cdad 88bd
00000070: 2a6b aebe 7adb e73d 1554 373e ccff 37be
00000080: fb83 633e 9463 143e d19d 433d 1241 123e
00000090: c1da 11be fa6c 243e 090e 51be 4df2 013e
000000a0: dbb5 95bd 341c c7bc e5ae 17be d325 91bd
000000b0: d4f0 f1bd 9545 fabd a00a dc3d 879b 39be
000000c0: 7a75 493d 1e7b b73b 38fe 0abb b58c 50be
000000d0: 4197 53bd 754e 1fbe 7974 a1bd e610 183e
000000e0: f9aa a4bd 9c0d 4cbe 1d5b 873d 0c20 233e
000000f0: e2c8 75bc dd00 633c c90c 43bd bb5e b2be
00000100: 0456 6abd 88fd 743c 5750 87bd 2f04 5f3e
00000110: b7b9 9dbd ba3d 783e 523e 19be 82ca 18be
00000120: 6420 02be 7dba 013e 780b 813e 0f22 583e
00000130: 45bf 79bd 0d57 0bbd a0ee ddbd c701 e53d
00000140: ccc7 873e 404e 19be e7c6 233d a0c8 223e
00000150: eb15 37be 0beb de3d 4e4e 243b 06a5 61be
00000160: 7d90 3c3e 3426 513e 85b1 9c3e 904a 3f3e
00000170: 4505 d13b 8323 763d 388e 153e 39dd 6b3d
00000180: 3723 7fbd faaf 3cbe 2009 413e 07af acbd
00000190: 3359 2dbd 5537 9cbe 1730 86bd 2daf a03e
000001a0: eb91 213e 83b3 65be b578 39be 2fbb 80be
000001b0: 6f33 78be 0f37 18bd 65d1 153e 5522 423e
000001c0: 1e2b 9bbd 2d44 21be dbf8 24be 072e 71bc
000001d0: 38e2 16be 7486 223c 59ad ff3d eeb1 923d
000001e0: 6b8c 7abe ead6 febd 9c96 0b3d ca5a 453e
000001f0: fec2 a83d 7c3f 99bd 48d5 f6bd f448 65bd
00000200: 7d88 cd3c 4c10 923d d0c0 833e c0a0 f8bd
00000210: 17da 48be 562f c23d 3488 d9bd b134 20be
00000220: 1ee8 463d 3db8 8bbe 9c02 e0be 4c5e 81be
00000230: 75cb 6c3e bcc9 2cbc a142 273e 8df6 15bd
00000240: c6a0 bebd 7437 083e f8d8 653e 0a1a 49be
00000250: d5b4 923d 3db2 8e3b d661 2f3e e326 dfbd
00000260: 3781 5f3d fd61 4fbe a78b 4fbe c56d e4bc
00000270: 66c7 443e f7df 58be 5e65 06be 40f0 6b3d
00000280: d467 333d 9b00 37be ffa6 bf3d 76e2 77bd
00000290: 7c90 a8bd cda9 05be d6d0 03be 1bfd 34be
000002a0: 3a7a aebd 42cd 7fbe 1e0a 0dbe 1f48 553e
000002b0: f803 da3c 88ba 2d3b 0ebc af3d d6b0 e8bd
000002c0: 93c9 e2bd 52c0 9e3e fea0 45be 738f 593c
000002d0: 63e8 923d bc61 883d 932d 5b3d fb5f 863c
000002e0: c1a7 793e f208 90be b2c8 22be 16c3 1bbe
000002f0: 20fc a33e b2d7 003c 27ea c03d bf72 1ebd
00000300: a159 423e f6b1 8b3d 308c 903d 719e 98be
00000310: 7faf abbd 4586 74be 5bc2 47be 9006 2e3d
00000320: 7611 16bb e826 14bd 4da0 383e d18d 4f3e
00000330: 5c74 293e d7fb 2b3e a826 9ebe a581 afbd
00000340: f1a6 d63d 704a 413e b261 eb3d 6979 283d
00000350: 65bd 7dbe d75f 5dbd 93cd b13d 2704 c9bb
00000360: 3e2f 743d 2e68 443c 9ab7 a93d f9af 9abe
00000370: 6dca 8d3d c5ce 81bd eb75 c53d 56b4 80bd
00000380: ce9c 19be c962 e43c 15a9 cebd 6717 eabd
00000390: f0f7 1b3e 9afc c2bc f1a5 f63d c100 82bd
000003a0: 9f54 6dbd 8b26 30be f0d7 6b3e cc34 1b3e
000003b0: fee5 1dbe a048 753e 33cf eabd ce62 e4bd
000003c0: 776d 8cbd c4f7 463e fd40 643c c015 1dbe
000003d0: 2368 b1bd de83 44be f78f 193e 9e29 ba3d
000003e0: 1d96 b5bd 810e 58ba 88dc 763c 6e21 163e
000003f0: 8cb1 5b3d 804c a4bb ad2f c13c f158 e33d

hiden_layers.0.bias f4 [64]
0.02141963 0.0059886673 -0.007976044 0.1143017 0.026329117 -0.00040613677 0.116060615 -0.09627779
-0.0017035404 0.05713056 -0.0040322933 -0.08583103 0.1407632 -0.15190542 0.019608475 -0.08096557
0.07831757 0.19236387 -0.18337227 0.11860291 0.15522556 -0.06790242 0.12596741 -0.086818144
0.13041563 -0.034711476 -0.12803411 0.17838833 -0.13960423 0.038842216 0.1669636 -0.16280347
-0.07972573 -0.07241687 -0.22357981 0.113391235 0.08415435 -0.22089058 -0.026680978 -0.063554704
0.07455783 0.24211164 0.0236737 0.14631547 -0.18831569 -0.031781327 -0.21200715 -0.13355815
-0.21162982 -0.15532692 -0.050029665 -0.082510404 -0.1056296 -0.0058361795 -0.18347687 -0.021799799
-0.1255935 -0.12369359 0.010676663 0.118885994 -0.002353251 -0.06614616 0.18192379 -0.061662465
00000000: 3878 af3c 953c c43b f4ad 02bc 0217 ea3d
00000010: 29b0 d73c c1ee d4b9 30b1 ed3d 4a2d c5bd
00000020: 5549 dfba bc01 6a3d 5421 84bb 2ec8 afbd
00000030: 3a24 103e 188d 1bbe f4a1 a03c 47d1 a5bd
00000040: f664 a03d 09fb 443e f1c5 3bbe 15e6 f23d
00000050: 73f3 1e3e 6d10 8bbd 9afd 003e b6cd b1bd
00000060: ad8b 053e 9f2d 0ebd 601b 03be 6eab 363e
00000070: 69f4 0ebe 0419 1f3d 82f8 2a3e f4b5 26be
00000080: 3e47 a3bd 4c4f 94bd 1bf2 64be aa39 e83d
00000090: 1e59 ac3d 2431 62be 1192 dabc f828 82bd
000000a0: c7b1 983d 1dec 773e 59ef c13c b9d3 153e
000000b0: d4d5 40be 232d 02bd 6718 59be 78c3 08be
000000c0: 7db5 58be 050e 1fbe e8eb 4cbd 37fb a8bd
000000d0: 5554 d8bd 6c3d bfbb 5ce1 3bbe 7e95 b2bc
000000e0: 959b 00be 1153 fdbd 2ced 2e3c 807a f33d
000000f0: 0039 1abb a377 87bd 3b4a 3a3e c891 7cbd

hiden_layers.1.weight f4 [64, 64]
-0.07994197 -0.17947328 0.18701266 0.16819254 0.15015322 0.30314368 -0.015756015 -0.08853227
-0.21749076 0.0077989176 0.059112966 -0.2602023 -0.045951005 -0.00857989 -0.1634202 0.02796683
0.026018865 0.0075656204 -0.1360921 0.026574645 0.2619361 0.0702962 0.22773552 0.04343753
-0.08188406 -0.18426962 0.056152582 -0.047205817 0.10716254 0.2409245 0.047607537 0.10509865
-0.10057232 -0.4714674 -0.10205343 -0.008450584 -0.2487972 0.028587572 -0.024251163 0.13817069
0.043684315 0.20140663 0.20121452 0.18590994 -0.15022011 -0.005402284 0.08960052 0.124659106
-0.07516279 -0.03850423 0.049082603 -0.016665881 0.04859161 -0.17436883 -0.17338976 0.15268715
-0.1660741 -0.22756356 0.06904026 -0.13498844 -0.15299152 0.3025125 0.32650504 -0.28709456
0.21111459 0.10512133 0.20289466 0.099473074 -0.12345866 -0.29641542 -0.027672566 -0.035606083
-0.18062687 0.005029648 0.150183 -0.15545984 -0.019517535 0.08939413 0.19267349 0.20234142
-0.05929994 -0.02433977 -0.013049851 0.026513305 -0.023299778 -0.14339453 0.022864444 0.13930266
0.051529087 0.08458455 -0.22582774 -0.1788474 0.09662824 0.05840775 0.037108786 0.19343635
0.08332766 -0.084268585 -0.14402868 -0.15474537 0.026592143 -0.14827265 0.28056565 0.17044374
0.3792284 -0.3555717 0.37473655 -0.14709644 -0.022916613 0.18187481 0.14427161 0.18462968
0.26227325 0.1506319 0.045992807 0.06843616 0.086270355 -0.0655174 0.030143725 0.06331873
-0.14857072 -0.0019170281 -0.22309186 -0.12198348 0.10283687 0.038971946 -0.40772015 0.3229833
0.12107644 -0.014078704 -0.14950842 0.05296544 -0.21871053 -0.14369185 -0.20746844 0.07448699
0.09087816 -0.16397358 -0.119575456 0.18468192 0.13382371 0.051099323 0.08974275 -0.005525822
0.028290855 0.20713216 -0.13468118 0.031948403 -0.1913586 0.12563436 0.05869041 -0.13203657
-0.11704145 0.16083732 0.028889233 -0.07941229 0.03847383 -0.15085974 -0.19780996 0.1853414
0.08200285 -0.29975802 -0.29473677 -0.23423696 0.104717806 0.024599042 0.33432057 -0.004735182
-0.16322128 -0.2297789 0.02638569 0.06606402 -0.33095342 -0.1890831 -0.043949388 -0.19783457
-0.12500586 0.07926455 -0.14946601 0.23730226 0.09923826 0.06427299 0.08886123 0.03054937
0.12015755 0.2935161 0.080623165 -0.10869385 -0.1185768 -0.23074107 -0.12946615 -0.014715432
0.24656 -0.00042369202 -0.2307076 -0.30209142 -0.18213612 0.1479529 -0.20022158 0.02814802
0.21054631 0.06850341 -0.12510861 -0.14674987 -0.118741564 0.21851408 0.037701435 0.17125355
-0.008702357 0.21262859 0.0018136831 0.016617965 -0.090986945 0.14025941 0.0760187 -0.08001688
-0.13012958 -0.062113516 -0.1840784 -0.14316468 0.18019699 -0.15455203 0.075681895 0.06467864
0.15663989 -0.10681751 -0.104885705 -0.025548963 0.033979654 0.10802668 0.04697718 -0.038318746
-0.14986674 0.061710145 -0.17462447 -0.25236055 0.38406512 -0.33710194 -0.010032361 0.35751247
-0.06023277 0.17226811 -0.06503969 -0.14102112 0.16089234 -0.100322396 0.30744252 0.12807426
0.20412794 -0.05450798 0.13396117 0.31088716 -0.06960429 -0.09252347 -0.17896283 -0.19768599
00000000: 9eb8 a3bd d8c7 37be 3f80 3f3e aa3a 2c3e
00000010: c4c1 193e a635 9b3e c212 81bc 6850 b5bd
00000020: e6b5 5ebe 108e ff3b 7020 723d 3c39 85be
00000030: 1f37 3cbd ab92 0cbc a057 27be b21a e53c
00000040: 8425 d53c 06e9 f73b ba5b 0bbe 12b3 d93c
00000050: 7d1c 863e 74f7 8f3d 8033 693e 8deb 313d
00000060: d4b2 a7bd 2db1 3cbe 4000 663d e35a 41bd
00000070: 0978 db3d eab4 763e 1f00 433d f63d d73d
00000080: dcf8 cdbd 2d64 f1be 6401 d1bd 5174 0abc
00000090: b1c4 7ebe 7c30 ea3c 60aa c6bc 9e7c 0d3e
000000a0: 53ee 323d 8a3d 4e3e 2e0b 4e3e 2d5f 3e3e
000000b0: 4dd3 19be a505 b1bb 7a80 b73d 464d ff3d
000000c0: f3ee 99bd 9db6 1dbd d70a 493d e386 88bc
000000d0: ff07 473d be8d 32be 168d 31be 055a 1c3e
000000e0: 540f 2abe 6c06 69be fb64 8d3d 693a 0abe
000000f0: cfa9 1cbe ebe2 9a3e ab2b a73e 0ffe 92be
00000100: 6c2e 583e da49 d73d 9ec3 4f3e 8ab8 cb3d
00000110: e5d7 fcbd c3c3 97be 94b1 e2bc afd7 11bd
00000120: 40f6 38be bfcf a43b 93c9 193e dd30 1fbe
00000130: 3de3 9fbc 4514 b73d 334c 453e 9732 4f3e
00000140: 7ee4 72bd 3364 c7bc 0bcf 55bc 6e32 d93c
00000150: 2ddf bebc 04d6 12be 374e bb3c 5ba5 0e3e
00000160: 2a10 533d aa3a ad3d 633f 67be c623 37be
00000170: 07e5 c53d f73c 6f3d 62ff 173d 2e14 463e
00000180: b1a7 aa3d 0295 acbd 417c 13be 9275 1ebe
00000190: c4d7 d93c c9d4 17be 4da6 8f3e ce88 2e3e
000001a0: 3a2a c23e 7e0d b6be 78dd bf3e 73a0 16be
000001b0: 9fbb bbbc 643d 3a3e f0bb 133e 900f 3d3e
000001c0: ae48 863e 403f 1a3e f462 3c3d 4228 8c3d
000001d0: 83ae b03d fd2d 86bd f9ef f63c 40ad 813d
000001e0: ec22 18be ca44 fbba 3172 64be 7ad2 f9bd
000001f0: 239c d23d 0ca1 1f3d b2c0 d0be 115e a53e
00000200: edf6 f73d 5daa 66bc bc18 19be 4af2 583d
00000210: a7f5 5fbe f523 13be 9b72 54be a38c 983d
00000220: 541e ba3d b1e8 27be fae3 f4bd 421d 3d3e
00000230: 1509 093e 864d 513d 0ccb b73d f411 b5bb
00000240: 39c2 e73c 741a 543e dde9 09be 54dc 023d
00000250: 82f3 43be 4ba6 003e 5b65 703d 9834 07be
00000260: 6eb3 efbd 8ab2 243e 1da9 ec3c e9a2 a2bd
00000270: bc96 1d3d fa7a 1abe b28e 4abe 23ca 3d3e
00000280: 1cf1 a73d e279 99be bde7 96be d0db 6fbe
00000290: 4a76 d63d ee83 c93c 112c ab3e 9629 9bbb
000002a0: 7b23 27be 294b 6bbe cd26 d83c 934c 873d
000002b0: ba72 a9be 009f 41be 4604 34bd 2595 4abe
000002c0: 8901 00be 7455 a23d 9e0d 19be 5dff 723e
000002d0: 6e3d cb3d 8fa1 833d e0fc b53d ac42 fa3c
000002e0: 2915 f63d be47 963e c21d a53d e29a debd
000002f0: 65d8 f2bd 6347 6cbe c692 04be ff18 71bc
00000300: 3a7a 7c3e fb22 deb9 9d3e 6cbe baab 9abe
00000310: e481 3abe f780 173e e306 4dbe ad96 e63c
00000320: 7499 573e 844b 8c3d 791c 00be 9945 16be
00000330: c72e f3bd 28c2 5f3e d26c 1a3d 175d 2f3e
00000340: 5594 0ebc 4fbb 593e 1bb9 ed3a 6622 883c
00000350: 5d57 babd 2aa0 0f3e b1af 9b3d e4df a3bd
00000360: b040 05be be6a 7ebd 0c7f 3cbe c399 12be
00000370: 8f85 383e e342 1ebe 1cff 9a3d 3c76 843d
00000380: 3566 203e 24c3 dabd 51ce d6bd 0f4c d1bc
00000390: 402e 0b3d 183d dd3d 256b 403d 1ef4 1cbd
000003a0: ab76 19be c7c3 7c3d c2d0 32be 6735 81be
000003b0: 2fa4 c43e a098 acbe c65e 24bc e00b b73e
000003c0: a3b6 76bd 0d67 303e 8733 85bd d767 10be
000003d0: f6c0 243e d475 cdbd 1b69 9d3e e625 033e
000003e0: ea06 513e c243 5fbd 1e2d 093e 9a2c 9f3e
000003f0: b28c 8ebd f27c bdbd 0842 37be 326e 4abe

hiden_layers.1.bias f4 [64]
0.049413193 -0.062253673 -0.1052023 -0.08432993 -0.012980368 0.07213024 0.20475158 -0.008934158
0.257034 -0.09149441 0.05098095 0.10119754 0.09378514 -0.029427556 0.03334224 0.023462377
-0.07035892 0.09221503 -0.12640627 0.099107586 -0.11053647 0.15449943 -0.15195012 0.13569514
-0.086489394 0.14626996 0.0661056 -0.0033054054 -0.045346536 0.15262833 0.06972602 0.105032414
-0.19644444 0.035718527 -0.10099551 0.07915158 0.13730836 -0.17206399 -0.009109834 -0.11298564
-0.045879625 0.008588747 0.056227017 -0.10273949 0.2596337 0.17272648 0.012599497 -0.15712711
0.032962076 0.123043984 0.13735649 -0.14415388 -0.032320734 0.116632044 0.044442575 0.010499628
-0.0395152 -0.15035568 -0.056720737 0.13779294 0.048266638 0.022175567 -0.064633645 -0.05078499
00000000: 7d65 4a3d b5fd 7ebd 4e74 d7bd 2cb5 acbd
00000010: 9cab 54bc 05b9 933d 66aa 513e 9360 12bc
00000020: f699 833e 6c61 bbbd 67d1 503d a840 cf3d
00000030: 6c12 c03d 0f12 f1bc df91 083d 2c34 c03c
00000040: 5618 90bd 3cdb bc3d a570 01be ebf8 ca3d
00000050: f260 e2bd 1935 1e3e d098 1bbe abf3 0a3e
00000060: 5a21 b1bd cbc7 153e 5f62 873d 809f 58bb
00000070: 4abd 39bd 9a4a 1c3e 84cc 8e3d 3c1b d73d
00000080: bb28 49be 974d 123d bcd6 cebd 391a a23d
00000090: 909a 0c3e 8b31 30be 6a41 15bc 0465 e7bd
000000a0: 46ec 3bbd d1b7 0c3c 4d4e 663d 1569 d2bd
000000b0: b5ee 843e 36df 303e 1f6e 4e3c eee5 20be
000000c0: 3e03 073d 7cfe fb3d 2ea7 0c3e 139d 13be
000000d0: bf62 04bd c8dc ee3d 6b09 363d a206 2c3c
000000e0: b1da 21bd d7f6 19be 0154 68bd 9819 0d3e
000000f0: 3db3 453d 89a9 b53c a55e 84bd ec03 50bd

hiden_layers.2.weight f4 [64, 64]
-0.07643034 0.0903893 -0.14775276 0.08798014 -0.039395373 -0.2336929 -0.1077913 -0.13184638
-0.13075435 0.23357616 -0.076454796 0.10993916 0.20346022 0.10185799 0.058252078 0.04035907
0.25219968 0.06618595 -0.008009972 0.013765961 0.014829485 -0.16073634 0.04368934 -0.12551361
-0.21191281 -0.1517205 0.06611695 -0.18931489 0.053331733 -0.12073704 -0.345364 -0.0964891
-0.005837065 0.055816945 0.13970664 -0.10243256 -0.23204319 -0.016426662 -0.1633456 0.061568286
-0.20788538 0.13255861 0.12865631 -0.27089992 0.032880373 0.28208154 -0.16642526 0.021765234
-0.10344586 -0.077372044 -0.14512613 0.05819786 0.20816801 -0.055596836 -0.12637068 -0.20208572
0.21797517 -0.112512104 0.07457957 -0.39170405 -0.2149629 0.1695663 -0.20065491 0.15935391
-0.035520133 -0.20867135 -0.073242426 -0.058053523 -0.09298689 -0.18727322 -0.096432425 -0.16882065
-0.20380424 0.15466256 -0.11869341 -0.18428573 -0.051667083 0.31402537 0.3298571 -0.09067822
-0.3154695 0.13532309 0.06269466 -0.1475041 0.005325561 0.020415459 -0.0119157 -0.08078542
0.13077766 -0.26522067 -0.07626834 0.06492421 0.571773 0.07623997 0.18583518 -0.17971611
0.14585729 -0.077379346 0.23383753 0.036322147 -0.022096062 -0.15400784 0.29141694 -0.3524329
-0.046963394 -0.058730766 0.04832424 -0.18565534 0.052035134 -0.07362034 -0.11394856 -0.28758618
0.0992636 -0.08879331 -0.046036266 -0.045130204 0.12477903 -0.104426034 0.29227665 0.30136815
0.11915433 0.2678436 0.2578726 0.20834628 -0.004859084 -0.11513846 0.13100505 -0.12397204
-0.23360486 -0.1967745 0.17508171 0.15941297 0.19299056 0.31341112 0.031120095 0.022145133
0.41073662 0.103662185 0.057157613 -0.1680383 0.09813679 0.018287087 -0.32638887 -0.19317119
-0.46181834 0.032859646 -0.17060736 0.27994093 0.014534467 -0.04767492 -0.11190771 0.11654924
0.23010014 0.008234991 0.2401209 0.14971985 -0.16440538 -0.06547526 0.34167084 0.13318488
-0.2008963 0.043294877 -0.09862081 0.22008245 -0.06065004 -0.37539518 0.6031178 0.002444406
0.12959145 -0.39849234 -0.009502913 0.15906538 0.061821304 -0.05357849 0.13684385 0.041310553
-0.055742815 -0.08786435 0.07075525 0.008805896 -0.26819694 0.0952353 0.010659109 -0.31666726
-0.23409729 0.026944058 0.19901314 0.028264273 0.14853255 -0.04022208 -0.035145503 -0.2379025
-0.30134684 0.24437241 0.09025619 0.14871255 0.06333062 0.43255645 -0.29689676 0.18349487
-0.09752218 -0.2968956 0.15817706 0.04995072 0.17896828 -0.09384059 -0.543391 -0.013553805
-0.1893924 0.09108704 0.009067494 0.11444264 -0.056966808 0.0057900734 0.009653888 0.052027494
0.14958969 -0.11083331 0.061710734 0.21614689 -0.5300629 -0.15982027 -0.13669139 0.026189692
-0.023878908 0.013734651 -0.11065176 0.09818259 0.14940466 0.064642094 -0.13106076 0.11906665
-0.15628196 -0.24009651 -0.10594989 0.15943088 0.19157057 -0.117592484 0.4161961 0.012929926
-0.06859853 0.078366965 0.012754466 -0.010663588 -0.06577119 -0.22836398 0.18500535 -0.40227634
-0.23445551 0.28392252 -0.2834527 0.14535525 0.18759602 0.19970387 0.002349966 0.1429805
00000000: 8387 9cbd 061e b93d 804c 17be ee2e b43d
00000010: 0b5d 21bd 314d 6fbe afc1 dcbd bd02 07be
00000020: 78e4 05be 972e 6f3e 5594 9cbd c827 e13d
00000030: e057 503e ec9a d03d bb99 6e3d 8d4f 253d
00000040: 5120 813e 808c 873d 423c 03bc a08a 613c
00000050: 5ef7 723c 1198 24be 98f3 323d a486 00be
00000060: acff 58be 9e5c 1bbe 5368 873d c3db 41be
00000070: 6072 5a3d fb44 f7bd 8dd3 b0be 149c c5bd
00000080: da44 bfbb 4fa0 643d 420f 0f3e 29c8 d1bd
00000090: bb9c 6dbe 3591 86bc 1244 27be 072f 7c3d
000000a0: e8df 54be 72bd 073e 7bbe 033e 65b3 8abe
000000b0: 92ad 063d fe6c 903e 626b 2abe 014d b23c
000000c0: 6cdb d3bd 3c75 9ebd f29b 14be e160 6e3d
000000d0: ff29 553e 82b9 63bd 5167 01be 8fef 4ebe
000000e0: e234 5f3e bf6c e6bd 2cbd 983d 6f8d c8be
000000f0: 3c1f 5cbe caa2 2d3e 7b78 4dbe ac2d 233e
00000100: 8f7d 11bd f1ad 55be 2000 96bd 88c9 6dbd
00000110: e96f bebd 8dc4 3fbe 5d7e c5bd 52df 2cbe
00000120: 0fb2 50be dd5f 1e3e 8815 f3bd 66b5 3cbe
00000130: dda0 53bd efc7 a03e 08e3 a83e 81b5 b9bd
00000140: 3885 a1be 2392 0a3e 0f66 803d 510b 17be
00000150: 0b82 ae3b 523e a73c 113a 43bc d472 a5bd
00000160: 94ea 053e 01cb 87be 9332 9cbd fcf6 843d
00000170: b75f 123f b423 9c3d 944b 3e3e 8007 38be
00000180: 9d5b 153e 1079 9ebd 1b73 6f3e 88c6 143d
00000190: cd02 b5bc 3bb4 1dbe 9a34 953e 1672 b4be
000001a0: b05c 40bd ac8f 70bd a3ef 453d 6f1c 3ebe
000001b0: cb22 553d 43c6 96bd dd5d e9bd 7f3e 93be
000001c0: b74a cb3d 44d9 b5bd 8690 3cbd 73da 38bd
000001d0: 268c ff3d 51dd d5bd 49a5 953e ed4c 9a3e
000001e0: 2f07 f43d cc22 893e e107 843e ba58 553e
000001f0: f338 9fbb b7cd ebbd 3026 063e 0ee5 fdbd
00000200: 1d36 6fbe 417f 49be 9f48 333e 273d 233e
00000210: 519f 453e 6c77 a03e 92ef fe3c b669 b53c
00000220: 124c d23e d74c d43d 1a1e 6a3d 3b12 2cbe
00000230: f1fb c83d cdce 953c 711c a7be abce 45be
00000240: 7473 ecbe d697 063d b2b3 2ebe 6b54 8f3e
00000250: f921 6e3c c746 43bd df2f e5bd 5eb1 ee3d
00000260: 5f9f 6b3e 0eec 063c 41e2 753e 2950 193e
00000270: e259 28be e517 86bd 7bef ae3e 9e61 083e
00000280: c2b7 4dbe f855 313d b5f9 c9bd 4b5d 613e
00000290: 2d6c 78bd cc33 c0be ee65 1a3f 5432 203b
000002a0: 9fb3 043e 3007 ccbe 1bb2 1bbc 09e2 223e
000002b0: 5638 7d3d 1e75 5bbd cb20 0c3e 4135 293d
000002c0: 9452 64bd 39f2 b3bd 21e8 903d 9b46 103c
000002d0: 1c51 89be ba0a c33d 8ba3 2e3c 3622 a2be
000002e0: 33b7 6fbe c9b9 dc3c 1aca 4b3e 7a8a e73c
000002f0: eb18 183e e8bf 24bd bbf4 0fbd b79c 73be
00000300: 224a 9abe c33c 7a3e 3dd8 b83d 1a48 183e
00000310: 7cb3 813d 0a78 dd3e da02 98be 14e6 3b3e
00000320: b5b9 c7bd b302 98be 2bf9 213e 2099 4c3d
00000330: 7643 373e 7f2f c0bd ac1b 0bbf c710 5ebc
00000340: 15f0 41be d88b ba3d d48f 143c e760 ea3d
00000350: 0756 69bd a8ba bd3b 572b 1e3c c81a 553d
00000360: 0a2e 193e 93fc e2bd 65c4 7c3d 9c55 5d3e
00000370: 34b2 07bf eda7 23be d4f8 0bbe c48b d63c
00000380: b39d c3bc 4d07 613c 649d e2bd f413 c93d
00000390: 89fd 183e 1363 843d cb34 06be 37d9 f33d
000003a0: 6108 20be dcdb 75be 42fc d8bd d941 233e
000003b0: 132b 443e 54d4 f0bd a817 d53e 0ad8 533c
000003c0: 637d 8cbd dc7e a03d 1cf8 503c 54b6 2ebc
000003d0: 0cb3 86bd 3fd8 69be 0b72 3d3e 2af7 cdbe
000003e0: 1b15 70be 4b5e 913e b620 91be 02d8 143e
000003f0: 2c19 403e 2c7f 4c3e e301 1a3b 7b69 123e

hiden_layers.2.bias f4 [64]
0.013162216 -0.047377504 0.07048611 0.00046824283 0.29985908 0.07007653 -0.031148855 0.008865568
0.12542169 0.09226708 -0.015938193 0.21064162 -0.123004526 0.029494407 -0.14686038 -0.07017634
-0.0076883766 -0.086812265 0.012455512 -0.012763936 0.09180293 -0.109004766 0.03764688 0.02077007
-0.005033931 0.038529985 -0.09132489 -0.06852363 -0.18102033 0.005005727 0.021472136 -0.06296632
0.040124472 0.082193404 0.03303002 0.11198837 -0.028709041 -0.059219714 -0.079050146 0.027744228
-0.0010225679 -0.02868309 0.019965839 0.034637585 -0.00510849 0.03132175 0.06271631 0.041058026
0.105173506 -0.16866621 0.050869994 -0.038847797 0.10200131 -0.16859493 -0.038330246 -0.014274284
0.041467514 -0.05351329 0.12032304 -0.0029027988 0.07728779 -0.07432251 -0.034025207 -0.051530726
00000000: 56a6 573c ea0e 42bd 065b 903d 7d7e f539
00000010: 2187 993e 4984 8f3d e22b ffbc e340 113c
00000020: 8b6e 003e 86f6 bc3d d090 82bc 70b2 573e
00000030: cce9 fbbd 419e f13c 9162 16be 9db8 8fbd
00000040: c7ee fbbb a1ca b1bd 3412 4c3c d41f 51bc
00000050: 2d03 bc3d e43d dfbd 9d33 1a3d fe25 aa3c
00000060: adf3 a4bb 9ed1 1d3d 8b08 bbbd 1e56 8cbd
00000070: 655d 39be 1507 a43b 55e6 af3c 7cf4 80bd
00000080: 8f59 243d 0455 a83d 7c4a 073d 295a e53d
00000090: 392f ebbc 5f90 72bd 0be5 a1bd dd47 e33c
000000a0: af07 86ba cdf8 eabc 668f a33c 24e0 0d3d
000000b0: 1f65 a7bb 3c4b 003d 6971 803d 762c 283d
000000c0: 3565 d73d d6b6 2cbe 0e5d 503d de1e 1fbd
000000d0: 10e6 d03d 26a4 2cbe 2d00 1dbd b0de 69bc
000000e0: d7d9 293d c030 5bbd ed6b f63d e23c 3ebb
000000f0: 1049 9e3d 6636 98bd 045e 0bbd e211 53bd

hiden_layers.3.weight f4 [64, 64]
0.10946679 -0.37401456 -0.038792256 -0.009905274 -0.030189771 0.13399698 -0.04852507 0.05077381
0.1585606 -0.062241133 -0.07162372 0.2256791 0.21211372 0.18758412 -0.38336083 0.067832
0.15456821 -0.03322184 0.10023434 -0.28773478 0.0050444165 0.11698896 0.025369827 0.19841897
-0.05717731 -0.1261662 -0.24100526 -0.11812706 0.13237628 0.106324494 0.10985019 0.08218856
-0.13230231 0.13475323 0.17864552 0.11878153 0.22619176 -0.006260352 0.594276 0.030728456
0.24373697 -0.09585132 0.27377996 0.039880734 -0.15313384 -0.115813494 0.11237154 0.025170207
0.10732198 -0.13444826 -0.13990211 -0.053487938 0.1458601 0.036940746 -0.24928202 -0.13165532
-0.1861964 0.058852017 -0.082418434 0.13123813 0.35979548 0.0454665 -0.2654509 -0.011356398
0.051777385 -0.06505254 -0.15543771 -0.04313294 -0.039682 0.027757434 0.054896355 -0.15319817
0.01371863 0.074174024 0.032866884 0.23409975 -0.19464822 -0.19277896 -0.035272032 -0.076026246
-0.17720214 -0.125908 -0.12227141 0.08541325 0.13812882 0.11213462 -0.13331836 0.078345336
0.0030879 0.1778421 -0.17361902 -0.09345543 -0.072570115 -0.06387171 0.1822093 -0.06590098
0.0352167 0.013839269 0.12423927 0.041122377 0.13692658 -0.20343448 0.055259638 0.23168537
0.18873616 0.11390324 -0.030663684 0.05343114 -0.22354299 0.13465804 -0.16743705 0.043093283
0.090313256 -0.057577386 0.124708064 0.20802316 0.29082218 0.18915394 -0.17906016 -0.11537234
-0.017709883 -0.057993766 0.09704019 0.24234985 -0.19213891 0.011659582 0.03990264 -0.071912654
-0.016036794 -0.18867892 0.20688333 0.19293793 0.11301609 0.054117132 0.049867604 -0.081490465
-0.26343507 0.028382765 0.063583255 0.19918887 -0.30947885 0.17749119 -0.008190047 0.3172155
-0.16245462 0.17063402 0.002676142 -0.16796724 -0.113906726 0.15165082 0.2607614 -0.24223566
-0.22490788 -0.07367036 0.013715354 0.39558288 -0.10582196 -0.08009494 0.005203881 -0.022948345
-0.18153952 -0.0621023 -0.09590767 0.023767518 -0.05938483 0.05652488 -0.2145652 -0.20922856
0.26683578 -0.0075159133 0.020278059 -0.08572802 0.11799886 0.010708156 -0.22994423 0.42184508
0.09307438 -0.10634616 0.14878686 -0.06611698 -0.15926644 -0.073684074 -0.058961708 0.26194566
-0.1675728 -0.021258298 -0.065249294 -0.084283665 -0.050959248 -0.1487632 0.0127681475 -0.030871017
0.0689894 -0.018935997 0.103755556 -0.17237012 0.04057842 0.013966482 -0.024323987 -0.228572
0.034362003 0.20193583 -0.10155162 0.021427318 0.32214552 0.057116132 0.20266831 0.10098545
-0.042041197 0.29031676 -0.10741058 0.0022024638 -0.09742647 -0.05610283 -0.29597217 0.22647591
-0.23583068 0.31363264 0.16252431 0.06412383 -0.13255084 0.07848374 0.01674322 0.1452332
-0.14729133 0.062171794 0.23486106 -0.25004482 0.31758997 -0.033890706 -0.32692486 0.027763894
-0.18384287 0.19154283 0.010660596 -0.10870543 0.14341861 0.35955387 -0.24950051 0.009149126
0.04564822 0.40337515 -0.037693128 0.21945587 -0.027185543 0.06757483 -0.032065317 -0.099924654
0.052715555 0.12960123 0.16650675 -0.12741584 -0.3278105 0.11708954 -0.020808294 0.18039954
00000000: 2030 e03d d67e bfbe a1e4 1ebd bb49 22bc
00000010: 8a50 f7bc 8136 093e 39c2 46bd 33f8 4f3d
00000020: b65d 223e 8ff0 7ebd 75af 92bd 6c18 673e
00000030: 5734 593e 0d16 403e df47 c4be 81eb 8a3d
00000040: 2147 1e3e a013 08bd a947 cd3d f951 93be
00000050: a24b a53b e897 ef3d 62d4 cf3c 582e 4b3e
00000060: c132 6abd b631 01be 15ca 76be 9aec f1bd
00000070: a68d 073e a8c0 d93d 23f9 e03d 7a52 a83d
00000080: 427a 07be c0fc 093e daee 363e bb43 f33d
00000090: d09e 673e a423 cdbb 7922 183f 3eba fb3c
000000a0: 2f96 793e b24d c4bd e32c 8c3e fb59 233d
000000b0: 1ecf 1cbe a02f edbd 0d23 e63d c031 ce3c
000000c0: a0cb db3d ceac 09be 8042 0fbe 2b16 5bbd
000000d0: 5a5c 153e 2e4f 173d c943 7fbe a7d0 06be
000000e0: 45aa 3ebe d00e 713d ffca a8bd 4a63 063e
000000f0: 1d37 b83e 153b 3a3d 2ee9 87be 3010 3abc
00000100: 8614 543d 443a 85bd 102b 1fbe 2aac 30bd
00000110: 9889 22bd 8f63 e33c 00db 603d fbdf 1cbe
00000120: 1bc4 603c 8de8 973d 6d9f 063d d8b7 6f3e
00000130: dd51 47be d967 45be 6879 10bd a6b3 9bbd
00000140: 7a74 35be 07ee 00be 6f69 fabd 24ed ae3d
00000150: a471 0d3e d6a6 e53d 9c84 08be 8573 a03d
00000160: 5e5e 4a3b 3d1c 363e 2fc9 31be 8f65 bfbd
00000170: a49f 94bd 2ccf 82bd 1395 3a3e 18f7 86bd
00000180: 633f 103d 1abe 623c 2971 fe3d f06f 283d
00000190: 7b36 0c3e 2151 50be ee57 623d ee3e 6d3e
000001a0: 0d44 413e 1a46 e93d 6832 fbbc 9cda 5a3d
000001b0: 74e8 64be cce3 093e 9e74 2bbe 9582 303d
000001c0: 28f6 b83d 44d6 6bbd f166 ff3d 0604 553e
000001d0: a5e6 943e 92b1 413e 8c5b 37be 5548 ecbd
000001e0: 5114 91bc df8a 6dbd 02bd c63d 8f2a 783e
000001f0: 10c0 44be d507 3f3c f370 233d f146 93bd
00000200: 985f 83bc 0c35 41be 39d9 533e 8591 453e
00000210: fb74 e73d eda9 5d3d f941 4c3d 79e4 a6bd
00000220: f6e0 86be f982 e83c f037 823d 2bf8 4b3e
00000230: 0374 9ebe 40c0 353e 8c2f 06bc 126a a23e
00000240: 815a 26be afba 2e3e 3662 2f3b 9bff 2bbe
00000250: ee47 e9bd 5a4a 1b3e 8582 853e a00c 78be
00000260: 404e 66be 7ce0 96bd 5db6 603c d789 ca3e
00000270: 2fb9 d8bd d108 a4bd 5185 aa3b 2bfe bbbc
00000280: 7fe5 39be fb5e 7ebd 3e6b c4bd 19b4 c23c
00000290: 823d 73bd a286 673d fbb6 5bbe 0340 56be
000002a0: b39e 883e 0d48 f6bb 2c1e a63c 2c92 afbd
000002b0: 63a9 f13d 4371 2f3c 8076 6bbe 14fc d73e
000002c0: c89d be3d 04cc d9bd 955b 183e 5768 87bd
000002d0: be16 23be ade7 96bd d581 71bd be1d 863e
000002e0: 3498 2bbe e225 aebc 6ca1 85bd ea9c acbd
000002f0: a5ba 50bd 6155 18be 7e31 513c 37e5 fcbc
00000300: 514a 8d3d aa1f 9bbc cb7d d43d cb81 30be
00000310: 8f35 263d acd3 643c 1943 c7bc c70e 6abe
00000320: 2cbf 0c3d 44c8 4e3e 4cfa cfbd 5888 af3c
00000330: 42f0 a43e 9bf2 693d 4888 4f3e 76d1 ce3d
00000340: 6433 2cbd 66a4 943e 14fa dbbd 3657 103b
00000350: 8787 c7bd 15cc 65bd aa89 97be 4de9 673e
00000360: 997d 71be 7594 a03e c66c 263e 5b53 833d
00000370: 68bb 07be 15bc a03d 1429 893c 03b8 143e
00000380: 8ad3 16be daa7 7e3d 6b7f 703e e005 80be
00000390: 279b a23e fbd0 0abd b262 a7be 1b71 e33c
000003a0: 4e41 3cbe ce23 443e c8a9 2e3c f4a0 debd
000003b0: 54dc 123e 7217 b83e 107d 7fbe 37e6 153c
000003c0: a1f9 3a3d 3087 ce3e 1c64 1abd 0ab9 603e
000003d0: 37b4 debc ac64 8a3d ec56 03bd 4ca5 ccbd
000003e0: 44ec 573d 2fb6 043e bf80 2a3e 4c79 02be
000003f0: c7d6 a7be a4cc ef3d 2876 aabc a8ba 383e

hiden_layers.3.bias f4 [64]
0.18728423 0.06589171 -0.039957624 -0.006106455 -0.104614034 0.23573667 -0.17528641 -0.05782507
0.027322028 0.17122607 0.009392012 0.047760546 -0.06929675 -0.07881041 0.029352657 0.059209928
-0.0812653 0.037081134 0.06974243 -0.06971824 0.060559697 0.0023347433 0.05723822 -0.23426567
0.02717786 -0.055204906 0.1148252 -0.0117732845 0.06831759 0.08800842 0.0023540473 0.0050250767
0.013532685 -0.020639597 -0.102205634 0.09385869 0.12548976 0.0018693171 -0.15212183 -0.06298321
-0.013134753 0.017409015 -0.11560256 0.22879638 -0.06300479 0.006478636 0.024149058 -0.10446268
0.0824005 0.054795384 0.10795158 -0.06886065 0.29732493 0.041621525 -0.018735643 -0.0068580816
-0.15996781 -0.05280803 -0.06381494 -0.0014457642 0.13664524 0.10849285 0.07534718 0.033354312
00000000: 70c7 3f3e 3cf2 863d 9baa 23bd a818 c8bb
00000010: e23f d6bd f464 713e 487e 33be fbd9 6cbd
00000020: 72d2 df3c e355 2f3e f4e0 193c 90a0 433d
00000030: 74eb 8dbd 5a67 a1bd fc74 f03c 1c86 723d
00000040: 6c6e a6bd 63e2 173d 1ed5 8e3d 70c8 8ebd
00000050: 720d 783d 7e02 193b a072 6a3d 57e3 6fbe
00000060: 1aa4 de3c 8a1e 62bd 7929 eb3d bce4 40bc
00000070: 18ea 8b3d c23d b43d 5c46 1a3b 66a9 a43b
00000080: 32b8 5d3c 5f14 a9bc 3051 d1bd fc38 c03d
00000090: 6380 003e e003 f53a d3c5 1bbe 57fd 80bd
000000a0: 2633 57bc 5a9d 8e3c 09c1 ecbd 9949 6a3e
000000b0: a808 81bd bd4a d43b 3fd4 c53c 88f0 d5bd
000000c0: 98c1 a83d 2071 603d b815 dd3d d006 8dbd
000000d0: f93a 983e 557b 2a3d 7e7b 99bc c2b9 e0bb
000000e0: 9ace 23be 3c4d 58bd 68b1 82bd cc7f bdba
000000f0: bbec 0b3e 8031 de3d 9f4f 9a3d 889e 083d

hiden_layers.4.weight f4 [64, 64]
-0.11714402 0.2390545 -0.2838805 0.0034721193 -0.15507998 -0.29548198 -0.034075208 -0.076989636
0.0032284732 0.057207916 0.02002885 0.20859285 0.12575819 0.21140198 -0.024407083 0.050435882
0.00177809 0.0122906715 0.07664293 0.093755245 -0.2166234 -0.17096353 0.08222285 -0.16022779
-0.016650172 -0.3437087 -0.05218711 0.03302492 0.053775415 0.14263196 -0.087128974 -0.113154985
-0.10634882 -0.036159866 -0.29645535 -0.12705119 -0.0057915305 -0.0866811 0.40349475 0.17781083
-0.20547682 -0.08642852 0.115981445 0.11591369 -0.12272202 0.043686178 0.22629313 0.04368921
0.030111238 -0.34392747 -0.42383823 0.022426398 0.005104864 0.13674085 0.004116161 0.20392835
-0.0903873 0.20974672 -0.2566577 -0.032240316 0.18386357 -0.10343319 -0.020644762 0.06855253
-0.089369275 -0.20398253 -0.015751638 0.013597076 -0.056096703 -0.32568675 0.04459967 -0.0067409226
-0.017956616 0.0014965985 -0.09627825 0.07066411 -0.083674036 0.3669386 -0.23278327 0.024478836
-0.01894484 0.03938641 0.34639013 -0.29004776 0.18919097 -0.018628154 -0.010973809 0.19316424
-0.18922022 0.13245502 -0.18054174 0.1844347 -0.053536538 -0.1708639 -0.0032816832 0.12521529
-0.14840595 0.0826996 0.045372747 -0.05085498 0.24175994 -0.27894837 0.29118514 -0.13970697
0.09099007 -0.0068565193 0.07522805 -0.15482949 0.20508218 -0.23684308 0.0582004 -0.034411985
-0.08539506 -0.1956317 0.10886848 0.03730332 0.48877025 -0.1507506 -0.043938663 -0.12762329
0.16403776 -0.054524194 0.044273745 0.15300915 -0.04760162 0.28637093 -0.22315978 -0.36156556
0.06599582 0.007921304 -0.03516467 0.101633765 -0.113263115 0.029069578 -0.07792083 0.20959349
-0.09627261 0.036243875 0.121013366 0.043506414 -0.095822886 0.08494957 0.04800585 0.18436207
-0.00063128024 -0.087042466 -0.12070876 -0.07264149 0.24735439 -0.1768654 -0.23110136 0.11087762
-0.007962899 -0.016249988 -0.024422674 0.121849634 0.004246693 -0.18098089 -0.07101572 0.023368243
-0.15324244 0.2315958 -0.03326132 0.035226345 -0.21577166 -0.17753394 0.28323025 0.058829777
-0.102228634 -0.110303186 0.05220864 0.14473335 0.27497885 -0.017311933 -0.22349901 -0.17119958
0.09001421 0.2883228 0.31127474 -0.08996725 -0.1572351 0.12296832 -0.14779034 0.04674521
0.13918085 -0.16575195 -0.18462384 -0.24343817 0.15661207 0.13645679 -0.00042805835 -0.041951768
-0.093664125 -0.21976416 0.016761089 0.22910933 -0.13415772 0.1162236 -0.14443472 -0.16434436
0.016738616 -0.09535465 -0.29885042 0.35004526 -0.029212408 -0.018909395 -0.120080926 -0.11726809
0.2565931 -0.026214004 0.09934509 -0.055642307 0.0019416151 0.01441935 0.010214672 -0.17825137
0.16752286 0.19976828 -0.08694826 0.07963832 -0.047253888 -0.030803738 -0.09441901 -0.19898412
-0.14776886 0.0958181 -0.1724663 -0.16279246 0.07292957 0.019636469 -0.17024934 0.073822774
0.0038876566 -0.15897687 0.3230507 0.114937626 -0.08145471 -0.20338795 -0.06707268 0.28059405
0.2761947 -0.026064748 -0.19483793 -0.2757044 0.09636603 -0.02654654 -0.13017496 -0.08265192
0.12097334 -0.0045659533 -0.045500714 -0.09203981 0.21492273 0.11287897 -0.24842806 0.100342
00000000: 34e9 efbd b4ca 743e c958 91be 7f8c 633b
00000010: 49cd 1ebe 6a49 97be 7292 0bbd beac 9dbd
00000020: cb94 533b d952 6a3d 8b13 a43c 5d99 553e
00000030: c1c6 003e c379 583e 5df1 c7bc db95 4e3d
00000040: cd0e e93a d05e 493c f8f6 9c3d c002 c03d
00000050: 86d2 5dbe 1011 2fbe 7464 a83d c112 24be
00000060: f165 88bc 96fa afbe 27c2 55bd 2345 073d
00000070: 9c43 5c3d 1d0e 123e ad70 b2bd cdbd e7bd
00000080: 69cd d9bd 5e1c 14bd ffc8 97be b519 02be
00000090: e1c6 bdbb dc85 b1bd dd96 ce3e 0b14 363e
000000a0: 8468 52be 7001 b1bd ae87 ed3d 2864 ed3d
000000b0: af55 fbbd 47f0 323d 63b9 673e 75f3 323d
000000c0: d8ab f63c 4317 b0be 5301 d9be 91b7 b73c
000000d0: b446 a73b cb05 0c3e dce0 863b 98d2 503e
000000e0: fa1c b9bd d8c7 563e a368 83be 6c0e 04bd
000000f0: bb46 3c3e c8d4 d3bd 341f a9bc 4565 8c3d
00000100: 3d07 b7bd cce0 50be 9409 81bc 45c6 5e3c
00000110: a8c5 65bd 6ac0 a6be 25ae 363d f5e2 dcbb
00000120: c119 93bc 8329 c43a 882d c5bd 58b8 903d
00000130: 4b5d abbd 60df bb3e bd5e 6ebe d787 c83c
00000140: 3632 9bbc a553 213d 0c5a b13e 2481 94be
00000150: 47bb 413e 129a 98bc 7ecb 33bc d9cc 453e
00000160: f2c2 41be 4aa2 073e efdf 38be 73dc 3c3e
00000170: 2149 5bbd f2f6 2ebe 8211 57bb 7038 003e
00000180: bbf7 17be 685e a93d c6d8 393d 504d 50bd
00000190: eb8f 773e 52d2 8ebe 3816 953e 580f 0fbe
000001a0: 0059 ba3d a7ac e0bb 2a11 9a3d 9f8b 1ebe
000001b0: 1001 523e fe86 72be 8b63 6e3d 95f3 0cbd
000001c0: 9be3 aebd ad53 48be 70f6 de3d 5ecb 183d
000001d0: 1840 fa3e 5e5e 1abe 07f9 33bd aeaf 02be
000001e0: 84f9 273e c354 5fbd 6358 353d 6eae 1c3e
000001f0: ebf9 42bd 369f 923e ff83 64be 1f1f b9be
00000200: d128 873d 5bc8 013c d408 10bd 5d25 d03d
00000210: 7ef6 e7bd 5323 ee3c f594 9fbd ad9f 563e
00000220: 932a c5bd 7574 143d dbd5 f73d c833 323d
00000230: ca3e c4bd 0afa ad3d c8a1 443d 69c9 3c3e
00000240: 807c 25ba 5243 b2bd 2836 f7bd 10c5 94bd
00000250: 784a 7d3e 341c 35be d6a5 6cbe ce13 e33d
00000260: d276 02bc b21e 85bc 0f12 c8bc 4d8c f93d
00000270: d827 8b3b 0e53 39be b170 91bd c26e bf3c
00000280: 96eb 1cbe 7327 6d3e 063d 08bd 8049 103d
00000290: 3ff3 5cbe 75cb 35be 8e03 913e 7ef7 703d
000002a0: 3f5d d1bd a3e6 e1bd bad8 553d fb34 143e
000002b0: 07ca 8c3e c1d1 8dbc eddc 64be f14e 2fbe
000002c0: 5f59 b83d 0c9f 933e 675f 9f3e c040 b8bd
000002d0: 3d02 21be d1d6 fb3d 5a56 17be e877 3f3d
000002e0: 6d85 0e3e e1ba 29be 080e 3dbe db47 79be
000002f0: ea5e 203e 54bb 0b3e 056d e0b9 9ed5 2bbd
00000300: fad2 bfbd db09 61be 8d4e 893c a39b 6a3e
00000310: a460 09be a406 ee3d b2e6 13be e349 28be
00000320: 6c1f 893c 4c49 c3bd ec02 99be 2239 b33e
00000330: dc4e efbc e0e7 9abc fdec f5bd 412a f0bd
00000340: 2c60 833e c0be d6bc 7075 cb3d 30e9 63bd
00000350: cb7d fe3a 233f 6c3c 715b 273c 8787 36be
00000360: 1d8b 2b3e 0e90 4c3e ee11 b2bd 6a19 a33d
00000370: 4b8d 41bd 1f58 fcbc c15e c1bd 7ec2 4bbe
00000380: b850 17be 483c c43d 019b 30be 11b3 26be
00000390: 195c 953d a9dc a03c d855 2ebe 6530 973d
000003a0: 0ec8 7e3b d5ca 22be e766 a53e 6b64 eb3d
000003b0: bad1 a6bd ee44 50be 675d 89bd 06aa 8f3e
000003c0: 6469 8d3e bd85 d5bc 9883 47be 2129 8dbe
000003d0: 8e5b c53d 2178 d9bc 964c 05be 6945 a9bd
000003e0: dfc0 f73d fe9d 95bb f55e 3abd 5e7f bcbd
000003f0: b414 5c3e 172d e73d ed63 7ebe 1b80 cd3d

hiden_layers.4.bias f4 [64]
0.0267546 -0.094198115 0.013276546 -0.07761753 0.11429531 0.07366337 0.0699139 -0.034104798
-0.055153407 0.14664738 -0.01378091 -0.011802871 0.05060434 -0.09960257 0.08679647 -0.081507415
-0.09483068 -0.0021212534 0.012284575 -0.38546395 0.02540527 -0.03677036 -0.12523878 0.013750552
-0.12233926 0.045384113 0.059635352 -0.05016541 -0.039033584 -0.14802381 0.049627643 0.0767874
0.26564014 -0.049326614 -0.07092629 -0.037290543 -0.118484676 -0.052071396 0.08970414 0.018250074
0.0739988 0.06507116 -0.0894453 0.009680698 -0.004720963 -0.111411564 0.09954488 -0.08568755
0.009756203 -0.0089133065 -0.033074707 0.06911615 -0.17163435 -0.059493553 0.14036657 -0.01648885
-0.09203064 0.058102988 0.0851643 0.061205663 0.03573121 0.13181351 -0.0907955 -0.19786896
00000000: 772c db3c f1ea c0bd df85 593c f1f5 9ebd
00000010: a913 ea3d d2dc 963d 052f 8f3d 79b1 0bbd
00000020: 8ae8 61bd bb2a 163e 53c9 61bc d460 41bc
00000030: 7f46 4f3d 6ffc cbbd 59c2 b13d 5ced a6bd
00000040: 9636 c2bd ba04 0bbb 3e45 493c 885b c5be
00000050: b61e d03c 849c 16bd 983e 00be ff49 613c
00000060: 028d fabd b1e4 393d 3344 743d 3f7a 4dbd
00000070: aee1 1fbd 8e93 17be 5b46 4b3d b642 9d3d
00000080: fc01 883e b40a 4abd cd41 91bd f8bd 18bd
00000090: 18a8 f2bd d148 55bd ceb6 b73d 2e81 953c
000000a0: af8c 973d 0744 853d 192f b7bd ca9b 1e3c
000000b0: 4fb2 9abb bf2b e4bd 30de cb3d f47c afbd
000000c0: 7bd8 1f3c 1e09 12bc 5879 07bd c58c 8d3d
000000d0: eac0 2fbe 83af 73bd 41bc 0f3e a013 87bc
000000e0: 8f7a bcbd 66fd 6d3d 9f6a ae3d cab2 7a3d
000000f0: e45a 123d 1ffa 063e fef2 b9bd 299e 4abe
