results/13_less_points_around/epoch170/model_weights.pth (torch, 486655 bytes, 88 tensors)

init_layer.0.weight f4 [64, 5]
-0.14885871 0.16350336 0.32683563 -0.25559023 -0.20027366 0.32269228 0.26621512 0.30401167
-0.06687848 -0.23647952 -0.28747842 0.06861641 -0.29030108 -0.2791312 -0.17585768 -0.1309487
-0.17795189 0.19066463 0.2936972 -0.10257848 -0.34899944 -0.12669729 -0.020424709 0.15806948
0.21552965 0.20588593 0.16124241 0.32217997 0.17917995 -0.21217157 0.41154888 -0.23843189
-0.055915132 -0.13185799 -0.28094584 -0.14205813 0.16230111 0.13258244 -0.15993631 0.2546604
-0.15145923 -0.11598024 0.1995697 0.21655637 -0.12282296 -0.16186924 -0.20001583 -0.12293927
0.029641401 -0.26164952 -0.04105443 0.044996332 0.11746108 0.014392431 0.06936142 -0.15458623
-0.1702981 0.22581321 0.01934127 -0.035667058 -0.22498216 -0.2782302 0.04007942 0.0949393
0.25350136 -0.13406491 -0.16508298 0.004683978 0.055071022 0.22329469 0.09909129 -0.14542982
-0.12745218 -0.018714271 -0.28079513 -0.058730304 0.1515394 0.27768078 0.11682382 -0.2183659
-0.21617132 0.038816888 -0.046550907 0.009177668 0.075188555 0.23429197 0.16402927 -0.099739626
0.16653785 -0.15608652 0.03166366 -0.020704575 -0.2460853 0.22416398 0.15130815 0.1776443
-0.13562293 0.07098471 0.20871785 0.07734079 -0.12040001 -0.2963192 0.027546845 0.093263835
-0.2022591 -0.11880719 0.27202696 0.08992478 -0.1155705 -0.22911464 0.018819507 0.21731882
0.012641933 -0.2698975 0.13506328 -0.14117299 0.123506546 0.1356897 0.10360537 -0.24066834
0.15813705 -0.073908135 0.073006555 0.11773159 0.19407217 0.2563212 0.19870014 0.0643611
0.20564021 0.074857146 -0.11387455 0.27113742 -0.042500213 -0.019447675 0.029330283 0.18625577
0.1459255 -0.21385895 0.12026241 0.03842657 -0.13307624 0.1688247 -0.25753656 0.07133365
0.17736155 0.039349347 -0.20849071 -0.008366962 -0.043871075 0.07528645 -0.2726295 -0.1281571
0.058707222 0.1370524 -0.25509092 -0.2375752 0.28388053 0.12440879 -0.23218775 -0.031783924
0.3158878 -0.03697499 0.29583162 0.10455601 0.0034708157 -0.013080584 -0.2640663 -0.1159823
0.042342957 -0.019047985 0.110662624 -0.17530501 -0.055450365 0.045201976 -0.098092966 0.20375025
0.07617514 0.09531528 -0.2772049 0.115946285 -0.23325789 0.045348387 0.097603545 0.21672899
0.24306737 -0.13226092 -0.1644745 -0.101333976 -0.17919196 -0.19871841 -0.2082822 -0.09842097
-0.14670965 -0.029573813 0.061115872 -0.19763789 0.2601798 0.018346732 -0.15521003 0.08788488
-0.023501543 -0.14966656 0.24800345 0.18938383 0.055857684 0.18646415 0.10111422 -0.15352185
0.07630621 0.1536954 0.20834024 -0.0013393402 -0.15266937 0.23824471 -0.26583025 -0.10534324
0.075625256 0.19628401 0.2250495 0.14672257 -0.013319809 -0.014404307 -0.23066132 0.02604944
-0.17366962 0.24029884 -0.1840209 0.261664 -0.26270184 -0.22066401 0.30991453 -0.29981896
-0.21945654 0.18639523 0.119629726 -0.2493115 -0.059622306 0.03494138 0.10128719 0.24955344
0.16370611 0.073598705 -0.16943064 0.17158745 -0.2858912 0.13972901 0.023179157 -0.28482193
-0.27920735 0.1951097 -0.14618534 0.3291087 -0.13865335 0.2452569 -0.08536241 -0.38134655
00000000: 6b6e 18be 6d6d 273e 0057 a73e b9dc 82be
00000010: 8a14 4dbe ec37 a53e 594d 883e 6ba7 9b3e
00000020: 96f7 88bd b027 72be 5f30 93be c386 8c3d
00000030: 58a2 94be 49ea 8ebe 0914 34be 6a17 06be
00000040: 0539 36be 973d 433e 7b5f 963e ab14 d2bd
00000050: 0eb0 b2be efbc 01be b851 a7bc f7dc 213e
00000060: ceb3 5c3e c3d3 523e bb1c 253e c6f4 a43e
00000070: f37a 373e 8143 59be 89b6 d23e 7d27 74be
00000080: 4407 65bd c805 07be 22d8 8fbe b077 11be
00000090: 4332 263e b1c3 073e 58c6 23be d962 823e
000000a0: 2118 1bbe 0c87 edbd 005c 4c3e f4c0 5d3e
000000b0: 9b8a fbbd 0dc1 25be f3d0 4cbe 96c7 fbbd
000000c0: 86d2 f23c edf6 85be b128 28bd 134e 383d
000000d0: 6f8f f03d 3bce 6b3c 5c0d 8e3d da4b 1ebe
000000e0: a062 2ebe 943b 673e 9571 9e3c 9f17 12bd
000000f0: b961 66be 3074 8ebe 512a 243d 896f c23d
00000100: eeca 813e 5048 09be 830b 29be 0e7c 993b
00000110: 2792 613d 5da7 643e 60f0 ca3d 8eeb 14be
00000120: d382 02be ac4e 99bc 61c4 8fbe 308f 70bd
00000130: 252d 1b3e 2d2c 8e3e 5441 ef3d 4f9b 5fbe
00000140: 045c 5dbe 75fe 1e3d 2aac 3ebd ee5d 163c
00000150: 75fc 993d 3cea 6f3e 4af7 273e 4a44 ccbd
00000160: e688 2a3e 25d5 1fbe c1b1 013d a49c a9bc
00000170: c9fd 7bbe 3e8b 653e 86f0 1a3e 63e8 353e
00000180: bde0 0abe 6e60 913d 22ba 553e d964 9e3d
00000190: 4894 f6bd 26b7 97be eca9 e13c 1c01 bf3d
000001a0: 021d 4fbe 2f51 f3bd 1e47 8b3e 7c2a b83d
000001b0: 3ab0 ecbd 079d 6abe 5e2b 9a3c d388 5e3e
000001c0: 1c20 4f3c 0130 8abe 074e 0a3e a78f 10be
000001d0: 00f1 fc3d 3ef2 0a3e 0d2f d43d c371 76be
000001e0: aeee 213e 265d 97bd 7684 953d 431d f13d
000001f0: dbba 463e 883c 833e 0d78 4b3e c1cf 833d
00000200: 5993 523e b44e 993d 0f37 e9bd 86d2 8a3e
00000210: b414 2ebd bb50 9fbc 1046 f03c d5b9 3e3e
00000220: 7f6d 153e d7fd 5abe 234c f63d 2e65 1d3d
00000230: 2345 08be 62e0 2c3e d5db 83be 6017 923d
00000240: 449e 353e c82c 213d 977e 55be 9515 09bc
00000250: 28b2 33bd c82f 9a3d 1896 8bbe 9d3b 03be
00000260: fc76 703d 7757 0c3e 479b 82be ea46 73be
00000270: ca58 913e 09ca fe3d a0c2 6dbe dc2f 02bd
00000280: 0cbc a13e 1673 17bd 3e77 973e 7621 d63d
00000290: a076 633b f24f 56bc b333 87be 2188 edbd
000002a0: cf6f 2d3d 850a 9cbc 16a3 e23d 2883 33be
000002b0: ec1f 63bd b525 393d f7e4 c8bd e8a3 503e
000002c0: b601 9c3d a834 c33d cded 8dbe 3f75 ed3d
000002d0: 28db 6ebe 3bbf 393d 5ee4 c73d 34ee 5d3e
000002e0: a7e6 783e 686f 07be 016c 28be 3088 cfbd
000002f0: 197e 37be d77c 4bbe ee47 55be ef90 c9bd
00000300: 0e3b 16be c844 f2bc a354 7a3d 9661 4abe
00000310: 4936 853e e34b 963c 61ef 1ebe fdfc b33d
00000320: 4f86 c0bc 3142 19be 9ef4 7d3e d6ed 413e
00000330: 07cb 643d 75f0 3e3e f914 cf3d d534 1dbe
00000340: 6e46 9c3d 5462 1d3e 2557 553e cd8c afba
00000350: 5c55 1cbe 6cf6 733e e71a 88be 32be d7bd
00000360: 6ae1 9a3d adfe 483e 6073 663e 713e 163e
00000370: 543b 5abc 0b00 6cbc 7b32 6cbe a365 d53c
00000380: 73d6 31be e610 763e fa6f 3cbe d3f8 853e
00000390: db80 86be bff5 61be 1ead 9e3e df81 99be
000003a0: 37b9 60be 64de 3e3e 6e00 f53d 844b 7fbe
000003b0: 8536 74bd b11e 0f3d a96f cf3d f08a 7f3e
000003c0: 93a2 273e ebba 963d 3a7f 2dbe 9fb4 2f3e
000003d0: 5560 92be 1f15 0f3e 37e2 bd3c 2ed4 91be
000003e0: 44f4 8ebe d6ca 473e 9cb1 15be ef80 a83e
000003f0: 25fb 0dbe a024 7b3e 7dd2 aebd db3f c3be

init_layer.0.bias f4 [64]
0.020367656 0.09712968 -0.088340886 -0.08499317 -0.08442845 -0.00055365247 0.0011092551 0.09493179
-0.08136152 -0.080964096 0.063451245 0.19427907 0.09081819 -0.078230985 0.013273952 -0.09086293
-0.09357406 0.0140034035 -0.1300797 0.085913405 -0.008336478 -0.0671398 0.11154465 0.034558006
0.043388434 0.06403163 0.15724649 0.1366542 -0.027061094 0.102947935 0.023251383 -0.0049327663
0.15303369 -0.1244345 -0.15123765 -0.039652415 -0.038340807 0.005617577 0.124223225 0.122386865
-0.13407494 0.045212146 0.1273529 -0.102047674 0.039826576 0.07283402 0.0002255859 0.14590068
0.08015695 0.1338865 -0.105482355 0.12427171 0.111195154 0.14350753 0.069426306 -0.009252298
-0.07853103 0.039542902 -0.058658097 -0.08405585 0.019871479 -0.06692176 -0.109743 -0.012768361
00000000: 12da a63c edeb c63d 11ec b4bd e610 aebd
00000010: d3e8 acbd fd22 11ba 6d64 913a 996b c23d
00000020: dea0 a6bd 81d0 a5bd baf2 813d 18f1 463e
00000030: e3fe b93d 9137 a0bd fd7a 593c 5816 babd
00000040: c2a3 bfbd 886e 653c 9d33 05be 5ef3 af3d
00000050: b995 08bc 9780 89bd 8571 e43d b28c 0d3d
00000060: 12b8 313d 0423 833d 3905 213e 14ef 0b3e
00000070: 3aaf ddbc 5ed6 d23d af79 be3c 0ba3 a1bb
00000080: ddb4 1c3e 84d7 febd 0bde 1abe 926a 22bd
00000090: 400b 1dbd a713 b83b bf68 fe3d f7a5 fa3d
000000a0: f14a 09be 5f30 393d cc68 023e 5ffe d0bd
000000b0: 3121 233d 012a 953d 418b 6c39 fd66 153e
000000c0: 5429 a43d 8b19 093e 2207 d8bd 2b82 fe3d
000000d0: 49ba e33d a3f3 123e 612f 8e3d f396 17bc
000000e0: e0d4 a0bd bdf7 213d 7943 70bd 7925 acbd
000000f0: 83c9 a23c 470e 89bd f0c0 e0bd 6332 51bc

hiden_layers.0.weight f4 [64, 64]
0.11452419 0.12120034 0.20125176 0.10680078 -0.16801462 -0.058917135 -0.20762472 0.03147955
0.10181482 0.14397271 0.023698218 -0.037823413 -0.10761123 0.13829105 -0.1601042 -0.015302072
0.09251806 -0.18905734 -0.11977442 0.09246754 0.1898808 -0.13046628 0.21449895 -0.14997232
-0.11712492 -0.06299294 -0.009899534 -0.21554555 0.1987813 -0.16634552 -0.17532632 -0.029562255
-0.19478062 -0.028940465 0.06064726 0.06891355 -0.13595496 0.20356207 0.13441288 0.047468204
0.084593594 -0.20143455 0.03581322 -0.031281978 0.07560052 -0.18776165 -0.11537242 0.008995668
0.1382652 0.13623932 -0.12100476 0.0942947 0.12190729 0.07802275 -0.22267044 -0.1410315
-0.04839339 -0.07329049 -0.17897297 -0.010073509 -0.20347412 -0.040568497 0.082111165 0.16329356
-0.07189705 -0.21383424 -0.08957395 0.09585421 0.08763266 -0.17841746 -0.14922869 -0.042892735
-0.11310573 -0.062458728 0.073184825 -0.15363976 -0.13890864 -0.09362008 0.0034005202 -0.13728032
0.15830995 0.0679471 0.11352533 -0.105570026 0.079724 -0.03733202 -0.15361558 -0.22602679
0.066429555 -0.17920773 -0.18151344 -0.09325265 -0.1759042 0.13161384 0.08769118 0.15271848
0.19428518 0.07967086 0.1848699 -0.20056747 0.12262813 0.26822448 0.14643823 -0.212209
-0.16966361 -0.25675339 -0.010326771 0.04938582 -0.121364765 0.009738579 -0.22544445 0.07485157
0.00647444 -0.17405808 0.10024141 -0.15586986 -0.050017595 -0.15816578 -0.09029452 -0.03420522
0.118363835 -0.07953612 0.27480528 0.055504594 -0.08073243 -0.17751978 0.20758195 -0.1994384
0.021210369 -0.05213317 -0.16091123 -0.17449774 0.10685335 0.079192266 -0.12164822 -0.17829204
0.15056452 0.1563672 -0.0946607 0.12115699 -0.03764332 0.09472044 0.09058821 0.07008
-0.021839123 0.16054843 -0.028591627 0.02333986 0.08835934 -0.18509018 -0.06404027 -0.10257606
0.10168645 0.051077154 0.13046858 0.07651838 0.01885557 0.15852974 -0.14687553 -0.19391577
0.1540846 0.032644816 0.022398507 0.028942736 -0.21747033 0.07663443 -0.049557615 0.14844799
-0.13029179 0.13910502 0.0497901 0.11107535 0.15755092 -0.09843273 -0.036437217 0.06621892
0.18842638 0.078908466 0.1464972 -0.20294045 -0.10487176 0.16612256 0.013489873 -0.14023578
0.011090383 0.07150327 -0.09622081 -0.037272107 0.1312683 0.06222638 0.051064935 -0.23311715
-0.21493773 0.09102239 0.09557503 -0.17996475 -0.21301231 -0.14261422 0.21022995 0.16594566
-0.21542366 0.04138041 0.17608371 0.032279797 0.16986631 -0.1867333 0.14141738 -0.13030659
-0.049565848 0.113227114 0.096819 0.16971424 -0.08529714 -0.012643887 0.092587784 -0.2195002
0.06763265 -0.059143495 0.14125957 0.08355931 0.06051954 0.04285037 0.039338704 0.09147175
0.006206583 0.010972902 0.13727234 0.004238409 -0.008438113 0.08033147 0.22809686 0.112074725
-0.16490163 -0.011921849 0.0669008 -0.13382621 0.27983174 0.16479857 0.14602557 -0.0088110585
-0.07692566 -0.07868309 -0.21077456 0.14884406 0.061203472 -0.027778624 0.07263865 0.09531795
0.067418285 -0.07109849 0.22937675 0.15093774 -0.13452287 -0.09063403 0.151733 -0.11881904
00000000: a98b ea3d e237 f83d f114 4e3e 5eba da3d
00000010: 060c 2cbe 1853 71bd 939b 54be b3f0 003d
00000020: 4a84 d03d 956d 133e c422 c23c b9ec 1abd
00000030: 4763 dcbd 2b9c 0d3e 5bf2 23be 8bb5 7abc
00000040: 1c7a bd3d 3f98 41be 4b4c f5bd 9f5f bd3d
00000050: 1d70 423e f498 05be 9da5 5b3e 5892 19be
00000060: 31df efbd 7102 81bd a831 22bc f9b7 5cbe
00000070: 538d 4b3e 7b56 2abe be88 33be 8b2c f2bc
00000080: 9274 47be 8e14 edbc 4369 783d 8c22 8d3d
00000090: c737 0bbe 9372 503e 88a3 093e 056e 423d
000000a0: 683f ad3d dc44 4ebe e2b0 123d 8821 00bd
000000b0: 72d4 9a3d 9744 40be 6048 ecbd 9162 133c
000000c0: 6595 0d3e 5282 0b3e 58d1 f7bd 941d c13d
000000d0: 87aa f93d 64ca 9f3d b803 64be 906a 10be
000000e0: 2638 46bd 5319 96bd b144 37be 5c0b 25bc
000000f0: 855b 50be 272b 26bd e629 a83d 6d36 273e
00000100: c33e 93bd 5df7 5abe 8c72 b7bd 364f c43d
00000110: c178 b33d 11b3 36be 68cf 18be 4bb0 2fbd
00000120: faa3 e7bd b9d4 7fbd ede1 953d be53 1dbe
00000130: 113e 0ebe e2bb bfbd 43db 5e3b 3693 0cbe
00000140: 011c 223e d927 8b3d f87f e83d 1935 d8bd
00000150: 5646 a33d 76e9 18bd 674d 1dbe 9173 67be
00000160: 380c 883d 3b82 37be a9de 39be 3ffb bebd
00000170: 3b20 34be c7c5 063e 6f97 b33d 3c62 1c3e
00000180: b2f2 463e 7a2a a33d 894e 3d3e 8f61 4dbe
00000190: 7524 fb3d b854 893e e7f3 153e 514d 59be
000001a0: 4cbc 2dbe 2e75 83be 9e31 29bc c948 4a3d
000001b0: 178e f8bd 908e 1f3c e9da 66be c84b 993d
000001c0: 8a27 d43b 483c 32be 5e4b cd3d 599c 1fbe
000001d0: 40df 4cbd 36f6 21be 55ec b8bd c61a 0cbd
000001e0: bd68 f23d d5e3 a2bd 47b3 8c3e c958 633d
000001f0: 0b57 a5bd bfc7 35be 5d90 543e 9439 4cbe
00000200: 5ec1 ad3c 9789 55bd eac5 24be 89af 32be
00000210: eed5 da3d 8e2f a23d b422 f9bd 3092 36be
00000220: 962d 1a3e b91e 203e 78dd c1bd 2821 f83d
00000230: e22f 1abd cafc c13d 5086 b93d 1a86 8f3d
00000240: f6e7 b2bc cf66 243e fd38 eabc 3c33 bf3c
00000250: bef5 b43d 4888 3dbe 8c27 83bd 6613 d2bd
00000260: fc40 d03d 4736 513d 8e99 053e abb5 9c3d
00000270: ff76 9a3c 9f55 223e 8a66 16be db91 46be
00000280: 5ac8 1d3e 92b6 053d 137d b73c 5119 ed3c
00000290: 8bb0 5ebe 83f2 9c3d edfc 4abd c002 183e
000002a0: 366b 05be 8c71 0e3e b4f0 4b3d 797b e33d
000002b0: 0755 213e 1997 c9bd 313f 15bd c99d 873d
000002c0: d8f2 403e c39a a13d 5d03 163e 9fcf 4fbe
000002d0: 01c7 d6bd 081c 2a3e a104 5d3c f899 0fbe
000002e0: 70b4 353c 4e70 923d 6b0f c5bd a3aa 18bd
000002f0: 326b 063e 17e1 7e3d 7729 513d 43b6 6ebe
00000300: a318 5cbe f269 ba3d d7bc c33d ae48 38be
00000310: e61f 5abe 7609 12be 8546 573e a9ed 293e
00000320: 0598 5cbe 817e 293d 4a4f 343e d237 043d
00000330: 6ff1 2d3e 0437 3fbe b8cf 103e 176f 05be
00000340: 8f05 4bbd 9ee3 e73d 0a49 c63d 92c9 2d3e
00000350: 44b0 aebd 4e28 4fbc aa9e bd3d a9c4 60be
00000360: fd82 8a3d 7340 72bd 59a6 103e 2521 ab3d
00000370: 56e3 773d df83 2f3d 9f21 213d 8a55 bb3d
00000380: 9860 cb3b b0c7 333c 1f91 0c3e 5ae2 8a3b
00000390: 0340 0abc d384 a43d 3992 693e 6f87 e53d
000003a0: f9db 28be dc53 43bc 4903 893d bd09 09be
000003b0: 1b46 8f3e f5c0 283e ba87 153e 425c 10bc
000003c0: 338b 9dbd 9a24 a1bd 49d5 57be 946a 183e
000003d0: 7eb0 7a3d ff8f e3bc 93c3 943d 0f36 c33d
000003e0: 9912 8a3d 169c 91bd bde1 6a3e 6c8f 1a3e
000003f0: 5dc0 09be 569e b9bd e55f 1b3e 6657 f3bd

hiden_layers.0.bias f4 [64]
-0.047865365 -0.051573355 0.018990053 0.07700545 0.07629739 0.017444998 0.10228533 0.086055614
0.044181317 -0.0044917357 -0.09206796 -0.033852156 -0.09156278 0.031984895 -0.036782112 0.088695645
0.014149807 0.02864093 -0.006505826 0.077870786 -0.07223778 0.0090114325 -0.13342199 0.101185806
0.019111115 0.1191928 -0.0865201 -0.0662347 -0.038882732 0.013736095 -0.08169331 -0.042641446
-0.16208449 -0.028838 0.115999594 -0.06264305 0.03884047 0.049162827 -0.022189436 -0.04872562
0.06513565 0.09026592 -0.08078845 0.067557685 -0.04344183 -0.10242062 0.012699159 0.0024157711
-0.021831766 -0.036159832 -0.0794514 0.028308885 0.028542154 -0.0048545385 -0.13459927 -0.035332378
0.07715808 0.089595005 -0.061744314 -0.07788896 -0.049341496 -0.05012544 0.0449024 -0.11330507
00000000: 790e 44bd 953e 53bd 0791 9b3c 09b5 9d3d
00000010: ce41 9c3d d0e8 8e3c f97a d13d ed3d b03d
00000020: 78f7 343d 692f 93bb 208e bcbd 8fa8 0abd
00000030: 4485 bbbd 9802 033d d7a8 16bd 10a6 b53d
00000040: 98d4 673c 62a0 ea3c d32e d5bb b87a 9f3d
00000050: 67f1 93bd b0a4 133c c69f 08be 813a cf3d
00000060: ea8e 9c3c 5b1b f43d 7331 b1bd 0fa6 87bd
00000070: 8043 1fbd 5c0d 613c d24e a7bd cca8 2ebd
00000080: 7af9 25be ab3d ecbc 3291 ed3d 004b 80bd
00000090: 2f17 1f3d f65e 493d 9fc6 b5bc 8494 47bd
000000a0: d765 853d 57dd b83d 6a74 a5bd af5b 8a3d
000000b0: 0ff0 31bd e7c1 d1bd 2210 503c ea51 1e3b
000000c0: 88d8 b2bc 551c 14bd 6ab7 a2bd 09e8 e73c
000000d0: 3cd1 e93c d212 9fbb 64d4 09be afb8 10bd
000000e0: 0e05 9e3d 967d b73d 9be7 7cbd 3f84 9fbd
000000f0: 4f1a 4abd 5550 4dbd 94eb 373d 7d0c e8bd

hiden_layers.1.weight f4 [64, 64]
-0.11662813 -0.02546266 -0.12286463 0.011053473 0.16246887 -0.16984627 -0.35598385 0.02606823
-0.15590121 -0.17303704 0.120827354 0.03814814 -0.094082065 0.050461024 -0.121085875 -0.25930104
0.3056257 0.096534975 -0.17024168 -0.038572613 0.101552494 0.15876135 -0.110494204 -0.13710563
-0.25691718 0.12863463 -0.008699779 0.20072043 -0.17579423 0.11968307 0.15615946 0.08916091
-0.07248479 0.2552907 0.08940018 0.0920802 -0.11584262 0.12159563 -0.30975094 0.1505606
0.22239093 0.17094316 0.118684046 -0.17905867 0.27703443 0.16488639 0.1681349 0.23518325
0.22429809 -0.25733706 -0.25846845 -0.187016 0.2044305 0.22043483 0.186289 -0.14799678
0.15020642 -0.09949443 -0.26974353 0.024531797 0.03452439 0.20360969 -0.014240271 0.18790828
0.07142855 0.072983675 0.14549033 0.18672143 -0.10429206 0.17835212 -0.23311044 -0.15256242
-0.14389299 0.15543461 0.004556746 0.116923384 0.09723028 -0.23943456 0.059324425 0.07303039
-0.21171668 -0.053179238 0.10906726 -0.12819394 0.1267938 0.20765875 -0.1778653 -0.19074063
0.18861873 -0.1223987 0.10544672 0.09818935 0.0063212304 -0.18759148 0.19669028 0.21706559
0.047215316 -0.14502695 -0.10919319 0.20025301 0.06860482 0.21191642 -0.16168392 0.046775933
0.08457736 0.05987027 -0.06292409 -0.15764955 0.11465183 0.023501482 0.039049014 0.10295644
0.020088237 0.09108984 0.096413955 0.05461961 0.23549369 0.014325294 -0.0006793443 0.16965272
-0.13587399 -0.14838468 -0.15597132 0.13204852 -0.15467316 -0.04018931 -0.118152745 -0.18764341
-0.16984847 -0.048770085 0.09875937 -0.09364037 -0.09615199 -0.11795294 -0.24336569 -0.2063744
-0.23762216 -0.008720737 0.13338655 0.09466837 0.06365292 0.12064319 -0.0686237 -0.22629192
-0.113779075 0.14056094 -0.053437464 -0.08272025 -0.035399884 0.03560716 -0.09803671 -0.13143046
0.17540038 -0.17306377 -0.23435873 -0.14181468 -0.18010357 -0.10814965 0.08368166 -0.1285242
0.041026518 0.23844522 0.13219008 0.07654045 -0.04658908 0.017432757 -0.23201601 -0.07670284
-0.17470746 -0.18582036 0.22549239 -0.010369435 -0.114028744 -0.10029886 0.22226538 0.1144391
0.02464107 0.19672477 0.018385174 0.17740938 -0.12590908 0.061664533 -0.07520923 0.11604431
0.110219024 0.0731003 0.019255843 0.014296906 -0.12095198 0.13471842 -0.15423281 0.16097488
0.22460116 0.18189326 -0.077226296 -0.13332969 -0.13356176 0.08444297 0.27984428 -0.17104322
0.21081464 0.20566863 0.07819265 0.0077725057 0.20378235 0.12299152 0.08435081 0.010131161
-0.12073079 -0.0796843 0.21636559 0.083137654 -0.15017784 0.19532897 -0.064460345 -0.07042553
-0.008004247 -0.08589092 0.031998035 0.08517132 0.17364627 0.1545237 0.10804077 0.1898997
0.0887507 0.06747394 -0.20508789 0.24690844 -0.1109494 -0.12873082 -0.05827829 -0.046375986
0.121923335 -0.22097054 0.02657108 -0.26276267 -0.15340063 -0.115007974 0.026378598 -0.19189748
-0.116689466 0.03989897 0.024933772 0.17288297 0.062307075 -0.19901411 -0.105510175 0.10963405
-0.22165449 -0.15702799 0.12971711 0.22062156 -0.16412605 -0.11152778 0.200153 0.09563677
00000000: bbda eebd 1197 d0bc 73a0 fbbd a019 353c
00000010: 3d5e 263e 2eec 2dbe 8443 b6be 0a8d d53c
00000020: 91a4 1fbe 9f30 31be 5574 f73d 3941 1c3d
00000030: 19ae c0bd 38b0 4e3d dffb f7bd 1bc3 84be
00000040: f97a 9c3e 21b4 c53d d653 2ebe 51fe 1dbd
00000050: c1fa cf3d 5692 223e c94a e2bd 6b65 0cbe
00000060: a68a 83be ccb8 033e 8589 0ebc a889 4d3e
00000070: 6703 34be 661c f53d 44e8 1f3e ff99 b63d
00000080: e872 94bd 76b5 823e 7117 b73d 8b94 bc3d
00000090: e53e edbd 2107 f93d ad97 9ebe 8f2c 1a3e
000000a0: 73ba 633e b90b 2f3e 9f10 f33d 285b 37be
000000b0: 75d7 8d3e fad7 283e 8e2b 2c3e e1d3 703e
000000c0: 66ae 653e afc1 83be fa55 84be 1f81 3fbe
000000d0: 3b56 513e abb9 613e 8bc2 3e3e 788c 17be
000000e0: b6cf 193e bcc3 cbbd d31b 8abe e8f6 c83c
000000f0: 7269 0d3d 0f7f 503e 0750 69bc 076b 403e
00000100: 2249 923d 7778 953d 6bfb 143e e733 3f3e
00000110: 1397 d5bd f0a1 363e 81b4 6ebe 5339 1cbe
00000120: af58 13be 402a 1f3e c250 953b 8775 ef3d
00000130: ab20 c73d 552e 75be 2bfe 723d f590 953d
00000140: 42cc 58be 79d2 59bd a85e df3d 4645 03be
00000150: 3cd6 013e 7fa4 543e 5222 36be 8351 43be
00000160: 4525 413e 2bac fabd 73f4 d73d 7f17 c93d
00000170: 5322 cf3b fb17 40be 2d69 493e 7146 5e3e
00000180: d964 413d f281 14be aea0 dfbd 200f 4d3e
00000190: af80 8c3d 9e00 593e 7890 25be 1f98 3f3d
000001a0: e536 ad3d 873a 753d 58de 80bd e26e 21be
000001b0: 94ce ea3d 2e86 c03c dcf1 1f3d d3da d23d
000001c0: 1690 a43c 4f8d ba3d ae74 c53d d0b8 5f3d
000001d0: 4225 713e a3b4 6a3c 0616 32ba 71b9 2d3e
000001e0: 8d22 0bbe 27f2 17be f2b6 1fbe ba37 073e
000001f0: a462 1ebe 8c9d 24bd 11fa f1bd 9825 40be
00000200: c2ec 2dbe 24c3 47bd 5a42 ca3d 86c6 bfbd
00000210: 56eb c4bd 5091 f1bd db34 79be d053 53be
00000220: 3953 73be 6ce1 0ebc 7c96 083e 7ee1 c13d
00000230: 765c 823d c713 f73d 958a 8cbd 12b9 67be
00000240: 0105 e9bd 35ef 0f3e 3ee1 5abd 3c69 a9bd
00000250: 78ff 10bd d0d8 113d 78c7 c8bd b595 06be
00000260: 289c 333e a137 31be bcfb 6fbe de37 11be
00000270: 126d 38be 907d ddbd 4a61 ab3d d99b 03be
00000280: 6c0b 283d fc2a 743e d65c 073e 3dc1 9c3d
00000290: 31d4 3ebd 24cf 8e3c 9b95 6dbe 6116 9dbd
000002a0: 83e6 32be b147 3ebe 7ae7 663e 90e4 29bc
000002b0: e787 e9bd 7d69 cdbd 8999 633e 0c5f ea3d
000002c0: 12dc c93c 3872 493e 819c 963c ceaa 353e
000002d0: 4fee 00be f393 7c3d 4c07 9abd a4a8 ed3d
000002e0: 83ba e13d 9cb5 953d 6ebe 9d3c 923d 6a3c
000002f0: acb5 f7bd a0f3 093e 35ef 1dbe 99d6 243e
00000300: d9fd 653e 3a42 3a3e d228 9ebd 9487 08be
00000310: 6ac4 08be 70f0 ac3d c047 8f3e f425 2fbe
00000320: cbdf 573e cc9a 523e 7823 a03d 81b0 fe3b
00000330: 52ac 503e fae2 fb3d 1ec0 ac3d 2bfd 253c
00000340: b441 f7bd 8631 a3bd f18e 5d3e 1344 aa3d
00000350: 38c8 19be 5104 483e c903 84bd 433b 90bd
00000360: 3f24 03bc 94e7 afbd 5f10 033d 4d6e ae3d
00000370: 54d0 313e 763b 1e3e 7b44 dd3d 1175 423e
00000380: edc2 b53d c72f 8a3d 8f02 52be 91d5 7c3e
00000390: 7039 e3bd 03d2 03be 37b5 6ebd bff4 3dbd
000003a0: f1b2 f93d 1a46 62be 98ab d93c d488 86be
000003b0: 0e15 1dbe 4d89 ebbd ee17 d83c c680 44be
000003c0: e3fa eebd 1a6d 233d e941 cc3c 3c08 313e
000003d0: b435 7f3d 5bca 4bbe b815 d8bd d187 e03d
000003e0: 65f9 62be f2cb 20be 90d4 043e 9eea 613e
000003f0: a910 28be ad68 e4bd e8f4 4c3e 36dd c33d

hiden_layers.1.bias f4 [64]
-0.028848574 -0.029399218 0.05194986 -0.040340904 -0.079513445 -0.08132166 -0.07301646 -0.07291192
0.057197418 -0.0044935974 0.055232763 -0.05087791 0.04386814 0.036330123 0.007507576 -0.06967427
0.006408187 0.16590002 -0.038170118 -0.016560676 -0.09140239 -0.014348448 0.019982971 0.008896462
-0.059940975 -0.05528874 -0.008447228 0.0015952443 -0.030526917 0.023202812 0.04255742 -0.012669767
-0.008384165 0.022668216 0.010082201 0.008541133 0.020635298 -0.007901186 -0.01357341 -0.006499191
0.027437871 0.0689671 -0.03451668 0.027209986 0.02136513 -0.019831732 -0.00028546999 -0.058121182
0.057876687 -0.03576254 0.08702526 -0.045639455 -0.03842738 0.021361649 0.06752423 -0.023675334
0.02197198 -0.035002228 0.033763155 0.05396657 0.029898018 -0.034310624 0.014141184 0.032186173
00000000: d853 ecbc a1d6 f0bc 60c9 543d 813c 25bd
00000010: f2d7 a2bd f88b a6bd a789 95bd d852 95bd
00000020: d747 6a3d 073f 93bb c03b 623d 5b65 50bd
00000030: 14af 333d e5ce 143d 1d02 f63b 62b1 8ebd
00000040: c5fb d13b b2e1 293e 4558 1cbd 41aa 87bc
00000050: 2d31 bbbd c115 6bbc 54b3 a33c 77c2 113c
00000060: ab84 75bd 7276 62bd 3e66 0abc 8417 d13a
00000070: 9613 fabc d313 be3c b050 2e3d db94 4fbc
00000080: bd5d 09bc b2b2 b93c d12f 253c 1cf0 0b3c
00000090: 5b0b a93c fa73 01bc 0263 5ebc 2af7 d4bb
000000a0: 63c5 e03c 9f3e 8d3d 5d61 0dbd 7ae7 de3c
000000b0: ed05 af3c 2876 a2bc 22ab 95b9 7a10 6ebd
000000c0: 1b10 6d3d be7b 12bd 4d3a b23d 70f0 3abd
000000d0: 0766 1dbd a0fe ae3c 254a 8a3d c6f2 c1bc
000000e0: 95fe b33c 7f5e 0fbd 3c4b 0a3d 0d0c 5d3d
000000f0: b0ec f43c 4c89 0cbd 6db0 673c a6d5 033d

hiden_layers.2.weight f4 [64, 64]
-0.12798141 -0.18796942 -0.13002798 -0.22034092 -0.12103872 0.0060520517 -0.08386594 -0.10434914
0.17730045 0.06271937 -0.013258703 -0.15882213 0.080203384 -0.195043 0.12836671 0.14734605
-0.25036687 -0.21061724 0.09211428 -0.12416214 0.052366856 -0.2193982 -0.10294358 0.19856611
-0.11641147 0.061141446 0.09407015 0.0071979705 -0.10027369 -0.02556151 0.2229492 -0.13555487
-0.10510115 -0.003965547 -0.22819741 0.11082745 0.06807725 -0.13882537 -0.14679979 0.18173037
-0.13671187 0.09640248 -0.19573961 -0.20385866 -0.08865045 -0.11569045 -0.07869699 -0.07790455
0.0391583 0.19644573 -0.006021458 -0.17084596 0.15609542 0.08149611 -0.022713866 0.23421814
-0.13357772 -0.20197056 -0.06146294 0.21206337 -0.023042448 0.08684791 -0.23676938 0.10500254
0.11916247 -0.010206986 0.070466064 -0.10422069 0.01837044 -0.017900225 0.14096913 -0.077636376
0.12628347 0.076479726 -0.11340395 -0.10022721 -0.03849821 0.19314007 -0.030768504 -0.09304579
0.09228162 0.029729538 -0.11747786 -0.029149143 0.11765381 -0.19335902 0.07911202 0.05009974
-0.010702317 0.10082739 -0.12681843 -0.1743053 0.09410524 0.066472515 0.020547433 0.0078001395
-0.1256472 0.036393505 0.073554024 0.16698942 -0.12269134 -0.016882787 0.22325166 0.09673932
0.07854192 -0.07842713 -0.12131459 -0.1922237 0.037955627 -0.1724316 0.0657127 0.10687684
-0.258421 -0.10361307 -0.016579967 0.19895248 -0.13530496 0.09171667 -0.04395382 -0.12786566
-0.09534504 0.028242627 0.026438823 0.090628505 -0.16704385 -0.12872021 0.17579743 0.15866216
-0.22373632 -0.02008253 0.086866416 0.18385832 0.13547878 0.10939203 -0.14586043 0.04839057
-0.006738014 -0.09191863 0.0061158696 -0.09162452 0.065287404 -0.25395846 0.23260348 -0.062223006
0.17051804 0.17003883 -0.22254173 -0.07752777 -0.061905157 -0.07828084 0.16401188 -0.03729915
-0.1776227 0.07313316 -0.1904568 0.033121172 -0.13374192 0.16082418 -0.1305888 -0.23617578
0.04001899 0.22023396 -0.112261385 0.118160315 0.01323176 -0.05724269 0.054032195 0.16705166
0.2293771 0.08029148 -0.11930989 0.17970367 0.118578285 -0.059130028 0.009425979 -0.0019336557
0.20905435 -0.23467436 0.1647266 0.007512732 -0.22324729 -0.12568647 0.039725233 -0.10108019
0.25213674 0.089478284 0.23565228 0.18795574 0.05259523 -0.26812738 -0.017008133 0.045853276
0.1875878 0.2391153 0.08836702 -0.15048079 0.04273223 -0.20875873 0.035901174 -0.06395362
0.04776451 -0.11414867 -0.20671602 0.14496976 0.19901985 -0.06672843 -0.115797356 -0.08483259
0.23836857 0.28479892 0.0783196 0.014880728 -0.10060918 -0.15413912 0.10412632 0.1326123
-0.13299273 -0.124018304 -0.18686682 -0.081026636 -0.12755568 0.26755244 0.027650692 -0.05563639
0.044223454 0.10742404 -0.20315301 -0.07973798 0.12320844 -0.14394113 -0.20253055 0.1379748
-0.12110515 -0.07842865 0.18984184 0.061119612 0.2094761 0.066151455 -0.18863945 -0.16148208
0.093555614 -0.18349314 0.15128823 0.0434262 0.12168234 0.19244984 0.10358158 -0.19201392
0.015111426 -0.14965646 -0.18640679 0.28616667 -0.089932136 -0.020288954 -0.13718235 -0.016122898
00000000: 8f0d 03be 0e7b 40be 0e26 05be 0da1 61be
00000010: 26e3 f7bd 4a50 c63b e8c1 abbd 00b5 d5bd
00000020: 408e 353e 0373 803d 083b 59bc 45a2 22be
00000030: ac41 a43d 5ab9 47be 9072 033e e2e1 163e
00000040: 1630 80be 0cac 57be 69a6 bc3d b848 febd
00000050: a17e 563d eca9 60be 15d4 d2bd ea54 4b3e
00000060: 2369 eebd 746f 7a3d daa7 c03d f4dc eb3b
00000070: 4b5c cdbd 5f66 d1bc cc4c 643e e5ce 0abe
00000080: 463f d7bd 6bf1 81bb 95ac 69be 81f9 e23d
00000090: 166c 8b3d 3d28 0ebe af52 16be 8717 3a3e
000000a0: 32fe 0bbe aa6e c53d f76f 48be 53c0 50be
000000b0: 5e8e b5bd 1def ecbd e32b a1bd 6c8c 9fbd
000000c0: 7464 203d 1229 493e a74f c5bb 3ef2 2ebe
000000d0: 7ad7 1f3e 6fe7 a63d 6e12 babc e1d6 6f3e
000000e0: 99c8 08be 5fd1 4ebe 90c0 7bbd 2427 593e
000000f0: 84c3 bcbc 51dd b13d ac73 72be 920b d73d
00000100: 740b f43d 343b 27bc 8350 903d a871 d5bd
00000110: 9b7d 963c 7ea3 92bc 365a 103e d2ff 9ebd
00000120: 7450 013e 67a1 9c3d 5540 e8bd ec43 cdbd
00000130: 4db0 1dbd 83c6 453e 3b0e fcbc cb8e bebd
00000140: 25fe bc3d 5c8b f33c 3b98 f0bd 2fca eebc
00000150: 7bf4 f03d e8ff 45be 7c05 a23d 6335 4d3d
00000160: c558 2fbc 977e ce3d b1dc 01be 177d 32be
00000170: 40ba c03d be22 883d 1753 a83c 5098 ff3b
00000180: a9a9 00be 5b11 153d 7ea3 963d 46ff 2a3e
00000190: 9945 fbbd c54d 8abc 159c 643e 441f c63d
000001a0: 96da a03d 679e a0bd c973 f8bd 4ad6 44be
000001b0: 5c77 1b3d e991 30be 6194 863d 3fe2 da3d
000001c0: c24f 84be 1733 d4bd b6d2 87bc 33ba 4b3e
000001d0: 628d 0abe f3d5 bb3d ec08 34bd 37ef 02be
000001e0: 4344 c3bd 155d e73c 3b96 d83c 709b b93d
000001f0: 8b0d 2bbe 3bcf 03be 3e04 343e 5578 223e
00000200: 221b 65be 1e84 a4bc 05e7 b13d 5b45 3c3e
00000210: f3ba 0a3e ee08 e03d 705c 15be 3135 463d
00000220: 8fca dcbb d63f bcbd a267 c83b a3a5 bbbd
00000230: 67b5 853d d806 82be 9b2f 6e3e 8ddd 7ebd
00000240: 489c 2e3e a91e 2e3e fbe1 63be e1c6 9ebd
00000250: 4390 7dbd b451 a0bd bbf2 273e fec6 18bd
00000260: bae2 35be d7c6 953d 1b07 43be 11aa 073d
00000270: a4f3 08be 18af 243e 12b9 05be 10d8 71be
00000280: f4ea 233d 0385 613e 4ce9 e5bd 09fe f13d
00000290: 06ca 583c 5077 6abd dd50 5d3d 970f 2b3e
000002a0: d5e1 6a3e dc6f a43d be58 f4bd 3d04 383e
000002b0: 2cd9 f23d 5432 72bd 6c6f 1a3c b872 fdba
000002c0: 5812 563e 7a4e 70be 17ae 283e 5d2d f63b
000002d0: f09a 64be f4b3 00be edb6 223d 2103 cfbd
000002e0: 1118 813e 6440 b73d d54e 713e 7877 403e
000002f0: 196e 573d fe47 89be a454 8bbc a5d0 3b3d
00000300: 0417 403e a4da 743e c5f9 b43d a317 1abe
00000310: fe07 2f3d d9c4 55be 1c0d 133d 1efa 82bd
00000320: b8a4 433d c7c6 e9bd 5dad 53be f472 143e
00000330: dccb 4b3e eaa8 88bd 2a27 edbd b5bc adbd
00000340: e416 743e 2ad1 913e 0766 a03d 4cce 733c
00000350: 300c cebd a5d6 1dbe 2e40 d53d 85cb 073e
00000360: 3f2f 08be 4ffd fdbd 045a 3fbe 4bf1 a5bd
00000370: f59d 02be a2fc 883e b483 e23c fce2 63bd
00000380: a723 353d 2301 dc3d 5807 50be ab4d a3bd
00000390: b554 fc3d 4e65 13be 2b64 4fbe 4449 0d3e
000003a0: fa05 f8bd 339f a0bd e665 423e 8f58 7a3d
000003b0: e780 563e 6a7a 873d b32a 41be 8f5b 25be
000003c0: 169a bf3d a0e5 3bbe 4deb 1a3e acdf 313d
000003d0: 9734 f93d 9211 453e 9422 d43d 4c9f 44be
000003e0: ea95 773c 8b3f 19be 6ce1 3ebe 7084 923e
000003f0: 572e b8bd 0535 a6bc 8879 0cbe 2b14 84bc

hiden_layers.2.bias f4 [64]
0.02359843 -0.019154575 0.018022705 0.1091214 0.023252271 0.06496611 0.041420188 -0.090788685
-0.05010785 0.015638849 0.031981826 0.022046622 0.060403157 0.022387369 -0.014920051 -0.054679103
-0.0055833175 0.019543761 -0.037934523 0.018655658 -0.06304636 -0.021069858 0.06596053 -0.023492003
-0.019188842 -0.00080735056 0.0034622573 0.041240167 -0.03408129 -0.0606496 -0.02586526 -0.02882854
0.013384542 0.055930603 0.019697748 -0.054747827 0.014248321 0.044760995 0.053845745 0.0075379643
0.035428774 0.040340226 -0.035992082 0.06346944 0.019409774 -0.05365593 0.0053831283 -0.037069406
0.024819234 -0.032003812 0.026324013 -0.000709234 -0.046529103 -0.03754352 -0.037342053 -0.008650551
0.07441202 0.0035248795 0.008444156 -0.010579547 -0.016861701 -0.011084579 -0.08784994 0.021235783
00000000: 7f51 c13c 0eea 9cbc 5aa4 933c 0a7b df3d
00000010: 8c7b be3c f40c 853d 37a8 293d 6bef b9bd
00000020: e43d 4dbd 0b1d 803c 60ff 023d 1e9b b43c
00000030: 4d69 773d b765 b73c 3b73 74bc 32f7 5fbd
00000040: 43f4 b6bb 3d1a a03c 3b61 1bbd c0d3 983c
00000050: 731e 81bd b29a acbc 5016 873d 4d72 c0bc
00000060: eb31 9dbc 61a4 53ba 0ae7 623b 73eb 283d
00000070: d398 0bbd b76b 78bd 62e3 d3bc d529 ecbc
00000080: d74a 5b3c 7d17 653d 2c5d a13c 423f 60bd
00000090: ca71 693c 4e57 373d 5b8d 5c3d 0701 f73b
000000a0: c31d 113d cb3b 253d 6f6c 13bd 44fc 813d
000000b0: 3f01 9f3c 52c6 5bbd f464 b03b 17d6 17bd
000000c0: b551 cb3c 6e16 03bd 75a5 d73c e3eb 39ba
000000d0: 4d95 3ebd 3cc7 19bd fbf3 18bd 0abb 0dbc
000000e0: 5465 983d aa01 673b 5b59 0a3c d655 2dbc
000000f0: 8d21 8abc 189c 35bc abea b3bd aaf6 ad3c

hiden_layers.3.weight f4 [64, 64]
-0.019282442 0.23491333 -0.05166622 -0.044814613 0.2433547 -0.1523851 -0.21736425 0.05624209
0.18373312 0.05995375 0.1417698 -0.14250088 -0.11669367 0.22031826 0.07265776 0.044835996
0.076102614 -0.020830188 -0.020260017 -0.26104516 0.1838208 -0.1847499 -0.015509414 0.1480604
-0.030343773 -0.18944557 -0.02725732 -0.2721188 -0.0018260154 -0.021542147 -0.13041426 -0.07675608
0.026715748 -0.04451496 0.14814582 0.17602123 0.076531604 -0.20555332 0.09221896 -0.14320236
-0.117712274 -0.16335762 -0.059089344 -0.111584276 0.14533725 -0.2163788 0.2502005 0.0872034
0.13998115 0.2224298 -0.019433066 -0.11721613 0.17651677 0.048272498 0.15486948 -0.023981309
-0.09583973 0.0966239 -0.1139689 -0.15349093 0.16942939 0.22762644 0.18410036 -0.104971014
0.082803965 -0.12303482 -0.22205931 0.12119928 0.15541713 0.059497345 -0.10849479 0.14912884
0.28196242 -0.0949156 0.17249317 -0.04297512 0.09778024 -0.15028661 0.21282089 0.19597101
-0.017118253 -0.1615015 0.08151566 0.058117818 -0.082626 0.12821902 -0.09010061 0.08742705
0.011193965 0.0045291283 -0.2211627 -0.26859194 -0.06725227 -0.22549115 -0.20417848 -0.109598204
0.09736786 -0.13657546 0.10200864 0.13041279 0.22128116 -0.10709852 -0.093281366 0.13311511
-0.18736547 -0.19067556 0.16906948 -0.042641453 0.062092554 -0.246735 0.04938976 -0.17386349
0.009054544 0.016569737 0.026734991 -0.07468496 -0.1591486 -0.083741404 -0.11823906 0.04555652
0.071656875 0.15289627 0.033634942 -0.029078534 0.2031611 0.15579236 -0.12600487 0.10238597
-0.18393745 0.06675204 0.16174586 -0.18832298 0.23464115 -0.039739136 0.11046491 0.054409463
0.15478583 0.15445153 -0.15997934 0.054936294 0.01091552 0.19095695 0.07295542 -0.04756955
0.042635284 -0.2896495 -0.19454145 -0.20741132 -0.18569441 0.005527622 -0.1292071 0.13904259
-0.23738784 0.09574069 0.12075044 0.018338006 -0.19541606 -0.022258585 0.13264489 0.03778679
-0.35078156 -0.11817508 0.16025129 -0.042716973 0.10219656 -0.195137 0.17633264 0.10870323
-0.13434447 -0.01912402 -0.10879233 0.19688562 0.3086166 -0.18341462 -0.11918205 0.12768285
0.058440816 0.10252328 -0.16444176 0.13882181 0.09530167 -0.1313683 0.16308904 -0.04946281
0.22380078 -0.013725484 -0.10520172 -0.20544901 -0.1665847 -0.054650083 -0.03286169 -0.028535856
-0.14290151 -0.008330837 0.03303133 0.12132076 -0.20699966 -0.06605924 -0.11555954 -0.017812531
0.14202343 -0.010962156 -0.08761674 -0.08222552 0.044215642 -0.10166409 -0.069943465 0.10092721
0.045301493 0.0074383724 -0.05265852 -0.08766539 -0.18943553 0.22477771 0.11385414 -0.12041694
-0.04218061 -0.13656089 -0.035593253 -0.14697576 0.21134412 0.20728767 0.13887821 0.025433851
-0.13098358 0.06443316 -0.06922587 -0.0034185823 0.047149602 -0.20366283 -0.13156645 0.09035235
0.045345545 -0.20867643 -0.16108824 -0.13172138 0.2036557 0.098848544 0.21373118 0.109677576
0.19232321 0.12985054 0.22451526 -0.20446776 -0.0634124 0.024056472 0.21453528 0.1535386
0.07842901 -0.14531726 0.016457167 0.1335468 0.026976574 -0.13271087 -0.085764036 0.038670897
00000000: 36f6 9dbc 1f8d 703e f59f 53bd 878f 37bd
00000010: f931 793e d70a 1cbe bc94 5ebe 1b5e 663d
00000020: 8924 3c3e 1092 753d 1a2c 113e c0eb 11be
00000030: 17fd eebd 1c9b 613e 97cd 943d f3a5 373d
00000040: b0db 9b3d 12a4 aabc 56f8 a5bc b6a7 85be
00000050: 853b 3c3e 142f 3dbe 321b 7ebc 259d 173e
00000060: 8193 f8bc 05fe 41be be4a dfbc 2853 8bbe
00000070: e956 efba 2879 b0bc 518b 05be 4b32 9dbd
00000080: fcda da3c 5255 36bd 8ab3 173e e93e 343e
00000090: 9abc 9c3d 927c 52be 4bdd bc3d a4a3 12be
000000a0: 2213 f1bd 3847 27be ab07 72bd 4c86 e4bd
000000b0: 4ad3 143e 6792 5dbe 481a 803e b297 b23d
000000c0: 3857 0f3e a3c4 633e 1832 9fbc 030f f0bd
000000d0: d0c0 343e 62b9 453d 1b96 1e3e 7374 c4bc
000000e0: 9f47 c4bd c0e2 c53d 8768 e9bd ba2c 1dbe
000000f0: e67e 2d3e e816 693e ce84 3c3e 0bfb d6bd
00000100: 2095 a93d aef9 fbbd 8463 63be 5437 f83d
00000110: ab25 1f3e 7db3 733d 8432 debd 3bb5 183e
00000120: 615d 903e 1c63 c2bd 0da2 303e ae06 30bd
00000130: 0241 c83d bce4 19be b8ed 593e a0ac 483e
00000140: 943b 8cbc a660 25be aff1 a63d f30c 6e3d
00000150: d237 a9bd d94b 033e ab86 b8bd f40c b33d
00000160: e466 373c 1569 943b 7a78 62be e284 89be
00000170: 8fbb 89bd 27e7 66be 2a14 51be 0675 e0bd
00000180: cd68 c73d 70da 0bbe e8e9 d03d ee8a 053e
00000190: 8797 623e 7856 dbbd 4d0a bfbd 544f 083e
000001a0: bcdc 3fbe 7440 43be 8d20 2d3e cea8 2ebd
000001b0: c354 7e3d 1aa8 7cbe eb4c 4a3d 4509 32be
000001c0: 8359 143c 42bd 873c 5703 db3c 6ef4 98bd
000001d0: daf7 22be 9d80 abbd 5227 f2bd 7999 3a3d
000001e0: d7c0 923d d790 1c3e cbc4 093d 1b36 eebc
000001f0: 7709 503e 0888 1f3e 6c07 01be bcaf d13d
00000200: 195a 3cbe 4bb5 883d b5a0 253e bdd7 40be
00000210: c545 703e 81c5 22bd 6d3b e23d 75dc 5e3d
00000220: 2d80 1e3e 8b28 1e3e a0d1 23be e104 613d
00000230: 02d7 323c 388a 433e a769 953d 4ad8 42bd
00000240: 56a2 2e3d f04c 94be e035 47be a263 54be
00000250: ad26 3ebe 0e21 b53b de4e 04be 2e61 0e3e
00000260: cc15 73be b213 c43d 024c f73d 9639 963c
00000270: 261b 48be a357 b6bc 10d4 073e 52c6 1a3d
00000280: a499 b3be c705 f2bd ea18 243e fef7 2ebd
00000290: 6e4c d13d fed1 47be 8b90 343e cd9f de3d
000002a0: 9991 09be faa9 9cbc 83ce debd 629c 493e
000002b0: ff02 9e3e 0bd1 3bbe b815 f4bd 4bbf 023e
000002c0: a35f 6f3d baf7 d13d 6c63 28be 4e27 0e3e
000002d0: 862d c33d 6985 06be d000 273e 8499 4abd
000002e0: 082c 653e dae0 60bc 0074 d7bd 3a61 52be
000002f0: 2e95 2abe c4d8 5fbd fb99 06bd 07c4 e9bc
00000300: c654 12be 107e 08bc dc4b 073d 0577 f83d
00000310: b8f7 53be 114a 87bd 7baa ecbd 96eb 91bc
00000320: 976e 113e 9d9a 33bc 6870 b3bd da65 a8bd
00000330: 761b 353d 4335 d0bd 853e 8fbd edb2 ce3d
00000340: 0f8e 393d 97bd f33b 76b0 57bd e989 b3bd
00000350: 63fb 41be 212c 663e 5c2c e93d 289d f6bd
00000360: 93c5 2cbd 9ed6 0bbe 3bca 11bd d080 16be
00000370: 986a 583e 3843 543e 1736 0e3e a75a d03c
00000380: 8f20 06be 88f5 833d 4bc6 8dbd 4b0a 60bb
00000390: f11f 413d fd8c 50be 5bb9 06be a70a b93d
000003a0: 40bc 393d 46af 55be 51f4 24be f8e1 06be
000003b0: 1f8b 503e 1b71 ca3d 59dc 5a3e a39e e03d
000003c0: 60f0 443e 8af7 043e 54e7 653e ff5f 51be
000003d0: 5cde 81bd 1412 c53c 23af 5b3e 3939 1d3e
000003e0: 649f a03d 0cce 14be 2ed1 863c 7ec0 083e
000003f0: fafd dc3c 5ce5 07be 0ea5 afbd 6065 1e3d

hiden_layers.3.bias f4 [64]
-0.043090384 -0.023951404 -0.016788255 -0.03074396 -0.046268657 0.07692809 -0.029116953 -0.0060036383
-0.043635868 -0.12534162 0.0958423 -0.03629107 -0.04574779 0.010723654 0.03842249 -0.041273437
0.018866988 0.011913933 0.036817793 0.024927858 -0.043108415 -0.06769878 0.034322917 -0.03183463
0.020671206 0.026801093 0.02603991 -0.0037137861 -0.073701926 0.00014939388 0.07840444 -0.022476995
0.059801146 -0.043521196 0.061063845 -0.020450976 0.035311792 0.017476413 0.03254277 0.060817663
-0.0420178 -0.072680034 0.101282865 0.007486952 -0.035514936 0.020045653 0.043690216 0.10181123
0.010348208 -0.05240933 0.050137505 0.07715533 -0.013447446 -0.049612217 0.038239285 0.0016977398
0.06235659 0.07965502 0.01605854 -0.0074377363 0.03435566 -0.11284977 -0.01308283 -0.01082445
00000000: 8b7f 30bd bc35 c4bc 8687 89bc c2da fbbc
00000010: 3484 3dbd 798c 9d3d ad86 eebc 2bba c4bb
00000020: 86bb 32bd 8e59 00be f848 c43d f2a5 14bd
00000030: 0962 3bbd 44b2 2f3c e760 1d3d 560e 29bd
00000040: f18e 9a3c a832 433c 41ce 163d 8235 cc3c
00000050: 7392 30bd a8a5 8abd 3096 0c3d 0765 02bd
00000060: a956 a93c f78d db3c a651 d53c fe62 73bb
00000070: 09f1 96bd 9da6 1c39 8292 a03d ad21 b8bc
00000080: 0cf2 743d 4843 32bd 151e 7a3d ce88 a7bc
00000090: 19a3 103d b22a 8f3c 914b 053d f11b 793d
000000a0: db1a 2cbd 45d9 94bd 646d cf3d 1b55 f53b
000000b0: 1c78 11bd c836 a43c 83f4 323d 6882 d03d
000000c0: 888b 293c 2aab 56bd fc5c 4d3d 9d03 9e3d
000000d0: ad52 5cbc 2e36 4bbd cca0 1c3d b286 de3a
000000e0: a069 7f3d 2c22 a33d 338d 833c 41b8 f3bb
000000f0: 85b8 0c3d c81d e7bd 5e59 56bc 0959 31bc

hiden_layers.4.weight f4 [64, 64]
-0.17268082 -0.119631015 0.07959825 -0.04920263 -0.27244332 0.060372204 0.0023417538 -0.00569337
0.12124985 -0.2868426 -0.080321774 0.044506975 -0.17573425 -0.12153519 0.25120246 0.01667698
-0.017565573 -0.013863239 -0.057075754 -0.044451114 -0.19451098 -0.10961105 -0.14784071 -0.18768887
-0.04775542 -0.15976539 0.23836704 -0.042767555 -0.20720845 -0.023399329 -0.15445626 -0.19824699
-0.057885367 0.1144037 0.18718816 -0.055030145 -0.18831454 -0.06443015 0.11921266 -0.07224159
-0.078777865 -0.01772544 0.12669618 0.2133094 0.17210887 -0.1611229 -0.21168502 0.14508267
-0.19078833 -0.20041277 0.041512217 -0.16334298 -0.099959314 -0.1840847 0.027274264 0.2131835
0.005903726 0.22365649 0.13285747 -0.062574424 -0.012653473 -0.1682022 -0.17565925 0.08008146
0.109055795 -0.24511528 0.10807709 -0.16670999 0.099674664 0.08510913 -0.24761553 0.043292176
0.21664028 -0.017676001 -0.0917049 -0.21227852 0.22699147 0.24419434 0.035685446 -0.06033762
0.23403382 -0.048810378 -0.055472076 -0.2423019 -0.12212927 -0.18619996 -0.22580956 -0.15499929
0.13063997 0.027593594 -0.2062217 0.062409256 -0.15120357 0.08756445 -0.19176139 -0.14539228
-0.23171249 0.07687654 0.20894293 -0.15375683 0.2527859 -0.12073973 -0.039688326 -0.015904754
0.101414874 0.1911983 -0.03779828 0.07035106 -0.07053923 0.024977278 -0.033875115 0.007883119
0.18815862 -0.0061033657 -0.21513948 -0.02633395 0.042091332 -0.07858654 -0.11956758 -0.007912333
0.08442319 0.09084263 0.09112387 -0.07695754 -0.17413293 0.17595553 0.02435137 0.09942814
-0.008549756 0.1750507 0.19848308 0.16832952 0.06915831 -0.03762272 0.054170445 -0.19366148
0.0447507 -0.085692085 -0.21385378 -0.008643734 -0.031425856 0.062497623 -0.025320994 0.11232068
0.21757539 0.06731577 0.071282394 0.11286242 -0.088944525 0.23925103 0.15517317 -0.12357016
0.17387013 -0.16380088 0.084717594 -0.053980358 0.20561042 -0.17329577 0.030903565 0.21724333
-0.102661654 0.13596617 -0.036259063 0.25617912 0.087189816 -0.14501879 -0.061743163 0.13327669
0.13672924 -0.03220192 -0.15563062 0.11503625 -0.011986229 0.022226358 -0.02156341 0.102815464
0.09576082 0.11590944 -0.13123235 -0.22004552 -0.18371218 0.1841141 -0.002630566 -0.074164905
0.1973302 -0.13788766 0.20076801 0.114690445 0.048938856 0.23080724 -0.17821254 0.21831574
-0.21689266 -0.25556335 0.09540866 0.23824671 0.12984765 0.12990607 -0.15447687 0.26472157
0.12488035 -0.017191587 -0.15963033 -0.17629139 0.2296839 -0.07560231 -0.22095546 -0.07009432
0.07471258 -0.043321986 -0.17972313 0.08018721 -0.02856122 -0.13063139 -0.15324822 -0.09242467
-0.0053089266 -0.04665561 0.18789852 0.14837982 -0.095890194 -0.10602615 -0.20824975 -0.1880701
-0.058511917 0.21522798 -0.033528436 -0.11227626 -0.030586395 -0.06575249 -0.16787615 0.12552498
-0.17141289 0.27401313 -0.20716558 -0.11387243 -0.04861974 -0.011093738 0.07237283 0.025170054
-0.09788897 -0.08100333 0.13573909 0.04722541 0.03209525 0.22004193 -0.12855978 -0.15479614
0.07208777 0.09281999 -0.14499687 0.26174447 0.112552315 0.053178616 -0.14209965 0.15068161
00000000: 3ed3 30be 1b01 f5bd 6804 a33d b288 49bd
00000010: b17d 8bbe d848 773d 1c78 193b 738f babb
00000020: d751 f83d 09dd 92be be7f a4bd f24c 363d
00000030: aef3 33be 71e7 f8bd 9c9d 803e 299e 883c
00000040: ade5 8fbc a422 63bc 44c8 69bd 5f12 36bd
00000050: e32d 47be c27b e0bd 8e63 17be 8331 40be
00000060: 309b 43bd 8a99 23be 7d16 743e 082d 2fbd
00000070: 742e 54be f3af bfbc c829 1ebe 4201 4bbe
00000080: 3519 6dbd 7d4c ea3d 41ae 3f3e 4a67 61bd
00000090: 87d5 40be f4f3 83bd c425 f43d 66f3 93bd
000000a0: 4a56 a1bd f134 91bc a5bc 013e c86d 5a3e
000000b0: 4f3d 303e 67fd 24be f5c3 58be 8d90 143e
000000c0: 045e 43be 0139 4dbe b708 2a3d 6243 27be
000000d0: 78b7 ccbd b380 3cbe 476e df3c c74c 5a3e
000000e0: 0b74 c13b 3506 653e ca0b 083e 0527 80bd
000000f0: 8350 4fbc 333d 2cbe 05e0 33be c001 a43d
00000100: a558 df3d 80ff 7abe 8557 dd3d 06b6 2abe
00000110: 3b22 cc3d b24d ae3d ed8e 7dbe 2353 313d
00000120: f3d6 5d3e 43cd 90bc c7cf bbbd 8a5f 59be
00000130: 7470 683e 150e 7a3e e72a 123d 9524 77bd
00000140: 90a6 6f3e 64ed 47bd b036 63bd fd1d 78be
00000150: e91e fabd 34ab 3ebe 9f3a 67be 22b8 1ebe
00000160: 7cc6 053e f60b e23c c82b 53be d9a0 7f3d
00000170: 1cd5 1abe fe54 b33d 195d 44be b7e1 14be
00000180: 0a46 6dbe 7371 9d3d 23f5 553e 6e72 1dbe
00000190: 276d 813e 6446 f7bd 3a90 22bd b04a 82bc
000001a0: 9ab2 cf3d 7dc9 433e 5fd2 1abd 3714 903d
000001b0: df76 90bd 269d cc3c a2c0 0abd 3328 013c
000001c0: a7ac 403e befe c7bb 864d 5cbe 4cba d7bc
000001d0: f667 2c3d fbf1 a0bd d9df f4bd bba2 01bc
000001e0: 11e6 ac3d b30b ba3d 279f ba3d ea9b 9dbd
000001f0: e74f 32be b02d 343e 867c c73c fba0 cb3d
00000200: 4714 0cbc 7e40 333e 263f 4b3e 935e 2c3e
00000210: dfa2 8d3d 481a 1abd d4e1 5d3d 324f 46be
00000220: 834c 373d 557f afbd 7cfc 5abe 739e 0dbc
00000230: 66b8 00bd 82fd 7f3d f96d cfbc 6208 e63d
00000240: 15cc 5e3e dadc 893d 81fc 913d 6a24 e73d
00000250: 8c28 b6bd 39fe 743e b7e5 1e3e 5a12 fdbd
00000260: 030b 323e 6bbb 27be 6b80 ad3d 821a 5dbd
00000270: 8a8b 523e 7274 31be 7929 fd3c 0975 5e3e
00000280: 4640 d2bd b73a 0b3e 6284 14bd e929 833e
00000290: 9390 b23d ce7f 14be 66e6 7cbd af79 083e
000002a0: c002 0c3e 29e6 03bd a25d 1fbe 2098 eb3d
000002b0: e361 44bc 0d14 b63c c0a5 b0bc ea90 d23d
000002c0: 401e c43d ee61 ed3d c661 06be 9d53 61be
000002d0: 0c1f 3cbe 6888 3c3e 9365 2cbb c5e3 97bd
000002e0: ee10 4a3e 6c32 0dbe 2196 4d3e d3e2 ea3d
000002f0: 1c74 483d bc58 6c3e 597d 36be 298e 5f3e
00000300: 1c19 5ebe 33d9 82be 9e65 c33d f2f6 733e
00000310: c8f6 043e 1906 053e 2f2f 1ebe 9689 873e
00000320: 45c1 ff3d 5fd5 8cbc 2276 23be bb85 34be
00000330: 4232 6b3e 62d5 9abd 2642 62be 9c8d 8fbd
00000340: e902 993d 6572 31bd 5709 38be 3139 a43d
00000350: 38f9 e9bc 3cc4 05be 1aed 1cbe 2549 bdbd
00000360: 81f6 adbb f419 3fbd 7868 403e e1f0 173e
00000370: 1462 c4bd 3d24 d9bd 6c3f 55be 7395 40be
00000380: 31aa 6fbd b964 5c3e 1d55 09bd 19f1 e5bd
00000390: 5290 fabc 3ea9 86bd bae7 2bbe 9f89 003e
000003a0: dc86 2fbe 734b 8c3e 3723 54be f335 e9bd
000003b0: 7e25 47bd 82c2 35bc 3538 943d 6e31 ce3c
000003c0: 037a c8bd 13e5 a5bd 30ff 0a3e 6e6f 413d
000003d0: 4f76 033d ac52 613e 2da5 03be e182 1ebe
000003e0: c1a2 933d 6818 be3d 0f7a 14be 5f03 863e
000003f0: d481 e63d d2d1 593d 9282 11be 484c 1a3e

hiden_layers.4.bias f4 [64]
0.05058358 -0.020614544 -0.07089926 -0.061712172 -0.0692338 0.024857795 0.06580894 0.01110743
-0.088226624 0.043739565 0.023027612 -0.04403199 -0.037201226 -0.040035434 0.025298018 0.038987957
0.031158946 0.012599246 0.017517157 -0.055017155 -0.04237815 0.055787247 0.01659394 -0.03950225
-0.046543162 -0.07251594 -0.016078748 0.015087673 0.00812936 -0.066819414 -0.04981568 0.087192856
-0.01990799 -0.08137284 -0.08379499 -0.06244652 0.037310325 0.0055478 -0.0043911766 -0.022040822
0.072425194 -0.006852838 -0.038127065 -0.05364971 -0.01777814 0.05930859 0.06738043 -0.1253241
0.088792816 0.040323213 -0.049309406 -0.0018369816 -0.030133987 -0.0082732 0.024050804 -0.0050246306
0.102501675 0.016217656 -0.011395824 -0.015691023 0.054660987 -0.017547425 -0.042094976 -0.020791072
00000000: ba30 4f3d d5df a8bc a233 91bd e7c5 7cbd
00000010: 73ca 8dbd 93a2 cb3c d6c6 863d f0fb 353c
00000020: 29b0 b4bd 4228 333d 67a4 bc3c e35a 34bd
00000030: 5060 18bd 32fc 23bd ca3d cf3c d6b1 1f3d
00000040: 0c41 ff3c 116d 4e3c 2480 8f3c ab59 61bd
00000050: b694 2dbd 2b81 643d 04f0 873c 1ccd 21bd
00000060: 0ba4 3ebd 3d83 94bd 94b7 83bc 4a32 773c
00000070: 0231 053c 9ed8 88bd 870b 4cbd 2b92 b23d
00000080: 1516 a3bc cea6 a6bd b59c abbd ecc7 7fbd
00000090: b6d2 183d 52ca b53b dce3 8fbb f48e b4bc
000000a0: a953 943d c68d e0bb 202b 1cbd ccbf 5bbd
000000b0: 76a3 91bc 90ed 723d c0fe 893d f654 00be
000000c0: 02d9 b53d f429 253d a9f8 49bd e0c6 f0ba
000000d0: 8ddb f6bc 518c 07bc 3106 c53c a8a5 a4bb
000000e0: 66ec d13d e4da 843c 8db5 3abc 768a 80bc
000000f0: 33e4 5f3d 9ebf 8fbc c86b 2cbd 0a52 aabc
