results/13_less_points_around/epoch30/model_weights.pth (torch, 486655 bytes, 88 tensors)

init_layer.0.weight f4 [64, 5]
0	0xbdbefc8a	-0.09325512
1	0x3e268066	0.16259918
2	0x3e9a54be	0.30142778
3	0xbe82da45	-0.2555715
4	0xbe4d3934	-0.20041353
5	0x3eac1a45	0.33613792
6	0x3e921b59	0.2853649
7	0x3e9ad4f8	0.30240607
8	0xbd88c99d	-0.0667908
9	0xbe72d70a	-0.23714843
10	0xbeaebdf7	-0.34129307
11	0x3db4a9f0	0.088214755
12	0xbe909f7c	-0.28246677
13	0xbe8efdf8	-0.27928138
14	0xbe32e618	-0.17470586
15	0xbe0f5573	-0.1399744
16	0xbe647eb9	-0.22313966
17	0x3e4460f3	0.19177608
18	0x3e964fa2	0.2935763
19	0xbdd03a6f	-0.10167395
20	0xbea7a51f	-0.32743165
21	0xbe01f7a7	-0.12692128
22	0xbcfc534d	-0.03080144
23	0x3e21b1df	0.15790509
24	0x3e5df813	0.21676664
25	0x3e8475bd	0.25871077
26	0x3e2d80d2	0.16943672
27	0x3ea32777	0.31866047
28	0x3e37943d	0.17927642
29	0xbe5a060e	-0.21291372
30	0x3eab00c5	0.33399025
31	0xbe460902	-0.19339374
32	0xbd64f844	-0.055900827
33	0xbe070ce4	-0.13188511
34	0xbe8fbd0d	-0.28073922
35	0xbe175bd8	-0.1478113
36	0x3e173f62	0.14770272
37	0x3e11e98e	0.1424925
38	0xbe23adde	-0.15984294
39	0x3e820649	0.2539542
40	0xbe195187	-0.14972506
41	0xbdda2ad7	-0.10652702
42	0x3e4b9c2f	0.19883798
43	0x3e5daf85	0.21648987
44	0xbdfa83f2	-0.12232198
45	0xbe14b322	-0.14521459
46	0xbe5eb7af	-0.21749757
47	0xbdf721a1	-0.12066961
48	0x3cf1b16c	0.029503547
49	0xbe856f47	-0.2606146
50	0xbd06bec2	-0.032896765
51	0x3d338107	0.043824222
52	0x3dde798e	0.108630285
53	0x3c6c2b98	0.01441469
54	0x3d8db1fc	0.069187135
55	0xbe37eb8d	-0.17960949
56	0xbe290ce9	-0.16508831
57	0x3e885936	0.26630563
58	0x3ca22f3b	0.019797912
59	0xbd2064c8	-0.039158612
60	0xbe8798da	-0.26483804
61	0xbe725926	-0.2366682
62	0x3d5fd175	0.054643113
63	0x3dc2c017	0.095092945
64	0x3e8134bf	0.25235555
65	0xbe1642f9	-0.14673986
66	0xbe28206b	-0.16418616
67	0xbbcef3e3	-0.0063156947
68	0x3d613f62	0.054992087
69	0x3e654618	0.2239002
70	0x3de2d1b9	0.11075158
71	0xbe0a8e67	-0.13530885
72	0xbe08e659	-0.1336912
73	0xbc994adc	-0.018712454
74	0xbe8fc617	-0.28080818
75	0xbd48d3a8	-0.049029976
76	0x3e351715	0.17684586
77	0x3e94f6ed	0.2909464
78	0x3deef7a8	0.116683304
79	0xbe5e8738	-0.2173127
80	0xbe702c7c	-0.2345447
81	0x3d3c46d9	0.045966003
82	0xbd373a60	-0.044733405
83	0x3c13066f	0.008973702
84	0x3d9d236a	0.0767277
85	0x3e7e4f3c	0.24834913
86	0x3e2f6007	0.17126475
87	0xbdd8e863	-0.10591199
88	0x3e2a9745	0.16659267
89	0xbe20418c	-0.15650004
90	0x3d155248	0.036455423
91	0xbc9b0aa1	-0.018925967
92	0xbe846fbf	-0.25866506
93	0x3e6550db	0.22394125
94	0x3e1cb0aa	0.15301767
95	0x3e452265	0.19251402
96	0xbe00fa96	-0.12595591
97	0x3d9ca32d	0.07648311
98	0x3e55edb3	0.20891456
99	0x3d9b600b	0.07586678
100	0xbe07b82e	-0.13253853
101	0xbea8ae00	-0.3294525
102	0x3d1f6439	0.03891394
103	0x3dbf1154	0.09329477
104	0xbe4f581d	-0.20248456
105	0xbe04d2d4	-0.1297105
106	0x3e935f5e	0.28783697
107	0x3dd24482	0.10266973
108	0xbded0034	-0.11572304
109	0xbe6972cf	-0.22797702
110	0x3c82d608	0.015971199
111	0x3e55815a	0.20850125
112	0x3c171964	0.009222362
113	0xbe8a1543	-0.26969346
114	0x3e08c285	0.13355453
115	0xbe1c3144	-0.15253168
116	0x3e00c6b3	0.12575798
117	0x3e0dfb91	0.13865496
118	0x3dd4551f	0.10367798
119	0xbe7703b5	-0.24122508
120	0x3e4bdc00	0.19908142
121	0xbd7d9eaf	-0.06191891
122	0x3d9b0e6b	0.075711094
123	0x3df14731	0.11781157
124	0x3e461845	0.19345196
125	0x3e84c53e	0.25931734
126	0x3e56deab	0.20983379
127	0x3d85cadd	0.06532834
128	0x3e52b49e	0.20576712
129	0x3d97694e	0.07393132
130	0xbdefcfc8	-0.11709553
131	0x3e8e6910	0.2781453
132	0xbd2c9a84	-0.042139545
133	0xbc9bb4e9	-0.019007163
134	0x3cd59400	0.026071548
135	0x3e3dba26	0.18528041
136	0x3e050a21	0.12992145
137	0xbe3e1311	-0.18561961
138	0x3df6b9a3	0.12047126
139	0x3d16ca06	0.03681376
140	0xbe0c7153	-0.13715105
141	0x3e3b60fe	0.18298718
142	0xbe810732	-0.25200802
143	0x3d91d046	0.07119803
144	0x3e36aab7	0.1783856
145	0x3d7a7eb0	0.061155975
146	0xbe403ebb	-0.1877393
147	0xbca70a5d	-0.020390684
148	0xbd32ce1e	-0.0436536
149	0x3d96d04a	0.07363947
150	0xbe9b5f1c	-0.30346
151	0xbdb8ac5e	-0.090172514
152	0x3d6ec23e	0.058290713
153	0x3e0c6beb	0.13713042
154	0xbe82e995	-0.25568834
155	0xbe7b7254	-0.24555331
156	0x3e86731f	0.26259705
157	0x3e0467d9	0.1293024
158	0xbe6de9d2	-0.23233727
159	0xbcfb25cb	-0.03065767
160	0x3e9bebaa	0.30453235
161	0xbd536d1a	-0.05161772
162	0x3e8919c8	0.26777482
163	0x3dd6724f	0.104710214
164	0x3b1469c1	0.0022646042
165	0xbd1a795e	-0.0377134
166	0xbea17de3	-0.31541356
167	0xbdeec605	-0.11658863
168	0x3d2c4ea8	0.0420672
169	0xbc8b4361	-0.016999902
170	0x3dfeb9cc	0.12437782
171	0xbe348102	-0.17627338
172	0xbd6941ec	-0.056947634
173	0x3d384a84	0.04499294
174	0xbdc5ac2c	-0.0965198
175	0x3e54a2d8	0.20765245
176	0x3d6e1d46	0.058133386
177	0x3dd6e9cd	0.10493813
178	0xbe8ded26	-0.27719992
179	0x3ded64ff	0.11591529
180	0xbe8d33fb	-0.2757872
181	0x3cbde0ad	0.023178423
182	0x3dc03af3	0.09386244
183	0x3e5ddf38	0.21667182
184	0x3e795621	0.24349262
185	0xbe042731	-0.12905575
186	0xbe2b5311	-0.16730906
187	0xbdcd46f1	-0.100232966
188	0xbe3755b3	-0.17903785
189	0xbe4cab69	-0.19987263
190	0xbe35050d	-0.17677708
191	0xbde48e25	-0.111599244
192	0xbe1f07ea	-0.15530363
193	0xbcf0d139	-0.02939664
194	0x3d74d09d	0.05976926
195	0xbe327783	-0.17428403
196	0x3e76f929	0.24118485
197	0x3cc41665	0.02393646
198	0xbe1ecea8	-0.1550852
199	0x3db20a5c	0.08693382
200	0x3c19baed	0.0093829455
201	0xbe2138f3	-0.1574438
202	0x3e6015d3	0.21883325
203	0x3e41acd3	0.18913583
204	0x3d6c8bbc	0.05775045
205	0x3e59727b	0.21235077
206	0x3dc93de1	0.098262556
207	0xbe0d3547	-0.13789855
208	0x3d9c8598	0.076426685
209	0x3e1c7250	0.15277982
210	0x3e57287c	0.21011537
211	0x3bd2055d	0.0064093308
212	0xbe155881	-0.14584543
213	0x3e742c8d	0.2384512
214	0xbe88ea28	-0.26741147
215	0xbd9c00e6	-0.07617359
216	0x3d9bb65c	0.07603142
217	0x3e4c83ae	0.19972107
218	0x3e6649ff	0.22489165
219	0x3e1776f8	0.14791477
220	0xbcd6cd27	-0.026220871
221	0xbd0af744	-0.033927217
222	0xbe6b53ae	-0.2298114
223	0x3cd5f6e4	0.026118703
224	0xbe3260f5	-0.17419799
225	0x3e84ebf3	0.25961265
226	0xbe454e18	-0.19268072
227	0x3e83b223	0.25721845
228	0xbe866fa8	-0.26257062
229	0xbe62f5be	-0.22164056
230	0x3e90a76c	0.28252733
231	0xbe9125c6	-0.2834913
232	0xbe62930f	-0.22126411
233	0x3e3edf23	0.18639807
234	0x3df4f806	0.11961369
235	0xbe851b0b	-0.25997195
236	0xbd846d60	-0.06466174
237	0x3d43f747	0.047843244
238	0x3dd018f0	0.101610065
239	0x3e7d02ff	0.24708174
240	0x3e414c34	0.18876725
241	0x3dd2c28c	0.10291013
242	0xbe2a599a	-0.16635743
243	0x3e2fd650	0.17171597
244	0xbe92e143	-0.28687486
245	0x3e02a9ab	0.12760036
246	0x3c3e3143	0.011608425
247	0xbe8ac712	-0.27105004
248	0xbe8ed511	-0.27896932
249	0x3e45f02a	0.19329897
250	0xbe2a4baa	-0.16630426
251	0x3ea59c27	0.32345697
252	0xbdfa3ebf	-0.12218999
253	0x3e7ac125	0.24487741
254	0xbda91e7d	-0.08257768
255	0xbe98bb48	-0.29830384

init_layer.0.bias f4 [64]
0	0x3c448f6c	0.011997085
1	0x3dad7c51	0.08470977
2	0xbd8cb0b1	-0.06869639
3	0xbd8f98d4	-0.070115715
4	0xbd8a04b6	-0.0673918
5	0xbc919d35	-0.017775157
6	0x3b9f5776	0.004862721
7	0x3daa23da	0.083076194
8	0xbd94230d	-0.07233248
9	0xbd87fa81	-0.06639577
10	0x3d66c036	0.05633565
11	0x3dfeeab8	0.12447113
12	0x3d9b9aea	0.07597907
13	0xbd8609d7	-0.065448456
14	0x3c56a143	0.013099971
15	0xbd9b5c1d	-0.075859286
16	0xbd8f2eee	-0.06991373
17	0x3bebff1a	0.0072020413
18	0xbdbd8c77	-0.09255307
19	0x3d85142a	0.064979866
20	0xbc36b376	-0.011151185
21	0xbd55ba59	-0.052179668
22	0x3dc29986	0.095019385
23	0x3cc08d24	0.023504801
24	0x3cd091c1	0.025460126
25	0x3d5dd937	0.05416223
26	0x3df3f693	0.11912265
27	0x3dc2e988	0.09517199
28	0xbc3b4ff2	-0.011432635
29	0x3d9a60ee	0.07538019
30	0x3c23e454	0.010003168
31	0x3c52707c	0.012844201
32	0x3de663ff	0.112495415
33	0xbdcbedf9	-0.09957499
34	0xbe02fd24	-0.12791878
35	0xbd2da51d	-0.042393792
36	0xbd048d8b	-0.03236155
37	0xbc334c02	-0.010943415
38	0x3dcdd55a	0.10050459
39	0x3dd6573f	0.104658596
40	0xbdc32c7a	-0.095299676
41	0x3cefe6f1	0.029284926
42	0x3dc15bf2	0.09441365
43	0xbda4f006	-0.08053593
44	0x3cee0727	0.029056145
45	0x3d6af106	0.057358764
46	0xb91453c1	-0.0001414558
47	0x3dc46596	0.095896885
48	0x3d654bb2	0.05598039
49	0x3dca442d	0.09876285
50	0xbd9bce4e	-0.07607709
51	0x3d9fd23b	0.0780377
52	0x3d903419	0.07041187
53	0x3ddb184d	0.106979944
54	0x3d41226c	0.047151968
55	0xba92ca32	-0.0011199175
56	0xbd84a578	-0.06476873
57	0x3c5eb878	0.013593785
58	0xbd46d785	-0.04854538
59	0xbd8718de	-0.0659654
60	0x3b9003b2	0.0043949718
61	0xbd8371f9	-0.06418223
62	0xbd890a8d	-0.066914655
63	0x3c8298fa	0.015942086

hiden_layers.0.weight f4 [64, 64]
0	0x3de0fc44	0.10985616
1	0x3df30144	0.11865476
2	0x3e5529d3	0.20816736
3	0x3dd66a33	0.10469475
4	0xbe2b0359	-0.16700496
5	0xbd7dfb54	-0.062007263
6	0xbe4ec11c	-0.20190853
7	0x3cfcd5b4	0.03086362
8	0x3dd0c61d	0.10194037
9	0x3e15308c	0.145693
10	0x3ce3b196	0.02779464
11	0xbd23d568	-0.039998442
12	0xbdd8bdf4	-0.10583106
13	0x3e0b2503	0.13588338
14	0xbe226502	-0.15858844
15	0xbc9f92de	-0.019479211
16	0x3dbdbc81	0.0926447
17	0xbe3ebeb9	-0.18627442
18	0xbdfb7676	-0.12278454
19	0x3db9fd92	0.09081568
20	0x3e4a57b1	0.19760014
21	0xbe1163b7	-0.14198194
22	0x3e5f1574	0.21785527
23	0xbe1b3b25	-0.1515928
24	0xbdf72aeb	-0.12068733
25	0xbd81a510	-0.06330311
26	0xbc0689d6	-0.008211574
27	0xbe5b9186	-0.21442232
28	0x3e5107f6	0.20413193
29	0xbe245f91	-0.1605208
30	0xbe31d5d2	-0.17366722
31	0xbd206cd5	-0.03916629
32	0xbe49e68d	-0.19716854
33	0xbcbe62c5	-0.023240456
34	0x3d6b7655	0.057485897
35	0x3d84024f	0.06445753
36	0xbe0bb9d7	-0.13645111
37	0x3e558ac6	0.20853719
38	0x3e124a5e	0.14286181
39	0x3d3f8574	0.04675813
40	0x3da75886	0.081711814
41	0xbe4e8828	-0.20169127
42	0x3d17f4f5	0.037098844
43	0xbd042df6	-0.032270394
44	0x3d96b3f7	0.07358544
45	0xbe48f826	-0.19625911
46	0xbdd40565	-0.103525914
47	0x3c4a1f69	0.01233659
48	0x3e0d80e9	0.13818707
49	0x3e0b41d8	0.13599336
50	0xbdf431a4	-0.11923531
51	0x3dd3946b	0.10331043
52	0x3e07191f	0.13193177
53	0x3da37646	0.07981543
54	0xbe6338af	-0.22189592
55	0xbe178726	-0.14797649
56	0xbd470a4d	-0.048593808
57	0xbd6df84a	-0.058098115
58	0xbe3a3f33	-0.18188171
59	0xbc87a09f	-0.016556082
60	0xbe4cb46f	-0.19990705
61	0xbd0e3a04	-0.034723297
62	0x3da1ca15	0.07899872
63	0x3e21e1f5	0.15808852
64	0xbd6704a3	-0.056400906
65	0xbe6a7a6a	-0.2289826
66	0xbd754044	-0.05987574
67	0x3db431f3	0.087985896
68	0x3dcb1481	0.0991602
69	0xbe42b1ea	-0.19013181
70	0xbe18901d	-0.14898725
71	0xbbe810ba	-0.007082072
72	0xbde9f1ed	-0.11423097
73	0xbda92ff2	-0.08261098
74	0x3ddbdeec	0.10735878
75	0xbe182187	-0.1485654
76	0xbe047cee	-0.12938282
77	0xbdf04c45	-0.11733297
78	0xbce28045	-0.027649054
79	0xbe00d4e3	-0.1258121
80	0x3e3d4cb5	0.18486293
81	0x3d8389da	0.064227775
82	0x3dc86002	0.09783937
83	0xbe07d4f8	-0.13264835
84	0x3dadca86	0.08485894
85	0xbd25c971	-0.040475313
86	0xbde66e1e	-0.11251472
87	0xbe450f5e	-0.19244143
88	0x3cf35e96	0.029708188
89	0xbe3545ce	-0.1770241
90	0xbe28e43d	-0.16493316
91	0xbdb4dac0	-0.08830786
92	0xbe1e90a0	-0.15484858
93	0x3df39127	0.1189292
94	0x3dd792b3	0.105260275
95	0x3e17c839	0.14822473
96	0x3e2ef6e4	0.17086369
97	0x3d837cf2	0.06420316
98	0x3e115b3d	0.14194961
99	0xbe5ddc46	-0.21666059
100	0x3e1a98f7	0.15097414
101	0x3e83564f	0.25651786
102	0x3e25f0e4	0.16205174
103	0xbe4521ce	-0.19251177
104	0xbe3e69a0	-0.1859498
105	0xbe8637d5	-0.2621447
106	0xbcb479d8	-0.022030756
107	0x3d80a8c4	0.062821895
108	0xbdffc812	-0.12489332
109	0xbc7245fb	-0.014787192
110	0xbe5973af	-0.21235536
111	0x3dcaf834	0.09910622
112	0x3b4ef12d	0.0031576857
113	0xbe36da77	-0.17856775
114	0x3dc8620e	0.097843274
115	0xbdfeae84	-0.1243563
116	0xbcaf05c2	-0.02136505
117	0xbe201807	-0.15634166
118	0xbdc8f187	-0.09811693
119	0xbd92e0df	-0.07171797
120	0x3ddd8409	0.10816199
121	0xbd91e112	-0.07123007
122	0x3e78447c	0.24244875
123	0x3d20b6f7	0.03923699
124	0xbdac9315	-0.08426491
125	0xbe3c5e5c	-0.1839537
126	0x3e581182	0.21100429
127	0xbe5df360	-0.21674871
128	0x3cc0a6ea	0.02351709
129	0xbd9c42da	-0.076299384
130	0xbe1b4cc3	-0.15166001
131	0xbe2f3d32	-0.17113188
132	0x3df15e3a	0.117855504
133	0x3d6769a9	0.05649725
134	0xbdc169e2	-0.09444024
135	0xbe2e4c0b	-0.17021196
136	0x3e270975	0.16312201
137	0x3e2de41b	0.16981547
138	0xbdae7954	-0.08519235
139	0x3de21549	0.11039216
140	0xbcf6e311	-0.03013757
141	0x3dd31313	0.103063725
142	0x3d8411c2	0.064486995
143	0x3da323b7	0.079657964
144	0xbb44a250	-0.0030003972
145	0x3e1ec843	0.15506081
146	0xbca17485	-0.019708881
147	0x3b3369d0	0.0027376302
148	0x3dc3281b	0.09529134
149	0xbe33c031	-0.17553784
150	0xbd838202	-0.064212814
151	0xbda7fd61	-0.08202625
152	0x3daa0454	0.08301607
153	0x3d180cd2	0.0371216
154	0x3e02f394	0.1278823
155	0x3d87e7f0	0.066360354
156	0x3cd2bcfa	0.025724877
157	0x3e09541a	0.13410988
158	0xbe1013ba	-0.14070025
159	0xbe492dc7	-0.19646369
160	0x3e08f806	0.13375863
161	0x3d2e6a6b	0.042581957
162	0x3caa98e4	0.020824857
163	0x3cc5a2c7	0.02412547
164	0xbe4ef2ed	-0.20209856
165	0x3dac91cf	0.08426248
166	0xbd47768f	-0.04869705
167	0x3e130719	0.14358176
168	0xbdf1b746	-0.11802535
169	0x3e04c76d	0.129667
170	0x3cb29536	0.021799665
171	0x3e1537da	0.14572087
172	0x3e199fb0	0.15002322
173	0xbdccb466	-0.09995346
174	0xbce38f0b	-0.02777817
175	0x3d855abd	0.065114476
176	0x3e331887	0.17489825
177	0x3d46b3d5	0.048511345
178	0x3e21ab97	0.15788113
179	0xbe50d685	-0.20394333
180	0xbe01e596	-0.12685236
181	0x3e1f7da1	0.15575267
182	0xbab9a064	-0.001416218
183	0xbe137f2e	-0.14403984
184	0x3ca3babf	0.019986508
185	0x3da110e5	0.078645505
186	0xbdc3d6a8	-0.09562427
187	0xbd08f8c2	-0.03344036
188	0x3e08684b	0.13321035
189	0x3d7c0a27	0.06153312
190	0x3d8f90d5	0.070100464
191	0xbe5c06bb	-0.21486942
192	0xbe4bc6b2	-0.19900015
193	0x3da3ddd7	0.08001297
194	0x3dc89e44	0.09795812
195	0xbe1f2ef4	-0.15545255
196	0xbe4fe657	-0.20302711
197	0xbe0be4a9	-0.13661446
198	0x3e55d6fe	0.20882794
199	0x3e37b3b5	0.17939647
200	0xbe41c76d	-0.18923731
201	0x3d1fdf00	0.03903103
202	0x3e4bf733	0.19918518
203	0x3d2adcd0	0.04171449
204	0x3e475b13	0.19468336
205	0xbe34d70c	-0.17660159
206	0x3de63b1f	0.11241745
207	0xbddb2b81	-0.10701657
208	0xbd3c76bb	-0.046011668
209	0x3db0a9e0	0.08626151
210	0x3da8253b	0.08210226
211	0x3e2486d5	0.1606706
212	0xbd7d266d	-0.061804224
213	0x3c6bc702	0.014390709
214	0x3db77082	0.08957006
215	0xbe49d267	-0.19709168
216	0x3d9bf27b	0.07614609
217	0xbd8bf2bf	-0.068334095
218	0x3e094013	0.13403349
219	0x3d683d09	0.056698833
220	0x3d6ec013	0.058288645
221	0x3b1f7c5b	0.0024335596
222	0x3d678b5b	0.056529384
223	0x3dd8c359	0.105841346
224	0xbae16951	-0.0017197524
225	0x3c87b12f	0.01656398
226	0x3e09250e	0.13393041
227	0x3cf7ad3c	0.030233972
228	0x3c88704b	0.016655108
229	0x3d815edd	0.06316922
230	0x3e4f8c1e	0.20268294
231	0x3de0c6e6	0.10975437
232	0xbe168d96	-0.14702448
233	0xbd1dab26	-0.038493298
234	0x3d139f62	0.03604067
235	0xbdd34943	-0.10316708
236	0x3e83bfc2	0.25732237
237	0x3e25a029	0.16174378
238	0x3e0bf519	0.13667716
239	0xbbc58ed1	-0.006028988
240	0xbdd6b871	-0.10484398
241	0xbdd84795	-0.10560528
242	0xbe41ab4f	-0.18913005
243	0x3e061d70	0.13097167
244	0x3d2f8d84	0.04285957
245	0xbcac31a8	-0.021019772
246	0x3dab579b	0.08366319
247	0x3dce1ae8	0.10063726
248	0x3db53249	0.08847482
249	0xbd853aff	-0.06505393
250	0x3e548029	0.20752014
251	0x3e262e5f	0.16228627
252	0xbe2204a3	-0.15822081
253	0xbdba67cb	-0.09101828
254	0x3e135c82	0.14390758
255	0xbde1e3cd	-0.11029778

hiden_layers.0.bias f4 [64]
0	0xbd196abd	-0.03745531
1	0xbd009914	-0.031395987
2	0xba863d00	-0.0010241568
3	0x3d9528f5	0.072832026
4	0x3d842e04	0.06454089
5	0x3ca26989	0.019825714
6	0x3ddcc433	0.107796095
7	0x3d983205	0.074314155
8	0x3cfc9c52	0.030836258
9	0x3c1850a0	0.009296566
10	0xbd6b696a	-0.057473578
11	0xbc94c987	-0.018162502
12	0xbd794985	-0.06086113
13	0x3ce2e4f7	0.02769707
14	0xbd2fc441	-0.04291177
15	0x3d7f6f59	0.06236205
16	0x3ca93170	0.020653456
17	0x3d2a0081	0.041504387
18	0xbc3e4671	-0.011613474
19	0x3d930ed1	0.071805604
20	0xbd7e2e19	-0.06205568
21	0x3c82ff90	0.015991002
22	0xbdbdebab	-0.09273466
23	0x3dab60ca	0.083680704
24	0xbbbfd239	-0.005853918
25	0x3dad54b4	0.084634215
26	0xbda9b347	-0.082861476
27	0xbd880d2a	-0.06643136
28	0xbd5859b7	-0.052819934
29	0x3b937f25	0.004501241
30	0xbd893a20	-0.067005396
31	0xbcd2be43	-0.02572549
32	0xbe003d56	-0.12523398
33	0xbd04809f	-0.032349225
34	0x3dcf36ca	0.10117872
35	0xbd101106	-0.035172485
36	0x3cf8c80b	0.030368825
37	0x3da2f794	0.07957378
38	0xbb841f0e	-0.0040320223
39	0xbd500f9f	-0.050796147
40	0x3d62783c	0.055290446
41	0x3d935a55	0.07194964
42	0xbda1749d	-0.0788357
43	0x3d7d98ef	0.061913427
44	0xbc89594e	-0.016766217
45	0xbdcdd9de	-0.100513205
46	0x3c995c17	0.01872067
47	0xbad52e18	-0.0016264347
48	0x3acbc833	0.0015547335
49	0xbd16c6d0	-0.036810696
50	0xbd5a8911	-0.053353373
51	0x3c7749f7	0.015093318
52	0x3cba0f8a	0.022712488
53	0xbaf5db92	-0.0018757454
54	0xbe03f790	-0.12887406
55	0xbd06405e	-0.03277623
56	0x3d92bd57	0.0716502
57	0x3d8d7b8e	0.06908332
58	0xbd500fcd	-0.05079632
59	0xbd81677e	-0.06318568
60	0xbd1df442	-0.03856302
61	0xbd41f27f	-0.047350403
62	0x3cd63590	0.026148587
63	0xbda0b162	-0.07846333

hiden_layers.1.weight f4 [64, 64]
0	0xbdcf040f	-0.10108196
1	0xbd1b73ca	-0.037952222
2	0xbe13bd57	-0.14427696
3	0x3b878b96	0.004136513
4	0x3e211662	0.15731195
5	0xbe37a5b5	-0.17934306
6	0xbea4a7f0	-0.32159376
7	0x3ce1069a	0.027468968
8	0xbe1ad110	-0.15118814
9	0xbe2d0f63	-0.16900401
10	0x3dd3f924	0.10350254
11	0x3d861483	0.06546881
12	0xbda0fa58	-0.07860249
13	0x3d7f3223	0.062303673
14	0xbe12148a	-0.14265648
15	0xbe80b1b9	-0.25135592
16	0x3e89810c	0.26856267
17	0x3dc6203b	0.09674116
18	0xbe0569c5	-0.13028629
19	0xbcf5b841	-0.029995086
20	0x3d8d1050	0.06887877
21	0x3e2cbf76	0.16869912
22	0xbde6a3b4	-0.11261693
23	0xbdcf986b	-0.10136493
24	0xbe6bee36	-0.23040089
25	0x3e07fab5	0.13279231
26	0xbc4d6c61	-0.012538047
27	0x3e31d26f	0.1736543
28	0xbe38ba52	-0.18039826
29	0x3e0aa933	0.13541107
30	0x3e183f09	0.14867796
31	0x3da7a331	0.08185423
32	0xbd96de1e	-0.07366584
33	0x3e72eaea	0.23722425
34	0x3dc8543d	0.09781692
35	0x3deccaab	0.11562093
36	0xbddcd6fb	-0.10783192
37	0x3dd2e447	0.10297447
38	0xbe94f3b5	-0.29092184
39	0x3e1b7cfc	0.15184397
40	0x3e51cb80	0.20487785
41	0x3e32ff84	0.17480284
42	0x3e00214b	0.125127
43	0xbe2c15d6	-0.16805205
44	0x3e79d50a	0.24397674
45	0x3e291d11	0.16514994
46	0x3e1adbe6	0.15122947
47	0x3e72659e	0.23671576
48	0x3e52719d	0.20551153
49	0xbe6e24bb	-0.23256199
50	0xbe84fca1	-0.2597399
51	0xbe36ae88	-0.17840016
52	0x3e40ed81	0.188406
53	0x3e3d5e85	0.18493088
54	0x3e17914f	0.14801525
55	0xbe1ad7cd	-0.15121384
56	0x3e18e73e	0.14931962
57	0xbdee0cc0	-0.116235256
58	0xbe81c9a7	-0.2534916
59	0x3ce8af13	0.028403794
60	0x3d414e39	0.04719374
61	0x3e3799e1	0.17929794
62	0x3a86ee62	0.0010294432
63	0x3e35e8b2	0.17764547
64	0x3d970149	0.07373292
65	0x3db53303	0.0884762
66	0x3def3e4f	0.11681806
67	0x3e34f903	0.17673115
68	0xbd94eace	-0.07271348
69	0x3e221e83	0.15831952
70	0xbe603458	-0.21894968
71	0xbe201a1f	-0.15634964
72	0xbe211642	-0.15731147
73	0x3e15a853	0.14614992
74	0x3ca4e032	0.020126436
75	0x3e03f2aa	0.12885538
76	0x3db6fe7a	0.08935256
77	0xbe6b0b37	-0.22953497
78	0x3d6b09c0	0.057382345
79	0x3d88e811	0.06684888
80	0xbe5a0ec9	-0.21294703
81	0xbd440f4c	-0.04786615
82	0x3e00a164	0.12561566
83	0xbdf922b5	-0.12164823
84	0x3de6a4c8	0.11261898
85	0x3e48fbeb	0.19627349
86	0xbe222209	-0.15833296
87	0xbe2f7f81	-0.17138483
88	0x3e4370bd	0.19085975
89	0xbdfc880e	-0.12330638
90	0x3df85392	0.12125315
91	0x3da6293d	0.08113334
92	0x3b22e037	0.002485288
93	0xbe410218	-0.18848455
94	0x3e3ea771	0.18618561
95	0x3e4d7590	0.20064378
96	0x3d365f62	0.044524558
97	0xbe0c09be	-0.13675591
98	0xbdd44a1a	-0.10365696
99	0x3e470d48	0.1943866
100	0x3da63f42	0.08117534
101	0x3e52ecde	0.2059817
102	0xbe07d7a6	-0.13265857
103	0x3d8e95d7	0.069621734
104	0x3d7a55d2	0.061117
105	0x3d690f52	0.056899376
106	0xbdc7d3e4	-0.09757212
107	0xbe258aba	-0.16166201
108	0x3dbfe303	0.09369471
109	0x3d123178	0.03569171
110	0x3c9d0500	0.019167423
111	0x3dfbbaf9	0.122915216
112	0x3ca70858	0.02038972
113	0x3dd84efe	0.105619416
114	0x3dde5bd2	0.10857357
115	0x3dbdc591	0.092661984
116	0x3e5f0183	0.2177792
117	0xbc82db40	-0.015973687
118	0x38e60fff	0.00010970234
119	0x3e2084f8	0.15675724
120	0xbe106b25	-0.14103372
121	0xbe2bad5d	-0.16765352
122	0xbe115923	-0.14194159
123	0x3e15a353	0.14613084
124	0xbe1bc693	-0.15212469
125	0xbd7554a0	-0.059895158
126	0xbde57aa6	-0.11205034
127	0xbe338b50	-0.17533612
128	0xbe3b6f9d	-0.18304296
129	0xbd52a7bf	-0.051429506
130	0x3dc75792	0.097334996
131	0xbdc595b1	-0.09647692
132	0xbdbddf25	-0.09271077
133	0xbe00e144	-0.12585932
134	0xbe80b267	-0.2513611
135	0xbe4452ec	-0.19172257
136	0xbe71e48a	-0.23622337
137	0xbc48827d	-0.012238142
138	0x3de7a6e3	0.11311128
139	0x3db21fbd	0.0869746
140	0x3d21eeb0	0.03953427
141	0x3ddc7360	0.107641935
142	0xbd988e69	-0.074490376
143	0xbe71e814	-0.23623687
144	0xbdbd24de	-0.092355475
145	0x3e1ec7d2	0.15505913
146	0xbd5309fd	-0.051523197
147	0xbdc3cf19	-0.09560985
148	0xbce84d9c	-0.02835732
149	0x3ce1f3aa	0.027582008
150	0xbdae9b63	-0.085257314
151	0xbe01dec5	-0.12682636
152	0x3e2256f9	0.1585349
153	0xbe32a1bd	-0.17444511
154	0xbe64d818	-0.22348058
155	0xbe0bbef0	-0.13647056
156	0xbe3343b7	-0.175063
157	0xbdff9eb6	-0.124814436
158	0x3dc5b005	0.09652714
159	0xbe0eeefa	-0.1395835
160	0x3d301beb	0.042995375
161	0x3e6692cb	0.22516935
162	0x3df93c7a	0.12169738
163	0x3d53007b	0.05151413
164	0xbd54cac6	-0.051951192
165	0x3b44af3d	0.0030011677
166	0xbe6892b0	-0.22712207
167	0xbda6d5b5	-0.0814623
168	0xbe35c6ce	-0.17751619
169	0xbe49ddf5	-0.19713576
170	0x3e599299	0.21247329
171	0xbc96a328	-0.018388346
172	0xbdf418c2	-0.11918785
173	0xbdc650e4	-0.096833974
174	0x3e5ec67e	0.21755406
175	0x3de8a4d3	0.11359563
176	0x3cc6e338	0.024278268
177	0x3e44df48	0.192258
178	0x3c9d61f3	0.019211745
179	0x3e358759	0.17727412
180	0xbdf96bf8	-0.121787965
181	0x3d699ae7	0.057032492
182	0xbd860e1a	-0.065456584
183	0x3dedc21a	0.116092876
184	0x3dd31862	0.10307385
185	0x3d954857	0.07289188
186	0x3c6c661d	0.014428643
187	0x3ca31b50	0.019910485
188	0xbe001883	-0.1250935
189	0x3e182961	0.14859535
190	0xbe217327	-0.15766583
191	0x3e2cf64d	0.16890831
192	0x3e7fd624	0.24984032
193	0x3e49c2a1	0.19703151
194	0xbd99a143	-0.07501461
195	0xbe0eccba	-0.13945284
196	0xbe15de99	-0.14635696
197	0x3dbec973	0.09315767
198	0x3e91b270	0.2845645
199	0xbe2c1689	-0.16805471
200	0x3e69665b	0.22792952
201	0x3e4f85a5	0.20265825
202	0x3da6bd3f	0.081415646
203	0xbc108059	-0.008819663
204	0x3e46f7c7	0.19430457
205	0x3e06ce94	0.13164741
206	0x3d9d651f	0.07685303
207	0x3c0da7a6	0.0086459275
208	0xbdf8d97d	-0.121508576
209	0xbd9a1331	-0.07523192
210	0x3e5e7290	0.2172339
211	0x3dc41283	0.09573843
212	0xbe219be2	-0.15782121
213	0x3e4493bd	0.19196983
214	0xbd7725dc	-0.06033884
215	0xbd8916fd	-0.06693838
216	0x3b2f350d	0.0026734502
217	0xbdba0d85	-0.0908461
218	0x3d3f259a	0.04666672
219	0x3d9e243f	0.07721757
220	0x3e3f3453	0.18672304
221	0x3e26c4d9	0.16286029
222	0x3dd28299	0.10278816
223	0x3e53a2c2	0.20667556
224	0x3db85174	0.08999911
225	0x3d963dc2	0.07335998
226	0xbe4af6a2	-0.19820645
227	0x3e7c8590	0.24660325
228	0xbdc09f90	-0.09405434
229	0xbe03e4e1	-0.12880279
230	0xbd571cff	-0.052517887
231	0xbd8678e2	-0.06566025
232	0x3e0b1013	0.1358035
233	0xbe623850	-0.22091794
234	0x3d416a3d	0.047220457
235	0xbe84ca0b	-0.25935397
236	0xbe27f748	-0.16402924
237	0xbdf92501	-0.12165261
238	0x3d253baa	0.040340103
239	0xbe4a5e02	-0.19762424
240	0xbe00e3b6	-0.12586865
241	0x3d779fa8	0.060454994
242	0x3caeb8aa	0.021328289
243	0x3e2fbde4	0.17162281
244	0x3d25064d	0.040289212
245	0xbe4e4112	-0.2014201
246	0xbdedeead	-0.116177894
247	0x3deaf65e	0.11472772
248	0xbe72465f	-0.23659657
249	0xbe2fa02d	-0.17150946
250	0x3e1a67c6	0.15078649
251	0x3e74e166	0.23914108
252	0xbe1e674e	-0.15469095
253	0xbdceb56b	-0.100931965
254	0x3e549823	0.2076116
255	0x3dbd9b1b	0.092581

hiden_layers.1.bias f4 [64]
0	0xbcbfdd4c	-0.023420952
1	0xbceb2eb9	-0.028708803
2	0x3c653741	0.013990224
3	0xbd25c792	-0.04047353
4	0xbd5c3151	-0.05375797
5	0xbd828b2e	-0.06374203
6	0xbd567467	-0.052357104
7	0xbd4ab298	-0.049486727
8	0x3d6ee380	0.05832243
9	0x3ca37cbe	0.019956943
10	0x3d5cc6a8	0.05390039
11	0xbd1ef96f	-0.038812097
12	0x3d4eb406	0.050464652
13	0x3d076726	0.033057354
14	0xbc771076	-0.015079608
15	0xbd6acac3	-0.057322275
16	0xbb82af85	-0.0039882087
17	0x3e15b7a7	0.14620839
18	0xbd29865b	-0.041387897
19	0xb9d7a95b	-0.00041134175
20	0xbd9d5ce9	-0.07683737
21	0xbccd3a14	-0.025052108
22	0x3ca29d47	0.019850386
23	0x3bcbcc1b	0.0062193996
24	0xbd70cde3	-0.0587901
25	0xbd63a3ed	-0.055576254
26	0xbd3508e6	-0.04419794
27	0x3bc7fe0b	0.0061032823
28	0xbd020f23	-0.031752717
29	0x3d0db098	0.03459224
30	0x3c841738	0.016124353
31	0xbc12cce3	-0.008959982
32	0xbd0a7c41	-0.033809904
33	0x3cc61041	0.024177672
34	0xbbe3ad79	-0.00694817
35	0x3b5ccbc4	0.003369079
36	0x3cd15faa	0.025558311
37	0xbc0173b5	-0.007901122
38	0xbd1aa959	-0.03775916
39	0xbbbe4847	-0.005806956
40	0x3d11f3aa	0.035632767
41	0x3d3a3f15	0.045470316
42	0xbccff412	-0.025384936
43	0x3d110b58	0.03541121
44	0x3cd445f3	0.02591226
45	0xbd28fc12	-0.041256018
46	0x3cc10d13	0.023565805
47	0xbd40012f	-0.04687613
48	0x3d5b4725	0.053534646
49	0xbd3635d2	-0.04448492
50	0x3d8ebe91	0.069699414
51	0xbd2daeb0	-0.042402923
52	0xbcf3e6c4	-0.029773124
53	0x3cdd95d6	0.027048986
54	0x3d830667	0.063977055
55	0xbcb029eb	-0.021504363
56	0x3cbb933a	0.022897352
57	0xbd2fefa8	-0.042953163
58	0x3d3a3b29	0.045466576
59	0x3cc66cbc	0.02422177
60	0x3d20e7fc	0.039283738
61	0xbd3531e9	-0.04423705
62	0xbc4e38c2	-0.012586774
63	0x3d3ee4b4	0.046604827

hiden_layers.2.weight f4 [64, 64]
0	0xbe128bc3	-0.14311127
1	0xbe37689e	-0.17911002
2	0xbe197054	-0.14984256
3	0xbe589c44	-0.2115336
4	0xbdd861d6	-0.10565536
5	0xbd50bfde	-0.05096423
6	0xbdad6db3	-0.08468189
7	0xbda69809	-0.08134467
8	0x3e17c9e0	0.14823103
9	0x3db18d49	0.08669526
10	0x3bcde03f	0.0062828357
11	0xbe25e732	-0.16201475
12	0x3db6d330	0.089269996
13	0xbe53cb62	-0.20683053
14	0x3e2d5658	0.16927469
15	0x3e1dc5b7	0.15407453
16	0xbe8d7374	-0.27627146
17	0xbe495b21	-0.19663669
18	0x3ddc0779	0.10743613
19	0xbdd9978a	-0.10624607
20	0x3d4c42ff	0.04986858
21	0xbe63e5ac	-0.22255582
22	0xbda09277	-0.07840436
23	0x3e3d7b03	0.18503956
24	0xbe052083	-0.13000683
25	0x3d29b477	0.04143187
26	0x3daaa1d0	0.083316445
27	0xbcd653f7	-0.026163084
28	0xbdae20a2	-0.08502318
29	0x3bf38fd9	0.0074329195
30	0x3e7711d6	0.24127898
31	0xbe1065ac	-0.14101285
32	0xbe07d599	-0.13265075
33	0xbc290f72	-0.010318624
34	0xbe66787b	-0.22506897
35	0x3e0f5b09	0.13999571
36	0x3cb2f3c9	0.021844761
37	0xbdf67d01	-0.12035561
38	0xbde59101	-0.11209298
39	0x3e3ffabc	0.18747991
40	0xbdf8d284	-0.12149528
41	0x3da0e3a5	0.0785592
42	0xbe5ad4cb	-0.21370237
43	0xbe3e6987	-0.18594943
44	0xbd8c7671	-0.068585284
45	0xbe021db1	-0.12706639
46	0xbd3fb13f	-0.046799894
47	0xbd874294	-0.06604496
48	0x3d38d28f	0.04512268
49	0x3e387cb3	0.18016319
50	0xbcc39738	-0.023875818
51	0xbe316786	-0.17324647
52	0x3e2a39b6	0.16623577
53	0x3d93248e	0.07184707
54	0xbbacf2b8	-0.005277958
55	0x3e69d793	0.22836141
56	0xbdec3744	-0.115339786
57	0xbe5978ec	-0.21237534
58	0xbd5ebd6e	-0.054379873
59	0x3e3894df	0.1802554
60	0xbcedaac8	-0.029012099
61	0x3dcb1cce	0.099176034
62	0xbe54bde7	-0.20775567
63	0x3e26473a	0.16238108
64	0x3e123631	0.14278485
65	0xbc4c2031	-0.012458847
66	0x3d8a2b95	0.06746594
67	0xbdbcab2f	-0.09212338
68	0x3cabb70e	0.02096131
69	0xbbc20a57	-0.0059216428
70	0x3e10e71e	0.14150664
71	0xbd9c3e19	-0.07629032
72	0x3e0e8302	0.13917163
73	0x3d9b0b0a	0.07570465
74	0xbded7d5f	-0.11596178
75	0xbd773a88	-0.060358554
76	0xbce7d5c5	-0.028300175
77	0x3e450704	0.19240957
78	0xbd0426d2	-0.032263584
79	0xbdb22879	-0.08699126
80	0x3d9ba147	0.075991206
81	0x3ca10180	0.019654036
82	0xbdd5d1d1	-0.1044041
83	0xbd4c57a3	-0.049888264
84	0x3e06536a	0.13117757
85	0xbe6279cb	-0.22116773
86	0x3daacbe4	0.0833967
87	0x3d4ccbbb	0.04999898
88	0xbbb91e64	-0.005649375
89	0x3dcbc8c4	0.099504024
90	0xbdff2414	-0.12458053
91	0xbe2f7f9b	-0.17138521
92	0x3dc601f4	0.09668341
93	0x3d9f6f99	0.077849574
94	0xbb6ca3b6	-0.0036108322
95	0x3c0a4c5e	0.008441059
96	0xbdf29dd4	-0.118465096
97	0x3d070a4d	0.032968808
98	0x3d5730a9	0.05253664
99	0x3e1f027f	0.15528296
100	0xbe03614c	-0.12830085
101	0xbb44ffec	-0.0030059768
102	0x3e6107f5	0.21975692
103	0x3dbab1d6	0.09115951
104	0x3dba9baf	0.091117255
105	0xbdaa6bf2	-0.0832137
106	0xbde943a1	-0.11389852
107	0xbe48844d	-0.19581719
108	0x3d1ede6c	0.038786337
109	0xbe442063	-0.1915298
110	0x3d61971d	0.055075753
111	0x3dd38dc1	0.10329772
112	0xbe82015e	-0.25391668
113	0xbddeddf5	-0.10882179
114	0xbbcaf091	-0.0061932285
115	0x3e4903cc	0.19630355
116	0xbdf40c12	-0.11916365
117	0x3dee0e5a	0.11623831
118	0xbcfe8ada	-0.031072069
119	0xbdd1a671	-0.10236824
120	0xbdbafcbd	-0.09130237
121	0x3cede6e7	0.029040767
122	0x3c035463	0.008015725
123	0x3d8559fa	0.06511302
124	0xbe2b8e26	-0.16753444
125	0xbe05109a	-0.12994614
126	0x3e286b04	0.16447073
127	0x3e130159	0.14355983
128	0xbe5ab127	-0.21356641
129	0xbc9fd2a7	-0.019509627
130	0x3db1e658	0.08686513
131	0x3e2b7fee	0.1674802
132	0x3e021786	0.12704286
133	0x3dd16348	0.102240145
134	0xbe2f77b0	-0.17135501
135	0x3d1ab90b	0.037774127
136	0xbb83c965	-0.004021811
137	0xbdb53f39	-0.088499494
138	0x3c83efcb	0.016105553
139	0xbdad4944	-0.0846124
140	0x3da9abab	0.08284696
141	0xbe6eaadc	-0.23307365
142	0x3e6a1108	0.2285806
143	0xbd861a0b	-0.06547936
144	0x3e346f29	0.17620529
145	0x3e397d77	0.18114267
146	0xbe71662c	-0.23574132
147	0xbdc5c436	-0.09656565
148	0xbd9149d3	-0.07094159
149	0xbdae8f77	-0.085234575
150	0x3e257b9b	0.16160433
151	0xbd25483b	-0.040352087
152	0xbe3cdecf	-0.1844437
153	0x3db2923a	0.08719297
154	0xbe4230a6	-0.1896387
155	0x3d1e0a58	0.038584083
156	0xbe0b265d	-0.13588853
157	0x3e165b67	0.14683305
158	0xbdf7d421	-0.12101007
159	0xbe6aa71d	-0.22915311
160	0x3d0b5769	0.034018908
161	0x3e649df2	0.22325876
162	0xbddae52b	-0.106882416
163	0x3de4978f	0.1116172
164	0x3c839ddd	0.016066486
165	0xbd6e58dc	-0.05819021
166	0x3d4d7380	0.050158978
167	0x3e159801	0.14608766
168	0x3e5a10a7	0.21295415
169	0x3db9cc07	0.09072118
170	0xbdbb4998	-0.09144896
171	0x3e393152	0.1808522
172	0x3ddcf3be	0.10788678
173	0xbd818438	-0.06324047
174	0x3cb276a1	0.021785082
175	0xbc35063b	-0.011048849
176	0x3e60043d	0.21876617
177	0xbe70e2a1	-0.23523952
178	0x3e2cb264	0.16864926
179	0xbcd7be5c	-0.026335888
180	0xbe628532	-0.22121122
181	0xbde8f5fc	-0.11375043
182	0x3d20d2bb	0.03926347
183	0xbdd47dc5	-0.10375551
184	0x3e7df86a	0.24801794
185	0x3d9a466b	0.075329624
186	0x3e6cb03d	0.23114105
187	0x3e206001	0.15661623
188	0x3d05da31	0.032678787
189	0xbe84c6e2	-0.25932986
190	0xbc5685f4	-0.01309346
191	0x3d2f29ae	0.04276436
192	0x3e3f70ca	0.1869537
193	0x3e4a5a49	0.19761004
194	0x3dc0a636	0.09406702
195	0xbe145f56	-0.14489493
196	0x3d35dd76	0.044400655
197	0xbe514197	-0.20435177
198	0x3cbe171e	0.023204383
199	0xbd954631	-0.072887786
200	0x3d2a41fe	0.04156684
201	0xbd84f484	-0.0649195
202	0xbe63968c	-0.22225398
203	0x3e0eb4f0	0.1393621
204	0x3e550d91	0.20805956
205	0xbda37f31	-0.07983244
206	0xbe083e39	-0.13304986
207	0xbde43048	-0.111420214
208	0x3e55fd67	0.20897447
209	0x3e84cc8e	0.25937313
210	0x3d6a8a07	0.05726054
211	0xbd7b0fe7	-0.061294463
212	0xbdb71e1e	-0.08941291
213	0xbe1dccde	-0.15410182
214	0x3dc6a69e	0.096997485
215	0x3e2957b6	0.16537365
216	0xbe04c3a6	-0.12965259
217	0xbdc9f76c	-0.09861645
218	0xbe386058	-0.18005502
219	0xbd7c0d25	-0.061535973
220	0xbe23b275	-0.15986045
221	0x3e6626f3	0.22475795
222	0x3d009dcc	0.031400487
223	0xbcf67ee6	-0.030089807
224	0x3d2dd575	0.042439897
225	0x3e14dac2	0.14536574
226	0xbe59f27b	-0.21283905
227	0xbd4571e0	-0.048204303
228	0x3d812cff	0.063074104
229	0xbe14f647	-0.14547072
230	0xbe513974	-0.20432073
231	0x3e16bb76	0.14719948
232	0xbe32ecf1	-0.17473198
233	0xbde697bf	-0.11259412
234	0x3e1f0e0c	0.15532702
235	0x3d748afa	0.05970285
236	0x3e343b51	0.17600752
237	0x3d4a89ee	0.049447946
238	0xbe2d2705	-0.16909416
239	0xbe1eac1a	-0.15495339
240	0x3db87ce3	0.09008195
241	0xbe2f6e38	-0.17131889
242	0x3e142125	0.14465769
243	0x3dd8d517	0.10587519
244	0x3df966e4	0.12177828
245	0x3e34375d	0.17599244
246	0x3e025230	0.12726665
247	0xbe240dbc	-0.16020864
248	0x3c75476f	0.014970644
249	0xbe30205a	-0.17199841
250	0xbe1ea661	-0.15493156
251	0x3e6a0c6a	0.22856298
252	0xbd6ff039	-0.058578704
253	0x3cf12973	0.02943871
254	0xbdfd1ca2	-0.12358977
255	0x3bd33127	0.0064450684

hiden_layers.2.bias f4 [64]
0	0x3cbba6f0	0.02290675
1	0xbcf4c35b	-0.029878309
2	0x3cdee711	0.02720979
3	0x3db807af	0.089858405
4	0x3d188b91	0.037242476
5	0x3d150ce4	0.036389247
6	0xbc0cc76f	-0.008592471
7	0xbdaebfea	-0.085326985
8	0xbb01d9fa	-0.0019813762
9	0x3c9d1296	0.019173902
10	0x3d34184d	0.043968488
11	0x3b786364	0.0037901038
12	0x3d215f58	0.039397568
13	0x3c9487cf	0.018131165
14	0xbd04bf02	-0.03240872
15	0xbd264942	-0.040597208
16	0x3c8bdc3a	0.017072786
17	0x3b401b99	0.0029313324
18	0xbcdce517	-0.026964707
19	0x3c29d9ca	0.010366866
20	0xbd06ccd0	-0.03291017
21	0xbbd9bd7e	-0.0066449037
22	0xbc5e9805	-0.013586049
23	0xbbf55842	-0.007487328
24	0xbc384905	-0.011247878
25	0xbc325abb	-0.01088589
26	0x3a7cfaa4	0.00096503855
27	0x3d2112e1	0.039324645
28	0x3c6f2f61	0.014598698
29	0xbd4d734a	-0.050158776
30	0xbc8ca8ee	-0.017170396
31	0xbcc17c04	-0.023618706
32	0xbad4931c	-0.0016218158
33	0x3d71a4e2	0.058995135
34	0x3cb132cd	0.021630669
35	0xbd14c1cb	-0.036317628
36	0x3d11cf4b	0.03559808
37	0x3d4ccba5	0.049998898
38	0x3d50db9c	0.050990686
39	0x3cb0c9f4	0.021580674
40	0x3cf40ef2	0.029792283
41	0x3d1fad2e	0.038983516
42	0xbd4b91cf	-0.0496996
43	0x3d8ba643	0.06818821
44	0x3ccb1a03	0.024792677
45	0xbd3a58c5	-0.045494813
46	0x39fd3433	0.00048294812
47	0xbc7ad37e	-0.015309213
48	0x3d0ce015	0.03439339
49	0xbcd22a0b	-0.025654813
50	0x3ce2188d	0.027599597
51	0x3b62d714	0.003461306
52	0xbcb2bce9	-0.021818595
53	0xbd1446dc	-0.03620039
54	0xbcbcabb1	-0.023031088
55	0xbc06890f	-0.008211388
56	0x3d8fad2d	0.070154525
57	0x3c806259	0.015671896
58	0xbc69934d	-0.014256311
59	0xbd2d9657	-0.042379703
60	0xb90780fd	-0.00012922655
61	0x3b96e8f3	0.0046054064
62	0xbd849257	-0.064732246
63	0x3cecba27	0.028897358

hiden_layers.3.weight f4 [64, 64]
0	0xbc22607b	-0.009910698
1	0x3e47cad5	0.19510968
2	0xbd3c2de6	-0.04594221
3	0xbcb86c3d	-0.02251255
4	0x3e5562af	0.20838426
5	0xbdef09ff	-0.116718285
6	0xbe60de76	-0.21959862
7	0x3d7a4abe	0.061106436
8	0x3e26eda6	0.16301593
9	0x3d5a3aaa	0.053278603
10	0x3e0bde5d	0.13659044
11	0xbde07fbb	-0.10961863
12	0xbe18e187	-0.14929782
13	0x3e55e619	0.20888557
14	0x3d87957d	0.066203095
15	0x3d7ff18e	0.062486224
16	0x3da1ff85	0.079100646
17	0x3c098b43	0.008395019
18	0xbd595dda	-0.05306802
19	0xbe788e54	-0.24273044
20	0x3e35bd69	0.17748035
21	0xbe2a421a	-0.16626778
22	0x3953fe48	0.00020217255
23	0x3e04676d	0.12930079
24	0xbcac3dc0	-0.021025538
25	0xbe3ecabe	-0.18632028
26	0xbd0b6ebe	-0.03404116
27	0xbe8d171f	-0.27556702
28	0x3bf464cf	0.0074583064
29	0xbcaaf4cd	-0.020868683
30	0xbddc417f	-0.1075468
31	0xbda48846	-0.080338046
32	0x3cf29d1e	0.029615935
33	0xbd34d39a	-0.04414711
34	0x3e12ee55	0.14348729
35	0x3e2dc65d	0.16970201
36	0x3da9ff12	0.08300604
37	0xbe4bf716	-0.19918475
38	0x3db6e595	0.08930508
39	0xbe2a40cb	-0.16626279
40	0xbdf54230	-0.11975515
41	0xbe23386a	-0.15939489
42	0xbc1d10ab	-0.0095864935
43	0xbdcd0d93	-0.10012355
44	0x3e195fad	0.14977904
45	0xbe51f195	-0.20502312
46	0x3e6cf10a	0.23138824
47	0x3da39830	0.07988012
48	0x3e0fe1e8	0.1405102
49	0x3e5e94f2	0.21736506
50	0xbc85d11a	-0.016335059
51	0xbdc8f6d4	-0.09812704
52	0x3e22c024	0.15893608
53	0x3cfe4622	0.031039301
54	0x3e2ea642	0.1705561
55	0xbcefe9cf	-0.029286293
56	0xbdab9374	-0.08377734
57	0x3d7530eb	0.059861105
58	0xbdf906dd	-0.12159512
59	0xbe24e7a6	-0.16103992
60	0x3e2dffa6	0.16992053
61	0x3e700b6f	0.23441862
62	0x3e438f60	0.19097662
63	0xbdc9dd1d	-0.09856627
64	0x3d82f1f1	0.06393803
65	0xbe1cd03e	-0.15313813
66	0xbe61ada8	-0.22038901
67	0x3e03776c	0.12838525
68	0x3dd5a48b	0.10431775
69	0x3db4d2e6	0.08829288
70	0xbde5225a	-0.11188193
71	0x3e14fd37	0.14549719
72	0x3e7bbe7c	0.24584383
73	0xbdb7e1a5	-0.08978585
74	0x3e38b21a	0.1803669
75	0xbca5a15e	-0.020218547
76	0x3db259d6	0.08708541
77	0xbe26b970	-0.16281676
78	0x3e5df168	0.2167412
79	0x3e3924e0	0.18080473
80	0xbccde579	-0.025133835
81	0xbe458ff0	-0.19293189
82	0x3d3ee668	0.04660645
83	0x3dc1800f	0.09448253
84	0xbdd6dc59	-0.10491247
85	0x3e11ebc4	0.14250094
86	0xbd914d3b	-0.07094809
87	0x3d6ac22d	0.057314087
88	0x3cf067b3	0.029346323
89	0x3bf5f52b	0.007506033
90	0xbe5b91ca	-0.21442333
91	0xbe506cfa	-0.20354071
92	0xbd847cc4	-0.0646911
93	0xbe559a0c	-0.20859545
94	0xbe6282e9	-0.22120251
95	0xbe051cfe	-0.12999341
96	0x3db69ba2	0.08916403
97	0xbe08ab76	-0.13346657
98	0x3dc9d9ef	0.09856021
99	0x3dfed9a2	0.12443854
100	0x3e598a75	0.21244223
101	0xbdd49d0e	-0.10381518
102	0xbdda69b9	-0.10664696
103	0x3db16a5e	0.08662866
104	0xbe35dbac	-0.1775958
105	0xbe23bb34	-0.15989381
106	0x3e1ee094	0.15515357
107	0xbce2f43e	-0.027704354
108	0x3d816518	0.0631811
109	0xbe592d8a	-0.21208778
110	0x3d52f7fb	0.051506024
111	0xbe47f076	-0.19525322
112	0x3cd74d1d	0.026281888
113	0x3d1c4bca	0.038158216
114	0xbb6b8371	-0.00359365
115	0xbd7a7711	-0.061148707
116	0xbe1e510a	-0.15460601
117	0xbdca903e	-0.09890793
118	0xbded3e52	-0.11584152
119	0x3d28631e	0.04111015
120	0x3d95534b	0.072912775
121	0x3e1b1281	0.15143777
122	0x3d2dc4a3	0.042423856
123	0xbcad1d83	-0.021132236
124	0x3e553f63	0.20824961
125	0x3e2def41	0.169858
126	0xbdd3c61c	-0.10340521
127	0x3dcc8232	0.0998577
128	0xbe195d53	-0.14977007
129	0x3d28aee2	0.041182406
130	0x3e141c58	0.14463937
131	0xbe418c66	-0.18901214
132	0x3e5cb11a	0.21551934
133	0xbcb8e627	-0.022570683
134	0x3de7a655	0.11311022
135	0x3d0d9fbb	0.03457616
136	0x3e131518	0.14363515
137	0x3e40ff1a	0.18847314
138	0xbe2bfcec	-0.16795701
139	0x3d5a0636	0.05322858
140	0x3cf18158	0.029480621
141	0x3e3fe104	0.1873818
142	0x3da2e141	0.0795312
143	0xbd668a8e	-0.05628448
144	0x3d38a598	0.045079798
145	0xbe79f323	-0.24409156
146	0xbe4cd291	-0.200022
147	0xbe37d64a	-0.17952839
148	0xbe1937d7	-0.14962707
149	0x39b70a3f	0.00034912114
150	0xbe033ccd	-0.12816162
151	0x3e042005	0.1290284
152	0xbe5c1f12	-0.21496227
153	0x3d8e879c	0.06959459
154	0x3dfadc4c	0.122490495
155	0x3c4e941d	0.012608555
156	0xbe42aa85	-0.1901036
157	0xbd8b45be	-0.06800412
158	0x3df5de48	0.120052874
159	0x3d0e207c	0.03469895
160	0xbea546e3	-0.32280645
161	0xbdc0d57d	-0.0941572
162	0x3e0fb632	0.14034346
163	0xbd6d0c13	-0.057872843
164	0x3e045600	0.12923431
165	0xbe43f742	-0.1913729
166	0x3e240b19	0.16019858
167	0x3dd6e8ea	0.104936436
168	0xbdf2ba10	-0.11851895
169	0xbd49e9c6	-0.04929521
170	0xbde56c06	-0.112022445
171	0x3e3eac83	0.18620495
172	0x3e8e3896	0.27777547
173	0xbe31e07e	-0.17370793
174	0xbde45e31	-0.11150778
175	0x3e03bc13	0.12864713
176	0x3d617f9b	0.055053335
177	0x3db03bf5	0.08605186
178	0xbe12fb78	-0.1435374
179	0x3e254a79	0.1614169
180	0x3db307c0	0.087417126
181	0xbe1ff704	-0.15621573
182	0x3e458bf6	0.19291672
183	0xbd28afdb	-0.041183334
184	0x3e5617d2	0.20907524
185	0xbca44660	-0.020053089
186	0xbdec5e8e	-0.115414724
187	0xbe5a263f	-0.21303652
188	0xbe21ec3f	-0.15812777
189	0xbd7ee99b	-0.062234502
190	0xbc935cfe	-0.017988678
191	0xbd2c59e5	-0.042077918
192	0xbe186edc	-0.1488604
193	0xbc185ae7	-0.009299017
194	0x3d2e0038	0.042480677
195	0x3de9e34d	0.11420307
196	0xbe56f83f	-0.20993136
197	0xbd895893	-0.06706347
198	0xbde127af	-0.10993897
199	0xbce290ac	-0.027656876
200	0x3de1c4de	0.110238776
201	0xbbef2abf	-0.007298797
202	0xbdbc0bdc	-0.091819495
203	0xbdaac1df	-0.08337759
204	0x3d3a905b	0.045547824
205	0xbdd164ec	-0.102243274
206	0xbd86a92e	-0.06575237
207	0x3dc2736b	0.094946705
208	0x3d214197	0.039369192
209	0x3c6e1e56	0.0145336
210	0xbd7a8201	-0.061159138
211	0xbda8a7c5	-0.082351245
212	0xbe412f62	-0.18865731
213	0x3e655806	0.2239686
214	0x3dfc01df	0.123050444
215	0xbe0761a9	-0.13220848
216	0xbd33a998	-0.04386291
217	0xbe0f294c	-0.13980597
218	0xbd0bb6cc	-0.034109876
219	0xbe0a344a	-0.13496509
220	0x3e594a9d	0.21219869
221	0x3e404ad2	0.18778542
222	0x3dfac924	0.12245396
223	0x3cd19c96	0.025587361
224	0xbe08a460	-0.13343954
225	0x3d5c1741	0.053733114
226	0xbd8aaebb	-0.067716084
227	0xbbc1c4d7	-0.0059133577
228	0x3d628234	0.055299953
229	0xbe540a63	-0.20707087
230	0xbdfc91cb	-0.12332495
231	0x3daf067b	0.08546158
232	0x3d7e5970	0.062097013
233	0xbe547918	-0.20749319
234	0xbe3315bd	-0.17488761
235	0xbdff99e2	-0.12480523
236	0x3e48d0ac	0.19610852
237	0x3dcf509a	0.101227954
238	0x3e5fe057	0.21862923
239	0x3dc1c0af	0.094605796
240	0x3e4131b6	0.1886662
241	0x3e12372c	0.14278859
242	0x3e5d7485	0.2162648
243	0xbe50dc78	-0.20396602
244	0xbd575965	-0.052575488
245	0x3d084394	0.033267573
246	0x3e4ed2bc	0.20197576
247	0x3e1797ac	0.14803952
248	0x3dad660e	0.08466731
249	0xbe14c783	-0.14529233
250	0x3c8771ad	0.016533697
251	0x3e01ee74	0.12688619
252	0x3cbc1b66	0.022962283
253	0xbe0ce9db	-0.13761084
254	0xbda32ce7	-0.07967549
255	0x3d1c185e	0.038109176

hiden_layers.3.bias f4 [64]
0	0xbcb024ce	-0.021501925
1	0x3a09301f	0.0005233306
2	0x3c42f92d	0.011900228
3	0xbc867ef5	-0.01641796
4	0xbcd10db2	-0.025519226
5	0x3d83c96a	0.06434901
6	0xbd00b9ac	-0.03142707
7	0xbc7e5901	-0.01552415
8	0xba924471	-0.0011159313
9	0xbd81495a	-0.06312819
10	0x3d65aad8	0.056071132
11	0xbcf2989a	-0.029613782
12	0xbcc00c51	-0.023443373
13	0x3c231aba	0.009955103
14	0x3d2216dc	0.03957258
15	0xbd32788c	-0.043571994
16	0x3b8c51c9	0.0042822105
17	0xbb9133e7	-0.004431236
18	0x3d132f5f	0.03593385
19	0x3ca145ee	0.019686665
20	0xbcf3479d	-0.029697234
21	0xbd60cefa	-0.05488489
22	0x3d03d750	0.03218776
23	0xbc87a4da	-0.0165581
24	0x3b948f13	0.0045336573
25	0xba5bc1c7	-0.0008383062
26	0x3d0d76dd	0.034537185
27	0x3c5ff97b	0.013670321
28	0xbd815ac8	-0.06316143
29	0x3beb1da2	0.0071751634
30	0x3d727f45	0.059203405
31	0xbc2cf4f6	-0.01055645
32	0x3d1761bb	0.036958437
33	0xbcc07ff0	-0.023498505
34	0x3d76cb5f	0.060252544
35	0xbcd409a9	-0.025883513
36	0x3cd8dabe	0.026471492
37	0x3cd3261b	0.025775006
38	0x3d035cd5	0.032070953
39	0x3d239f5d	0.039946903
40	0xbcdc7b1a	-0.026914168
41	0xbd472e81	-0.048628334
42	0x3dae9082	0.085236564
43	0xbc0952e9	-0.008381584
44	0xbc0a35ba	-0.008435661
45	0x3c33035e	0.010926096
46	0x3c8bf7e7	0.017085982
47	0x3daee152	0.0853907
48	0x3d33ffe8	0.043945223
49	0xbcb0eaad	-0.021596277
50	0x3d15a4b4	0.036534026
51	0x3d49030b	0.049075168
52	0xbc8246af	-0.015902845
53	0xbd0fd1fb	-0.035112362
54	0x3d2223c2	0.039584883
55	0x3c13b1cd	0.009014559
56	0x3d5b92a3	0.05360664
57	0x3d8ce891	0.06880296
58	0x3c2e3d89	0.010634788
59	0x3b55fe7c	0.0032652905
60	0x3cd438ae	0.025905933
61	0xbdb3f5fa	-0.08787151
62	0x3c0441de	0.008072345
63	0x3c0b9df3	0.008521545

hiden_layers.4.weight f4 [64, 64]
0	0xbe2c52a7	-0.16828404
1	0xbdf7f38e	-0.12107001
2	0x3dbe7bd0	0.09300959
3	0xbd44b802	-0.048027046
4	0xbe8d2828	-0.275697
5	0x3da5d224	0.08096722
6	0xbb90eb55	-0.004422585
7	0x3c49f648	0.012326784
8	0x3e04594a	0.12924686
9	0xbe856daf	-0.26060244
10	0xbdb23d12	-0.087030545
11	0x3cb5ea36	0.022206407
12	0xbe25d6ee	-0.1619527
13	0xbdfab521	-0.12241579
14	0x3e5dfeda	0.2167925
15	0x3cf7b705	0.030238638
16	0xbca6f856	-0.020382088
17	0xbc00bbbb	-0.007857258
18	0xbd64d7e7	-0.055869963
19	0xbd33f082	-0.043930538
20	0xbe499def	-0.19689153
21	0xbde7555d	-0.11295579
22	0xbe1a3002	-0.15057376
23	0xbe463e18	-0.19359624
24	0xbd217fd8	-0.039428562
25	0xbe25db0a	-0.16196838
26	0x3e66deb7	0.22545896
27	0xbd710ef4	-0.05885215
28	0xbe515df8	-0.20446002
29	0xbc742581	-0.01490152
30	0xbe2a364d	-0.16622277
31	0xbe349161	-0.17633583
32	0xbd8c9212	-0.06863798
33	0x3dd69b32	0.1047882
34	0x3e4ac9a8	0.19803488
35	0xbd6d792a	-0.05797688
36	0xbe3446b8	-0.17605102
37	0xbd8bc4a1	-0.06824613
38	0x3ddfbd56	0.10924785
39	0xbdc65f52	-0.0968615
40	0xbda83971	-0.08214081
41	0xbcbe48bf	-0.023228047
42	0x3df071d4	0.11740461
43	0x3e5c1cdf	0.21495388
44	0x3e30565f	0.17220448
45	0xbe16ff63	-0.1474586
46	0xbe3fa28d	-0.18714352
47	0x3de30517	0.11084955
48	0xbe3fe170	-0.18738341
49	0xbe3eecf5	-0.1864508
50	0x3d2c0d90	0.04200512
51	0xbe2a6077	-0.16638361
52	0xbda09bb4	-0.07842198
53	0xbe29b169	-0.16571583
54	0x3cf291cc	0.029610537
55	0x3e59c929	0.21268143
56	0x3cba2535	0.02272282
57	0x3e63e574	0.22255498
58	0x3e02c7ff	0.12771605
59	0xbd6bebbb	-0.057597857
60	0xbcca3ced	-0.024687255
61	0xbe1e36ab	-0.15450542
62	0xbe354c21	-0.17704822
63	0x3daaf977	0.08348363
64	0x3d9b7a23	0.07591655
65	0xbe82410f	-0.2544026
66	0x3dda8764	0.10670355
67	0xbe2dd821	-0.16976978
68	0x3dc4b0e9	0.096040554
69	0x3da61edd	0.081113555
70	0xbe7e8f76	-0.24859414
71	0x3d662270	0.056185186
72	0x3e5d1a46	0.21592054
73	0x39d3e510	0.0004041572
74	0xbdb88f36	-0.0901169
75	0xbe57a72f	-0.21059869
76	0x3e32b0c7	0.17450248
77	0x3e6f7b36	0.23386845
78	0x3cdb3ac7	0.026761426
79	0xbd73ccbd	-0.059521426
80	0x3e69fa28	0.22849333
81	0xbd1bac04	-0.038005844
82	0xbd7f0e45	-0.062269468
83	0xbe773377	-0.24140726
84	0xbe01cd6e	-0.12676021
85	0xbe5440a0	-0.20727777
86	0xbe66ab1c	-0.2252621
87	0xbe1be9ee	-0.15225956
88	0x3e195ac2	0.14976028
89	0x3d2ba6c6	0.041907094
90	0xbe76e496	-0.24110636
91	0x3db3ede4	0.087856084
92	0xbe2595b3	-0.16170387
93	0x3dc084ad	0.09400306
94	0xbe3fc17a	-0.18726149
95	0xbe0bf014	-0.13665801
96	0xbe5e7705	-0.2172509
97	0x3d9afb5b	0.075674735
98	0x3e5409cf	0.20706867
99	0xbe20c6b6	-0.15700802
100	0x3e84973d	0.25896636
101	0xbe030b8f	-0.12797378
102	0xbc3ad014	-0.011402149
103	0xbcdc9a5a	-0.02692907
104	0x3da337f9	0.0796966
105	0x3e44fd22	0.19237188
106	0xbc5e58fa	-0.013571018
107	0x3d8f6635	0.07001916
108	0xbd66517f	-0.056230064
109	0x3cb4ce4e	0.02207103
110	0xbcfa00e0	-0.030517995
111	0x3d34e4bc	0.04416345
112	0x3e3b6714	0.1830104
113	0x3bd4beec	0.006492486
114	0xbe66660d	-0.22499867
115	0xbc546bb1	-0.012965129
116	0x3d8afde2	0.067867056
117	0xbd95a275	-0.07306377
118	0xbdebef0f	-0.11520206
119	0xbc72d578	-0.014821403
120	0x3dbb7a8d	0.09154234
121	0x3db9335f	0.090430014
122	0x3db53e56	0.0884978
123	0xbd997daa	-0.07494672
124	0xbe56b871	-0.20968796
125	0x3e2837b6	0.16427502
126	0x3cdc68e9	0.026905494
127	0x3d9e1594	0.077189595
128	0xbc266834	-0.01015668
129	0x3e34a44a	0.17640796
130	0x3e436038	0.19079673
131	0x3e315a1f	0.17319535
132	0x3dc2cbe5	0.09511546
133	0xbd335fac	-0.04379241
134	0x3d97fa1b	0.07420751
135	0xbe4b04b2	-0.1982601
136	0x3d1a2b43	0.037638914
137	0xbd9b0d80	-0.07570934
138	0xbe53f99f	-0.20700692
139	0xbc6803f5	-0.0141611
140	0xbd1a4600	-0.037664413
141	0x3d5c6fef	0.053817686
142	0xbcef4536	-0.029207807
143	0x3de7faa6	0.11327104
144	0x3e631f1a	0.22179833
145	0x3d704f2c	0.058669254
146	0x3d83c8d8	0.06434792
147	0x3de6dc57	0.11272495
148	0xbdaba158	-0.08380383
149	0x3e6655cd	0.22493668
150	0x3e31eecd	0.17376252
151	0xbdf5da78	-0.1200456
152	0x3e3bf8a3	0.18356566
153	0xbe1c3284	-0.15253645
154	0x3d8e079e	0.069350466
155	0xbbf65c34	-0.0075183157
156	0x3e4f73fa	0.20259085
157	0xbe2eda10	-0.17075372
158	0x3ca61a3a	0.020276178
159	0x3e5c44e1	0.2151065
160	0xbdb97f3f	-0.090574734
161	0x3e14f1c9	0.14545359
162	0xbccc8d6a	-0.024969775
163	0x3e7def1d	0.24798246
164	0x3dcbbac6	0.099477336
165	0xbe1114c8	-0.14168084
166	0xbd5beb89	-0.05369142
167	0x3e10fa34	0.14157945
168	0x3e011d07	0.1260873
169	0xbcffd56f	-0.031229703
170	0xbe0568ef	-0.1302831
171	0x3df2051f	0.11817383
172	0xbc0fd31e	-0.008778362
173	0x3cdc7833	0.026912784
174	0xbcf6b5af	-0.03011593
175	0x3e0ed49a	0.13948289
176	0x3db277f3	0.08714285
177	0x3df39c5d	0.11895058
178	0xbe121205	-0.14264686
179	0xbe520040	-0.20507908
180	0xbe419da9	-0.18907799
181	0x3e37b8e9	0.17941631
182	0xbba6c4bb	-0.00508937
183	0xbda44f35	-0.0802292
184	0x3e4e9186	0.201727
185	0xbe055ab4	-0.13022882
186	0x3e515ab1	0.20444752
187	0x3dee030b	0.11621674
188	0x3d57d2ad	0.05269115
189	0x3e4a0461	0.19728233
190	0xbe41bf45	-0.1892062
191	0x3e458dd2	0.19292381
192	0xbe61901e	-0.22027633
193	0xbe82a2a2	-0.25514704
194	0x3dda3860	0.10655284
195	0x3e68998e	0.22714826
196	0x3de46ba3	0.111533426
197	0x3e0655a6	0.1311861
198	0xbe19ed21	-0.15031864
199	0x3e89c2c9	0.26906422
200	0x3dfa1af6	0.12212174
201	0x3c39fd86	0.011351949
202	0xbe251423	-0.16120963
203	0xbe15cf5a	-0.1462988
204	0x3e6c2019	0.2305912
205	0xbd757ac9	-0.05993155
206	0xbe5970aa	-0.21234384
207	0xbdcae826	-0.0990756
208	0x3d8f5342	0.06998302
209	0xbd0b73f2	-0.03404612
210	0xbe2fd6ba	-0.17171755
211	0x3da8f225	0.082493104
212	0xbc6cf2b5	-0.014462163
213	0xbde377f7	-0.11106866
214	0xbe277564	-0.16353375
215	0xbd9d7fae	-0.076903686
216	0xbcaa0774	-0.020755507
217	0xbd9c25b3	-0.07624378
218	0x3e4eb496	0.20186076
219	0x3e0aa9c0	0.13541317
220	0xbdb5f418	-0.08884448
221	0xbdf2a59a	-0.11847992
222	0xbe561184	-0.20905119
223	0xbe3da9e7	-0.18521844
224	0xbd2d50e9	-0.04231349
225	0x3e56a84c	0.20962638
226	0xbd1c7fc5	-0.038207788
227	0xbdbe7016	-0.092987224
228	0xbcd75766	-0.026286792
229	0xbd8bb45d	-0.06821511
230	0xbe4aaffe	-0.19793698
231	0x3e16d002	0.14727786
232	0xbe3a8ffa	-0.18218985
233	0x3e74a05e	0.238893
234	0xbe30d7dc	-0.17269844
235	0xbe06bfe5	-0.1315914
236	0xbd141b7c	-0.036159024
237	0xbc96ba72	-0.01839945
238	0x3db3e1fc	0.087833375
239	0x3c31e9de	0.010858981
240	0xbdd384ff	-0.10328101
241	0xbd7cffc8	-0.06176737
242	0x3e12e203	0.14344029
243	0x3d12bdde	0.035825603
244	0xbc96b7ea	-0.018398244
245	0x3e5d35bd	0.21602531
246	0xbe04d0cc	-0.12970275
247	0xbe1459fe	-0.14487454
248	0x3d853a3f	0.0650525
249	0x3da61d3c	0.08111045
250	0xbe19ef56	-0.15032706
251	0x3e79782a	0.24362245
252	0x3e1aa356	0.1510137
253	0x3d1e9806	0.0387192
254	0xbe0efbb3	-0.13963203
255	0x3e24cd1a	0.16093865
